2022051810.pt (torch, 424079 bytes, 8 tensors)

encoder.0.weight f4 [64, 784]
00000000: 61df 6dbc acd2 f03c 90ec 9a3c bedd 973c
00000010: acf8 94bd 9909 03be 322c 29bf d089 f9be
00000020: 58c7 6d3d 88c4 9b3e bc70 153e e0dc 4abe
00000030: a32e fbbe 85e8 f4be b8e0 07bf 5042 28be
00000040: b67f 933e 5e47 153f 7ce6 213f 16b9 c63e
00000050: 8d1e 413d 6ce3 6d3e 19eb 5f3e 2300 c43b
00000060: 230f c1bc 4a5d e0bb 01e4 f7ba acb7 c1bc
00000070: e36c 8abc 4a3c f5ba 9cb8 323e 0588 e73c
00000080: 1bb8 763d e981 42bf b430 a3be 9ea1 443e
00000090: d56c 093f ccad f13e 6434 ee3e 8fdc a0be
000000a0: eed6 1ebf 254f 6ebf 6174 52bf e4db 03be
000000b0: 5415 583d 9808 0a3f 88e4 223f 8280 e53e
000000c0: 25cd 0f3f bab3 083e f5a2 c93e 55e8 4f3e
000000d0: 8180 003e 1c1a 19be 2545 caba 43f6 e1bc
000000e0: 25af 833c 251b 6d3c c2fe 84bc 7ca3 33bf
000000f0: 7fe3 8d3e f472 bdbe e867 27be b29a a1be
00000100: 7cc8 3d3e a527 703f 0a0d 143f 1af5 853d
00000110: 2aa4 efbe e6a1 1bbf 80a7 b4be 2e83 26be
00000120: 5f7e 053e 7515 a83e 217f c23e ba6a 873e
00000130: f330 003d 2497 1b3e 0a68 87be f662 ddbd
00000140: 2223 51be bdb0 30be 679f c93e c0e6 8bbc
00000150: d821 013d 92fc d73d 9f96 71b8 6784 29be
00000160: fa95 3abf aaca 75bf 15d2 81bf cffa fcbc
00000170: b076 e73e cf86 f13e 6422 a53e 126a cb3d
00000180: 5031 8fbe 8242 d0be f768 5cbe a604 e53b
00000190: 44ef 163e 247d 843e af42 863e cf32 6e3e
000001a0: 82c4 2e3e 6db2 4cbe ec27 83be c321 9fbe
000001b0: c4dc 64bd 63ef 193e 6c86 16bd dcf9 ca3e
000001c0: eea9 86bb 1399 28be 3d62 c0be 0831 c9be
000001d0: 738a 08bf f133 08bf 8189 1bbf fbab 4dbd
000001e0: 28ea 723e 08f0 8a3e 4cf2 4f3e 0cf7 74bd
000001f0: cd3c 45be 52b5 63be 65bd 18be cd41 bb3b
00000200: 71f9 063e 5df3 2f3e c3db cc3e 5a2c cd3c
00000210: 8707 6fbe 079d debe fdb8 b8be d567 d7bd
00000220: 6fd4 7cbd da6c 95bd d245 973e 9234 01bd
00000230: ea6f 60bc a5fb 3b3e 56a8 363e 7d16 4bbe
00000240: 0770 7cbe da62 babe 1fcb a7be 17b4 11be
00000250: 63ae 843d d3df 8d3c a81e 80bd 4061 203d
00000260: 98e3 143c fe6f 673c 69a0 903d b822 943d
00000270: 9c8e 073e 27fb 3d3e bc40 223e dba8 94bd
00000280: 6e1f e9be ece4 edbe 5497 b9be c595 84bd
00000290: 1db9 20bd ceec 08bd 965b 0dbd 1fc6 b13d
000002a0: 61d3 e63c 60d1 adbe 3bf7 52be 9984 78be
000002b0: 952e 1ebd 00c3 90be 5fc2 bbbd 49c8 1bbe
000002c0: 71c7 06be c557 abbb dede b53d 39f8 293d
000002d0: c626 263e 7553 753e fa7d 8b3e 06bf 5d3e
000002e0: 967e a73e fe92 463e 456a c5bd a4ce 1ebe
000002f0: db08 e8be 0021 dbbe d856 86be 0c90 e5bd
00000300: 5b0b 90bc 53b1 b5bd 1bd5 ccbc d487 2cbe
00000310: 3f66 1e3e 030c 993d b765 0e3e 1bf9 193e
00000320: ebed 1fbd 17a0 01be 4643 32be 8f72 5ebe
00000330: ee1c 66be 2b79 ecbc 9d45 e73d 8d23 c53d
00000340: 6efa 6f3e 7712 a33e 1157 6b3e c769 7b3e
00000350: 8ba0 9d3e b208 af3d 75b5 63be 5776 adbe
00000360: d7fc c7be 8464 95be e97e 29be 8540 aebc
00000370: 23c0 1bbd 3a55 da3b 3400 98be b08b 31be
00000380: 3658 52be 8dda 21be 34c3 1cbd 6a2c 813d
00000390: 6fa6 973d 754d 74be 6ffc a7bd 0f24 f1bd
000003a0: dedc 84bd 6cd8 a23d a32d f33d c4b3 063e
000003b0: 3395 253e 8b16 8c3e ad83 8a3e ed77 a03e
000003c0: 0c11 033e 18a2 25bd 41c6 82be 620d 6cbe
000003d0: 81a5 09be ccb8 d4bd d037 d7bd 36b9 24be
000003e0: 0b9a 33bd 8193 bd3c 5e74 aabd ea60 1c3e
000003f0: 069f 433e 21d8 993e 18b7 0dbe 9297 7e3e
-0.01451859 0.029397331 0.01891163 0.018538352 -0.07273993 -0.1279663 -0.6608306 -0.48737955
0.058051437 0.3042338 0.14593786 -0.1981082 -0.49059018 -0.47833648 -0.5307727 -0.16431546
0.28808373 0.5831202 0.63242316 0.38813084 0.047148276 0.23231286 0.21867026 0.0059814616
-0.023566788 -0.0068470584 -0.0018912555 -0.023647152 -0.016897624 -0.0018709984 0.17453235 0.028263101
0.06023417 -0.7597948 -0.31873095 0.19202277 0.5368169 0.4720291 0.46524346 -0.31418273
-0.62046707 -0.93089515 -0.8220883 -0.1287685 0.052754715 0.53919363 0.6362996 0.44824606
0.561724 0.1334981 0.3938214 0.20303471 0.1254902 -0.14951366 -0.0015431984 -0.027583247
0.016074726 0.014471804 -0.01623476 -0.7017133 0.27712628 -0.37001765 -0.16348231 -0.31563336
0.1853351 0.9381049 0.57832396 0.0654089 -0.46804935 -0.6079391 -0.35284042 -0.16260979
0.13036488 0.3282887 0.37987617 0.26448613 0.03129668 0.15194374 -0.26446563 -0.10809891
-0.20423558 -0.1725492 0.39379427 -0.017077804 0.031526417 0.10546221 -5.7599154e-05 -0.16554414
-0.72885096 -0.96012366 -1.0142237 -0.030881314 0.4520774 0.47173163 0.322528 0.09932341
-0.2796731 -0.4067574 -0.21524416 0.0069890795 0.1473971 0.25876725 0.2622275 0.2326157
0.1706715 -0.19989939 -0.25616395 -0.31080446 -0.0558746 0.15032725 -0.03674929 0.39643753
-0.0041096127 -0.16464643 -0.3757495 -0.3929522 -0.53336257 -0.53204256 -0.6075669 -0.05021284
0.23722136 0.27136254 0.20307273 -0.059805915 -0.19261475 -0.22237137 -0.14915998 0.005714631
0.13181092 0.1718268 0.40011415 0.025045563 -0.23342715 -0.43479177 -0.36078635 -0.10517851
-0.06172603 -0.072961524 0.29545456 -0.031544276 -0.013698557 0.18357714 0.17837653 -0.19832797
-0.2465211 -0.36403543 -0.32772157 -0.14228855 0.06478574 0.017318642 -0.06255847 0.039155245
0.009087466 0.014125822 0.07061846 0.072331846 0.13237995 0.18552838 0.15845007 -0.07258769
-0.4553179 -0.46463716 -0.36248267 -0.06473879 -0.039239038 -0.03342896 -0.03451117 0.08680367
0.028176965 -0.33948803 -0.20602123 -0.24269332 -0.038618643 -0.28273773 -0.09167933 -0.15213121
-0.13162018 -0.005228969 0.08880399 0.04149649 0.16225728 0.23957618 0.2724455 0.21654901
0.32713765 0.1939201 -0.0963941 -0.15508515 -0.45319256 -0.42798615 -0.26238132 -0.112091154
-0.01758354 -0.088717125 -0.02500396 -0.1684869 0.15468691 0.07472994 0.13905989 0.15036432
-0.039045256 -0.12658726 -0.17408475 -0.21723388 -0.22471973 -0.028866371 0.112925746 0.096259214
0.23435375 0.31850025 0.22982432 0.2455207 0.30786547 0.085465804 -0.22237189 -0.3387935
-0.3906009 -0.2917825 -0.16552319 -0.021271 -0.038025033 0.006662992 -0.29687655 -0.17338443
-0.20541462 -0.15806027 -0.038272098 0.063072994 0.074047916 -0.23857673 -0.08202445 -0.11774456
-0.064874396 0.079514354 0.11873939 0.13154513 0.16170196 0.2736095 0.27053586 0.31341496
0.12799472 -0.040437788 -0.2554188 -0.2305198 -0.13442041 -0.1038681 -0.10508692 -0.16086277
-0.04384808 0.023141624 -0.083229765 0.15271345 0.19103631 0.30047706 -0.13839376 0.24862507

encoder.0.bias f4 [64]
00000000: 4463 b03e 5c6d dbbd 2687 df3d 1353 3c3d
00000010: 3210 fb3e 53e1 a9be 96e6 6e3e 09e5 4b3e
00000020: 5273 a93e 944a 023e e89e 033f d59a 0b3f
00000030: c679 3d3f 9232 f73e 1d4b 063e 86b3 043f
00000040: c819 983e faba b33e 6d7a 823e b18e e7bd
00000050: 94ad 343f 6840 6e3e 51ff 023f de32 c2bd
00000060: 212e f43e 5d0f 213e b379 c5bc 7b82 9e3e
00000070: 1e8a a9bc 2410 423f ee75 a53d 9c22 af3e
00000080: d963 db3d 1a9f fe3d d5a8 763f 6d07 833e
00000090: 3740 4f3f 96a7 ba3e 8386 073f 6cdb abbb
000000a0: cdb8 7abd b2e7 2f3e cea9 373f 528b c73d
000000b0: 12ee bf3e 6c59 b63e c37b e83d d8c6 da3e
000000c0: 74bf 7f3e bc1a 3f3e 77fd 913d d3bc 8e3e
000000d0: ebba 323e 9781 b83e a16e e23d 663d 1f3f
000000e0: ea6f 793e 89bd 393d 8b6d d53e ecac db3e
000000f0: 4eac e4bd 3198 073f c924 d53e b001 9a3e
0.34450734 -0.10714218 0.109144494 0.045977663 0.49035794 -0.3317972 0.23330149 0.19911589
0.33095795 0.12723762 0.51414347 0.5453313 0.74013937 0.4828077 0.13114591 0.5183643
0.2970717 0.3510359 0.25484028 -0.11306513 0.7057736 0.23266757 0.5117083 -0.094823584
0.47691444 0.15728517 -0.024105882 0.30958924 -0.020695742 0.7580588 0.08079134 0.34206092
0.10712404 0.1243269 0.9635137 0.25591603 0.8095736 0.36455983 0.52939624 -0.005244663
-0.061211396 0.17178228 0.71743476 0.0974337 0.3748632 0.35615098 0.11351731 0.4272983
0.24975377 0.18662542 0.07128423 0.27878436 0.17454116 0.3603637 0.11056257 0.6220306
0.24359098 0.04534677 0.41685137 0.42905366 -0.11165677 0.529666 0.41629627 0.30079412

encoder.2.weight f4 [32, 64]
00000000: 406b 00be 0199 e3bd aa24 68bd d71e 00be
00000010: 19c1 36be 1b2e b73c 04c5 a2bd 6360 a33c
00000020: 8195 bc3a b0f7 2dbe e243 45bd 8d26 d1bc
00000030: da8f 13bd 629b 0ebe f0b7 f93a 971b 223c
00000040: 666f 843d 97c3 4f3d a784 bbbd 1403 843d
00000050: f7a4 1bbe 6a24 20be e2b1 d8bc 4f5f a3bd
00000060: f83c 083d c9e8 06be 38cc 0ebe 98ac 9abd
00000070: 4687 dcbd 93b7 c8bd c326 58bd 01c0 b0bd
00000080: df7c 3cbc 3d66 32be 3e20 1fbe d6ab d1bd
00000090: 9f3f 5fbd 4874 14be 87c6 27be cdb2 f5bd
000000a0: 2364 453d e61e 1cbd 55a4 613d 1cf8 3f3d
000000b0: 1d8a 0dbc be52 183d 0bfd 21be 6da7 d8bd
000000c0: 489a 3bbe 08ac 1d3d 074c 20bd a1c8 3cbd
000000d0: f2bb 1fbe 1bda a7bd af33 113d 54bd 10be
000000e0: 9b2a 0dbb 7769 28be 2dfd b13c 5d75 b5bc
000000f0: de5e 71bd c63d ac3c 2564 3ebd cf0e 38be
00000100: 2382 513d 1b71 4ebb 69be bbbd 9e6d 4cbd
00000110: e79c f63c 0116 0abc 4fc9 303d 9846 e1bc
00000120: 90d9 1f3d ccaa bfbd 3aa4 543d 9f1d c9bd
00000130: 8e6d b6bc 827c 32be 70d8 05be 2687 e03b
00000140: b3e7 30bd 6571 37bd e4c6 96bd 797a a7bd
00000150: 9b84 bebd 209c 1fbe ee5a 7d3d 20d8 58bc
00000160: e463 27be 1f64 e1bd c0f6 09be d6f5 bebd
00000170: 78af 363d 19f3 bbbd cc34 23be eb2b 35bd
00000180: 0be2 493b 9fa8 b5bd f446 36bc 10d3 aebd
00000190: fa69 febd ee8f 25be 7d6b 2ebe 722a 373b
000001a0: 8625 02be 5cb0 783b 5f35 053d 7549 3cbd
000001b0: d3a6 9abd a078 2abe 4473 a8bd 5d1c 3abe
000001c0: 32cd 0c3d 9c11 29be a91a 97bd 6e73 63bd
000001d0: 7f27 2abe a2d5 8abc 1036 39be 5e98 04be
000001e0: a895 b6bd f187 9d3c 7e1e f73b 220c 01be
000001f0: ab84 2fbe 78d0 ccbd 5929 0fbe 6abc ad3c
00000200: 6548 073b 2960 cd3d 0e61 e7bd d495 8dbc
00000210: bd77 da3b 5e95 043d e0b3 743d 8d8c 923d
00000220: 152c 003e d495 25bd 272e 8a3d c027 adbd
00000230: b39b 17bc 2db1 483c 6670 a73c e867 f93d
00000240: b4f1 263d cd82 9dbd bb24 6c3e c047 363e
00000250: 1c00 88bd fbdc b6bd 53c0 7abd 3d43 96bd
00000260: 730d 82bc fd70 d73c dabb 2e3c 716b d8bd
00000270: 1632 653d 44d3 c1bc 1ffb 4b3d 5036 9a3d
00000280: e91d ab3c c732 f43d a6a8 76bd eed2 113c
00000290: af31 773d 7031 433d 825c 863c 8c98 1f3d
000002a0: 1f6a 42be 3ec8 a63d db72 d9bd 8143 dc3d
000002b0: 63a7 eebd a598 98bc db5c 203e ad27 f6bc
000002c0: 9535 ea3d aa7c 15be 1643 06bc ae60 f53d
000002d0: 8448 303c f5dd b2bd 1dfc e43d 14e0 33bd
000002e0: 5a56 b13d 636c 91bd 2560 6d3d 2fe3 b7bb
000002f0: 615d d23d 9061 4f3c a62a 8abd d6b4 de3c
00000300: 41b3 90bd 74e9 03bd 4267 413d dde6 aa3d
00000310: b708 c5bc 7aab 23bb b911 9c3d 5ab5 6bbe
00000320: 554f da3e dfbf c23d 6dc8 8f39 7ee5 563e
00000330: 7df5 1fbe 0bcd 023c 5715 dc3d 73cb f3bd
00000340: 1c4f ffbd 9ec6 a23c 3566 473c 8cfb 07be
00000350: 9025 70be e0e5 39be bd64 68be d87e acbe
00000360: 0df3 ed3c 64e8 2b3d a3bc e1bc 7210 8e3c
00000370: 67c7 9f3d e14b 08bf 9954 033c 7c5d ce3d
00000380: 9d9a c3bd 48fd 2e3e 68ef 08bf 3062 4dbd
00000390: 0468 11bd c165 e43a 4c4f 36bd 1bf1 a53d
000003a0: f91a 1ebd 97b0 cf3d da18 513e 2bf4 a8bb
000003b0: ee9f a5be 9a1a 113e c53a e93d d098 3c3c
000003c0: 0cfc f13d d9f0 db3d 0243 71bd 986a 41be
000003d0: dfb7 1b3e e18a 3f3e f477 03bd 37ab 1cbc
000003e0: 6152 313e 3eb1 36bc 504e 77be 5922 e9bd
000003f0: a7b4 6cbc 199f f1bd 39a8 65be 754f 0d3d
-0.12540913 -0.111131676 -0.05667559 -0.12511764 -0.17847098 0.022360852 -0.07947734 0.019943422
0.0014387817 -0.16989017 -0.04816044 -0.025531078 -0.03602586 -0.13926461 0.001905201 0.009894273
0.0646656 0.05072364 -0.09156161 0.064458996 -0.15199648 -0.15638891 -0.026452009 -0.07977163
0.03326127 -0.13174738 -0.13945091 -0.07552451 -0.10767989 -0.09800639 -0.05277134 -0.08630372
-0.011504381 -0.17421813 -0.15539643 -0.10237853 -0.054504033 -0.14497483 -0.16384326 -0.11996994
0.0481912 -0.038115405 0.05508836 0.046867475 -0.008638886 0.037188284 -0.15819184 -0.10578809
-0.18320572 0.03849414 -0.039135005 -0.046089772 -0.15599039 -0.08195897 0.03544968 -0.14134723
-0.0021540287 -0.16446482 0.021727169 -0.02215069 -0.058928363 0.02102555 -0.046482224 -0.17974399
0.0511495 -0.0031500522 -0.09167177 -0.049909227 0.030104114 -0.008428098 0.043160733 -0.027499482
0.039025843 -0.09358749 0.05191443 -0.09820103 -0.022269037 -0.17430308 -0.13070846 0.0068520484
-0.043189716 -0.044785876 -0.07362154 -0.08177657 -0.09302636 -0.155869 0.061854295 -0.013235122
-0.16346699 -0.11005425 -0.13473034 -0.09324233 0.044600934 -0.091772266 -0.15938109 -0.044231337
0.0030804898 -0.088700525 -0.011125315 -0.08536351 -0.12422557 -0.16168186 -0.17033191 0.0027948883
-0.12709627 0.0037946915 0.0325216 -0.04596849 -0.075513504 -0.16647577 -0.0822511 -0.18174882
0.034375377 -0.16510624 -0.07378132 -0.055530004 -0.16616629 -0.016947571 -0.1808703 -0.12948748
-0.089152634 0.019229861 0.0075414767 -0.12602285 -0.17140453 -0.100007 -0.13980617 0.021208007
0.0020642516 0.10028107 -0.112978086 -0.017283358 0.006667106 0.03236901 0.059741855 0.07155714
0.12516816 -0.04042609 0.06747084 -0.08454847 -0.00925343 0.012249273 0.020439338 0.12178022
0.04075785 -0.07690964 0.23060887 0.17800808 -0.06640646 -0.089288674 -0.06121857 -0.073370434
-0.015875554 0.026298994 0.0106649045 -0.10567368 0.05595597 -0.02366031 0.049800035 0.075298905
0.020888286 0.119237475 -0.06021943 0.008900387 0.060350116 0.04765457 0.016401533 0.03896384
-0.18985794 0.08143662 -0.1061761 0.10755063 -0.1165302 -0.018627474 0.15660422 -0.030048216
0.11436001 -0.14598337 -0.0081947055 0.11981331 0.010759477 -0.08733741 0.11180899 -0.04391487
0.086590484 -0.07100751 0.05795302 -0.005611799 0.10271717 0.012657538 -0.06746416 0.027185839
-0.0706544 -0.03220506 0.047217615 0.08344815 -0.024052007 -0.0024974034 0.07620568 -0.23018399
0.4263865 0.09509253 0.00027424414 0.20985982 -0.1562099 0.007983456 0.10746258 -0.11904039
-0.12466261 0.019870099 0.012170364 -0.13279551 -0.23451829 -0.18154097 -0.22694679 -0.33690524
0.02904656 0.04196967 -0.02755577 0.017341826 0.07801705 -0.5324078 0.008015775 0.100764245
-0.095509745 0.17088807 -0.53490305 -0.050142467 -0.035499588 0.0017425345 -0.044509217 0.08102628
-0.038599942 0.10141104 0.20419636 -0.00515606 -0.3234858 0.14170304 0.113881625 0.011511043
0.11815652 0.107392974 -0.058901794 -0.18888319 0.1520686 0.18705322 -0.032096818 -0.009562305
0.17316581 -0.011150656 -0.24150968 -0.113835044 -0.014447368 -0.117979236 -0.22427453 0.034499604

encoder.2.bias f4 [32]
00000000: 24b0 93bd 64a2 cd39 0a99 373e ee16 1b3e
00000010: 5d2f 6b3e 6b12 cc3c 57e7 8abd 6e91 15be
00000020: 7e78 a7bd 5a3f 0cbe 364e 993d 8551 803e
00000030: 5fd6 85bd 96e0 a43d 6cc1 ff3d fb4a d93b
00000040: df56 21be 10b1 3a3d 4be9 513e 9759 743e
00000050: ad64 453a 7362 ccbd 0886 f73d 42ae 6bbd
00000060: 9094 3f3e 56b7 6abe 9096 ae3e cb17 8d3e
00000070: 364f 253d c0fc 033e e5ef d53d 23cd 613e
-0.072113305 0.00039221637 0.17929474 0.15145466 0.22967286 0.024911126 -0.06782406 -0.14606258
-0.08177279 -0.13696042 0.07485621 0.25062194 -0.06535029 0.08050649 0.12488064 0.006631253
-0.15755795 0.045579016 0.2049915 0.23862301 0.00075299555 -0.09979715 0.12086111 -0.057539232
0.18709016 -0.229215 0.34099245 0.27557215 0.040358745 0.12889385 0.10446147 0.2205091

decoder.0.weight f4 [64, 32]
00000000: 4ebe 5ebd 1426 06bd a060 a5bd f3c6 853b
00000010: 3229 a3bd 92e0 1cbc 0c1f df3d c87f 9d3d
00000020: 6a5e 203e 8860 28be 1bad 273e bd25 31be
00000030: 2c01 f2bd ce1d 1abe 5693 2bbe c31d 32be
00000040: b2fd 1bbe 614e 97bd 5bcc 823d 2244 16bd
00000050: d4c3 973d 438e e5bd 4594 7dbd 8646 1ebe
00000060: ca98 5d3d d8cb 223e 656e 2b3e be6d e8bd
00000070: 0fd0 153c 50c7 01be ae11 863d 1902 ecbd
00000080: d0a8 f7bd 22bf 88bd f663 c5bd 1c11 7a3e
00000090: 2736 c43c a50e 1e3e 386c 8fbd f232 183e
000000a0: 2179 f43d 3198 e8bd 6144 17be 6565 023e
000000b0: fb80 443e 5fc6 b6be be4c d3bd 26cd 993d
000000c0: 724c 1bbe 400c 193e a673 21be 3ff2 af3e
000000d0: 3215 a2bd f39a 973c e2ad 203e 051a 99bc
000000e0: 5479 6dbe 0a51 ecbd 259b 06bc e45d 2ebe
000000f0: dbc3 cebc 25f8 dabd 5ba2 98bb 589f f93d
00000100: de3d c43d 5d0a e7bc f4a8 a23d 4b0e 0c3b
00000110: 0bc6 583c 200f 313e 247c a83d 6fec 0b3e
00000120: 95e8 03be 52b0 55bb f512 65be 87f9 2ebe
00000130: 225b 8d3d 2dd6 acbe 69a8 ab3d 2124 1fbe
00000140: 9980 d8bd a29c c43d bd49 2e3d 88aa 503d
00000150: c8ec c3bd 0f17 193e c8fc 9bbe 43dd 263e
00000160: d45a e9bc cf88 d33d a4a9 ae3e 6562 bc3d
00000170: 3072 aebd efba a83a 668d a2bd bf2d 9e3e
00000180: 6ac3 bfbd 673c 8b3d 3401 babb e7d9 72be
00000190: 4368 efbd fcfa 0abe 4b7c 3bbe 9b4c f33d
000001a0: 16b7 2d3e 2460 e63d 15ba 4d3d 3d68 e7bd
000001b0: e429 22be 36c6 21be 8cfe d6bd 8d9e 893d
000001c0: 4588 a93c d485 c0bd 43c1 22be 6fa9 df3c
000001d0: e75d 51bd e838 b3bd dffd 3a3e 5bba 6abe
000001e0: f1d3 563d f624 c8bc 7b70 373e 4605 643d
000001f0: fdbd 2f3e ac5c 70be f41c e4bd 7046 1dbd
00000200: 45f1 d5bd cbe4 88be 7b74 edbd 354c 17be
00000210: 4bea 48be 73eb a9bd 21fe 6fbe ca9a b73d
00000220: db7d d83c 91ec 0f3e 0402 cbbc 7f5d a2bd
00000230: 0916 20be 7a38 64be 10d8 e93c 39fb 5abe
00000240: 35ef a33d 8877 46be 94e4 4fbe 1641 0dbe
00000250: cc46 8d3d 3673 31be c301 adbd f06b 5dbd
00000260: e477 03be 8fb8 7abd e499 8d3d 5c68 603e
00000270: ad18 6a3e f170 4cbe dc1b d0bd 1321 84bd
00000280: 0139 a5ba d355 f6bd a511 5dbb 10a4 99bc
00000290: 9b4e babd e84a 4fbd a265 f93d b6eb bbbd
000002a0: c24b c83d d14d 913d dc1a 823d 8217 833d
000002b0: ad3e 273d f157 b6bd 1b01 16be d46e 11be
000002c0: 3b68 0bbd 510b 02bd 34fd 843d 4287 97bc
000002d0: b39e 2dbe 889c d3bd f601 0c3d 540f 0d3e
000002e0: e484 c43d 3a6c f13d 8b8a f3bd 2554 a4bd
000002f0: 51b8 0c3e b419 23bd 1328 26be d2dd ffbd
00000300: 38cd cf3c 3df4 26be ed85 9dbc 04b3 56be
00000310: 2759 b03a b0eb 51be 3fdc 4a3d 3fe5 57be
00000320: 9e6f c23d 4d9c 393e 772f abbe a253 a5bd
00000330: 20eb 64be d5ba 6cbe df62 3c3e 61d7 943d
00000340: 0fa6 e8bd 3d4c 653d 867d cc3d 685d 823e
00000350: 6c00 ffbd 0e87 6cbd c149 a3bc e67c f53d
00000360: c81a e03d 3a2f 053e 6f7d b03d b0b8 b43d
00000370: dc7a ec3a 05ef 98be 4260 563e e4ec 30bd
00000380: 33b4 78bd 95a8 d0bd ef15 b33d 2053 e3bd
00000390: 21cd 08be aa2b 193e 27b2 e53d 5def 03be
000003a0: be0e 24bd 5c8d 7cbd 8ee0 733e 4420 26be
000003b0: 8968 04bd 79c5 72be db21 ea3d 776a febd
000003c0: 3baa a33d 6394 203e 3f19 333e 01d4 a3bd
000003d0: 84d7 043e 7923 e7bd e28d 493b 7ca1 043d
000003e0: ae8f 1cbe c1e3 f6bc d201 8ebd 6c13 50bd
000003f0: 7518 33be 3b36 04be 58ab 99bd e6b4 bd3e
-0.054380707 -0.032751158 -0.080750704 0.0040825545 -0.07966842 -0.009575026 0.108945936 0.07690388
0.15661016 -0.16443074 0.16374628 -0.17299552 -0.1181663 -0.15050432 -0.16755423 -0.17394166
-0.15233496 -0.073879965 0.06386634 -0.03668607 0.07410398 -0.11208775 -0.06190898 -0.1545659
0.05410079 0.15898073 0.16741331 -0.11349057 0.009143843 -0.12673688 0.06546341 -0.115238376
-0.12092745 -0.06677081 -0.09638207 0.24420589 0.023951603 0.15435274 -0.07003063 0.14863184
0.11937166 -0.11357153 -0.14772178 0.12733991 0.19189827 -0.3569822 -0.10317372 0.07509832
-0.1516588 0.14946079 -0.15766773 0.34364507 -0.07914199 0.018506503 0.15691331 -0.018689165
-0.23190814 -0.115388945 -0.0082157 -0.17028004 -0.025239876 -0.10691861 -0.004658026 0.121885955
0.09582113 -0.028203184 0.079423815 0.0021370824 0.013230811 0.17290926 0.08226803 0.13664411
-0.12881692 -0.0032606316 -0.22370513 -0.17087375 0.06902148 -0.33757153 0.08381731 -0.15541126
-0.10571403 0.09600188 0.04255079 0.05094388 -0.09566647 0.14950202 -0.30466294 0.16295342
-0.028485693 0.103288285 0.341138 0.09198455 -0.08517873 0.0012873093 -0.07937126 0.30894276
-0.09363444 0.0679863 -0.005676413 -0.23715936 -0.11689808 -0.13572305 -0.18309133 0.11879846
0.16964373 0.11248806 0.05022629 -0.11299179 -0.15836293 -0.15798268 -0.1049777 0.06719694
0.020694861 -0.09400526 -0.15894036 0.027302472 -0.051114943 -0.087510884 0.18260907 -0.22922651
0.052448217 -0.024431687 0.17914002 0.05566909 0.17162319 -0.23472852 -0.11138335 -0.038397253
-0.10446409 -0.26737055 -0.115944825 -0.14775164 -0.19620626 -0.082968615 -0.23436786 0.089650705
0.0264272 0.14055087 -0.024781235 -0.07927989 -0.15633406 -0.22287169 0.02854541 -0.21384896
0.080046095 -0.19381535 -0.2030204 -0.1379436 0.06898269 -0.17329106 -0.08447602 -0.054058015
-0.12838703 -0.061211165 0.06914118 0.2191481 0.22860976 -0.19964959 -0.10161564 -0.06451621
-0.001260549 -0.120280884 -0.003373244 -0.018754989 -0.09097024 -0.050608546 0.12177588 -0.09175818
0.09780075 0.070949204 0.06352779 0.06400968 0.040831257 -0.08903492 -0.14648859 -0.14202434
-0.03403495 -0.031749073 0.06493607 -0.018497113 -0.1695507 -0.1033259 0.034181558 0.13775378
0.095956594 0.11788221 -0.11891659 -0.08023862 0.13742186 -0.039819434 -0.16226225 -0.12493481
0.02536641 -0.16304107 -0.0192289 -0.20966727 0.0013454304 -0.20500064 0.04952645 -0.21083544
0.094939455 0.1812603 -0.3343465 -0.08072592 -0.22355318 -0.23118146 0.18397091 0.07267643
-0.11359798 0.05598091 0.09984879 0.25461888 -0.12451252 -0.057745986 -0.01993263 0.11986713
0.10942608 0.13006297 0.086176746 0.08824289 0.0018041986 -0.29869857 0.20935157 -0.043194667
-0.060718726 -0.101884045 0.08744418 -0.11099839 -0.133595 0.14958063 0.112156205 -0.12884279
-0.04005312 -0.06165825 0.2381613 -0.16223246 -0.032326255 -0.23708142 0.11432239 -0.1242265
0.07991453 0.15681605 0.174901 -0.07999421 0.12972838 -0.11286063 0.0030754735 0.032380566
-0.15289184 -0.030137898 -0.06933941 -0.050799772 -0.17489798 -0.12911312 -0.07503384 0.37052077

decoder.0.bias f4 [64]
00000000: 4a7c 473d 1c71 26bb bb4e 8f3d f24d ecbd
00000010: 6874 873a a9f3 be3c b8a5 933d c624 e13d
00000020: 97a1 2a3e e9d7 f0bd 3873 183c 33a2 33bc
00000030: 4225 c3bc 121d 21be 0f3f e9bb 3009 5dbe
00000040: 6afb f5bd 9868 99bb db96 4ebe 710a aabd
00000050: 6c7a f23b 9028 083d b13a 213e 436f 04bd
00000060: 37d6 45be 6aef 55be 26d7 2cbe 060e bcbe
00000070: 22c5 1fbe 5c10 4f3e d2ba 6dbd 432b 80be
00000080: e607 fdbd 843d 573d 04c4 d0bd 4a46 083e
00000090: f023 563d 63c3 37be 2cf1 723d a717 c8bd
000000a0: ce8b 5ebe 5f5e 693d 9f5e 613c 4370 bc3d
000000b0: 4beb 343e bde1 06be 207e 683d 33e9 8d3d
000000c0: be04 3fbe 71d9 f2bd 3966 fe3d 613d 95bd
000000d0: 7b65 42be 43d1 a03d 7dd5 c8bd 8c84 843d
000000e0: e4d3 17be e634 183e 041e 3fbd 0616 51be
000000f0: 4935 4a3e 5c68 e93d 6e4c f53d 348d 0d3e
0.048702516 -0.0025397008 0.069974385 -0.115383044 0.0010334374 0.023309546 0.07209343 0.10993342
0.16663204 -0.117599316 0.009304814 -0.010963964 -0.023821477 -0.15733746 -0.007118113 -0.21585536
-0.12010844 -0.004681658 -0.20174734 -0.08302773 0.0073998477 0.03324181 0.15745045 -0.03233267
-0.19319998 -0.2089211 -0.16878948 -0.3672945 -0.15602544 0.20221084 -0.058039494 -0.25033006
-0.12355022 0.0525489 -0.10193637 0.13308063 0.052280366 -0.17945628 0.05931203 -0.09770136
-0.21733019 0.056974765 0.01375547 0.092011 0.17667882 -0.1317205 0.056760907 0.06929245
-0.18654153 -0.1185788 0.12421841 -0.07287098 -0.18984024 0.078524135 -0.09806345 0.06470594
-0.14826924 0.14863929 -0.046659485 -0.20418558 0.19746889 0.11396858 0.119774684 0.13823396

decoder.2.weight f4 [784, 64]
00000000: e0bf f63d ded7 92bd 080c e43c acff 7fbd
00000010: 5a60 9dbd 202a f9bc 70b1 403d b2a4 8cbd
00000020: 28b7 b83b 127f 80bd 0077 1ebe 9014 99bd
00000030: f1c1 dabb 1f2e 853c 0f2d 213d 2acd d9bd
00000040: 56b5 b4ba a6e4 edbd 944f 00bd c752 dfbd
00000050: a8c8 41bd a023 0fbe d7b2 98bd 3f2d cebd
00000060: 1084 603d 90b3 1bbc 4ac1 1abe 3643 923d
00000070: 70c8 023c dcda 9dbc 4e44 abbd a4bf 9ebd
00000080: 0009 173c 3847 21bd ca2c d0bd 8751 09be
00000090: f3f1 28be 4ce8 31bc 8450 19be c6bf 0ebe
000000a0: 468d d5bd 338d fbbd 0ad9 98bd 9888 a23d
000000b0: d27c 30bd b8bf 21be e04a 97bb 9899 d03c
000000c0: 10af b7bc fde2 c7bd 2222 40be 6a0d 59bd
000000d0: 6c5f 55bd a4bc 23bd a812 aa3c fcb5 de3d
000000e0: 24d0 19bd 42e2 93bc 84b8 0d3d e6d0 a6bd
000000f0: 6e8d 9b3d de51 2abd 00f8 29be 760d 9cbd
00000100: d49a 8e3d 1613 623c c009 a9bd 5cf3 a83d
00000110: c8fc fdbd a4a3 73bd 0438 35bd c209 abbc
00000120: 2f1a 42be 7452 243c fcc4 9dbc c989 30bd
00000130: b619 44bd 5ffd 4ebe 4201 dfbc 003c 7239
00000140: dcf5 44be d0f4 f63c 0081 08bd 827f 0ebe
00000150: 4c0b 7cbd 5642 b9bd a323 53bd cfef debc
00000160: d635 8dbd 40e4 20bc 96d7 413d deae 93bd
00000170: 44eb 133d 900e b5bc e781 d73c 8032 a23d
00000180: fe6a 803c a488 71bd 5210 f6bd 95b3 87bc
00000190: eb20 feba a006 05bd 3be4 a9bd 09a1 0dbe
000001a0: 78f3 90bd e226 283d a6c6 83bd 48e1 0f3d
000001b0: 9463 1dbd 3c2b 383c 4ad9 b03d 35a2 15bd
000001c0: 40f2 37bb 7342 18bd 305c 1bbe e7a6 2fbd
000001d0: e0e6 eb3b 008b 11be 92c4 b3bc 9748 31be
000001e0: 71be 2fbe 12db 50bd d118 453b 893d 0fbd
000001f0: e8ce 473c bdbf 3dbd 0145 66bd 7e8a 09be
00000200: e453 e23d 144e 74be 9cce d9bd 1423 e03d
00000210: 10e5 77bd 84c2 06bd 8c54 ac3d 61a4 323c
00000220: bd91 2abe cdeb b7bd 0885 883d e804 abbc
00000230: 2614 33bd ca46 a0bd 3415 86bc f86f 8e3c
00000240: d3fc 063d 9878 233d 6020 853b f21a 5dbd
00000250: cc0e adbd 2ac3 2fbe a8f9 82bd a048 32bc
00000260: 88ea 843d 5816 cbbc 9a65 83bd a0b5 38bc
00000270: bac0 94bd e811 75bc 9caf 0bbe 384d 84bd
00000280: 3ca5 a83d c8a3 563d 147c 33bd e824 16be
00000290: 8127 01be 585a 96bc 6846 42be 0e35 9c3d
000002a0: e098 6f3d 9194 dfbd 0071 f33c 7eb1 c9bd
000002b0: fca2 e4bc ce7a 0c3d 348b b73d 0007 96ba
000002c0: e93c 193d e47d 983d fead 0cbe 61d6 debd
000002d0: 1087 4dbd 34ba af3d 308f 973c 2885 d6bc
000002e0: e053 7f3d 1184 1abe eec6 bcbd 8a65 e63d
000002f0: 15c2 86bd 860a 0abe c213 35be cc78 98bd
00000300: b891 f4bc 8065 19bb 0f0f fcbb 0897 ef3d
00000310: 1cba f9bd 1a65 bf3d 94ac 563d 3d5c edbd
00000320: 1171 32be 700d 44be 70c7 46bd fe3d 5dbb
00000330: c5ac 0cbe a0b7 cb3b 63c3 173d 3a96 a8bd
00000340: 570b d7bd 02b5 cfbd 94eb 40be 8a98 d9bc
00000350: fc0e 7f3d d925 3b3d f8a2 48bd 64d5 0b3d
00000360: 40b9 27bc 28cb 04bd ae3c 07be ce65 cb3d
00000370: 3aaf b43d 4cda 26be 146d 4e3d 40e5 ab3b
00000380: 5217 fc3d e67c c3bd c8f9 973d a97a c43c
00000390: 422a b7bd a041 753d a826 46be 8251 f7bd
000003a0: d020 423d 1d65 f9bd bcd2 e93d 400d d4bd
000003b0: 0552 d6bb 4bd0 89bd 4aeb d9bd 9879 90bd
000003c0: 7ed9 8a3d 016c f2bc fd73 3d3d d81b ec3c
000003d0: c6bd f53d 3f9f e9bb fb72 a1bd 3bdb 09bd
000003e0: 0318 0fbe 52fd 99bd 0744 2bbe 84ca aebd
000003f0: fcd8 e5bd 6baf 0cbe 4162 4a3c 14e3 7cbd
0.12048316 -0.0717008 0.027837768 -0.062499687 -0.07684393 -0.030415595 0.047044218 -0.06867351
0.0056370683 -0.06274237 -0.15475082 -0.07474625 -0.0066759516 0.016257344 0.03934961 -0.10634835
-0.0013786952 -0.11615877 -0.03132589 -0.109044604 -0.0473105 -0.13978434 -0.07455986 -0.10067224
0.054813445 -0.00950326 -0.15112796 0.07141726 0.007982358 -0.0192694 -0.083626375 -0.07751396
0.009218454 -0.03937456 -0.10164793 -0.13410006 -0.16498546 -0.010858607 -0.1497212 -0.13940343
-0.104273364 -0.12282791 -0.07463272 0.079362094 -0.043087788 -0.15795791 -0.00461708 0.025463864
-0.022422343 -0.097600915 -0.1876302 -0.05299131 -0.052092955 -0.039974824 0.02076085 0.108745545
-0.037552014 -0.018052224 0.034599796 -0.08145313 0.07595335 -0.04158198 -0.1659851 -0.07619755
0.06963125 0.013798496 -0.08253813 0.08249542 -0.1240173 -0.05948223 -0.044242874 -0.020878676
-0.18955301 0.010029424 -0.019258969 -0.043100152 -0.047876082 -0.20213841 -0.02722228 0.0002310127
-0.19234413 0.030146033 -0.03332615 -0.13915828 -0.06153421 -0.09045856 -0.051547658 -0.027213959
-0.06895034 -0.009820044 0.04732474 -0.07211088 0.03611304 -0.02210167 0.02630706 0.07919788
0.015676018 -0.0589682 -0.120148316 -0.016565124 -0.0019388472 -0.03247702 -0.08295485 -0.13830961
-0.07077688 0.041052707 -0.064343736 0.035126954 -0.038425043 0.011240777 0.086351946 -0.036531646
-0.0028067976 -0.037172746 -0.15171885 -0.04288378 0.0071991533 -0.1421318 -0.021944318 -0.17312847
-0.17162491 -0.05099017 0.0030074606 -0.034970794 0.012195326 -0.046325434 -0.05621815 -0.13431737
0.11051157 -0.2385791 -0.10635111 0.109441906 -0.060521185 -0.03290035 0.084145635 0.010903449
-0.16657157 -0.08980522 0.06665999 -0.020876363 -0.043720387 -0.07826002 -0.016367532 0.017387375
0.032955956 0.03990993 0.0040626973 -0.053980775 -0.08450088 -0.17164293 -0.063952744 -0.010881573
0.06490046 -0.024790928 -0.06415863 -0.0112737715 -0.07263322 -0.014957882 -0.13641208 -0.06460041
0.08234641 0.052402288 -0.043819502 -0.14662516 -0.12612726 -0.018353626 -0.1897217 0.07627307
0.058495402 -0.10917009 0.029716969 -0.09848307 -0.027909748 0.034296803 0.08962098 -0.0011446178
0.037411604 0.07445887 -0.13738248 -0.10880733 -0.050177634 0.08580437 0.018500894 -0.02618654
0.06233585 -0.15089442 -0.0921763 0.11249836 -0.06579987 -0.13480577 -0.17683318 -0.07444915
-0.02985464 -0.0023406446 -0.007692225 0.11698729 -0.12193701 0.093454555 0.052410677 -0.11589859
-0.17425944 -0.19145751 -0.048530042 -0.0033758874 -0.13737781 0.006216958 0.03705157 -0.082317784
-0.1050021 -0.101419464 -0.18839866 -0.026561994 0.06227015 0.04569039 -0.048983544 0.034139052
-0.010237038 -0.032420307 -0.13206741 0.09931527 0.08822484 -0.16294211 0.050396994 0.0052458346
0.123091355 -0.09545307 0.07420689 0.02398427 -0.08943607 0.059877038 -0.19350684 -0.12076093
0.047394574 -0.12177489 0.114171475 -0.1035409 -0.006540539 -0.06729182 -0.10640581 -0.07054442
0.067797646 -0.029592516 0.046253193 0.02882187 0.11999087 -0.0071295793 -0.07883259 -0.03365634
-0.13974003 -0.0751902 -0.16725169 -0.085347205 -0.11223027 -0.13738792 0.012352527 -0.061739996

decoder.2.bias f4 [784]
00000000: 913e 423c 08d4 b3bc 8943 513c d6d7 bfbd
00000010: ab27 13be 6432 29bd 75b5 1fbe 1c69 8dbc
00000020: d9cf 9cbd d37a 21be 45e8 aabd a922 0fbe
00000030: 881f 2dbe 6da9 03bd b8e0 3fbe f7bd 0abe
00000040: 415d 23be d06d de3c c018 b03c 4df2 e3bc
00000050: c077 0bbd 8dcc 24be 2c48 1fbd 3e0a 1dbe
00000060: 444c 81bd d9d8 f23c 2645 b6bd 704e 38be
00000070: 9daa 0bbe 2b3f 6fbd f959 42bb 4d6e 42be
00000080: 0a7f 08bd 7a93 89bd e884 60bb 4e60 9cbd
00000090: 3b28 1abe fbcf 74bd 4bfc 36be 4731 d53b
000000a0: 8811 fcbb 12ef 643b 4cf3 ca3c 2f02 bebd
000000b0: c39c b1bb b60c e8bd af97 24be 9a4c 85bd
000000c0: 29bb 16be 1c92 4cbd feeb 32be 9ca4 76bc
000000d0: b5a3 e4bd 9bbb 97bd a183 c83c a01a f93c
000000e0: 1481 f8bd 09df a7bd 8633 d1bd dd3f 60bd
000000f0: 4d1b 17bd be4d c9bd 7587 a8bd c607 6dbe
00000100: a385 8abc 7c6d f5bd 9d44 973c ba2e d8bd
00000110: 2cb6 24be 6efc 50bd 1ac0 34be 37ee 863d
00000120: a179 f4bc 6ad5 b1bd ef06 10bd 8e69 c5bd
00000130: d8f5 66bd e954 e4bc 8a91 383c 4ef7 afbd
00000140: a981 09be c5eb bfbd 1db9 83bc 6c62 babc
00000150: 9762 9dbd cd0d dfbd edbb 35bd b706 d6bd
00000160: 35e1 50bc b07b 33bd 1e63 f9bd a118 d4bd
00000170: 0451 01be a6c0 2fbd ef67 b8bd fd84 9bbd
00000180: 953a 173d b1b9 2abe a2b8 04be 27de 843d
00000190: 7b06 81bd fbaa 43bd 3881 a1ba 4068 6ebe
000001a0: a3de 19be 89e5 22be 457a 2dbe ce0e 88bd
000001b0: c2ba 483d fdd9 dabd 2cdf 84bd 6629 a4bd
000001c0: 6bad 1bbe ffb7 2cbd 5717 6fbc 94a2 0fbe
000001d0: 2480 0ebd fa1e 623d 1e25 a6bd 4773 50bd
000001e0: c832 a1bd 052a 24be f3f2 37be 0ac2 09be
000001f0: 99f2 debd 86cc ef3d 8f50 7b3d 25dd 95bc
00000200: 0483 933c 938c 3dbd 968f f7bd 9f3f 16be
00000210: 4dc0 4cbd d62b 29be 8994 8fbd 24cf e4bd
00000220: 02e9 203a db66 36be 0290 c2bd 0026 b3bd
00000230: 015d 00be 9577 febd 65d9 d0bb a012 e6bd
00000240: 19d8 cfbd bbd7 35be 8860 603c b186 d3bd
00000250: 796e bc3c 40ac bb3d 7424 343d e627 333e
00000260: c697 713e 0348 363e d9e0 9a3d 3180 3bbe
00000270: 049a f8bd d706 dfbc 3757 a7be 6b2d 5cbe
00000280: 007a 08be 517d d8bd 15fc e9bc ceb3 efbc
00000290: 52b9 cfbc 02e1 1fbd d92b 3dbe ccad dabd
000002a0: c7f4 263d 049d b4bd 5de1 adbd f32c b7bd
000002b0: 269c d0bd 38d3 89bd cb58 12be e0ba 88bb
000002c0: af74 bebd ac9a 7a39 c70f 1a3e 7bf7 ed3d
000002d0: 9455 f83d ee5d 243e d00a 073d ef6d fd3d
000002e0: c28d 0c3c 27cf acbc 3695 0cbe 99a5 0ebe
000002f0: 21ef 7ebe 6922 c8bd 5346 98ba 5ebc afbd
00000300: 013e 96bc 1c37 19be ac94 e0bd 61a7 0dbe
00000310: 731c 00be 10f0 c7bb 1fb7 8139 5beb 04be
00000320: 884a 1abe 4051 d4bd 755b 13bd be84 4cbd
00000330: 92df 01bd 4c59 173d 2498 823c e797 2c3d
00000340: a42f 213e 483f 41bc 9d7d 3a3d decd d4bb
00000350: a682 08be 93f9 94bc ccae f2bd 0193 63be
00000360: 8e70 34be fc6f 42be 54b5 26be abab fbbd
00000370: c3a0 12be 12af 4cbb 8498 10be df52 16be
00000380: 2214 d3bd f30f e93c 529d debd 3292 66bd
00000390: b366 46bc de14 dfbd 9598 a4bd f4e5 3ebd
000003a0: f217 b63d b14f 783d 2688 c43d c0af d6bc
000003b0: e01b 453d 00ed b6bc 80a4 5dbd 25bc 12bc
000003c0: 81ae 8fbd 1e44 d7bc cdb6 48bd 5979 12be
000003d0: bc6d 0dbe 1c9d 46be d204 0ebe 8d2d 15be
000003e0: ef95 14be 61ca bebd f324 27be 56b6 033d
000003f0: ab88 323c 8484 2cbe eb8e d9bd 30f3 4dbd
0.011855737 -0.02195169 0.012772449 -0.09367339 -0.14370601 -0.041307822 -0.15596564 -0.017262034
-0.07656831 -0.1576951 -0.08345083 -0.13978066 -0.1690656 -0.032144 -0.18738067 -0.13549028
-0.15953542 0.027151972 0.021496177 -0.027825499 -0.03404975 -0.16093655 -0.038887188 -0.15335938
-0.06313375 0.029644417 -0.08899908 -0.17998672 -0.13639303 -0.05840985 -0.0029655679 -0.18987389
-0.03332428 -0.06717582 -0.0034258906 -0.07635556 -0.15054409 -0.059768658 -0.1786968 0.0065061185
-0.0076925196 0.0034932536 0.024774216 -0.0927776 -0.005420299 -0.113305494 -0.16073488 -0.06508751
-0.14719833 -0.04994403 -0.17472836 -0.015053894 -0.11164037 -0.0740883 0.024476828 0.030408204
-0.12133995 -0.081968375 -0.102149054 -0.054748405 -0.03689127 -0.09829281 -0.082289614 -0.23147497
-0.016909426 -0.11983773 0.018465335 -0.105557874 -0.16085118 -0.051021986 -0.17651406 0.065884046
-0.029843153 -0.086832836 -0.035162862 -0.096392736 -0.0563868 -0.02787252 0.011265168 -0.085920915
-0.13428368 -0.09371141 -0.01607948 -0.02275201 -0.0768482 -0.10891304 -0.044368673 -0.104504995
-0.012749006 -0.04381913 -0.12177108 -0.1035626 -0.12628561 -0.042908333 -0.09004199 -0.07593725
0.036921103 -0.16672398 -0.12961057 0.06487685 -0.06300064 -0.04777048 -0.0012321835 -0.23281956
-0.15026335 -0.15907873 -0.16941173 -0.06643449 0.04900623 -0.10686109 -0.06487879 -0.080157086
-0.15202872 -0.04216766 -0.014592967 -0.14026862 -0.034790173 0.055205323 -0.08112548 -0.050891187
-0.07871014 -0.16031654 -0.17963772 -0.13452926 -0.108861156 0.117089316 0.061356124 -0.018293926
0.018006809 -0.04627664 -0.12087934 -0.14672707 -0.04998808 -0.16520628 -0.07010753 -0.111723214
0.00061382365 -0.17812674 -0.095001236 -0.08747482 -0.12535478 -0.12425152 -0.0063735717 -0.11234021
-0.10148639 -0.17758076 0.01369489 -0.10328425 0.023001896 0.091637135 0.043980077 0.17495689
0.23593053 0.17800908 0.075624175 -0.1831062 -0.12138751 -0.027224941 -0.32683727 -0.215017
-0.1332779 -0.10570777 -0.028562585 -0.029260542 -0.025356922 -0.039032944 -0.18473758 -0.106776804
0.04076078 -0.08819011 -0.0849025 -0.0894412 -0.10186033 -0.0672974 -0.14291684 -0.004172668
-0.092995994 0.00023899478 0.15045081 0.11619469 0.12125698 0.16051456 0.032969296 0.12374484
0.00857872 -0.021094872 -0.13728794 -0.13930358 -0.24895908 -0.09772188 -0.0011617638 -0.0858085
-0.018340113 -0.14962429 -0.10965857 -0.13833381 -0.12510853 -0.0061016157 0.00024741233 -0.12980406
-0.15067494 -0.1036706 -0.035975892 -0.04993128 -0.031707354 0.036950395 0.015941687 0.042137053
0.1574083 -0.011794873 0.04552995 -0.006494268 -0.13331088 -0.018185413 -0.11849746 -0.22224046
-0.17621061 -0.18988031 -0.16280109 -0.122886024 -0.14319138 -0.003123228 -0.1412068 -0.1468005
-0.103065744 0.028449988 -0.1086985 -0.056291766 -0.012109446 -0.10892652 -0.08036915 -0.04660602
0.08891286 0.060622875 0.09596281 -0.026206851 0.048122287 -0.022329807 -0.054111958 -0.00895599
-0.07015706 -0.026277598 -0.049002457 -0.14304103 -0.13811392 -0.1939587 -0.13869026 -0.14568157
-0.1451032 -0.093159445 -0.16322689 0.03215631 0.010896842 -0.16847426 -0.106229626 -0.05028075
