20220518250.pt (torch, 424079 bytes, 8 tensors)

encoder.0.weight f4 [64, 784]
-0.01451859 0.029397331 0.01891163 0.018538352 -0.01273461 -0.17959191 -2.0257428 -0.772134
-0.9454506 -2.7210753 -3.4922338 -2.0291493 -3.5656939 -1.9507477 -3.1487813 -2.2880373
0.25494584 -0.805818 -1.6168629 -1.7937082 -2.3403428 -3.0215843 -1.7196926 -1.5021031
-0.023566788 -0.0068470584 -0.0018912555 -0.023647152 -0.016897624 -0.0018709984 1.1000662 0.30300853
-1.9758826 -0.45743963 -0.3107134 -3.6994162 -2.9188967 -2.5498254 -3.4863029 -2.99954
-1.9876095 -2.8749592 -1.1487098 0.20802486 -1.5418713 -1.3077127 -1.3930923 -1.0544944
-0.9223187 -2.1940558 -3.561232 -3.9667163 -0.38904953 2.0333521 -0.0015431984 -0.027583247
0.016074726 0.014471804 0.061888285 -0.6850481 3.2900407 -3.783742 0.37012142 0.036977127
-2.4854138 -1.521125 -1.0742705 -0.24979419 -0.8253698 -0.95529383 -1.0076325 0.15476552
-0.844255 -0.9737352 -0.82260317 -0.14698757 -0.65863585 -0.4622129 -0.60289544 -0.38423365
-1.985106 0.5012357 -0.15020052 -0.017077804 0.031526417 -0.81891257 -0.79931974 -0.8733769
-0.5380061 -1.1646197 -0.4592962 0.7851837 -0.39466828 0.539615 -0.5384103 0.064005665
0.092683464 0.13681465 0.083428435 -0.11189925 0.31019226 -0.076515205 -0.26253828 -0.02351773
0.11026111 -0.06260924 0.059371013 -0.48524973 0.29261848 0.33186626 -1.7967161 1.0531398
-0.0041096127 1.3628105 -1.1338018 -0.12711298 -1.3638886 1.350704 -0.6708408 0.08272666
-0.23642966 0.25740522 -0.03873006 0.308362 0.025451925 0.02465174 0.27148804 0.01655789
0.16599014 0.011320486 -0.10240803 0.23173308 -0.17970577 0.14748102 0.06466221 0.028823273
0.6522233 -1.4351333 0.52769095 -0.7008801 -0.013698557 -0.42477465 -0.93816036 1.0058261
-0.3191589 -0.50563335 0.17096841 -0.20591785 0.2730814 -0.1400645 -0.06160351 0.06652694
0.022990597 0.062232267 -0.068314515 -0.0073484974 0.08623198 0.11314748 0.17781308 0.027808866
-0.06806807 0.015234809 -0.14999223 -0.15987049 0.40505385 -0.17899506 -0.81498295 0.6187917
-0.3679681 -1.4076403 1.7054608 -0.10036464 0.47621182 -0.19840108 0.00025869522 -0.045337334
0.10300597 -0.06003052 -0.066098176 -0.034380335 -0.11276087 0.10067592 -0.11833558 0.103405416
0.060358267 0.060480457 0.14426595 0.22714147 -0.12119833 0.048281956 -0.15770756 0.26548794
-0.62708956 0.41643867 -1.3514072 2.1422784 0.59492433 1.4734281 -0.2047222 0.6342542
-0.37965056 -0.13523918 0.07411516 0.11317327 -0.21974723 -0.054932125 0.08827666 -0.08947171
-0.15540849 0.002571125 0.049293563 0.05679476 -0.1322587 0.1734048 0.10001468 -0.08244222
-0.084708825 0.017967032 -0.32904482 -0.17817178 0.35026264 -0.16059381 -0.7327613 1.3528266
0.16676752 -0.22496256 -0.94967806 0.5304716 -0.15647264 0.19180544 -0.07444368 -0.06388856
0.051068295 -0.09988443 -0.08449563 0.17811713 0.049975153 0.075470366 0.046214566 0.091704205
0.11479031 0.029136254 0.034990765 0.06361875 0.13235456 -0.09872077 0.098374076 -0.2909025
-0.13421878 -0.30955747 -2.3091092 4.020093 0.49932262 -0.21765119 0.28038016 -0.060166005
00000000: 61df 6dbc acd2 f03c 90ec 9a3c bedd 973c
00000010: d3a4 50bc f1e6 37be c5a5 01c0 93aa 45bf
00000020: 0d09 72bf 1926 2ec0 c280 5fc0 95dd 01c0
00000030: 5434 64c0 1ab2 f9bf a285 49c0 346f 12c0
00000040: 4388 823e 174a 4ebf 5df5 cebf 3b98 e5bf
00000050: 2dc8 15c0 a361 41c0 e31e dcbf ea44 c0bf
00000060: 230f c1bc 4a5d e0bb 01e4 f7ba acb7 c1bc
00000070: e36c 8abc 4a3c f5ba f8ce 8c3f ef23 9b3e
00000080: b9e9 fcbf 8735 eabe d415 9fbe 3cc3 6cc0
00000090: 34cf 3ac0 5730 23c0 961f 5fc0 77f8 3fc0
000000a0: fd69 febf 55ff 37c0 ec08 93bf 7804 553e
000000b0: 0a5c c5bf 2163 a7bf d950 b2bf acf9 86bf
000000c0: 141d 6cbf 696b 0cc0 3aeb 63c0 aede 7dc0
000000d0: 8031 c7be 7122 0240 2545 caba 43f6 e1bc
000000e0: 25af 833c 251b 6d3c 927e 7d3d 505f 2fbf
000000f0: 0790 5240 d428 72c0 8e80 bd3e 5475 173d
00000100: 0511 1fc0 39b4 c2bf b281 89bf 0cca 7fbe
00000110: 6f4b 53bf 238e 74bf 1afa 80bf da7a 1e3e
00000120: 1821 58bf b646 79bf 1f96 52bf e983 16be
00000130: 5c9c 28bf 2ba7 ecbe 5b57 1abf 46ba c4be
00000140: f417 febf fc50 003f 2ace 19be c0e6 8bbc
00000150: d821 013d 41a4 51bf 38a0 4cbf a195 5fbf
00000160: c5ba 09bf 4212 95bf df28 ebbe cd01 493f
00000170: f611 cabe 3524 0a3f 42d5 09bf 6715 833d
00000180: d4d0 bd3d 2419 0c3e 87dc aa3d 6f2b e5bd
00000190: 85d1 9e3e 01b4 9cbd 6b6b 86be 41a8 c0bc
000001a0: 94d0 e13d 4639 80bd 052f 733d a772 f8be
000001b0: 17d2 953e 60ea a93e cbfa e5bf 49cd 863f
000001c0: eea9 86bb 9370 ae3f 6b20 91bf e829 02be
000001d0: e793 aebf dee3 ac3f 39bc 2bbf 986c a93d
000001e0: 9e1a 72be 9eca 833e 69a3 1ebd a0e1 9d3e
000001f0: 8e80 d03c 72f2 c93c 7b00 8b3e 6aa4 873c
00000200: 52f9 293e 8f79 393c 4dbb d1bd 704b 6d3e
00000210: ca04 38be 4405 173e 9f6d 843d c91e ec3c
00000220: 1bf8 263f 73b2 b7bf c116 073f e16c 33bf
00000230: ea6f 60bc 107c d9be 472b 70bf e9be 803f
00000240: cc68 a3be 3071 01bf 5812 2f3e 21dc 52be
00000250: 53d1 8b3e 116d 0fbe f653 7cbd 473f 883d
00000260: c756 bc3c 43e7 7e3d 7be8 8bbd aacb f0bb
00000270: 649a b03d deb9 e73d a214 363e 6bcf e33c
00000280: 4667 8bbd 6c9b 793c 9097 19be 17b5 23be
00000290: 3863 cf3e 7b4a 37be b9a2 50bf 2269 1e3f
000002a0: 5166 bcbe 8f2d b4bf 8a4c da3f fa8b cdbd
000002b0: 09d2 f33e a729 4bbe 7ca1 8739 a4b3 39bd
000002c0: cbf4 d23d 90e2 75bd 7b5e 87bd 65d2 0cbd
000002d0: 2cef e6bd 2d2f ce3d ed59 f2bd 38c6 d33d
000002e0: 3b3a 773d 5bba 773d 74ba 133e c697 683e
000002f0: d436 f8bd 4dc3 453d 177e 21be 09ee 873e
00000300: f188 20bf 7337 d53e e9fa acbf 171b 0940
00000310: f64c 183f 4b99 bc3f b2a2 51be 7c5e 223f
00000320: 8f61 c2be 247c 0abe b0c9 973d 63c7 e73d
00000330: 6b05 61be 8200 61bd 65ca b43d f23c b7bd
00000340: 6723 1fbe 5280 283b 0ce8 493d 9fa1 683d
00000350: d36e 07be 0791 313e 7fd4 cc3d 77d7 a8bd
00000360: d27b adbd 992f 933c 9078 a8be aa72 36be
00000370: a055 b33e b472 24be 3f96 3bbf 6c29 ad3f
00000380: 1bc5 2a3e 965c 66be 1a1e 73bf fdcc 073f
00000390: 5d3a 20be a568 443e ee75 98bd 01d8 82bd
000003a0: fd2c 513d 3590 ccbd 0b0c adbd 5664 363e
000003b0: bfb2 4c3d 3590 9a3d 7c4b 3d3d 6acf bb3d
000003c0: 2f17 eb3d 27af ee3c 7a52 0f3d 8c4a 823d
000003d0: f487 073e 1d2e cabd 5978 c93d 2cf1 94be
000003e0: a670 09be 517e 9ebe 72c8 13c0 9aa4 8040
000003f0: 37a7 ff3e f4df 5ebe fd8d 8f3e a170 76bd

encoder.0.bias f4 [64]
2.5413754 0.61744726 -1.1645535 2.22632 2.2846863 -3.8840616 2.0647388 2.0670536
1.734544 1.5666112 2.4534297 2.2709126 1.5353004 2.8828044 2.4581263 2.261757
3.0940082 2.0080423 2.005528 -0.28192827 3.5550005 2.8265572 0.13062745 0.8085934
2.0521874 2.3518538 1.5115346 2.6537278 -0.08953325 1.1410465 1.1158822 1.4752387
0.10747437 1.6212287 3.2447908 1.8422298 2.5113852 2.5289896 2.224123 0.65553063
0.22662738 0.2326687 2.1742084 1.5301132 2.9025705 2.327662 1.5632977 2.0321136
-0.42350358 -0.054175228 -1.4145305 3.0635042 0.4390745 2.0347552 1.852706 2.8321583
0.52258533 -0.665529 0.9720229 1.2816213 1.6460395 3.3351028 1.2909539 1.6821438
00000000: e5a5 2240 0611 1e3f 1710 95bf 077c 0e40
00000010: 4d38 1240 7794 78c0 ae24 0440 9b4a 0440
00000020: 8a05 de3f b786 c83f fe04 1d40 a256 1140
00000030: b984 c43f de7f 3840 f151 1d40 a0c0 1040
00000040: 3b04 4640 c483 0040 925a 0040 e758 90be
00000050: 2185 6340 50e6 3440 34c3 053e faff 4e3f
00000060: 0a57 0340 c684 1640 f779 c13f add6 2940
00000070: 355d b7bd d00d 923f 3ad5 8e3f 9fd4 bc3f
00000080: 861b dc3d 6c84 cf3f a7aa 4f40 30ce eb3f
00000090: 89ba 2040 f7da 2140 0858 0e40 dbd0 273f
000000a0: 0211 683e b440 6e3e 3b26 0b40 c0da c33f
000000b0: b7c3 3940 6af8 1440 241a c83f 260e 0240
000000c0: 76d5 d8be d8e6 5dbd 560f b5bf 7410 4440
000000d0: 5fce e03e 6e39 0240 7825 ed3f 1542 3540
000000e0: 27c8 053f 1c60 2abf 7ed6 783f 2b0c a43f
000000f0: 6cb1 d23f 5372 5540 fa3d a53f 7d50 d73f

encoder.2.weight f4 [32, 64]
-0.39941612 -0.111131676 -0.30941683 -0.35294488 -0.17847098 0.022360852 -0.07947734 0.019943422
0.0014387817 -0.16989017 -0.04816044 -0.34006417 -0.03602586 -0.13926461 -0.30919024 0.009894273
0.0646656 0.05072364 -0.09156161 -0.18593048 -0.15199648 -0.15638891 -0.026452009 -0.07977163
0.03326127 -0.44835556 -0.4317044 -0.36393782 -0.41662654 -0.09800639 -0.05277134 -0.40369052
-0.26244232 -0.17421813 -0.15539643 -0.41931584 -0.054504033 -0.14497483 -0.16384326 -0.43703046
-0.19442381 -0.2893681 0.05508836 -0.19977446 -0.008638886 -0.06872469 -0.4753103 -0.10578809
-0.44166434 -0.27106547 -0.28891248 -0.046089772 -0.15599039 -0.39869335 -0.28183928 -0.14134723
-0.25154588 -0.4280674 0.021727169 -0.02215069 -0.37566552 0.02102555 -0.046482224 -0.17974399
0.0511495 -0.0031500522 -0.3765054 -0.049909227 0.030104114 -0.008428098 -0.26234537 -0.027499482
0.039025843 -0.09358749 0.05191443 -0.09820103 -0.022269037 -0.17430308 -0.13070846 0.0068520484
-0.043189716 -0.044785876 -0.07362154 -0.37496763 -0.09302636 -0.155869 0.061854295 -0.013235122
-0.16346699 -0.11005425 -0.13473034 -0.09324233 -0.25599048 -0.091772266 -0.15938109 -0.16902153
-0.30768007 -0.088700525 -0.011125315 -0.08536351 -0.12422557 -0.16168186 -0.17033191 -0.2777284
-0.38105312 -0.29299107 0.0325216 -0.04596849 -0.075513504 -0.16647577 -0.27803016 -0.18174882
-0.27559587 -0.16510624 -0.07378132 -0.055530004 -0.16616629 -0.016947571 -0.1808703 -0.12948748
-0.3849635 -0.28882384 0.0075414767 -0.12602285 -0.17140453 -0.100007 -0.13980617 0.021208007
0.6702625 -0.06291017 0.019705672 -0.012205175 -0.75028324 0.025073422 0.20822418 0.38506737
0.009124911 0.046575245 -1.0492852 -0.0044311536 -2.4387026 -0.016304202 -0.029660428 0.32006836
0.17648175 -0.3269374 0.02271024 0.038345803 -1.3559351 -0.29033196 -0.32556298 0.025885966
-0.10729849 -0.013762998 -0.0025251107 -0.008774919 0.054382194 -1.3604099 -0.051333472 0.013081242
0.006476956 -0.034550402 -1.9682044 0.10337707 -1.1930625 -0.6009976 -0.19561172 -0.0033090014
-0.018319122 -0.120327145 -0.047758833 -0.076176986 -0.3069475 -0.06530829 0.2600647 -0.32093912
-0.03484203 -0.013597133 -0.004908626 0.34180644 0.20550342 -0.023509288 0.036557633 -0.40027508
0.016738351 0.010318425 0.023292447 0.011180436 0.03881617 0.033194963 0.012893102 -0.02875451
0.08509044 -0.030874064 0.03150604 -0.032725405 -0.12163328 -0.06523146 0.20306134 0.5818575
-0.00893177 -0.01796698 -0.38549155 0.18866146 -2.9927588 0.037817527 -0.055888567 0.0068531674
0.024670584 0.37142783 -0.020492712 -0.09489085 0.058964226 -0.3615972 0.1465147 -0.025956918
0.11579692 0.038447134 0.041874323 0.11494766 0.0049653966 -2.7285535 0.3548066 -0.019341422
-0.07324357 0.120378755 -3.1133838 -0.04667374 -1.1521355 0.20039727 0.017043527 0.010822018
0.005775754 -0.033519093 -0.07401828 -0.025580486 -0.19096032 0.19628918 0.05737488 0.011773599
0.040079325 0.043284904 -0.05363783 -0.20858262 0.28469998 0.04376056 0.002850034 0.01726582
-0.021079758 0.021313308 0.11138264 0.04516131 -0.032470558 0.16425978 0.0902345 0.118205294
00000000: 4580 ccbe 0199 e3bd e26b 9ebe 31b5 b4be
00000010: 19c1 36be 1b2e b73c 04c5 a2bd 6360 a33c
00000020: 8195 bc3a b0f7 2dbe e243 45bd e41c aebe
00000030: da8f 13bd 629b 0ebe 2f4e 9ebe 971b 223c
00000040: 666f 843d 97c3 4f3d a784 bbbd 8f64 3ebe
00000050: f7a4 1bbe 6a24 20be e2b1 d8bc 4f5f a3bd
00000060: f83c 083d dc8e e5be 5c08 ddbe 0f56 babe
00000070: 1350 d5be 93b7 c8bd c326 58bd 86b0 cebe
00000080: d75e 86be 3d66 32be 3e20 1fbe 91b0 d6be
00000090: 9f3f 5fbd 4874 14be 87c6 27be 75c2 dfbe
000000a0: 0917 47be 0e28 94be 55a4 613d ad91 4cbe
000000b0: 1d8a 0dbc 88bf 8cbd df5b f3be 6da7 d8bd
000000c0: d421 e2be 18c9 8abe 56ec 93be a1c8 3cbd
000000d0: f2bb 1fbe 8921 ccbe 3d4d 90be 54bd 10be
000000e0: 9fca 80be a62b dbbe 2dfd b13c 5d75 b5bc
000000f0: 3b57 c0be c63d ac3c 2564 3ebd cf0e 38be
00000100: 2382 513d 1b71 4ebb 51c5 c0be 9e6d 4cbd
00000110: e79c f63c 0116 0abc 2252 86be 9846 e1bc
00000120: 90d9 1f3d ccaa bfbd 3aa4 543d 9f1d c9bd
00000130: 8e6d b6bc 827c 32be 70d8 05be 2687 e03b
00000140: b3e7 30bd 6571 37bd e4c6 96bd c2fb bfbe
00000150: 9b84 bebd 209c 1fbe ee5a 7d3d 20d8 58bc
00000160: e463 27be 1f64 e1bd c0f6 09be d6f5 bebd
00000170: 2f11 83be 19f3 bbbd cc34 23be fb13 2dbe
00000180: 3e88 9dbe 9fa8 b5bd f446 36bc 10d3 aebd
00000190: fa69 febd ee8f 25be 7d6b 2ebe 6b32 8ebe
000001a0: 6519 c3be ed02 96be 5f35 053d 7549 3cbd
000001b0: d3a6 9abd a078 2abe f859 8ebe 5d1c 3abe
000001c0: e71a 8dbe 9c11 29be a91a 97bd 6e73 63bd
000001d0: 7f27 2abe a2d5 8abc 1036 39be 5e98 04be
000001e0: f019 c5be b8e0 93be 7e1e f73b 220c 01be
000001f0: ab84 2fbe 78d0 ccbd 5929 0fbe 6abc ad3c
00000200: 5396 2b3f 0cd7 80bd ca6d a13c 37f8 47bc
00000210: 9012 40bf c766 cd3c b838 553e 8d27 c53e
00000220: a780 153c afc5 3e3d fa4e 86bf 3633 91bb
00000230: b413 1cc0 6490 85bc 6dfa f2bc 00e0 a33e
00000240: a2b7 343e 5764 a7be d30a ba3c 7d10 1d3d
00000250: 488f adbf 64a6 94be 31b0 a6be ce0e d43c
00000260: 50bf dbbd 337e 61bc 547c 25bb aec4 0fbc
00000270: ddbf 5e3d e921 aebf 0c43 52bd b552 563c
00000280: a53c d43b b984 0dbd 1fee fbbf 5bb7 d33d
00000290: 46b6 98bf fbda 19bf 704e 48be d5db 58bb
000002a0: fc11 96bc 146e f6bd c49e 43bd ae02 9cbd
000002b0: 3928 9dbe 5ac0 85bd 3327 853e 2252 a4be
000002c0: 84b6 0ebd 82c6 5ebc 8ad8 a0bb 4101 af3e
000002d0: 7d6f 523e 8d96 c0bc 75bd 153d dbf0 ccbe
000002e0: de1e 893c 9c0e 293c cdcf be3c 262e 373c
000002f0: b4fd 1e3d 71f7 073d 973d 533c 948e ebbc
00000300: e643 ae3d 9beb fcbc 7a0c 013d 130b 06bd
00000310: de1a f9bd 1298 85bd 50ef 4f3e 9df4 143f
00000320: 8f56 12bc 7d2f 93bc 265f c5be 7830 413e
00000330: 5c89 3fc0 8de6 1a3d 69eb 64bd 8990 e03b
00000340: f719 ca3c ca2b be3e 55e0 a7bc 2256 c2bd
00000350: 7984 713d 4523 b9be f307 163e 9aa3 d4bc
00000360: f026 ed3d be7a 1d3d 6984 2b3d ae69 eb3d
00000370: c4b4 a23b 9fa0 2ec0 36a9 b53e e771 9ebc
00000380: ba00 96bd 2389 f63d ae41 47c0 f72c 3fbd
00000390: 2d79 93bf f134 4d3e de9e 8b3c d54e 313c
000003a0: 8942 bd3b 514b 09bd e596 97bd 2b8e d1bc
000003b0: 1a8b 43be 0800 493e ec01 6b3d 0ee6 403c
000003c0: 382a 243d 834b 313d 57b3 5bbd af96 55be
000003d0: 32c4 913e 463e 333d a3c7 3a3b 0d71 8d3c
000003e0: 75af acbc 3f99 ae3c 951c e43d 11fb 383d
000003f0: d9ff 04bd b733 283e decc b83d 9e15 f23d

encoder.2.bias f4 [32]
-0.3234057 -0.24874248 0.7412438 1.0421736 1.0398391 0.024911126 -0.06782406 -0.6051
-0.4109644 -0.41762584 1.0206378 0.41774738 -0.06535029 -0.15311795 0.86560595 0.006631253
-0.15755795 0.045579016 0.79144543 0.37646595 -0.13682398 -0.09979715 0.4440531 -0.057539232
1.0075356 -0.229215 0.9485686 0.5167874 0.040358745 0.19951394 0.69537157 0.83524483
00000000: 6f95 a5be 59b6 7ebe 27c2 3d3f f265 853f
00000010: 7319 853f 6b12 cc3c 57e7 8abd d5e7 1abf
00000020: ed69 d2be 0ed3 d5be 42a4 823f fce2 d53e
00000030: 5fd6 85bd f4ca 1cbe 5a98 5d3f fb4a d93b
00000040: df56 21be 10b1 3a3d 2b9c 4a3f 25c0 c03e
00000050: 961b 0cbe 7362 ccbd ee5a e33e 42ae 6bbd
00000060: edf6 803f 56b7 6abe 64d5 723f 2e4c 043f
00000070: 364f 253d 624d 4c3e df03 323f 9bd2 553f

decoder.0.weight f4 [64, 32]
-0.25332597 -0.28549564 -0.35932136 -0.27131575 -0.359268 -0.28860041 -0.11951034 -0.108307995
0.4116157 -0.03678999 -0.111734964 -0.45504734 -0.29092032 0.071672454 -0.43006125 -0.45314714
-0.074696206 -0.3527142 -0.21322165 -0.31787056 -0.20475367 -0.3743829 -0.3387012 -0.42526123
0.30233356 0.40753913 0.42798576 -0.35980025 0.23046753 -0.40301806 -0.21454713 0.1594169
-0.2919537 -0.23868719 -0.032235965 0.24039482 0.0549238 -0.017552389 -0.24190304 -0.024059108
0.29126933 0.057644486 0.011925693 0.122955464 0.020043697 -0.043956064 -0.1222164 -0.09683479
0.020014994 -0.022448383 -0.03358118 0.459239 -0.25105852 -0.15340275 0.0014653386 -0.19056687
0.10676064 0.056495834 0.0386025 -0.05776476 0.14665636 0.12810649 0.18138988 -0.020517178
0.13599211 0.015659226 -0.00086993637 -0.07964281 -0.0071490197 0.21673574 0.12605023 0.17995192
-0.17223357 -0.04430404 -0.064344704 -0.04217917 0.112820394 -0.020764368 -0.10038883 -0.11155825
-0.14944847 0.13983314 -0.08767491 0.03832896 -0.051820576 0.19333895 -0.11284003 0.20675084
0.0049817986 0.059473034 0.58965623 -0.21864507 -0.12904635 -0.11645034 0.017634064 0.05444704
-0.09363444 0.0679863 -0.005676413 -0.23715936 -0.11689808 -0.13572305 -0.18309133 0.11879846
0.16964373 0.11248806 0.05022629 -0.11299179 -0.15836293 -0.15798268 -0.1049777 0.06719694
0.020694861 -0.09400526 -0.15894036 0.027302472 -0.051114943 -0.087510884 0.18260907 -0.22922651
0.052448217 -0.024431687 0.17914002 0.05566909 0.17162319 -0.23472852 -0.11138335 -0.038397253
-0.10446409 -0.26737055 -0.115944825 -0.14775164 -0.19620626 -0.082968615 -0.23436786 0.089650705
0.0264272 0.14055087 -0.024781235 -0.07927989 -0.15633406 -0.22287169 0.02854541 -0.21384896
0.080046095 -0.19381535 -0.2030204 -0.1379436 0.06898269 -0.17329106 -0.08447602 -0.054058015
-0.12838703 -0.061211165 0.06914118 0.2191481 0.22860976 -0.19964959 -0.10161564 -0.06451621
-0.081909016 -0.28202528 -0.2782209 -0.32314354 -0.3635541 -0.33854717 0.0060899 -0.16049293
0.26519322 0.10595644 -0.24346147 -0.2169187 -0.018721875 -0.008841025 0.035129644 -0.41916528
-0.016668689 -0.30129305 -0.23374504 -0.2957684 -0.43943757 -0.2913852 -0.2421946 -0.080914594
-0.19370264 0.2699366 -0.35530066 -0.3193209 0.24310564 -0.24634868 -0.4226256 0.12814583
0.07416833 -0.11298033 -0.16346769 0.0016627008 -1.1114689 -0.15502109 0.0995619 -0.16250625
0.04498656 0.12329455 -0.1989679 -0.02949334 -0.17355944 -0.3363196 0.17200762 0.12266624
-0.163499 0.1059582 0.038773075 0.019135244 -0.07454642 -0.0077710943 0.010464466 0.16984771
0.012293519 0.08009388 -0.076893255 -0.046597935 -0.04807241 -0.14202161 0.5102342 -0.104145184
-0.28644773 -0.32612184 0.03059533 -0.040718347 -0.016648842 -0.07466271 -0.112073496 -0.3531724
0.18417144 0.16230088 0.047751896 -0.06226158 -0.25650612 -0.0720164 0.019304937 -0.34848318
0.30384868 -0.0674272 0.4463597 0.18410748 -0.09451578 -0.33709782 0.046672076 -0.1918486
0.033826035 0.19408397 0.082446575 -0.0011070214 0.04929242 0.035230424 -0.025281427 0.3080421
00000000: f1b3 81be 7c2c 92be f8f8 b7be e6e9 8abe
00000010: faf1 b7be 6fc3 93be d6c1 f4bd 95d0 ddbd
00000020: 4bbf d23e 1ab1 16bd 4dd5 e4bd f7fb e8be
00000030: 82f3 94be 02c9 923d fd30 dcbe e702 e8be
00000040: 53fa 98bd f596 b4be c756 5abe eebf a2be
00000050: f2aa 51be 1eaf bfbe 3e6a adbe d7bb d9be
00000060: 77cb 9a3e f8a8 d03e f320 db3e bd37 b8be
00000070: aeff 6b3e 6258 cebe 3eb2 5bbe 2f3e 233e
00000080: f57a 95be 6a6a 74be dc09 04bd 0f2a 763e
00000090: c7f7 603d 07ca 8fbc 6eb5 77be 9b17 c5bc
000000a0: 4121 953e a01c 6c3d fb63 433c 13d0 fb3d
000000b0: ae32 a43c 460b 34bd 984c fabd 5251 c6bd
000000c0: 7cf6 a33c ace5 b7bc 6b8c 09bd 6021 eb3e
000000d0: be8a 80be 9c15 1dbe 9b10 c03a f623 43be
000000e0: 53a5 da3d 2d68 673d a81d 1e3d be9a 6cbd
000000f0: 162d 163e 592e 033e 45be 393e a413 a8bc
00000100: 8441 0b3e c747 803c 710c 64ba c51b a3bd
00000110: 5342 eabb f9ef 5d3e 5013 013e 5145 383e
00000120: ff5d 30be 2778 35bd 28c7 83bd 11c4 2cbd
00000130: 610e e73d 091a aabc a998 cdbd a778 e4bd
00000140: 0509 19be 6b30 0f3e e78e b3bd d4fe 1c3d
00000150: d041 54bd a5fa 453e ac18 e7bd 7eb6 533e
00000160: 5b3e a33b ff99 733d b6f3 163f 7ee4 5fbe
00000170: ba24 04be 847d eebd 5075 903c dc03 5f3d
00000180: 6ac3 bfbd 673c 8b3d 3401 babb e7d9 72be
00000190: 4368 efbd fcfa 0abe 4b7c 3bbe 9b4c f33d
000001a0: 16b7 2d3e 2460 e63d 15ba 4d3d 3d68 e7bd
000001b0: e429 22be 36c6 21be 8cfe d6bd 8d9e 893d
000001c0: 4588 a93c d485 c0bd 43c1 22be 6fa9 df3c
000001d0: e75d 51bd e838 b3bd dffd 3a3e 5bba 6abe
000001e0: f1d3 563d f624 c8bc 7b70 373e 4605 643d
000001f0: fdbd 2f3e ac5c 70be f41c e4bd 7046 1dbd
00000200: 45f1 d5bd cbe4 88be 7b74 edbd 354c 17be
00000210: 4bea 48be 73eb a9bd 21fe 6fbe ca9a b73d
00000220: db7d d83c 91ec 0f3e 0402 cbbc 7f5d a2bd
00000230: 0916 20be 7a38 64be 10d8 e93c 39fb 5abe
00000240: 35ef a33d 8877 46be 94e4 4fbe 1641 0dbe
00000250: cc46 8d3d 3673 31be c301 adbd f06b 5dbd
00000260: e477 03be 8fb8 7abd e499 8d3d 5c68 603e
00000270: ad18 6a3e f170 4cbe dc1b d0bd 1321 84bd
00000280: eabf a7bd 9e65 90be f872 8ebe 1273 a5be
00000290: c323 babe 0e56 adbe c98d c73b 4258 24be
000002a0: 68c7 873e b1ff d83d f74d 79be f01f 5ebe
000002b0: 9e5e 99bc f2d9 10bc 1ae4 0f3d d59c d6be
000002c0: c68c 88bc 1543 9abe dc5a 6fbe f56e 97be
000002d0: f6fd e0be 7130 95be dc01 78be 8db6 a5bd
000002e0: fc59 46be 2135 8a3e f8e9 b5be 077e a3be
000002f0: aff0 783e d442 7cbe 6262 d8be a938 033e
00000300: 91e5 973d 3b62 e7bd 1364 27be fbee d93a
00000310: 9d44 8ebf d9bd 1ebe 1ce7 cb3d 0a68 26be
00000320: d443 383d da81 fc3d 3ebe 4bbe 049c f1bc
00000330: 91b9 31be 1532 acbe c422 303e 7038 fb3d
00000340: 486c 27be 9d00 d93d 84d0 1e3d 84c1 9c3c
00000350: cbab 98bd aaa4 febb 2773 2b3c 8fec 2d3e
00000360: c26a 493c 4308 a43d 367a 9dbd 7add 3ebd
00000370: 93e7 44bd 1d6e 11be b59e 023f 124a d5bd
00000380: 47a9 92be 71f9 a6be 0fa3 fa3c 48c8 26bd
00000390: 2763 88bc c3e8 98bd ca86 e5bd 03d3 b4be
000003a0: 7097 3c3e 3432 263e 7e97 433d 0006 7fbd
000003b0: c554 83be 567d 93bd 6325 9e3c 636c b2be
000003c0: 0e92 9b3e 4617 8abd 4289 e43e ac86 3c3e
000003d0: 7d91 c1bd 1698 acbe 382b 3f3d f673 44be
000003e0: 2b8d 0a3d f3bd 463e c0d9 a83d 7919 91ba
000003f0: d9e6 493d c74d 103d ff1a cfbc b2b7 9d3e

decoder.0.bias f4 [64]
-0.22680783 -0.1743753 0.11386138 -0.115383044 0.0010334374 -0.21934322 0.12207121 -0.114184044
0.1021255 -0.14951363 0.009304814 -0.05853719 0.045368627 -0.12719783 -0.06959997 -0.21585536
-0.03378566 -0.004681658 -0.20174734 -0.044985484 0.0073998477 -0.03580313 0.19600454 -0.09312899
-0.46704724 -0.2089211 -0.18199062 -0.3672945 -0.44138247 0.1683765 -0.0234918 -0.25033006
-0.10079619 0.0525489 -0.10193637 0.3190196 0.14331825 -0.17945628 -0.012102505 -0.09770136
-0.21733019 -0.13599041 0.01375547 0.092011 0.21290915 -0.06948778 0.056760907 0.24737695
-0.24073167 -0.1185788 0.111515865 -0.07040335 -0.18984024 -0.024055852 -0.39915743 -0.00036212508
-0.14826924 0.1864139 -0.02566324 -0.27152342 0.27782065 0.12747842 0.115440786 -0.008123567
00000000: 5040 68be 708f 32be 2830 e93d f24d ecbd
00000010: 6874 873a 829b 60be 7800 fa3d 53d9 e9bd
00000020: 2d27 d13d 1a1a 19be 3873 183c b1c4 6fbd
00000030: 74d4 393d 2640 02be 6e8a 8ebd 3009 5dbe
00000040: d562 0abd 9868 99bb db96 4ebe b342 38bd
00000050: 6c7a f23b 4ea6 12bd 6ab5 483e 69ba bebd
00000060: d120 efbe 6aef 55be c05b 3abe 060e bcbe
00000070: e2fc e1be e46a 2c3e e071 c0bc 432b 80be
00000080: 3c6e cebd 843d 573d 04c4 d0bd 8956 a33e
00000090: 05c2 123e 63c3 37be 9649 46bc a717 c8bd
000000a0: ce8b 5ebe 1241 0bbe 9f5e 613c 4370 bc3d
000000b0: db04 5a3e 9c4f 8ebd 207e 683d 6250 7d3e
000000c0: 5d82 76be 71d9 f2bd 6e62 e43d a22f 90bd
000000d0: 7b65 42be c710 c5bc 5d5e ccbe 9bdb bdb9
000000e0: e4d3 17be 49e3 3e3e b73b d2bc 1e05 8bbe
000000f0: 823e 8e3e b489 023e 386c ec3d b618 05bc

decoder.2.weight f4 [784, 64]
0.12048316 -0.0717008 0.027837768 -0.062499687 -0.07684393 -0.030415595 0.047044218 -0.06867351
0.0056370683 -0.06274237 -0.15475082 -0.07474625 -0.0066759516 0.016257344 0.03934961 -0.10634835
-0.0013786952 -0.11615877 -0.03132589 -0.109044604 -0.0473105 -0.13978434 -0.07455986 -0.10067224
0.054813445 -0.00950326 -0.15112796 0.07141726 0.007982358 -0.0192694 -0.083626375 -0.07751396
0.009218454 -0.03937456 -0.10164793 -0.13410006 -0.16498546 -0.010858607 -0.1497212 -0.13940343
-0.104273364 -0.12282791 -0.07463272 0.079362094 -0.043087788 -0.15795791 -0.00461708 0.025463864
-0.022422343 -0.097600915 -0.1876302 -0.05299131 -0.052092955 -0.039974824 0.02076085 0.108745545
-0.037552014 -0.018052224 0.034599796 -0.08145313 0.07595335 -0.04158198 -0.1659851 -0.07619755
0.06963125 0.013798496 -0.08253813 0.08249542 -0.1240173 -0.05948223 -0.044242874 -0.020878676
-0.18955301 0.010029424 -0.019258969 -0.043100152 -0.047876082 -0.20213841 -0.02722228 0.0002310127
-0.19234413 0.030146033 -0.03332615 -0.13915828 -0.06153421 -0.09045856 -0.051547658 -0.027213959
-0.06895034 -0.009820044 0.04732474 -0.07211088 0.03611304 -0.02210167 0.02630706 0.07919788
0.015676018 -0.0589682 -0.120148316 -0.016565124 -0.0019388472 -0.03247702 -0.08295485 -0.13830961
-0.07077688 0.041052707 -0.064343736 0.035126954 -0.038425043 0.011240777 0.086351946 -0.036531646
-0.0028067976 -0.037172746 -0.15171885 -0.04288378 0.0071991533 -0.1421318 -0.021944318 -0.17312847
-0.17162491 -0.05099017 0.0030074606 -0.034970794 0.012195326 -0.046325434 -0.05621815 -0.13431737
0.11051157 -0.2385791 -0.10635111 0.109441906 -0.060521185 -0.03290035 0.084145635 0.010903449
-0.16657157 -0.08980522 0.06665999 -0.020876363 -0.043720387 -0.07826002 -0.016367532 0.017387375
0.032955956 0.03990993 0.0040626973 -0.053980775 -0.08450088 -0.17164293 -0.063952744 -0.010881573
0.06490046 -0.024790928 -0.06415863 -0.0112737715 -0.07263322 -0.014957882 -0.13641208 -0.06460041
0.08234641 0.052402288 -0.043819502 -0.14662516 -0.12612726 -0.018353626 -0.1897217 0.07627307
0.058495402 -0.10917009 0.029716969 -0.09848307 -0.027909748 0.034296803 0.08962098 -0.0011446178
0.037411604 0.07445887 -0.13738248 -0.10880733 -0.050177634 0.08580437 0.018500894 -0.02618654
0.06233585 -0.15089442 -0.0921763 0.11249836 -0.06579987 -0.13480577 -0.17683318 -0.07444915
-0.02985464 -0.0023406446 -0.007692225 0.11698729 -0.12193701 0.093454555 0.052410677 -0.11589859
-0.17425944 -0.19145751 -0.048530042 -0.0033758874 -0.13737781 0.006216958 0.03705157 -0.082317784
-0.1050021 -0.101419464 -0.18839866 -0.026561994 0.06227015 0.04569039 -0.048983544 0.034139052
-0.010237038 -0.032420307 -0.13206741 0.09931527 0.08822484 -0.16294211 0.050396994 0.0052458346
0.123091355 -0.09545307 0.07420689 0.02398427 -0.08943607 0.059877038 -0.19350684 -0.12076093
0.047394574 -0.12177489 0.114171475 -0.1035409 -0.006540539 -0.06729182 -0.10640581 -0.07054442
0.067797646 -0.029592516 0.046253193 0.02882187 0.11999087 -0.0071295793 -0.07883259 -0.03365634
-0.13974003 -0.0751902 -0.16725169 -0.085347205 -0.11223027 -0.13738792 0.012352527 -0.061739996
00000000: e0bf f63d ded7 92bd 080c e43c acff 7fbd
00000010: 5a60 9dbd 202a f9bc 70b1 403d b2a4 8cbd
00000020: 28b7 b83b 127f 80bd 0077 1ebe 9014 99bd
00000030: f1c1 dabb 1f2e 853c 0f2d 213d 2acd d9bd
00000040: 56b5 b4ba a6e4 edbd 944f 00bd c752 dfbd
00000050: a8c8 41bd a023 0fbe d7b2 98bd 3f2d cebd
00000060: 1084 603d 90b3 1bbc 4ac1 1abe 3643 923d
00000070: 70c8 023c dcda 9dbc 4e44 abbd a4bf 9ebd
00000080: 0009 173c 3847 21bd ca2c d0bd 8751 09be
00000090: f3f1 28be 4ce8 31bc 8450 19be c6bf 0ebe
000000a0: 468d d5bd 338d fbbd 0ad9 98bd 9888 a23d
000000b0: d27c 30bd b8bf 21be e04a 97bb 9899 d03c
000000c0: 10af b7bc fde2 c7bd 2222 40be 6a0d 59bd
000000d0: 6c5f 55bd a4bc 23bd a812 aa3c fcb5 de3d
000000e0: 24d0 19bd 42e2 93bc 84b8 0d3d e6d0 a6bd
000000f0: 6e8d 9b3d de51 2abd 00f8 29be 760d 9cbd
00000100: d49a 8e3d 1613 623c c009 a9bd 5cf3 a83d
00000110: c8fc fdbd a4a3 73bd 0438 35bd c209 abbc
00000120: 2f1a 42be 7452 243c fcc4 9dbc c989 30bd
00000130: b619 44bd 5ffd 4ebe 4201 dfbc 003c 7239
00000140: dcf5 44be d0f4 f63c 0081 08bd 827f 0ebe
00000150: 4c0b 7cbd 5642 b9bd a323 53bd cfef debc
00000160: d635 8dbd 40e4 20bc 96d7 413d deae 93bd
00000170: 44eb 133d 900e b5bc e781 d73c 8032 a23d
00000180: fe6a 803c a488 71bd 5210 f6bd 95b3 87bc
00000190: eb20 feba a006 05bd 3be4 a9bd 09a1 0dbe
000001a0: 78f3 90bd e226 283d a6c6 83bd 48e1 0f3d
000001b0: 9463 1dbd 3c2b 383c 4ad9 b03d 35a2 15bd
000001c0: 40f2 37bb 7342 18bd 305c 1bbe e7a6 2fbd
000001d0: e0e6 eb3b 008b 11be 92c4 b3bc 9748 31be
000001e0: 71be 2fbe 12db 50bd d118 453b 893d 0fbd
000001f0: e8ce 473c bdbf 3dbd 0145 66bd 7e8a 09be
00000200: e453 e23d 144e 74be 9cce d9bd 1423 e03d
00000210: 10e5 77bd 84c2 06bd 8c54 ac3d 61a4 323c
00000220: bd91 2abe cdeb b7bd 0885 883d e804 abbc
00000230: 2614 33bd ca46 a0bd 3415 86bc f86f 8e3c
00000240: d3fc 063d 9878 233d 6020 853b f21a 5dbd
00000250: cc0e adbd 2ac3 2fbe a8f9 82bd a048 32bc
00000260: 88ea 843d 5816 cbbc 9a65 83bd a0b5 38bc
00000270: bac0 94bd e811 75bc 9caf 0bbe 384d 84bd
00000280: 3ca5 a83d c8a3 563d 147c 33bd e824 16be
00000290: 8127 01be 585a 96bc 6846 42be 0e35 9c3d
000002a0: e098 6f3d 9194 dfbd 0071 f33c 7eb1 c9bd
000002b0: fca2 e4bc ce7a 0c3d 348b b73d 0007 96ba
000002c0: e93c 193d e47d 983d fead 0cbe 61d6 debd
000002d0: 1087 4dbd 34ba af3d 308f 973c 2885 d6bc
000002e0: e053 7f3d 1184 1abe eec6 bcbd 8a65 e63d
000002f0: 15c2 86bd 860a 0abe c213 35be cc78 98bd
00000300: b891 f4bc 8065 19bb 0f0f fcbb 0897 ef3d
00000310: 1cba f9bd 1a65 bf3d 94ac 563d 3d5c edbd
00000320: 1171 32be 700d 44be 70c7 46bd fe3d 5dbb
00000330: c5ac 0cbe a0b7 cb3b 63c3 173d 3a96 a8bd
00000340: 570b d7bd 02b5 cfbd 94eb 40be 8a98 d9bc
00000350: fc0e 7f3d d925 3b3d f8a2 48bd 64d5 0b3d
00000360: 40b9 27bc 28cb 04bd ae3c 07be ce65 cb3d
00000370: 3aaf b43d 4cda 26be 146d 4e3d 40e5 ab3b
00000380: 5217 fc3d e67c c3bd c8f9 973d a97a c43c
00000390: 422a b7bd a041 753d a826 46be 8251 f7bd
000003a0: d020 423d 1d65 f9bd bcd2 e93d 400d d4bd
000003b0: 0552 d6bb 4bd0 89bd 4aeb d9bd 9879 90bd
000003c0: 7ed9 8a3d 016c f2bc fd73 3d3d d81b ec3c
000003d0: c6bd f53d 3f9f e9bb fb72 a1bd 3bdb 09bd
000003e0: 0318 0fbe 52fd 99bd 0744 2bbe 84ca aebd
000003f0: fcd8 e5bd 6baf 0cbe 4162 4a3c 14e3 7cbd

decoder.2.bias f4 [784]
0.011855737 -0.02195169 0.012772449 -0.09367339 -0.14370601 -0.041307822 -0.15596564 -0.017262034
-0.07656831 -0.1576951 -0.08345083 -0.13978066 -0.1690656 -0.032144 -0.18738067 -0.13549028
-0.18203627 0.027151972 0.021496177 -0.029690986 -0.03404975 -0.16093655 -0.038887188 -0.15335938
-0.16734417 0.029644417 -0.08899908 -0.17998672 -0.13639303 -0.05840985 -0.0029655679 -0.18987389
-0.03332428 -0.06717582 -0.0034258906 -0.07635556 -0.15054409 -0.08775039 -0.1786968 0.0065061185
-0.0076925196 -0.060991373 0.00669073 -0.0927776 -0.032754865 -0.15278605 -0.1617982 -0.06508751
-0.15987022 -0.04994403 -0.17472836 -0.015053894 -0.11164037 -0.0740883 0.024476828 0.030408204
-0.12133995 -0.081968375 -0.102149054 -0.054748405 -0.03689127 -0.09829281 -0.082289614 -0.23147497
-0.016909426 -0.11983773 0.0068383557 -0.105557874 -0.16085118 -0.31203535 -0.17651406 -0.3061689
-0.029843153 -0.086832836 -0.035162862 -0.096392736 -0.0563868 -0.03151715 0.011265168 -0.085920915
-0.13428368 -0.09371141 -0.01607948 -0.05722246 -0.0768482 -0.10891304 -0.044368673 -0.104504995
-0.012749006 -0.04381913 -0.19981156 -0.12507473 -0.12628561 -0.042908333 -0.09004199 -0.07593725
0.036921103 -0.20995468 -0.12961057 -0.11991004 -0.13157664 -0.04777048 -0.11251406 -0.23281956
-0.15026335 -0.15907873 -0.16941173 -0.06643449 0.04900623 -0.10686109 -0.1025922 -0.080157086
-0.15202872 -0.04216766 -0.029030152 -0.14026862 -0.03521233 0.055205323 -0.08557809 -0.050891187
-0.07871014 -0.16031654 -0.17963772 -0.13452926 -0.108861156 0.06601563 -0.2977517 -0.5091902
-0.31793097 -0.13986902 -0.18618134 -0.27503476 -0.04998808 -0.16520628 -0.07010753 -0.1318336
0.00061382365 -0.17812674 -0.095001236 -0.08747482 -0.12535478 -0.19634964 -0.0154365 -0.11234021
-0.10148639 -0.17758076 0.01369489 -0.3098111 -0.20632035 0.048262943 0.0845936 0.23067765
0.3026398 0.24400944 -0.21518613 -0.30884624 -0.12138751 -0.29428592 -0.41946658 -0.3029226
-0.23762465 -0.14731403 -0.028562585 -0.3663746 -0.025356922 -0.039032944 -0.18473758 -0.106776804
0.04076078 -0.08992418 -0.0849025 -0.0894412 -0.10186033 -0.0672974 -0.14291684 -0.004172668
-0.18216026 0.21483074 0.5057882 0.56679535 0.6164357 0.6071541 0.011727496 -0.20362602
-0.21963559 -0.16843061 -0.057994045 0.03586971 0.001832735 0.11573711 -0.0011617638 -0.0858085
-0.018340113 -0.19927359 -0.10965857 -0.13833381 -0.18063532 -0.0061016157 0.00024741233 -0.1438059
-0.15067494 -0.1036706 -0.074403614 0.014118862 0.18686593 0.543885 0.66227376 0.7384148
0.79651463 0.5434672 0.078015104 -0.12718181 -0.08018303 0.14664906 0.3494279 0.39580178
0.3854576 0.30411628 0.2127759 0.22557788 -0.14319138 -0.003123228 -0.1412068 -0.1468005
-0.103065744 0.028449988 -0.1086985 -0.12622474 -0.012109446 -0.23609321 -0.17019273 -0.006959658
0.3381395 0.540843 0.5510251 0.38170686 0.3768591 0.16493833 -0.102161355 -0.1291245
-0.07790834 0.21161968 0.43686846 0.44182584 0.37815842 0.27982482 -0.13869026 0.058067407
-0.1451032 -0.28559083 -0.16701627 0.03215631 0.010896842 -0.16847426 -0.106229626 -0.28960052
00000000: 913e 423c 08d4 b3bc 8943 513c d6d7 bfbd
00000010: ab27 13be 6432 29bd 75b5 1fbe 1c69 8dbc
00000020: d9cf 9cbd d37a 21be 45e8 aabd a922 0fbe
00000030: 881f 2dbe 6da9 03bd b8e0 3fbe f7bd 0abe
00000040: b767 3abe d06d de3c c018 b03c 833a f3bc
00000050: c077 0bbd 8dcc 24be 2c48 1fbd 3e0a 1dbe
00000060: 455c 2bbe d9d8 f23c 2645 b6bd 704e 38be
00000070: 9daa 0bbe 2b3f 6fbd f959 42bb 4d6e 42be
00000080: 0a7f 08bd 7a93 89bd e884 60bb 4e60 9cbd
00000090: 3b28 1abe 7ab6 b3bd 4bfc 36be 4731 d53b
000000a0: 8811 fcbb 17d2 79bd e93d db3b 2f02 bebd
000000b0: f729 06bd f273 1cbe 6dae 25be 9a4c 85bd
000000c0: 05b5 23be 1c92 4cbd feeb 32be 9ca4 76bc
000000d0: b5a3 e4bd 9bbb 97bd a183 c83c a01a f93c
000000e0: 1481 f8bd 09df a7bd 8633 d1bd dd3f 60bd
000000f0: 4d1b 17bd be4d c9bd 7587 a8bd c607 6dbe
00000100: a385 8abc 7c6d f5bd 4914 e03b ba2e d8bd
00000110: 2cb6 24be 19c3 9fbe 1ac0 34be 2cc2 9cbe
00000120: a179 f4bc 6ad5 b1bd ef06 10bd 8e69 c5bd
00000130: d8f5 66bd 2118 01bd 8a91 383c 4ef7 afbd
00000140: a981 09be c5eb bfbd 1db9 83bc 1962 6abd
00000150: 9762 9dbd cd0d dfbd edbb 35bd b706 d6bd
00000160: 35e1 50bc b07b 33bd 679b 4cbe 9713 00be
00000170: 0451 01be a6c0 2fbd ef67 b8bd fd84 9bbd
00000180: 953a 173d 5cfe 56be a2b8 04be 6593 f5bd
00000190: 07bc 06be fbaa 43bd c66d e6bd 4068 6ebe
000001a0: a3de 19be 89e5 22be 457a 2dbe ce0e 88bd
000001b0: c2ba 483d fdd9 dabd dc1b d2bd 6629 a4bd
000001c0: 6bad 1bbe ffb7 2cbd a4d0 edbc 94a2 0fbe
000001d0: ce3a 10bd fa1e 623d 9143 afbd 4773 50bd
000001e0: c832 a1bd 052a 24be f3f2 37be 0ac2 09be
000001f0: 99f2 debd 3433 873d e972 98be 4a5a 02bf
00000200: d9c7 a2be d339 0fbe 52a6 3ebe 5bd1 8cbe
00000210: 4dc0 4cbd d62b 29be 8994 8fbd 63ff 06be
00000220: 02e9 203a db66 36be 0290 c2bd 0026 b3bd
00000230: 015d 00be e10f 49be 60e9 7cbc a012 e6bd
00000240: 19d8 cfbd bbd7 35be 8860 603c 8f9f 9ebe
00000250: a445 53be 5daf 453d 693f ad3d c336 6c3e
00000260: 9bf3 9a3e 9cdd 793e c159 5cbe 1821 9ebe
00000270: 049a f8bd a5ac 96be 53c4 d6be ac18 9bbe
00000280: e053 73be 7dd9 16be 15fc e9bc 7495 bbbe
00000290: 52b9 cfbc 02e1 1fbd d92b 3dbe ccad dabd
000002a0: c7f4 263d 2b2a b8bd 5de1 adbd f32c b7bd
000002b0: 269c d0bd 38d3 89bd cb58 12be e0ba 88bb
000002c0: 3888 3abe 97fc 5b3e 567b 013f 8019 113f
000002d0: bbce 1d3f 736e 1b3f af24 403c 5783 50be
000002e0: 27e8 60be 1379 2cbe 2a8b 6dbd 1eec 123d
000002f0: 6238 f03a 9407 ed3d 5346 98ba 5ebc afbd
00000300: 013e 96bc 600e 4cbe ac94 e0bd 61a7 0dbe
00000310: 77f8 38be 10f0 c7bb 1fb7 8139 db41 13be
00000320: 884a 1abe 4051 d4bd ec60 98bd cd52 673c
00000330: c859 3f3e 0c3c 0b3f c68a 293f c108 3d3f
00000340: 62e8 4b3f ab20 0b3f 62c6 9f3d f33b 02be
00000350: 0037 a4bd 2c2b 163e 37e8 b23e 88a6 ca3e
00000360: b35a c53e 21b5 9b3e ede1 593e e3fd 663e
00000370: c3a0 12be 12af 4cbb 8498 10be df52 16be
00000380: 2214 d3bd f30f e93c 529d debd 0f41 01be
00000390: b366 46bc 6bc2 71be 0147 2ebe d80d e4bb
000003a0: 9f20 ad3e b074 0a3f fb0f 0d3f 156f c33e
000003b0: adf3 c03e 98e5 283e f939 d1bd 3739 04be
000003c0: 688e 9fbd d4b2 583e 39ad df3e ff36 e23e
000003d0: fb9d c13e 3345 8f3e d204 0ebe 17d8 6d3d
000003e0: ef95 14be f638 92be 5006 2bbe 56b6 033d
000003f0: ab88 323c 8484 2cbe eb8e d9bd 8546 94be
