20220518190.pt (torch, 424079 bytes, 8 tensors)

encoder.0.weight f4 [64, 784]
-0.01451859 0.029397331 0.01891163 0.018538352 -0.035502624 -0.21316187 -1.5657184 -0.8813045
-1.6960167 -2.8033183 -3.3974864 -2.4134524 -3.2112808 -2.4712713 -4.012602 -2.9215095
-0.46544045 -1.1564285 -1.4334306 -0.87084484 -1.1609597 -1.6488748 -0.9403368 -0.8340015
-0.023566788 -0.0068470584 -0.0018912555 -0.023647152 -0.016897624 -0.0018709984 1.1033328 0.42888287
-1.2434189 -0.75950736 -2.0213752 -4.206757 -3.572605 -3.8001077 -3.349873 -3.111848
-2.841351 -3.3643248 -1.9096171 -0.866178 -1.798083 -1.351593 -1.5810096 -1.0428807
-0.93314666 -2.7956893 -2.3222299 -3.3415942 -0.80709714 0.8964384 -0.0015431984 -0.027583247
0.016074726 0.014471804 0.39776093 -0.39100122 1.9556651 -2.4798176 -0.9320098 -0.19679314
-2.6080887 -2.0016437 -1.4797735 -0.10186567 -0.32084072 -0.90469337 -0.8864663 0.05979558
-0.28413337 -0.6899933 -0.42698556 0.10170366 -0.20660529 -0.31265086 -0.45671293 -0.15787378
-0.8815576 1.0172186 0.40479273 -0.017077804 0.031526417 -0.5899203 0.101166144 -0.774992
0.18116051 -0.8579565 -0.46909493 0.63775414 -0.21451733 0.4533527 -0.3731381 0.012368063
0.06682923 0.13735244 0.035616096 -0.06916804 0.38802868 -0.051748566 -0.21123005 0.03241515
0.13482174 -0.20805162 0.20326914 -0.62400454 -0.5433111 0.6002994 -1.361629 1.063646
-0.0041096127 0.9715193 -1.480678 0.4772977 -1.813447 1.1927342 -0.32549208 0.12645447
-0.46552843 0.253534 -0.041685235 0.11199061 0.07578825 0.007784432 0.25998744 0.04322694
0.15100291 0.006214593 -0.038335945 0.23294744 -0.08305921 0.23250091 0.006801978 0.14464481
0.25774643 -1.5790718 -0.5099925 -0.10969889 -0.013698557 -0.315704 -1.3029208 0.8785059
-0.19970569 -0.46596727 0.04146761 -0.22504461 0.2559978 -0.10876743 -0.09739252 -0.023794265
0.12851402 0.053387918 0.002022752 0.03151048 0.031984698 0.101556145 0.22537452 -0.0032400733
-0.17826353 -0.016501367 -0.11721429 -0.0058261785 0.4960797 -0.6628337 -0.57873756 1.0054531
-0.37526727 -1.7661768 1.0273513 0.026737738 0.39520678 0.02751232 -0.08002149 -0.03552104
-0.015457853 -0.1521932 0.10034733 -0.104834825 -0.16257638 0.037958052 -0.12980138 0.045666277
0.039387938 0.13155332 0.060341526 0.19822326 -0.05594111 0.07172608 -0.23208949 0.0155444965
-0.30404243 0.02318272 -0.44263288 1.006316 0.59281963 1.5443703 -0.5243547 0.42395502
-0.31123644 0.028308988 -0.06040118 0.0018169672 -0.18633695 -0.06432963 0.04583931 -0.098790124
-0.04409092 -0.05553317 0.028173542 0.08946941 -0.12477141 0.18754008 0.03876815 -0.09208526
-0.12788843 -0.029959956 -0.28201625 -0.08300773 0.3415192 -0.2703889 -0.7559106 0.71922576
0.09580842 0.5563173 -0.5811693 0.5198961 -0.18274921 0.16893946 -0.25741065 0.005075485
0.10467263 -0.077648334 -0.081943706 0.095723435 0.1142567 -0.011915607 0.10756213 0.08651632
0.1167003 0.008961124 0.14079297 0.017622968 0.19143294 -0.060160432 0.10024954 -0.40096688
-0.30017012 -0.7010577 -2.1212084 4.4898148 0.79777455 0.03441261 0.10415461 -0.05237591
00000000: 61df 6dbc acd2 f03c 90ec 9a3c bedd 973c
00000010: 336b 11bd 1b47 5abe 7669 c8bf 2c9d 61bf
00000020: 1317 d9bf 9169 33c0 6b70 59c0 0176 1ac0
00000030: a085 4dc0 4f29 1ec0 3c67 80c0 03fa 3ac0
00000040: 364e eebe d905 94bf a77a b7bf b0ef 5ebf
00000050: 549a 94bf 540e d3bf eab9 70bf 1f81 55bf
00000060: 230f c1bc 4a5d e0bb 01e4 f7ba acb7 c1bc
00000070: e36c 8abc 4a3c f5ba 023a 8d3f 8996 db3e
00000080: 5a28 9fbf 136f 42bf 365e 01c0 c19d 86c0
00000090: 8fa5 64c0 f734 73c0 5264 56c0 8528 47c0
000000a0: b2d8 35c0 1951 57c0 556e f4bf d7bd 5dbf
000000b0: 9527 e6bf 0001 adbf 865e cabf 1d7d 85bf
000000c0: b3e2 6ebf 93ec 32c0 6a9f 14c0 aedc 55c0
000000d0: eb9d 4ebf fd7c 653f 2545 caba 43f6 e1bc
000000e0: 25af 833c 251b 6d3c 52a7 cb3e 5031 c8be
000000f0: 3c53 fa3f 55b5 1ec0 3298 6ebf 2484 49be
00000100: edea 26c0 ee1a 00c0 3869 bdbf f39e d0bd
00000110: 3c45 a4be fc99 67bf 75ef 62bf 36ec 743d
00000120: ee79 91be 67a3 30bf da9d dabe 024a d03d
00000130: 5690 53be c613 a0be 47d6 e9be aaa9 21be
00000140: c2ad 61bf 3834 823f fe40 cf3e c0e6 8bbc
00000150: d821 013d 0405 17bf 3230 cf3d e065 46bf
00000160: 2482 393e 0aa3 5bbf 362d f0be db43 233f
00000170: 6eaa 5bbe d81d e83e f50b bfbe 6ba3 4a3c
00000180: c3dd 883d 1ea6 0c3e 2fe2 113d f9a7 8dbd
00000190: b2ab c63e 4ef6 53bd b14c 58be c0c5 043d
000001a0: b60e 0a3e 7c0b 55be c925 503e c3be 1fbf
000001b0: 7016 0bbf 39ad 193f dc49 aebf 8d25 883f
000001c0: eea9 86bb 7db5 783f db86 bdbf 5d60 f43e
000001d0: 081f e8bf 84ab 983f e6a6 a6be 487d 013e
000001e0: be59 eebe 35cf 813e 23be 2abd 555b e53d
000001f0: df36 9b3d 8c14 ff3b 131d 853e bb0e 313d
00000200: 82a0 1a3e c9a3 cb3b 2706 1dbd c689 6e3e
00000210: f21a aabd b814 6e3e 21e3 de3b c51d 143e
00000220: 57f7 833e 061f cabf de8e 02bf d0a9 e0bd
00000230: ea6f 60bc f4a3 a1be 1cc6 a6bf c3e5 603f
00000240: a67f 4cbe 4393 eebe f1d9 293d 1872 66be
00000250: 2512 833e 75c1 debd bb75 c7bd 31ec c2bc
00000260: 2e99 033e 4aad 5a3d 2690 043b 2211 013d
00000270: 6302 033d abfc cf3d 94c8 663e 6957 54bb
00000280: b78a 36be e02d 87bc 0c0e f0bd 87e9 bebb
00000290: 29fe fd3e 78af 29bf 2528 14bf b0b2 803f
000002a0: 0823 c0be 1512 e2bf 3f80 833f 1a09 db3c
000002b0: 8b58 ca3e 8461 e13c 4fe2 a3bd 837e 11bd
000002c0: ef42 7dbc 89d8 1bbe e782 cd3d a4b3 d6bd
000002d0: 6c7a 26be e779 1b3d a7ea 04be 900c 3b3d
000002e0: 3f55 213d eab5 063e ad28 773d 0afb 4a3e
000002f0: 8122 65bd 1fe5 923d dea8 6dbe 58ae 7e3c
00000300: 73ab 9bbe b0e9 bd3c c7a0 e2be f6ce 803f
00000310: 07c3 173f edad c53f 1c3c 06bf a210 d93e
00000320: 625a 9fbe 40e8 e73c 3a67 77bd 4d27 ee3a
00000330: 1dcf 3ebe 41bf 83bd 00c2 3b3d 7a52 cabd
00000340: ae98 34bd c076 63bd 33cc e63c bd3b b73d
00000350: 2788 ffbd 820a 403e 5acb 1e3d 3297 bcbd
00000360: 2ff5 02be 956e f5bc 6f64 90be f5ff a9bd
00000370: 9bdb ae3e 6a70 8abe 5b83 41bf 2e1f 383f
00000380: 3437 c43d d06a 0e3f 83c7 14bf e917 053f
00000390: 9c22 3bbe 77fe 2c3e 54cb 83be 4150 a63b
000003a0: 9b5e d63d 1706 9fbd 1ad2 a7bd a60a c43d
000003b0: 6bff e93d ae39 43bc 8949 dc3d 782f b13d
000003c0: 9100 ef3d aed1 123c 082c 103e 0b5e 903c
000003d0: ff06 443e c96a 76bd a14f cd3d 884b cdbe
000003e0: e6af 99be 8478 33bf e1c1 07c0 90ac 8f40
000003f0: f43a 4c3f 3df4 0c3d 034f d53d 1f88 56bd

encoder.0.bias f4 [64]
2.3266337 0.41755956 -0.7234866 2.000858 2.539844 -3.6202097 2.0673952 1.6412356
1.3421746 1.2702935 2.2307658 2.1598868 1.763772 2.5699928 2.239804 1.5430207
2.6751835 1.6926256 1.9839004 -0.30748612 2.9706442 2.5968702 0.1746197 0.56917185
1.8330029 2.1329591 1.4530061 2.598923 -0.32792217 1.3355759 1.0331814 1.1712942
0.12681192 1.4903742 3.095718 1.4170876 2.2416847 2.4178567 2.0258358 -0.06331776
0.15751612 0.051103786 1.6963142 1.0580012 2.9474816 2.1253612 1.5760087 1.8241097
-0.41571617 -0.1661822 -1.085076 2.7366116 0.11498697 2.0378761 1.9119447 2.752969
0.54601586 -0.8110128 0.8061687 1.6035236 1.4122201 2.8823843 1.1161689 1.7357916
00000000: 91e7 1440 5eca d53e 6b36 39bf 0f0e 0040
00000010: ce8c 2240 84b1 67c0 3450 0440 0214 d23f
00000020: 61cc ab3f fa98 a23f dec4 0e40 963b 0a40
00000030: 48c3 e13f c37a 2440 f358 0f40 b481 c53f
00000040: 3536 2b40 f5a7 d83f 73f0 fd3f d26e 9dbe
00000050: 091f 3e40 1f33 2640 82cf 323e 3fb5 113f
00000060: d79f ea3f 6782 0840 1bfc b93f c154 2640
00000070: 6ae5 a7be 27f4 aa3f 4a3f 843f f8ec 953f
00000080: fcda 013e 95c4 be3f 3e20 4640 2063 b53f
00000090: c377 0f40 2abe 1a40 4ba7 0140 beac 81bd
000000a0: e84b 213e 3452 513d d320 d93f 956c 873f
000000b0: 8aa3 3c40 eb05 0840 a7ba c93f 6d7c e93f
000000c0: c0d8 d4be ab2b 2abe c5e3 8abf a524 2f40
000000d0: 4a7e eb3d 906c 0240 9bba f43f a530 3040
000000e0: b2c7 0b3f 899e 4fbf 1261 4e3f 4340 cd3f
000000f0: a1c3 b43f fc78 3840 9fde 8e3f 6b2e de3f

encoder.2.weight f4 [32, 64]
-0.39941612 -0.111131676 -0.30941683 -0.35294488 -0.17847098 0.022360852 -0.07947734 0.019943422
0.0014387817 -0.16989017 -0.04816044 -0.34006417 -0.03602586 -0.13926461 -0.30919024 0.009894273
0.0646656 0.05072364 -0.09156161 -0.18593048 -0.15199648 -0.15638891 -0.026452009 -0.07977163
0.03326127 -0.44835556 -0.4317044 -0.36393782 -0.41662654 -0.09800639 -0.05277134 -0.40369052
-0.26244232 -0.17421813 -0.15539643 -0.41931584 -0.054504033 -0.14497483 -0.16384326 -0.43703046
-0.19442381 -0.2893681 0.05508836 -0.19977446 -0.008638886 -0.06872469 -0.4753103 -0.10578809
-0.44166434 -0.27106547 -0.28891248 -0.046089772 -0.15599039 -0.39869335 -0.28183928 -0.14134723
-0.25154588 -0.4280674 0.021727169 -0.02215069 -0.37566552 0.02102555 -0.046482224 -0.17974399
0.0511495 -0.0031500522 -0.3765054 -0.049909227 0.030104114 -0.008428098 -0.26234537 -0.027499482
0.039025843 -0.09358749 0.05191443 -0.09820103 -0.022269037 -0.17430308 -0.13070846 0.0068520484
-0.043189716 -0.044785876 -0.07362154 -0.37496763 -0.09302636 -0.155869 0.061854295 -0.013235122
-0.16346699 -0.11005425 -0.13473034 -0.09324233 -0.25599048 -0.091772266 -0.15938109 -0.16902153
-0.30768007 -0.088700525 -0.011125315 -0.08536351 -0.12422557 -0.16168186 -0.17033191 -0.2777284
-0.38105312 -0.29299107 0.0325216 -0.04596849 -0.075513504 -0.16647577 -0.27803016 -0.18174882
-0.27559587 -0.16510624 -0.07378132 -0.055530004 -0.16616629 -0.016947571 -0.1808703 -0.12948748
-0.3849635 -0.28882384 0.0075414767 -0.12602285 -0.17140453 -0.100007 -0.13980617 0.021208007
0.6147748 -0.07155165 0.02017466 -0.0031666153 -0.40718204 0.034165293 0.13957804 0.15001786
0.00452947 0.008082647 -0.75387293 -0.0018288988 -1.8220531 -0.016195878 -0.06219872 0.6377666
0.20379168 -0.24442697 0.0483884 0.13563612 -0.9112243 -0.041073192 0.067593805 -0.017585754
0.31898412 -0.0011092486 -0.004078562 0.0009837864 0.027191063 -1.4330711 -0.2537721 0.006660308
0.001611796 -0.030710405 -1.2906569 0.079847775 -0.64798796 -0.27707577 0.16556042 0.00780908
-0.039327886 -0.11535231 -0.12201305 -0.056445505 0.06534832 -0.08315034 0.24306576 -0.12462655
0.023015471 -0.02947145 0.001418865 -0.061794326 0.14714345 -0.016468216 0.06595225 -0.13088396
0.026645489 0.0071127373 -0.005584059 -0.09699188 0.09310717 0.014195419 -0.0070140352 -0.051637664
0.084931806 0.07183467 0.033959035 0.048032787 0.1689903 -0.040429667 0.20682888 0.6033902
0.010653828 -0.066746116 -0.2725659 0.24038383 -2.5395715 0.066961 -0.05758595 0.28775522
0.023204114 -0.011186764 -0.00946356 -0.057408713 -0.12642789 -0.11688673 0.07177902 -0.022320136
-0.033756852 0.055879764 0.06497416 0.13872989 0.00728051 -2.4165962 0.15894106 -0.019691963
-0.07719882 0.06296999 -2.790388 -0.045886774 -0.74807876 0.1339904 -0.04762312 0.0051790574
-0.0005672915 -0.019078234 -0.17462498 -0.03220625 -0.07642912 0.14392172 0.082017824 -0.10141957
0.0806363 0.04411504 -0.051003672 -0.35156402 0.33404645 0.100631006 0.01270988 -0.14328396
-0.02727018 -0.006364163 0.12759116 0.34224966 -0.022851054 0.18668036 0.09424906 0.106081456
00000000: 4580 ccbe 0199 e3bd e26b 9ebe 31b5 b4be
00000010: 19c1 36be 1b2e b73c 04c5 a2bd 6360 a33c
00000020: 8195 bc3a b0f7 2dbe e243 45bd e41c aebe
00000030: da8f 13bd 629b 0ebe 2f4e 9ebe 971b 223c
00000040: 666f 843d 97c3 4f3d a784 bbbd 8f64 3ebe
00000050: f7a4 1bbe 6a24 20be e2b1 d8bc 4f5f a3bd
00000060: f83c 083d dc8e e5be 5c08 ddbe 0f56 babe
00000070: 1350 d5be 93b7 c8bd c326 58bd 86b0 cebe
00000080: d75e 86be 3d66 32be 3e20 1fbe 91b0 d6be
00000090: 9f3f 5fbd 4874 14be 87c6 27be 75c2 dfbe
000000a0: 0917 47be 0e28 94be 55a4 613d ad91 4cbe
000000b0: 1d8a 0dbc 88bf 8cbd df5b f3be 6da7 d8bd
000000c0: d421 e2be 18c9 8abe 56ec 93be a1c8 3cbd
000000d0: f2bb 1fbe 8921 ccbe 3d4d 90be 54bd 10be
000000e0: 9fca 80be a62b dbbe 2dfd b13c 5d75 b5bc
000000f0: 3b57 c0be c63d ac3c 2564 3ebd cf0e 38be
00000100: 2382 513d 1b71 4ebb 51c5 c0be 9e6d 4cbd
00000110: e79c f63c 0116 0abc 2252 86be 9846 e1bc
00000120: 90d9 1f3d ccaa bfbd 3aa4 543d 9f1d c9bd
00000130: 8e6d b6bc 827c 32be 70d8 05be 2687 e03b
00000140: b3e7 30bd 6571 37bd e4c6 96bd c2fb bfbe
00000150: 9b84 bebd 209c 1fbe ee5a 7d3d 20d8 58bc
00000160: e463 27be 1f64 e1bd c0f6 09be d6f5 bebd
00000170: 2f11 83be 19f3 bbbd cc34 23be fb13 2dbe
00000180: 3e88 9dbe 9fa8 b5bd f446 36bc 10d3 aebd
00000190: fa69 febd ee8f 25be 7d6b 2ebe 6b32 8ebe
000001a0: 6519 c3be ed02 96be 5f35 053d 7549 3cbd
000001b0: d3a6 9abd a078 2abe f859 8ebe 5d1c 3abe
000001c0: e71a 8dbe 9c11 29be a91a 97bd 6e73 63bd
000001d0: 7f27 2abe a2d5 8abc 1036 39be 5e98 04be
000001e0: f019 c5be b8e0 93be 7e1e f73b 220c 01be
000001f0: ab84 2fbe 78d0 ccbd 5929 0fbe 6abc ad3c
00000200: e261 1d3f ac89 92bd 5445 a53c fd86 4fbb
00000210: 2a7a d0be e8f0 0b3d 8ced 0e3e 489e 193e
00000220: f36b 943b 146d 043c d1fd 40bf a9b7 efba
00000230: 0939 e9bf 38ad 84bc 16c4 7ebd ac44 233f
00000240: c4ae 503e 104b 7abe ea32 463d 32e4 0a3e
00000250: ff45 69bf 5d3c 28bd 9f6e 8a3d 0010 90bc
00000260: e351 a33e 3564 91ba 75a5 85bb 65f2 803a
00000270: cbbf de3c e06e b7bf 6bee 81be b73e da3b
00000280: e642 d33a 6394 fbbc 3f34 a5bf 3b87 a33d
00000290: 8ae2 25bf e0dc 8dbe ac88 293e 50e3 ff3b
000002a0: 4716 21bd d53d ecbd fae1 f9bd 6733 67bd
000002b0: 57d5 853d ba4a aabd 3be6 783e 343c ffbd
000002c0: f18a bc3c 1c6e f1bc 36f9 b93a 0c1c 7dbd
000002d0: c6ac 163e 5ae8 86bc f911 873d 7206 06be
000002e0: a447 da3c f711 e93b 7bfa b6bb aea3 c6bd
000002f0: f9ae be3d e793 683c fed5 e5bb 0482 53bd
00000300: baf0 ad3d 0e1e 933d a118 0b3d 07be 443d
00000310: cb0b 2d3e 9499 25bd f3ca 533e c877 1a3f
00000320: 658d 2e3c 30b2 88bd c28d 8bbe 2e27 763e
00000330: 5788 22c0 d922 893d 3fdf 6bbd a754 933e
00000340: 8e16 be3c b048 37bc 0c0d 1bbc 6625 6bbd
00000350: 5076 01be 4f62 efbd e100 933d b8d8 b6bc
00000360: a044 0abd 2ee2 643d 2c11 853d 350f 0e3e
00000370: 5891 ee3b 83a9 1ac0 72c1 223e 0a51 a1bc
00000380: 6a1a 9ebd 69f6 803d b895 32c0 c5f3 3bbd
00000390: 1782 3fbf c834 093e 7610 43bd 15b5 a93b
000003a0: 4ab6 14ba f549 9cbc e4d0 32be b3ea 03bd
000003b0: df86 9cbd 3760 133e f6f8 a73d 10b5 cfbd
000003c0: a524 a53d f9b1 343d 3ae9 50bd 3300 b4be
000003d0: 2308 ab3e a117 ce3d 1a3d 503c 08b9 12be
000003e0: b665 dfbc 788a d0bb 42a7 023e 593b af3e
000003f0: 2232 bbbc 2329 3f3e a705 c13d 3c41 d93d

encoder.2.bias f4 [32]
-0.3234057 -0.24874248 0.54730004 0.95071477 0.9747639 0.024911126 -0.06782406 -0.6051
-0.14832442 -0.41762584 0.9831562 0.37275892 -0.06535029 -0.018321382 0.69850487 0.006631253
-0.15755795 0.045579016 0.69507426 0.335001 -0.13682398 -0.09979715 0.27059087 -0.057539232
0.79075676 -0.229215 0.83716434 0.49291748 0.040358745 0.23844802 0.41847038 0.71062446
00000000: 6f95 a5be 59b6 7ebe db1b 0c3f 0b62 733f
00000010: 208a 793f 6b12 cc3c 57e7 8abd d5e7 1abf
00000020: 5be2 17be 0ed3 d5be 20b0 7b3f 42da be3e
00000030: 5fd6 85bd b916 96bc 37d1 323f fb4a d93b
00000040: df56 21be 10b1 3a3d 63f0 313f 4085 ab3e
00000050: 961b 0cbe 7362 ccbd e38a 8a3e 42ae 6bbd
00000060: 096f 4a3f 56b7 6abe 6750 563f ae5f fc3e
00000070: 364f 253d b82b 743e c041 d63e 7ceb 353f

decoder.0.weight f4 [64, 32]
-0.25332597 -0.28549564 -0.35932136 -0.27131575 -0.359268 -0.28860041 -0.11951034 -0.108307995
0.4116157 -0.03678999 -0.111734964 -0.45504734 -0.29092032 0.071672454 -0.43006125 -0.45314714
-0.074696206 -0.3527142 -0.21322165 -0.31787056 -0.20475367 -0.3743829 -0.3387012 -0.42526123
0.30233356 0.40753913 0.42798576 -0.35980025 0.23046753 -0.40301806 -0.21454713 0.1594169
-0.2704864 -0.2172008 -0.036715105 0.17956997 0.035590176 0.0039256667 -0.22043315 -0.0025868365
0.26979154 0.03616742 0.026255367 0.18189646 0.0415165 -0.15759937 -0.095609955 -0.075344086
-0.0014308592 -0.00096842274 -0.08503375 0.4980787 -0.22957447 -0.13192077 0.017262785 -0.1691
0.12782905 0.035023123 0.068320714 -0.05399081 0.12517424 0.10511151 0.12182148 -0.011598758
0.14307866 0.022796135 -0.0052769776 -0.13032122 0.026996505 0.22384447 0.13313982 0.18705584
-0.1793451 -0.0514383 -0.066773996 -0.08125517 0.119928 -0.0046714847 -0.0689623 -0.10441175
-0.15652166 0.14694801 -0.081860475 0.04557261 -0.044693507 0.20046148 -0.26884684 0.2138269
0.06083983 0.05237724 0.62010944 -0.12840754 -0.13617352 -0.1115507 0.011275768 0.08547987
-0.09363444 0.0679863 -0.005676413 -0.23715936 -0.11689808 -0.13572305 -0.18309133 0.11879846
0.16964373 0.11248806 0.05022629 -0.11299179 -0.15836293 -0.15798268 -0.1049777 0.06719694
0.020694861 -0.09400526 -0.15894036 0.027302472 -0.051114943 -0.087510884 0.18260907 -0.22922651
0.052448217 -0.024431687 0.17914002 0.05566909 0.17162319 -0.23472852 -0.11138335 -0.038397253
-0.10446409 -0.26737055 -0.115944825 -0.14775164 -0.19620626 -0.082968615 -0.23436786 0.089650705
0.0264272 0.14055087 -0.024781235 -0.07927989 -0.15633406 -0.22287169 0.02854541 -0.21384896
0.080046095 -0.19381535 -0.2030204 -0.1379436 0.06898269 -0.17329106 -0.08447602 -0.054058015
-0.12838703 -0.061211165 0.06914118 0.2191481 0.22860976 -0.19964959 -0.10161564 -0.06451621
-0.081909016 -0.28202528 -0.2782209 -0.32314354 -0.3635541 -0.33854717 0.0060899 -0.16049293
0.26519322 0.10595644 -0.24346147 -0.2169187 -0.018721875 -0.008841025 0.035129644 -0.41916528
-0.016668689 -0.30129305 -0.23374504 -0.2957684 -0.43943757 -0.2913852 -0.2421946 -0.080914594
-0.19370264 0.2699366 -0.35530066 -0.3193209 0.24310564 -0.24634868 -0.4226256 0.12814583
0.08800488 -0.099154614 -0.14010547 -0.11898628 -1.0510434 -0.14118582 0.113399185 -0.14867564
0.03115358 0.10947992 -0.17148717 -0.026439914 -0.1597318 -0.36913761 0.13460697 0.13649046
-0.17731597 0.11979129 0.033640817 -0.01682717 -0.060716655 0.006058823 0.0041958382 0.18369155
-0.057157274 0.06625678 -0.04068715 -0.05660021 -0.061898816 -0.14332528 0.519753 -0.2441803
-0.25162113 -0.29132107 0.012471881 -0.032058332 -0.05547669 -0.039841462 -0.07724529 -0.31835622
0.14935371 0.12751411 0.07714294 -0.10757473 -0.22169471 -0.118596725 0.01981656 -0.31368405
0.26904842 -0.032609753 0.45637363 0.16576867 -0.059706036 -0.3022875 0.04323585 -0.15700892
0.0074670985 0.15925768 0.1110486 -0.0070473542 0.014487119 0.00037884782 -0.08008572 0.3230893
00000000: f1b3 81be 7c2c 92be f8f8 b7be e6e9 8abe
00000010: faf1 b7be 6fc3 93be d6c1 f4bd 95d0 ddbd
00000020: 4bbf d23e 1ab1 16bd 4dd5 e4bd f7fb e8be
00000030: 82f3 94be 02c9 923d fd30 dcbe e702 e8be
00000040: 53fa 98bd f596 b4be c756 5abe eebf a2be
00000050: f2aa 51be 1eaf bfbe 3e6a adbe d7bb d9be
00000060: 77cb 9a3e f8a8 d03e f320 db3e bd37 b8be
00000070: aeff 6b3e 6258 cebe 3eb2 5bbe 2f3e 233e
00000080: 327d 8abe e369 5ebe 9462 16bd 31e1 373e
00000090: 01c7 113d e1a2 803b 3ab9 61be ea87 29bb
000000a0: 1e22 8a3e 4a24 143d 7f15 d73c 1143 3a3e
000000b0: 350d 2a3d bb61 21be 27cf c3bd 004e 9abd
000000c0: ab8b bbba c0dd 7dba 2d26 aebd 2c04 ff3e
000000d0: 9215 6bbe 3d16 07be af6a 8d3c 8d28 2dbe
000000e0: 9ee5 023e 6874 0f3d bbeb 8b3d 7825 5dbd
000000f0: ad2d 003e b444 d73d 8a7d f93d b808 3ebc
00000100: 3683 123e f6be ba3c 7fea acbb ed72 05be
00000110: c627 dd3c 7c37 653e ce55 083e 918b 3f3e
00000120: 3ea6 37be f8b0 52bd cec0 88bd 1c69 a6bd
00000130: d09c f53d 4113 99bb 1b3c 8dbd d4d5 d5bd
00000140: 3747 20be 8a79 163e 77a6 a7bd 58aa 3a3d
00000150: 8a10 37bd c645 4d3e 4ba6 89be 70f5 5a3e
00000160: 3033 793d 8489 563d 7ebf 1e3f 447d 03be
00000170: 1271 0bbe b274 e4bd 00be 383c 1210 af3d
00000180: 6ac3 bfbd 673c 8b3d 3401 babb e7d9 72be
00000190: 4368 efbd fcfa 0abe 4b7c 3bbe 9b4c f33d
000001a0: 16b7 2d3e 2460 e63d 15ba 4d3d 3d68 e7bd
000001b0: e429 22be 36c6 21be 8cfe d6bd 8d9e 893d
000001c0: 4588 a93c d485 c0bd 43c1 22be 6fa9 df3c
000001d0: e75d 51bd e838 b3bd dffd 3a3e 5bba 6abe
000001e0: f1d3 563d f624 c8bc 7b70 373e 4605 643d
000001f0: fdbd 2f3e ac5c 70be f41c e4bd 7046 1dbd
00000200: 45f1 d5bd cbe4 88be 7b74 edbd 354c 17be
00000210: 4bea 48be 73eb a9bd 21fe 6fbe ca9a b73d
00000220: db7d d83c 91ec 0f3e 0402 cbbc 7f5d a2bd
00000230: 0916 20be 7a38 64be 10d8 e93c 39fb 5abe
00000240: 35ef a33d 8877 46be 94e4 4fbe 1641 0dbe
00000250: cc46 8d3d 3673 31be c301 adbd f06b 5dbd
00000260: e477 03be 8fb8 7abd e499 8d3d 5c68 603e
00000270: ad18 6a3e f170 4cbe dc1b d0bd 1321 84bd
00000280: eabf a7bd 9e65 90be f872 8ebe 1273 a5be
00000290: c323 babe 0e56 adbe c98d c73b 4258 24be
000002a0: 68c7 873e b1ff d83d f74d 79be f01f 5ebe
000002b0: 9e5e 99bc f2d9 10bc 1ae4 0f3d d59c d6be
000002c0: c68c 88bc 1543 9abe dc5a 6fbe f56e 97be
000002d0: f6fd e0be 7130 95be dc01 78be 8db6 a5bd
000002e0: fc59 46be 2135 8a3e f8e9 b5be 077e a3be
000002f0: aff0 783e d442 7cbe 6262 d8be a938 033e
00000300: e73b b43d 9311 cbbd cf77 0fbe 14af f3bd
00000310: 9788 86bf 0493 10be d53d e83d 6d3e 18be
00000320: cb35 ff3c 0237 e03d 559a 2fbe 8598 d8bc
00000330: bc90 23be 9bff bcbe 69d6 093e 28c4 0b3e
00000340: 5192 35be 2355 f53d f4ca 093d 22d9 89bc
00000350: 07b2 78bd 1789 c63b 3e7d 893b a319 3c3e
00000360: bf1d 6abd a2b1 873d 92a7 26bd 9fd5 67bd
00000370: 9d89 7dbd ddc3 12be 880e 053f 670a 7abe
00000380: 7cd4 80be 0928 95be dc56 4c3c 994f 03bd
00000390: 873b 63bd cd30 23bd c732 9ebd 96ff a2be
000003a0: 2ef0 183e 0f93 023e 1efd 9d3d 2450 dcbd
000003b0: f003 63be d7e2 f2bd 5756 a23c 329b a0be
000003c0: b7c0 893e ce91 05bd cea9 e93e 43bf 293e
000003d0: 518e 74bd 6dc5 9abe 1318 313d f2c6 20be
000003e0: 90ae f43b 7214 233e 736d e33d 7eed e6bb
000003f0: 625b 6d3c 18a0 c639 fb03 a4bd f66b a53e

decoder.0.bias f4 [64]
-0.22680783 -0.15287142 0.12096285 -0.115383044 0.0010334374 -0.21934322 0.13582385 -0.07936301
0.10591565 -0.15315112 0.009304814 -0.042207133 0.05384529 -0.12726171 -0.06626118 -0.21585536
-0.05263677 -0.004681658 -0.20174734 -0.038627654 0.0073998477 -0.0524416 0.17013052 -0.08124887
-0.46704724 -0.2089211 -0.18199062 -0.3672945 -0.15602544 0.19201674 -0.0026186383 -0.25033006
-0.0861656 0.0525489 -0.10193637 0.24150921 0.16051474 -0.17945628 0.021277368 -0.09770136
-0.21733019 -0.06000704 0.01375547 0.092011 0.21953051 -0.09557603 0.056760907 0.23275429
-0.24073167 -0.1185788 0.101444304 -0.097267434 -0.18984024 0.026438419 -0.39915743 -0.011633978
-0.14826924 0.16354004 -0.026648775 -0.27152342 0.2674093 0.15027806 0.11633374 -0.00808477
00000000: 5040 68be 538a 1cbe 5fbb f73d f24d ecbd
00000010: 6874 873a 829b 60be 6815 0b3e 1389 a2bd
00000020: 4eea d83d a6d3 1cbe 3873 183c 63e1 2cbd
00000030: e18c 5c3d e550 02be f1b3 87bd 3009 5dbe
00000040: a799 57bd 9868 99bb db96 4ebe 0838 1ebd
00000050: 6c7a f23b 01cd 56bd b236 2e3e cf65 a6bd
00000060: d120 efbe 6aef 55be c05b 3abe 060e bcbe
00000070: 22c5 1fbe 09a0 443e 769d 2bbb 432b 80be
00000080: 9777 b0bd 843d 573d 04c4 d0bd 314e 773e
00000090: fa5d 243e 63c3 37be e04d ae3c a717 c8bd
000000a0: ce8b 5ebe f1c9 75bd 9f5e 613c 4370 bc3d
000000b0: 9bcc 603e 5ebd c3bd 207e 683d 2457 6e3e
000000c0: 5d82 76be 71d9 f2bd 08c2 cf3d 2634 c7bd
000000d0: 7b65 42be 6295 d83c 5d5e ccbe 719c 3ebc
000000e0: e4d3 17be 0a77 273e 884e dabc 1e05 8bbe
000000f0: dfe9 883e 7ee2 193e 6240 ee3d fc75 04bc

decoder.2.weight f4 [784, 64]
0.12048316 -0.0717008 0.027837768 -0.062499687 -0.07684393 -0.030415595 0.047044218 -0.06867351
0.0056370683 -0.06274237 -0.15475082 -0.07474625 -0.0066759516 0.016257344 0.03934961 -0.10634835
-0.0013786952 -0.11615877 -0.03132589 -0.109044604 -0.0473105 -0.13978434 -0.07455986 -0.10067224
0.054813445 -0.00950326 -0.15112796 0.07141726 0.007982358 -0.0192694 -0.083626375 -0.07751396
0.009218454 -0.03937456 -0.10164793 -0.13410006 -0.16498546 -0.010858607 -0.1497212 -0.13940343
-0.104273364 -0.12282791 -0.07463272 0.079362094 -0.043087788 -0.15795791 -0.00461708 0.025463864
-0.022422343 -0.097600915 -0.1876302 -0.05299131 -0.052092955 -0.039974824 0.02076085 0.108745545
-0.037552014 -0.018052224 0.034599796 -0.08145313 0.07595335 -0.04158198 -0.1659851 -0.07619755
0.06963125 0.013798496 -0.08253813 0.08249542 -0.1240173 -0.05948223 -0.044242874 -0.020878676
-0.18955301 0.010029424 -0.019258969 -0.043100152 -0.047876082 -0.20213841 -0.02722228 0.0002310127
-0.19234413 0.030146033 -0.03332615 -0.13915828 -0.06153421 -0.09045856 -0.051547658 -0.027213959
-0.06895034 -0.009820044 0.04732474 -0.07211088 0.03611304 -0.02210167 0.02630706 0.07919788
0.015676018 -0.0589682 -0.120148316 -0.016565124 -0.0019388472 -0.03247702 -0.08295485 -0.13830961
-0.07077688 0.041052707 -0.064343736 0.035126954 -0.038425043 0.011240777 0.086351946 -0.036531646
-0.0028067976 -0.037172746 -0.15171885 -0.04288378 0.0071991533 -0.1421318 -0.021944318 -0.17312847
-0.17162491 -0.05099017 0.0030074606 -0.034970794 0.012195326 -0.046325434 -0.05621815 -0.13431737
0.11051157 -0.2385791 -0.10635111 0.109441906 -0.060521185 -0.03290035 0.084145635 0.010903449
-0.16657157 -0.08980522 0.06665999 -0.020876363 -0.043720387 -0.07826002 -0.016367532 0.017387375
0.032955956 0.03990993 0.0040626973 -0.053980775 -0.08450088 -0.17164293 -0.063952744 -0.010881573
0.06490046 -0.024790928 -0.06415863 -0.0112737715 -0.07263322 -0.014957882 -0.13641208 -0.06460041
0.08234641 0.052402288 -0.043819502 -0.14662516 -0.12612726 -0.018353626 -0.1897217 0.07627307
0.058495402 -0.10917009 0.029716969 -0.09848307 -0.027909748 0.034296803 0.08962098 -0.0011446178
0.037411604 0.07445887 -0.13738248 -0.10880733 -0.050177634 0.08580437 0.018500894 -0.02618654
0.06233585 -0.15089442 -0.0921763 0.11249836 -0.06579987 -0.13480577 -0.17683318 -0.07444915
-0.02985464 -0.0023406446 -0.007692225 0.11698729 -0.12193701 0.093454555 0.052410677 -0.11589859
-0.17425944 -0.19145751 -0.048530042 -0.0033758874 -0.13737781 0.006216958 0.03705157 -0.082317784
-0.1050021 -0.101419464 -0.18839866 -0.026561994 0.06227015 0.04569039 -0.048983544 0.034139052
-0.010237038 -0.032420307 -0.13206741 0.09931527 0.08822484 -0.16294211 0.050396994 0.0052458346
0.123091355 -0.09545307 0.07420689 0.02398427 -0.08943607 0.059877038 -0.19350684 -0.12076093
0.047394574 -0.12177489 0.114171475 -0.1035409 -0.006540539 -0.06729182 -0.10640581 -0.07054442
0.067797646 -0.029592516 0.046253193 0.02882187 0.11999087 -0.0071295793 -0.07883259 -0.03365634
-0.13974003 -0.0751902 -0.16725169 -0.085347205 -0.11223027 -0.13738792 0.012352527 -0.061739996
00000000: e0bf f63d ded7 92bd 080c e43c acff 7fbd
00000010: 5a60 9dbd 202a f9bc 70b1 403d b2a4 8cbd
00000020: 28b7 b83b 127f 80bd 0077 1ebe 9014 99bd
00000030: f1c1 dabb 1f2e 853c 0f2d 213d 2acd d9bd
00000040: 56b5 b4ba a6e4 edbd 944f 00bd c752 dfbd
00000050: a8c8 41bd a023 0fbe d7b2 98bd 3f2d cebd
00000060: 1084 603d 90b3 1bbc 4ac1 1abe 3643 923d
00000070: 70c8 023c dcda 9dbc 4e44 abbd a4bf 9ebd
00000080: 0009 173c 3847 21bd ca2c d0bd 8751 09be
00000090: f3f1 28be 4ce8 31bc 8450 19be c6bf 0ebe
000000a0: 468d d5bd 338d fbbd 0ad9 98bd 9888 a23d
000000b0: d27c 30bd b8bf 21be e04a 97bb 9899 d03c
000000c0: 10af b7bc fde2 c7bd 2222 40be 6a0d 59bd
000000d0: 6c5f 55bd a4bc 23bd a812 aa3c fcb5 de3d
000000e0: 24d0 19bd 42e2 93bc 84b8 0d3d e6d0 a6bd
000000f0: 6e8d 9b3d de51 2abd 00f8 29be 760d 9cbd
00000100: d49a 8e3d 1613 623c c009 a9bd 5cf3 a83d
00000110: c8fc fdbd a4a3 73bd 0438 35bd c209 abbc
00000120: 2f1a 42be 7452 243c fcc4 9dbc c989 30bd
00000130: b619 44bd 5ffd 4ebe 4201 dfbc 003c 7239
00000140: dcf5 44be d0f4 f63c 0081 08bd 827f 0ebe
00000150: 4c0b 7cbd 5642 b9bd a323 53bd cfef debc
00000160: d635 8dbd 40e4 20bc 96d7 413d deae 93bd
00000170: 44eb 133d 900e b5bc e781 d73c 8032 a23d
00000180: fe6a 803c a488 71bd 5210 f6bd 95b3 87bc
00000190: eb20 feba a006 05bd 3be4 a9bd 09a1 0dbe
000001a0: 78f3 90bd e226 283d a6c6 83bd 48e1 0f3d
000001b0: 9463 1dbd 3c2b 383c 4ad9 b03d 35a2 15bd
000001c0: 40f2 37bb 7342 18bd 305c 1bbe e7a6 2fbd
000001d0: e0e6 eb3b 008b 11be 92c4 b3bc 9748 31be
000001e0: 71be 2fbe 12db 50bd d118 453b 893d 0fbd
000001f0: e8ce 473c bdbf 3dbd 0145 66bd 7e8a 09be
00000200: e453 e23d 144e 74be 9cce d9bd 1423 e03d
00000210: 10e5 77bd 84c2 06bd 8c54 ac3d 61a4 323c
00000220: bd91 2abe cdeb b7bd 0885 883d e804 abbc
00000230: 2614 33bd ca46 a0bd 3415 86bc f86f 8e3c
00000240: d3fc 063d 9878 233d 6020 853b f21a 5dbd
00000250: cc0e adbd 2ac3 2fbe a8f9 82bd a048 32bc
00000260: 88ea 843d 5816 cbbc 9a65 83bd a0b5 38bc
00000270: bac0 94bd e811 75bc 9caf 0bbe 384d 84bd
00000280: 3ca5 a83d c8a3 563d 147c 33bd e824 16be
00000290: 8127 01be 585a 96bc 6846 42be 0e35 9c3d
000002a0: e098 6f3d 9194 dfbd 0071 f33c 7eb1 c9bd
000002b0: fca2 e4bc ce7a 0c3d 348b b73d 0007 96ba
000002c0: e93c 193d e47d 983d fead 0cbe 61d6 debd
000002d0: 1087 4dbd 34ba af3d 308f 973c 2885 d6bc
000002e0: e053 7f3d 1184 1abe eec6 bcbd 8a65 e63d
000002f0: 15c2 86bd 860a 0abe c213 35be cc78 98bd
00000300: b891 f4bc 8065 19bb 0f0f fcbb 0897 ef3d
00000310: 1cba f9bd 1a65 bf3d 94ac 563d 3d5c edbd
00000320: 1171 32be 700d 44be 70c7 46bd fe3d 5dbb
00000330: c5ac 0cbe a0b7 cb3b 63c3 173d 3a96 a8bd
00000340: 570b d7bd 02b5 cfbd 94eb 40be 8a98 d9bc
00000350: fc0e 7f3d d925 3b3d f8a2 48bd 64d5 0b3d
00000360: 40b9 27bc 28cb 04bd ae3c 07be ce65 cb3d
00000370: 3aaf b43d 4cda 26be 146d 4e3d 40e5 ab3b
00000380: 5217 fc3d e67c c3bd c8f9 973d a97a c43c
00000390: 422a b7bd a041 753d a826 46be 8251 f7bd
000003a0: d020 423d 1d65 f9bd bcd2 e93d 400d d4bd
000003b0: 0552 d6bb 4bd0 89bd 4aeb d9bd 9879 90bd
000003c0: 7ed9 8a3d 016c f2bc fd73 3d3d d81b ec3c
000003d0: c6bd f53d 3f9f e9bb fb72 a1bd 3bdb 09bd
000003e0: 0318 0fbe 52fd 99bd 0744 2bbe 84ca aebd
000003f0: fcd8 e5bd 6baf 0cbe 4162 4a3c 14e3 7cbd

decoder.2.bias f4 [784]
0.011855737 -0.02195169 0.012772449 -0.09367339 -0.14370601 -0.041307822 -0.15596564 -0.017262034
-0.07656831 -0.1576951 -0.08345083 -0.13978066 -0.1690656 -0.032144 -0.18738067 -0.13549028
-0.18203627 0.027151972 0.021496177 -0.029690986 -0.03404975 -0.16093655 -0.038887188 -0.15335938
-0.16734417 0.029644417 -0.08899908 -0.17998672 -0.13639303 -0.05840985 -0.0029655679 -0.18987389
-0.03332428 -0.06717582 -0.0034258906 -0.07635556 -0.15054409 -0.059768658 -0.1786968 0.0065061185
-0.0076925196 0.0034932536 0.00669073 -0.0927776 -0.032754865 -0.15278605 -0.1617982 -0.06508751
-0.15987022 -0.04994403 -0.17472836 -0.015053894 -0.11164037 -0.0740883 0.024476828 0.030408204
-0.12133995 -0.081968375 -0.102149054 -0.054748405 -0.03689127 -0.09829281 -0.082289614 -0.23147497
-0.016909426 -0.11983773 0.0068383557 -0.105557874 -0.16085118 -0.23570853 -0.17651406 -0.22992292
-0.029843153 -0.086832836 -0.035162862 -0.096392736 -0.0563868 -0.03151715 0.011265168 -0.085920915
-0.13428368 -0.09371141 -0.01607948 -0.05722246 -0.0768482 -0.10891304 -0.044368673 -0.104504995
-0.012749006 -0.04381913 -0.19981156 -0.12507473 -0.12628561 -0.042908333 -0.09004199 -0.07593725
0.036921103 -0.20995468 -0.12961057 -0.07190048 -0.06300064 -0.04777048 -0.14007187 -0.23281956
-0.15026335 -0.15907873 -0.16941173 -0.06643449 0.04900623 -0.10686109 -0.06487879 -0.080157086
-0.15202872 -0.04216766 -0.014592967 -0.14026862 -0.03521233 0.055205323 -0.08125707 -0.050891187
-0.07871014 -0.16031654 -0.17963772 -0.13452926 -0.108861156 0.022946626 -0.28974187 -0.47351614
-0.29512617 -0.1867894 -0.26671508 -0.35929957 -0.04998808 -0.16520628 -0.07010753 -0.111723214
0.00061382365 -0.17812674 -0.095001236 -0.08747482 -0.12535478 -0.12425152 -0.0154365 -0.11234021
-0.10148639 -0.17758076 0.01369489 -0.31673282 -0.18850172 0.017917832 0.030545011 0.14771038
0.2059992 0.15516782 -0.24021709 -0.30884624 -0.12138751 -0.31672466 -0.50789714 -0.4008449
-0.33758286 -0.25746664 -0.028562585 -0.3663746 -0.025356922 -0.039032944 -0.18473758 -0.106776804
0.04076078 -0.08992418 -0.0849025 -0.0894412 -0.10186033 -0.0672974 -0.14291684 -0.004172668
-0.18520859 0.12503695 0.34463465 0.3626473 0.41774926 0.45724627 -0.040801886 -0.1692413
-0.18458545 -0.19327036 -0.16301805 -0.100065775 -0.14802718 -0.0042731273 -0.0011617638 -0.0858085
-0.018340113 -0.19927359 -0.10965857 -0.13833381 -0.18063532 -0.0061016157 0.00024741233 -0.1438059
-0.15067494 -0.1036706 -0.14495258 -0.06703012 0.098587975 0.38937163 0.46236247 0.5188521
0.6200901 0.4147551 0.070919365 -0.062867284 -0.03640464 0.11643119 0.19831179 0.18869801
0.22350945 0.17403841 0.12450572 0.15990654 -0.14319138 -0.003123228 -0.1412068 -0.1468005
-0.103065744 0.028449988 -0.1086985 -0.12622474 -0.012109446 -0.19996822 -0.18027157 -0.050227255
0.26725942 0.41506836 0.44742373 0.29022208 0.32057533 0.1393321 -0.050077472 -0.020443305
0.0021571382 0.17589363 0.2838204 0.2378498 0.2311802 0.18449105 -0.13869026 0.033155188
-0.1451032 -0.28559083 -0.16701627 0.03215631 0.010896842 -0.16847426 -0.106229626 -0.12270166
00000000: 913e 423c 08d4 b3bc 8943 513c d6d7 bfbd
00000010: ab27 13be 6432 29bd 75b5 1fbe 1c69 8dbc
00000020: d9cf 9cbd d37a 21be 45e8 aabd a922 0fbe
00000030: 881f 2dbe 6da9 03bd b8e0 3fbe f7bd 0abe
00000040: b767 3abe d06d de3c c018 b03c 833a f3bc
00000050: c077 0bbd 8dcc 24be 2c48 1fbd 3e0a 1dbe
00000060: 455c 2bbe d9d8 f23c 2645 b6bd 704e 38be
00000070: 9daa 0bbe 2b3f 6fbd f959 42bb 4d6e 42be
00000080: 0a7f 08bd 7a93 89bd e884 60bb 4e60 9cbd
00000090: 3b28 1abe fbcf 74bd 4bfc 36be 4731 d53b
000000a0: 8811 fcbb 12ef 643b e93d db3b 2f02 bebd
000000b0: f729 06bd f273 1cbe 6dae 25be 9a4c 85bd
000000c0: 05b5 23be 1c92 4cbd feeb 32be 9ca4 76bc
000000d0: b5a3 e4bd 9bbb 97bd a183 c83c a01a f93c
000000e0: 1481 f8bd 09df a7bd 8633 d1bd dd3f 60bd
000000f0: 4d1b 17bd be4d c9bd 7587 a8bd c607 6dbe
00000100: a385 8abc 7c6d f5bd 4914 e03b ba2e d8bd
00000110: 2cb6 24be 945d 71be 1ac0 34be ea70 6bbe
00000120: a179 f4bc 6ad5 b1bd ef06 10bd 8e69 c5bd
00000130: d8f5 66bd 2118 01bd 8a91 383c 4ef7 afbd
00000140: a981 09be c5eb bfbd 1db9 83bc 1962 6abd
00000150: 9762 9dbd cd0d dfbd edbb 35bd b706 d6bd
00000160: 35e1 50bc b07b 33bd 679b 4cbe 9713 00be
00000170: 0451 01be a6c0 2fbd ef67 b8bd fd84 9bbd
00000180: 953a 173d 5cfe 56be a2b8 04be 8f40 93bd
00000190: 7b06 81bd fbaa 43bd 006f 0fbe 4068 6ebe
000001a0: a3de 19be 89e5 22be 457a 2dbe ce0e 88bd
000001b0: c2ba 483d fdd9 dabd 2cdf 84bd 6629 a4bd
000001c0: 6bad 1bbe ffb7 2cbd 5717 6fbc 94a2 0fbe
000001d0: ce3a 10bd fa1e 623d 1b6a a6bd 4773 50bd
000001e0: c832 a1bd 052a 24be f3f2 37be 0ac2 09be
000001f0: 99f2 debd 90fa bb3c 0c59 94be b570 f2be
00000200: c71a 97be b845 3fbe e18e 88be 1df6 b7be
00000210: 4dc0 4cbd d62b 29be 8994 8fbd 24cf e4bd
00000220: 02e9 203a db66 36be 0290 c2bd 0026 b3bd
00000230: 015d 00be 9577 febd 60e9 7cbc a012 e6bd
00000240: 19d8 cfbd bbd7 35be 8860 603c ce2a a2be
00000250: 9806 41be 6bc8 923c 8839 fa3c 6441 173e
00000260: 74f1 523e 50e4 1e3e 78fb 75be 1821 9ebe
00000270: 049a f8bd bc29 a2be 8c05 02bf 8b3b cdbe
00000280: a9d7 acbe abd2 83be 15fc e9bc 7495 bbbe
00000290: 52b9 cfbc 02e1 1fbd d92b 3dbe ccad dabd
000002a0: c7f4 263d 2b2a b8bd 5de1 adbd f32c b7bd
000002b0: 269c d0bd 38d3 89bd cb58 12be e0ba 88bb
000002c0: 52a7 3dbe b009 003e f473 b03e e8ac b93e
000002d0: 3be3 d53e 2f1c ea3e e11f 27bd 974d 2dbe
000002e0: f803 3dbe aae8 45be 34ee 26be 49ef ccbd
000002f0: 7094 17be 9705 8cbb 5346 98ba 5ebc afbd
00000300: 013e 96bc 600e 4cbe ac94 e0bd 61a7 0dbe
00000310: 77f8 38be 10f0 c7bb 1fb7 8139 db41 13be
00000320: 884a 1abe 4051 d4bd 736e 14be 1647 89bd
00000330: 7ee8 c93d b85b c73e c6ba ec3e 7ed3 043f
00000340: 3abe 1e3f c85a d43e 2c3e 913d 90c0 80bd
00000350: 081d 15bd 7a73 ee3d 3f12 4b3e 0d3a 413e
00000360: a9df 643e 2037 323e dbfc fe3d 8abe 233e
00000370: c3a0 12be 12af 4cbb 8498 10be df52 16be
00000380: 2214 d3bd f30f e93c 529d debd 0f41 01be
00000390: b366 46bc 78c4 4cbe 1c99 38be 18bb 4dbd
000003a0: 3ad6 883e d783 d43e b914 e53e fd97 943e
000003b0: 7322 a43e 13ad 0e3e 091e 4dbd b878 a7bc
000003c0: c65e 0d3b 761d 343e e850 913e e68e 733e
000003d0: 81ba 6c3e 39eb 3c3e d204 0ebe bccd 073d
000003e0: ef95 14be f638 92be 5006 2bbe 56b6 033d
000003f0: ab88 323c 8484 2cbe eb8e d9bd 024b fbbd
