2022051820.pt (torch, 424079 bytes, 8 tensors)

encoder.0.weight f4 [64, 784]
-0.01451859 0.029397331 0.01891163 0.018538352 -0.012075045 -0.02707419 -0.69649535 -0.3817878
0.26205963 0.5115868 0.39066684 0.30486888 -0.073291674 -0.26081768 -0.54029673 -0.16135798
0.30886567 0.5813431 0.6300331 0.36784646 0.11633661 0.19051325 -0.25230733 -0.44980046
-0.023566788 -0.0068470584 -0.0018912555 -0.023647152 -0.016897624 -0.0018709984 0.1958715 -0.05466069
0.15676156 -0.9691434 -0.19746919 0.24737315 0.6874024 0.84613365 0.8247654 -0.06288648
-0.35868508 -0.8269176 -0.54344684 0.076150864 0.044482403 0.30362323 0.2450373 0.17898992
0.45428512 -0.006193501 0.25310084 -0.20592187 -0.21755108 -0.3773891 -0.0015431984 -0.027583247
0.016074726 0.014471804 -0.06281482 -0.7273932 0.30921528 -0.54553366 -0.5707362 0.016431203
0.46362117 0.96613127 0.78701276 0.35527912 -0.14024524 -0.039834008 0.03392477 -0.030048935
-0.11446638 0.1927278 0.13186418 -0.01037916 -0.0888743 0.46338296 0.053771902 0.22208124
0.19199467 -0.030582767 0.33294508 -0.017077804 0.031526417 -0.06021451 -0.0703416 -0.015026288
-0.30059946 -0.4642652 -0.59965897 -0.055883735 0.28857908 0.39027554 0.2768673 0.24485452
0.17133129 0.1287905 0.22892095 0.22651273 0.20581597 -0.104659915 -0.09319473 0.1410228
0.14065598 0.107660264 0.39346614 0.120509796 0.061661243 0.25582087 -0.055271015 0.50949323
-0.0041096127 0.079715535 -0.2632432 -0.40828204 -0.57506526 0.17689504 -0.19061072 -0.09731129
0.18794416 0.031103859 0.0851532 0.12400114 0.19049503 0.11669978 0.14747262 0.11347593
0.18663199 -0.02799421 0.13626783 0.011413898 0.13964944 0.1359923 0.087984286 0.12454595
0.107129835 -0.2405345 0.19644779 -0.060593333 -0.013698557 0.01822425 0.0017047322 -0.2900755
-0.23946129 -0.18172878 0.049566794 0.08957145 0.00015284409 -0.06164358 -0.1123504 0.10941622
0.21261223 0.07182556 0.07891314 0.20436068 0.20598994 0.00026819538 0.04831656 0.1118596
-0.058108825 0.003490428 0.0027450623 0.15216708 0.055867992 0.14284573 -0.0414028 0.022375558
-0.035309758 -0.8791048 0.0857973 -0.43891764 0.20482174 -0.24370919 0.047145773 0.06820927
-0.0043861563 -0.14885442 0.048541952 0.020072598 0.05123483 0.0052616936 0.18691745 0.11638823
0.18096939 0.1601014 0.08250476 0.11923118 -0.05769587 -0.10385708 -0.18299001 0.10306315
0.30734155 0.046705738 -0.11149634 -0.17397122 0.21244866 1.2387828 0.5334136 0.11157818
0.046295658 -0.08547206 0.02835445 0.093134396 -0.039860863 -0.0925527 -0.0014203534 0.08637626
-0.03664705 -0.035266735 0.11412611 0.1014178 0.17602494 0.21949846 0.0070602125 0.0021905072
-0.12177723 -0.12650742 -0.12721333 -0.18167078 0.0029588968 -0.0066620214 0.10422988 -0.048755877
-0.13476318 -0.3101442 -0.5186615 0.16653682 0.11453168 -0.046163607 -0.047242705 -0.06406637
-0.06929532 0.08014844 0.052310083 0.09117807 0.015372481 0.031065533 0.10186784 0.27936855
0.17955373 0.19585808 0.07681643 -0.028716782 -0.010001057 -0.26246592 -0.2548876 -0.245974
-0.23533851 0.17150734 -0.39208627 -0.16867977 0.02041387 0.2588666 -0.37949747 0.24168563
00000000: 61df 6dbc acd2 f03c 90ec 9a3c bedd 973c
00000010: 69d6 45bc b1ca ddbc 854d 32bf b179 c3be
00000020: ae2c 863e 5af7 023f 7c05 c83e c617 9c3e
00000030: f219 96bd e589 85be e350 0abf 073b 25be
00000040: a423 9e3e e7d2 143f d949 213f 5f56 bc3e
00000050: e341 ee3d e815 433e 6d2e 81be 3f4c e6be
00000060: 230f c1bc 4a5d e0bb 01e4 f7ba acb7 c1bc
00000070: e36c 8abc 4a3c f5ba 8a92 483e e3e3 5fbd
00000080: 1a86 203e c819 78bf 5d35 4abe 634f 7d3e
00000090: 9bf9 2f3f 379c 583f d323 533f a0ca 80bd
000000a0: 92a5 b7be dfb0 53bf 551f 0bbf fcf4 9b3d
000000b0: 2e33 363d 8174 9b3e 0feb 7a3e 2249 373e
000000c0: 0f98 e83e daf2 cabb 6f96 813e 2fdd 52be
000000d0: b6c5 5ebe 2539 c1be 2545 caba 43f6 e1bc
000000e0: 25af 833c 251b 6d3c 0ea5 80bd 7136 3abf
000000f0: 7751 9e3e 18a8 0bbf c51b 12bf bb9a 863c
00000100: c15f ed3e 6154 773f ab79 493f 25e7 b53e
00000110: 739c 0fbe fc28 23bd b3f4 0a3d 2f29 f6bc
00000120: 596d eabd 705a 453e 6707 073e 5a0d 2abc
00000130: bb03 b6bd 8840 ed3e ed3f 5c3d 4469 633e
00000140: 409a 443e b688 fabc c777 aa3e c0e6 8bbc
00000150: d821 013d 7da3 76bd 420f 90bd d230 76bc
00000160: 2ce8 99be 2bb4 edbe 4083 19bf 58e6 64bd
00000170: a3c0 933e 32d2 c73e 8dc1 8d3e 25bb 7a3e
00000180: 7871 2f3e a8e1 033e 416a 6a3e f4f2 673e
00000190: 6cc1 523e f057 d6bd e1dc bebd 4868 103e
000001a0: 1f08 103e fc7c dc3d 6574 c93e d7cd f63d
000001b0: 8090 7c3d f4fa 823e dc63 62bd 266e 023f
000001c0: eea9 86bb e641 a33d d0c7 86be 580a d1be
000001d0: 7a37 13bf f923 353e 752f 43be 244b c7bd
000001e0: 6f74 403e 85cd fe3c cd64 ae3d 4ff4 fd3d
000001f0: 2111 433e 4b00 ef3d 1003 173e 1266 e83d
00000200: 751c 3f3e 1d54 e5bc cb89 0b3e 5c01 3b3c
00000210: 4300 0f3e 9141 0b3e 1b31 b43d f211 ff3d
00000220: e366 db3d ad4e 76be 9c29 493e b730 78bd
00000230: ea6f 60bc 064b 953c 5271 df3a c784 94be
00000240: 5735 75be 1c17 3abe 8d06 4b3d 3d71 b73d
00000250: c644 2039 fb7d 7cbd f717 e6bd 9c15 e03d
00000260: 05b7 593e 4719 933d 369d a13d ed43 513e
00000270: 07ef 523e 939c 8c39 96e7 453d a516 e53d
00000280: 8503 6ebd aabf 643b 81e6 333b b0d1 1b3e
00000290: d6d5 643d 2746 123e fb95 29bd f24c b73c
000002a0: f7a0 10bd 030d 61bf 7fb6 af3d d0b9 e0be
000002b0: cabc 513e e78e 79be ed1b 413d 4db1 8b3d
000002c0: bfb9 8fbb 4b6d 18be edd3 463d 4a6f a43c
000002d0: 9ddb 513d 496a ac3b 4a67 3f3e f45c ee3d
000002e0: 0a50 393e 9ff1 233e 41f8 a83d 7a2f f43d
000002f0: 8152 6cbd 05b3 d4bd bc61 3bbe c612 d33d
00000300: df5b 9d3e 844e 3f3d 3158 e4bd 8325 32be
00000310: 248c 593e 6f90 9e3f cb8d 083f 1a83 e43d
00000320: 84a0 3d3d fa0b afbd 9747 e83c 3fbd be3d
00000330: 2545 23bd 458c bdbd 272b baba 09e6 b03d
00000340: 381b 16bd da73 10bd f3ba e93d 23b4 cf3d
00000350: e23f 343e 34c4 603e 5b59 e73b 9d8e 0f3b
00000360: 5766 f9bd 298b 01be 3644 02be e807 3abe
00000370: 0dea 413b 164d dabb 7a76 d53d 3eb4 47bd
00000380: 5cff 09be 38cb 9ebe 00c7 04bf a188 2a3e
00000390: 968f ea3d 0d16 3dbd 9181 41bd 3b35 83bd
000003a0: b4ea 8dbd de24 a43d 1943 563d 91bb ba3d
000003b0: dcdc 7b3c 257d fe3c 16a0 d03d 6509 8f3e
000003c0: efdc 373e 058f 483e ef51 9d3d 753f ebbc
000003d0: 79db 23bc ef61 86be a180 82be 9ce0 7bbe
000003e0: 94fc 70be 9f9f 2f3e 88bf c8be 64ba 2cbe
000003f0: fd3a a73c 2a8a 843e 7e4d c2be 707c 773e

encoder.0.bias f4 [64]
0.30024225 -0.44552854 0.12002066 0.10378105 0.91889083 -0.5528714 0.2651687 0.1200103
0.576017 0.11739298 0.74472284 0.90634096 0.9340894 0.5761853 0.18903175 0.7305475
0.29893583 0.5328355 0.6819324 -0.19145882 1.1242186 0.39058468 0.6643035 -0.14758295
0.5685556 0.18603595 0.15239978 0.6863516 -0.052657217 0.9473698 0.054259893 0.47282407
0.13588876 0.24998802 1.2709289 0.34305212 1.0561591 0.505085 0.7161483 -0.052125312
-0.07603152 0.24324413 0.8120302 0.23426507 0.66294175 0.7824448 0.21948709 0.5480302
0.3753978 0.36192137 0.084089495 0.7831217 0.08768746 0.70051867 0.25867593 0.8450506
0.33695284 -0.022875529 0.47137928 0.6107808 -0.18736495 0.49492675 0.5301365 0.39339653
00000000: 5ab9 993e 511c e4be 64cd f53d 298b d43d
00000010: 6e3c 6b3f fb88 0dbf 31c4 873e f6c7 f53d
00000020: da75 133f bb6b f03d 28a6 3e3f f605 683f
00000030: 7c20 6f3f e180 133f 8a91 413e 2905 3b3f
00000040: 1e0e 993e e867 083f 1f93 2e3f c80d 44be
00000050: 65e6 8f3f b7fa c73e cb0f 2a3f fc1f 17be
00000060: dc8c 113f 3580 3e3e b00e 1c3e bdb4 2f3f
00000070: 18af 57bd d486 723f 9f3f 5e3d ff15 f23e
00000080: 6c26 0b3e dcfc 7f3e ccad a23f 87a4 af3e
00000090: 3930 873f 404d 013f 7f55 373f 5a81 55bd
000000a0: 6ab6 9bbd fd14 793e 36e1 4f3f 2fe3 6f3e
000000b0: 8db6 293f 4d4e 483f 39c1 603e b54b 0c3f
000000c0: 2434 c03e c24d b93e 1d37 ac3d aa7a 483f
000000d0: 7c95 b33d 3155 333f 2c71 843e 3c55 583f
000000e0: 1585 ac3e 7665 bbbc a058 f13e 215c 1c3f
000000f0: 99dc 3fbe 0a67 fd3e 07b7 073f 456b c93e

encoder.2.weight f4 [32, 64]
-0.12540913 -0.111131676 -0.05667559 -0.12511764 -0.17847098 0.022360852 -0.07947734 0.019943422
0.0014387817 -0.16989017 -0.04816044 -0.025531078 -0.03602586 -0.13926461 0.001905201 0.009894273
0.0646656 0.05072364 -0.09156161 0.064458996 -0.15199648 -0.15638891 -0.026452009 -0.07977163
0.03326127 -0.13174738 -0.13945091 -0.07552451 -0.10767989 -0.09800639 -0.05277134 -0.08630372
-0.011504381 -0.17421813 -0.15539643 -0.10237853 -0.054504033 -0.14497483 -0.16384326 -0.11996994
0.0481912 -0.038115405 0.05508836 0.046867475 -0.008638886 0.037188284 -0.15819184 -0.10578809
-0.18320572 0.03849414 -0.039135005 -0.046089772 -0.15599039 -0.08195897 0.03544968 -0.14134723
-0.0021540287 -0.16446482 0.021727169 -0.02215069 -0.058928363 0.02102555 -0.046482224 -0.17974399
0.0511495 -0.0031500522 -0.09167177 -0.049909227 0.030104114 -0.008428098 0.043160733 -0.027499482
0.039025843 -0.09358749 0.05191443 -0.09820103 -0.022269037 -0.17430308 -0.13070846 0.0068520484
-0.043189716 -0.044785876 -0.07362154 -0.08177657 -0.09302636 -0.155869 0.061854295 -0.013235122
-0.16346699 -0.11005425 -0.13473034 -0.09324233 0.044600934 -0.091772266 -0.15938109 -0.044231337
0.0030804898 -0.088700525 -0.011125315 -0.08536351 -0.12422557 -0.16168186 -0.17033191 0.0027948883
-0.12709627 0.0037946915 0.0325216 -0.04596849 -0.075513504 -0.16647577 -0.0822511 -0.18174882
0.034375377 -0.16510624 -0.07378132 -0.055530004 -0.16616629 -0.016947571 -0.1808703 -0.12948748
-0.089152634 0.019229861 0.0075414767 -0.12602285 -0.17140453 -0.100007 -0.13980617 0.021208007
0.030619854 0.12051211 -0.09475505 0.0315261 -0.05362315 0.033362374 0.053257987 0.084936604
0.14074439 -0.01811818 -0.040195227 -0.07594025 -0.005424438 -0.026698863 -0.041678134 0.018245483
0.038751107 -0.05344189 0.23688716 0.16987415 -0.089169845 -0.005295714 -0.07363728 -0.03922929
-0.06652251 0.022451172 0.011456605 -0.06504588 0.0721305 -0.026937451 0.003887824 0.092084736
0.028522948 0.041546058 -0.09069046 0.017049428 0.027294323 -0.055629693 -0.008935908 0.06783633
-0.20230328 0.08851347 -0.15411633 0.06703391 -0.024912007 -0.0718064 0.12794206 -0.046144675
0.12412091 -0.096627474 -0.018085422 0.09977022 0.03401842 -0.050355554 0.13671464 -0.018698735
0.08367729 -0.055332553 0.021770287 -0.050310068 0.06111714 0.03356072 -0.061176274 0.023462549
-0.0716109 -0.13401453 0.057603277 0.1281517 0.01197375 0.022775926 0.09971492 0.016420627
0.35376787 -0.01403657 -0.0055640494 0.2398965 -0.35623577 0.08045835 -0.00027216822 -0.00937197
-0.029251492 -0.082554854 0.025384141 -0.1227467 -0.103252605 -0.12943658 -0.15677978 -0.074856885
-0.04441225 0.005213529 0.04316137 0.075802825 0.0931697 -1.089423 -0.086579025 0.11210124
-0.067388475 0.09013186 -0.9068551 -0.0047349697 0.015793638 -0.039587907 0.07649155 0.07541761
-0.063839175 0.08332658 0.2057962 -0.004228467 -0.23097381 0.15097536 0.055439465 -0.13346389
0.1263418 0.10453303 -0.047199175 -0.19069357 0.18409291 0.23457195 -0.018204264 -0.06850154
0.16909282 -0.050032143 -0.31028336 -0.007983709 -0.012631744 0.11160461 -0.46121836 -0.027843412
00000000: 406b 00be 0199 e3bd aa24 68bd d71e 00be
00000010: 19c1 36be 1b2e b73c 04c5 a2bd 6360 a33c
00000020: 8195 bc3a b0f7 2dbe e243 45bd 8d26 d1bc
00000030: da8f 13bd 629b 0ebe f0b7 f93a 971b 223c
00000040: 666f 843d 97c3 4f3d a784 bbbd 1403 843d
00000050: f7a4 1bbe 6a24 20be e2b1 d8bc 4f5f a3bd
00000060: f83c 083d c9e8 06be 38cc 0ebe 98ac 9abd
00000070: 4687 dcbd 93b7 c8bd c326 58bd 01c0 b0bd
00000080: df7c 3cbc 3d66 32be 3e20 1fbe d6ab d1bd
00000090: 9f3f 5fbd 4874 14be 87c6 27be cdb2 f5bd
000000a0: 2364 453d e61e 1cbd 55a4 613d 1cf8 3f3d
000000b0: 1d8a 0dbc be52 183d 0bfd 21be 6da7 d8bd
000000c0: 489a 3bbe 08ac 1d3d 074c 20bd a1c8 3cbd
000000d0: f2bb 1fbe 1bda a7bd af33 113d 54bd 10be
000000e0: 9b2a 0dbb 7769 28be 2dfd b13c 5d75 b5bc
000000f0: de5e 71bd c63d ac3c 2564 3ebd cf0e 38be
00000100: 2382 513d 1b71 4ebb 69be bbbd 9e6d 4cbd
00000110: e79c f63c 0116 0abc 4fc9 303d 9846 e1bc
00000120: 90d9 1f3d ccaa bfbd 3aa4 543d 9f1d c9bd
00000130: 8e6d b6bc 827c 32be 70d8 05be 2687 e03b
00000140: b3e7 30bd 6571 37bd e4c6 96bd 797a a7bd
00000150: 9b84 bebd 209c 1fbe ee5a 7d3d 20d8 58bc
00000160: e463 27be 1f64 e1bd c0f6 09be d6f5 bebd
00000170: 78af 363d 19f3 bbbd cc34 23be eb2b 35bd
00000180: 0be2 493b 9fa8 b5bd f446 36bc 10d3 aebd
00000190: fa69 febd ee8f 25be 7d6b 2ebe 722a 373b
000001a0: 8625 02be 5cb0 783b 5f35 053d 7549 3cbd
000001b0: d3a6 9abd a078 2abe 4473 a8bd 5d1c 3abe
000001c0: 32cd 0c3d 9c11 29be a91a 97bd 6e73 63bd
000001d0: 7f27 2abe a2d5 8abc 1036 39be 5e98 04be
000001e0: a895 b6bd f187 9d3c 7e1e f73b 220c 01be
000001f0: ab84 2fbe 78d0 ccbd 5929 0fbe 6abc ad3c
00000200: 7dd6 fa3c 0ecf f63d f00e c2bd 8321 013d
00000210: f3a3 5bbd fca6 083d 0c25 5a3d 3ef3 ad3d
00000220: 4c1f 103e 946c 94bc c0a3 24bd 9086 9bbd
00000230: 7cbf b1bb 93b7 dabc b1b6 2abd 8d77 953c
00000240: 7bb9 1e3d e2e5 5abd 8c92 723e 7df3 2d3e
00000250: ae9e b6bd ab87 adbb 24cf 96bd e4ae 20bd
00000260: f43c 88bd 85eb b73c 7cb4 3b3c c636 85bd
00000270: 28b9 933d eeab dcbc ddca 7e3b ec96 bc3d
00000280: f5a8 e93c 332c 2a3d ebbb b9bd 3eab 8b3c
00000290: 5898 df3c f6db 63bd ea67 12bc c6ed 8a3d
000002a0: 9728 4fbe 8d46 b53d acd0 1dbe 1349 893d
000002b0: 4414 ccbc 3c0f 93bd 3e03 033e 3302 3dbd
000002c0: 1b33 fe3d a0e4 c5bd e127 94bc 5454 cc3d
000002d0: e656 0b3d a041 4ebd ecfe 0b3e 172e 99bc
000002e0: 005f ab3d 63a4 62bd 9a57 b23c ee11 4ebd
000002f0: f755 7a3d f776 093d f993 7abd 8834 c03c
00000300: bca8 92bd 1b3b 09be 6af1 6b3d 333a 033e
00000310: 8c2d 443c 9494 ba3c 5637 cc3d 8d84 863c
00000320: 1021 b53e a4f9 65bc a152 b6bb 6ea7 753e
00000330: 8964 b6be 59c7 a43d cdb1 8eb9 e48c 19bc
00000340: d3a0 efbc 8512 a9bd 67f2 cf3c 9f62 fbbd
00000350: 1a76 d3bd 068b 04be e18a 20be 914e 99bd
00000360: 9fe9 35bd 40d6 aa3b fac9 303d 833e 9b3d
00000370: c1cf be3d 3672 8bbf 5850 b1bd 5695 e53d
00000380: f802 8abd 0d97 b83d a827 68bf ce27 9bbb
00000390: a961 813c ee26 22bd 9aa7 9c3d 8c74 9a3d
000003a0: 1dbe 82bd 20a7 aa3d 3dbc 523e f48e 8abb
000003b0: 6684 6cbe 4999 1a3e 7e14 633d c2aa 08be
000003c0: bf5f 013e 6a15 d63d ec53 41bd 2d45 43be
000003d0: da82 3c3e a133 703e 1c21 95bc 894a 8cbd
000003e0: ab26 2d3e 81ee 4cbd 76dd 9ebe 1ace 02bc
000003f0: 60f5 4ebc f590 e43d d024 ecbe de17 e4bc

encoder.2.bias f4 [32]
-0.072113305 0.00039221637 0.23170076 0.2764323 0.30127826 0.024911126 -0.06782406 -0.14606258
-0.08177279 -0.13696042 0.19470134 0.30834302 -0.06535029 0.12873238 0.16226086 0.006631253
-0.15755795 0.045579016 0.31297553 0.25561258 0.00075299555 -0.09979715 0.12068892 -0.057539232
0.23904434 -0.229215 0.35706905 0.3646084 0.040358745 0.15256901 0.16327168 0.25882465
00000000: 24b0 93bd 64a2 cd39 f742 6d3e 8988 8d3e
00000010: 2541 9a3e 6b12 cc3c 57e7 8abd 6e91 15be
00000020: 7e78 a7bd 5a3f 0cbe ca5f 473e 23df 9d3e
00000030: 5fd6 85bd 6cd2 033e b627 263e fb4a d93b
00000040: df56 21be 10b1 3a3d 543e a03e a7df 823e
00000050: ad64 453a 7362 ccbd c12b f73d 42ae 6bbd
00000060: 0ac8 743e 56b7 6abe c1d1 b63e f4ad ba3e
00000070: 364f 253d 0d3b 1c3e b130 273e aa84 843e

decoder.0.weight f4 [64, 32]
-0.25332597 -0.28549564 -0.35932136 -0.27131575 -0.359268 -0.28860041 -0.11951034 -0.108307995
0.4116157 -0.03678999 -0.111734964 -0.45504734 -0.29092032 0.071672454 -0.43006125 -0.45314714
-0.074696206 -0.3527142 -0.21322165 -0.31787056 -0.20475367 -0.3743829 -0.3387012 -0.42526123
0.30233356 0.40753913 0.42798576 -0.35980025 0.23046753 -0.40301806 -0.21454713 0.1594169
-0.122511536 -0.06835783 -0.055087935 0.27266687 0.054748524 0.15276729 -0.071614996 0.14704683
0.12095738 -0.111985356 -0.106737405 0.084639214 0.19031306 -0.42545393 -0.15879469 0.07351068
-0.1500769 0.1478749 -0.14702836 0.31076238 -0.080728516 0.01692024 0.028236788 -0.020272804
-0.19550538 -0.11380421 0.041972544 -0.17868316 -0.023653522 -0.072074346 -0.016092516 0.081779934
0.117995374 -0.0060255127 0.0531272 -0.032451633 0.06586385 0.19510345 0.10443892 0.15883012
-0.15101738 -0.025431918 -0.11396059 -0.23227338 0.09119327 -0.26495975 0.008993273 -0.13323411
-0.12787789 0.118195124 0.0845703 0.011561392 -0.07347366 0.17169002 -0.4403088 0.18515694
0.09128371 0.08109011 0.43253657 0.10865648 -0.107395835 0.045649502 -0.10461863 0.13590232
-0.09363444 0.0679863 -0.005676413 -0.23715936 -0.11689808 -0.13572305 -0.18309133 0.11879846
0.16964373 0.11248806 0.05022629 -0.11299179 -0.15836293 -0.15798268 -0.1049777 0.06719694
0.020694861 -0.09400526 -0.15894036 0.027302472 -0.051114943 -0.087510884 0.18260907 -0.22922651
0.052448217 -0.024431687 0.17914002 0.05566909 0.17162319 -0.23472852 -0.11138335 -0.038397253
-0.10446409 -0.26737055 -0.115944825 -0.14775164 -0.19620626 -0.082968615 -0.23436786 0.089650705
0.0264272 0.14055087 -0.024781235 -0.07927989 -0.15633406 -0.22287169 0.02854541 -0.21384896
0.080046095 -0.19381535 -0.2030204 -0.1379436 0.06898269 -0.17329106 -0.08447602 -0.054058015
-0.12838703 -0.061211165 0.06914118 0.2191481 0.22860976 -0.19964959 -0.10161564 -0.06451621
-0.001260549 -0.120280884 -0.003373244 -0.018754989 -0.09097024 -0.050608546 0.12177588 -0.09175818
0.09780075 0.070949204 0.06352779 0.06400968 0.040831257 -0.08903492 -0.14648859 -0.14202434
-0.03403495 -0.031749073 0.06493607 -0.018497113 -0.1695507 -0.1033259 0.034181558 0.13775378
0.095956594 0.11788221 -0.11891659 -0.08023862 0.13742186 -0.039819434 -0.16226225 -0.12493481
0.008077865 -0.1804209 0.06304864 -0.24973972 -0.1142539 -0.22236584 0.03224975 -0.2281838
0.11233072 0.198653 -0.25457853 -0.0013762993 -0.24087493 -0.22511074 0.06857215 0.055284277
-0.096306056 0.03860721 0.10210607 0.2787071 -0.14191113 -0.07512717 -0.04991141 0.10253775
0.12979779 0.14742033 0.035898533 0.027521005 0.019285463 -0.20601577 0.28337196 -0.22021472
-0.047469325 -0.08861886 0.0645365 -0.11087704 -0.18476671 0.16285151 0.12539272 -0.11557678
-0.053333815 -0.074929655 0.24371178 -0.22491178 -0.019075682 -0.27054265 0.14018568 -0.11095919
0.06665946 0.17008801 0.21153437 0.011410722 0.14300612 -0.099587716 -0.053183515 0.045649927
-0.12920663 -0.04341053 -0.03685285 -0.0007201912 -0.18821293 -0.13548078 -0.091149606 0.3905246
00000000: f1b3 81be 7c2c 92be f8f8 b7be e6e9 8abe
00000010: faf1 b7be 6fc3 93be d6c1 f4bd 95d0 ddbd
00000020: 4bbf d23e 1ab1 16bd 4dd5 e4bd f7fb e8be
00000030: 82f3 94be 02c9 923d fd30 dcbe e702 e8be
00000040: 53fa 98bd f596 b4be c756 5abe eebf a2be
00000050: f2aa 51be 1eaf bfbe 3e6a adbe d7bb d9be
00000060: 77cb 9a3e f8a8 d03e f320 db3e bd37 b8be
00000070: aeff 6b3e 6258 cebe 3eb2 5bbe 2f3e 233e
00000080: 54e7 fabd 31ff 8bbd e3a3 61bd fe9a 8b3e
00000090: fd3f 603d 076f 1c3e e2aa 92bd 7293 163e
000000a0: 81b8 f73d 9458 e5bd 2499 dabd 5357 ad3d
000000b0: 6de1 423e 19d5 d9be 139b 22be c48c 963d
000000c0: c2ad 19be 856c 173e 9a8e 16be 3f1c 9f3e
000000d0: fe54 a5bd 519c 8a3c d650 e73c 2713 a6bc
000000e0: 9032 48be 2f12 e9bd 67eb 2b3d b8f8 36be
000000f0: 08c5 c1bc b79b 93bd 74d4 83bc 3d7c a73d
00000100: 8fa7 f13d aa71 c5bb e89b 593d 01ec 04bd
00000110: a0e3 863d 33c9 473e 13e4 d53d 5da4 223e
00000120: 4da4 1abe 9956 d0bc 2b64 e9bd 13d9 6dbe
00000130: 8ac3 ba3d cea8 87be 8558 133c 866e 08be
00000140: 6cf2 02be 4910 f23d 3233 ad3d fe6b 3d3c
00000150: 5c79 96bd 82cf 2f3e 2870 e1be c899 3d3e
00000160: f4f2 ba3d 9212 a63d 6f75 dd3e 4a87 de3d
00000170: 59f2 dbbd f9fa 3a3d 4b42 d6bd fa29 0b3e
00000180: 6ac3 bfbd 673c 8b3d 3401 babb e7d9 72be
00000190: 4368 efbd fcfa 0abe 4b7c 3bbe 9b4c f33d
000001a0: 16b7 2d3e 2460 e63d 15ba 4d3d 3d68 e7bd
000001b0: e429 22be 36c6 21be 8cfe d6bd 8d9e 893d
000001c0: 4588 a93c d485 c0bd 43c1 22be 6fa9 df3c
000001d0: e75d 51bd e838 b3bd dffd 3a3e 5bba 6abe
000001e0: f1d3 563d f624 c8bc 7b70 373e 4605 643d
000001f0: fdbd 2f3e ac5c 70be f41c e4bd 7046 1dbd
00000200: 45f1 d5bd cbe4 88be 7b74 edbd 354c 17be
00000210: 4bea 48be 73eb a9bd 21fe 6fbe ca9a b73d
00000220: db7d d83c 91ec 0f3e 0402 cbbc 7f5d a2bd
00000230: 0916 20be 7a38 64be 10d8 e93c 39fb 5abe
00000240: 35ef a33d 8877 46be 94e4 4fbe 1641 0dbe
00000250: cc46 8d3d 3673 31be c301 adbd f06b 5dbd
00000260: e477 03be 8fb8 7abd e499 8d3d 5c68 603e
00000270: ad18 6a3e f170 4cbe dc1b d0bd 1321 84bd
00000280: 0139 a5ba d355 f6bd a511 5dbb 10a4 99bc
00000290: 9b4e babd e84a 4fbd a265 f93d b6eb bbbd
000002a0: c24b c83d d14d 913d dc1a 823d 8217 833d
000002b0: ad3e 273d f157 b6bd 1b01 16be d46e 11be
000002c0: 3b68 0bbd 510b 02bd 34fd 843d 4287 97bc
000002d0: b39e 2dbe 889c d3bd f601 0c3d 540f 0d3e
000002e0: e484 c43d 3a6c f13d 8b8a f3bd 2554 a4bd
000002f0: 51b8 0c3e b419 23bd 1328 26be d2dd ffbd
00000300: 0559 043c 42c0 38be a51f 813d c5bb 7fbe
00000310: f3fd e9bd dfb3 63be 5018 043d 04a9 69be
00000320: a60d e63d b16b 4b3e 1e58 82be f164 b4ba
00000330: eba7 76be 6e83 66be 8e6f 8c3d c471 623d
00000340: 1c3c c5bd 9822 1e3d fd1c d13d b2b2 8e3e
00000350: 2751 11be 46dc 99bd e86f 4cbd 50ff d13d
00000360: b6e9 043e 5bf5 163e 570a 133d bb73 e13c
00000370: 8cfc 9d3c ccf5 52be 2116 913e f87f 61be
00000380: 326f 42bd ce7d b5bd b62b 843d 8013 e3bd
00000390: 7c33 3dbe 8cc2 263e f366 003e 85b3 ecbd
000003a0: 8f74 5abd b874 99bd 958f 793e 464f 66be
000003b0: 9b44 9cbc 9184 8abe d68c 0f3e 923e e3bd
000003c0: c184 883d 8d2b 2e3e 779c 583e 09f4 3a3c
000003d0: 3270 123e a5f4 cbbd f5d6 59bd 6bfb 3a3d
000003e0: be4e 04be 3dcf 31bd 04f3 16bd 37cb 3cba
000003f0: e4ba 40be 79bb 0abe a5ac babd d7f2 c73e

decoder.0.bias f4 [64]
-0.22680783 -0.004128007 0.09217494 -0.115383044 0.0010334374 0.023309546 0.05474438 0.12319243
0.1733484 -0.12468686 0.009304814 -0.00789381 -0.021589428 -0.15604462 -0.008000266 -0.21585536
-0.11544251 -0.004681658 -0.20174734 -0.077422366 0.0073998477 0.028011981 0.16943452 -0.075324744
-0.19319998 -0.2089211 -0.16878948 -0.3672945 -0.15602544 0.19354436 -0.03971864 -0.25033006
-0.10679342 0.0525489 -0.10193637 0.1667576 0.073733345 -0.17945628 0.06318408 -0.09770136
-0.21733019 0.08111148 0.01375547 0.092011 0.19383605 -0.124374755 0.056760907 0.08412866
-0.24073167 -0.1185788 0.10336702 -0.06543613 -0.18984024 0.08490519 -0.09806345 0.046844333
-0.14826924 0.14683896 -0.03804074 -0.20532241 0.20310837 0.13687311 0.13204217 0.128637
00000000: 5040 68be 3c44 87bb 37c6 bc3d f24d ecbd
00000010: 6874 873a a9f3 be3c a53b 603d 504c fc3d
00000020: 3e82 313e d35b ffbd 3873 183c 0a55 01bc
00000030: 50dc b0bc 29ca 1fbe 8c13 03bc 3009 5dbe
00000040: 1f6d ecbd 9868 99bb db96 4ebe 9e8f 9ebd
00000050: 6c7a f23b 6279 e53c 3e80 2d3e dc43 9abd
00000060: 37d6 45be 6aef 55be 26d7 2cbe 060e bcbe
00000070: 22c5 1fbe 7e30 463e 03b0 22bd 432b 80be
00000080: 82b6 dabd 843d 573d 04c4 d0bd 81c2 2a3e
00000090: 8201 973d 63c3 37be a866 813d a717 c8bd
000000a0: ce8b 5ebe c71d a63d 9f5e 613c 4370 bc3d
000000b0: f57c 463e 31b8 febd 207e 683d a64b ac3d
000000c0: 5d82 76be 71d9 f2bd 17b2 d33d 6103 86bd
000000d0: 7b65 42be c6e2 ad3d 7dd5 c8bd d8df 3f3d
000000e0: e4d3 17be f45c 163e 9bd0 1bbd 0a40 52be
000000f0: a4fb 4f3e 7728 0c3e 1036 073e 6bb9 033e

decoder.2.weight f4 [784, 64]
0.12048316 -0.0717008 0.027837768 -0.062499687 -0.07684393 -0.030415595 0.047044218 -0.06867351
0.0056370683 -0.06274237 -0.15475082 -0.07474625 -0.0066759516 0.016257344 0.03934961 -0.10634835
-0.0013786952 -0.11615877 -0.03132589 -0.109044604 -0.0473105 -0.13978434 -0.07455986 -0.10067224
0.054813445 -0.00950326 -0.15112796 0.07141726 0.007982358 -0.0192694 -0.083626375 -0.07751396
0.009218454 -0.03937456 -0.10164793 -0.13410006 -0.16498546 -0.010858607 -0.1497212 -0.13940343
-0.104273364 -0.12282791 -0.07463272 0.079362094 -0.043087788 -0.15795791 -0.00461708 0.025463864
-0.022422343 -0.097600915 -0.1876302 -0.05299131 -0.052092955 -0.039974824 0.02076085 0.108745545
-0.037552014 -0.018052224 0.034599796 -0.08145313 0.07595335 -0.04158198 -0.1659851 -0.07619755
0.06963125 0.013798496 -0.08253813 0.08249542 -0.1240173 -0.05948223 -0.044242874 -0.020878676
-0.18955301 0.010029424 -0.019258969 -0.043100152 -0.047876082 -0.20213841 -0.02722228 0.0002310127
-0.19234413 0.030146033 -0.03332615 -0.13915828 -0.06153421 -0.09045856 -0.051547658 -0.027213959
-0.06895034 -0.009820044 0.04732474 -0.07211088 0.03611304 -0.02210167 0.02630706 0.07919788
0.015676018 -0.0589682 -0.120148316 -0.016565124 -0.0019388472 -0.03247702 -0.08295485 -0.13830961
-0.07077688 0.041052707 -0.064343736 0.035126954 -0.038425043 0.011240777 0.086351946 -0.036531646
-0.0028067976 -0.037172746 -0.15171885 -0.04288378 0.0071991533 -0.1421318 -0.021944318 -0.17312847
-0.17162491 -0.05099017 0.0030074606 -0.034970794 0.012195326 -0.046325434 -0.05621815 -0.13431737
0.11051157 -0.2385791 -0.10635111 0.109441906 -0.060521185 -0.03290035 0.084145635 0.010903449
-0.16657157 -0.08980522 0.06665999 -0.020876363 -0.043720387 -0.07826002 -0.016367532 0.017387375
0.032955956 0.03990993 0.0040626973 -0.053980775 -0.08450088 -0.17164293 -0.063952744 -0.010881573
0.06490046 -0.024790928 -0.06415863 -0.0112737715 -0.07263322 -0.014957882 -0.13641208 -0.06460041
0.08234641 0.052402288 -0.043819502 -0.14662516 -0.12612726 -0.018353626 -0.1897217 0.07627307
0.058495402 -0.10917009 0.029716969 -0.09848307 -0.027909748 0.034296803 0.08962098 -0.0011446178
0.037411604 0.07445887 -0.13738248 -0.10880733 -0.050177634 0.08580437 0.018500894 -0.02618654
0.06233585 -0.15089442 -0.0921763 0.11249836 -0.06579987 -0.13480577 -0.17683318 -0.07444915
-0.02985464 -0.0023406446 -0.007692225 0.11698729 -0.12193701 0.093454555 0.052410677 -0.11589859
-0.17425944 -0.19145751 -0.048530042 -0.0033758874 -0.13737781 0.006216958 0.03705157 -0.082317784
-0.1050021 -0.101419464 -0.18839866 -0.026561994 0.06227015 0.04569039 -0.048983544 0.034139052
-0.010237038 -0.032420307 -0.13206741 0.09931527 0.08822484 -0.16294211 0.050396994 0.0052458346
0.123091355 -0.09545307 0.07420689 0.02398427 -0.08943607 0.059877038 -0.19350684 -0.12076093
0.047394574 -0.12177489 0.114171475 -0.1035409 -0.006540539 -0.06729182 -0.10640581 -0.07054442
0.067797646 -0.029592516 0.046253193 0.02882187 0.11999087 -0.0071295793 -0.07883259 -0.03365634
-0.13974003 -0.0751902 -0.16725169 -0.085347205 -0.11223027 -0.13738792 0.012352527 -0.061739996
00000000: e0bf f63d ded7 92bd 080c e43c acff 7fbd
00000010: 5a60 9dbd 202a f9bc 70b1 403d b2a4 8cbd
00000020: 28b7 b83b 127f 80bd 0077 1ebe 9014 99bd
00000030: f1c1 dabb 1f2e 853c 0f2d 213d 2acd d9bd
00000040: 56b5 b4ba a6e4 edbd 944f 00bd c752 dfbd
00000050: a8c8 41bd a023 0fbe d7b2 98bd 3f2d cebd
00000060: 1084 603d 90b3 1bbc 4ac1 1abe 3643 923d
00000070: 70c8 023c dcda 9dbc 4e44 abbd a4bf 9ebd
00000080: 0009 173c 3847 21bd ca2c d0bd 8751 09be
00000090: f3f1 28be 4ce8 31bc 8450 19be c6bf 0ebe
000000a0: 468d d5bd 338d fbbd 0ad9 98bd 9888 a23d
000000b0: d27c 30bd b8bf 21be e04a 97bb 9899 d03c
000000c0: 10af b7bc fde2 c7bd 2222 40be 6a0d 59bd
000000d0: 6c5f 55bd a4bc 23bd a812 aa3c fcb5 de3d
000000e0: 24d0 19bd 42e2 93bc 84b8 0d3d e6d0 a6bd
000000f0: 6e8d 9b3d de51 2abd 00f8 29be 760d 9cbd
00000100: d49a 8e3d 1613 623c c009 a9bd 5cf3 a83d
00000110: c8fc fdbd a4a3 73bd 0438 35bd c209 abbc
00000120: 2f1a 42be 7452 243c fcc4 9dbc c989 30bd
00000130: b619 44bd 5ffd 4ebe 4201 dfbc 003c 7239
00000140: dcf5 44be d0f4 f63c 0081 08bd 827f 0ebe
00000150: 4c0b 7cbd 5642 b9bd a323 53bd cfef debc
00000160: d635 8dbd 40e4 20bc 96d7 413d deae 93bd
00000170: 44eb 133d 900e b5bc e781 d73c 8032 a23d
00000180: fe6a 803c a488 71bd 5210 f6bd 95b3 87bc
00000190: eb20 feba a006 05bd 3be4 a9bd 09a1 0dbe
000001a0: 78f3 90bd e226 283d a6c6 83bd 48e1 0f3d
000001b0: 9463 1dbd 3c2b 383c 4ad9 b03d 35a2 15bd
000001c0: 40f2 37bb 7342 18bd 305c 1bbe e7a6 2fbd
000001d0: e0e6 eb3b 008b 11be 92c4 b3bc 9748 31be
000001e0: 71be 2fbe 12db 50bd d118 453b 893d 0fbd
000001f0: e8ce 473c bdbf 3dbd 0145 66bd 7e8a 09be
00000200: e453 e23d 144e 74be 9cce d9bd 1423 e03d
00000210: 10e5 77bd 84c2 06bd 8c54 ac3d 61a4 323c
00000220: bd91 2abe cdeb b7bd 0885 883d e804 abbc
00000230: 2614 33bd ca46 a0bd 3415 86bc f86f 8e3c
00000240: d3fc 063d 9878 233d 6020 853b f21a 5dbd
00000250: cc0e adbd 2ac3 2fbe a8f9 82bd a048 32bc
00000260: 88ea 843d 5816 cbbc 9a65 83bd a0b5 38bc
00000270: bac0 94bd e811 75bc 9caf 0bbe 384d 84bd
00000280: 3ca5 a83d c8a3 563d 147c 33bd e824 16be
00000290: 8127 01be 585a 96bc 6846 42be 0e35 9c3d
000002a0: e098 6f3d 9194 dfbd 0071 f33c 7eb1 c9bd
000002b0: fca2 e4bc ce7a 0c3d 348b b73d 0007 96ba
000002c0: e93c 193d e47d 983d fead 0cbe 61d6 debd
000002d0: 1087 4dbd 34ba af3d 308f 973c 2885 d6bc
000002e0: e053 7f3d 1184 1abe eec6 bcbd 8a65 e63d
000002f0: 15c2 86bd 860a 0abe c213 35be cc78 98bd
00000300: b891 f4bc 8065 19bb 0f0f fcbb 0897 ef3d
00000310: 1cba f9bd 1a65 bf3d 94ac 563d 3d5c edbd
00000320: 1171 32be 700d 44be 70c7 46bd fe3d 5dbb
00000330: c5ac 0cbe a0b7 cb3b 63c3 173d 3a96 a8bd
00000340: 570b d7bd 02b5 cfbd 94eb 40be 8a98 d9bc
00000350: fc0e 7f3d d925 3b3d f8a2 48bd 64d5 0b3d
00000360: 40b9 27bc 28cb 04bd ae3c 07be ce65 cb3d
00000370: 3aaf b43d 4cda 26be 146d 4e3d 40e5 ab3b
00000380: 5217 fc3d e67c c3bd c8f9 973d a97a c43c
00000390: 422a b7bd a041 753d a826 46be 8251 f7bd
000003a0: d020 423d 1d65 f9bd bcd2 e93d 400d d4bd
000003b0: 0552 d6bb 4bd0 89bd 4aeb d9bd 9879 90bd
000003c0: 7ed9 8a3d 016c f2bc fd73 3d3d d81b ec3c
000003d0: c6bd f53d 3f9f e9bb fb72 a1bd 3bdb 09bd
000003e0: 0318 0fbe 52fd 99bd 0744 2bbe 84ca aebd
000003f0: fcd8 e5bd 6baf 0cbe 4162 4a3c 14e3 7cbd

decoder.2.bias f4 [784]
0.011855737 -0.02195169 0.012772449 -0.09367339 -0.14370601 -0.041307822 -0.15596564 -0.017262034
-0.07656831 -0.1576951 -0.08345083 -0.13978066 -0.1690656 -0.032144 -0.18738067 -0.13549028
-0.16221951 0.027151972 0.021496177 -0.027825499 -0.03404975 -0.16093655 -0.038887188 -0.15335938
-0.16734417 0.029644417 -0.08899908 -0.17998672 -0.13639303 -0.05840985 -0.0029655679 -0.18987389
-0.03332428 -0.06717582 -0.0034258906 -0.07635556 -0.15054409 -0.059768658 -0.1786968 0.0065061185
-0.0076925196 0.0034932536 0.024774216 -0.0927776 -0.005420299 -0.113305494 -0.1617982 -0.06508751
-0.14719833 -0.04994403 -0.17472836 -0.015053894 -0.11164037 -0.0740883 0.024476828 0.030408204
-0.12133995 -0.081968375 -0.102149054 -0.054748405 -0.03689127 -0.09829281 -0.082289614 -0.23147497
-0.016909426 -0.11983773 0.018465335 -0.105557874 -0.16085118 -0.049944326 -0.17651406 0.072625615
-0.029843153 -0.086832836 -0.035162862 -0.096392736 -0.0563868 -0.02787252 0.011265168 -0.085920915
-0.13428368 -0.09371141 -0.01607948 -0.02275201 -0.0768482 -0.10891304 -0.044368673 -0.104504995
-0.012749006 -0.04381913 -0.19981156 -0.1035626 -0.12628561 -0.042908333 -0.09004199 -0.07593725
0.036921103 -0.16672398 -0.12961057 0.045836728 -0.06300064 -0.04777048 -0.017686049 -0.23281956
-0.15026335 -0.15907873 -0.16941173 -0.06643449 0.04900623 -0.10686109 -0.06487879 -0.080157086
-0.15202872 -0.04216766 -0.014592967 -0.14026862 -0.03521233 0.055205323 -0.08112548 -0.050891187
-0.07871014 -0.16031654 -0.17963772 -0.13452926 -0.108861156 0.09403445 0.002385712 -0.07405485
-0.03448595 -0.10091045 -0.17706214 -0.20816493 -0.04998808 -0.16520628 -0.07010753 -0.111723214
0.00061382365 -0.17812674 -0.095001236 -0.08747482 -0.12535478 -0.12425152 -0.0063735717 -0.11234021
-0.10148639 -0.17758076 0.01369489 -0.11942197 -0.008304845 0.05693728 0.04201655 0.18340124
0.24191315 0.17977537 0.053320006 -0.30884624 -0.12138751 -0.06697767 -0.34404567 -0.25461644
-0.20404142 -0.1811528 -0.028562585 -0.029260542 -0.025356922 -0.039032944 -0.18473758 -0.106776804
0.04076078 -0.08819011 -0.0849025 -0.0894412 -0.10186033 -0.0672974 -0.14291684 -0.004172668
-0.12733905 -0.017574012 0.17136164 0.1461511 0.16492711 0.194273 0.042723987 0.10166508
-0.018164296 -0.04721299 -0.15134867 -0.16578305 -0.29204848 -0.14011326 -0.0011617638 -0.0858085
-0.018340113 -0.14962429 -0.10965857 -0.13833381 -0.12510853 -0.0061016157 0.00024741233 -0.12980406
-0.15067494 -0.1036706 -0.008512267 -0.037040815 -0.02558359 0.050816935 0.050316207 0.08616427
0.2147814 0.04690389 0.07154777 -0.019837491 -0.1411055 -0.0019345292 -0.09376257 -0.22608097
-0.18914375 -0.1950604 -0.1534784 -0.091784194 -0.14319138 -0.003123228 -0.1412068 -0.1468005
-0.103065744 0.028449988 -0.1086985 -0.056291766 -0.012109446 -0.043241404 -0.043492872 -0.03376746
0.09666352 0.06875309 0.109554924 0.0031271484 0.0931247 0.020549811 -0.042977992 -0.03202965
-0.07912594 -0.010207124 -0.029403029 -0.14090112 -0.13359654 -0.17393208 -0.13869026 -0.1166487
-0.1451032 -0.093159445 -0.16322689 0.03215631 0.010896842 -0.16847426 -0.106229626 -0.029044885
00000000: 913e 423c 08d4 b3bc 8943 513c d6d7 bfbd
00000010: ab27 13be 6432 29bd 75b5 1fbe 1c69 8dbc
00000020: d9cf 9cbd d37a 21be 45e8 aabd a922 0fbe
00000030: 881f 2dbe 6da9 03bd b8e0 3fbe f7bd 0abe
00000040: df1c 26be d06d de3c c018 b03c 4df2 e3bc
00000050: c077 0bbd 8dcc 24be 2c48 1fbd 3e0a 1dbe
00000060: 455c 2bbe d9d8 f23c 2645 b6bd 704e 38be
00000070: 9daa 0bbe 2b3f 6fbd f959 42bb 4d6e 42be
00000080: 0a7f 08bd 7a93 89bd e884 60bb 4e60 9cbd
00000090: 3b28 1abe fbcf 74bd 4bfc 36be 4731 d53b
000000a0: 8811 fcbb 12ef 643b 4cf3 ca3c 2f02 bebd
000000b0: c39c b1bb b60c e8bd 6dae 25be 9a4c 85bd
000000c0: 29bb 16be 1c92 4cbd feeb 32be 9ca4 76bc
000000d0: b5a3 e4bd 9bbb 97bd a183 c83c a01a f93c
000000e0: 1481 f8bd 09df a7bd 8633 d1bd dd3f 60bd
000000f0: 4d1b 17bd be4d c9bd 7587 a8bd c607 6dbe
00000100: a385 8abc 7c6d f5bd 9d44 973c ba2e d8bd
00000110: 2cb6 24be 6c92 4cbd 1ac0 34be bdbc 943d
00000120: a179 f4bc 6ad5 b1bd ef06 10bd 8e69 c5bd
00000130: d8f5 66bd e954 e4bc 8a91 383c 4ef7 afbd
00000140: a981 09be c5eb bfbd 1db9 83bc 6c62 babc
00000150: 9762 9dbd cd0d dfbd edbb 35bd b706 d6bd
00000160: 35e1 50bc b07b 33bd 679b 4cbe a118 d4bd
00000170: 0451 01be a6c0 2fbd ef67 b8bd fd84 9bbd
00000180: 953a 173d b1b9 2abe a2b8 04be 4bbf 3b3d
00000190: 7b06 81bd fbaa 43bd 55e2 90bc 4068 6ebe
000001a0: a3de 19be 89e5 22be 457a 2dbe ce0e 88bd
000001b0: c2ba 483d fdd9 dabd 2cdf 84bd 6629 a4bd
000001c0: 6bad 1bbe ffb7 2cbd 5717 6fbc 94a2 0fbe
000001d0: ce3a 10bd fa1e 623d 1e25 a6bd 4773 50bd
000001e0: c832 a1bd 052a 24be f3f2 37be 0ac2 09be
000001f0: 99f2 debd 2295 c03d 9b59 1c3b 12aa 97bd
00000200: 2441 0dbd 23aa cebd c74f 35be 3029 55be
00000210: 4dc0 4cbd d62b 29be 8994 8fbd 24cf e4bd
00000220: 02e9 203a db66 36be 0290 c2bd 0026 b3bd
00000230: 015d 00be 9577 febd 65d9 d0bb a012 e6bd
00000240: 19d8 cfbd bbd7 35be 8860 603c 8193 f4bd
00000250: 0b11 08bc 1137 693d 8c19 2c3d 89cd 3b3e
00000260: 15b8 773e 0917 383e 1466 5a3d 1821 9ebe
00000270: 049a f8bd 972b 89bd c126 b0be 165d 82be
00000280: 3cf0 50be 1f80 39be 15fc e9bc ceb3 efbc
00000290: 52b9 cfbc 02e1 1fbd d92b 3dbe ccad dabd
000002a0: c7f4 263d 049d b4bd 5de1 adbd f32c b7bd
000002b0: 269c d0bd 38d3 89bd cb58 12be e0ba 88bb
000002c0: 2b65 02be 60f7 8fbc 6d79 2f3e a2a8 153e
000002d0: a7e2 283e 80ef 463e 59ff 2e3d c835 d03d
000002e0: 4acd 94bc 6862 41bd 25fb 1abe 08c3 29be
000002f0: 6187 95be da79 0fbe 5346 98ba 5ebc afbd
00000300: 013e 96bc 1c37 19be ac94 e0bd 61a7 0dbe
00000310: 731c 00be 10f0 c7bb 1fb7 8139 5beb 04be
00000320: 884a 1abe 4051 d4bd 0977 0bbc 1cb8 17bd
00000330: ad94 d1bc 6b25 503d 5e18 4e3d e576 b03d
00000340: a8ef 5b3e 4b1e 403d a387 923d 3c82 a2bc
00000350: f67d 10be 0790 fdba 9706 c0bd c581 67be
00000360: e6ae 41be eabd 47be 7129 1dbe 5af9 bbbd
00000370: c3a0 12be 12af 4cbb 8498 10be df52 16be
00000380: 2214 d3bd f30f e93c 529d debd 3292 66bd
00000390: b366 46bc e61d 31bd 9525 32bd c04f 0abd
000003a0: 86f7 c53d 6cce 8c3d 555e e03d d8f0 4c3b
000003b0: 2ab8 be3d 1458 a83c b109 30bd 8631 03bd
000003c0: c80c a2bd c83b 27bc 9fde f0bc 6248 10be
000003d0: 88cd 08be 401b 32be d204 0ebe 83e5 eebd
000003e0: ef95 14be 61ca bebd f324 27be 56b6 033d
000003f0: ab88 323c 8484 2cbe eb8e d9bd 8aef edbc
