20220518110.pt (torch, 424079 bytes, 8 tensors)

encoder.0.weight f4 [64, 784]
0	0xbc6ddf61	-0.01451859
1	0x3cf0d2ac	0.029397331
2	0x3c9aec90	0.01891163
3	0x3c97ddbe	0.018538352
4	0x3cf9a01f	0.03047186
5	0x3bd4e377	0.0064968425
6	0xbf56f8d5	-0.8397344
7	0xbfb67480	-1.4254303
8	0xbf6ac9e6	-0.9171432
9	0xbf5adecb	-0.85496205
10	0xbd3860c8	-0.045014173
11	0x3dabb625	0.08384351
12	0xbf218ae7	-0.63102573
13	0xbc7ee67d	-0.015557882
14	0xbf95f1c6	-1.1714408
15	0xbfa4d140	-1.2876358
16	0xbf08a93f	-0.5338325
17	0xbf3425a0	-0.7036991
18	0xbf26b0ca	-0.6511351
19	0xbf14bc0f	-0.58099455
20	0xbf8bcbbb	-1.0921549
21	0xbfa79802	-1.3093264
22	0xbf93d52a	-1.1549428
23	0x3c57ca24	0.013170753
24	0xbcc10f23	-0.023566788
25	0xbbe05d4a	-0.0068470584
26	0xbaf7e401	-0.0018912555
27	0xbcc1b7ac	-0.023647152
28	0xbc8a6ce3	-0.016897624
29	0xbaf53c4a	-0.0018709984
30	0x3f97179c	1.180408
31	0x3ceb9920	0.02875954
32	0xbd349bcb	-0.04409389
33	0x3e4f7986	0.20261201
34	0xbfd779e6	-1.6834075
35	0xbfe4b99b	-1.7869142
36	0xc02f8a09	-2.7428
37	0xbf42963b	-0.76010484
38	0x3e40e995	0.18839104
39	0x3f2d2df6	0.67648256
40	0x3e12a97b	0.14322464
41	0xbfbc46e2	-1.4709132
42	0xbefd5296	-0.4947707
43	0xbe0c3e6e	-0.1369569
44	0xbf715c37	-0.94281334
45	0xbf880744	-1.0627217
46	0xbfc7b81f	-1.5603064
47	0xbf273bab	-0.6532542
48	0xbeda85a7	-0.42680094
49	0xbfbf12fc	-1.4927669
50	0xbf29d95c	-0.6634729
51	0xc033eedf	-2.8114545
52	0xbe5013ae	-0.20320007
53	0x3e5367ef	0.20645116
54	0xbaca4525	-0.0015431984
55	0xbce1f643	-0.027583247
56	0x3c83af25	0.016074726
57	0x3c6d1b25	0.014471804
58	0x3e79b5f6	0.24385819
59	0xbedf98bf	-0.43671224
60	0x3ef86a71	0.48518708
61	0xc050800e	-3.2578158
62	0xbfddf28f	-1.7339648
63	0xbed3306b	-0.41247877
64	0xbf9ac0cd	-1.2090088
65	0xbeebf41d	-0.4608468
66	0xbd838a2c	-0.064228386
67	0xbe929a0a	-0.28633147
68	0x3ee36a04	0.4441682
69	0xbf1e9b23	-0.6195547
70	0xbf114fee	-0.5676259
71	0xbdffd358	-0.124914825
72	0xbe53648c	-0.20643824
73	0xbf14fa54	-0.5819447
74	0xbedef816	-0.4354865
75	0x3e2891a2	0.16461805
76	0xbf3a8f61	-0.7287503
77	0xbdab88e9	-0.08375723
78	0xbee90740	-0.45513344
79	0x3f18d5a7	0.5970101
80	0xbeaf6429	-0.34256104
81	0xbdf6938d	-0.12039862
82	0x3e9e98c8	0.30975938
83	0xbc8be6c0	-0.017077804
84	0x3d0121d8	0.031526417
85	0xbeaaf6e2	-0.33391482
86	0x3dc1b222	0.09457804
87	0xbeb8fc7d	-0.36130133
88	0xbfd3ccbe	-1.6546857
89	0xbdad8025	-0.08471707
90	0xbe83bb05	-0.25728622
91	0xbe90357d	-0.28165808
92	0xbbb39096	-0.0054798825
93	0x3c8ba8b6	0.017048221
94	0xbe59942c	-0.2124793
95	0x3e3f04a8	0.1865412
96	0xbe050d7b	-0.12993424
97	0x3e177d96	0.14794001
98	0xbd9e350e	-0.07724963
99	0x3dbc5829	0.09196503
100	0x3e85f0c8	0.26160264
101	0xbe78f055	-0.2431043
102	0xbe14aad7	-0.14518295
103	0x3e36039e	0.17774817
104	0xbd8e490d	-0.06947527
105	0x3d2246c5	0.039618272
106	0xbdb07caa	-0.08617528
107	0xbf02376b	-0.5086581
108	0xbf4c64d4	-0.7984135
109	0x3f691022	0.9104024
110	0x3e08d892	0.13363865
111	0x3f104eeb	0.5637042
112	0xbb86a9ee	-0.0041096127
113	0x3f071e83	0.5278093
114	0xbf7efc4d	-0.9960373
115	0x3ee81074	0.45325053
116	0xbd04b520	-0.032399297
117	0x3f299a5f	0.66251177
118	0xbe9ae77f	-0.30254743
119	0xbd0a8a3e	-0.033823244
120	0xbe8cd93f	-0.27509496
121	0x3ea16861	0.31524947
122	0xbce52500	-0.027971745
123	0x3e0c7b14	0.13718826
124	0x3bc7b3a9	0.006094415
125	0xbd06766e	-0.032827787
126	0x3dcc8010	0.099853635
127	0x3df555d3	0.1197926
128	0x3e1ed4f5	0.15510924
129	0x3da15ed1	0.07879413
130	0xbd37b62e	-0.044851474
131	0x3d822cd6	0.06356208
132	0xbe28f840	-0.1650095
133	0x3e8be73e	0.2732486
134	0xbe999940	-0.29999733
135	0x3a97efe1	0.0011591875
136	0x3eaa3ba3	0.33248624
137	0xc0072af0	-2.1119957
138	0xbe6fffb6	-0.2343739
139	0xbeb7857a	-0.35844022
140	0xbc606fea	-0.013698557
141	0xbdd18f5c	-0.10232422
142	0xbe398164	-0.18115765
143	0x3ce485d9	0.027895855
144	0xbdfaf561	-0.122538336
145	0xbe7bef2e	-0.24602959
146	0x3d9b4786	0.075820014
147	0xbe46c2d5	-0.1941026
148	0x3c144cbb	0.009051497
149	0xbbbfeb66	-0.005856919
150	0xbd85e89c	-0.06538507
151	0x3cbf4ea8	0.023352936
152	0x3d9208e9	0.07130606
153	0xbdac33a9	-0.08408291
154	0xbc68cc27	-0.01420883
155	0xbb997dda	-0.004684192
156	0x3db68499	0.0891201
157	0x3dc359f9	0.09538645
158	0x3e438729	0.19094528
159	0x3d5b1c0a	0.053493537
160	0xbbdcb9c0	-0.0067360103
161	0xbdf0abe6	-0.11751537
162	0x3ca8bd45	0.020598063
163	0x3c6ef883	0.014585617
164	0x3e800c78	0.25009513
165	0xbf5a52fd	-0.8528288
166	0xbe4bcece	-0.19903108
167	0x3ec3d260	0.3824644
168	0xbe4305d4	-0.19045192
169	0xc02b55fa	-2.6771226
170	0x3f8a2c79	1.0794822
171	0xbea2ad43	-0.31772813
172	0x3e78efe5	0.24310263
173	0xbe651501	-0.22371294
174	0x3d6865d7	0.056737747
175	0xbc919ecd	-0.017775917
176	0x3e3c8371	0.18409516
177	0xbda27a44	-0.079334766
178	0x3d27c2bc	0.040957198
179	0xbcc7139a	-0.024301339
180	0xbda997a0	-0.08280873
181	0xbca3dcae	-0.02000269
182	0xbe0b55f9	-0.13607015
183	0x3c570bf5	0.013125409
184	0x3db7303d	0.089447476
185	0x3bd0e384	0.006374778
186	0x3d700df7	0.058607068
187	0x3e8cd0f6	0.27503175
188	0xbdaa72e8	-0.08322698
189	0x3c72ff7c	0.01483142
190	0xbe92ba42	-0.28657728
191	0xbcaecec4	-0.021338828
192	0x3e496d27	0.19670545
193	0xbf2d6be6	-0.67742765
194	0x3ea1daab	0.31612143
195	0xbf1916ea	-0.5980059
196	0x3f0458f1	0.51698214
197	0x3fda8bb1	1.707388
198	0xbeb67070	-0.35632658
199	0x3eec774b	0.46184763
200	0xbdae1244	-0.08499578
201	0x3d330717	0.043707933
202	0xbdc74972	-0.097308055
203	0x3e19a96e	0.15006039
204	0xbe610790	-0.21975541
205	0xbd0d6d08	-0.03452781
206	0xbc0701c8	-0.008240171
207	0x3d84d57b	0.06486031
208	0xbdf554e6	-0.11979084
209	0xbd9955aa	-0.07487042
210	0xbc76e42c	-0.015069049
211	0xb8ac3e29	-8.213177e-05
212	0xbd6d5b23	-0.057948243
213	0x3e3b8635	0.18312915
214	0xbd22f874	-0.039787725
215	0xbdbd8df0	-0.09255588
216	0xbe53afbc	-0.20672506
217	0xbd948631	-0.072521575
218	0xbe497477	-0.19673334
219	0xbe85131d	-0.25991145
220	0x3d55f1f6	0.052232705
221	0xbef35321	-0.4752436
222	0xbe237078	-0.15960872
223	0x3faeac2a	1.364629
224	0x3cdf2244	0.027238019
225	0xbec09bec	-0.3761896
226	0xbeb57ea8	-0.35448194
227	0xbe01b20b	-0.12665574
228	0x3e3ff8eb	0.18747298
229	0xbdabea77	-0.0839433
230	0xbdd5585c	-0.10417244
231	0xbd6eafbb	-0.05827306
232	0xbcca741c	-0.024713568
233	0x3d5bb76c	0.05364172
234	0xbcbfe1fd	-0.02342319
235	0x3d6be5df	0.05759227
236	0x3d9457e7	0.072433285
237	0xbd6dad0a	-0.05802635
238	0x3da044f7	0.07825654
239	0x3d64da74	0.055872396
240	0x3e3184c8	0.17335808
241	0xbd3c9d7b	-0.046048623
242	0x3d97eeec	0.074186176
243	0x3da394ea	0.079873875
244	0x3d6b91da	0.05751214
245	0xbdc6b538	-0.097025335
246	0xbb924008	-0.0044631995
247	0xbea75b5c	-0.3268689
248	0x3e2ea339	0.17054452
249	0xbf622f75	-0.88353664
250	0xbf6728be	-0.9029654
251	0x400851d0	2.1299934
252	0x3e25ea31	0.16202618
253	0x3ef5f2ce	0.48036808
254	0x3e90d99f	0.28291032
255	0x3e4a90ea	0.19781843

encoder.0.bias f4 [64]
0	0x400247a8	2.0356236
1	0xbf0805a9	-0.53133637
2	0xbedd22bc	-0.43190563
3	0x3fcb6e35	1.5893008
4	0x4014200d	2.3144562
5	0xc01cc51b	-2.4495304
6	0x400a7edf	2.1639936
7	0x3f54dc56	0.83148706
8	0x3f94c449	1.1622401
9	0x3f15cbd7	0.5851416
10	0x3ffb04b9	1.9610816
11	0x3ff024cd	1.8761231
12	0x3ff37ab3	1.902182
13	0x400d268e	2.2054782
14	0x3ff4787a	1.9099267
15	0x3fb60a98	1.4221983
16	0x40073e22	2.1131673
17	0x3fc9bed4	1.5761361
18	0x4004604a	2.068377
19	0xbda4aad1	-0.08040393
20	0x400d1f25	2.205026
21	0x3feff5c2	1.8746874
22	0x3e1843bb	0.14869587
23	0x3e8cd394	0.2750517
24	0x3fb6d245	1.4282919
25	0x3fc54d05	1.541413
26	0x3fb50efb	1.4145197
27	0x400f8b46	2.2428756
28	0xbe2c4c75	-0.16826041
29	0x3fb9b7a1	1.4509164
30	0x3f7a74ff	0.9783477
31	0x3ead4d87	0.3384821
32	0x3e5bb005	0.21453865
33	0x3f9d1cff	1.2274474
34	0x403875d7	2.8821924
35	0x3ef347bb	0.47515664
36	0x3fd5daac	1.6707358
37	0x3ff9b3cd	1.9507996
38	0x3fc3ce59	1.5297347
39	0xbeb8712e	-0.3602385
40	0xbdeaf344	-0.114721805
41	0x3e92d5bc	0.2867869
42	0x3ec34dea	0.3814538
43	0x3f3e937a	0.7444378
44	0x401e8611	2.4769328
45	0x40032751	2.0492747
46	0x3fb8817f	1.4414519
47	0x3fad08c5	1.3518301
48	0x3ead4483	0.33841333
49	0x3eade283	0.33961877
50	0xbeafc587	-0.3433039
51	0x40100271	2.250149
52	0xbde3e5d1	-0.111278184
53	0x4001355f	2.0188825
54	0x3fe49ce3	1.7860378
55	0x40029a59	2.0406706
56	0x3f43e863	0.7652647
57	0xbf164175	-0.5869363
58	0x3efe6df1	0.49693254
59	0x3fc03069	1.5014774
60	0x3f4e1edc	0.8051584
61	0x4008c34b	2.1369197
62	0x3f5ed74e	0.8704728
63	0x3f9af795	1.2106806

encoder.2.weight f4 [32, 64]
0	0xbe006b40	-0.12540913
1	0xbde39901	-0.111131676
2	0xbd6824aa	-0.05667559
3	0xbe001ed7	-0.12511764
4	0xbe36c119	-0.17847098
5	0x3cb72e1b	0.022360852
6	0xbda2c504	-0.07947734
7	0x3ca36063	0.019943422
8	0x3abc9581	0.0014387817
9	0xbe2df7b0	-0.16989017
10	0xbd4543e2	-0.04816044
11	0xbcd1268d	-0.025531078
12	0xbd138fda	-0.03602586
13	0xbe0e9b62	-0.13926461
14	0x3af9b7f0	0.001905201
15	0x3c221b97	0.009894273
16	0x3d846f66	0.0646656
17	0x3d4fc397	0.05072364
18	0xbdbb84a7	-0.09156161
19	0x3d840314	0.064458996
20	0xbe1ba4f7	-0.15199648
21	0xbe20246a	-0.15638891
22	0xbcd8b1e2	-0.026452009
23	0xbda35f4f	-0.07977163
24	0x3d083cf8	0.03326127
25	0xbe06e8c9	-0.13174738
26	0xbe0ecc38	-0.13945091
27	0xbd9aac98	-0.07552451
28	0xbddc8746	-0.10767989
29	0xbdc8b793	-0.09800639
30	0xbd5826c3	-0.05277134
31	0xbdb0c001	-0.08630372
32	0xbc3c7cdf	-0.011504381
33	0xbe32663d	-0.17421813
34	0xbe1f203e	-0.15539643
35	0xbdd1abd6	-0.10237853
36	0xbd5f3f9f	-0.054504033
37	0xbe147448	-0.14497483
38	0xbe27c687	-0.16384326
39	0xbdf5b2cd	-0.11996994
40	0x3d456423	0.0481912
41	0xbd1c1ee6	-0.038115405
42	0x3d61a455	0.05508836
43	0x3d3ff81c	0.046867475
44	0xbc0d8a1d	-0.008638886
45	0x3d1852be	0.037188284
46	0xbe21fd0b	-0.15819184
47	0xbdd8a76d	-0.10578809
48	0xbe3b9a48	-0.18320572
49	0x3d1dac08	0.03849414
50	0xbd204c07	-0.039135005
51	0xbd3cc8a1	-0.046089772
52	0xbe1fbbf2	-0.15599039
53	0xbda7da1b	-0.08195897
54	0x3d1133af	0.03544968
55	0xbe10bd54	-0.14134723
56	0xbb0d2a9b	-0.0021540287
57	0xbe286977	-0.16446482
58	0x3cb1fd2d	0.021727169
59	0xbcb5755d	-0.02215069
60	0xbd715ede	-0.058928363
61	0x3cac3dc6	0.02102555
62	0xbd3e6425	-0.046482224
63	0xbe380ecf	-0.17974399
64	0x3d518223	0.0511495
65	0xbb4e711b	-0.0031500522
66	0xbec0c551	-0.3765054
67	0xbd4c6d9e	-0.049909227
68	0x3cf69ce7	0.030104114
69	0xbc0a1601	-0.008428098
70	0xbe865222	-0.26234537
71	0xbce14698	-0.027499482
72	0x3d1fd990	0.039025843
73	0xbdbfaacc	-0.09358749
74	0x3d54a43a	0.05191443
75	0xbdc91d9f	-0.09820103
76	0xbcb66d8e	-0.022269037
77	0xbe327c82	-0.17430308
78	0xbe05d870	-0.13070846
79	0x3be08726	0.0068520484
80	0xbd30e7b3	-0.043189716
81	0xbd377165	-0.044785876
82	0xbd96c6e4	-0.07362154
83	0xbebffbc2	-0.37496763
84	0xbdbe849b	-0.09302636
85	0xbe1f9c20	-0.155869
86	0x3d7d5aee	0.061854295
87	0xbc58d820	-0.013235122
88	0xbe2763e4	-0.16346699
89	0xbde1641f	-0.11005425
90	0xbe09f6c0	-0.13473034
91	0xbdbef5d6	-0.09324233
92	0xbe83112f	-0.25599048
93	0xbdbbf319	-0.091772266
94	0xbe2334cc	-0.15938109
95	0xbe2d13fb	-0.16902153
96	0xbe9d883e	-0.30768007
97	0xbdb5a89f	-0.088700525
98	0xbc3646f4	-0.011125315
99	0xbdaed310	-0.08536351
100	0xbdfe69fa	-0.12422557
101	0xbe258fee	-0.16168186
102	0xbe2e6b7d	-0.17033191
103	0xbe8e326b	-0.2777284
104	0xbec31965	-0.38105312
105	0xbe9602ed	-0.29299107
106	0x3d05355f	0.0325216
107	0xbd3c4975	-0.04596849
108	0xbd9aa6d3	-0.075513504
109	0xbe2a78a0	-0.16647577
110	0xbe8e59f8	-0.27803016
111	0xbe3a1c5d	-0.18174882
112	0xbe8d1ae7	-0.27559587
113	0xbe29119c	-0.16510624
114	0xbd971aa9	-0.07378132
115	0xbd63736e	-0.055530004
116	0xbe2a277f	-0.16616629
117	0xbc8ad5a2	-0.016947571
118	0xbe393610	-0.1808703
119	0xbe04985e	-0.12948748
120	0xbec519f0	-0.3849635
121	0xbe93e0b8	-0.28882384
122	0x3bf71e7e	0.0075414767
123	0xbe010c22	-0.12602285
124	0xbe2f84ab	-0.17140453
125	0xbdccd078	-0.100007
126	0xbe0f2959	-0.13980617
127	0x3cadbc6a	0.021208007
128	0x3ed130eb	0.40857634
129	0x3c0680d8	0.00820943
130	0x3cfd0187	0.030884517
131	0xbbb713c7	-0.0055870744
132	0xbe40848d	-0.18800564
133	0x3d0b8a2f	0.03406733
134	0x3dd8d9ee	0.10588442
135	0xbd8f91c9	-0.07010228
136	0xbcc5498e	-0.024082925
137	0xbb0ef073	-0.00218108
138	0x3cef0e09	0.029181497
139	0xbbb47e87	-0.0055082473
140	0xbf291674	-0.66049886
141	0xbc73d290	-0.014881745
142	0xbe06053f	-0.13087939
143	0xbebc1356	-0.36733502
144	0x3e0be00d	0.13659687
145	0xbe9757ca	-0.29559165
146	0x3db15ad5	0.08659903
147	0x3e3657a6	0.17806873
148	0x3d63ab86	0.0555835
149	0xbe7a1733	-0.24422912
150	0x3d449638	0.047994822
151	0xbd5163f3	-0.05112071
152	0x3deb0914	0.11476341
153	0x3c4d0a05	0.012514596
154	0xbbbc146e	-0.00573974
155	0xbbfc5598	-0.0077006333
156	0x3cbeb1ac	0.02327808
157	0xbf51a4d4	-0.8189213
158	0xbe651da9	-0.22374596
159	0x3ca4e18a	0.020127077
160	0x3c24f1c4	0.010067407
161	0xbc39b6e6	-0.01133511
162	0xbf240918	-0.64076376
163	0x3d147651	0.036245648
164	0xbea74396	-0.3266875
165	0xbd48543d	-0.04890846
166	0x3e0efd02	0.13963702
167	0x3d074bbd	0.033031214
168	0xbddf3ab1	-0.10899866
169	0x3ce24f29	0.027625637
170	0xbee9a445	-0.4563314
171	0xbd7ab4ed	-0.0612077
172	0xbdc77598	-0.09739226
173	0xbd72b6fe	-0.059256546
174	0x3e408564	0.18800884
175	0xbe4d4ec5	-0.2004958
176	0xbbc8b9df	-0.006125673
177	0xbd2a1ca8	-0.041531235
178	0xbcb8b78c	-0.02254846
179	0xbd3f9e2c	-0.046781704
180	0x3da1ea87	0.07906061
181	0xbcd22c0c	-0.025655769
182	0x3e0cfdcb	0.1376869
183	0x3d8212eb	0.063512646
184	0x3c620300	0.013794661
185	0xbc1c9de8	-0.009559132
186	0x3af880a2	0.0018959234
187	0xbdf20783	-0.11817839
188	0x3dee5c69	0.116387196
189	0xbb65c221	-0.0035058337
190	0xbc9d636b	-0.019212445
191	0xbe343d5b	-0.1760153
192	0x3cdea7d8	0.027179644
193	0xbe048f03	-0.1294518
194	0x3d399136	0.0453045
195	0x3e195860	0.14975119
196	0x3ec108ca	0.37702018
197	0xbd0a089d	-0.03369962
198	0x3e5ece4a	0.2175838
199	0x3d806020	0.062683344
200	0x3d335893	0.043785643
201	0xbde40125	-0.11133031
202	0x3e601154	0.2188161
203	0x3e751c75	0.23936637
204	0xbfb7cb46	-1.4358909
205	0x3d9408c5	0.07228235
206	0xbd218dee	-0.039441995
207	0xbd9c110d	-0.0762044
208	0x3be44a66	0.006966877
209	0xbf085652	-0.53256714
210	0xba979cf6	-0.0011567164
211	0xbd005a5b	-0.03133617
212	0x3e0acac4	0.13553911
213	0xbc14211c	-0.009041097
214	0xbd7bf89f	-0.0615164
215	0xbde7e42a	-0.11322816
216	0xbda44ac8	-0.08022076
217	0x3d0d4e45	0.03449847
218	0x3d815b8a	0.06316288
219	0x3e1c5ea1	0.15270473
220	0x3c85e6ee	0.016345467
221	0xbfc1ca4c	-1.5139861
222	0x3da7441e	0.08167289
223	0xbc103ef5	-0.008804073
224	0xbda45c09	-0.08025367
225	0x3d0862a2	0.03329719
226	0xbfe61123	-1.797398
227	0xbd03feb6	-0.032225333
228	0xbe3a6d8e	-0.18205854
229	0x3e4865ec	0.1957013
230	0xbcf5df4b	-0.030013701
231	0x3cb7270b	0.022357484
232	0xbd1c4e7a	-0.03816078
233	0x3d5c51b9	0.053788874
234	0xbc728d97	-0.014804265
235	0xbd662d1d	-0.056195367
236	0x3ad8c4e6	0.0016538172
237	0x3e09f510	0.1347239
238	0x3db08810	0.08619702
239	0xbec6524b	-0.3873466
240	0x3db2451d	0.087045886
241	0x3d954d1a	0.072900966
242	0xbd2a104d	-0.041519452
243	0xbe504810	-0.2033999
244	0x3ea99e71	0.33128694
245	0x3e41bf6c	0.18920678
246	0x3c5c3639	0.013440662
247	0xbd6fca59	-0.058542583
248	0x3c912430	0.01771745
249	0xbd5f17e6	-0.05446615
250	0x3d672dc4	0.05644013
251	0x3e339143	0.17535882
252	0xbc95152c	-0.018198572
253	0x3e6f909a	0.23395005
254	0xbcfdc477	-0.03097747
255	0x3de43270	0.11142433

encoder.2.bias f4 [32]
0	0xbd93b024	-0.072113305
1	0xbe7eb659	-0.24874248
2	0x3f0dac62	0.5534116
3	0x3f43f437	0.7654452
4	0x3f58d305	0.8469699
5	0x3ccc126b	0.024911126
6	0xbd8ae757	-0.06782406
7	0xbea8476a	-0.32866985
8	0xbe17e25b	-0.14832442
9	0xbed5d30e	-0.41762584
10	0x3f3dcc36	0.74139726
11	0x3ecc42ce	0.39894718
12	0xbd85d65f	-0.06535029
13	0x3e3358e6	0.17514381
14	0x3eda5ab7	0.42647335
15	0x3bd94afb	0.006631253
16	0xbe2156df	-0.15755795
17	0x3d3ab110	0.045579016
18	0x3f1dc810	0.61633396
19	0x3e94af8b	0.2904018
20	0xbe0c1b96	-0.13682398
21	0xbdcc6273	-0.09979715
22	0x3e250d85	0.16118439
23	0xbd6bae42	-0.057539232
24	0x3f15e06a	0.58545554
25	0xbe6ab756	-0.229215
26	0x3f2a9f00	0.66648865
27	0x3f054295	0.5205472
28	0x3d254f36	0.040358745
29	0x3e83180a	0.25604278
30	0x3eb9d291	0.36293462
31	0x3ef8c264	0.48585808

decoder.0.weight f4 [64, 32]
0	0xbe81b3f1	-0.25332597
1	0xbe922c7c	-0.28549564
2	0xbeb7f8f8	-0.35932136
3	0xbe8ae9e6	-0.27131575
4	0xbeb7f1fa	-0.359268
5	0xbe93c36f	-0.28860041
6	0xbdf4c1d6	-0.11951034
7	0xbdddd095	-0.108307995
8	0x3ed2bf4b	0.4116157
9	0xbd16b11a	-0.03678999
10	0xbde4d54d	-0.111734964
11	0xbee8fbf7	-0.45504734
12	0xbe94f382	-0.29092032
13	0x3d92c902	0.071672454
14	0xbedc30fd	-0.43006125
15	0xbee802e7	-0.45314714
16	0xbd98fa53	-0.074696206
17	0xbeb496f5	-0.3527142
18	0xbe5a56c7	-0.21322165
19	0xbea2bfee	-0.31787056
20	0xbe51aaf2	-0.20475367
21	0xbebfaf1e	-0.3743829
22	0xbead6a3e	-0.3387012
23	0xbed9bbd7	-0.42526123
24	0x3e9acb77	0.30233356
25	0x3ed0a8f8	0.40753913
26	0x3edb20f3	0.42798576
27	0xbeb837bd	-0.35980025
28	0x3e6bffae	0.23046753
29	0xbece5862	-0.40301806
30	0xbe5bb23e	-0.21454713
31	0x3e233e2f	0.1594169
32	0xbe461679	-0.1934451
33	0xbe0eae41	-0.1393366
34	0xbca24490	-0.019808084
35	0x3e3460f0	0.17615104
36	0xbc74ae33	-0.01493411
37	0x3da789a1	0.081805475
38	0xbe11fa3a	-0.1425561
39	0x3d9a2957	0.07527416
40	0x3e448609	0.19191755
41	0xbd2aa093	-0.04165704
42	0x3d531526	0.05153384
43	0x3e07df4e	0.13268778
44	0x3df47934	0.1193718
45	0xbe866fe7	-0.2625725
46	0xbe2cd0c6	-0.16876516
47	0x3b253db7	0.0025213787
48	0xbda240b2	-0.07922496
49	0x3d9d827b	0.07690903
50	0xbe2d9efc	-0.16955179
51	0x3ed2d0f7	0.41175053
52	0xbe1b57f0	-0.15170264
53	0xbd5d630a	-0.05404953
54	0x3d7598c5	0.059960146
55	0xbdbacc4f	-0.09121
56	0x3d874da1	0.066066034
57	0xbd2f8920	-0.042855382
58	0x3dea176f	0.11430251
59	0xbdaa1725	-0.08305196
60	0x3d41ca9c	0.047312364
61	0x3daf4ddc	0.08559772
62	0x3d18c248	0.037294656
63	0x3c6c627c	0.014427777
64	0x3e0fdd00	0.14049149
65	0x3c872448	0.016496792
66	0xbd301524	-0.04298891
67	0xbde86dd4	-0.11349073
68	0x3dcee91a	0.10103054
69	0x3e5ed409	0.21760572
70	0x3e01fbe7	0.1269375
71	0x3e3929f3	0.18082409
72	0xbe31415a	-0.17310086
73	0xbd38e4ab	-0.04513995
74	0xbd8f8e3c	-0.07009551
75	0xbe15d1d4	-0.14630824
76	0x3de8d4a0	0.1136868
77	0xbcb1bcc7	-0.021696461
78	0xbcd91f62	-0.026504222
79	0xbde2c6c5	-0.110730685
80	0xbe19f393	-0.15034322
81	0x3e1012f2	0.14069727
82	0xbd09590a	-0.03353218
83	0x3d320c57	0.0434688
84	0xbd50c721	-0.050971154
85	0x3e46da1c	0.1941914
86	0xbecda2d1	-0.40163282
87	0x3e54a412	0.20765713
88	0x3deada09	0.11467368
89	0x3d6ffcd9	0.058590744
90	0x3f10ac85	0.56513244
91	0xbdc2dfc1	-0.09515334
92	0xbe05031e	-0.1298947
93	0x3d37a40b	0.044834178
94	0xbcab1221	-0.020882668
95	0x3e09a4a2	0.13441709
96	0xbdbfc36a	-0.09363444
97	0x3d8b3c67	0.0679863
98	0xbbba0134	-0.005676413
99	0xbe72d9e7	-0.23715936
100	0xbdef6843	-0.11689808
101	0xbe0afafc	-0.13572305
102	0xbe3b7c4b	-0.18309133
103	0x3df34c9b	0.11879846
104	0x3e2db716	0.16964373
105	0x3de66024	0.11248806
106	0x3d4dba15	0.05022629
107	0xbde7683d	-0.11299179
108	0xbe2229e4	-0.15836293
109	0xbe21c636	-0.15798268
110	0xbdd6fe8c	-0.1049777
111	0x3d899e8d	0.06719694
112	0x3ca98845	0.020694861
113	0xbdc085d4	-0.09400526
114	0xbe22c143	-0.15894036
115	0x3cdfa96f	0.027302472
116	0xbd515de7	-0.051114943
117	0xbdb338e8	-0.087510884
118	0x3e3afddf	0.18260907
119	0xbe6aba5b	-0.22922651
120	0x3d56d3f1	0.052448217
121	0xbcc824f6	-0.024431687
122	0x3e37707b	0.17914002
123	0x3d640546	0.05566909
124	0x3e2fbdfd	0.17162319
125	0xbe705cac	-0.23472852
126	0xbde41cf4	-0.11138335
127	0xbd1d4670	-0.038397253
128	0xbdd5f145	-0.10446409
129	0xbe88e4cb	-0.26737055
130	0xbded747b	-0.115944825
131	0xbe174c35	-0.14775164
132	0xbe48ea4b	-0.19620626
133	0xbda9eb73	-0.082968615
134	0xbe6ffe21	-0.23436786
135	0x3db79aca	0.089650705
136	0x3cd87ddb	0.0264272
137	0x3e0fec91	0.14055087
138	0xbccb0204	-0.024781235
139	0xbda25d7f	-0.07927989
140	0xbe201609	-0.15633406
141	0xbe64387a	-0.22287169
142	0x3ce9d810	0.02854541
143	0xbe5afb39	-0.21384896
144	0x3da3ef35	0.080046095
145	0xbe467788	-0.19381535
146	0xbe4fe494	-0.2030204
147	0xbe0d4116	-0.1379436
148	0x3d8d46cc	0.06898269
149	0xbe317336	-0.17329106
150	0xbdad01c3	-0.08447602
151	0xbd5d6bf0	-0.054058015
152	0xbe0377e4	-0.12838703
153	0xbd7ab88f	-0.061211165
154	0x3d8d99e4	0.06914118
155	0x3e60685c	0.2191481
156	0x3e6a18ad	0.22860976
157	0xbe4c70f1	-0.19964959
158	0xbdd01bdc	-0.10161564
159	0xbd842113	-0.06451621
160	0xbaa53901	-0.001260549
161	0xbdf655d3	-0.120280884
162	0xbb5d11a5	-0.003373244
163	0xbc99a410	-0.018754989
164	0xbdba4e9b	-0.09097024
165	0xbd4f4ae8	-0.050608546
166	0x3df965a2	0.12177588
167	0xbdbbebb6	-0.09175818
168	0x3dc84bc2	0.09780075
169	0x3d914dd1	0.070949204
170	0x3d821adc	0.06352779
171	0x3d831782	0.06400968
172	0x3d273ead	0.040831257
173	0xbdb657f1	-0.08903492
174	0xbe16011b	-0.14648859
175	0xbe116ed4	-0.14202434
176	0xbd0b683b	-0.03403495
177	0xbd020b51	-0.031749073
178	0x3d84fd34	0.06493607
179	0xbc978742	-0.018497113
180	0xbe2d9eb3	-0.1695507
181	0xbdd39c88	-0.1033259
182	0x3d0c01f6	0.034181558
183	0x3e0d0f54	0.13775378
184	0x3dc484e4	0.095956594
185	0x3df16c3a	0.11788221
186	0xbdf38a8b	-0.11891659
187	0xbda45425	-0.08023862
188	0x3e0cb851	0.13742186
189	0xbd2319b4	-0.039819434
190	0xbe262813	-0.16226225
191	0xbdffddd2	-0.12493481
192	0x3d97f781	0.074202545
193	0xbde9ce35	-0.11416284
194	0xbdd7b7f2	-0.10533132
195	0xbe80f4c2	-0.25186735
196	0xbf443d77	-0.7665629
197	0xbe1ff2ae	-0.15619919
198	0x3dc97e23	0.09838512
199	0xbe279d20	-0.16368532
200	0x3d3d18b1	0.046166126
201	0x3dfeee3a	0.12447782
202	0xbe2a9c59	-0.16661204
203	0xbae1fd0d	-0.0017241553
204	0xbe32ef12	-0.1747401
205	0xbe85a896	-0.26105183
206	0x3daf8375	0.08569995
207	0x3df8cbe7	0.12148266
208	0xbe263802	-0.16232303
209	0x3dd6960f	0.1047784
210	0x3c81fab2	0.015866611
211	0xbd129b62	-0.035792716
212	0xbd9b1747	-0.07572799
213	0xbc12abab	-0.008952062
214	0xbc99b4a2	-0.01876289
215	0x3e2cb899	0.16867293
216	0xbcc1f2aa	-0.023675282
217	0x3da67161	0.08127094
218	0xbcddb85c	-0.027065448
219	0xbcadd7ce	-0.021221068
220	0xbd40107b	-0.046890717
221	0xbe0bdbe1	-0.13658096
222	0x3f0b0a2c	0.54312396
223	0xbe462895	-0.19351418
224	0xbe55ff2c	-0.20898122
225	0xbe80178a	-0.2501796
226	0x3cb7382c	0.022365652
227	0xbcc72046	-0.024307381
228	0xbda0e274	-0.078556925
229	0x3aa8754a	0.0012852338
230	0xbd13ff1b	-0.03613196
231	0xbe8df237	-0.27723858
232	0x3ddda657	0.108227424
233	0x3db0ed84	0.086390525
234	0x3ddca77a	0.10774131
235	0xbe49a8dd	-0.19693322
236	0xbe38e938	-0.18057716
237	0xbe4abffd	-0.197998
238	0x3cb4f456	0.022089165
239	0xbe8b89c3	-0.2725354
240	0x3e697353	0.22797899
241	0x3c0b98ae	0.008520288
242	0x3eee1f67	0.46508333
243	0x3e195934	0.14975435
244	0xbc981cce	-0.018568423
245	0xbe85b5f5	-0.26115385
246	0xbb98f9c4	-0.0046684463
247	0xbded5db5	-0.11590139
248	0xbd29535c	-0.041339263
249	0x3df1f349	0.11813981
250	0x3e284bca	0.16435161
251	0x3be93b82	0.0071176896
252	0xbcda4985	-0.026646385
253	0xbe0ca0a8	-0.1373316
254	0xbdac6cd7	-0.08419197
255	0x3e8c44db	0.27396283

decoder.0.bias f4 [64]
0	0xbe684050	-0.22680783
1	0xbd99bb85	-0.0750647
2	0x3deb1880	0.114792824
3	0xbdec4df2	-0.115383044
4	0x3a877468	0.0010334374
5	0x3cbef3a9	0.023309546
6	0x3df7462e	0.120739326
7	0xbd1cb5ed	-0.038259435
8	0x3e22cd72	0.15898684
9	0xbe1a34a8	-0.1505915
10	0x3c187338	0.009304814
11	0xbcbd9947	-0.023144377
12	0x3d264526	0.04059329
13	0xbe105e9b	-0.14098589
14	0xbd4f3e0e	-0.05059629
15	0xbe5d0930	-0.21585536
16	0xbd8af1c8	-0.06784397
17	0xbb996898	-0.004681658
18	0xbe4e96db	-0.20174734
19	0xbd44f580	-0.04808569
20	0x3bf27a6c	0.0073998477
21	0xbda0a288	-0.078435004
22	0x3d69d21c	0.05708514
23	0xbdac5ec5	-0.08416513
24	0xbe45d637	-0.19319998
25	0xbe55ef6a	-0.2089211
26	0xbe3a5bc0	-0.18199062
27	0xbebc0e06	-0.3672945
28	0xbe1fc522	-0.15602544
29	0x3e601e16	0.21886477
30	0x3b299d1f	0.0025881005
31	0xbe802b43	-0.25033006
32	0xbda62a44	-0.0811353
33	0x3d573d84	0.0525489
34	0xbdd0c404	-0.10193637
35	0x3e0f6b64	0.1400581
36	0x3e26913c	0.1626634
37	0xbe37c363	-0.17945628
38	0x3d466422	0.048435338
39	0xbdc817a7	-0.09770136
40	0xbe5e8bce	-0.21733019
41	0x3c9175ae	0.01775631
42	0x3c615e9f	0.01375547
43	0x3dbc7043	0.092011
44	0x3e66acd2	0.22526863
45	0xbdac7cd7	-0.08422249
46	0x3d687e20	0.056760907
47	0x3e1c4afa	0.15262976
48	0xbe76825d	-0.24073167
49	0xbdf2d971	-0.1185788
50	0x3dd6a20e	0.10480128
51	0xbdd1c520	-0.10242677
52	0xbe42657b	-0.18984024
53	0x3dc555f3	0.09635534
54	0xbdcf3358	-0.10117215
55	0xbc593852	-0.013258057
56	0xbe17d3e4	-0.14826924
57	0x3e0d1dfe	0.13780972
58	0xbca7e63e	-0.02049553
59	0xbe8b051e	-0.27152342
60	0x3e6fc4b1	0.23414876
61	0x3e29140c	0.16511554
62	0x3dc5d82c	0.09660372
63	0x3cbdb00e	0.023155238

decoder.2.weight f4 [784, 64]
0	0x3df6bfe0	0.12048316
1	0xbd92d7de	-0.0717008
2	0x3ce40c08	0.027837768
3	0xbd7fffac	-0.062499687
4	0xbd9d605a	-0.07684393
5	0xbcf92a20	-0.030415595
6	0x3d40b170	0.047044218
7	0xbd8ca4b2	-0.06867351
8	0x3bb8b728	0.0056370683
9	0xbd807f12	-0.06274237
10	0xbe1e7700	-0.15475082
11	0xbd991490	-0.07474625
12	0xbbdac1f1	-0.0066759516
13	0x3c852e1f	0.016257344
14	0x3d212d0f	0.03934961
15	0xbdd9cd2a	-0.10634835
16	0xbab4b556	-0.0013786952
17	0xbdede4a6	-0.11615877
18	0xbd004f94	-0.03132589
19	0xbddf52c7	-0.109044604
20	0xbd41c8a8	-0.0473105
21	0xbe0f23a0	-0.13978434
22	0xbd98b2d7	-0.07455986
23	0xbdce2d3f	-0.10067224
24	0x3d608410	0.054813445
25	0xbc1bb390	-0.00950326
26	0xbe1ac14a	-0.15112796
27	0x3d924336	0.07141726
28	0x3c02c870	0.007982358
29	0xbc9ddadc	-0.0192694
30	0xbdab444e	-0.083626375
31	0xbd9ebfa4	-0.07751396
32	0x3c170900	0.009218454
33	0xbd214738	-0.03937456
34	0xbdd02cca	-0.10164793
35	0xbe095187	-0.13410006
36	0xbe28f1f3	-0.16498546
37	0xbc31e84c	-0.010858607
38	0xbe195084	-0.1497212
39	0xbe0ebfc6	-0.13940343
40	0xbdd58d46	-0.104273364
41	0xbdfb8d33	-0.12282791
42	0xbd98d90a	-0.07463272
43	0x3da28898	0.079362094
44	0xbd307cd2	-0.043087788
45	0xbe21bfb8	-0.15795791
46	0xbb974ae0	-0.00461708
47	0x3cd09998	0.025463864
48	0xbcb7af10	-0.022422343
49	0xbdc7e2fd	-0.097600915
50	0xbe402222	-0.1876302
51	0xbd590d6a	-0.05299131
52	0xbd555f6c	-0.052092955
53	0xbd23bca4	-0.039974824
54	0x3caa12a8	0.02076085
55	0x3ddeb5fc	0.108745545
56	0xbd19d024	-0.037552014
57	0xbc93e242	-0.018052224
58	0x3d0db884	0.034599796
59	0xbda6d0e6	-0.08145313
60	0x3d9b8d6e	0.07595335
61	0xbd2a51de	-0.04158198
62	0xbe29f800	-0.1659851
63	0xbd9c0d76	-0.07619755
64	0x3d8e9ad4	0.06963125
65	0x3c621316	0.013798496
66	0xbda909c0	-0.08253813
67	0x3da8f35c	0.08249542
68	0xbdfdfcc8	-0.1240173
69	0xbd73a3a4	-0.05948223
70	0xbd353804	-0.044242874
71	0xbcab09c2	-0.020878676
72	0xbe421a2f	-0.18955301
73	0x3c245274	0.010029424
74	0xbc9dc4fc	-0.019258969
75	0xbd3089c9	-0.043100152
76	0xbd4419b6	-0.047876082
77	0xbe4efd5f	-0.20213841
78	0xbcdf0142	-0.02722228
79	0x39723c00	0.0002310127
80	0xbe44f5dc	-0.19234413
81	0x3cf6f4d0	0.030146033
82	0xbd088100	-0.03332615
83	0xbe0e7f82	-0.13915828
84	0xbd7c0b4c	-0.06153421
85	0xbdb94256	-0.09045856
86	0xbd5323a3	-0.051547658
87	0xbcdeefcf	-0.027213959
88	0xbd8d35d6	-0.06895034
89	0xbc20e440	-0.009820044
90	0x3d41d796	0.04732474
91	0xbd93aede	-0.07211088
92	0x3d13eb44	0.03611304
93	0xbcb50e90	-0.02210167
94	0x3cd781e7	0.02630706
95	0x3da23280	0.07919788
96	0x3c806afe	0.015676018
97	0xbd7188a4	-0.0589682
98	0xbdf61052	-0.120148316
99	0xbc87b395	-0.016565124
100	0xbafe20eb	-0.0019388472
101	0xbd0506a0	-0.03247702
102	0xbda9e43b	-0.08295485
103	0xbe0da109	-0.13830961
104	0xbd90f378	-0.07077688
105	0x3d2826e2	0.041052707
106	0xbd83c6a6	-0.064343736
107	0x3d0fe148	0.035126954
108	0xbd1d6394	-0.038425043
109	0x3c382b3c	0.011240777
110	0x3db0d94a	0.086351946
111	0xbd15a235	-0.036531646
112	0xbb37f240	-0.0028067976
113	0xbd184273	-0.037172746
114	0xbe1b5c30	-0.15171885
115	0xbd2fa6e7	-0.04288378
116	0x3bebe6e0	0.0071991533
117	0xbe118b00	-0.1421318
118	0xbcb3c492	-0.021944318
119	0xbe314897	-0.17312847
120	0xbe2fbe71	-0.17162491
121	0xbd50db12	-0.05099017
122	0x3b4518d1	0.0030074606
123	0xbd0f3d89	-0.034970794
124	0x3c47cee8	0.012195326
125	0xbd3dbfbd	-0.046325434
126	0xbd664501	-0.05621815
127	0xbe098a7e	-0.13431737
128	0x3de253e4	0.11051157
129	0xbe744e14	-0.2385791
130	0xbdd9ce9c	-0.10635111
131	0x3de02314	0.109441906
132	0xbd77e510	-0.060521185
133	0xbd06c284	-0.03290035
134	0x3dac548c	0.084145635
135	0x3c32a461	0.010903449
136	0xbe2a91bd	-0.16657157
137	0xbdb7ebcd	-0.08980522
138	0x3d888508	0.06665999
139	0xbcab04e8	-0.020876363
140	0xbd331426	-0.043720387
141	0xbda046ca	-0.07826002
142	0xbc861534	-0.016367532
143	0x3c8e6ff8	0.017387375
144	0x3d06fcd3	0.032955956
145	0x3d237898	0.03990993
146	0x3b852060	0.0040626973
147	0xbd5d1af2	-0.053980775
148	0xbdad0ecc	-0.08450088
149	0xbe2fc32a	-0.17164293
150	0xbd82f9a8	-0.063952744
151	0xbc3248a0	-0.010881573
152	0x3d84ea88	0.06490046
153	0xbccb1658	-0.024790928
154	0xbd83659a	-0.06415863
155	0xbc38b5a0	-0.0112737715
156	0xbd94c0ba	-0.07263322
157	0xbc7511e8	-0.014957882
158	0xbe0baf9c	-0.13641208
159	0xbd844d38	-0.06460041
160	0x3da8a53c	0.08234641
161	0x3d56a3c8	0.052402288
162	0xbd337c14	-0.043819502
163	0xbe1624e8	-0.14662516
164	0xbe012781	-0.12612726
165	0xbc965a58	-0.018353626
166	0xbe424668	-0.1897217
167	0x3d9c350e	0.07627307
168	0x3d6f98e0	0.058495402
169	0xbddf9491	-0.10917009
170	0x3cf37100	0.029716969
171	0xbdc9b17e	-0.09848307
172	0xbce4a2fc	-0.027909748
173	0x3d0c7ace	0.034296803
174	0x3db78b34	0.08962098
175	0xba960700	-0.0011446178
176	0x3d193ce9	0.037411604
177	0x3d987de4	0.07445887
178	0xbe0cadfe	-0.13738248
179	0xbdded661	-0.10880733
180	0xbd4d8710	-0.050177634
181	0x3dafba34	0.08580437
182	0x3c978f30	0.018500894
183	0xbcd68528	-0.02618654
184	0x3d7f53e0	0.06233585
185	0xbe1a8411	-0.15089442
186	0xbdbcc6ee	-0.0921763
187	0x3de6658a	0.11249836
188	0xbd86c215	-0.06579987
189	0xbe0a0a86	-0.13480577
190	0xbe3513c2	-0.17683318
191	0xbd9878cc	-0.07444915
192	0xbcf491b8	-0.02985464
193	0xbb196580	-0.0023406446
194	0xbbfc0f0f	-0.007692225
195	0x3def9708	0.11698729
196	0xbdf9ba1c	-0.12193701
197	0x3dbf651a	0.093454555
198	0x3d56ac94	0.052410677
199	0xbded5c3d	-0.11589859
200	0xbe327111	-0.17425944
201	0xbe440d70	-0.19145751
202	0xbd46c770	-0.048530042
203	0xbb5d3dfe	-0.0033758874
204	0xbe0cacc5	-0.13737781
205	0x3bcbb7a0	0.006216958
206	0x3d17c363	0.03705157
207	0xbda8963a	-0.082317784
208	0xbdd70b57	-0.1050021
209	0xbdcfb502	-0.101419464
210	0xbe40eb94	-0.18839866
211	0xbcd9988a	-0.026561994
212	0x3d7f0efc	0.06227015
213	0x3d3b25d9	0.04569039
214	0xbd48a2f8	-0.048983544
215	0x3d0bd564	0.034139052
216	0xbc27b940	-0.010237038
217	0xbd04cb28	-0.032420307
218	0xbe073cae	-0.13206741
219	0x3dcb65ce	0.09931527
220	0x3db4af3a	0.08822484
221	0xbe26da4c	-0.16294211
222	0x3d4e6d14	0.050396994
223	0x3babe540	0.0052458346
224	0x3dfc1752	0.123091355
225	0xbdc37ce6	-0.09545307
226	0x3d97f9c8	0.07420689
227	0x3cc47aa9	0.02398427
228	0xbdb72a42	-0.08943607
229	0x3d7541a0	0.059877038
230	0xbe4626a8	-0.19350684
231	0xbdf75182	-0.12076093
232	0x3d4220d0	0.047394574
233	0xbdf9651d	-0.12177489
234	0x3de9d2bc	0.114171475
235	0xbdd40d40	-0.1035409
236	0xbbd65205	-0.006540539
237	0xbd89d04b	-0.06729182
238	0xbdd9eb4a	-0.10640581
239	0xbd907998	-0.07054442
240	0x3d8ad97e	0.067797646
241	0xbcf26c01	-0.029592516
242	0x3d3d73fd	0.046253193
243	0x3cec1bd8	0.02882187
244	0x3df5bdc6	0.11999087
245	0xbbe99f3f	-0.0071295793
246	0xbda172fb	-0.07883259
247	0xbd09db3b	-0.03365634
248	0xbe0f1803	-0.13974003
249	0xbd99fd52	-0.0751902
250	0xbe2b4407	-0.16725169
251	0xbdaeca84	-0.085347205
252	0xbde5d8fc	-0.11223027
253	0xbe0caf6b	-0.13738792
254	0x3c4a6241	0.012352527
255	0xbd7ce314	-0.061739996

decoder.2.bias f4 [784]
0	0x3c423e91	0.011855737
1	0xbcb3d408	-0.02195169
2	0x3c514389	0.012772449
3	0xbdbfd7d6	-0.09367339
4	0xbe1327ab	-0.14370601
5	0xbd293264	-0.041307822
6	0xbe1fb575	-0.15596564
7	0xbc8d691c	-0.017262034
8	0xbd9ccfd9	-0.07656831
9	0xbe217ad3	-0.1576951
10	0xbdaae845	-0.08345083
11	0xbe0f22a9	-0.13978066
12	0xbe2d1f88	-0.1690656
13	0xbd03a96d	-0.032144
14	0xbe3fe0b8	-0.18738067
15	0xbe0abdf7	-0.13549028
16	0xbe3a67b7	-0.18203627
17	0x3cde6dd0	0.027151972
18	0x3cb018c0	0.021496177
19	0xbce3f24d	-0.027825499
20	0xbd0b77c0	-0.03404975
21	0xbe24cc8d	-0.16093655
22	0xbd1f482c	-0.038887188
23	0xbe1d0a3e	-0.15335938
24	0xbe2b5c45	-0.16734417
25	0x3cf2d8d9	0.029644417
26	0xbdb64526	-0.08899908
27	0xbe384e70	-0.17998672
28	0xbe0baa9d	-0.13639303
29	0xbd6f3f2b	-0.05840985
30	0xbb4259f9	-0.0029655679
31	0xbe426e4d	-0.18987389
32	0xbd087f0a	-0.03332428
33	0xbd89937a	-0.06717582
34	0xbb6084e8	-0.0034258906
35	0xbd9c604e	-0.07635556
36	0xbe1a283b	-0.15054409
37	0xbd74cffb	-0.059768658
38	0xbe36fc4b	-0.1786968
39	0x3bd53147	0.0065061185
40	0xbbfc1188	-0.0076925196
41	0x3b64ef12	0.0034932536
42	0x3ccaf34c	0.024774216
43	0xbdbe022f	-0.0927776
44	0xbbb19cc3	-0.005420299
45	0xbe1c73f2	-0.15278605
46	0xbe25ae6d	-0.1617982
47	0xbd854c9a	-0.06508751
48	0xbe23b505	-0.15987022
49	0xbd4c921c	-0.04994403
50	0xbe32ebfe	-0.17472836
51	0xbc76a49c	-0.015053894
52	0xbde4a3b5	-0.11164037
53	0xbd97bb9b	-0.0740883
54	0x3cc883a1	0.024476828
55	0x3cf91aa0	0.030408204
56	0xbdf88114	-0.12133995
57	0xbda7df09	-0.081968375
58	0xbdd13386	-0.102149054
59	0xbd603fdd	-0.054748405
60	0xbd171b4d	-0.03689127
61	0xbdc94dbe	-0.09829281
62	0xbda88775	-0.082289614
63	0xbe6d07c6	-0.23147497
64	0xbc8a85a3	-0.016909426
65	0xbdf56d7c	-0.11983773
66	0x3be01449	0.0068383557
67	0xbdd82eba	-0.105557874
68	0xbe24b62c	-0.16085118
69	0xbd8b9da9	-0.06817181
70	0xbe34c01a	-0.17651406
71	0xbe256f1d	-0.16155668
72	0xbcf479a1	-0.029843153
73	0xbdb1d56a	-0.086832836
74	0xbd1006ef	-0.035162862
75	0xbdc5698e	-0.096392736
76	0xbd66f5d8	-0.0563868
77	0xbd011821	-0.03151715
78	0x3c38918a	0.011265168
79	0xbdaff74e	-0.085920915
80	0xbe0981a9	-0.13428368
81	0xbdbfebc5	-0.09371141
82	0xbc83b91d	-0.01607948
83	0xbcba626c	-0.02275201
84	0xbd9d6297	-0.0768482
85	0xbddf0dcd	-0.10891304
86	0xbd35bbed	-0.044368673
87	0xbdd606b7	-0.104504995
88	0xbc50e135	-0.012749006
89	0xbd337bb0	-0.04381913
90	0xbe4c9b67	-0.19981156
91	0xbe001397	-0.12507473
92	0xbe015104	-0.12628561
93	0xbd2fc0a6	-0.042908333
94	0xbdb867ef	-0.09004199
95	0xbd9b84fd	-0.07593725
96	0x3d173a95	0.036921103
97	0xbe56fe5c	-0.20995468
98	0xbe04b8a2	-0.12961057
99	0xbdbf5d92	-0.09344019
100	0xbd81067b	-0.06300064
101	0xbd43aafb	-0.04777048
102	0xbe52f1d4	-0.20600063
103	0xbe6e6840	-0.23281956
104	0xbe19dea3	-0.15026335
105	0xbe22e589	-0.15907873
106	0xbe2d7a45	-0.16941173
107	0xbd880ece	-0.06643449
108	0x3d48bac2	0.04900623
109	0xbddad9fd	-0.10686109
110	0xbd84df2c	-0.06487879
111	0xbda42966	-0.080157086
112	0xbe1bad6b	-0.15202872
113	0xbd2cb7ff	-0.04216766
114	0xbc6f1757	-0.014592967
115	0xbe0fa294	-0.14026862
116	0xbd103ace	-0.03521233
117	0x3d621efa	0.055205323
118	0xbda66a1b	-0.08125707
119	0xbd507347	-0.050891187
120	0xbda132c8	-0.07871014
121	0xbe242a05	-0.16031654
122	0xbe37f2f3	-0.17963772
123	0xbe09c20a	-0.13452926
124	0xbddef299	-0.108861156
125	0x3c86b060	0.016441524
126	0xbe4e9507	-0.20174037
127	0xbeafad95	-0.3431212
128	0xbe78a8ce	-0.24283144
129	0xbe8785ce	-0.26469272
130	0xbeb2da17	-0.34932014
131	0xbed6eaae	-0.4197592
132	0xbd4cc04d	-0.04998808
133	0xbe292bd6	-0.16520628
134	0xbd8f9489	-0.07010753
135	0xbde4cf24	-0.111723214
136	0x3a20e902	0.00061382365
137	0xbe3666db	-0.17812674
138	0xbdc29002	-0.095001236
139	0xbdb32600	-0.08747482
140	0xbe005d01	-0.12535478
141	0xbdfe7795	-0.12425152
142	0xbc7ce960	-0.0154365
143	0xbde612a0	-0.11234021
144	0xbdcfd819	-0.10148639
145	0xbe35d7bb	-0.17758076
146	0x3c606088	0.01369489
147	0xbe5470e8	-0.20746195
148	0xbdd09ee8	-0.10186559
149	0x3cbe1eac	0.023207985
150	0x3b1fe4b5	0.0024397795
151	0x3de424a0	0.11139798
152	0x3e3719a0	0.17880869
153	0x3df6140b	0.12015542
154	0xbdf4ead2	-0.11958851
155	0xbe9e2118	-0.30884624
156	0xbdf89a04	-0.12138751
157	0xbe90b199	-0.28260496
158	0xbf00a478	-0.5025096
159	0xbeccea38	-0.40022445
160	0xbebd4c1b	-0.36972126
161	0xbeacbac5	-0.33736244
162	0xbce9fc15	-0.028562585
163	0xbcefb3ce	-0.029260542
164	0xbccfb952	-0.025356922
165	0xbd1fe102	-0.039032944
166	0xbe3d2bd9	-0.18473758
167	0xbddaadcc	-0.106776804
168	0x3d26f4c7	0.04076078
169	0xbdb49d04	-0.08819011
170	0xbdade15d	-0.0849025
171	0xbdb72cf3	-0.0894412
172	0xbdd09c26	-0.10186033
173	0xbd89d338	-0.0672974
174	0xbe1258cb	-0.14291684
175	0xbb88bae0	-0.004172668
176	0xbe1de3b2	-0.1541889
177	0x3d36a669	0.044592295
178	0x3e678237	0.22608267
179	0x3e619797	0.22030483
180	0x3e8229ce	0.2542252
181	0x3e8a6f3b	0.27037987
182	0xbb9c260f	-0.004765279
183	0xbd2675c7	-0.040639665
184	0xbe07ed2e	-0.1327407
185	0xbe17efbd	-0.14837547
186	0xbe2448e8	-0.16043437
187	0xbe331739	-0.17489327
188	0xbe985e1f	-0.2975931
189	0xbe237217	-0.1596149
190	0xba984653	-0.0011617638
191	0xbdafbc5e	-0.0858085
192	0xbc963e01	-0.018340113
193	0xbe4c0e60	-0.19927359
194	0xbde094ac	-0.10965857
195	0xbe0da761	-0.13833381
196	0xbe001c73	-0.12510853
197	0xbbc7f010	-0.0061016157
198	0x3981b71f	0.00024741233
199	0xbe1341db	-0.1438059
200	0xbe1a4a88	-0.15067494
201	0xbdd45140	-0.1036706
202	0xbd618a2c	-0.05506341
203	0xbd01ba7b	-0.031671982
204	0x3d379eb7	0.044829097
205	0x3e58cd51	0.21172072
206	0x3e83172f	0.25603625
207	0x3e9746f8	0.29546332
208	0x3ece90b8	0.40344787
209	0x3e50f412	0.20405605
210	0x3ddd6d95	0.10811917
211	0xbc4ef7cc	-0.012632322
212	0xbd9d7bf9	-0.076896615
213	0x3da41b96	0.08013074
214	0x3db7ad07	0.08968549
215	0xbd5c985d	-0.053856242
216	0xbd46b5fa	-0.04851339
217	0xbd1e2d81	-0.038617615
218	0xbc4f5dc5	-0.012656634
219	0x3d7a54a4	0.061115876
220	0xbe12a0c3	-0.14319138
221	0xbb4caf12	-0.003123228
222	0xbe109884	-0.1412068
223	0xbe1652df	-0.1468005
224	0xbdd31422	-0.103065744
225	0x3ce90ff3	0.028449988
226	0xbdde9d52	-0.1086985
227	0xbe01410f	-0.12622474
228	0xbc4666b3	-0.012109446
229	0xbdce2fa0	-0.100676775
230	0xbd9c7e33	-0.07641258
231	0xbc42ffe8	-0.011901833
232	0x3e4ad6c8	0.19808495
233	0x3e745824	0.23861748
234	0x3e99fdd6	0.30076474
235	0x3e446454	0.19178897
236	0x3e772a8f	0.24137329
237	0x3df196c2	0.11796333
238	0x3b809280	0.003923714
239	0xbc3d2c12	-0.011546152
240	0xbceeb25f	-0.029137788
241	0x3e00bbee	0.1257169
242	0x3e409ee3	0.1881061
243	0x3cd0e06d	0.02549764
244	0x3d3089a5	0.043100018
245	0x3d27dcc9	0.04098204
246	0xbe0e04d2	-0.13869026
247	0x3c63411d	0.013870505
248	0xbe1495ef	-0.1451032
249	0xbdbeca61	-0.093159445
250	0xbe2724f3	-0.16322689
251	0x3d03b656	0.03215631
252	0x3c3288ab	0.010896842
253	0xbe2c8484	-0.16847426
254	0xbdd98eeb	-0.106229626
255	0xbd46c9cc	-0.048532292
