20220518290.pt (torch, 424079 bytes, 8 tensors)

encoder.0.weight f4 [64, 784]
000000 61 df 6d bc ac d2 f0 3c 90 ec 9a 3c be dd 97 3c
       -0.01451859 0.029397331 0.01891163 0.018538352
000010 56 e0 81 3a 78 d7 73 be 29 74 04 c0 6d ae a2 bf
       0.0009908776 -0.23812664 -2.0695899 -1.270948
000020 81 dc b0 bf 85 49 12 c0 4f a6 17 c0 5b 16 a5 bf
       -1.3817292 -2.2857373 -2.3695257 -1.2897447
000030 e1 dc 33 c0 f1 fa f2 bf 89 f3 da bf d3 68 4b bf
       -2.8103564 -1.8982831 -1.7105571 -0.79456824
000040 ca 40 08 3d 28 9c 7e bf 32 33 0f c0 a0 20 c3 bf
       0.033264913 -0.99457026 -2.2374997 -1.5244331
000050 61 b7 e9 bf d3 ee 4e c0 2c 2f ef bf 65 0f d2 bf
       -1.8259088 -3.2333267 -1.8686271 -1.6410948
000060 23 0f c1 bc 4a 5d e0 bb 01 e4 f7 ba ac b7 c1 bc
       -0.023566788 -0.0068470584 -0.0018912555 -0.023647152
000070 e3 6c 8a bc 4a 3c f5 ba bb 5e 81 3f 38 06 07 bb
       -0.016897624 -0.0018709984 1.0107034 -0.0020603072
000080 ab d0 ea bf 24 ca a9 bf 90 22 04 bf 59 bb 56 c0
       -1.834493 -1.3264813 -0.5161524 -3.3551848
000090 ba f0 1c c0 eb f6 6e bf 06 9e 31 c0 27 4c d2 bf
       -2.4521928 -0.93345517 -2.77527 -1.642949
0000a0 5d c1 e7 bf cd 69 14 c0 e6 72 44 bf 58 6f 89 3e
       -1.8105885 -2.3189576 -0.7673782 0.2684276
0000b0 f7 1c c2 bf 62 9d be bf 3f 8f b6 bf 7d 55 9c bf
       -1.5165089 -1.489178 -1.4262465 -1.2213589
0000c0 01 fa 7f bf 40 10 02 c0 ab 7a 69 c0 b6 97 89 c0
       -0.9999085 -2.0322418 -3.648112 -4.2997694
0000d0 7c cc 09 bf 4a 5a f5 3f 25 45 ca ba 43 f6 e1 bc
       -0.53827643 1.9168179 -0.0015431984 -0.027583247
0000e0 25 af 83 3c 25 1b 6d 3c 53 58 40 be 8d a9 b4 bf
       0.016074726 0.014471804 -0.18783693 -1.4114243
0000f0 b8 a7 26 40 e8 2e 9a c0 d6 42 c7 3b ff dc 04 bf
       2.6039867 -4.818226 0.0060809655 -0.51899713
000100 5d 73 9d bf dd 8e 6f bf 7c 84 1e bf b8 69 50 3f
       -1.2300831 -0.9357737 -0.61920905 0.81411314
000110 a4 a9 2a be 76 ca 16 bf e0 61 23 bf f2 e7 ce 3e
       -0.16666275 -0.5890268 -0.6382122 0.40411335
000120 c4 a2 6f be a1 f1 5f bf ba f6 71 bf 99 b8 ea bd
       -0.23401934 -0.8747807 -0.945171 -0.114609905
000130 54 0a 8d bf 8c 52 fa be 22 c3 4c bf c6 a0 97 be
       -1.1018777 -0.48891103 -0.7998525 -0.29614848
000140 39 9e d5 bf cb f2 db 3e 87 7c 15 be c0 e6 8b bc
       -1.6688911 0.42958674 -0.14598285 -0.017077804
000150 d8 21 01 3d 56 a4 75 bf d4 09 1d bf d8 c6 bc be
       0.031526417 -0.9595388 -0.6134312 -0.36870456
000160 32 3c 92 bf 42 72 a9 bf 62 00 57 be b2 c7 5f 3f
       -1.142462 -1.3237994 -0.2099624 0.87414086
000170 b2 f9 32 bf 9d ee f0 3e d0 85 14 bf 28 33 88 3e
       -0.69912255 0.47057047 -0.5801668 0.2660153
000180 b6 19 b1 3d c0 d8 97 bd c0 e4 24 3c a9 3d ac bd
       0.08647482 -0.07414389 0.010064304 -0.08410198
000190 2d de a5 3e a3 ae 7d b9 e2 dc 65 be dd 75 b2 bd
       0.3239607 -0.00024193017 -0.22447541 -0.08713887
0001a0 0f 42 ee 3d 93 27 0f bf 12 e4 63 be cf fd 05 be
       0.116336934 -0.5591976 -0.2225497 -0.13085102
0001b0 91 12 ed 3e 7b 17 0b 3f 20 4b c2 bf d1 af 3c 3f
       0.46303228 0.54332703 -1.5179176 0.73705775
0001c0 ee a9 86 bb 28 01 cc 3f 77 22 9b bf 6b 0c 5f 3f
       -0.0041096127 1.5937853 -1.2119893 0.87128323
0001d0 f0 bf 13 bf f5 32 bd 3f e9 4e 13 bf 96 2a 17 3d
       -0.5771475 1.4781176 -0.5754228 0.036905847
0001e0 8f a1 c3 bd 6e 9f b2 3d 7c f7 f4 bd a4 79 87 3e
       -0.09552299 0.08721815 -0.119612664 0.26459992
0001f0 c1 52 3e bd 43 c2 f4 3c af 24 9b 3e 0a 9e cb bd
       -0.04646564 0.029877787 0.30301425 -0.09942253
000200 d7 11 2c 3e b3 37 cb bd 9f 76 0f bd 92 48 c0 3d
       0.1680368 -0.09922733 -0.035025235 0.09388842
000210 40 0f cc bd 10 4e df 3d 59 6e 3e 3e e6 19 1d 3b
       -0.09963846 0.10903561 0.18596782 0.0023971735
000220 3a 15 84 3f ef 1a 99 bf 86 b2 1e 3f 27 73 22 bf
       1.0318978 -1.1961344 0.61991155 -0.6345696
000230 ea 6f 60 bc b4 12 f8 be 4c 9d 78 bf 2f 29 33 3f
       -0.013698557 -0.4845177 -0.97115016 0.69984716
000240 9c 37 c1 be 4c 19 c3 be 82 af 15 3e 1d 2a 84 be
       -0.3773774 -0.38105237 0.14617732 -0.2581338
000250 c7 c6 e8 3d 32 08 17 be 16 71 72 bd c1 bb d4 bc
       0.11366039 -0.1474922 -0.05918988 -0.025968434
000260 e3 6a 81 3d 41 27 4d 3d 2e 98 33 bd 6d d1 ca bd
       0.06319215 0.050086264 -0.0438463 -0.09903226
000270 52 07 42 3d e6 3a b0 3d ae fa 6e 3d 86 17 dd 3d
       0.047370262 0.08604984 0.058344536 0.10795502
000280 d3 5d a6 bd bb 17 33 be a1 9f ce bd 19 30 14 be
       -0.08123364 -0.17489521 -0.100890405 -0.14471473
000290 28 bb 17 3f 96 4f 34 be 7d 5b b4 bf 13 ec 41 be
       0.5926995 -0.17608485 -1.409042 -0.18937711
0002a0 38 96 82 be 97 f8 2c be c8 fe 86 3f d9 e9 05 bd
       -0.25505233 -0.16891704 1.0546503 -0.032693718
0002b0 a6 4c 9c 3e b6 e9 55 bd c6 da 83 3d 21 6d b2 3d
       0.30527228 -0.052224837 0.06438212 0.08712221
0002c0 45 cb 09 3d 36 a7 16 bb c8 84 b8 bd 73 aa 6b 3b
       0.03364112 -0.002298785 -0.09009701 0.003595975
0002d0 33 d1 ef bd fc 25 8e 3d 06 33 b0 bd ba 35 d9 3d
       -0.117098235 0.06940839 -0.08603482 0.10605951
0002e0 6f c6 b0 3d ee 64 bf 3c 59 54 07 3e b6 4b 69 3e
       0.08631598 0.023363557 0.1321577 0.22782788
0002f0 9c a8 e1 bd 8c e3 3e 3d ff f3 09 be 24 2d 3a 3e
       -0.11018488 0.046603724 -0.13471983 0.18181282
000300 d3 95 1e bf 35 b5 44 3f 74 c3 c0 bf e4 4f 2b 40
       -0.61947364 0.76839 -1.5059648 2.6767511
000310 05 41 12 3f e6 71 07 40 54 73 88 3d 02 d6 40 3f
       0.5713046 2.1163268 0.06662622 0.7532655
000320 10 a9 99 bd 3a f0 a7 be d5 87 d6 bd bc b6 9d 3d
       -0.07502949 -0.32800466 -0.10475127 0.077008694
000330 e9 76 2e be 9b 13 27 bd 3e 25 8f 3d 22 d5 00 3d
       -0.17037548 -0.04079018 0.06989525 0.03145326
000340 71 11 5d be 2b 86 30 bc 96 80 11 3d c0 48 bd 3d
       -0.21588685 -0.010774176 0.03552302 0.092423916
000350 a0 33 cd bd 87 a1 2a 3e cd f0 36 3d 44 2f a6 bd
       -0.10019612 0.1666318 0.04466324 -0.08114484
000360 38 01 73 bd 58 56 3d bd 32 3f 81 be 28 db c3 bd
       -0.059327334 -0.046224922 -0.25243527 -0.09563285
000370 32 f2 d9 3e bc c9 1c bf 5d c5 2b bf ed 05 9a 3f
       0.42567593 -0.6124532 -0.6709803 1.2033058
000380 11 19 f9 3e e9 d4 13 3f 16 f2 73 bf a5 f2 cf 3e
       0.48651937 0.5774675 -0.9529127 0.4061481
000390 72 5b 5a be 3f a1 b1 3e f3 7a 01 bd 8b 1d d8 bd
       -0.21323946 0.34693334 -0.031611394 -0.1055251
0003a0 f2 2f 8d bc 74 ca 90 bd b5 2b 81 bc 9e a5 1d 3e
       -0.017234776 -0.07069865 -0.015767911 0.15395209
0003b0 f4 cc c6 3c fe 73 20 3d 3f 37 67 3c 98 f9 17 3d
       0.024267651 0.03917312 0.014112293 0.037103266
0003c0 26 f8 fd 3d c7 9c ae 3d 65 5a 93 3d 9a 3e 9f 3c
       0.12400846 0.08525997 0.07194976 0.01943903
0003d0 09 74 1c 3e 3e 96 12 be c3 39 16 3e ad 1d a0 be
       0.15278639 -0.14315125 0.14670472 -0.3127264
0003e0 04 ea 0d bd 8f 1c 0f be da c1 ec bf 2f 9e 64 40
       -0.034647003 -0.13975738 -1.8496659 3.5721548
0003f0 0c 88 3f 3f 12 ff cc be 00 5f 02 3f b7 06 39 be
       0.74816966 -0.40038353 0.5092621 -0.18068968

encoder.0.bias f4 [64]
000000 51 8e 2f 40 ad 39 18 3f 33 e3 b1 bf 00 3b 0f 40
       2.7430613 0.59463006 -1.3897461 2.237976
000010 5e 59 08 40 55 a7 73 c0 bf d2 02 40 00 ae 1a 40
       2.1304545 -3.8070881 2.044113 2.41687
000020 6f f4 ef 3f 33 57 e5 3f 1c 6e 29 40 e1 48 15 40
       1.874647 1.7917236 2.6473455 2.3325732
000030 d4 aa b3 3f d3 d3 45 40 f5 88 26 40 c2 bf 25 40
       1.4036508 3.0910537 2.6021092 2.589829
000040 95 e8 57 40 fd e4 0c 40 9f 24 01 40 ce 32 98 be
       3.3735707 2.2014763 2.0178602 -0.2972626
000050 a0 58 7a 40 35 5e 41 40 ac a0 77 3e 5a 3a 73 3f
       3.9116592 3.021375 0.24182385 0.9501091
000060 c9 11 0c 40 f8 83 1b 40 e0 5c bd 3f e8 4f 2d 40
       2.1885855 2.4299297 1.4793968 2.708002
000070 a4 02 24 3d de 9a 94 3f da 35 a8 3f 4a 04 c6 3f
       0.04004158 1.1609762 1.3141434 1.5470059
000080 4c 07 e3 3d c7 8e e5 3f 04 7e 51 40 a2 15 08 40
       0.11085376 1.7934197 3.2733164 2.1263204
000090 a9 b1 26 40 34 1b 30 40 67 23 19 40 5d d1 7f 3f
       2.6045935 2.7516603 2.3927858 0.9992884
0000a0 a8 40 7e 3e 8a c7 ec 3e 9a 2a 19 40 d3 14 db 3f
       0.24829352 0.46245986 2.3932252 1.711573
0000b0 79 0b 3b 40 14 ae 1c 40 c6 0a ce 3f 54 ba 05 40
       2.9225752 2.448125 1.6097038 2.0894976
0000c0 e9 26 86 be 97 d2 1d 3e 89 ee d3 bf c8 98 53 40
       -0.2620156 0.15412365 -1.655717 3.3062
0000d0 fb 05 0c 3f 46 b6 00 40 5a 9a f3 3f f9 67 32 40
       0.54696625 2.011125 1.9031479 2.787596
0000e0 f4 24 12 3f 91 55 15 bf 2a 84 75 3f fd 67 24 3f
       0.57087636 -0.5833369 0.9590479 0.64221174
0000f0 85 5b d2 3f 11 6e 62 40 1e 8e a9 3f 53 72 e3 3f
       1.643418 3.537968 1.3246496 1.7769264

encoder.2.weight f4 [32, 64]
000000 45 80 cc be 01 99 e3 bd e2 6b 9e be 31 b5 b4 be
       -0.39941612 -0.111131676 -0.30941683 -0.35294488
000010 19 c1 36 be 1b 2e b7 3c 04 c5 a2 bd 63 60 a3 3c
       -0.17847098 0.022360852 -0.07947734 0.019943422
000020 81 95 bc 3a b0 f7 2d be e2 43 45 bd e4 1c ae be
       0.0014387817 -0.16989017 -0.04816044 -0.34006417
000030 da 8f 13 bd 62 9b 0e be 2f 4e 9e be 97 1b 22 3c
       -0.03602586 -0.13926461 -0.30919024 0.009894273
000040 66 6f 84 3d 97 c3 4f 3d a7 84 bb bd 8f 64 3e be
       0.0646656 0.05072364 -0.09156161 -0.18593048
000050 f7 a4 1b be 6a 24 20 be e2 b1 d8 bc 4f 5f a3 bd
       -0.15199648 -0.15638891 -0.026452009 -0.07977163
000060 f8 3c 08 3d dc 8e e5 be 5c 08 dd be 0f 56 ba be
       0.03326127 -0.44835556 -0.4317044 -0.36393782
000070 13 50 d5 be 93 b7 c8 bd c3 26 58 bd 86 b0 ce be
       -0.41662654 -0.09800639 -0.05277134 -0.40369052
000080 d7 5e 86 be 3d 66 32 be 3e 20 1f be 91 b0 d6 be
       -0.26244232 -0.17421813 -0.15539643 -0.41931584
000090 9f 3f 5f bd 48 74 14 be 87 c6 27 be 75 c2 df be
       -0.054504033 -0.14497483 -0.16384326 -0.43703046
0000a0 09 17 47 be 0e 28 94 be 55 a4 61 3d ad 91 4c be
       -0.19442381 -0.2893681 0.05508836 -0.19977446
0000b0 1d 8a 0d bc 88 bf 8c bd df 5b f3 be 6d a7 d8 bd
       -0.008638886 -0.06872469 -0.4753103 -0.10578809
0000c0 d4 21 e2 be 18 c9 8a be 56 ec 93 be a1 c8 3c bd
       -0.44166434 -0.27106547 -0.28891248 -0.046089772
0000d0 f2 bb 1f be 89 21 cc be 3d 4d 90 be 54 bd 10 be
       -0.15599039 -0.39869335 -0.28183928 -0.14134723
0000e0 9f ca 80 be a6 2b db be 2d fd b1 3c 5d 75 b5 bc
       -0.25154588 -0.4280674 0.021727169 -0.02215069
0000f0 3b 57 c0 be c6 3d ac 3c 25 64 3e bd cf 0e 38 be
       -0.37566552 0.02102555 -0.046482224 -0.17974399
000100 23 82 51 3d 1b 71 4e bb 51 c5 c0 be 9e 6d 4c bd
       0.0511495 -0.0031500522 -0.3765054 -0.049909227
000110 e7 9c f6 3c 01 16 0a bc 22 52 86 be 98 46 e1 bc
       0.030104114 -0.008428098 -0.26234537 -0.027499482
000120 90 d9 1f 3d cc aa bf bd 3a a4 54 3d 9f 1d c9 bd
       0.039025843 -0.09358749 0.05191443 -0.09820103
000130 8e 6d b6 bc 82 7c 32 be 70 d8 05 be 26 87 e0 3b
       -0.022269037 -0.17430308 -0.13070846 0.0068520484
000140 b3 e7 30 bd 65 71 37 bd e4 c6 96 bd c2 fb bf be
       -0.043189716 -0.044785876 -0.07362154 -0.37496763
000150 9b 84 be bd 20 9c 1f be ee 5a 7d 3d 20 d8 58 bc
       -0.09302636 -0.155869 0.061854295 -0.013235122
000160 e4 63 27 be 1f 64 e1 bd c0 f6 09 be d6 f5 be bd
       -0.16346699 -0.11005425 -0.13473034 -0.09324233
000170 2f 11 83 be 19 f3 bb bd cc 34 23 be fb 13 2d be
       -0.25599048 -0.091772266 -0.15938109 -0.16902153
000180 3e 88 9d be 9f a8 b5 bd f4 46 36 bc 10 d3 ae bd
       -0.30768007 -0.088700525 -0.011125315 -0.08536351
000190 fa 69 fe bd ee 8f 25 be 7d 6b 2e be 6b 32 8e be
       -0.12422557 -0.16168186 -0.17033191 -0.2777284
0001a0 65 19 c3 be ed 02 96 be 5f 35 05 3d 75 49 3c bd
       -0.38105312 -0.29299107 0.0325216 -0.04596849
0001b0 d3 a6 9a bd a0 78 2a be f8 59 8e be 5d 1c 3a be
       -0.075513504 -0.16647577 -0.27803016 -0.18174882
0001c0 e7 1a 8d be 9c 11 29 be a9 1a 97 bd 6e 73 63 bd
       -0.27559587 -0.16510624 -0.07378132 -0.055530004
0001d0 7f 27 2a be a2 d5 8a bc 10 36 39 be 5e 98 04 be
       -0.16616629 -0.016947571 -0.1808703 -0.12948748
0001e0 f0 19 c5 be b8 e0 93 be 7e 1e f7 3b 22 0c 01 be
       -0.3849635 -0.28882384 0.0075414767 -0.12602285
0001f0 ab 84 2f be 78 d0 cc bd 59 29 0f be 6a bc ad 3c
       -0.17140453 -0.100007 -0.13980617 0.021208007
000200 a3 0b 43 3f 6b dc 34 3c b2 cc 5e 3c 3e aa a5 bc
       0.7618963 0.01103888 0.013598608 -0.02022278
000210 d6 3a 23 bf 00 12 d1 3b 99 c1 8a 3e 13 d0 23 3f
       -0.6376165 0.0063803196 0.27100828 0.6398937
000220 8a b6 82 3c 41 15 b9 3d c7 a2 85 bf 79 c2 d8 bc
       0.015956182 0.09037257 -1.0440301 -0.02645992
000230 d7 21 27 c0 83 e7 a5 bc 96 79 8e bc 76 c7 04 3e
       -2.6114404 -0.020251995 -0.017391961 0.12966713
000240 3c a6 28 3e 25 1b 0d 3e 44 36 73 3c 8d 55 24 3c
       0.16469663 0.13779886 0.014844481 0.0100301625
000250 57 e7 ab bf d3 f6 06 3c c7 46 f4 3c 2b 51 25 3d
       -1.3429974 0.008237558 0.029818906 0.04036061
000260 9d fe 68 be 30 46 5e bc e8 04 e5 3a 98 ed 84 bc
       -0.22753377 -0.013566539 0.0017472776 -0.016226575
000270 f8 e5 b0 3d fd 5f a9 bf c6 5f 50 3e 04 ee 0e 3c
       0.08637613 -1.3232418 0.20349035 0.00872374
000280 70 cd 4e 3c ac c3 15 bc 11 b7 00 c0 63 68 fe 3d
       0.012622222 -0.00914089 -2.0111735 0.12422254
000290 a3 4c b0 bf 86 63 c5 bd 86 2f 9c be c7 d4 87 bb
       -1.3773388 -0.09638123 -0.30505008 -0.004145238
0002a0 39 51 8a bc 77 da 03 be f2 65 62 bd bd c1 a2 bd
       -0.016884433 -0.12876306 -0.055273004 -0.07947109
0002b0 e2 94 20 3e d2 53 0a bd cf 2e 8e 3e bd 7e 4f 3d
       0.15681794 -0.033771344 0.27770087 0.050657976
0002c0 6b 31 0b bd 90 47 df bb c2 ba 90 bc b9 05 e2 3e
       -0.033982676 -0.006813951 -0.017667178 0.4414499
0002d0 f3 9f 5a 3e b4 a3 8d bc db cf c2 3c 6a d1 5f bc
       0.21350078 -0.017289974 0.023780754 -0.013660768
0002e0 e1 54 4f 3c 15 7c e0 3b f7 7c 55 3d df 18 1c 3d
       0.012654514 0.006850729 0.05212113 0.038109656
0002f0 fd 33 97 3c 4e cc aa 3d f8 54 24 3d ff 4e 82 3d
       0.018457407 0.08339749 0.040120095 0.063627236
000300 e6 15 53 3d 1e 58 38 3b 27 19 e7 3c 2b 6b 4a bd
       0.051534556 0.0028128694 0.028210236 -0.04941861
000310 32 44 5a be c1 0b fe bd 5c e7 5a 3e 3a 4b 22 3f
       -0.21315077 -0.12404586 0.21377319 0.63396037
000320 20 fc 89 bc 6c 2c 18 3d 6a 3d b4 be f8 94 0a 3e
       -0.016843855 0.03715174 -0.35203105 0.1353339
000330 05 52 52 c0 86 bd a6 3c ff 17 5c bd e8 42 a0 bd
       -3.286256 0.020354044 -0.053733822 -0.07825261
000340 81 9e ef bc 4e c4 0f 3f 69 ac 2e bc 2c 9c ee bd
       -0.029250385 0.5615891 -0.010661223 -0.11650881
000350 54 c4 63 be 7e 43 95 be 32 78 aa 3b d6 c8 82 bd
       -0.22242862 -0.29153055 0.0052023167 -0.06385963
000360 c7 db 15 be 86 01 f6 3c b2 c4 22 3d 05 a2 a4 3d
       -0.1463462 0.030030023 0.039738365 0.08038715
000370 a0 d5 48 3b 6e b9 41 c0 5c a2 a6 3e a0 d7 9b bc
       0.0030644909 -3.0269427 0.32545745 -0.019023716
000380 45 06 57 bd 8b 20 3d 3e ee 6b 44 c0 a4 34 36 bd
       -0.052496213 0.18469445 -3.0690875 -0.044483796
000390 98 4b 81 bf 14 37 11 3f 04 bd ea bd a6 4c 91 3c
       -1.0101194 0.5672467 -0.11461833 0.017736744
0003a0 ce 80 e6 3b 2a 5c b5 bc 69 de 2a be 67 4a a3 bc
       0.0070343977 -0.022138674 -0.16686405 -0.019932939
0003b0 56 dc 0f be 59 9b 81 3e db 24 f9 3c ac 15 21 be
       -0.14048895 0.25313833 0.030413082 -0.15730923
0003c0 c4 a1 ff 3c d7 44 32 3d 92 cd 24 bd cb 02 13 bf
       0.031205066 0.043522682 -0.04023511 -0.57426137
0003d0 1b 5b 7f 3e fc f7 6a 3c 29 2f a6 ba 0c d3 3f be
       0.24937098 0.014341351 -0.001267885 -0.18732852
0003e0 38 79 a8 bc e7 a5 96 3c 2a 30 d4 3d 04 61 e0 3c
       -0.020565614 0.018389655 0.10360749 0.02739001
0003f0 09 fd 30 bd 3b 9e 38 3e 68 ab 0b 3e 34 fb 27 bd
       -0.043210063 0.1802911 0.13639605 -0.04101105

encoder.2.bias f4 [32]
000000 6f 95 a5 be 59 b6 7e be 24 28 58 3f 42 a6 86 3f
       -0.3234057 -0.24874248 0.8443625 1.0519488
000010 05 5d 8c 3f 6b 12 cc 3c 57 e7 8a bd d5 e7 1a bf
       1.0965887 0.024911126 -0.06782406 -0.6051
000020 ed 69 d2 be 0e d3 d5 be 82 da 84 3f 7b 2e f2 3e
       -0.4109644 -0.41762584 1.0379183 0.47301087
000030 5f d6 85 bd 8e eb 1d be d2 90 64 3f fb 4a d9 3b
       -0.06535029 -0.15421888 0.8928348 0.006631253
000040 df 56 21 be 10 b1 3a 3d 5b f4 57 3f d1 57 d0 3e
       -0.15755795 0.045579016 0.8435723 0.40692
000050 96 1b 0c be 73 62 cc bd ee 8c 23 3f 42 ae 6b bd
       -0.13682398 -0.09979715 0.63886917 -0.057539232
000060 2e f9 8d 3f 56 b7 6a be 5e c4 83 3f 6e 21 0e 3f
       1.1091669 -0.229215 1.0294302 0.5551976
000070 36 4f 25 3d b1 10 3e 3e ad 46 60 3f 8f c2 67 3f
       0.040358745 0.18561055 0.8760784 0.9053125

decoder.0.weight f4 [64, 32]
000000 f1 b3 81 be 7c 2c 92 be f8 f8 b7 be e6 e9 8a be
       -0.25332597 -0.28549564 -0.35932136 -0.27131575
000010 fa f1 b7 be 6f c3 93 be d6 c1 f4 bd 95 d0 dd bd
       -0.359268 -0.28860041 -0.11951034 -0.108307995
000020 4b bf d2 3e 1a b1 16 bd 4d d5 e4 bd f7 fb e8 be
       0.4116157 -0.03678999 -0.111734964 -0.45504734
000030 82 f3 94 be 02 c9 92 3d fd 30 dc be e7 02 e8 be
       -0.29092032 0.071672454 -0.43006125 -0.45314714
000040 53 fa 98 bd f5 96 b4 be c7 56 5a be ee bf a2 be
       -0.074696206 -0.3527142 -0.21322165 -0.31787056
000050 f2 aa 51 be 1e af bf be 3e 6a ad be d7 bb d9 be
       -0.20475367 -0.3743829 -0.3387012 -0.42526123
000060 77 cb 9a 3e f8 a8 d0 3e f3 20 db 3e bd 37 b8 be
       0.30233356 0.40753913 0.42798576 -0.35980025
000070 ae ff 6b 3e 62 58 ce be 3e b2 5b be 2f 3e 23 3e
       0.23046753 -0.40301806 -0.21454713 0.1594169
000080 a4 aa 9d be 62 68 82 be 41 c8 50 bc a9 64 95 3e
       -0.3079425 -0.25470263 -0.012743057 0.2917836
000090 77 9f 8d 3d 1c 70 09 bd c2 0a 84 be a3 11 24 bd
       0.06915181 -0.03355418 -0.25789458 -0.040055882
0000a0 d0 52 9d 3e a9 d7 96 3d b9 c4 07 3c fc d7 b9 3d
       0.30727243 0.07365353 0.008286648 0.09074399
0000b0 0a 8f 84 3b 8b ec 0c bc 47 39 cb bd 24 21 e7 bd
       0.004045372 -0.008601318 -0.09923034 -0.11285618
0000c0 1d 66 13 3d fb 80 1d bd 81 50 8d bc d2 5b dc 3e
       0.035986055 -0.038453083 -0.017250301 0.43038803
0000d0 53 bd 88 be 3e 7a 2d be 95 51 45 3b 47 82 53 be
       -0.26706943 -0.16941163 0.003010844 -0.20655166
0000e0 4c fd 87 3d d9 75 94 3d d6 28 1d 3d 68 12 89 bd
       0.066401094 0.0724904 0.038369022 -0.06692964
0000f0 0f 92 26 3e 5d 44 15 3e bc 1c 39 3e b6 ab ca bc
       0.16266654 0.1457686 0.18077368 -0.024740081
000100 2e f7 fd 3d bf af 70 3b 50 c7 15 bc d3 41 51 bd
       0.124006614 0.0036725847 -0.009141758 -0.051088165
000110 a7 79 41 bc 43 a9 51 3e 37 9a e9 3d 91 ff 2b 3e
       -0.011808789 0.20474724 0.11406367 0.1679671
000120 91 17 24 be d3 66 04 bd 7c 95 4e bd ce db 4b bd
       -0.16024615 -0.032324623 -0.05043553 -0.04977017
000130 a1 83 ce 3d e2 3b 5a bc 55 91 e9 bd 7f 05 fd bd
       0.100837 -0.013319941 -0.11404673 -0.12354564
000140 06 c7 0c be eb e9 02 3e eb 09 61 bd 74 69 9e 3c
       -0.13747796 0.12784545 -0.0549411 0.019337393
000150 ec ad 82 bd 45 b4 39 3e 4b 16 81 bd da 6f 47 3e
       -0.06380829 0.18135174 -0.0630308 0.19476262
000160 55 bf 58 bb b4 59 92 3d c5 eb 0f 3f 21 92 82 be
       -0.0033073027 0.07146016 0.5621913 -0.25502113
000170 8b bd ef bd c0 34 ca bd 5f 7c 32 3c c0 c1 de 3c
       -0.11706074 -0.098733425 0.01089391 0.027191997
000180 6a c3 bf bd 67 3c 8b 3d 34 01 ba bb e7 d9 72 be
       -0.09363444 0.0679863 -0.005676413 -0.23715936
000190 43 68 ef bd fc fa 0a be 4b 7c 3b be 9b 4c f3 3d
       -0.11689808 -0.13572305 -0.18309133 0.11879846
0001a0 16 b7 2d 3e 24 60 e6 3d 15 ba 4d 3d 3d 68 e7 bd
       0.16964373 0.11248806 0.05022629 -0.11299179
0001b0 e4 29 22 be 36 c6 21 be 8c fe d6 bd 8d 9e 89 3d
       -0.15836293 -0.15798268 -0.1049777 0.06719694
0001c0 45 88 a9 3c d4 85 c0 bd 43 c1 22 be 6f a9 df 3c
       0.020694861 -0.09400526 -0.15894036 0.027302472
0001d0 e7 5d 51 bd e8 38 b3 bd df fd 3a 3e 5b ba 6a be
       -0.051114943 -0.087510884 0.18260907 -0.22922651
0001e0 f1 d3 56 3d f6 24 c8 bc 7b 70 37 3e 46 05 64 3d
       0.052448217 -0.024431687 0.17914002 0.05566909
0001f0 fd bd 2f 3e ac 5c 70 be f4 1c e4 bd 70 46 1d bd
       0.17162319 -0.23472852 -0.11138335 -0.038397253
000200 45 f1 d5 bd cb e4 88 be 7b 74 ed bd 35 4c 17 be
       -0.10446409 -0.26737055 -0.115944825 -0.14775164
000210 4b ea 48 be 73 eb a9 bd 21 fe 6f be ca 9a b7 3d
       -0.19620626 -0.082968615 -0.23436786 0.089650705
000220 db 7d d8 3c 91 ec 0f 3e 04 02 cb bc 7f 5d a2 bd
       0.0264272 0.14055087 -0.024781235 -0.07927989
000230 09 16 20 be 7a 38 64 be 10 d8 e9 3c 39 fb 5a be
       -0.15633406 -0.22287169 0.02854541 -0.21384896
000240 35 ef a3 3d 88 77 46 be 94 e4 4f be 16 41 0d be
       0.080046095 -0.19381535 -0.2030204 -0.1379436
000250 cc 46 8d 3d 36 73 31 be c3 01 ad bd f0 6b 5d bd
       0.06898269 -0.17329106 -0.08447602 -0.054058015
000260 e4 77 03 be 8f b8 7a bd e4 99 8d 3d 5c 68 60 3e
       -0.12838703 -0.061211165 0.06914118 0.2191481
000270 ad 18 6a 3e f1 70 4c be dc 1b d0 bd 13 21 84 bd
       0.22860976 -0.19964959 -0.10161564 -0.06451621
000280 ea bf a7 bd 9e 65 90 be f8 72 8e be 12 73 a5 be
       -0.081909016 -0.28202528 -0.2782209 -0.32314354
000290 c3 23 ba be 0e 56 ad be c9 8d c7 3b 42 58 24 be
       -0.3635541 -0.33854717 0.0060899 -0.16049293
0002a0 68 c7 87 3e b1 ff d8 3d f7 4d 79 be f0 1f 5e be
       0.26519322 0.10595644 -0.24346147 -0.2169187
0002b0 9e 5e 99 bc f2 d9 10 bc 1a e4 0f 3d d5 9c d6 be
       -0.018721875 -0.008841025 0.035129644 -0.41916528
0002c0 c6 8c 88 bc 15 43 9a be dc 5a 6f be f5 6e 97 be
       -0.016668689 -0.30129305 -0.23374504 -0.2957684
0002d0 f6 fd e0 be 71 30 95 be dc 01 78 be 8d b6 a5 bd
       -0.43943757 -0.2913852 -0.2421946 -0.080914594
0002e0 fc 59 46 be 21 35 8a 3e f8 e9 b5 be 07 7e a3 be
       -0.19370264 0.2699366 -0.35530066 -0.3193209
0002f0 af f0 78 3e d4 42 7c be 62 62 d8 be a9 38 03 3e
       0.24310564 -0.24634868 -0.4226256 0.12814583
000300 99 47 8a 3d d0 fe f4 bd d6 7b 19 be b7 8a 89 3c
       0.067519374 -0.11962664 -0.14988646 0.016789777
000310 de a1 8e bf e2 8c 25 be cf 48 be 3d a5 36 2d be
       -1.1143148 -0.16167024 0.09291231 -0.16915376
000320 9f 7f 53 3d d3 0d 05 3e d9 3a 55 be 4a c3 a5 bc
       0.05163538 0.12993555 -0.2082323 -0.020234723
000330 b6 87 38 be b3 58 a0 be e6 28 28 3e d6 9b ed 3d
       -0.1802052 -0.31317672 0.16421852 0.11601989
000340 c7 9f 20 be bb 62 cb 3d 87 7b bd 3c c8 2d a1 3c
       -0.1568595 0.09930941 0.023130191 0.01967515
000350 43 49 a6 bd 95 3d 6c bc 08 06 8e 3c d3 1c 27 3e
       -0.08119442 -0.014418979 0.01733686 0.1631959
000360 5f 0f 1b 3d a3 a6 b1 3d 01 08 a5 bd c7 b2 fc bc
       0.037856456 0.086743616 -0.08058167 -0.030846966
000370 25 ae 29 bd 05 48 11 be 51 7d 08 3f 2a 26 82 bd
       -0.041425843 -0.1418763 0.5331622 -0.063549355
000380 e6 59 97 be 9b aa ab be 3a 0d 1d 3d 64 9d 49 bd
       -0.29560775 -0.335286 0.038342692 -0.049222365
000390 31 52 28 bc ee ac ab bd 23 4a f8 bd b7 83 b9 be
       -0.010273502 -0.08382593 -0.121235155 -0.36233303
0003a0 7e f9 45 3e af 93 2f 3e 9d d1 49 3d 4c 68 5b bd
       0.19333455 0.1714618 0.04927217 -0.053566262
0003b0 61 05 88 be 38 d9 24 bd 2f b5 f6 bb b4 1d b7 be
       -0.26566604 -0.04024622 -0.007528923 -0.3576485
0003c0 c4 41 a0 3e a6 db 9c bd 3e e1 e0 3e 49 e3 40 3e
       0.31300175 -0.07659082 0.43921846 0.18836702
0003d0 4c 56 d4 bd 20 49 b1 be 09 f4 56 3d 99 d5 4d be
       -0.10368022 -0.34626102 0.052478824 -0.20101012
0003e0 9d 81 1a 3d b9 1f 50 3e 49 bb 88 3d 59 f5 a2 3b
       0.037721265 0.20324601 0.06676347 0.0049730954
0003f0 60 6f 6f 3d f3 a3 0a 3d bb 15 40 38 cc 94 93 3e
       0.058455825 0.03384776 4.5796605e-05 0.2882446

decoder.0.bias f4 [64]
000000 50 40 68 be e4 eb 42 be 68 bc d0 3d f2 4d ec bd
       -0.22680783 -0.19035298 0.10192186 -0.115383044
000010 68 74 87 3a 82 9b 60 be ff 30 ec 3d 28 76 fc bd
       0.0010334374 -0.21934322 0.11532783 -0.12327224
000020 f0 47 cb 3d e9 9f 13 be 38 73 18 3c 4f 0a 6e bd
       0.0992583 -0.1441647 0.009304814 -0.0581153
000030 e3 c8 1f 3d d9 6c fa bd 17 c5 88 bd 30 09 5d be
       0.03900994 -0.12227792 -0.06678217 -0.21585536
000040 83 4d 84 bc 98 68 99 bb db 96 4e be e7 1d 47 bd
       -0.016150242 -0.004681658 -0.20174734 -0.0486125
000050 6c 7a f2 3b 4b 65 e2 bc f8 1f 3a 3e cf c4 ce bd
       0.0073998477 -0.02763619 0.18176258 -0.10096132
000060 d1 20 ef be 6a ef 55 be c0 5b 3a be 06 0e bc be
       -0.46704724 -0.2089211 -0.18199062 -0.3672945
000070 e2 fc e1 be 0f 79 1e 3e 8e b9 85 bd 43 2b 80 be
       -0.44138247 0.15475868 -0.065295324 -0.25033006
000080 e5 02 e0 bd 84 3d 57 3d 04 c4 d0 bd 35 63 b1 3e
       -0.10938052 0.0525489 -0.10193637 0.34646
000090 cb 38 04 3e 63 c3 37 be 2d 94 16 bd a7 17 c8 bd
       0.1291229 -0.17945628 -0.036762405 -0.09770136
0000a0 ce 8b 5e be 20 81 2a be 9f 5e 61 3c 43 70 bc 3d
       -0.21733019 -0.1665082 0.01375547 0.092011
0000b0 17 14 44 3e 89 52 a3 bd 20 7e 68 3d 42 9f 82 3e
       0.19148289 -0.07974727 0.056760907 0.2551213
0000c0 5d 82 76 be 71 d9 f2 bd 74 23 e1 3d 4e dd 7a bd
       -0.24073167 -0.1185788 0.1099309 -0.06124621
0000d0 7b 65 42 be 14 ba 4e bd 5d 5e cc be 0c f9 5a 3c
       -0.18984024 -0.050470427 -0.39915743 0.013365041
0000e0 e4 d3 17 be 5e 95 48 3e 9e 7d 06 bd 1e 05 8b be
       -0.14826924 0.19588229 -0.03283464 -0.27152342
0000f0 9e da 95 3e 4a 03 f4 3d 05 62 e7 3d ee be 56 3a
       0.29268354 0.1191469 0.112979926 0.0008191903

decoder.2.weight f4 [784, 64]
000000 e0 bf f6 3d de d7 92 bd 08 0c e4 3c ac ff 7f bd
       0.12048316 -0.0717008 0.027837768 -0.062499687
000010 5a 60 9d bd 20 2a f9 bc 70 b1 40 3d b2 a4 8c bd
       -0.07684393 -0.030415595 0.047044218 -0.06867351
000020 28 b7 b8 3b 12 7f 80 bd 00 77 1e be 90 14 99 bd
       0.0056370683 -0.06274237 -0.15475082 -0.07474625
000030 f1 c1 da bb 1f 2e 85 3c 0f 2d 21 3d 2a cd d9 bd
       -0.0066759516 0.016257344 0.03934961 -0.10634835
000040 56 b5 b4 ba a6 e4 ed bd 94 4f 00 bd c7 52 df bd
       -0.0013786952 -0.11615877 -0.03132589 -0.109044604
000050 a8 c8 41 bd a0 23 0f be d7 b2 98 bd 3f 2d ce bd
       -0.0473105 -0.13978434 -0.07455986 -0.10067224
000060 10 84 60 3d 90 b3 1b bc 4a c1 1a be 36 43 92 3d
       0.054813445 -0.00950326 -0.15112796 0.07141726
000070 70 c8 02 3c dc da 9d bc 4e 44 ab bd a4 bf 9e bd
       0.007982358 -0.0192694 -0.083626375 -0.07751396
000080 00 09 17 3c 38 47 21 bd ca 2c d0 bd 87 51 09 be
       0.009218454 -0.03937456 -0.10164793 -0.13410006
000090 f3 f1 28 be 4c e8 31 bc 84 50 19 be c6 bf 0e be
       -0.16498546 -0.010858607 -0.1497212 -0.13940343
0000a0 46 8d d5 bd 33 8d fb bd 0a d9 98 bd 98 88 a2 3d
       -0.104273364 -0.12282791 -0.07463272 0.079362094
0000b0 d2 7c 30 bd b8 bf 21 be e0 4a 97 bb 98 99 d0 3c
       -0.043087788 -0.15795791 -0.00461708 0.025463864
0000c0 10 af b7 bc fd e2 c7 bd 22 22 40 be 6a 0d 59 bd
       -0.022422343 -0.097600915 -0.1876302 -0.05299131
0000d0 6c 5f 55 bd a4 bc 23 bd a8 12 aa 3c fc b5 de 3d
       -0.052092955 -0.039974824 0.02076085 0.108745545
0000e0 24 d0 19 bd 42 e2 93 bc 84 b8 0d 3d e6 d0 a6 bd
       -0.037552014 -0.018052224 0.034599796 -0.08145313
0000f0 6e 8d 9b 3d de 51 2a bd 00 f8 29 be 76 0d 9c bd
       0.07595335 -0.04158198 -0.1659851 -0.07619755
000100 d4 9a 8e 3d 16 13 62 3c c0 09 a9 bd 5c f3 a8 3d
       0.06963125 0.013798496 -0.08253813 0.08249542
000110 c8 fc fd bd a4 a3 73 bd 04 38 35 bd c2 09 ab bc
       -0.1240173 -0.05948223 -0.044242874 -0.020878676
000120 2f 1a 42 be 74 52 24 3c fc c4 9d bc c9 89 30 bd
       -0.18955301 0.010029424 -0.019258969 -0.043100152
000130 b6 19 44 bd 5f fd 4e be 42 01 df bc 00 3c 72 39
       -0.047876082 -0.20213841 -0.02722228 0.0002310127
000140 dc f5 44 be d0 f4 f6 3c 00 81 08 bd 82 7f 0e be
       -0.19234413 0.030146033 -0.03332615 -0.13915828
000150 4c 0b 7c bd 56 42 b9 bd a3 23 53 bd cf ef de bc
       -0.06153421 -0.09045856 -0.051547658 -0.027213959
000160 d6 35 8d bd 40 e4 20 bc 96 d7 41 3d de ae 93 bd
       -0.06895034 -0.009820044 0.04732474 -0.07211088
000170 44 eb 13 3d 90 0e b5 bc e7 81 d7 3c 80 32 a2 3d
       0.03611304 -0.02210167 0.02630706 0.07919788
000180 fe 6a 80 3c a4 88 71 bd 52 10 f6 bd 95 b3 87 bc
       0.015676018 -0.0589682 -0.120148316 -0.016565124
000190 eb 20 fe ba a0 06 05 bd 3b e4 a9 bd 09 a1 0d be
       -0.0019388472 -0.03247702 -0.08295485 -0.13830961
0001a0 78 f3 90 bd e2 26 28 3d a6 c6 83 bd 48 e1 0f 3d
       -0.07077688 0.041052707 -0.064343736 0.035126954
0001b0 94 63 1d bd 3c 2b 38 3c 4a d9 b0 3d 35 a2 15 bd
       -0.038425043 0.011240777 0.086351946 -0.036531646
0001c0 40 f2 37 bb 73 42 18 bd 30 5c 1b be e7 a6 2f bd
       -0.0028067976 -0.037172746 -0.15171885 -0.04288378
0001d0 e0 e6 eb 3b 00 8b 11 be 92 c4 b3 bc 97 48 31 be
       0.0071991533 -0.1421318 -0.021944318 -0.17312847
0001e0 71 be 2f be 12 db 50 bd d1 18 45 3b 89 3d 0f bd
       -0.17162491 -0.05099017 0.0030074606 -0.034970794
0001f0 e8 ce 47 3c bd bf 3d bd 01 45 66 bd 7e 8a 09 be
       0.012195326 -0.046325434 -0.05621815 -0.13431737
000200 e4 53 e2 3d 14 4e 74 be 9c ce d9 bd 14 23 e0 3d
       0.11051157 -0.2385791 -0.10635111 0.109441906
000210 10 e5 77 bd 84 c2 06 bd 8c 54 ac 3d 61 a4 32 3c
       -0.060521185 -0.03290035 0.084145635 0.010903449
000220 bd 91 2a be cd eb b7 bd 08 85 88 3d e8 04 ab bc
       -0.16657157 -0.08980522 0.06665999 -0.020876363
000230 26 14 33 bd ca 46 a0 bd 34 15 86 bc f8 6f 8e 3c
       -0.043720387 -0.07826002 -0.016367532 0.017387375
000240 d3 fc 06 3d 98 78 23 3d 60 20 85 3b f2 1a 5d bd
       0.032955956 0.03990993 0.0040626973 -0.053980775
000250 cc 0e ad bd 2a c3 2f be a8 f9 82 bd a0 48 32 bc
       -0.08450088 -0.17164293 -0.063952744 -0.010881573
000260 88 ea 84 3d 58 16 cb bc 9a 65 83 bd a0 b5 38 bc
       0.06490046 -0.024790928 -0.06415863 -0.0112737715
000270 ba c0 94 bd e8 11 75 bc 9c af 0b be 38 4d 84 bd
       -0.07263322 -0.014957882 -0.13641208 -0.06460041
000280 3c a5 a8 3d c8 a3 56 3d 14 7c 33 bd e8 24 16 be
       0.08234641 0.052402288 -0.043819502 -0.14662516
000290 81 27 01 be 58 5a 96 bc 68 46 42 be 0e 35 9c 3d
       -0.12612726 -0.018353626 -0.1897217 0.07627307
0002a0 e0 98 6f 3d 91 94 df bd 00 71 f3 3c 7e b1 c9 bd
       0.058495402 -0.10917009 0.029716969 -0.09848307
0002b0 fc a2 e4 bc ce 7a 0c 3d 34 8b b7 3d 00 07 96 ba
       -0.027909748 0.034296803 0.08962098 -0.0011446178
0002c0 e9 3c 19 3d e4 7d 98 3d fe ad 0c be 61 d6 de bd
       0.037411604 0.07445887 -0.13738248 -0.10880733
0002d0 10 87 4d bd 34 ba af 3d 30 8f 97 3c 28 85 d6 bc
       -0.050177634 0.08580437 0.018500894 -0.02618654
0002e0 e0 53 7f 3d 11 84 1a be ee c6 bc bd 8a 65 e6 3d
       0.06233585 -0.15089442 -0.0921763 0.11249836
0002f0 15 c2 86 bd 86 0a 0a be c2 13 35 be cc 78 98 bd
       -0.06579987 -0.13480577 -0.17683318 -0.07444915
000300 b8 91 f4 bc 80 65 19 bb 0f 0f fc bb 08 97 ef 3d
       -0.02985464 -0.0023406446 -0.007692225 0.11698729
000310 1c ba f9 bd 1a 65 bf 3d 94 ac 56 3d 3d 5c ed bd
       -0.12193701 0.093454555 0.052410677 -0.11589859
000320 11 71 32 be 70 0d 44 be 70 c7 46 bd fe 3d 5d bb
       -0.17425944 -0.19145751 -0.048530042 -0.0033758874
000330 c5 ac 0c be a0 b7 cb 3b 63 c3 17 3d 3a 96 a8 bd
       -0.13737781 0.006216958 0.03705157 -0.082317784
000340 57 0b d7 bd 02 b5 cf bd 94 eb 40 be 8a 98 d9 bc
       -0.1050021 -0.101419464 -0.18839866 -0.026561994
000350 fc 0e 7f 3d d9 25 3b 3d f8 a2 48 bd 64 d5 0b 3d
       0.06227015 0.04569039 -0.048983544 0.034139052
000360 40 b9 27 bc 28 cb 04 bd ae 3c 07 be ce 65 cb 3d
       -0.010237038 -0.032420307 -0.13206741 0.09931527
000370 3a af b4 3d 4c da 26 be 14 6d 4e 3d 40 e5 ab 3b
       0.08822484 -0.16294211 0.050396994 0.0052458346
000380 52 17 fc 3d e6 7c c3 bd c8 f9 97 3d a9 7a c4 3c
       0.123091355 -0.09545307 0.07420689 0.02398427
000390 42 2a b7 bd a0 41 75 3d a8 26 46 be 82 51 f7 bd
       -0.08943607 0.059877038 -0.19350684 -0.12076093
0003a0 d0 20 42 3d 1d 65 f9 bd bc d2 e9 3d 40 0d d4 bd
       0.047394574 -0.12177489 0.114171475 -0.1035409
0003b0 05 52 d6 bb 4b d0 89 bd 4a eb d9 bd 98 79 90 bd
       -0.006540539 -0.06729182 -0.10640581 -0.07054442
0003c0 7e d9 8a 3d 01 6c f2 bc fd 73 3d 3d d8 1b ec 3c
       0.067797646 -0.029592516 0.046253193 0.02882187
0003d0 c6 bd f5 3d 3f 9f e9 bb fb 72 a1 bd 3b db 09 bd
       0.11999087 -0.0071295793 -0.07883259 -0.03365634
0003e0 03 18 0f be 52 fd 99 bd 07 44 2b be 84 ca ae bd
       -0.13974003 -0.0751902 -0.16725169 -0.085347205
0003f0 fc d8 e5 bd 6b af 0c be 41 62 4a 3c 14 e3 7c bd
       -0.11223027 -0.13738792 0.012352527 -0.061739996

decoder.2.bias f4 [784]
000000 91 3e 42 3c 08 d4 b3 bc 89 43 51 3c d6 d7 bf bd
       0.011855737 -0.02195169 0.012772449 -0.09367339
000010 ab 27 13 be 64 32 29 bd 75 b5 1f be 1c 69 8d bc
       -0.14370601 -0.041307822 -0.15596564 -0.017262034
000020 d9 cf 9c bd d3 7a 21 be 45 e8 aa bd a9 22 0f be
       -0.07656831 -0.1576951 -0.08345083 -0.13978066
000030 88 1f 2d be 6d a9 03 bd b8 e0 3f be f7 bd 0a be
       -0.1690656 -0.032144 -0.18738067 -0.13549028
000040 b7 67 3a be d0 6d de 3c c0 18 b0 3c 83 3a f3 bc
       -0.18203627 0.027151972 0.021496177 -0.029690986
000050 c0 77 0b bd 8d cc 24 be 2c 48 1f bd 3e 0a 1d be
       -0.03404975 -0.16093655 -0.038887188 -0.15335938
000060 45 5c 2b be d9 d8 f2 3c 26 45 b6 bd 70 4e 38 be
       -0.16734417 0.029644417 -0.08899908 -0.17998672
000070 9d aa 0b be 2b 3f 6f bd f9 59 42 bb 4d 6e 42 be
       -0.13639303 -0.05840985 -0.0029655679 -0.18987389
000080 0a 7f 08 bd 7a 93 89 bd e8 84 60 bb 4e 60 9c bd
       -0.03332428 -0.06717582 -0.0034258906 -0.07635556
000090 3b 28 1a be 7a b6 b3 bd 4b fc 36 be 47 31 d5 3b
       -0.15054409 -0.08775039 -0.1786968 0.0065061185
0000a0 88 11 fc bb 17 d2 79 bd e9 3d db 3b 2f 02 be bd
       -0.0076925196 -0.060991373 0.00669073 -0.0927776
0000b0 f7 29 06 bd f2 73 1c be 6d ae 25 be 9a 4c 85 bd
       -0.032754865 -0.15278605 -0.1617982 -0.06508751
0000c0 05 b5 23 be 1c 92 4c bd fe eb 32 be 9c a4 76 bc
       -0.15987022 -0.04994403 -0.17472836 -0.015053894
0000d0 b5 a3 e4 bd 9b bb 97 bd a1 83 c8 3c a0 1a f9 3c
       -0.11164037 -0.0740883 0.024476828 0.030408204
0000e0 14 81 f8 bd 09 df a7 bd 86 33 d1 bd dd 3f 60 bd
       -0.12133995 -0.081968375 -0.102149054 -0.054748405
0000f0 4d 1b 17 bd be 4d c9 bd 75 87 a8 bd c6 07 6d be
       -0.03689127 -0.09829281 -0.082289614 -0.23147497
000100 a3 85 8a bc 7c 6d f5 bd 49 14 e0 3b ba 2e d8 bd
       -0.016909426 -0.11983773 0.0068383557 -0.105557874
000110 2c b6 24 be 42 31 a7 be 1a c0 34 be dd 60 bd be
       -0.16085118 -0.32654768 -0.17651406 -0.36987963
000120 a1 79 f4 bc 6a d5 b1 bd ef 06 10 bd 8e 69 c5 bd
       -0.029843153 -0.086832836 -0.035162862 -0.096392736
000130 d8 f5 66 bd 21 18 01 bd 8a 91 38 3c 4e f7 af bd
       -0.0563868 -0.03151715 0.011265168 -0.085920915
000140 a9 81 09 be c5 eb bf bd 1d b9 83 bc 19 62 6a bd
       -0.13428368 -0.09371141 -0.01607948 -0.05722246
000150 97 62 9d bd cd 0d df bd ed bb 35 bd b7 06 d6 bd
       -0.0768482 -0.10891304 -0.044368673 -0.104504995
000160 35 e1 50 bc b0 7b 33 bd 67 9b 4c be 97 13 00 be
       -0.012749006 -0.04381913 -0.19981156 -0.12507473
000170 04 51 01 be a6 c0 2f bd ef 67 b8 bd fd 84 9b bd
       -0.12628561 -0.042908333 -0.09004199 -0.07593725
000180 95 3a 17 3d 5c fe 56 be a2 b8 04 be 91 d0 14 be
       0.036921103 -0.20995468 -0.12961057 -0.14532687
000190 07 bc 06 be fb aa 43 bd 70 d2 df bd 40 68 6e be
       -0.13157664 -0.04777048 -0.1092881 -0.23281956
0001a0 a3 de 19 be 89 e5 22 be 45 7a 2d be ce 0e 88 bd
       -0.15026335 -0.15907873 -0.16941173 -0.06643449
0001b0 c2 ba 48 3d fd d9 da bd dc 1b d2 bd 66 29 a4 bd
       0.04900623 -0.10686109 -0.1025922 -0.080157086
0001c0 6b ad 1b be ff b7 2c bd a4 d0 ed bc 94 a2 0f be
       -0.15202872 -0.04216766 -0.029030152 -0.14026862
0001d0 ce 3a 10 bd fa 1e 62 3d 91 43 af bd 47 73 50 bd
       -0.03521233 0.055205323 -0.08557809 -0.050891187
0001e0 c8 32 a1 bd 05 2a 24 be f3 f2 37 be 0a c2 09 be
       -0.07871014 -0.16031654 -0.17963772 -0.13452926
0001f0 fc 3b f2 bd e7 7a 95 3d 31 a9 95 be e0 d8 02 bf
       -0.11827847 0.072988324 -0.29230645 -0.51112175
000200 0a de 9d be 3e fb d6 bd ed a9 16 be 65 54 66 be
       -0.30833465 -0.104971394 -0.14713259 -0.22493131
000210 4d c0 4c bd d6 2b 29 be 89 94 8f bd 63 ff 06 be
       -0.04998808 -0.16520628 -0.07010753 -0.1318336
000220 02 e9 20 3a db 66 36 be 02 90 c2 bd 00 26 b3 bd
       0.00061382365 -0.17812674 -0.095001236 -0.08747482
000230 01 5d 00 be e1 0f 49 be 60 e9 7c bc a0 12 e6 bd
       -0.12535478 -0.19634964 -0.0154365 -0.11234021
000240 19 d8 cf bd bb d7 35 be 88 60 60 3c 50 f1 b0 be
       -0.10148639 -0.17758076 0.01369489 -0.34559107
000250 1b 98 7d be 3a 2c 3e 3d 8a f5 e9 3d c8 61 91 3e
       -0.24765055 0.046428896 0.11423786 0.28394914
000260 4c 2b b8 3e 62 95 93 3e 60 52 40 be 18 21 9e be
       0.35970533 0.28824908 -0.18781424 -0.30884624
000270 04 9a f8 bd 1f 27 8a be 0f db ba be 4f 5e 7e be
       -0.12138751 -0.26982972 -0.36495253 -0.24840663
000280 f7 03 35 be 12 38 bc bd 15 fc e9 bc 74 95 bb be
       -0.17677294 -0.09190382 -0.028562585 -0.3663746
000290 52 b9 cf bc 02 e1 1f bd d9 2b 3d be cc ad da bd
       -0.025356922 -0.039032944 -0.18473758 -0.106776804
0002a0 c7 f4 26 3d c1 74 f9 bd 5d e1 ad bd f3 2c b7 bd
       0.04076078 -0.12180472 -0.0849025 -0.0894412
0002b0 26 9c d0 bd 38 d3 89 bd cb 58 12 be e0 ba 88 bb
       -0.10186033 -0.0672974 -0.14291684 -0.004172668
0002c0 26 13 5b be 46 f2 79 3e dc c1 13 3f b4 88 26 3f
       -0.21394023 0.24408826 0.5771768 0.6505234
0002d0 11 d8 32 3f f9 af 2a 3f ea 75 62 3d 7f 2c 44 be
       0.6986094 0.6667476 0.055288233 -0.19157599
0002e0 d7 25 64 be c9 fd 02 be 0c 93 ab 3c 92 09 f8 3d
       -0.2228006 -0.12792124 0.02094414 0.121112004
0002f0 af 80 93 3d 46 1a 1f 3e 53 46 98 ba 5e bc af bd
       0.07202279 0.15537366 -0.0011617638 -0.0858085
000300 01 3e 96 bc 60 0e 4c be ac 94 e0 bd 61 a7 0d be
       -0.018340113 -0.19927359 -0.10965857 -0.13833381
000310 77 f8 38 be 10 f0 c7 bb 1f b7 81 39 db 41 13 be
       -0.18063532 -0.0061016157 0.00024741233 -0.1438059
000320 88 4a 1a be 40 51 d4 bd 84 6e a2 bd a4 8a b1 3c
       -0.15067494 -0.1036706 -0.079312354 0.021672554
000330 fe 40 5b 3e 0d 52 1c 3f 99 a2 40 3f de 48 55 3f
       0.21411511 0.610627 0.75248104 0.8331431
000340 ce b0 5e 3f e4 0a 1a 3f c9 3a db 3d 06 18 01 be
       0.8698853 0.6017287 0.10704572 -0.1260682
000350 f4 20 96 bd 6d 71 36 3e 4b 07 da 3e df 42 fe 3e
       -0.07330504 0.17816706 0.4258369 0.49660394
000360 18 81 eb 3e 7a 18 b1 3e 78 c4 55 3e a9 d2 48 3e
       0.45996928 0.34588987 0.20875728 0.1961161
000370 c3 a0 12 be 12 af 4c bb 84 98 10 be df 52 16 be
       -0.14319138 -0.003123228 -0.1412068 -0.1468005
000380 22 14 d3 bd f3 0f e9 3c 52 9d de bd 0f 41 01 be
       -0.103065744 0.028449988 -0.1086985 -0.12622474
000390 b3 66 46 bc b9 a6 a4 be e4 b0 69 be 14 58 2c bd
       -0.012109446 -0.3215845 -0.22821385 -0.042076185
0003a0 52 d2 a7 3e 02 54 19 3f ba 18 22 3f 61 bc ee 3e
       0.3277765 0.5989381 0.6331898 0.46628097
0003b0 16 3c d8 3e 47 e7 3d 3e 1f 81 eb bd 12 5f 2b be
       0.42233342 0.18545257 -0.11499237 -0.16735485
0003c0 a6 74 d5 bd 13 44 6d 3e 18 45 03 3f e4 67 0b 3f
       -0.104226395 0.231705 0.51277304 0.544554
0003d0 ca f1 e9 3e db a9 a6 3e d2 04 0e be 54 55 1a 3d
       0.45692283 0.32551464 -0.13869026 0.03767903
0003e0 ef 95 14 be f6 38 92 be 50 06 2b be 56 b6 03 3d
       -0.1451032 -0.28559083 -0.16701627 0.03215631
0003f0 8d 18 d8 bc 84 84 2c be eb 8e d9 bd 67 9a c9 be
       -0.026378894 -0.16847426 -0.106229626 -0.39375612
