20220518260.pt (torch, 424079 bytes, 8 tensors)

encoder.0.weight f4 [64, 784]
000000 61 df 6d bc ac d2 f0 3c 90 ec 9a 3c be dd 97 3c
       -0.01451859 0.029397331 0.01891163 0.018538352
000010 a7 26 fd 3c 19 99 cb bd 09 7b fd bf 24 f9 56 bf
       0.03090222 -0.099413104 -1.9803172 -0.8397391
000020 d3 f7 90 bf af 66 2c c0 4e 31 4d c0 0d c4 e2 bf
       -1.132563 -2.6937673 -3.2061343 -1.771608
000030 a9 8d 69 c0 ac 30 0b c0 be 1f 3f c0 aa e2 00 c0
       -3.6492712 -2.1748457 -2.9863124 -2.0138345
000040 b2 84 88 3e 60 11 6b bf 39 31 ec bf dc b2 e1 bf
       0.26663738 -0.9182339 -1.8452522 -1.7632709
000050 90 a8 f3 bf 56 e7 4b c0 c2 72 fd bf 45 42 dc bf
       -1.9035816 -3.1859946 -1.9800646 -1.7207724
000060 23 0f c1 bc 4a 5d e0 bb 01 e4 f7 ba ac b7 c1 bc
       -0.023566788 -0.0068470584 -0.0018912555 -0.023647152
000070 e3 6c 8a bc 4a 3c f5 ba f8 ce 8c 3f 22 94 86 3e
       -0.016897624 -0.0018709984 1.1000662 0.2628489
000080 91 80 f4 bf ef b3 1c bf bd fe 0f be 5d 92 53 c0
       -1.9101735 -0.61212057 -0.14062019 -3.3058083
000090 1c 69 21 c0 2c 44 00 c0 96 a9 62 c0 0b 23 45 c0
       -2.5220404 -2.004161 -3.5416007 -3.0802639
0000a0 e5 4e fc bf b9 11 2e c0 58 10 84 bf 14 26 8b 3e
       -1.9711577 -2.7198317 -1.0317488 0.2717749
0000b0 cd a4 c9 bf 02 ba af bf f2 96 af bf f9 78 80 bf
       -1.5753418 -1.372864 -1.371794 -1.0036918
0000c0 b8 71 44 bf fd c0 e6 bf 0e 10 57 c0 3f 91 85 c0
       -0.7673602 -1.8027645 -3.360355 -4.17398
0000d0 6d 8a 0e bf 28 13 fe 3f 25 45 ca ba 43 f6 e1 bc
       -0.5567997 1.9849596 -0.0015431984 -0.027583247
0000e0 25 af 83 3c 25 1b 6d 3c 3d b8 43 bd 56 a8 35 bf
       0.016074726 0.014471804 -0.047783125 -0.70959985
0000f0 05 82 49 40 a4 70 84 c0 ed 8f d3 3e 70 cf 5d bd
       3.1485608 -4.13875 0.41320744 -0.054152906
000100 b0 ad 0f c0 c1 4b 89 bf 8c 77 82 bf a5 4b a1 be
       -2.244976 -1.0726243 -1.0192733 -0.31503025
000110 a9 f5 34 bf fb 4d 36 bf 17 32 5c bf 0b f7 3b 3e
       -0.7068735 -0.7121274 -0.8601393 0.18355958
000120 39 13 46 bf 52 ac 3f bf 38 82 3f bf 39 16 0c be
       -0.7737308 -0.74872315 -0.74808073 -0.13680352
000130 59 21 2e bf 90 03 87 be 55 0f 0a bf 3b 69 ee be
       -0.68019634 -0.26369905 -0.53929645 -0.4656466
000140 17 96 05 c0 0a 32 0a 3f 91 d5 1c be c0 e6 8b bc
       -2.0872858 0.53982604 -0.15315844 -0.017077804
000150 d8 21 01 3d e3 ea 57 bf 33 8d 66 bf 53 77 63 bf
       0.031526417 -0.84342784 -0.900592 -0.8885395
000160 72 67 33 bf 45 85 8a bf 0c 19 d0 be dc c6 75 3f
       -0.7007972 -1.0821921 -0.4064411 0.9600656
000170 e0 f2 b1 be 87 40 19 3f 89 e5 1a bf d6 93 84 3c
       -0.3475561 0.59864086 -0.6050649 0.016183775
000180 c4 f3 15 3c 0d f8 d1 3d a1 33 cf 3d 58 09 b9 bd
       0.009152357 0.1025239 0.10117269 -0.09034985
000190 4e 04 a8 3e 61 96 1b 3c 56 26 96 be ac 8a 47 bd
       0.32815784 0.009496302 -0.29326123 -0.048716232
0001a0 d9 93 45 3e 39 4f 92 bc 74 f8 53 3c 23 99 89 be
       0.1929468 -0.017860042 0.012937654 -0.26874647
0001b0 5a 6d 1d 3f db 8f de 3e a8 ed e4 bf 60 ea 6f 3f
       0.6149498 0.43469128 -1.7885027 0.93717
0001c0 ee a9 86 bb 13 8e b3 3f 04 c9 8f bf db 77 43 3e
       -0.0041096127 1.4027733 -1.123322 0.1908869
0001d0 ee 4e a1 bf d9 2c 9f 3f c7 a6 52 bf 33 3d 64 3d
       -1.2602212 1.2435561 -0.8228573 0.055722427
0001e0 3a 5a d8 bd 5a ef 7a 3e df 89 d6 bd 3d 48 80 3e
       -0.10564084 0.24505368 -0.104755156 0.25055113
0001f0 07 ec f4 bb e7 7a cd 3c 72 53 8f 3e 9e 2e cb 3a
       -0.0074744257 0.025083018 0.2799335 0.0015501564
000200 93 af 17 3e 0a 88 a8 3c de f4 01 be 01 c8 36 3e
       0.1481307 0.020572681 -0.12691066 0.17849733
000210 61 d1 44 be 0d 7e 2e 3e 43 08 f3 3d 70 1f a8 bc
       -0.19220497 0.17040272 0.1186681 -0.020522803
000220 af 83 4a 3f 43 aa b4 bf 59 6d 0d 3f 3c cd 05 bf
       0.79107183 -1.411446 0.55244976 -0.5226629
000230 ea 6f 60 bc 13 cd d8 be 93 c3 4f bf da 4a 70 3f
       -0.013698557 -0.4234396 -0.811578 0.93864214
000240 5b 47 c1 be ae fd 12 bf 3d d5 27 3e 15 59 80 be
       -0.37749752 -0.57418334 0.16389938 -0.25067964
000250 b6 33 50 3e 3d 9d 4e be f4 83 bf bd 68 85 70 3d
       0.20332226 -0.20177169 -0.0935134 0.058720976
000260 0a 7e 52 3d b9 b3 c1 3d 6b b7 a4 bd 57 09 22 bd
       0.05138973 0.094581075 -0.08042797 -0.03955969
000270 8d 7b 81 3d 3c c9 f9 3d f5 1a 1a 3e cd a8 b7 3d
       0.063223936 0.121965855 0.15049346 0.08967743
000280 7d f8 5d bd 08 27 9b 3d 79 a1 5a be d0 dd 21 be
       -0.054192055 0.07575804 -0.2135066 -0.15807271
000290 0b 40 ec 3e 6e 48 2d be 93 72 98 bf 87 7e 88 3e
       0.4614261 -0.16922161 -1.1909965 0.26659033
0002a0 60 fc b1 be a6 9a 84 bf 49 ea d9 3f e0 3f b6 be
       -0.3476286 -1.0359695 1.7024623 -0.35595608
0002b0 99 b8 03 3f a0 f5 85 be 87 8b dc 3d 87 2e 9a 3c
       0.5145355 -0.2616396 0.107688 0.018821014
0002c0 86 0e fc 3d 0d 6e dd 39 6d 88 29 bd 67 27 29 3d
       0.123074576 0.000422344 -0.04138987 0.041297343
0002d0 4f a9 99 bd 7e 2e 04 3e 2b 85 ce bd 11 1b d0 3d
       -0.07502996 0.1290836 -0.100839935 0.101614125
0002e0 6b a5 95 3d ca db 35 3d 1b bd 08 3e 1c 0b 7b 3e
       0.073069416 0.04439906 0.13353388 0.24515957
0002f0 c4 d9 dc bd c5 fe dd 3d 0f 62 25 be bf 2c 79 3e
       -0.10783723 0.10839609 -0.16150688 0.24333476
000300 60 80 20 bf ef f6 26 3f 90 62 c2 bf 48 23 13 40
       -0.62695885 0.6522054 -1.5186329 2.2990284
000310 d1 2a 1a 3f 9e a9 d3 3f 7b d3 97 bd 9c d5 26 3f
       0.6022158 1.6536138 -0.074133836 0.6516969
000320 d8 2c bd be b2 9d 90 bd 02 47 c4 3c 9d 17 1f 3e
       -0.36948276 -0.07061328 0.02395964 0.15536352
000330 49 42 4d be c8 67 5e bd a8 bf e1 3d c0 50 79 bd
       -0.20044817 -0.054298192 0.11022884 -0.060868025
000340 7e 03 44 be fe 66 aa 3c 76 0a 2c 3d 04 c8 8c 3d
       -0.19141957 0.020801064 0.042002164 0.068740875
000350 7b 75 0a be 79 64 22 3e 48 8c ad 3d 71 01 c1 bd
       -0.13521378 0.1585864 0.08474022 -0.09424103
000360 8f a8 81 bd d6 fb 26 3d 56 a2 9f be ce 37 4d be
       -0.06330978 0.040767513 -0.3117854 -0.20040819
000370 38 57 c8 3e 17 6d c2 bd 84 cb f1 be 4b f0 9f 3f
       0.39129043 -0.094934635 -0.47225583 1.2495207
000380 dc fb dd 3d 6f 2a 97 bd 90 f5 80 bf 61 7b bd 3e
       0.10839054 -0.073811404 -1.007494 0.37008193
000390 76 60 1b be 84 82 8e 3e a8 be a7 bd a3 7d ea bd
       -0.15173516 0.2783395 -0.08190662 -0.114497446
0003a0 db 7d 64 3d cb 94 ac bd a1 ed 7e bd ae 8d 45 3e
       0.055784088 -0.084268175 -0.06223834 0.19292328
0003b0 81 dd 49 3d 61 60 b2 3d 13 d2 ae 3c 0b 0e 9d 3d
       0.04928351 0.08709789 0.021340406 0.07668694
0003c0 dd 6f 02 3e 9e 8c c3 3d c1 7e 2b 3d 76 22 8e 3d
       0.12737985 0.09548305 0.04186893 0.06940167
0003d0 35 ee 02 3e f1 97 c8 bd ca 2d d8 3d cd bf 99 be
       0.12786181 -0.097946055 0.105556086 -0.30029145
0003e0 5b c0 f4 bd fb 32 d0 be 64 45 0e c0 f2 fa 6e 40
       -0.119507514 -0.40663895 -2.2229853 3.7340665
0003f0 97 17 24 3f ed f3 7a bd 95 c5 cd 3e 45 ae 91 bc
       0.64098495 -0.061267782 0.40189806 -0.017783294

encoder.0.bias f4 [64]
000000 14 1b 25 40 a6 48 1b 3f 5e 9f 9d bf dc 66 0e 40
       2.5797777 0.6065773 -1.231426 2.225028
000010 a2 5a 0a 40 1c 0f 77 c0 96 44 01 40 7a ab 0a 40
       2.1617818 -3.8602972 2.0198112 2.166716
000020 92 c2 e1 3f ae d2 cd 3f e8 6a 20 40 6c 47 12 40
       1.7637503 1.6079919 2.506525 2.2856092
000030 72 0d bf 3f bd db 3d 40 e2 b4 1f 40 5a 48 18 40
       1.4925978 2.9665368 2.4954152 2.379416
000040 94 36 4a 40 ee c7 03 40 08 71 00 40 90 ae 97 be
       3.1595812 2.0590777 2.0068989 -0.29625368
000050 a0 2c 6a 40 5b 8c 36 40 fb 47 26 3e dd d6 59 3f
       3.6589737 2.8523166 0.16238396 0.8509348
000060 94 ee 01 40 45 e0 17 40 9a 44 c0 3f 4d a9 2a 40
       2.0301867 2.3730633 1.5020936 2.6665833
000070 34 1d 44 bd 02 71 93 3f da fb 98 3f 3c f7 bf 3f
       -0.047879413 1.1518862 1.1951859 1.4997325
000080 80 c8 c4 3d 1a 68 d3 3f be a8 50 40 e1 26 f4 3f
       0.09608555 1.6516144 3.2602992 1.9074365
000090 0e e3 22 40 63 30 24 40 2d b3 0e 40 b0 31 41 3f
       2.5451083 2.5654533 2.229686 0.7546644
0000a0 07 c0 71 3e e9 8c a1 3e e9 73 0d 40 a1 42 cc 3f
       0.23608409 0.31552818 2.2101996 1.5957834
0000b0 2c 41 3b 40 9c 06 17 40 e0 75 c7 3f f5 13 04 40
       2.9258528 2.3597784 1.5582848 2.063718
0000c0 38 8e c5 be 5c 40 6c bc 78 28 b9 bf e4 b7 46 40
       -0.38585067 -0.014419641 -1.4465475 3.1049738
0000d0 ca b9 f6 3e bd 12 02 40 f0 48 ed 3f 35 5f 34 40
       0.4818862 2.0323937 1.8537884 2.818311
0000e0 e5 0b 08 3f 75 f9 22 bf a3 66 77 3f 31 15 92 3f
       0.5314315 -0.6366189 0.96640986 1.1412717
0000f0 4d 96 d2 3f 58 1b 5a 40 cc db a4 3f d3 91 dc 3f
       1.6452118 3.407919 1.2879577 1.7232002

encoder.2.weight f4 [32, 64]
000000 45 80 cc be 01 99 e3 bd e2 6b 9e be 31 b5 b4 be
       -0.39941612 -0.111131676 -0.30941683 -0.35294488
000010 19 c1 36 be 1b 2e b7 3c 04 c5 a2 bd 63 60 a3 3c
       -0.17847098 0.022360852 -0.07947734 0.019943422
000020 81 95 bc 3a b0 f7 2d be e2 43 45 bd e4 1c ae be
       0.0014387817 -0.16989017 -0.04816044 -0.34006417
000030 da 8f 13 bd 62 9b 0e be 2f 4e 9e be 97 1b 22 3c
       -0.03602586 -0.13926461 -0.30919024 0.009894273
000040 66 6f 84 3d 97 c3 4f 3d a7 84 bb bd 8f 64 3e be
       0.0646656 0.05072364 -0.09156161 -0.18593048
000050 f7 a4 1b be 6a 24 20 be e2 b1 d8 bc 4f 5f a3 bd
       -0.15199648 -0.15638891 -0.026452009 -0.07977163
000060 f8 3c 08 3d dc 8e e5 be 5c 08 dd be 0f 56 ba be
       0.03326127 -0.44835556 -0.4317044 -0.36393782
000070 13 50 d5 be 93 b7 c8 bd c3 26 58 bd 86 b0 ce be
       -0.41662654 -0.09800639 -0.05277134 -0.40369052
000080 d7 5e 86 be 3d 66 32 be 3e 20 1f be 91 b0 d6 be
       -0.26244232 -0.17421813 -0.15539643 -0.41931584
000090 9f 3f 5f bd 48 74 14 be 87 c6 27 be 75 c2 df be
       -0.054504033 -0.14497483 -0.16384326 -0.43703046
0000a0 09 17 47 be 0e 28 94 be 55 a4 61 3d ad 91 4c be
       -0.19442381 -0.2893681 0.05508836 -0.19977446
0000b0 1d 8a 0d bc 88 bf 8c bd df 5b f3 be 6d a7 d8 bd
       -0.008638886 -0.06872469 -0.4753103 -0.10578809
0000c0 d4 21 e2 be 18 c9 8a be 56 ec 93 be a1 c8 3c bd
       -0.44166434 -0.27106547 -0.28891248 -0.046089772
0000d0 f2 bb 1f be 89 21 cc be 3d 4d 90 be 54 bd 10 be
       -0.15599039 -0.39869335 -0.28183928 -0.14134723
0000e0 9f ca 80 be a6 2b db be 2d fd b1 3c 5d 75 b5 bc
       -0.25154588 -0.4280674 0.021727169 -0.02215069
0000f0 3b 57 c0 be c6 3d ac 3c 25 64 3e bd cf 0e 38 be
       -0.37566552 0.02102555 -0.046482224 -0.17974399
000100 23 82 51 3d 1b 71 4e bb 51 c5 c0 be 9e 6d 4c bd
       0.0511495 -0.0031500522 -0.3765054 -0.049909227
000110 e7 9c f6 3c 01 16 0a bc 22 52 86 be 98 46 e1 bc
       0.030104114 -0.008428098 -0.26234537 -0.027499482
000120 90 d9 1f 3d cc aa bf bd 3a a4 54 3d 9f 1d c9 bd
       0.039025843 -0.09358749 0.05191443 -0.09820103
000130 8e 6d b6 bc 82 7c 32 be 70 d8 05 be 26 87 e0 3b
       -0.022269037 -0.17430308 -0.13070846 0.0068520484
000140 b3 e7 30 bd 65 71 37 bd e4 c6 96 bd c2 fb bf be
       -0.043189716 -0.044785876 -0.07362154 -0.37496763
000150 9b 84 be bd 20 9c 1f be ee 5a 7d 3d 20 d8 58 bc
       -0.09302636 -0.155869 0.061854295 -0.013235122
000160 e4 63 27 be 1f 64 e1 bd c0 f6 09 be d6 f5 be bd
       -0.16346699 -0.11005425 -0.13473034 -0.09324233
000170 2f 11 83 be 19 f3 bb bd cc 34 23 be fb 13 2d be
       -0.25599048 -0.091772266 -0.15938109 -0.16902153
000180 3e 88 9d be 9f a8 b5 bd f4 46 36 bc 10 d3 ae bd
       -0.30768007 -0.088700525 -0.011125315 -0.08536351
000190 fa 69 fe bd ee 8f 25 be 7d 6b 2e be 6b 32 8e be
       -0.12422557 -0.16168186 -0.17033191 -0.2777284
0001a0 65 19 c3 be ed 02 96 be 5f 35 05 3d 75 49 3c bd
       -0.38105312 -0.29299107 0.0325216 -0.04596849
0001b0 d3 a6 9a bd a0 78 2a be f8 59 8e be 5d 1c 3a be
       -0.075513504 -0.16647577 -0.27803016 -0.18174882
0001c0 e7 1a 8d be 9c 11 29 be a9 1a 97 bd 6e 73 63 bd
       -0.27559587 -0.16510624 -0.07378132 -0.055530004
0001d0 7f 27 2a be a2 d5 8a bc 10 36 39 be 5e 98 04 be
       -0.16616629 -0.016947571 -0.1808703 -0.12948748
0001e0 f0 19 c5 be b8 e0 93 be 7e 1e f7 3b 22 0c 01 be
       -0.3849635 -0.28882384 0.0075414767 -0.12602285
0001f0 ab 84 2f be 78 d0 cc bd 59 29 0f be 6a bc ad 3c
       -0.17140453 -0.100007 -0.13980617 0.021208007
000200 88 db 2c 3f 0c e0 98 3d 3b f7 b2 3c 98 c2 3c bc
       0.6752248 0.074646086 0.021846404 -0.011521004
000210 d6 3a 23 bf b1 bc 94 3c 95 7d 5d 3e b4 5b f4 3e
       -0.6376165 0.018156381 0.21629937 0.47726214
000220 68 62 90 3c 14 17 fb bc 60 d9 83 bf 26 bc 22 bc
       0.017625049 -0.030650653 -1.0300713 -0.009932553
000230 40 14 1c c0 fd 4a 6a bc 04 e4 c7 bc 9a fa a7 3e
       -2.438736 -0.014300105 -0.024400719 0.3280838
000240 14 10 48 3e d3 70 08 bd 82 8d c8 3c e9 ad 01 3d
       0.19537383 -0.033310723 0.024481539 0.031659994
000250 9a 7f ad bf df 33 2f 3c e1 bd 12 be 5c 5d 08 3d
       -1.3554566 0.010693519 -0.14330246 0.03329216
000260 e2 57 be bd aa e6 03 bc cf 3f fc 3b 00 1c d9 bb
       -0.09294106 -0.0080506 0.0076980363 -0.0066256523
000270 de f0 94 3d e9 21 ae bf 15 22 12 3e d9 5c 5a 3c
       0.07272504 -1.3604099 0.14270814 0.013327801
000280 11 68 c9 3b 25 bf ce bc 3c ef fb bf 7c bf d8 3d
       0.006146439 -0.02523763 -1.9682384 0.10583398
000290 d5 7d 97 bf 30 51 16 bf ab 67 26 be ea 01 b4 b9
       -1.1835276 -0.5871763 -0.16250484 -0.00034333701
0002a0 c2 b0 94 bc a1 82 02 be b3 01 a9 bc c2 07 ae bd
       -0.018150691 -0.12745143 -0.020630693 -0.084975734
0002b0 b1 cf 87 bd f3 66 76 bd b6 6a 83 3e 72 08 82 be
       -0.06631411 -0.060156774 0.2566735 -0.25397068
0002c0 5b 29 18 bd 38 f6 a7 bc ad 3c 06 bc 46 8a c2 3e
       -0.037148815 -0.020503148 -0.008193177 0.3799612
0002d0 1f 6d 57 3e 3d 71 82 bc cc d9 fa 3c ee 0c 29 be
       0.2103772 -0.015923137 0.030621432 -0.16508839
0002e0 fd 2f 9f 3c 56 53 53 3c 67 18 ea 3c 24 80 0d bd
       0.019432062 0.012898287 0.02857609 -0.034546033
0002f0 70 84 10 3d 5f ec 0f 3d 5a 55 3a 3c d3 d9 8a 3d
       0.035282552 0.03513753 0.011372888 0.06779828
000300 d5 96 96 3d cb 5b 1c be 86 5d fe 3c 01 0c cd bc
       0.07352988 -0.15269391 0.031050455 -0.025030138
000310 cf f0 e4 3c 69 8f 9b bd a3 ee 4b 3e 26 68 07 3f
       0.027946858 -0.07595713 0.19915251 0.5289329
000320 16 60 95 bb 51 10 15 3d ff db da be f2 b9 3c 3e
       -0.0045585735 0.036392514 -0.4274597 0.18430308
000330 5c 89 3f c0 4d c0 15 3d cc 14 7f bd bc df cf 3c
       -2.9927588 0.036560345 -0.062275693 0.02537524
000340 39 83 af 3c 32 1a 2e 3f 58 22 92 bc 10 03 cd bd
       0.021424877 0.6800872 -0.017838642 -0.1001035
000350 26 8e 78 3d e6 f5 ca bc bb fb 27 3e 0e 21 1e bd
       0.06068244 -0.024775457 0.16404621 -0.038605742
000360 c0 97 42 bd f4 44 24 3d 13 c4 40 3d 93 90 e9 3d
       -0.047508 0.04010482 0.04706199 0.114045285
000370 02 54 2e bc 9f a0 2e c0 0b 94 4a 3e 86 46 b0 bc
       -0.010640146 -2.7285535 0.19783036 -0.021518003
000380 09 04 8c bd 82 b5 08 3e ae 41 47 c0 a3 d8 33 bd
       -0.06836707 0.1335049 -3.1133838 -0.043907773
000390 46 0c 76 bf 68 08 1c 3e 57 3b 54 bd 85 ae 7c 3c
       -0.9611248 0.15237582 -0.051814403 0.015422468
0003a0 a7 80 5a 3b f3 6e 01 bd 50 d5 8f bd fa ab a7 bc
       0.0033340843 -0.03159995 -0.07023108 -0.020467747
0003b0 77 19 46 be 09 90 55 3e ba df 3f 3d 97 ba ce bb
       -0.19345652 0.20855726 0.04684422 -0.0063088643
0003c0 10 c1 17 3d 09 4d 24 3d 4e f9 51 bd dc bb cd be
       0.037049353 0.04011253 -0.051263146 -0.40182388
0003d0 ed 8f 8c 3e cb 04 28 3d 7d de 4b 3b 92 a4 22 bd
       0.27453557 0.041020196 0.0031107955 -0.039707728
0003e0 2d f1 c3 bc 0a 1f c1 3c 63 ad db 3d 8b 5b 3b 3e
       -0.023918713 0.02357437 0.1072643 0.1829664
0003f0 99 9e f8 bc a2 43 19 3e 9d b9 dc 3d 90 15 02 bd
       -0.030349063 0.14967206 0.107775904 -0.031758845

encoder.2.bias f4 [32]
000000 6f 95 a5 be 59 b6 7e be 4b 7d 47 3f bd 9d 86 3f
       -0.3234057 -0.24874248 0.77925557 1.0516888
000010 79 f0 86 3f 6b 12 cc 3c 57 e7 8a bd d5 e7 1a bf
       1.0542136 0.024911126 -0.06782406 -0.6051
000020 ed 69 d2 be 0e d3 d5 be 67 89 83 3f 4c 50 dc 3e
       -0.4109644 -0.41762584 1.0276307 0.43030012
000030 5f d6 85 bd ad 53 23 be b3 0a 62 3f fb 4a d9 3b
       -0.06535029 -0.15949889 0.88297576 0.006631253
000040 df 56 21 be 10 b1 3a 3d 33 c4 4e 3f 54 df c4 3e
       -0.15755795 0.045579016 0.80768126 0.38451636
000050 96 1b 0c be 73 62 cc bd 10 65 fb 3e 42 ae 6b bd
       -0.13682398 -0.09979715 0.49100542 -0.057539232
000060 fd 3c 85 3f 56 b7 6a be 16 09 78 3f f8 bc 06 3f
       1.0409237 -0.229215 0.96888864 0.52632093
000070 36 4f 25 3d ce 6d 45 3e 80 ad 3d 3f 5c d2 5a 3f
       0.040358745 0.19280168 0.74092865 0.8547723

decoder.0.weight f4 [64, 32]
000000 f1 b3 81 be 7c 2c 92 be f8 f8 b7 be e6 e9 8a be
       -0.25332597 -0.28549564 -0.35932136 -0.27131575
000010 fa f1 b7 be 6f c3 93 be d6 c1 f4 bd 95 d0 dd bd
       -0.359268 -0.28860041 -0.11951034 -0.108307995
000020 4b bf d2 3e 1a b1 16 bd 4d d5 e4 bd f7 fb e8 be
       0.4116157 -0.03678999 -0.111734964 -0.45504734
000030 82 f3 94 be 02 c9 92 3d fd 30 dc be e7 02 e8 be
       -0.29092032 0.071672454 -0.43006125 -0.45314714
000040 53 fa 98 bd f5 96 b4 be c7 56 5a be ee bf a2 be
       -0.074696206 -0.3527142 -0.21322165 -0.31787056
000050 f2 aa 51 be 1e af bf be 3e 6a ad be d7 bb d9 be
       -0.20475367 -0.3743829 -0.3387012 -0.42526123
000060 77 cb 9a 3e f8 a8 d0 3e f3 20 db 3e bd 37 b8 be
       0.30233356 0.40753913 0.42798576 -0.35980025
000070 ae ff 6b 3e 62 58 ce be 3e b2 5b be 2f 3e 23 3e
       0.23046753 -0.40301806 -0.21454713 0.1594169
000080 73 0d 98 be ce 89 79 be 84 80 f0 bc 0c a8 86 3e
       -0.2969776 -0.24368975 -0.029358156 0.26300085
000090 12 8c 71 3d a0 e1 b8 bc 3f da 7c be c9 2e ee bc
       0.058971472 -0.022568524 -0.2469263 -0.029075043
0000a0 8a b2 97 3e 92 4b 80 3d 5d 55 dd 3b 0f 2d da 3d
       0.29628402 0.06264414 0.006754561 0.106531255
0000b0 2f 40 76 3c 8b 6e 1b bd 36 6d 01 be 1f 8e d0 bd
       0.015029951 -0.03794722 -0.12639317 -0.101833574
0000c0 02 19 cd 3c a5 f7 e0 bc f0 83 db bc 8c 57 e4 3e
       0.025036339 -0.027461836 -0.026796311 0.44598043
0000d0 21 1b 83 be cb 36 22 be fe ff b4 3a b3 4a 48 be
       -0.25606635 -0.15841214 0.0013809202 -0.19559745
0000e0 20 e2 c4 3d 13 f9 7b 3d 4a a0 0e 3d f2 31 88 bd
       0.096134424 0.061516833 0.034820832 -0.06650151
0000f0 92 4d 1b 3e c3 23 03 3e d1 be 3c 3e a5 6a d8 bc
       0.1516631 0.12806611 0.18432166 -0.02641804
000100 7e 0d 0a 3e a7 06 6d 3c 7e f4 70 3b ac 39 92 bd
       0.1348171 0.014466918 0.0036766822 -0.07139906
000110 07 28 33 bc 08 ba 5c 3e 1d be ff 3d c6 0f 37 3e
       -0.010934836 0.2155534 0.12487433 0.17877111
000120 e7 27 2f be 13 96 30 bd 3a b2 3b bd 84 8b 36 bd
       -0.17105065 -0.043111872 -0.045824267 -0.044566646
000130 7d a2 e4 3d 47 cc 61 bc 54 d4 d2 bd 7e eb e6 bd
       0.11163805 -0.013781614 -0.102944046 -0.11275385
000140 d8 d5 17 be 06 fa 0d 3e 6d c8 af bd 40 7a f6 3c
       -0.14827669 0.13864908 -0.0858315 0.03008759
000150 58 20 59 bd 6d c3 44 3e bc 1c cb bd a6 83 52 3e
       -0.05300936 0.19215174 -0.0991759 0.20558032
000160 c3 1e 9d 3c 23 6d 78 3d 9b 19 13 3f c9 74 6f be
       0.019179707 0.060650956 0.57460946 -0.23384394
000170 09 ed 02 be 47 ad dc bd 00 ca b6 3c ff 87 57 3d
       -0.12785734 -0.107752375 0.022313118 0.05261993
000180 6a c3 bf bd 67 3c 8b 3d 34 01 ba bb e7 d9 72 be
       -0.09363444 0.0679863 -0.005676413 -0.23715936
000190 43 68 ef bd fc fa 0a be 4b 7c 3b be 9b 4c f3 3d
       -0.11689808 -0.13572305 -0.18309133 0.11879846
0001a0 16 b7 2d 3e 24 60 e6 3d 15 ba 4d 3d 3d 68 e7 bd
       0.16964373 0.11248806 0.05022629 -0.11299179
0001b0 e4 29 22 be 36 c6 21 be 8c fe d6 bd 8d 9e 89 3d
       -0.15836293 -0.15798268 -0.1049777 0.06719694
0001c0 45 88 a9 3c d4 85 c0 bd 43 c1 22 be 6f a9 df 3c
       0.020694861 -0.09400526 -0.15894036 0.027302472
0001d0 e7 5d 51 bd e8 38 b3 bd df fd 3a 3e 5b ba 6a be
       -0.051114943 -0.087510884 0.18260907 -0.22922651
0001e0 f1 d3 56 3d f6 24 c8 bc 7b 70 37 3e 46 05 64 3d
       0.052448217 -0.024431687 0.17914002 0.05566909
0001f0 fd bd 2f 3e ac 5c 70 be f4 1c e4 bd 70 46 1d bd
       0.17162319 -0.23472852 -0.11138335 -0.038397253
000200 45 f1 d5 bd cb e4 88 be 7b 74 ed bd 35 4c 17 be
       -0.10446409 -0.26737055 -0.115944825 -0.14775164
000210 4b ea 48 be 73 eb a9 bd 21 fe 6f be ca 9a b7 3d
       -0.19620626 -0.082968615 -0.23436786 0.089650705
000220 db 7d d8 3c 91 ec 0f 3e 04 02 cb bc 7f 5d a2 bd
       0.0264272 0.14055087 -0.024781235 -0.07927989
000230 09 16 20 be 7a 38 64 be 10 d8 e9 3c 39 fb 5a be
       -0.15633406 -0.22287169 0.02854541 -0.21384896
000240 35 ef a3 3d 88 77 46 be 94 e4 4f be 16 41 0d be
       0.080046095 -0.19381535 -0.2030204 -0.1379436
000250 cc 46 8d 3d 36 73 31 be c3 01 ad bd f0 6b 5d bd
       0.06898269 -0.17329106 -0.08447602 -0.054058015
000260 e4 77 03 be 8f b8 7a bd e4 99 8d 3d 5c 68 60 3e
       -0.12838703 -0.061211165 0.06914118 0.2191481
000270 ad 18 6a 3e f1 70 4c be dc 1b d0 bd 13 21 84 bd
       0.22860976 -0.19964959 -0.10161564 -0.06451621
000280 ea bf a7 bd 9e 65 90 be f8 72 8e be 12 73 a5 be
       -0.081909016 -0.28202528 -0.2782209 -0.32314354
000290 c3 23 ba be 0e 56 ad be c9 8d c7 3b 42 58 24 be
       -0.3635541 -0.33854717 0.0060899 -0.16049293
0002a0 68 c7 87 3e b1 ff d8 3d f7 4d 79 be f0 1f 5e be
       0.26519322 0.10595644 -0.24346147 -0.2169187
0002b0 9e 5e 99 bc f2 d9 10 bc 1a e4 0f 3d d5 9c d6 be
       -0.018721875 -0.008841025 0.035129644 -0.41916528
0002c0 c6 8c 88 bc 15 43 9a be dc 5a 6f be f5 6e 97 be
       -0.016668689 -0.30129305 -0.23374504 -0.2957684
0002d0 f6 fd e0 be 71 30 95 be dc 01 78 be 8d b6 a5 bd
       -0.43943757 -0.2913852 -0.2421946 -0.080914594
0002e0 fc 59 46 be 21 35 8a 3e f8 e9 b5 be 07 7e a3 be
       -0.19370264 0.2699366 -0.35530066 -0.3193209
0002f0 af f0 78 3e d4 42 7c be 62 62 d8 be a9 38 03 3e
       0.24310564 -0.24634868 -0.4226256 0.12814583
000300 d3 07 9a 3d 9b 34 e5 bd 38 ba 21 be cc 4c 84 3c
       0.075210236 -0.11191674 -0.15793693 0.0161499
000310 0f c1 8d bf 58 aa 1d be 20 0a ce 3d e4 54 25 be
       -1.1074542 -0.15397012 0.10060525 -0.16145664
000320 ca f4 33 3d 50 54 fa 3d a9 03 4d be c8 04 c7 bc
       0.04393462 0.122231126 -0.20020927 -0.024294272
000330 f3 a5 30 be d6 b3 ac be fd 85 3d 3e 35 68 fd 3d
       -0.17250805 -0.33730954 0.18508144 0.123733915
000340 6a 7c 28 be e6 28 db 3d 23 b8 0b 3d ed 34 c2 3c
       -0.1645371 0.1070116 0.034111153 0.023706878
000350 8a 80 96 bd d8 fe db bb 8a 37 02 3c 43 fc 2e 3e
       -0.07348736 -0.0067137294 0.007947812 0.17088418
000360 aa 5f e6 3b 05 e4 a1 3d cf 9b a1 bd d5 05 0b bd
       0.007030447 0.079048194 -0.07891046 -0.03394111
000370 5e 3e 49 bd d6 97 0d be 1d c5 03 3f ea 27 a5 bd
       -0.049131744 -0.13827452 0.51472646 -0.08064254
000380 78 b4 94 be 74 06 a9 be 5e f1 08 3d 01 50 4d bd
       -0.29043937 -0.33012736 0.03343331 -0.050125126
000390 44 96 72 bc fd 18 a1 bd 9c b4 ed bd d5 de b6 be
       -0.014806334 -0.07866094 -0.11606714 -0.35716882
0003a0 a6 af 40 3e e7 4b 2a 3e 89 7e 50 3d 4f 34 63 bd
       0.18817005 0.16630517 0.050901923 -0.055469807
0003b0 b5 60 85 be ee 87 58 bd 26 12 4a 3c be 79 b4 be
       -0.26050344 -0.052864008 0.0123334285 -0.35249132
0003c0 ca 9c 9d 3e 4b 48 92 bd b5 40 e4 3e fc 71 37 3e
       0.30783683 -0.07142695 0.44580618 0.17914575
0003d0 2f c4 c9 bd 8c a4 ae be 7d 80 4c 3d e7 89 48 be
       -0.09851872 -0.34109914 0.049927223 -0.19583856
0003e0 70 d0 2b 3d 2c d5 4a 3e 4c 29 b6 3d c6 ff ec 3b
       0.04194683 0.19807881 0.088945955 0.007232639
0003f0 2c 4c 5a 3d 1c cd 03 3d ec bc 77 bc 76 ad 95 3e
       0.0532953 0.03217803 -0.015120726 0.29233903

decoder.0.bias f4 [64]
000000 50 40 68 be dc b0 37 be 45 cb e6 3d f2 4d ec bd
       -0.22680783 -0.1793856 0.11269239 -0.115383044
000010 68 74 87 3a 82 9b 60 be 99 1d fc 3d ef 09 f2 bd
       0.0010334374 -0.21934322 0.12310333 -0.11818301
000020 3a 5f d3 3d b6 a0 16 be 38 73 18 3c 83 8e 75 bd
       0.103208974 -0.14709744 0.009304814 -0.059950363
000030 36 38 3b 3d 21 74 00 be 94 9e 8b bd 30 09 5d be
       0.045707904 -0.125443 -0.06817356 -0.21585536
000040 f4 0d e8 bc 98 68 99 bb db 96 4e be 8f 56 40 bd
       -0.028326966 -0.004681658 -0.20174734 -0.04695755
000050 6c 7a f2 3b 59 4a 02 bd 1c e1 45 3e 8a d7 c2 bd
       0.0073998477 -0.031809185 0.19324154 -0.09513767
000060 d1 20 ef be 6a ef 55 be c0 5b 3a be 06 0e bc be
       -0.46704724 -0.2089211 -0.18199062 -0.3672945
000070 e2 fc e1 be 92 0b 2b 3e 2c 45 01 bd 43 2b 80 be
       -0.44138247 0.16703632 -0.031560108 -0.25033006
000080 e0 e9 d3 bd 84 3d 57 3d 04 c4 d0 bd 14 3d a7 3e
       -0.103473425 0.0525489 -0.10193637 0.32663786
000090 c4 26 11 3e 63 c3 37 be 39 da 93 bc a7 17 c8 bd
       0.14174944 -0.17945628 -0.018048393 -0.09770136
0000a0 ce 8b 5e be 9f 31 11 be 9f 5e 61 3c 43 70 bc 3d
       -0.21733019 -0.14179085 0.01375547 0.092011
0000b0 95 0f 55 3e 37 ee 94 bd 20 7e 68 3d d4 72 7f 3e
       0.20806725 -0.072719984 0.056760907 0.24946147
0000c0 5d 82 76 be 71 d9 f2 bd b8 55 e5 3d e5 c6 88 bd
       -0.24073167 -0.1185788 0.1119799 -0.06678561
0000d0 7b 65 42 be d4 ca 0a bd 5d 5e cc be bb 31 c6 3b
       -0.18984024 -0.03388484 -0.39915743 0.006048409
0000e0 e4 d3 17 be 2a dd 40 3e 2c 77 e4 bc 1e 05 8b be
       -0.14826924 0.18834367 -0.027888857 -0.27152342
0000f0 f6 6c 91 3e a5 2a fd 3d d1 07 ec 3d eb 5a fe bb
       0.28403443 0.123616494 0.11524928 -0.007762303

decoder.2.weight f4 [784, 64]
000000 e0 bf f6 3d de d7 92 bd 08 0c e4 3c ac ff 7f bd
       0.12048316 -0.0717008 0.027837768 -0.062499687
000010 5a 60 9d bd 20 2a f9 bc 70 b1 40 3d b2 a4 8c bd
       -0.07684393 -0.030415595 0.047044218 -0.06867351
000020 28 b7 b8 3b 12 7f 80 bd 00 77 1e be 90 14 99 bd
       0.0056370683 -0.06274237 -0.15475082 -0.07474625
000030 f1 c1 da bb 1f 2e 85 3c 0f 2d 21 3d 2a cd d9 bd
       -0.0066759516 0.016257344 0.03934961 -0.10634835
000040 56 b5 b4 ba a6 e4 ed bd 94 4f 00 bd c7 52 df bd
       -0.0013786952 -0.11615877 -0.03132589 -0.109044604
000050 a8 c8 41 bd a0 23 0f be d7 b2 98 bd 3f 2d ce bd
       -0.0473105 -0.13978434 -0.07455986 -0.10067224
000060 10 84 60 3d 90 b3 1b bc 4a c1 1a be 36 43 92 3d
       0.054813445 -0.00950326 -0.15112796 0.07141726
000070 70 c8 02 3c dc da 9d bc 4e 44 ab bd a4 bf 9e bd
       0.007982358 -0.0192694 -0.083626375 -0.07751396
000080 00 09 17 3c 38 47 21 bd ca 2c d0 bd 87 51 09 be
       0.009218454 -0.03937456 -0.10164793 -0.13410006
000090 f3 f1 28 be 4c e8 31 bc 84 50 19 be c6 bf 0e be
       -0.16498546 -0.010858607 -0.1497212 -0.13940343
0000a0 46 8d d5 bd 33 8d fb bd 0a d9 98 bd 98 88 a2 3d
       -0.104273364 -0.12282791 -0.07463272 0.079362094
0000b0 d2 7c 30 bd b8 bf 21 be e0 4a 97 bb 98 99 d0 3c
       -0.043087788 -0.15795791 -0.00461708 0.025463864
0000c0 10 af b7 bc fd e2 c7 bd 22 22 40 be 6a 0d 59 bd
       -0.022422343 -0.097600915 -0.1876302 -0.05299131
0000d0 6c 5f 55 bd a4 bc 23 bd a8 12 aa 3c fc b5 de 3d
       -0.052092955 -0.039974824 0.02076085 0.108745545
0000e0 24 d0 19 bd 42 e2 93 bc 84 b8 0d 3d e6 d0 a6 bd
       -0.037552014 -0.018052224 0.034599796 -0.08145313
0000f0 6e 8d 9b 3d de 51 2a bd 00 f8 29 be 76 0d 9c bd
       0.07595335 -0.04158198 -0.1659851 -0.07619755
000100 d4 9a 8e 3d 16 13 62 3c c0 09 a9 bd 5c f3 a8 3d
       0.06963125 0.013798496 -0.08253813 0.08249542
000110 c8 fc fd bd a4 a3 73 bd 04 38 35 bd c2 09 ab bc
       -0.1240173 -0.05948223 -0.044242874 -0.020878676
000120 2f 1a 42 be 74 52 24 3c fc c4 9d bc c9 89 30 bd
       -0.18955301 0.010029424 -0.019258969 -0.043100152
000130 b6 19 44 bd 5f fd 4e be 42 01 df bc 00 3c 72 39
       -0.047876082 -0.20213841 -0.02722228 0.0002310127
000140 dc f5 44 be d0 f4 f6 3c 00 81 08 bd 82 7f 0e be
       -0.19234413 0.030146033 -0.03332615 -0.13915828
000150 4c 0b 7c bd 56 42 b9 bd a3 23 53 bd cf ef de bc
       -0.06153421 -0.09045856 -0.051547658 -0.027213959
000160 d6 35 8d bd 40 e4 20 bc 96 d7 41 3d de ae 93 bd
       -0.06895034 -0.009820044 0.04732474 -0.07211088
000170 44 eb 13 3d 90 0e b5 bc e7 81 d7 3c 80 32 a2 3d
       0.03611304 -0.02210167 0.02630706 0.07919788
000180 fe 6a 80 3c a4 88 71 bd 52 10 f6 bd 95 b3 87 bc
       0.015676018 -0.0589682 -0.120148316 -0.016565124
000190 eb 20 fe ba a0 06 05 bd 3b e4 a9 bd 09 a1 0d be
       -0.0019388472 -0.03247702 -0.08295485 -0.13830961
0001a0 78 f3 90 bd e2 26 28 3d a6 c6 83 bd 48 e1 0f 3d
       -0.07077688 0.041052707 -0.064343736 0.035126954
0001b0 94 63 1d bd 3c 2b 38 3c 4a d9 b0 3d 35 a2 15 bd
       -0.038425043 0.011240777 0.086351946 -0.036531646
0001c0 40 f2 37 bb 73 42 18 bd 30 5c 1b be e7 a6 2f bd
       -0.0028067976 -0.037172746 -0.15171885 -0.04288378
0001d0 e0 e6 eb 3b 00 8b 11 be 92 c4 b3 bc 97 48 31 be
       0.0071991533 -0.1421318 -0.021944318 -0.17312847
0001e0 71 be 2f be 12 db 50 bd d1 18 45 3b 89 3d 0f bd
       -0.17162491 -0.05099017 0.0030074606 -0.034970794
0001f0 e8 ce 47 3c bd bf 3d bd 01 45 66 bd 7e 8a 09 be
       0.012195326 -0.046325434 -0.05621815 -0.13431737
000200 e4 53 e2 3d 14 4e 74 be 9c ce d9 bd 14 23 e0 3d
       0.11051157 -0.2385791 -0.10635111 0.109441906
000210 10 e5 77 bd 84 c2 06 bd 8c 54 ac 3d 61 a4 32 3c
       -0.060521185 -0.03290035 0.084145635 0.010903449
000220 bd 91 2a be cd eb b7 bd 08 85 88 3d e8 04 ab bc
       -0.16657157 -0.08980522 0.06665999 -0.020876363
000230 26 14 33 bd ca 46 a0 bd 34 15 86 bc f8 6f 8e 3c
       -0.043720387 -0.07826002 -0.016367532 0.017387375
000240 d3 fc 06 3d 98 78 23 3d 60 20 85 3b f2 1a 5d bd
       0.032955956 0.03990993 0.0040626973 -0.053980775
000250 cc 0e ad bd 2a c3 2f be a8 f9 82 bd a0 48 32 bc
       -0.08450088 -0.17164293 -0.063952744 -0.010881573
000260 88 ea 84 3d 58 16 cb bc 9a 65 83 bd a0 b5 38 bc
       0.06490046 -0.024790928 -0.06415863 -0.0112737715
000270 ba c0 94 bd e8 11 75 bc 9c af 0b be 38 4d 84 bd
       -0.07263322 -0.014957882 -0.13641208 -0.06460041
000280 3c a5 a8 3d c8 a3 56 3d 14 7c 33 bd e8 24 16 be
       0.08234641 0.052402288 -0.043819502 -0.14662516
000290 81 27 01 be 58 5a 96 bc 68 46 42 be 0e 35 9c 3d
       -0.12612726 -0.018353626 -0.1897217 0.07627307
0002a0 e0 98 6f 3d 91 94 df bd 00 71 f3 3c 7e b1 c9 bd
       0.058495402 -0.10917009 0.029716969 -0.09848307
0002b0 fc a2 e4 bc ce 7a 0c 3d 34 8b b7 3d 00 07 96 ba
       -0.027909748 0.034296803 0.08962098 -0.0011446178
0002c0 e9 3c 19 3d e4 7d 98 3d fe ad 0c be 61 d6 de bd
       0.037411604 0.07445887 -0.13738248 -0.10880733
0002d0 10 87 4d bd 34 ba af 3d 30 8f 97 3c 28 85 d6 bc
       -0.050177634 0.08580437 0.018500894 -0.02618654
0002e0 e0 53 7f 3d 11 84 1a be ee c6 bc bd 8a 65 e6 3d
       0.06233585 -0.15089442 -0.0921763 0.11249836
0002f0 15 c2 86 bd 86 0a 0a be c2 13 35 be cc 78 98 bd
       -0.06579987 -0.13480577 -0.17683318 -0.07444915
000300 b8 91 f4 bc 80 65 19 bb 0f 0f fc bb 08 97 ef 3d
       -0.02985464 -0.0023406446 -0.007692225 0.11698729
000310 1c ba f9 bd 1a 65 bf 3d 94 ac 56 3d 3d 5c ed bd
       -0.12193701 0.093454555 0.052410677 -0.11589859
000320 11 71 32 be 70 0d 44 be 70 c7 46 bd fe 3d 5d bb
       -0.17425944 -0.19145751 -0.048530042 -0.0033758874
000330 c5 ac 0c be a0 b7 cb 3b 63 c3 17 3d 3a 96 a8 bd
       -0.13737781 0.006216958 0.03705157 -0.082317784
000340 57 0b d7 bd 02 b5 cf bd 94 eb 40 be 8a 98 d9 bc
       -0.1050021 -0.101419464 -0.18839866 -0.026561994
000350 fc 0e 7f 3d d9 25 3b 3d f8 a2 48 bd 64 d5 0b 3d
       0.06227015 0.04569039 -0.048983544 0.034139052
000360 40 b9 27 bc 28 cb 04 bd ae 3c 07 be ce 65 cb 3d
       -0.010237038 -0.032420307 -0.13206741 0.09931527
000370 3a af b4 3d 4c da 26 be 14 6d 4e 3d 40 e5 ab 3b
       0.08822484 -0.16294211 0.050396994 0.0052458346
000380 52 17 fc 3d e6 7c c3 bd c8 f9 97 3d a9 7a c4 3c
       0.123091355 -0.09545307 0.07420689 0.02398427
000390 42 2a b7 bd a0 41 75 3d a8 26 46 be 82 51 f7 bd
       -0.08943607 0.059877038 -0.19350684 -0.12076093
0003a0 d0 20 42 3d 1d 65 f9 bd bc d2 e9 3d 40 0d d4 bd
       0.047394574 -0.12177489 0.114171475 -0.1035409
0003b0 05 52 d6 bb 4b d0 89 bd 4a eb d9 bd 98 79 90 bd
       -0.006540539 -0.06729182 -0.10640581 -0.07054442
0003c0 7e d9 8a 3d 01 6c f2 bc fd 73 3d 3d d8 1b ec 3c
       0.067797646 -0.029592516 0.046253193 0.02882187
0003d0 c6 bd f5 3d 3f 9f e9 bb fb 72 a1 bd 3b db 09 bd
       0.11999087 -0.0071295793 -0.07883259 -0.03365634
0003e0 03 18 0f be 52 fd 99 bd 07 44 2b be 84 ca ae bd
       -0.13974003 -0.0751902 -0.16725169 -0.085347205
0003f0 fc d8 e5 bd 6b af 0c be 41 62 4a 3c 14 e3 7c bd
       -0.11223027 -0.13738792 0.012352527 -0.061739996

decoder.2.bias f4 [784]
000000 91 3e 42 3c 08 d4 b3 bc 89 43 51 3c d6 d7 bf bd
       0.011855737 -0.02195169 0.012772449 -0.09367339
000010 ab 27 13 be 64 32 29 bd 75 b5 1f be 1c 69 8d bc
       -0.14370601 -0.041307822 -0.15596564 -0.017262034
000020 d9 cf 9c bd d3 7a 21 be 45 e8 aa bd a9 22 0f be
       -0.07656831 -0.1576951 -0.08345083 -0.13978066
000030 88 1f 2d be 6d a9 03 bd b8 e0 3f be f7 bd 0a be
       -0.1690656 -0.032144 -0.18738067 -0.13549028
000040 b7 67 3a be d0 6d de 3c c0 18 b0 3c 83 3a f3 bc
       -0.18203627 0.027151972 0.021496177 -0.029690986
000050 c0 77 0b bd 8d cc 24 be 2c 48 1f bd 3e 0a 1d be
       -0.03404975 -0.16093655 -0.038887188 -0.15335938
000060 45 5c 2b be d9 d8 f2 3c 26 45 b6 bd 70 4e 38 be
       -0.16734417 0.029644417 -0.08899908 -0.17998672
000070 9d aa 0b be 2b 3f 6f bd f9 59 42 bb 4d 6e 42 be
       -0.13639303 -0.05840985 -0.0029655679 -0.18987389
000080 0a 7f 08 bd 7a 93 89 bd e8 84 60 bb 4e 60 9c bd
       -0.03332428 -0.06717582 -0.0034258906 -0.07635556
000090 3b 28 1a be 7a b6 b3 bd 4b fc 36 be 47 31 d5 3b
       -0.15054409 -0.08775039 -0.1786968 0.0065061185
0000a0 88 11 fc bb 17 d2 79 bd e9 3d db 3b 2f 02 be bd
       -0.0076925196 -0.060991373 0.00669073 -0.0927776
0000b0 f7 29 06 bd f2 73 1c be 6d ae 25 be 9a 4c 85 bd
       -0.032754865 -0.15278605 -0.1617982 -0.06508751
0000c0 05 b5 23 be 1c 92 4c bd fe eb 32 be 9c a4 76 bc
       -0.15987022 -0.04994403 -0.17472836 -0.015053894
0000d0 b5 a3 e4 bd 9b bb 97 bd a1 83 c8 3c a0 1a f9 3c
       -0.11164037 -0.0740883 0.024476828 0.030408204
0000e0 14 81 f8 bd 09 df a7 bd 86 33 d1 bd dd 3f 60 bd
       -0.12133995 -0.081968375 -0.102149054 -0.054748405
0000f0 4d 1b 17 bd be 4d c9 bd 75 87 a8 bd c6 07 6d be
       -0.03689127 -0.09829281 -0.082289614 -0.23147497
000100 a3 85 8a bc 7c 6d f5 bd 49 14 e0 3b ba 2e d8 bd
       -0.016909426 -0.11983773 0.0068383557 -0.105557874
000110 2c b6 24 be ee 9c a2 be 1a c0 34 be 0d 1c 9f be
       -0.16085118 -0.31760353 -0.17651406 -0.3107609
000120 a1 79 f4 bc 6a d5 b1 bd ef 06 10 bd 8e 69 c5 bd
       -0.029843153 -0.086832836 -0.035162862 -0.096392736
000130 d8 f5 66 bd 21 18 01 bd 8a 91 38 3c 4e f7 af bd
       -0.0563868 -0.03151715 0.011265168 -0.085920915
000140 a9 81 09 be c5 eb bf bd 1d b9 83 bc 19 62 6a bd
       -0.13428368 -0.09371141 -0.01607948 -0.05722246
000150 97 62 9d bd cd 0d df bd ed bb 35 bd b7 06 d6 bd
       -0.0768482 -0.10891304 -0.044368673 -0.104504995
000160 35 e1 50 bc b0 7b 33 bd 67 9b 4c be 97 13 00 be
       -0.012749006 -0.04381913 -0.19981156 -0.12507473
000170 04 51 01 be a6 c0 2f bd ef 67 b8 bd fd 84 9b bd
       -0.12628561 -0.042908333 -0.09004199 -0.07593725
000180 95 3a 17 3d 5c fe 56 be a2 b8 04 be 7e 54 ff bd
       0.036921103 -0.20995468 -0.12961057 -0.124672875
000190 07 bc 06 be fb aa 43 bd 1d bb df bd 40 68 6e be
       -0.13157664 -0.04777048 -0.10924361 -0.23281956
0001a0 a3 de 19 be 89 e5 22 be 45 7a 2d be ce 0e 88 bd
       -0.15026335 -0.15907873 -0.16941173 -0.06643449
0001b0 c2 ba 48 3d fd d9 da bd dc 1b d2 bd 66 29 a4 bd
       0.04900623 -0.10686109 -0.1025922 -0.080157086
0001c0 6b ad 1b be ff b7 2c bd a4 d0 ed bc 94 a2 0f be
       -0.15202872 -0.04216766 -0.029030152 -0.14026862
0001d0 ce 3a 10 bd fa 1e 62 3d 91 43 af bd 47 73 50 bd
       -0.03521233 0.055205323 -0.08557809 -0.050891187
0001e0 c8 32 a1 bd 05 2a 24 be f3 f2 37 be 0a c2 09 be
       -0.07871014 -0.16031654 -0.17963772 -0.13452926
0001f0 99 f2 de bd c6 5b 8e 3d 82 9b 95 be a3 8a 02 bf
       -0.108861156 0.06951098 -0.29220206 -0.5099279
000200 bf 49 a2 be 5b a7 0a be eb 1b 36 be b6 94 84 be
       -0.3169689 -0.13540404 -0.17784087 -0.25894707
000210 4d c0 4c bd d6 2b 29 be 89 94 8f bd 63 ff 06 be
       -0.04998808 -0.16520628 -0.07010753 -0.1318336
000220 02 e9 20 3a db 66 36 be 02 90 c2 bd 00 26 b3 bd
       0.00061382365 -0.17812674 -0.095001236 -0.08747482
000230 01 5d 00 be e1 0f 49 be 60 e9 7c bc a0 12 e6 bd
       -0.12535478 -0.19634964 -0.0154365 -0.11234021
000240 19 d8 cf bd bb d7 35 be 88 60 60 3c 78 21 a5 be
       -0.10148639 -0.17758076 0.01369489 -0.32252097
000250 dd 2b 65 be d2 8f 4b 3d af d5 bc 3d 9c 10 77 3e
       -0.22380014 0.049697705 0.092204444 0.2412743
000260 be 02 a1 3e a5 14 83 3e e6 b2 53 be 18 21 9e be
       0.31447405 0.25601688 -0.20673713 -0.30884624
000270 04 9a f8 bd 2b 3d 94 be fc 66 d0 be e2 f0 93 be
       -0.12138751 -0.28952917 -0.4070357 -0.28894717
000280 5e 86 60 be 36 e2 06 be 15 fc e9 bc 74 95 bb be
       -0.21926257 -0.1317223 -0.028562585 -0.3663746
000290 52 b9 cf bc 02 e1 1f bd d9 2b 3d be cc ad da bd
       -0.025356922 -0.039032944 -0.18473758 -0.106776804
0002a0 c7 f4 26 3d 2b 2a b8 bd 5d e1 ad bd f3 2c b7 bd
       0.04076078 -0.08992418 -0.0849025 -0.0894412
0002b0 26 9c d0 bd 38 d3 89 bd cb 58 12 be e0 ba 88 bb
       -0.10186033 -0.0672974 -0.14291684 -0.004172668
0002c0 e8 d1 42 be ad c8 67 3e dc 96 06 3f 8d 39 17 3f
       -0.19025385 0.22635145 0.52573943 0.5907219
0002d0 8b 9d 22 3f 43 3c 1e 3f de 58 b5 3c 61 99 4e be
       0.6352164 0.618107 0.022137102 -0.20175697
0002e0 f7 c8 62 be 50 67 23 be 9a c6 1a bd ba ff 6f 3d
       -0.22146975 -0.1595738 -0.037787057 0.05859349
0002f0 50 74 8f 3c 08 05 01 3e 53 46 98 ba 5e bc af bd
       0.017511517 0.12599576 -0.0011617638 -0.0858085
000300 01 3e 96 bc 60 0e 4c be ac 94 e0 bd 61 a7 0d be
       -0.018340113 -0.19927359 -0.10965857 -0.13833381
000310 77 f8 38 be 10 f0 c7 bb 1f b7 81 39 db 41 13 be
       -0.18063532 -0.0061016157 0.00024741233 -0.1438059
000320 88 4a 1a be 40 51 d4 bd a2 e3 95 bd ce a5 5b 3c
       -0.15067494 -0.1036706 -0.07318808 0.01340623
000330 21 e6 44 3e c8 c2 0f 3f 7f e1 2f 3f 42 b8 43 3f
       0.19228412 0.5615659 0.68703455 0.7645303
000340 77 2a 50 3f 8c 7c 0e 3f 99 47 ab 3d 3a ec 02 be
       0.81314796 0.55658793 0.083632655 -0.12785426
000350 42 eb a4 bd 56 03 1d 3e 71 47 bc 3e d3 d2 d8 3e
       -0.08052684 0.15333304 0.36773255 0.42348346
000360 0c fb cf 3e 7f 65 a1 3e 82 61 50 3e ed 0d 5b 3e
       0.4062122 0.31522748 0.20349696 0.21392031
000370 c3 a0 12 be 12 af 4c bb 84 98 10 be df 52 16 be
       -0.14319138 -0.003123228 -0.1412068 -0.1468005
000380 22 14 d3 bd f3 0f e9 3c 52 9d de bd 0f 41 01 be
       -0.103065744 0.028449988 -0.1086985 -0.12622474
000390 b3 66 46 bc c0 fa 81 be 23 c2 3d be 0d 8c 91 bc
       -0.012109446 -0.2538662 -0.18531089 -0.017766977
0003a0 e6 2e ab 3e 15 76 0d 3f e4 32 12 3f 30 58 cd 3e
       0.33434218 0.55258304 0.571089 0.40106344
0003b0 c0 60 c5 3e 11 03 2f 3e 39 e5 d7 bd 1b 56 0e be
       0.38550377 0.17091013 -0.105417676 -0.13900034
0003c0 37 55 b0 bd 34 39 5d 3e 7e 51 e8 3e 0b 53 f0 3e
       -0.086100034 0.21603853 0.45374674 0.46938357
0003d0 e6 07 cc 3e 4b 45 95 3e d2 04 0e be da d1 52 3d
       0.39849776 0.2915443 -0.13869026 0.05146966
0003e0 ef 95 14 be f6 38 92 be 50 06 2b be 56 b6 03 3d
       -0.1451032 -0.28559083 -0.16701627 0.03215631
0003f0 8d 18 d8 bc 84 84 2c be eb 8e d9 bd 53 e6 ae be
       -0.026378894 -0.16847426 -0.106229626 -0.34160098
