20220518230.pt (torch, 424079 bytes, 8 tensors)

encoder.0.weight f4 [64, 784]
00000000: 61df 6dbc acd2 f03c 90ec 9a3c bedd 973c
00000010: 336b 11bd 30a0 82be e187 eabf 9671 ffbe
00000020: f142 60bf 0630 2ac0 064e 6fc0 567d 17c0
00000030: 20c7 4bc0 d46a 09c0 cb25 89c0 86ad 1ac0
00000040: 6c78 1e3e cf9d 84bf 4b23 d6bf 1b2c cdbf
00000050: 56ed 01c0 e838 12c0 e4b3 a1bf f087 bdbf
00000060: 230f c1bc 4a5d e0bb 01e4 f7ba acb7 c1bc
00000070: e36c 8abc 4a3c f5ba f8ce 8c3f 8000 cb3e
00000080: a00b f1bf 71e1 59bf 27ad 9fbf ebee 8fc0
00000090: 08fc 6ac0 e549 71c0 4b6e 79c0 3fec 56c0
000000a0: 87bc 13c0 0a4b 46c0 7ad2 b6bf 41c5 92be
000000b0: 156d d7bf 587b a2bf bdce bbbf 066f 6ebf
000000c0: ffdb 4abf 6793 19c0 636d 69c0 b890 51c0
000000d0: b44a 88be 6cd5 df3f 2545 caba 43f6 e1bc
000000e0: 25af 833c 251b 6d3c ecc1 7b3e 9305 13bf
000000f0: d348 3b40 0beb 43c0 6448 363d 5814 ca3d
00000100: f032 1ec0 66a8 15c0 2a90 7bbf 4321 8bbc
00000110: f01f 28bf 5ba0 7abf 856e 82bf 69f1 bf3d
00000120: 142f 41bf 9d22 7abf 221a 10bf cd71 98bd
00000130: 7575 0fbf 9563 d1be b12e 7cbe 3dfb a0be
00000140: 2e1c ddbf 7c28 213f f6dc 153e c0e6 8bbc
00000150: d821 013d d421 48bf 9eaa 36bf af7e 4fbf
00000160: edc1 cdbe fd07 a0bf c87f 13bf f07f 4b3f
00000170: 0b12 80be ef2d c83e c50c 00bf 24d5 2b3c
00000180: a15b 69bd bac1 363e 9de9 843d 676a 2ebe
00000190: 32ae 7c3e 0695 88bd f019 a5be 5dd7 86bd
000001a0: 51bb a73d e5f3 86bd 08ed 243e af67 25bf
000001b0: a062 16be 25b6 ad3e 4d4a c7bf 81bb 833f
000001c0: eea9 86bb 5569 a63f 4fc7 87bf d01f 9abc
000001d0: 193c b0bf 5b65 a73f 39c9 09bf 2a53 193e
000001e0: 7b62 bdbe 04a3 803e 20a6 d93c 024e 223e
000001f0: 3a15 8c3d 46e4 1e3c d640 7f3e 91ce 0e3a
00000200: 39c7 e03d a097 263c f4cd 88bd e631 893e
00000210: 75a4 3abe b104 433e 427d 5dbd 62d0 b23d
00000220: 31d7 113f 8acc bebf f0f7 f83d adbf d7be
00000230: ea6f 60bc 04f5 e0be f591 a9bf 9c8f 673f
00000240: 627d 9bbe 1627 f6be 580d 1c3e 17f1 44be
00000250: a098 b03e a649 21be c3a6 a4bd 98e0 c83c
00000260: ad28 913d bded 873d 9597 59bd fcf7 953c
00000270: b47c 3a3d 52ce 053e 00d4 593e 5fcf 183d
00000280: e99a a2bd 966d 383d 9b2d 75bd 5af3 29be
00000290: 287d 113f 1142 0bbf 2f74 27bf a648 e43e
000002a0: 5f4e cfbe 1ede eabf 6dcd fb3f 04e5 50be
000002b0: d8e4 023f 4f4f a1bd ff1e 3cbb bf5b c4bc
000002c0: a824 263e a095 bcbd f0b7 5b3d a65a e2bc
000002d0: aa5c 06be a97d d03d b555 17be b7a4 c33d
000002e0: 9e07 4d3d 8e35 e33d 9a55 a43d 7576 6d3e
000002f0: 65d3 febd 6f31 823d 5b22 8ebe 6e4e 193e
00000300: a4af cabe f4cb 4a3e 740b 47bf 9447 bd3f
00000310: 8c8d 123f f537 c63f 526a a5be 44e9 1e3f
00000320: a14f e7be ea84 81bd 9aef 4c3d cf53 cf3d
00000330: 0e3c 5ebe 6f2b 2f3d 1fe4 f93d c729 b2bd
00000340: 1e58 03be 4d03 2ebd 5753 7a3d d48e 5e3d
00000350: 55ee efbd 7266 3d3e 5a07 cf3d ac02 b7bd
00000360: fd3e 93bd 1fdf 103d d4c8 9ebe a2d4 9dbd
00000370: 8347 d33e 04e6 58be de36 83bf 7dde 673f
00000380: 36fe 8f3e d6d0 2c3d 5331 6ebf 6e88 283f
00000390: 6d9f 1bbe 6c9a 723e f5e7 3abe cd47 41bd
000003a0: fce5 9b3d a123 fbbd 722c f1bd 8434 223e
000003b0: 5683 5f3d 2713 2f3c 382b be3d 5eb2 d33d
000003c0: 5e84 063e a5a5 d03c 3af4 723d b9bf a13d
000003d0: 71e3 383e 06c9 afbd e35c cd3d cdf5 a8be
000003e0: 415a 07be ff96 cebe 7ea0 18c0 786f 8a40
000003f0: d556 453f 57ed 5cbe f5e9 ab3e 62e4 15be
-0.01451859 0.029397331 0.01891163 0.018538352 -0.035502624 -0.25512838 -1.8322717 -0.49891347
-0.87602144 -2.659181 -3.7391372 -2.367025 -3.1840286 -2.1471453 -4.2858634 -2.416841
0.15475625 -1.0360659 -1.672952 -1.6029085 -2.0301108 -2.2847233 -1.2633023 -1.480711
-0.023566788 -0.0068470584 -0.0018912555 -0.023647152 -0.016897624 -0.0018709984 1.1000662 0.3964882
-1.8831673 -0.8510962 -1.2474717 -4.497915 -3.6716328 -3.7701352 -3.8973567 -3.3581693
-2.3083818 -3.09833 -1.4282982 -0.28666118 -1.6830164 -1.2693892 -1.4672467 -0.9313816
-0.7924194 -2.3996217 -3.6473014 -3.274458 -0.26619494 1.7487006 -0.0015431984 -0.027583247
0.016074726 0.014471804 0.24585694 -0.5743038 2.9263198 -3.061221 0.04450263 0.098671615
-2.471859 -2.3384032 -0.9826685 -0.016983634 -0.6567373 -0.97900933 -1.0189978 0.09372217
-0.7546246 -0.97709066 -0.56289876 -0.07443581 -0.560386 -0.40896288 -0.24627186 -0.3144168
-1.7274225 0.629524 0.14635071 -0.017077804 0.031526417 -0.7817662 -0.7135409 -0.8105268
-0.40187016 -1.2502438 -0.57616854 0.7949209 -0.25013766 0.39097545 -0.50019485 0.010487828
-0.05697215 0.17847338 0.06489871 -0.17032777 0.24675825 -0.06669049 -0.3224635 -0.06584046
0.08190025 -0.06589488 0.16106045 -0.64611334 -0.1468606 0.33928028 -1.556955 1.0291597
-0.0041096127 1.3000895 -1.0607699 -0.018813998 -1.376834 1.3077806 -0.53822666 0.14973131
-0.36989197 0.2512437 0.026568472 0.1585007 0.06839986 0.009697979 0.24927077 0.0005447651
0.10975499 0.010167986 -0.066799074 0.26795882 -0.18226798 0.19044758 -0.054074533 0.08731152
0.5696898 -1.490617 0.12156665 -0.42138425 -0.013698557 -0.43936932 -1.3247668 0.90453506
-0.30369097 -0.48076695 0.15239465 -0.19232593 0.34491444 -0.15750751 -0.0803962 0.024521157
0.070878364 0.06637142 -0.053123076 0.018306725 0.045529082 0.13066986 0.21272278 0.03730714
-0.07939703 0.045026384 -0.059857946 -0.16596738 0.568316 -0.54397684 -0.6541166 0.44586676
-0.4048948 -1.8349035 1.9672066 -0.20399863 0.5113044 -0.07876455 -0.0028704999 -0.02396953
0.16224921 -0.09208226 0.053642213 -0.027631115 -0.13121286 0.10180218 -0.14778788 0.09552901
0.050056092 0.11094199 0.0802414 0.23189719 -0.12442664 0.06357085 -0.27760586 0.14971325
-0.39587128 0.19804364 -0.7775185 1.4787469 0.57247233 1.5485827 -0.32307678 0.62074685
-0.4517794 -0.063241795 0.05003319 0.10123407 -0.21702597 0.04276603 0.12201714 -0.08699375
-0.12826583 -0.042483617 0.061114635 0.05433543 -0.1171538 0.18496111 0.10108824 -0.089360565
-0.071897484 0.035369035 -0.31012595 -0.07706572 0.41265497 -0.21181494 -1.0251119 0.90573865
0.28123635 0.04219135 -0.9304401 0.65833175 -0.15197535 0.2369172 -0.18252547 -0.047187615
0.076122254 -0.12262655 -0.117760554 0.15840346 0.05456861 0.010685719 0.09285587 0.10336755
0.13136432 0.02546961 0.059314944 0.07897896 0.18055512 -0.08583264 0.10027482 -0.3300003
-0.13218023 -0.40349576 -2.3847957 4.326107 0.7708562 -0.21574913 0.33576933 -0.14637902

encoder.0.bias f4 [64]
00000000: 41b2 1e40 9e75 273f 0fd7 80bf bf6e 0c40
00000010: 46a6 1e40 e463 76c0 c7da 0340 4dd9 f13f
00000020: dae0 ce3f 16a6 be3f 6049 1940 5c4c 0f40
00000030: f18a cd3f c77a 3440 d85e 1740 879d f93f
00000040: ecb0 3b40 8f10 f63f e1db ff3f ff33 80be
00000050: 7ea7 5740 7177 3040 85ca 7b3e ecd2 363f
00000060: 6e57 ff3f 5b35 1240 183e be3f b9b3 2840
00000070: b63e 3dbe b42d 943f 56eb 843f 2211 b53f
00000080: 3694 ed3d 5dee cb3f 634e 4b40 7e54 db3f
00000090: 2312 1b40 25df 1b40 50e0 0c40 f3dc ca3e
000000a0: 88ac 693e 7454 c43d 04d8 0440 53c8 ad3f
000000b0: bf81 3b40 a4c3 0f40 a427 cc3f aeb1 fe3f
000000c0: 0f65 00bf 8c3e 12be fc88 aabf 899e 3a40
000000d0: 0091 703e af0c 0340 9b4e ee3f f671 3c40
000000e0: 3e67 003f d7ae 37bf 4cfc 6d3f 8756 b63f
000000f0: b3fb cb3f 1f92 4b40 950e 9f3f 208d df3f
2.4796298 0.65413845 -1.0065631 2.1942594 2.4788985 -3.8498468 2.060228 1.889444
1.6162369 1.4894435 2.3951035 2.2390356 1.6058027 2.8199937 2.3651638 1.9501199
2.9326735 1.9223803 1.9988977 -0.2503967 3.369598 2.7572901 0.24588974 0.7141559
1.9948556 2.2845066 1.48627 2.6359694 -0.18480954 1.1576447 1.0384319 1.4145854
0.116005346 1.5932118 3.1766593 1.713516 2.422982 2.4354947 2.201191 0.39621696
0.22819722 0.09586421 2.0756845 1.3576759 2.929794 2.246316 1.5949597 1.9897974
-0.50154203 -0.14281672 -1.3323054 2.9159262 0.23492813 2.0476491 1.8617738 2.9444556
0.50157535 -0.7175116 0.929631 1.4245156 1.5936188 3.1807935 1.2426325 1.7464943

encoder.2.weight f4 [32, 64]
00000000: 4580 ccbe 0199 e3bd e26b 9ebe 31b5 b4be
00000010: 19c1 36be 1b2e b73c 04c5 a2bd 6360 a33c
00000020: 8195 bc3a b0f7 2dbe e243 45bd e41c aebe
00000030: da8f 13bd 629b 0ebe 2f4e 9ebe 971b 223c
00000040: 666f 843d 97c3 4f3d a784 bbbd 8f64 3ebe
00000050: f7a4 1bbe 6a24 20be e2b1 d8bc 4f5f a3bd
00000060: f83c 083d dc8e e5be 5c08 ddbe 0f56 babe
00000070: 1350 d5be 93b7 c8bd c326 58bd 86b0 cebe
00000080: d75e 86be 3d66 32be 3e20 1fbe 91b0 d6be
00000090: 9f3f 5fbd 4874 14be 87c6 27be 75c2 dfbe
000000a0: 0917 47be 0e28 94be 55a4 613d ad91 4cbe
000000b0: 1d8a 0dbc 88bf 8cbd df5b f3be 6da7 d8bd
000000c0: d421 e2be 18c9 8abe 56ec 93be a1c8 3cbd
000000d0: f2bb 1fbe 8921 ccbe 3d4d 90be 54bd 10be
000000e0: 9fca 80be a62b dbbe 2dfd b13c 5d75 b5bc
000000f0: 3b57 c0be c63d ac3c 2564 3ebd cf0e 38be
00000100: 2382 513d 1b71 4ebb 51c5 c0be 9e6d 4cbd
00000110: e79c f63c 0116 0abc 2252 86be 9846 e1bc
00000120: 90d9 1f3d ccaa bfbd 3aa4 543d 9f1d c9bd
00000130: 8e6d b6bc 827c 32be 70d8 05be 2687 e03b
00000140: b3e7 30bd 6571 37bd e4c6 96bd c2fb bfbe
00000150: 9b84 bebd 209c 1fbe ee5a 7d3d 20d8 58bc
00000160: e463 27be 1f64 e1bd c0f6 09be d6f5 bebd
00000170: 2f11 83be 19f3 bbbd cc34 23be fb13 2dbe
00000180: 3e88 9dbe 9fa8 b5bd f446 36bc 10d3 aebd
00000190: fa69 febd ee8f 25be 7d6b 2ebe 6b32 8ebe
000001a0: 6519 c3be ed02 96be 5f35 053d 7549 3cbd
000001b0: d3a6 9abd a078 2abe f859 8ebe 5d1c 3abe
000001c0: e71a 8dbe 9c11 29be a91a 97bd 6e73 63bd
000001d0: 7f27 2abe a2d5 8abc 1036 39be 5e98 04be
000001e0: f019 c5be b8e0 93be 7e1e f73b 220c 01be
000001f0: ab84 2fbe 78d0 ccbd 5929 0fbe 6abc ad3c
00000200: e0da 2b3f 4526 acbd 1842 a23c cb32 023a
00000210: 567d d9be 0b35 033d 6a08 543e 6e59 cf3e
00000220: 37e7 1b3c 96e5 aa3c 6154 27bf e2e2 11bc
00000230: d8fd 07c0 63f0 72bc 0cc6 e5bc e47a 033f
00000240: cf66 4c3e 9f02 7ebe 4014 173d 6819 713d
00000250: 0ad1 94bf 9264 103d 0277 d93c 2e9c 103d
00000260: 3c8e 6f3e ec54 76bb 2b2f a63b 3c10 6dba
00000270: 90ab 6b3d 51a3 cebf 525a a63b c021 783c
00000280: 0d32 b13b 5439 0cbd 2f79 cfbf 6e71 cf3d
00000290: b8b4 5dbf f1cd eabe 505a 7a3d 1e23 bcb9
000002a0: d034 c8bc 16a2 f8bd 7ad8 dbbd f66b 84bd
000002b0: b6fc 803d 44cb b5bd 83ce 883e f697 82bc
000002c0: 1826 8dbb be9f a2bc 6eef f93b 32be 613d
000002d0: f586 6d3e af24 cabc d53f 353d c499 92be
000002e0: 04f8 a53c 46ce 443c d8fb a93c 17bc 12bd
000002f0: 5ad3 743d e957 1d3d 55fe 383c 299a 56bd
00000300: cca3 d43d 1ee2 463c 4f1f ee3c a6d2 5cbc
00000310: 6c54 3b3e 75d8 80bd 3cbe 533e 4900 453f
00000320: f064 8dba 5faf 713d 61e3 bfbe 33bf 5f3e
00000330: 5c89 3fc0 11bf 403d d519 7dbd 070e 4a3e
00000340: c225 ec3c 5a9d 9b3e d1cd 83bc 1a43 acbd
00000350: 100c 883e 58ae 13be 60b7 c93c 7eea 28bd
00000360: 2f2a a43d 6771 4e3d 87a0 663d 0e64 033e
00000370: f5fb 3d3b f6d0 25c0 6317 943e 26ec 90bc
00000380: a383 9ebd 87b3 c53d f2db 35c0 bf2c 45bd
00000390: b85c 5fbf c0db 4c3e 02ac 48bd 5ca6 fd3b
000003a0: 3627 253b 84d0 e8bc 4e92 13be feb5 1cbd
000003b0: 970f 65be 80a7 343e 48fc 923d 3755 b2bd
000003c0: 641f 4b3d 6048 273d 71aa 5fbd 8e61 ebbe
000003d0: 2c33 9a3e 8f25 773d b0ef 4d3c 8ac2 de3d
000003e0: bd62 e0bc deb2 6d3c 2b79 dd3d c3cc a53e
000003f0: c064 a7bc 539b 283e dd5f cd3d 68bb 0a3d
-0.39941612 -0.111131676 -0.30941683 -0.35294488 -0.17847098 0.022360852 -0.07947734 0.019943422
0.0014387817 -0.16989017 -0.04816044 -0.34006417 -0.03602586 -0.13926461 -0.30919024 0.009894273
0.0646656 0.05072364 -0.09156161 -0.18593048 -0.15199648 -0.15638891 -0.026452009 -0.07977163
0.03326127 -0.44835556 -0.4317044 -0.36393782 -0.41662654 -0.09800639 -0.05277134 -0.40369052
-0.26244232 -0.17421813 -0.15539643 -0.41931584 -0.054504033 -0.14497483 -0.16384326 -0.43703046
-0.19442381 -0.2893681 0.05508836 -0.19977446 -0.008638886 -0.06872469 -0.4753103 -0.10578809
-0.44166434 -0.27106547 -0.28891248 -0.046089772 -0.15599039 -0.39869335 -0.28183928 -0.14134723
-0.25154588 -0.4280674 0.021727169 -0.02215069 -0.37566552 0.02102555 -0.046482224 -0.17974399
0.0511495 -0.0031500522 -0.3765054 -0.049909227 0.030104114 -0.008428098 -0.26234537 -0.027499482
0.039025843 -0.09358749 0.05191443 -0.09820103 -0.022269037 -0.17430308 -0.13070846 0.0068520484
-0.043189716 -0.044785876 -0.07362154 -0.37496763 -0.09302636 -0.155869 0.061854295 -0.013235122
-0.16346699 -0.11005425 -0.13473034 -0.09324233 -0.25599048 -0.091772266 -0.15938109 -0.16902153
-0.30768007 -0.088700525 -0.011125315 -0.08536351 -0.12422557 -0.16168186 -0.17033191 -0.2777284
-0.38105312 -0.29299107 0.0325216 -0.04596849 -0.075513504 -0.16647577 -0.27803016 -0.18174882
-0.27559587 -0.16510624 -0.07378132 -0.055530004 -0.16616629 -0.016947571 -0.1808703 -0.12948748
-0.3849635 -0.28882384 0.0075414767 -0.12602285 -0.17140453 -0.100007 -0.13980617 0.021208007
0.6713085 -0.08405737 0.019806907 0.0004966675 -0.42478436 0.032033008 0.20706335 0.40497917
0.009515575 0.020861428 -0.65363127 -0.008904191 -2.1248684 -0.0148278205 -0.028048538 0.5135939
0.19961093 -0.24805687 0.036884546 0.05886212 -1.1626294 0.03525216 0.026546005 0.035305195
0.23394102 -0.0037587238 0.005071541 -0.00090432516 0.05753666 -1.614359 0.005076685 0.015144765
0.005407578 -0.03423436 -1.6208857 0.10129057 -0.8660388 -0.45860246 0.061121285 -0.0003588432
-0.024439245 -0.121402904 -0.10734649 -0.064659044 0.06298201 -0.088766605 0.26720056 -0.015941601
-0.0043075196 -0.019851562 0.007627419 0.055113025 0.23196013 -0.024675695 0.044250328 -0.2863294
0.020259865 0.01201207 0.020749971 -0.035823908 0.059771873 0.038413916 0.011291106 -0.052393112
0.10382804 0.0121388715 0.029067663 -0.013477957 0.18293923 -0.06291286 0.20678037 0.7695356
-0.0010787528 0.059005138 -0.37478164 0.2185028 -2.9927588 0.047057215 -0.061792213 0.19731914
0.028826598 0.30393487 -0.016089352 -0.08411236 0.26571703 -0.14421976 0.024623573 -0.041239254
0.080158584 0.050401118 0.056305435 0.12831137 0.002898929 -2.590879 0.28924093 -0.01769073
-0.077399515 0.09653383 -2.8415494 -0.048138376 -0.8725085 0.20005703 -0.048992164 0.007740779
0.0025200373 -0.02841974 -0.1441128 -0.0382595 -0.22369228 0.17642021 0.07177025 -0.0870766
0.049590483 0.040840507 -0.054605905 -0.45972866 0.30117166 0.060338553 0.012569353 0.10876949
-0.027390832 0.014507977 0.108141266 0.32382783 -0.020433784 0.16465501 0.1002805 0.03387013

encoder.2.bias f4 [32]
00000000: 6f95 a5be 59b6 7ebe 6a78 2a3f 15bc 823f
00000010: 7659 823f 6b12 cc3c 57e7 8abd d5e7 1abf
00000020: ed69 d2be 0ed3 d5be 4ee6 803f ded6 cf3e
00000030: 5fd6 85bd 29e7 04be 2db7 513f fb4a d93b
00000040: df56 21be 10b1 3a3d 03e1 413f 5e03 b83e
00000050: 961b 0cbe 7362 ccbd 1952 be3e 42ae 6bbd
00000060: 727f 703f 56b7 6abe f2e2 693f 6c81 003f
00000070: 364f 253d 79be 4f3e f33f 163f 2531 4b3f
-0.3234057 -0.24874248 0.6658999 1.0213648 1.0183551 0.024911126 -0.06782406 -0.6051
-0.4109644 -0.41762584 1.0070283 0.40593618 -0.06535029 -0.12978806 0.8192013 0.006631253
-0.15755795 0.045579016 0.75733966 0.3594007 -0.13682398 -0.09979715 0.3717201 -0.057539232
0.93944466 -0.229215 0.91361916 0.5019748 0.040358745 0.20287503 0.5869133 0.79371864

decoder.0.weight f4 [64, 32]
00000000: f1b3 81be 7c2c 92be f8f8 b7be e6e9 8abe
00000010: faf1 b7be 6fc3 93be d6c1 f4bd 95d0 ddbd
00000020: 4bbf d23e 1ab1 16bd 4dd5 e4bd f7fb e8be
00000030: 82f3 94be 02c9 923d fd30 dcbe e702 e8be
00000040: 53fa 98bd f596 b4be c756 5abe eebf a2be
00000050: f2aa 51be 1eaf bfbe 3e6a adbe d7bb d9be
00000060: 77cb 9a3e f8a8 d03e f320 db3e bd37 b8be
00000070: aeff 6b3e 6258 cebe 3eb2 5bbe 2f3e 233e
00000080: ecdc 93be 2433 71be f563 28bd 3c75 573e
00000090: 5163 3b3d 74ee 6bbc 6d79 74be 8244 abbc
000000a0: 3e84 933e 8141 5f3d 2d61 af3b 2547 183e
000000b0: 0f02 be3c 0b1e 9abd fa02 d3bd 59e4 bfbd
000000c0: 1017 8a3c 8017 9ebc b8d8 3bbd a632 f43e
000000d0: fadc 7dbe d1dc 19be 4991 c13b 41e6 3fbe
000000e0: d630 073e 3a7a 5a3d 49cd 223d 3d36 69bd
000000f0: cbf4 123e 24f6 e23d 311c 2e3e cf87 0fbc
00000100: e1d7 103e b835 ad3c a195 bbb9 58a8 c9bd
00000110: 617c 85bb a489 633e 40aa 063e 46de 3d3e
00000120: 18f8 35be 8fec 4bbd dd3c 74bd 4793 2cbd
00000130: 1f41 f23d c374 87bc dfa3 acbd 653a d9bd
00000140: f09c 1ebe 0ecb 143e 7273 b1bd bc95 3a3d
00000150: 74d0 3dbd 6396 4b3e 9ef1 19be 714b 593e
00000160: 329a bf3c b43a 5d3d 3c7b 1a3f 15eb 46be
00000170: f3c0 09be 1faf 06be e4e3 6a3c 12be 8d3d
00000180: 6ac3 bfbd 673c 8b3d 3401 babb e7d9 72be
00000190: 4368 efbd fcfa 0abe 4b7c 3bbe 9b4c f33d
000001a0: 16b7 2d3e 2460 e63d 15ba 4d3d 3d68 e7bd
000001b0: e429 22be 36c6 21be 8cfe d6bd 8d9e 893d
000001c0: 4588 a93c d485 c0bd 43c1 22be 6fa9 df3c
000001d0: e75d 51bd e838 b3bd dffd 3a3e 5bba 6abe
000001e0: f1d3 563d f624 c8bc 7b70 373e 4605 643d
000001f0: fdbd 2f3e ac5c 70be f41c e4bd 7046 1dbd
00000200: 45f1 d5bd cbe4 88be 7b74 edbd 354c 17be
00000210: 4bea 48be 73eb a9bd 21fe 6fbe ca9a b73d
00000220: db7d d83c 91ec 0f3e 0402 cbbc 7f5d a2bd
00000230: 0916 20be 7a38 64be 10d8 e93c 39fb 5abe
00000240: 35ef a33d 8877 46be 94e4 4fbe 1641 0dbe
00000250: cc46 8d3d 3673 31be c301 adbd f06b 5dbd
00000260: e477 03be 8fb8 7abd e499 8d3d 5c68 603e
00000270: ad18 6a3e f170 4cbe dc1b d0bd 1321 84bd
00000280: eabf a7bd 9e65 90be f872 8ebe 1273 a5be
00000290: c323 babe 0e56 adbe c98d c73b 4258 24be
000002a0: 68c7 873e b1ff d83d f74d 79be f01f 5ebe
000002b0: 9e5e 99bc f2d9 10bc 1ae4 0f3d d59c d6be
000002c0: c68c 88bc 1543 9abe dc5a 6fbe f56e 97be
000002d0: f6fd e0be 7130 95be dc01 78be 8db6 a5bd
000002e0: fc59 46be 2135 8a3e f8e9 b5be 077e a3be
000002f0: aff0 783e d442 7cbe 6262 d8be a938 033e
00000300: d183 a43d b8bf dabd 3a63 22be 8a76 f6bc
00000310: a087 8dbf 686d 18be 0e86 d83d 6318 20be
00000320: af02 1f3d a5e1 ef3d 8616 52be cded f2bc
00000330: f569 2bbe bbe3 b6be 54f6 323e 00ee 033e
00000340: dcb8 2dbe 9ea1 e53d 29cc 393d dfe2 5e3c
00000350: b909 8cbd 902c d2ba 7211 eb3b b73b 343e
00000360: 95ed 833b aa68 973d 7d34 a0bd 0e18 40bd
00000370: 6b2a 5ebd c283 0fbe 0573 023f 55a8 20be
00000380: 2601 90be c351 a4be 1103 dd3c b0ff 33bd
00000390: c253 adbc 9f48 8ebd 31e6 dabd 1f2b b2be
000003a0: 7947 373e 51e3 203e 4473 7a3d 3aa0 88bd
000003b0: edac 80be bb8b b1bd 8c51 893c a8c4 afbe
000003c0: 88ea 983e d0ee 7ebd 34bf e83e 70cd 323e
000003d0: 30f2 b6bd 54f0 a9be 0d9f 623d 3d23 3fbe
000003e0: 7a0c fe3c ae6d 413e 9a08 c93d e611 adbb
000003f0: efa8 343d 2b80 e43c 21b2 31bd 29b0 a03e
-0.25332597 -0.28549564 -0.35932136 -0.27131575 -0.359268 -0.28860041 -0.11951034 -0.108307995
0.4116157 -0.03678999 -0.111734964 -0.45504734 -0.29092032 0.071672454 -0.43006125 -0.45314714
-0.074696206 -0.3527142 -0.21322165 -0.31787056 -0.20475367 -0.3743829 -0.3387012 -0.42526123
0.30233356 0.40753913 0.42798576 -0.35980025 0.23046753 -0.40301806 -0.21454713 0.1594169
-0.28879488 -0.23554665 -0.04111095 0.21040815 0.045749012 -0.014400113 -0.23874445 -0.02090669
0.2881183 0.05450583 0.0053521604 0.1487089 0.023194341 -0.075252615 -0.10303302 -0.09369726
0.0168567 -0.019298315 -0.045860976 0.47694892 -0.24791327 -0.15025641 0.005907212 -0.18740179
0.13202223 0.05333922 0.039746556 -0.05693649 0.14351194 0.11082104 0.17002942 -0.008760407
0.14144851 0.02114378 -0.00035778902 -0.09846562 -0.004073665 0.22220474 0.13150883 0.18541822
-0.17770422 -0.049786147 -0.059628356 -0.042132642 0.11828827 -0.016535169 -0.084296934 -0.10606841
-0.15489554 0.14530584 -0.086645976 0.045552954 -0.046341375 0.19881587 -0.15033576 0.21220185
0.023388956 0.05401106 0.6034429 -0.19425614 -0.1345251 -0.13152741 0.01433656 0.06921019
-0.09363444 0.0679863 -0.005676413 -0.23715936 -0.11689808 -0.13572305 -0.18309133 0.11879846
0.16964373 0.11248806 0.05022629 -0.11299179 -0.15836293 -0.15798268 -0.1049777 0.06719694
0.020694861 -0.09400526 -0.15894036 0.027302472 -0.051114943 -0.087510884 0.18260907 -0.22922651
0.052448217 -0.024431687 0.17914002 0.05566909 0.17162319 -0.23472852 -0.11138335 -0.038397253
-0.10446409 -0.26737055 -0.115944825 -0.14775164 -0.19620626 -0.082968615 -0.23436786 0.089650705
0.0264272 0.14055087 -0.024781235 -0.07927989 -0.15633406 -0.22287169 0.02854541 -0.21384896
0.080046095 -0.19381535 -0.2030204 -0.1379436 0.06898269 -0.17329106 -0.08447602 -0.054058015
-0.12838703 -0.061211165 0.06914118 0.2191481 0.22860976 -0.19964959 -0.10161564 -0.06451621
-0.081909016 -0.28202528 -0.2782209 -0.32314354 -0.3635541 -0.33854717 0.0060899 -0.16049293
0.26519322 0.10595644 -0.24346147 -0.2169187 -0.018721875 -0.008841025 0.035129644 -0.41916528
-0.016668689 -0.30129305 -0.23374504 -0.2957684 -0.43943757 -0.2913852 -0.2421946 -0.080914594
-0.19370264 0.2699366 -0.35530066 -0.3193209 0.24310564 -0.24634868 -0.4226256 0.12814583
0.080329545 -0.10681099 -0.15858164 -0.03008582 -1.1057014 -0.14885485 0.10572444 -0.15634303
0.03882092 0.1171296 -0.20516405 -0.029654408 -0.16739638 -0.3572062 0.17476779 0.12883759
-0.1696505 0.11212467 0.045360718 0.013603895 -0.06837792 -0.0016035009 0.0071737105 0.17600904
0.0040261247 0.0739301 -0.07822511 -0.04689794 -0.05423967 -0.14015105 0.50956756 -0.15689214
-0.28125876 -0.3209363 0.026979001 -0.043945014 -0.021158103 -0.06947445 -0.10688437 -0.34798524
0.17898358 0.15711714 0.061145082 -0.06671186 -0.25131932 -0.086692296 0.016762517 -0.34329724
0.29866433 -0.062239468 0.45458376 0.1746118 -0.08932912 -0.33191168 0.055327464 -0.18665786
0.031011809 0.18889496 0.09816094 -0.0052816747 0.04410642 0.027893146 -0.043382768 0.313844

decoder.0.bias f4 [64]
00000000: 5040 68be cd59 2fbe a069 f43d f24d ecbd
00000010: 6874 873a 829b 60be 8b47 033e 8238 dfbd
00000020: 011f cf3d 766a 1cbe 3873 183c 308c 61bd
00000030: 7630 3f3d be23 06be ec39 94bd 3009 5dbe
00000040: f63c 38bd 9868 99bb db96 4ebe c300 2ebd
00000050: 6c7a f23b 89af 28bd 8aa3 463e e541 b5bd
00000060: d120 efbe 6aef 55be c05b 3abe 060e bcbe
00000070: e2fc e1be 49b5 323e 5ddb 7dbc 432b 80be
00000080: 3529 c9bd 843d 573d 04c4 d0bd 13df 963e
00000090: 731c 193e 63c3 37be e2bc 8eb9 a717 c8bd
000000a0: ce8b 5ebe 90d9 dbbd 9f5e 613c 4370 bc3d
000000b0: 6fa8 5f3e 50cc 87bd 207e 683d a308 7b3e
000000c0: 5d82 76be 71d9 f2bd 1bb9 da3d 581a 9dbd
000000d0: 7b65 42be e2af 2abc 5d5e ccbe c65b 6cbb
000000e0: e4d3 17be 06ea 383e e9fa e1bc 1e05 8bbe
000000f0: 883a 883e d4fb 083e 9503 ec3d 41b7 47bc
-0.22680783 -0.171241 0.11934209 -0.115383044 0.0010334374 -0.21934322 0.1282026 -0.1089945
0.101133354 -0.15274987 0.009304814 -0.055065334 0.046677075 -0.13099572 -0.0723761 -0.21585536
-0.044980012 -0.004681658 -0.20174734 -0.042481195 0.0073998477 -0.04118303 0.19398323 -0.08850459
-0.46704724 -0.2089211 -0.18199062 -0.3672945 -0.44138247 0.17451967 -0.015494195 -0.25033006
-0.09822313 0.0525489 -0.10193637 0.29467067 0.14952259 -0.17945628 -0.0002722508 -0.09770136
-0.21733019 -0.10734856 0.01375547 0.092011 0.21841596 -0.066307664 0.056760907 0.24515013
-0.24073167 -0.1185788 0.10679837 -0.0767104 -0.18984024 -0.01041791 -0.39915743 -0.0036065443
-0.14826924 0.18058023 -0.027585464 -0.27152342 0.26607156 0.13377315 0.11524121 -0.012189687

decoder.2.weight f4 [784, 64]
00000000: e0bf f63d ded7 92bd 080c e43c acff 7fbd
00000010: 5a60 9dbd 202a f9bc 70b1 403d b2a4 8cbd
00000020: 28b7 b83b 127f 80bd 0077 1ebe 9014 99bd
00000030: f1c1 dabb 1f2e 853c 0f2d 213d 2acd d9bd
00000040: 56b5 b4ba a6e4 edbd 944f 00bd c752 dfbd
00000050: a8c8 41bd a023 0fbe d7b2 98bd 3f2d cebd
00000060: 1084 603d 90b3 1bbc 4ac1 1abe 3643 923d
00000070: 70c8 023c dcda 9dbc 4e44 abbd a4bf 9ebd
00000080: 0009 173c 3847 21bd ca2c d0bd 8751 09be
00000090: f3f1 28be 4ce8 31bc 8450 19be c6bf 0ebe
000000a0: 468d d5bd 338d fbbd 0ad9 98bd 9888 a23d
000000b0: d27c 30bd b8bf 21be e04a 97bb 9899 d03c
000000c0: 10af b7bc fde2 c7bd 2222 40be 6a0d 59bd
000000d0: 6c5f 55bd a4bc 23bd a812 aa3c fcb5 de3d
000000e0: 24d0 19bd 42e2 93bc 84b8 0d3d e6d0 a6bd
000000f0: 6e8d 9b3d de51 2abd 00f8 29be 760d 9cbd
00000100: d49a 8e3d 1613 623c c009 a9bd 5cf3 a83d
00000110: c8fc fdbd a4a3 73bd 0438 35bd c209 abbc
00000120: 2f1a 42be 7452 243c fcc4 9dbc c989 30bd
00000130: b619 44bd 5ffd 4ebe 4201 dfbc 003c 7239
00000140: dcf5 44be d0f4 f63c 0081 08bd 827f 0ebe
00000150: 4c0b 7cbd 5642 b9bd a323 53bd cfef debc
00000160: d635 8dbd 40e4 20bc 96d7 413d deae 93bd
00000170: 44eb 133d 900e b5bc e781 d73c 8032 a23d
00000180: fe6a 803c a488 71bd 5210 f6bd 95b3 87bc
00000190: eb20 feba a006 05bd 3be4 a9bd 09a1 0dbe
000001a0: 78f3 90bd e226 283d a6c6 83bd 48e1 0f3d
000001b0: 9463 1dbd 3c2b 383c 4ad9 b03d 35a2 15bd
000001c0: 40f2 37bb 7342 18bd 305c 1bbe e7a6 2fbd
000001d0: e0e6 eb3b 008b 11be 92c4 b3bc 9748 31be
000001e0: 71be 2fbe 12db 50bd d118 453b 893d 0fbd
000001f0: e8ce 473c bdbf 3dbd 0145 66bd 7e8a 09be
00000200: e453 e23d 144e 74be 9cce d9bd 1423 e03d
00000210: 10e5 77bd 84c2 06bd 8c54 ac3d 61a4 323c
00000220: bd91 2abe cdeb b7bd 0885 883d e804 abbc
00000230: 2614 33bd ca46 a0bd 3415 86bc f86f 8e3c
00000240: d3fc 063d 9878 233d 6020 853b f21a 5dbd
00000250: cc0e adbd 2ac3 2fbe a8f9 82bd a048 32bc
00000260: 88ea 843d 5816 cbbc 9a65 83bd a0b5 38bc
00000270: bac0 94bd e811 75bc 9caf 0bbe 384d 84bd
00000280: 3ca5 a83d c8a3 563d 147c 33bd e824 16be
00000290: 8127 01be 585a 96bc 6846 42be 0e35 9c3d
000002a0: e098 6f3d 9194 dfbd 0071 f33c 7eb1 c9bd
000002b0: fca2 e4bc ce7a 0c3d 348b b73d 0007 96ba
000002c0: e93c 193d e47d 983d fead 0cbe 61d6 debd
000002d0: 1087 4dbd 34ba af3d 308f 973c 2885 d6bc
000002e0: e053 7f3d 1184 1abe eec6 bcbd 8a65 e63d
000002f0: 15c2 86bd 860a 0abe c213 35be cc78 98bd
00000300: b891 f4bc 8065 19bb 0f0f fcbb 0897 ef3d
00000310: 1cba f9bd 1a65 bf3d 94ac 563d 3d5c edbd
00000320: 1171 32be 700d 44be 70c7 46bd fe3d 5dbb
00000330: c5ac 0cbe a0b7 cb3b 63c3 173d 3a96 a8bd
00000340: 570b d7bd 02b5 cfbd 94eb 40be 8a98 d9bc
00000350: fc0e 7f3d d925 3b3d f8a2 48bd 64d5 0b3d
00000360: 40b9 27bc 28cb 04bd ae3c 07be ce65 cb3d
00000370: 3aaf b43d 4cda 26be 146d 4e3d 40e5 ab3b
00000380: 5217 fc3d e67c c3bd c8f9 973d a97a c43c
00000390: 422a b7bd a041 753d a826 46be 8251 f7bd
000003a0: d020 423d 1d65 f9bd bcd2 e93d 400d d4bd
000003b0: 0552 d6bb 4bd0 89bd 4aeb d9bd 9879 90bd
000003c0: 7ed9 8a3d 016c f2bc fd73 3d3d d81b ec3c
000003d0: c6bd f53d 3f9f e9bb fb72 a1bd 3bdb 09bd
000003e0: 0318 0fbe 52fd 99bd 0744 2bbe 84ca aebd
000003f0: fcd8 e5bd 6baf 0cbe 4162 4a3c 14e3 7cbd
0.12048316 -0.0717008 0.027837768 -0.062499687 -0.07684393 -0.030415595 0.047044218 -0.06867351
0.0056370683 -0.06274237 -0.15475082 -0.07474625 -0.0066759516 0.016257344 0.03934961 -0.10634835
-0.0013786952 -0.11615877 -0.03132589 -0.109044604 -0.0473105 -0.13978434 -0.07455986 -0.10067224
0.054813445 -0.00950326 -0.15112796 0.07141726 0.007982358 -0.0192694 -0.083626375 -0.07751396
0.009218454 -0.03937456 -0.10164793 -0.13410006 -0.16498546 -0.010858607 -0.1497212 -0.13940343
-0.104273364 -0.12282791 -0.07463272 0.079362094 -0.043087788 -0.15795791 -0.00461708 0.025463864
-0.022422343 -0.097600915 -0.1876302 -0.05299131 -0.052092955 -0.039974824 0.02076085 0.108745545
-0.037552014 -0.018052224 0.034599796 -0.08145313 0.07595335 -0.04158198 -0.1659851 -0.07619755
0.06963125 0.013798496 -0.08253813 0.08249542 -0.1240173 -0.05948223 -0.044242874 -0.020878676
-0.18955301 0.010029424 -0.019258969 -0.043100152 -0.047876082 -0.20213841 -0.02722228 0.0002310127
-0.19234413 0.030146033 -0.03332615 -0.13915828 -0.06153421 -0.09045856 -0.051547658 -0.027213959
-0.06895034 -0.009820044 0.04732474 -0.07211088 0.03611304 -0.02210167 0.02630706 0.07919788
0.015676018 -0.0589682 -0.120148316 -0.016565124 -0.0019388472 -0.03247702 -0.08295485 -0.13830961
-0.07077688 0.041052707 -0.064343736 0.035126954 -0.038425043 0.011240777 0.086351946 -0.036531646
-0.0028067976 -0.037172746 -0.15171885 -0.04288378 0.0071991533 -0.1421318 -0.021944318 -0.17312847
-0.17162491 -0.05099017 0.0030074606 -0.034970794 0.012195326 -0.046325434 -0.05621815 -0.13431737
0.11051157 -0.2385791 -0.10635111 0.109441906 -0.060521185 -0.03290035 0.084145635 0.010903449
-0.16657157 -0.08980522 0.06665999 -0.020876363 -0.043720387 -0.07826002 -0.016367532 0.017387375
0.032955956 0.03990993 0.0040626973 -0.053980775 -0.08450088 -0.17164293 -0.063952744 -0.010881573
0.06490046 -0.024790928 -0.06415863 -0.0112737715 -0.07263322 -0.014957882 -0.13641208 -0.06460041
0.08234641 0.052402288 -0.043819502 -0.14662516 -0.12612726 -0.018353626 -0.1897217 0.07627307
0.058495402 -0.10917009 0.029716969 -0.09848307 -0.027909748 0.034296803 0.08962098 -0.0011446178
0.037411604 0.07445887 -0.13738248 -0.10880733 -0.050177634 0.08580437 0.018500894 -0.02618654
0.06233585 -0.15089442 -0.0921763 0.11249836 -0.06579987 -0.13480577 -0.17683318 -0.07444915
-0.02985464 -0.0023406446 -0.007692225 0.11698729 -0.12193701 0.093454555 0.052410677 -0.11589859
-0.17425944 -0.19145751 -0.048530042 -0.0033758874 -0.13737781 0.006216958 0.03705157 -0.082317784
-0.1050021 -0.101419464 -0.18839866 -0.026561994 0.06227015 0.04569039 -0.048983544 0.034139052
-0.010237038 -0.032420307 -0.13206741 0.09931527 0.08822484 -0.16294211 0.050396994 0.0052458346
0.123091355 -0.09545307 0.07420689 0.02398427 -0.08943607 0.059877038 -0.19350684 -0.12076093
0.047394574 -0.12177489 0.114171475 -0.1035409 -0.006540539 -0.06729182 -0.10640581 -0.07054442
0.067797646 -0.029592516 0.046253193 0.02882187 0.11999087 -0.0071295793 -0.07883259 -0.03365634
-0.13974003 -0.0751902 -0.16725169 -0.085347205 -0.11223027 -0.13738792 0.012352527 -0.061739996

decoder.2.bias f4 [784]
00000000: 913e 423c 08d4 b3bc 8943 513c d6d7 bfbd
00000010: ab27 13be 6432 29bd 75b5 1fbe 1c69 8dbc
00000020: d9cf 9cbd d37a 21be 45e8 aabd a922 0fbe
00000030: 881f 2dbe 6da9 03bd b8e0 3fbe f7bd 0abe
00000040: b767 3abe d06d de3c c018 b03c 833a f3bc
00000050: c077 0bbd 8dcc 24be 2c48 1fbd 3e0a 1dbe
00000060: 455c 2bbe d9d8 f23c 2645 b6bd 704e 38be
00000070: 9daa 0bbe 2b3f 6fbd f959 42bb 4d6e 42be
00000080: 0a7f 08bd 7a93 89bd e884 60bb 4e60 9cbd
00000090: 3b28 1abe fbcf 74bd 4bfc 36be 4731 d53b
000000a0: 8811 fcbb 17d2 79bd e93d db3b 2f02 bebd
000000b0: f729 06bd f273 1cbe 6dae 25be 9a4c 85bd
000000c0: 05b5 23be 1c92 4cbd feeb 32be 9ca4 76bc
000000d0: b5a3 e4bd 9bbb 97bd a183 c83c a01a f93c
000000e0: 1481 f8bd 09df a7bd 8633 d1bd dd3f 60bd
000000f0: 4d1b 17bd be4d c9bd 7587 a8bd c607 6dbe
00000100: a385 8abc 7c6d f5bd 4914 e03b ba2e d8bd
00000110: 2cb6 24be 1130 a8be 1ac0 34be a95a a1be
00000120: a179 f4bc 6ad5 b1bd ef06 10bd 8e69 c5bd
00000130: d8f5 66bd 2118 01bd 8a91 383c 4ef7 afbd
00000140: a981 09be c5eb bfbd 1db9 83bc 1962 6abd
00000150: 9762 9dbd cd0d dfbd edbb 35bd b706 d6bd
00000160: 35e1 50bc b07b 33bd 679b 4cbe 9713 00be
00000170: 0451 01be a6c0 2fbd ef67 b8bd fd84 9bbd
00000180: 953a 173d 5cfe 56be a2b8 04be 90d1 02be
00000190: 7b06 81bd fbaa 43bd 3183 0cbe 4068 6ebe
000001a0: a3de 19be 89e5 22be 457a 2dbe ce0e 88bd
000001b0: c2ba 483d fdd9 dabd 2cdf 84bd 6629 a4bd
000001c0: 6bad 1bbe ffb7 2cbd 00d0 edbc 94a2 0fbe
000001d0: ce3a 10bd fa1e 623d 9143 afbd 4773 50bd
000001e0: c832 a1bd 052a 24be f3f2 37be 0ac2 09be
000001f0: 99f2 debd 3a7d 483d ea47 9cbe 1a89 03bf
00000200: 9a12 a4be 9072 1abe 97b2 57be ffef 99be
00000210: 4dc0 4cbd d62b 29be 8994 8fbd 63ff 06be
00000220: 02e9 203a db66 36be 0290 c2bd 0026 b3bd
00000230: 015d 00be 9577 febd 60e9 7cbc a012 e6bd
00000240: 19d8 cfbd bbd7 35be 8860 603c 4ec8 a4be
00000250: 42e1 52be 1559 ee3c 15f8 6b3d e908 4b3e
00000260: 359f 873e 8499 5a3e 043a 6fbe 1821 9ebe
00000270: 049a f8bd fd48 99be 7c9c e5be 8df8 adbe
00000280: 0048 8cbe 2b79 3bbe 15fc e9bc 7495 bbbe
00000290: 52b9 cfbc 02e1 1fbd d92b 3dbe ccad dabd
000002a0: c7f4 263d 2b2a b8bd 5de1 adbd f32c b7bd
000002b0: 269c d0bd 38d3 89bd cb58 12be e0ba 88bb
000002c0: 32d8 39be f8df 433e f845 ea3e 5862 023f
000002d0: 89a7 103f 8f8e 123f 3506 e2bb 3039 4fbe
000002e0: fc96 5bbe f209 3fbe 9813 c9bd 656a 20bc
000002f0: 84ca 42bd 77c7 a63d 5346 98ba 5ebc afbd
00000300: 013e 96bc 600e 4cbe ac94 e0bd 61a7 0dbe
00000310: 77f8 38be 10f0 c7bb 1fb7 8139 db41 13be
00000320: 884a 1abe 4051 d4bd 0fe6 cdbd 4542 adba
00000330: 51db 303e b1ee 013f cc17 1c3f a7e1 2c3f
00000340: acfa 3e3f 56f7 013f 3009 853d 94f2 f2bd
00000350: a232 94bd 2b71 053e 67bf 9a3e f861 ad3e
00000360: ffc6 ae3e 108c 893e 8d62 413e a564 603e
00000370: c3a0 12be 12af 4cbb 8498 10be df52 16be
00000380: 2214 d3bd f30f e93c 529d debd 0f41 01be
00000390: b366 46bc 8786 64be 3b40 2cbe 05f6 933a
000003a0: ac19 b03e 1695 043f 647a 043f a65d ac3e
000003b0: 0e56 b33e 90e5 193e d4f8 bebd 1243 c1bd
000003c0: d852 3abd c5f8 533e f7d6 ca3e 46dc c63e
000003d0: a765 ac3e 0ea0 7f3e d204 0ebe d78f 653d
000003e0: ef95 14be f638 92be 5006 2bbe 56b6 033d
000003f0: ab88 323c 8484 2cbe eb8e d9bd 5057 7ebe
0.011855737 -0.02195169 0.012772449 -0.09367339 -0.14370601 -0.041307822 -0.15596564 -0.017262034
-0.07656831 -0.1576951 -0.08345083 -0.13978066 -0.1690656 -0.032144 -0.18738067 -0.13549028
-0.18203627 0.027151972 0.021496177 -0.029690986 -0.03404975 -0.16093655 -0.038887188 -0.15335938
-0.16734417 0.029644417 -0.08899908 -0.17998672 -0.13639303 -0.05840985 -0.0029655679 -0.18987389
-0.03332428 -0.06717582 -0.0034258906 -0.07635556 -0.15054409 -0.059768658 -0.1786968 0.0065061185
-0.0076925196 -0.060991373 0.00669073 -0.0927776 -0.032754865 -0.15278605 -0.1617982 -0.06508751
-0.15987022 -0.04994403 -0.17472836 -0.015053894 -0.11164037 -0.0740883 0.024476828 0.030408204
-0.12133995 -0.081968375 -0.102149054 -0.054748405 -0.03689127 -0.09829281 -0.082289614 -0.23147497
-0.016909426 -0.11983773 0.0068383557 -0.105557874 -0.16085118 -0.32849172 -0.17651406 -0.3151448
-0.029843153 -0.086832836 -0.035162862 -0.096392736 -0.0563868 -0.03151715 0.011265168 -0.085920915
-0.13428368 -0.09371141 -0.01607948 -0.05722246 -0.0768482 -0.10891304 -0.044368673 -0.104504995
-0.012749006 -0.04381913 -0.19981156 -0.12507473 -0.12628561 -0.042908333 -0.09004199 -0.07593725
0.036921103 -0.20995468 -0.12961057 -0.12775254 -0.06300064 -0.04777048 -0.1372192 -0.23281956
-0.15026335 -0.15907873 -0.16941173 -0.06643449 0.04900623 -0.10686109 -0.06487879 -0.080157086
-0.15202872 -0.04216766 -0.029029846 -0.14026862 -0.03521233 0.055205323 -0.08557809 -0.050891187
-0.07871014 -0.16031654 -0.17963772 -0.13452926 -0.108861156 0.04894755 -0.30523616 -0.51381075
-0.32045442 -0.15082765 -0.2106422 -0.30065915 -0.04998808 -0.16520628 -0.07010753 -0.1318336
0.00061382365 -0.17812674 -0.095001236 -0.08747482 -0.12535478 -0.12425152 -0.0154365 -0.11234021
-0.10148639 -0.17758076 0.01369489 -0.3218407 -0.20593742 0.029095212 0.057609636 0.19827618
0.26488653 0.21347624 -0.23361975 -0.30884624 -0.12138751 -0.29938498 -0.4484595 -0.33978692
-0.27398682 -0.1830794 -0.028562585 -0.3663746 -0.025356922 -0.039032944 -0.18473758 -0.106776804
0.04076078 -0.08992418 -0.0849025 -0.0894412 -0.10186033 -0.0672974 -0.14291684 -0.004172668
-0.18148878 0.19128406 0.45756507 0.5093131 0.5650564 0.5724878 -0.0068977126 -0.20236659
-0.21444315 -0.18656138 -0.0981819 -0.009790991 -0.047556415 0.08143514 -0.0011617638 -0.0858085
-0.018340113 -0.19927359 -0.10965857 -0.13833381 -0.18063532 -0.0061016157 0.00024741233 -0.1438059
-0.15067494 -0.1036706 -0.10053646 -0.0013218602 0.17271163 0.5075484 0.6097381 0.6753182
0.74601245 0.5076803 0.06495893 -0.11862674 -0.0723622 0.13031451 0.30224153 0.33863807
0.34136197 0.26864672 0.1888525 0.21913393 -0.14319138 -0.003123228 -0.1412068 -0.1468005
-0.103065744 0.028449988 -0.1086985 -0.12622474 -0.012109446 -0.22316943 -0.16821377 0.001128853
0.34394586 0.5178999 0.51749253 0.33665198 0.35026592 0.15028977 -0.09324804 -0.09436621
-0.045489162 0.20700367 0.3961713 0.3883993 0.33671305 0.249634 -0.13869026 0.05604538
-0.1451032 -0.28559083 -0.16701627 0.03215631 0.010896842 -0.16847426 -0.106229626 -0.24837995
