20220518100.pt (torch, 424079 bytes, 8 tensors)

encoder.0.weight f4 [64, 784]
000000 61 df 6d bc ac d2 f0 3c 90 ec 9a 3c be dd 97 3c
       -0.01451859 0.029397331 0.01891163 0.018538352
000010 a7 b7 99 bc 63 5b bf bd aa 87 5c bf ff ec a6 bf
       -0.01876433 -0.093436025 -0.86144507 -1.3041075
000020 3b 3a 2e bf 6f 90 13 bf f3 f9 be 3d bd 45 f8 3c
       -0.680576 -0.57642263 0.09325018 0.030306691
000030 f9 28 0f bf e1 4b d5 bd 49 e4 83 bf 1d fd 8c bf
       -0.55921894 -0.104148634 -1.0304042 -1.1014744
000040 38 36 22 bf aa b6 08 bf 18 e2 d8 be 87 2e 11 bf
       -0.6336398 -0.53403723 -0.42359996 -0.5671162
000050 9e bf 8b bf d5 db 8a bf 09 77 89 bf 71 44 c2 bd
       -1.0917852 -1.0848337 -1.0739452 -0.094857104
000060 23 0f c1 bc 4a 5d e0 bb 01 e4 f7 ba ac b7 c1 bc
       -0.023566788 -0.0068470584 -0.0018912555 -0.023647152
000070 e3 6c 8a bc 4a 3c f5 ba c9 c2 89 3f 8e 5a a0 bc
       -0.016897624 -0.0018709984 1.0762569 -0.01957443
000080 42 ee 68 3c a1 f0 80 bd bc 6e d4 bf f3 6e e5 bf
       0.014216961 -0.06295896 -1.6596293 -1.7924484
000090 e5 1b 2d c0 a5 65 0d bf d9 29 a7 3e d6 01 34 3f
       -2.7048275 -0.5523322 0.32649115 0.703153
0000a0 64 03 cf 3d 99 27 b1 bf 83 a2 e0 be 71 d4 ed bd
       0.101080686 -1.3840209 -0.43873987 -0.116127856
0000b0 f1 eb 6d bf 26 5e 85 bf b3 04 bd bf 3d 88 09 bf
       -0.92938143 -1.0419357 -1.4767059 -0.5372351
0000c0 1d ff 8e be e6 6b 99 bf d2 3e 23 bf 59 a9 29 c0
       -0.2792901 -1.1986053 -0.6376773 -2.6509612
0000d0 62 1d 96 be b7 f3 d1 3d 25 45 ca ba 43 f6 e1 bc
       -0.29319292 0.10251563 -0.0015431984 -0.027583247
0000e0 25 af 83 3c 25 1b 6d 3c ad dd 93 3e c6 58 13 bf
       0.016074726 0.014471804 0.28880063 -0.5755733
0000f0 22 0b e5 3e a8 46 36 c0 b7 15 c8 bf 9d 31 0f bf
       0.44735056 -2.8480625 -1.5631627 -0.5593508
000100 70 bf 91 bf 06 10 ff be 57 b0 5a 3d a8 48 60 be
       -1.1386547 -0.49816912 0.053390827 -0.21902716
000110 75 04 d1 3e a6 52 0c bf 4d 94 fe be 84 62 69 be
       0.40823713 -0.5481361 -0.4972252 -0.22791487
000120 a3 6a 75 be 0e b0 12 bf 89 c8 00 bf 6c 38 4f 3e
       -0.2396646 -0.5729989 -0.5030599 0.20236367
000130 f8 f8 2a bf 4a b0 da bd a6 20 67 be 2f 50 18 3f
       -0.66786146 -0.10678156 -0.22571048 0.5949735
000140 e9 55 c1 be 2b cc 59 be 5f de 9a 3d c0 e6 8b bc
       -0.37760857 -0.2126929 0.07561945 -0.017077804
000150 d8 21 01 3d 6c ce 8e be cc a6 27 3e b5 1c b9 be
       0.031526417 -0.27891862 0.16372222 -0.36154714
000160 35 02 d7 bf 90 2c 46 be f0 85 58 bd bf 86 b8 be
       -1.6797549 -0.19352937 -0.052862108 -0.36040303
000170 68 48 39 bd c4 97 50 3e 9d 33 29 be b1 2b 3a 3e
       -0.045235068 0.20370394 -0.16523595 0.1818073
000180 77 0b dc bd 36 2d 21 3e ce 2d dc bc 69 3b fb 3d
       -0.10744374 0.15739903 -0.02687731 0.12267191
000190 54 fe 8b 3e a3 55 70 be 77 1b fb bd 4d 1f 80 3e
       0.27342474 -0.23470168 -0.12261098 0.2502388
0001a0 20 73 26 be d9 12 7c 3d a0 60 04 be 00 aa a5 be
       -0.16254854 0.061541412 -0.12927485 -0.32356262
0001b0 aa b9 53 bf 88 ce 3f 3f f0 5d 44 3d b1 fd 0a 3f
       -0.82705176 0.74924517 0.04794115 0.5429335
0001c0 ee a9 86 bb 3b 9c dd 3e 0a 2a 66 bf 72 17 48 3e
       -0.0041096127 0.43283257 -0.89907897 0.19540194
0001d0 a0 d8 50 bc 04 49 33 3f b2 07 78 be ca f7 f2 bd
       -0.01274696 0.7003329 -0.24221686 -0.11863668
0001e0 ba c0 6c be 22 41 93 3e 01 bd 52 3c 95 ef c8 3d
       -0.23120394 0.2876063 0.012862445 0.09811322
0001f0 ba 79 9a bc cb f3 45 bd 13 90 93 3d 81 38 e6 3d
       -0.018856872 -0.048328202 0.07205214 0.11241246
000200 b5 72 bb 3d 25 e7 af 3d c3 5d 4b bd 32 62 be 3d
       0.09152738 0.08589009 -0.049649965 0.09296073
000210 8b 76 ce bd a5 b3 a5 3e 4d 0d 81 be 66 7a 71 3d
       -0.10081204 0.3236362 -0.2520546 0.05895462
000220 60 96 9d 3e bd 85 ff bf 31 a3 28 be 17 e3 9d be
       0.3077879 -1.9962689 -0.16468503 -0.30837318
000230 ea 6f 60 bc e2 91 76 bd ff 82 9e be 0a a8 94 be
       -0.013698557 -0.06019772 -0.30959317 -0.29034454
000240 e1 9a cc bd bd e8 84 be ae f3 36 3d a9 10 fe bc
       -0.09990478 -0.25958815 0.044665985 -0.031013804
000250 6d 98 9e 3c 3b b7 e1 bc 1e a6 d7 bd fe a0 73 3c
       0.019359792 -0.027553191 -0.10529731 0.0148699265
000260 3a 74 aa 3d 04 20 7c bd 76 11 3b bc 6b 54 27 bd
       0.0832295 -0.06155397 -0.011417737 -0.04085199
000270 6d 00 95 3d 26 4a 98 3d dc d9 3e 3e f4 f3 c0 3d
       0.07275472 0.07436018 0.18637794 0.0942153
000280 66 c3 8b 3d db 8a 37 be c8 c0 1b bd d6 11 ae 3d
       0.06824379 -0.17924063 -0.038025647 0.08499496
000290 86 0f 38 3e 51 b7 42 bf f7 22 76 be d6 f7 e6 3e
       0.17974672 -0.7606097 -0.24036776 0.4511096
0002a0 d4 05 43 be 88 ad 29 c0 33 96 50 3f dd 37 a1 be
       -0.19045192 -2.6512165 0.81479186 -0.31487933
0002b0 5d 96 95 3e 2a 92 f7 bd 45 b3 0b bd 18 4c c2 bd
       0.2921628 -0.120884255 -0.03410651 -0.0948717
0002c0 18 ee 02 3e 91 a8 1f bd 04 16 d0 bb e4 29 b3 bb
       0.12786138 -0.038979117 -0.0063502807 -0.0054676402
0002d0 1f 4d c6 bd 9f 07 2f 3c be 99 e7 bd a3 6c 1e 3d
       -0.096826784 0.010682969 -0.11308621 0.038677823
0002e0 58 a4 b0 3d 72 a1 14 3c 84 61 c1 3d cc 52 76 3e
       0.08625096 0.009071695 0.09442428 0.24055022
0002f0 17 87 f6 bd e8 46 03 3b 5d 06 87 be 96 95 82 3c
       -0.12037485 0.0020031277 -0.26372042 0.015940469
000300 3b c4 a0 3d ff 11 38 bf 55 c8 8b 3e d0 07 46 bf
       0.07849928 -0.7190246 0.2730128 -0.7735567
000310 69 23 0e 3f e7 10 e0 3f 02 cc 70 be ab fa 54 3e
       0.5552278 1.7505158 -0.23515323 0.20798747
000320 f1 ed 21 be 3d e5 4e 3d e0 89 a3 bd 0f 21 46 3e
       -0.15813424 0.050511587 -0.07985282 0.19348548
000330 94 bb 05 be 11 40 95 3c ea 45 ad bd 5b b0 97 3d
       -0.13059837 0.018219026 -0.08460601 0.07406684
000340 81 49 db bd f1 62 6e bd 48 6f 78 3c e4 a4 95 ba
       -0.10707379 -0.058199827 0.01516325 -0.0011416939
000350 31 87 f2 bc 8d e4 25 3e 19 27 b9 bd e4 e0 d8 bd
       -0.02960548 0.16200466 -0.090406604 -0.105897695
000360 50 f1 28 be d0 8f e0 bd 3a 34 fb bd b6 b3 33 be
       -0.16498303 -0.1096493 -0.12265821 -0.17549023
000370 35 46 e0 3d 90 be 1d bf 3a 37 83 be 9b fa 8f 3f
       0.10950891 -0.616189 -0.25628072 1.1248354
000380 ef 93 12 bd 70 8b 98 be e7 5c b8 be b3 e8 19 be
       -0.03578561 -0.29793882 -0.3600838 -0.15030174
000390 02 50 33 3e 31 35 e7 bd 10 76 40 bc dd fc 3e bd
       0.1751099 -0.11289442 -0.011746898 -0.046627868
0003a0 52 93 d8 bd 08 75 65 3d fe 8f db bb b3 22 c7 3d
       -0.10574974 0.056019813 -0.006700515 0.09723415
0003b0 9c 29 64 3d c8 24 6f bd e7 c2 13 3d 4b 46 02 bb
       0.055703744 -0.058384687 0.036074545 -0.0019878324
0003c0 ca db 1d 3e d7 51 d4 bc 94 b8 35 3d e2 bc 7f 3d
       0.15415874 -0.02591793 0.04436548 0.062435992
0003d0 8f 86 34 3b c4 e9 de bd 0e 17 e8 3c 96 cb ab be
       0.0027546023 -0.10884431 0.028331306 -0.3355376
0003e0 b6 de 99 3d a9 48 64 bf 9f 80 44 bf 49 a0 d4 3f
       0.07513182 -0.8917337 -0.7675876 1.6611415
0003f0 f3 1c 73 3d 40 aa 0e 3f 1f 18 d8 3e 65 12 38 3e
       0.05935378 0.5572853 0.42205903 0.17975767

encoder.0.bias f4 [64]
000000 9d ae fb 3f d3 c2 1a bf 31 84 c0 be e5 ab c3 3f
       1.9662663 -0.6045353 -0.37600854 1.5286833
000010 d5 3a 0e 40 95 19 0a c0 c8 25 0c 40 7d 82 2f 3f
       2.2223408 -2.1578114 2.189806 0.68558484
000020 ba 72 92 3f 7f 0f ef 3e 76 b8 f0 3f 14 8a ec 3f
       1.1441262 0.4669151 1.8806293 1.8479638
000030 39 6b f3 3f bb e4 04 40 f4 41 ef 3f 10 e1 b9 3f
       1.9017097 2.0764606 1.8692002 1.4521809
000040 21 6c fc 3f 38 57 ce 3f 11 09 05 40 e6 83 a8 bd
       1.9720498 1.6120367 2.0786784 -0.08228283
000050 c7 94 07 40 22 13 e3 3f c2 68 30 3e 12 e7 67 3e
       2.1184556 1.7740214 0.17227462 0.2264674
000060 af 17 ad 3f fd e4 b0 3f cb dd b4 3f cb 07 08 40
       1.3522853 1.3819882 1.4130186 2.1254756
000070 07 4b da bd 89 ce b5 3f 38 40 71 3f ab c1 b5 3e
       -0.106588416 1.4203655 0.94238615 0.3549932
000080 3f 4e 44 3e 68 8e 93 3f 2d 51 33 40 8c bc c0 3e
       0.19170474 1.1527834 2.8018296 0.3764385
000090 3f dc cd 3f 37 8a f3 3f 88 3d bf 3f dc 2d ac be
       1.6082839 1.9026555 1.4940653 -0.33628738
0000a0 21 41 e7 bd b0 47 93 3e fc 4c be 3e d9 fa 38 3f
       -0.11291719 0.2876563 0.3716811 0.72257763
0000b0 d5 18 14 40 08 d9 01 40 ca d6 b1 3f c5 ec a3 3f
       2.3140156 2.0288715 1.3893673 1.2806631
0000c0 29 7e c8 3e ee 75 d6 3e 10 ef 7f be 0f a9 0a 40
       0.39158753 0.41886848 -0.24993539 2.1665685
0000d0 95 96 f4 bc b0 16 00 40 51 24 e3 3f 94 f9 fb 3f
       -0.02985696 2.0013847 1.7745458 1.968554
0000e0 31 9c 47 3f 28 bf 0c bf de 98 d2 3e 4d b2 bb 3f
       0.77972704 -0.5497918 0.41132253 1.4663788
0000f0 d6 ce 22 3f a0 e4 f1 3f 31 c0 59 3f 4e 34 8e 3f
       0.63596857 1.8897896 0.85058886 1.1109712

encoder.2.weight f4 [32, 64]
000000 40 6b 00 be 01 99 e3 bd aa 24 68 bd d7 1e 00 be
       -0.12540913 -0.111131676 -0.05667559 -0.12511764
000010 19 c1 36 be 1b 2e b7 3c 04 c5 a2 bd 63 60 a3 3c
       -0.17847098 0.022360852 -0.07947734 0.019943422
000020 81 95 bc 3a b0 f7 2d be e2 43 45 bd 8d 26 d1 bc
       0.0014387817 -0.16989017 -0.04816044 -0.025531078
000030 da 8f 13 bd 62 9b 0e be f0 b7 f9 3a 97 1b 22 3c
       -0.03602586 -0.13926461 0.001905201 0.009894273
000040 66 6f 84 3d 97 c3 4f 3d a7 84 bb bd 14 03 84 3d
       0.0646656 0.05072364 -0.09156161 0.064458996
000050 f7 a4 1b be 6a 24 20 be e2 b1 d8 bc 4f 5f a3 bd
       -0.15199648 -0.15638891 -0.026452009 -0.07977163
000060 f8 3c 08 3d c9 e8 06 be 38 cc 0e be 98 ac 9a bd
       0.03326127 -0.13174738 -0.13945091 -0.07552451
000070 46 87 dc bd 93 b7 c8 bd c3 26 58 bd 01 c0 b0 bd
       -0.10767989 -0.09800639 -0.05277134 -0.08630372
000080 df 7c 3c bc 3d 66 32 be 3e 20 1f be d6 ab d1 bd
       -0.011504381 -0.17421813 -0.15539643 -0.10237853
000090 9f 3f 5f bd 48 74 14 be 87 c6 27 be cd b2 f5 bd
       -0.054504033 -0.14497483 -0.16384326 -0.11996994
0000a0 23 64 45 3d e6 1e 1c bd 55 a4 61 3d 1c f8 3f 3d
       0.0481912 -0.038115405 0.05508836 0.046867475
0000b0 1d 8a 0d bc be 52 18 3d 0b fd 21 be 6d a7 d8 bd
       -0.008638886 0.037188284 -0.15819184 -0.10578809
0000c0 48 9a 3b be 08 ac 1d 3d 07 4c 20 bd a1 c8 3c bd
       -0.18320572 0.03849414 -0.039135005 -0.046089772
0000d0 f2 bb 1f be 1b da a7 bd af 33 11 3d 54 bd 10 be
       -0.15599039 -0.08195897 0.03544968 -0.14134723
0000e0 9b 2a 0d bb 77 69 28 be 2d fd b1 3c 5d 75 b5 bc
       -0.0021540287 -0.16446482 0.021727169 -0.02215069
0000f0 de 5e 71 bd c6 3d ac 3c 25 64 3e bd cf 0e 38 be
       -0.058928363 0.02102555 -0.046482224 -0.17974399
000100 23 82 51 3d 1b 71 4e bb 69 be bb bd 9e 6d 4c bd
       0.0511495 -0.0031500522 -0.09167177 -0.049909227
000110 e7 9c f6 3c 01 16 0a bc 4f c9 30 3d 98 46 e1 bc
       0.030104114 -0.008428098 0.043160733 -0.027499482
000120 90 d9 1f 3d cc aa bf bd 3a a4 54 3d 9f 1d c9 bd
       0.039025843 -0.09358749 0.05191443 -0.09820103
000130 8e 6d b6 bc 82 7c 32 be 70 d8 05 be 26 87 e0 3b
       -0.022269037 -0.17430308 -0.13070846 0.0068520484
000140 b3 e7 30 bd 65 71 37 bd e4 c6 96 bd 79 7a a7 bd
       -0.043189716 -0.044785876 -0.07362154 -0.08177657
000150 9b 84 be bd 20 9c 1f be ee 5a 7d 3d 20 d8 58 bc
       -0.09302636 -0.155869 0.061854295 -0.013235122
000160 e4 63 27 be 1f 64 e1 bd c0 f6 09 be d6 f5 be bd
       -0.16346699 -0.11005425 -0.13473034 -0.09324233
000170 78 af 36 3d 19 f3 bb bd cc 34 23 be eb 2b 35 bd
       0.044600934 -0.091772266 -0.15938109 -0.044231337
000180 0b e2 49 3b 9f a8 b5 bd f4 46 36 bc 10 d3 ae bd
       0.0030804898 -0.088700525 -0.011125315 -0.08536351
000190 fa 69 fe bd ee 8f 25 be 7d 6b 2e be 72 2a 37 3b
       -0.12422557 -0.16168186 -0.17033191 0.0027948883
0001a0 86 25 02 be 5c b0 78 3b 5f 35 05 3d 75 49 3c bd
       -0.12709627 0.0037946915 0.0325216 -0.04596849
0001b0 d3 a6 9a bd a0 78 2a be 44 73 a8 bd 5d 1c 3a be
       -0.075513504 -0.16647577 -0.0822511 -0.18174882
0001c0 32 cd 0c 3d 9c 11 29 be a9 1a 97 bd 6e 73 63 bd
       0.034375377 -0.16510624 -0.07378132 -0.055530004
0001d0 7f 27 2a be a2 d5 8a bc 10 36 39 be 5e 98 04 be
       -0.16616629 -0.016947571 -0.1808703 -0.12948748
0001e0 a8 95 b6 bd f1 87 9d 3c 7e 1e f7 3b 22 0c 01 be
       -0.089152634 0.019229861 0.0075414767 -0.12602285
0001f0 ab 84 2f be 78 d0 cc bd 59 29 0f be 6a bc ad 3c
       -0.17140453 -0.100007 -0.13980617 0.021208007
000200 78 11 c0 3e d1 8b 0e be de 73 b0 3c 5b 22 3c bc
       0.37513328 -0.13920523 0.021539625 -0.0114828
000210 aa 59 fe bd 7c 63 0f 3d ed e0 e5 3d 0c a0 20 bd
       -0.12419446 0.035006985 0.11224542 -0.039215133
000220 72 24 1c bd ff 57 6e 3c 5a 74 9f 3d 45 21 72 bc
       -0.038120694 0.014547347 0.07785864 -0.01477844
000230 ab 65 0b bf 45 f8 5c bc d2 57 0c be eb ef c2 be
       -0.5445201 -0.013486926 -0.13705376 -0.38073668
000240 f5 85 08 3e 5f 0c 80 be 4b 2f bd 3d d6 62 30 3e
       0.1333235 -0.25009438 0.09237536 0.17225203
000250 a4 f9 82 3d 46 8d 9b bd c3 03 9b bd 38 f5 34 bd
       0.063952714 -0.07595305 -0.07569077 -0.04417917
000260 ba 36 0b 3e f4 3a 7c 3c 72 11 1d bc ae 8c 33 bc
       0.13595095 0.015394915 -0.009586679 -0.010958834
000270 96 d0 6f 3d ee 6d 2a bf fb 5f 80 be cd 41 a3 3c
       0.058548532 -0.6657399 -0.25073227 0.019928837
000280 57 95 23 3c d7 20 20 bc 05 ad 20 bf 7a 96 1f 3d
       0.009984336 -0.009773455 -0.62764007 0.038961865
000290 32 66 8b be 61 2f 32 be 84 96 42 3d ed 8c 0b 3d
       -0.27226406 -0.17400886 0.047506824 0.034069944
0002a0 c4 3f ec bd 30 f5 01 3d 75 b8 0a bf eb d1 59 bd
       -0.115356 0.03172797 -0.5418771 -0.05317871
0002b0 41 43 36 be 26 2a 67 bd bc 24 34 3e 93 12 6e be
       -0.17799093 -0.05643668 0.17592138 -0.23249273
0002c0 d0 e5 b3 bb 76 69 17 bd a4 9f 82 bc 07 97 19 bd
       -0.0054900423 -0.03696581 -0.015945263 -0.037497547
0002d0 36 b9 b3 3d 45 d3 f3 bc 6f 1c 1a 3e 93 54 49 bd
       0.087755606 -0.029763827 0.15049909 -0.049152922
0002e0 d3 5f 38 3c 05 96 a4 bb 19 dc 32 3d 45 c3 03 be
       0.011253315 -0.0050227665 0.043666933 -0.12867458
0002f0 48 c7 f0 3d a3 67 47 bb 70 0a d5 bc b9 b8 59 be
       0.1175676 -0.0030426763 -0.026005954 -0.21261872
000300 aa b1 81 3c 71 a4 33 be 22 80 2d 3d ed db 16 3e
       0.015831787 -0.17543198 0.042358525 0.14732333
000310 91 23 fc 3d 5e a0 19 bd 61 7a 72 3e 74 84 4b 3d
       0.12311471 -0.037506454 0.23679496 0.049686864
000320 c1 f0 33 3d 0a 60 a2 bd 0e ab bb 3d ee 8b 69 3e
       0.043930773 -0.07928474 0.091634855 0.22807285
000330 54 29 d0 bf 22 82 8d 3d 4f 16 4b bd 76 02 9e bd
       -1.6262612 0.069095865 -0.049581822 -0.07715313
000340 c2 ca 47 3b 4a 40 33 bf b4 1b b3 3a ac 00 ff bc
       0.0030485843 -0.7001997 0.0013664872 -0.03112825
000350 39 8f cc 3d 53 f8 2e be 6b 05 cf 3c 49 0d ae bd
       0.09988255 -0.17086916 0.025271138 -0.08498628
000360 d5 44 af bd 30 5f 01 3d 35 0a 8a 3d 95 33 15 3e
       -0.085580505 0.03158492 0.06740228 0.14570458
000370 a7 b2 5a 3c fa 47 c5 bf 34 12 a4 bc 3f 84 14 bc
       0.013348258 -1.541259 -0.020028211 -0.009064733
000380 4b 71 a0 bd 69 f2 00 3d d6 8e e6 bf 7f 86 05 bd
       -0.07834109 0.03148118 -1.801234 -0.03259897
000390 55 83 84 be b5 69 27 3d ee cb 7a bd 2a 86 cb 3c
       -0.25881448 0.040872294 -0.06122964 0.024844248
0003a0 b4 62 38 bd 9f 60 80 3d 70 77 7a bd 70 91 5c bd
       -0.045016006 0.06268429 -0.06114906 -0.053849638
0003b0 df 65 8b bd 74 5a 05 3e 0d ef ba 3d ac 91 03 bf
       -0.0680654 0.13022786 0.091276266 -0.5139415
0003c0 3d fd b4 3d 01 f1 ab 3d b2 50 0f bd 29 6b 85 be
       0.08837364 0.08395577 -0.034989066 -0.2605832
0003d0 50 4a aa 3e 85 af 47 3e 4f 6a 83 3c 01 0b f8 bd
       0.3325982 0.19500549 0.016041903 -0.12111474
0003e0 d0 a0 95 3c 3a b4 83 bd b9 9f c8 bc 63 1e 12 3d
       0.018265158 -0.0643086 -0.024490224 0.03567351
0003f0 70 e3 bb bc f3 f7 78 3e 71 c6 f3 bd 76 96 5c 3e
       -0.0229356 0.24313335 -0.11903084 0.21541771

encoder.2.bias f4 [32]
000000 24 b0 93 bd 64 a2 cd 39 88 81 0a 3f 2d 2b 3d 3f
       -0.072113305 0.00039221637 0.541039 0.73894006
000010 29 55 52 3f 6b 12 cc 3c 57 e7 8a bd 6a 47 a8 be
       0.82161194 0.024911126 -0.06782406 -0.32866985
000020 5b e2 17 be 0e d3 d5 be 43 75 30 3f 3a 3b cb 3e
       -0.14832442 -0.41762584 0.6892893 0.39693624
000030 5f d6 85 bd 89 4c 42 3e cd c5 c6 3e fb 4a d9 3b
       -0.06535029 0.18974508 0.38822785 0.006631253
000040 df 56 21 be 10 b1 3a 3d 49 2d 19 3f 0d 34 92 3e
       -0.15755795 0.045579016 0.59834725 0.28555337
000050 96 1b 0c be 73 62 cc bd 2b 32 1b 3e 42 ae 6b bd
       -0.13682398 -0.09979715 0.15155856 -0.057539232
000060 f3 ac 11 3f 56 b7 6a be b8 39 25 3f 5c 01 08 3f
       0.56904525 -0.229215 0.64541197 0.53127074
000070 36 4f 25 3d 07 91 81 3e 93 87 b9 3e b6 a7 e9 3e
       0.040358745 0.2530596 0.36236247 0.45635766

decoder.0.weight f4 [64, 32]
000000 f1 b3 81 be 7c 2c 92 be f8 f8 b7 be e6 e9 8a be
       -0.25332597 -0.28549564 -0.35932136 -0.27131575
000010 fa f1 b7 be 6f c3 93 be d6 c1 f4 bd 95 d0 dd bd
       -0.359268 -0.28860041 -0.11951034 -0.108307995
000020 4b bf d2 3e 1a b1 16 bd 4d d5 e4 bd f7 fb e8 be
       0.4116157 -0.03678999 -0.111734964 -0.45504734
000030 82 f3 94 be 02 c9 92 3d fd 30 dc be e7 02 e8 be
       -0.29092032 0.071672454 -0.43006125 -0.45314714
000040 53 fa 98 bd f5 96 b4 be c7 56 5a be ee bf a2 be
       -0.074696206 -0.3527142 -0.21322165 -0.31787056
000050 f2 aa 51 be 1e af bf be 3e 6a ad be d7 bb d9 be
       -0.20475367 -0.3743829 -0.3387012 -0.42526123
000060 77 cb 9a 3e f8 a8 d0 3e f3 20 db 3e bd 37 b8 be
       0.30233356 0.40753913 0.42798576 -0.35980025
000070 ae ff 6b 3e 62 58 ce be 3e b2 5b be 2f 3e 23 3e
       0.23046753 -0.40301806 -0.21454713 0.1594169
000080 e7 63 3a be 58 ff 02 be 8c 2e dd bb 6e 37 2c 3e
       -0.18202172 -0.12792718 -0.0067499336 0.1681802
000090 7d 4c 9c bc a0 ec be 3d a8 47 06 be 2b 8b b1 3d
       -0.019079441 0.093224764 -0.13113272 0.08669122
0000a0 e7 d4 38 3e e7 54 59 bd c3 61 4e 3d 33 f8 fd 3d
       0.18049966 -0.053059485 0.0503862 0.12400856
0000b0 fb ec 05 3e a6 e7 93 be 8c 27 38 be 8f 33 64 3c
       0.13078682 -0.2888767 -0.17983836 0.013928308
0000c0 08 a0 b9 bd 79 e4 b4 3d a2 b5 3d be 6e 46 d2 3e
       -0.09063727 0.0883264 -0.18526319 0.4106936
0000d0 0d a8 0f be 8a a2 2e bd ab 9a 2f 3d f0 63 a3 bd
       -0.1402895 -0.042635478 0.042872112 -0.07978046
0000e0 ce d2 2e 3d 40 52 5e bd 3c 80 e3 3d ae c8 bf bd
       0.042681508 -0.05427766 0.11108443 -0.093644485
0000f0 05 0d 13 3d d8 6a 91 3d 8f 69 e0 3c cd 0c 93 bb
       0.03590109 0.07100457 0.027394084 -0.00448761
000100 1a 5e 0c 3e c2 07 56 3c b7 0a 43 bd 14 55 d8 bd
       0.13707772 0.013063373 -0.04761764 -0.10563102
000110 e4 77 c2 3d 26 55 5b 3e df f9 fc 3d 3d ab 35 3e
       0.094955236 0.214192 0.12352347 0.17741103
000120 8e c2 2d be c2 ec 2a bd c7 e8 8f bd d1 63 1e be
       -0.16968748 -0.041729696 -0.07026821 -0.15467764
000130 90 d7 e1 3d 3e f7 2a bd b9 91 02 bd d2 c3 e9 bd
       0.110274434 -0.041739695 -0.031877253 -0.11414303
000140 c0 75 16 be 14 94 0c 3e 84 1f b7 bc f7 d4 29 3d
       -0.14693356 0.13728362 -0.022353895 0.041462865
000150 0c c2 5e bd 5f 5b 43 3e ca 9f cf be d3 24 51 3e
       -0.054384276 0.19077824 -0.40551597 0.20424204
000160 ab e0 fc 3d b3 f8 7d 3d db 24 11 3f 32 17 ba bd
       0.123475395 0.062004756 0.5669686 -0.090864554
000170 78 84 01 be 1b a4 7b 3d 91 a9 0b bd f8 89 f6 3d
       -0.12648189 0.0614358 -0.034097258 0.12038034
000180 6a c3 bf bd 67 3c 8b 3d 34 01 ba bb e7 d9 72 be
       -0.09363444 0.0679863 -0.005676413 -0.23715936
000190 43 68 ef bd fc fa 0a be 4b 7c 3b be 9b 4c f3 3d
       -0.11689808 -0.13572305 -0.18309133 0.11879846
0001a0 16 b7 2d 3e 24 60 e6 3d 15 ba 4d 3d 3d 68 e7 bd
       0.16964373 0.11248806 0.05022629 -0.11299179
0001b0 e4 29 22 be 36 c6 21 be 8c fe d6 bd 8d 9e 89 3d
       -0.15836293 -0.15798268 -0.1049777 0.06719694
0001c0 45 88 a9 3c d4 85 c0 bd 43 c1 22 be 6f a9 df 3c
       0.020694861 -0.09400526 -0.15894036 0.027302472
0001d0 e7 5d 51 bd e8 38 b3 bd df fd 3a 3e 5b ba 6a be
       -0.051114943 -0.087510884 0.18260907 -0.22922651
0001e0 f1 d3 56 3d f6 24 c8 bc 7b 70 37 3e 46 05 64 3d
       0.052448217 -0.024431687 0.17914002 0.05566909
0001f0 fd bd 2f 3e ac 5c 70 be f4 1c e4 bd 70 46 1d bd
       0.17162319 -0.23472852 -0.11138335 -0.038397253
000200 45 f1 d5 bd cb e4 88 be 7b 74 ed bd 35 4c 17 be
       -0.10446409 -0.26737055 -0.115944825 -0.14775164
000210 4b ea 48 be 73 eb a9 bd 21 fe 6f be ca 9a b7 3d
       -0.19620626 -0.082968615 -0.23436786 0.089650705
000220 db 7d d8 3c 91 ec 0f 3e 04 02 cb bc 7f 5d a2 bd
       0.0264272 0.14055087 -0.024781235 -0.07927989
000230 09 16 20 be 7a 38 64 be 10 d8 e9 3c 39 fb 5a be
       -0.15633406 -0.22287169 0.02854541 -0.21384896
000240 35 ef a3 3d 88 77 46 be 94 e4 4f be 16 41 0d be
       0.080046095 -0.19381535 -0.2030204 -0.1379436
000250 cc 46 8d 3d 36 73 31 be c3 01 ad bd f0 6b 5d bd
       0.06898269 -0.17329106 -0.08447602 -0.054058015
000260 e4 77 03 be 8f b8 7a bd e4 99 8d 3d 5c 68 60 3e
       -0.12838703 -0.061211165 0.06914118 0.2191481
000270 ad 18 6a 3e f1 70 4c be dc 1b d0 bd 13 21 84 bd
       0.22860976 -0.19964959 -0.10161564 -0.06451621
000280 01 39 a5 ba d3 55 f6 bd a5 11 5d bb 10 a4 99 bc
       -0.001260549 -0.120280884 -0.003373244 -0.018754989
000290 9b 4e ba bd e8 4a 4f bd a2 65 f9 3d b6 eb bb bd
       -0.09097024 -0.050608546 0.12177588 -0.09175818
0002a0 c2 4b c8 3d d1 4d 91 3d dc 1a 82 3d 82 17 83 3d
       0.09780075 0.070949204 0.06352779 0.06400968
0002b0 ad 3e 27 3d f1 57 b6 bd 1b 01 16 be d4 6e 11 be
       0.040831257 -0.08903492 -0.14648859 -0.14202434
0002c0 3b 68 0b bd 51 0b 02 bd 34 fd 84 3d 42 87 97 bc
       -0.03403495 -0.031749073 0.06493607 -0.018497113
0002d0 b3 9e 2d be 88 9c d3 bd f6 01 0c 3d 54 0f 0d 3e
       -0.1695507 -0.1033259 0.034181558 0.13775378
0002e0 e4 84 c4 3d 3a 6c f1 3d 8b 8a f3 bd 25 54 a4 bd
       0.095956594 0.11788221 -0.11891659 -0.08023862
0002f0 51 b8 0c 3e b4 19 23 bd 13 28 26 be d2 dd ff bd
       0.13742186 -0.039819434 -0.16226225 -0.12493481
000300 c5 85 86 3d 81 67 fb bd 02 c3 cb bd e7 01 89 be
       0.06568483 -0.12275601 -0.09949304 -0.26759264
000310 5d 1b 38 bf 2f ac 28 be cf 0b b8 3d d0 55 30 be
       -0.71916753 -0.16471933 0.08986627 -0.17220235
000320 05 fe 5f 3d c4 2e 08 3e b6 b1 17 be 9d 5f bc 3b
       0.05468561 0.1329909 -0.14813885 0.0057487027
000330 b0 a7 3b be 1e 8e 81 be b9 65 6b 3d f2 58 e7 3d
       -0.18325686 -0.2530374 0.057470057 0.11296262
000340 45 82 1d be 1e 23 c5 3d 12 09 a6 3c 8b b9 95 bc
       -0.15381725 0.09625839 0.020267997 -0.01827695
000350 37 8a ac bd b3 20 8f bc 3a 94 0b bd 35 ff 23 3e
       -0.084248 -0.017471647 -0.034076907 0.16015323
000360 e4 9b e0 bc e7 e3 b7 3d 16 76 f4 bc d1 f8 59 bc
       -0.027418084 0.08979016 -0.029841464 -0.013303951
000370 14 2c 1d bd b0 dc e0 bd a5 f9 07 3f 36 c7 30 be
       -0.038372114 -0.10979593 0.531153 -0.17263493
000380 56 e8 55 be 60 0a 80 be d0 2b 05 3d fa 8f 0f bd
       -0.2088941 -0.25007915 0.032512486 -0.035049416
000390 b5 77 b1 bd 18 a0 b4 3a 81 a2 13 bd 0e e6 8d be
       -0.086654104 0.0013780622 -0.036043648 -0.2771458
0003a0 41 75 dd 3d 6c b8 b0 3d 63 12 e2 3d ef 9b 57 be
       0.1081338 0.08628926 0.11038663 -0.21055578
0003b0 b5 d0 38 be 43 5e 60 be fa 28 de 3b 41 7c 8b be
       -0.18048365 -0.21910958 0.006779787 -0.27243236
0003c0 c4 5c 69 3e bc 24 0d 3c c9 7d f2 3e fc d7 0d 3e
       0.22789294 0.008614715 0.4736159 0.13851923
0003d0 65 4f 97 bc 2f a9 85 be 29 80 87 bc a5 31 ed bd
       -0.018470475 -0.2610564 -0.016540604 -0.115817346
0003e0 ed 26 55 bd 46 c4 f1 3d e8 9c 3b 3e ec 5d d2 3b
       -0.052039076 0.11805014 0.18321574 0.0064198878
0003f0 8e 17 db bc d8 c0 15 be e7 e2 a1 bd 97 fc 86 3e
       -0.02674463 -0.14624345 -0.07904606 0.26364586

decoder.0.bias f4 [64]
000000 50 40 68 be 9f 58 82 bd c3 08 e4 3d f2 4d ec bd
       -0.22680783 -0.063645594 0.11134484 -0.115383044
000010 68 74 87 3a a9 f3 be 3c 9a db e5 3d ff 5b 1c bd
       0.0010334374 0.023309546 0.11223526 -0.03817367
000020 16 e5 24 3e be 5a 18 be 38 73 18 3c 98 da b6 bc
       0.16103014 -0.14878365 0.009304814 -0.02232103
000030 31 1c 10 3d 1a 34 10 be 7a 12 3a bd 30 09 5d be
       0.035183135 -0.14082375 -0.045427777 -0.21585536
000040 e7 d0 8f bd 98 68 99 bb db 96 4e be e8 63 4c bd
       -0.07022267 -0.004681658 -0.20174734 -0.049899966
000050 6c 7a f2 3b 79 ef 9a bd 6f 47 63 3d 90 63 aa bd
       0.0073998477 -0.07565207 0.055488046 -0.08319771
000060 37 d6 45 be 6a ef 55 be c0 5b 3a be 06 0e bc be
       -0.19319998 -0.2089211 -0.18199062 -0.3672945
000070 22 c5 1f be b9 b3 61 3e 29 4f 19 3a 43 2b 80 be
       -0.15602544 0.22041215 0.00058482826 -0.25033006
000080 7c 91 b0 bd 84 3d 57 3d 04 c4 d0 bd 93 a2 07 3e
       -0.08621499 0.0525489 -0.10193637 0.13245611
000090 86 1e 21 3e 63 c3 37 be ed 6b 4e 3d a7 17 c8 bd
       0.157343 -0.17945628 0.050395895 -0.09770136
0000a0 ce 8b 5e be 5d 5c 00 3d 9f 5e 61 3c 43 70 bc 3d
       -0.21733019 0.031338084 0.01375547 0.092011
0000b0 46 0f 67 3e 48 a6 92 bd 20 7e 68 3d 91 d7 fa 3d
       0.2256442 -0.07160622 0.056760907 0.12248147
0000c0 5d 82 76 be 71 d9 f2 bd ac eb d2 3d d3 a9 c6 bd
       -0.24073167 -0.1185788 0.10298857 -0.0970036
0000d0 7b 65 42 be dc ff c3 3d 58 33 cf bd ab d8 58 bc
       -0.18984024 0.09570286 -0.10117215 -0.013235251
0000e0 e4 d3 17 be c5 35 08 3e eb f3 8a bc 0a 40 52 be
       -0.14826924 0.13301761 -0.016962012 -0.20532241
0000f0 06 c2 6b 3e 92 1d 2d 3e a8 c5 c4 3d 9f 9b ee 3c
       0.23023233 0.16905811 0.096080124 0.02912694

decoder.2.weight f4 [784, 64]
000000 e0 bf f6 3d de d7 92 bd 08 0c e4 3c ac ff 7f bd
       0.12048316 -0.0717008 0.027837768 -0.062499687
000010 5a 60 9d bd 20 2a f9 bc 70 b1 40 3d b2 a4 8c bd
       -0.07684393 -0.030415595 0.047044218 -0.06867351
000020 28 b7 b8 3b 12 7f 80 bd 00 77 1e be 90 14 99 bd
       0.0056370683 -0.06274237 -0.15475082 -0.07474625
000030 f1 c1 da bb 1f 2e 85 3c 0f 2d 21 3d 2a cd d9 bd
       -0.0066759516 0.016257344 0.03934961 -0.10634835
000040 56 b5 b4 ba a6 e4 ed bd 94 4f 00 bd c7 52 df bd
       -0.0013786952 -0.11615877 -0.03132589 -0.109044604
000050 a8 c8 41 bd a0 23 0f be d7 b2 98 bd 3f 2d ce bd
       -0.0473105 -0.13978434 -0.07455986 -0.10067224
000060 10 84 60 3d 90 b3 1b bc 4a c1 1a be 36 43 92 3d
       0.054813445 -0.00950326 -0.15112796 0.07141726
000070 70 c8 02 3c dc da 9d bc 4e 44 ab bd a4 bf 9e bd
       0.007982358 -0.0192694 -0.083626375 -0.07751396
000080 00 09 17 3c 38 47 21 bd ca 2c d0 bd 87 51 09 be
       0.009218454 -0.03937456 -0.10164793 -0.13410006
000090 f3 f1 28 be 4c e8 31 bc 84 50 19 be c6 bf 0e be
       -0.16498546 -0.010858607 -0.1497212 -0.13940343
0000a0 46 8d d5 bd 33 8d fb bd 0a d9 98 bd 98 88 a2 3d
       -0.104273364 -0.12282791 -0.07463272 0.079362094
0000b0 d2 7c 30 bd b8 bf 21 be e0 4a 97 bb 98 99 d0 3c
       -0.043087788 -0.15795791 -0.00461708 0.025463864
0000c0 10 af b7 bc fd e2 c7 bd 22 22 40 be 6a 0d 59 bd
       -0.022422343 -0.097600915 -0.1876302 -0.05299131
0000d0 6c 5f 55 bd a4 bc 23 bd a8 12 aa 3c fc b5 de 3d
       -0.052092955 -0.039974824 0.02076085 0.108745545
0000e0 24 d0 19 bd 42 e2 93 bc 84 b8 0d 3d e6 d0 a6 bd
       -0.037552014 -0.018052224 0.034599796 -0.08145313
0000f0 6e 8d 9b 3d de 51 2a bd 00 f8 29 be 76 0d 9c bd
       0.07595335 -0.04158198 -0.1659851 -0.07619755
000100 d4 9a 8e 3d 16 13 62 3c c0 09 a9 bd 5c f3 a8 3d
       0.06963125 0.013798496 -0.08253813 0.08249542
000110 c8 fc fd bd a4 a3 73 bd 04 38 35 bd c2 09 ab bc
       -0.1240173 -0.05948223 -0.044242874 -0.020878676
000120 2f 1a 42 be 74 52 24 3c fc c4 9d bc c9 89 30 bd
       -0.18955301 0.010029424 -0.019258969 -0.043100152
000130 b6 19 44 bd 5f fd 4e be 42 01 df bc 00 3c 72 39
       -0.047876082 -0.20213841 -0.02722228 0.0002310127
000140 dc f5 44 be d0 f4 f6 3c 00 81 08 bd 82 7f 0e be
       -0.19234413 0.030146033 -0.03332615 -0.13915828
000150 4c 0b 7c bd 56 42 b9 bd a3 23 53 bd cf ef de bc
       -0.06153421 -0.09045856 -0.051547658 -0.027213959
000160 d6 35 8d bd 40 e4 20 bc 96 d7 41 3d de ae 93 bd
       -0.06895034 -0.009820044 0.04732474 -0.07211088
000170 44 eb 13 3d 90 0e b5 bc e7 81 d7 3c 80 32 a2 3d
       0.03611304 -0.02210167 0.02630706 0.07919788
000180 fe 6a 80 3c a4 88 71 bd 52 10 f6 bd 95 b3 87 bc
       0.015676018 -0.0589682 -0.120148316 -0.016565124
000190 eb 20 fe ba a0 06 05 bd 3b e4 a9 bd 09 a1 0d be
       -0.0019388472 -0.03247702 -0.08295485 -0.13830961
0001a0 78 f3 90 bd e2 26 28 3d a6 c6 83 bd 48 e1 0f 3d
       -0.07077688 0.041052707 -0.064343736 0.035126954
0001b0 94 63 1d bd 3c 2b 38 3c 4a d9 b0 3d 35 a2 15 bd
       -0.038425043 0.011240777 0.086351946 -0.036531646
0001c0 40 f2 37 bb 73 42 18 bd 30 5c 1b be e7 a6 2f bd
       -0.0028067976 -0.037172746 -0.15171885 -0.04288378
0001d0 e0 e6 eb 3b 00 8b 11 be 92 c4 b3 bc 97 48 31 be
       0.0071991533 -0.1421318 -0.021944318 -0.17312847
0001e0 71 be 2f be 12 db 50 bd d1 18 45 3b 89 3d 0f bd
       -0.17162491 -0.05099017 0.0030074606 -0.034970794
0001f0 e8 ce 47 3c bd bf 3d bd 01 45 66 bd 7e 8a 09 be
       0.012195326 -0.046325434 -0.05621815 -0.13431737
000200 e4 53 e2 3d 14 4e 74 be 9c ce d9 bd 14 23 e0 3d
       0.11051157 -0.2385791 -0.10635111 0.109441906
000210 10 e5 77 bd 84 c2 06 bd 8c 54 ac 3d 61 a4 32 3c
       -0.060521185 -0.03290035 0.084145635 0.010903449
000220 bd 91 2a be cd eb b7 bd 08 85 88 3d e8 04 ab bc
       -0.16657157 -0.08980522 0.06665999 -0.020876363
000230 26 14 33 bd ca 46 a0 bd 34 15 86 bc f8 6f 8e 3c
       -0.043720387 -0.07826002 -0.016367532 0.017387375
000240 d3 fc 06 3d 98 78 23 3d 60 20 85 3b f2 1a 5d bd
       0.032955956 0.03990993 0.0040626973 -0.053980775
000250 cc 0e ad bd 2a c3 2f be a8 f9 82 bd a0 48 32 bc
       -0.08450088 -0.17164293 -0.063952744 -0.010881573
000260 88 ea 84 3d 58 16 cb bc 9a 65 83 bd a0 b5 38 bc
       0.06490046 -0.024790928 -0.06415863 -0.0112737715
000270 ba c0 94 bd e8 11 75 bc 9c af 0b be 38 4d 84 bd
       -0.07263322 -0.014957882 -0.13641208 -0.06460041
000280 3c a5 a8 3d c8 a3 56 3d 14 7c 33 bd e8 24 16 be
       0.08234641 0.052402288 -0.043819502 -0.14662516
000290 81 27 01 be 58 5a 96 bc 68 46 42 be 0e 35 9c 3d
       -0.12612726 -0.018353626 -0.1897217 0.07627307
0002a0 e0 98 6f 3d 91 94 df bd 00 71 f3 3c 7e b1 c9 bd
       0.058495402 -0.10917009 0.029716969 -0.09848307
0002b0 fc a2 e4 bc ce 7a 0c 3d 34 8b b7 3d 00 07 96 ba
       -0.027909748 0.034296803 0.08962098 -0.0011446178
0002c0 e9 3c 19 3d e4 7d 98 3d fe ad 0c be 61 d6 de bd
       0.037411604 0.07445887 -0.13738248 -0.10880733
0002d0 10 87 4d bd 34 ba af 3d 30 8f 97 3c 28 85 d6 bc
       -0.050177634 0.08580437 0.018500894 -0.02618654
0002e0 e0 53 7f 3d 11 84 1a be ee c6 bc bd 8a 65 e6 3d
       0.06233585 -0.15089442 -0.0921763 0.11249836
0002f0 15 c2 86 bd 86 0a 0a be c2 13 35 be cc 78 98 bd
       -0.06579987 -0.13480577 -0.17683318 -0.07444915
000300 b8 91 f4 bc 80 65 19 bb 0f 0f fc bb 08 97 ef 3d
       -0.02985464 -0.0023406446 -0.007692225 0.11698729
000310 1c ba f9 bd 1a 65 bf 3d 94 ac 56 3d 3d 5c ed bd
       -0.12193701 0.093454555 0.052410677 -0.11589859
000320 11 71 32 be 70 0d 44 be 70 c7 46 bd fe 3d 5d bb
       -0.17425944 -0.19145751 -0.048530042 -0.0033758874
000330 c5 ac 0c be a0 b7 cb 3b 63 c3 17 3d 3a 96 a8 bd
       -0.13737781 0.006216958 0.03705157 -0.082317784
000340 57 0b d7 bd 02 b5 cf bd 94 eb 40 be 8a 98 d9 bc
       -0.1050021 -0.101419464 -0.18839866 -0.026561994
000350 fc 0e 7f 3d d9 25 3b 3d f8 a2 48 bd 64 d5 0b 3d
       0.06227015 0.04569039 -0.048983544 0.034139052
000360 40 b9 27 bc 28 cb 04 bd ae 3c 07 be ce 65 cb 3d
       -0.010237038 -0.032420307 -0.13206741 0.09931527
000370 3a af b4 3d 4c da 26 be 14 6d 4e 3d 40 e5 ab 3b
       0.08822484 -0.16294211 0.050396994 0.0052458346
000380 52 17 fc 3d e6 7c c3 bd c8 f9 97 3d a9 7a c4 3c
       0.123091355 -0.09545307 0.07420689 0.02398427
000390 42 2a b7 bd a0 41 75 3d a8 26 46 be 82 51 f7 bd
       -0.08943607 0.059877038 -0.19350684 -0.12076093
0003a0 d0 20 42 3d 1d 65 f9 bd bc d2 e9 3d 40 0d d4 bd
       0.047394574 -0.12177489 0.114171475 -0.1035409
0003b0 05 52 d6 bb 4b d0 89 bd 4a eb d9 bd 98 79 90 bd
       -0.006540539 -0.06729182 -0.10640581 -0.07054442
0003c0 7e d9 8a 3d 01 6c f2 bc fd 73 3d 3d d8 1b ec 3c
       0.067797646 -0.029592516 0.046253193 0.02882187
0003d0 c6 bd f5 3d 3f 9f e9 bb fb 72 a1 bd 3b db 09 bd
       0.11999087 -0.0071295793 -0.07883259 -0.03365634
0003e0 03 18 0f be 52 fd 99 bd 07 44 2b be 84 ca ae bd
       -0.13974003 -0.0751902 -0.16725169 -0.085347205
0003f0 fc d8 e5 bd 6b af 0c be 41 62 4a 3c 14 e3 7c bd
       -0.11223027 -0.13738792 0.012352527 -0.061739996

decoder.2.bias f4 [784]
000000 91 3e 42 3c 08 d4 b3 bc 89 43 51 3c d6 d7 bf bd
       0.011855737 -0.02195169 0.012772449 -0.09367339
000010 ab 27 13 be 64 32 29 bd 75 b5 1f be 1c 69 8d bc
       -0.14370601 -0.041307822 -0.15596564 -0.017262034
000020 d9 cf 9c bd d3 7a 21 be 45 e8 aa bd a9 22 0f be
       -0.07656831 -0.1576951 -0.08345083 -0.13978066
000030 88 1f 2d be 6d a9 03 bd b8 e0 3f be f7 bd 0a be
       -0.1690656 -0.032144 -0.18738067 -0.13549028
000040 b7 67 3a be d0 6d de 3c c0 18 b0 3c 4d f2 e3 bc
       -0.18203627 0.027151972 0.021496177 -0.027825499
000050 c0 77 0b bd 8d cc 24 be 2c 48 1f bd 3e 0a 1d be
       -0.03404975 -0.16093655 -0.038887188 -0.15335938
000060 45 5c 2b be d9 d8 f2 3c 26 45 b6 bd 70 4e 38 be
       -0.16734417 0.029644417 -0.08899908 -0.17998672
000070 9d aa 0b be 2b 3f 6f bd f9 59 42 bb 4d 6e 42 be
       -0.13639303 -0.05840985 -0.0029655679 -0.18987389
000080 0a 7f 08 bd 7a 93 89 bd e8 84 60 bb 4e 60 9c bd
       -0.03332428 -0.06717582 -0.0034258906 -0.07635556
000090 3b 28 1a be fb cf 74 bd 4b fc 36 be 47 31 d5 3b
       -0.15054409 -0.059768658 -0.1786968 0.0065061185
0000a0 88 11 fc bb 12 ef 64 3b 4c f3 ca 3c 2f 02 be bd
       -0.0076925196 0.0034932536 0.024774216 -0.0927776
0000b0 c3 9c b1 bb f2 73 1c be 6d ae 25 be 9a 4c 85 bd
       -0.005420299 -0.15278605 -0.1617982 -0.06508751
0000c0 05 b5 23 be 1c 92 4c bd fe eb 32 be 9c a4 76 bc
       -0.15987022 -0.04994403 -0.17472836 -0.015053894
0000d0 b5 a3 e4 bd 9b bb 97 bd a1 83 c8 3c a0 1a f9 3c
       -0.11164037 -0.0740883 0.024476828 0.030408204
0000e0 14 81 f8 bd 09 df a7 bd 86 33 d1 bd dd 3f 60 bd
       -0.12133995 -0.081968375 -0.102149054 -0.054748405
0000f0 4d 1b 17 bd be 4d c9 bd 75 87 a8 bd c6 07 6d be
       -0.03689127 -0.09829281 -0.082289614 -0.23147497
000100 a3 85 8a bc 7c 6d f5 bd 49 14 e0 3b ba 2e d8 bd
       -0.016909426 -0.11983773 0.0068383557 -0.105557874
000110 2c b6 24 be 64 d4 20 bd 1a c0 34 be 11 15 15 be
       -0.16085118 -0.03926505 -0.17651406 -0.14558817
000120 a1 79 f4 bc 6a d5 b1 bd ef 06 10 bd 8e 69 c5 bd
       -0.029843153 -0.086832836 -0.035162862 -0.096392736
000130 d8 f5 66 bd 21 18 01 bd 8a 91 38 3c 4e f7 af bd
       -0.0563868 -0.03151715 0.011265168 -0.085920915
000140 a9 81 09 be c5 eb bf bd 1d b9 83 bc 6c 62 ba bc
       -0.13428368 -0.09371141 -0.01607948 -0.02275201
000150 97 62 9d bd cd 0d df bd ed bb 35 bd b7 06 d6 bd
       -0.0768482 -0.10891304 -0.044368673 -0.104504995
000160 35 e1 50 bc b0 7b 33 bd 67 9b 4c be 97 13 00 be
       -0.012749006 -0.04381913 -0.19981156 -0.12507473
000170 04 51 01 be a6 c0 2f bd ef 67 b8 bd fd 84 9b bd
       -0.12628561 -0.042908333 -0.09004199 -0.07593725
000180 95 3a 17 3d 5c fe 56 be a2 b8 04 be a5 17 ca bd
       0.036921103 -0.20995468 -0.12961057 -0.09867791
000190 7b 06 81 bd fb aa 43 bd 3b d3 54 be 40 68 6e be
       -0.06300064 -0.04777048 -0.20783703 -0.23281956
0001a0 a3 de 19 be 89 e5 22 be 45 7a 2d be ce 0e 88 bd
       -0.15026335 -0.15907873 -0.16941173 -0.06643449
0001b0 c2 ba 48 3d fd d9 da bd 2c df 84 bd 66 29 a4 bd
       0.04900623 -0.10686109 -0.06487879 -0.080157086
0001c0 6b ad 1b be ff b7 2c bd 57 17 6f bc 94 a2 0f be
       -0.15202872 -0.04216766 -0.014592967 -0.14026862
0001d0 ce 3a 10 bd fa 1e 62 3d 1b 6a a6 bd 47 73 50 bd
       -0.03521233 0.055205323 -0.08125707 -0.050891187
0001e0 c8 32 a1 bd 05 2a 24 be f3 f2 37 be 0a c2 09 be
       -0.07871014 -0.16031654 -0.17963772 -0.13452926
0001f0 99 f2 de bd ac 27 52 3c c5 88 43 be d3 d3 a4 be
       -0.108861156 0.012826841 -0.19095142 -0.3219286
000200 6f 61 70 be 20 d0 89 be 1f a4 b4 be 85 4d d7 be
       -0.23474668 -0.269166 -0.35281464 -0.4205133
000210 4d c0 4c bd d6 2b 29 be 89 94 8f bd 24 cf e4 bd
       -0.04998808 -0.16520628 -0.07010753 -0.111723214
000220 02 e9 20 3a db 66 36 be 02 90 c2 bd 00 26 b3 bd
       0.00061382365 -0.17812674 -0.095001236 -0.08747482
000230 01 5d 00 be 95 77 fe bd 60 e9 7c bc a0 12 e6 bd
       -0.12535478 -0.12425152 -0.0154365 -0.11234021
000240 19 d8 cf bd bb d7 35 be 88 60 60 3c 3a a9 50 be
       -0.10148639 -0.17758076 0.01369489 -0.20377055
000250 52 c2 c0 bd 67 ba 9d 3c 5b 4a 95 3b 4c 43 e7 3d
       -0.09412064 0.019253923 0.004555983 0.11292133
000260 b4 bc 3b 3e 04 be f8 3d 59 51 ca bd 18 21 9e be
       0.18333703 0.121456176 -0.09878797 -0.30884624
000270 04 9a f8 bd 95 d8 86 be b7 ab fa be 08 10 c7 be
       -0.12138751 -0.26337114 -0.48959133 -0.38879418
000280 aa 04 b7 be 3d f9 aa be 15 fc e9 bc ce b3 ef bc
       -0.35745746 -0.3339328 -0.028562585 -0.029260542
000290 52 b9 cf bc 02 e1 1f bd d9 2b 3d be cc ad da bd
       -0.025356922 -0.039032944 -0.18473758 -0.106776804
0002a0 c7 f4 26 3d 04 9d b4 bd 5d e1 ad bd f3 2c b7 bd
       0.04076078 -0.08819011 -0.0849025 -0.0894412
0002b0 26 9c d0 bd 38 d3 89 bd cb 58 12 be e0 ba 88 bb
       -0.10186033 -0.0672974 -0.14291684 -0.004172668
0002c0 44 15 16 be 72 57 21 3d dd 55 62 3e b1 7d 58 3e
       -0.1465655 0.039390035 0.22103067 0.21141697
0002d0 74 6f 7e 3e 3d 9f 85 3e d9 d2 5f 3c e6 91 5a bc
       0.24847203 0.26098052 0.01366111 -0.013340449
0002e0 5a b1 f5 bd 7a 17 08 be 00 b3 1f be 0b b4 32 be
       -0.11996718 -0.13290206 -0.15595627 -0.17451493
0002f0 92 e4 97 be e1 b9 2d be 53 46 98 ba 5e bc af bd
       -0.29666573 -0.16965438 -0.0011617638 -0.0858085
000300 01 3e 96 bc 60 0e 4c be ac 94 e0 bd 61 a7 0d be
       -0.018340113 -0.19927359 -0.10965857 -0.13833381
000310 73 1c 00 be 10 f0 c7 bb 1f b7 81 39 5b eb 04 be
       -0.12510853 -0.0061016157 0.00024741233 -0.12980406
000320 88 4a 1a be 40 51 d4 bd f4 06 3b bd 4b 87 bb bc
       -0.15067494 -0.1036706 -0.045660928 -0.022891661
000330 04 36 28 3d 62 a0 4a 3e d7 a1 75 3e 4d df 8e 3e
       0.04106714 0.19787744 0.23987518 0.2790474
000340 3a ce c6 3e 74 81 44 3e 31 49 f7 3d cf 9c 0d bc
       0.38829213 0.19190007 0.12074507 -0.008643343
000350 a1 e0 b0 bd dc 1b a0 3d 5f c2 9d 3d c2 73 a0 bd
       -0.086365946 0.07817814 0.07703089 -0.07834579
000360 2b 15 87 bd a2 4e 7c bd a4 57 f9 bc 9d 20 53 3d
       -0.06595834 -0.061598428 -0.030437298 0.051544774
000370 c3 a0 12 be 12 af 4c bb 84 98 10 be df 52 16 be
       -0.14319138 -0.003123228 -0.1412068 -0.1468005
000380 22 14 d3 bd f3 0f e9 3c 52 9d de bd 0f 41 01 be
       -0.103065744 0.028449988 -0.1086985 -0.12622474
000390 b3 66 46 bc 80 e7 be bd 99 6b 86 bd 1c 0a d0 bb
       -0.012109446 -0.09321499 -0.065634914 -0.0063488614
0003a0 5f fd 46 3e 78 e3 67 3e 93 2b 94 3e 23 c2 3a 3e
       0.19432591 0.22645366 0.28939494 0.1823812
0003b0 6b 26 71 3e 7b 8b f3 3d 16 9f 0b 3c 44 1c 9d bc
       0.23549812 0.11891838 0.008521816 -0.019178517
0003c0 19 a7 1b bd 6f b4 f8 3d f0 6b 2f 3e 85 f2 4e bb
       -0.038001154 0.1214379 0.17131019 -0.0031577658
0003d0 21 0a fc 3c 21 9d 9a 3c d2 04 0e be c4 53 f2 3b
       0.030766549 0.018873753 -0.13869026 0.0073952395
0003e0 ef 95 14 be 61 ca be bd f3 24 27 be 56 b6 03 3d
       -0.1451032 -0.093159445 -0.16322689 0.03215631
0003f0 ab 88 32 3c 84 84 2c be eb 8e d9 bd c2 c9 40 bd
       0.010896842 -0.16847426 -0.106229626 -0.04706741
