2022051850.pt (torch, 424079 bytes, 8 tensors)

encoder.0.weight f4 [64, 784]
0	0xbc6ddf61	-0.01451859
1	0x3cf0d2ac	0.029397331
2	0x3c9aec90	0.01891163
3	0x3c97ddbe	0.018538352
4	0xbd8e851f	-0.069589846
5	0xbe3a9cf4	-0.18223935
6	0xbf81676b	-1.0109686
7	0xbf64ae2b	-0.8932826
8	0xbd973419	-0.07382984
9	0x3ea31d1e	0.31858152
10	0x3ebdd141	0.3707371
11	0x3ddf34ae	0.1089872
12	0xbee20ca0	-0.44150257
13	0xbef2ab1c	-0.4739617
14	0xbf2c4d5f	-0.6730556
15	0xbe936699	-0.28789213
16	0x3e83c144	0.25733387
17	0x3ebd0610	0.36918688
18	0x3ee8c5b8	0.45463347
19	0x3e21878a	0.1577436
20	0xbec087e8	-0.37603688
21	0xbe2c0c30	-0.16801524
22	0xbf45832c	-0.7715328
23	0xbb4955d4	-0.0030721324
24	0xbcc10f23	-0.023566788
25	0xbbe05d4a	-0.0068470584
26	0xbaf7e401	-0.0018912555
27	0xbcc1b7ac	-0.023647152
28	0xbc8a6ce3	-0.016897624
29	0xbaf53c4a	-0.0018709984
30	0x3eed3755	0.46331277
31	0xbdd07186	-0.10177903
32	0x3e3c3003	0.1837769
33	0xbf70c24c	-0.94046474
34	0xbecefdd4	-0.4042803
35	0xbf8669b9	-1.0501014
36	0xbf85733f	-1.0425795
37	0xbe6b245a	-0.22963086
38	0x3f097b54	0.5370381
39	0x3f05ec43	0.5231363
40	0x3d01e017	0.03170785
41	0xbf83ed15	-1.0306727
42	0xbeb7cbdb	-0.35897717
43	0xbe907c1c	-0.28219688
44	0xbf5b83eb	-0.85748166
45	0xbf4d0099	-0.80079037
46	0xbf41f8d0	-0.7577028
47	0xbed0fa64	-0.40816033
48	0xbe31b79e	-0.173552
49	0xbf552a98	-0.8326812
50	0xbec98222	-0.39357096
51	0xbf8febac	-1.1243796
52	0xbeb00822	-0.34381205
53	0xbe8f9453	-0.2804285
54	0xbaca4525	-0.0015431984
55	0xbce1f643	-0.027583247
56	0x3c83af25	0.016074726
57	0x3c6d1b25	0.014471804
58	0x3e2b3ad4	0.1672166
59	0xbf091632	-0.5354949
60	0x3e58f6fd	0.21187969
61	0xbfb22651	-1.3917943
62	0xbf9bf02d	-1.2182671
63	0xbecb8fef	-0.3975825
64	0xbea27f12	-0.31737572
65	0x3e23777a	0.15963545
66	0x3f2bdf05	0.67137176
67	0xbe066354	-0.13123828
68	0x3e5d7d0c	0.21629733
69	0x3d4cd5b2	0.050008483
70	0xbe9502b5	-0.29103628
71	0xbe98c1bd	-0.2983531
72	0xbeee738b	-0.46572527
73	0xbe0dc436	-0.1384438
74	0xbe8deefb	-0.2772139
75	0xbe2e3c3a	-0.17015162
76	0xbee2266c	-0.4416994
77	0x3cce8d58	0.025213882
78	0x3eb26e44	0.3484975
79	0xbd089185	-0.033341903
80	0x3e209243	0.15680794
81	0xbe12ff2d	-0.14355154
82	0x3ec02131	0.37525323
83	0xbc8be6c0	-0.017077804
84	0x3d0121d8	0.031526417
85	0x3da47ef6	0.080320284
86	0xbd55893b	-0.052132826
87	0x3e5b2b20	0.2140317
88	0x3dab5c1f	0.0836718
89	0x3e328662	0.17434075
90	0xbee75786	-0.45183963
91	0xbf466f6f	-0.77513784
92	0xbeb75aaa	-0.3581136
93	0x3e74918b	0.23883645
94	0x3dcbaf83	0.099455856
95	0x3d663c38	0.056209773
96	0x3da69717	0.08134287
97	0x3e4e2f9b	0.20135348
98	0x3df1d6d1	0.11808551
99	0x3a99e6ad	0.001174172
100	0x3e1c1ccb	0.15245359
101	0xbd9e4c36	-0.0772938
102	0xbe8d3506	-0.27579516
103	0x3d4b7410	0.049671233
104	0xbe8e18c8	-0.27753282
105	0x3e05fc5c	0.13084549
106	0x3da67ce9	0.081292935
107	0x3e31e932	0.17374113
108	0xbf0259a0	-0.50918007
109	0x3e58730e	0.2113764
110	0xbe62d416	-0.22151217
111	0x3f444167	0.76662296
112	0xbb86a9ee	-0.0041096127
113	0xbe10209a	-0.14074937
114	0xbee5f7cc	-0.44915617
115	0xbf1f1b76	-0.6215128
116	0xbf2cd771	-0.6751624
117	0x3f30f674	0.6912606
118	0x3e0d9462	0.13826135
119	0xbec8f949	-0.3925269
120	0xbe5240fa	-0.20532599
121	0x3d9febc0	0.078086376
122	0x3d5e3882	0.05425311
123	0x3cb8c2d8	0.022553846
124	0x3ddaa46a	0.10675891
125	0x3dfded6d	0.12398801
126	0xbc4a8dde	-0.012362925
127	0x3dc7016f	0.0971707
128	0x3e3c7dd4	0.18407375
129	0x3d28da27	0.04122367
130	0x3c318b7b	0.010836477
131	0x3da7a873	0.08186426
132	0xbd96b4c0	-0.07358694
133	0x3ea67180	0.3250847
134	0xbdb9911b	-0.0906088
135	0xbdf204c6	-0.11817317
136	0xbdbb34e1	-0.09140945
137	0xbf49bb7d	-0.7880171
138	0xbcf718a7	-0.030163122
139	0x3db39929	0.08769447
140	0xbc606fea	-0.013698557
141	0x3e2285e0	0.15871382
142	0x3c289dc2	0.010291519
143	0xbec992ee	-0.3936991
144	0x3e17d0f9	0.1482581
145	0xbe22fccd	-0.15916748
146	0xbdf8a85b	-0.12141486
147	0x3d356379	0.044284318
148	0x3d9f6f61	0.07784916
149	0xbd29ef3c	-0.041487917
150	0xbddaeaeb	-0.10689338
151	0x3cb6eea7	0.022330595
152	0x3d561e37	0.05227491
153	0x3d2805d4	0.041021183
154	0x3d9e1b98	0.07720107
155	0x3d4725bd	0.048619974
156	0x3dc25c44	0.094902545
157	0x3d8feb67	0.07027321
158	0x3df41bf8	0.11919397
159	0x3d8a9b99	0.06767959
160	0xbd8c965f	-0.068646185
161	0xbdaf6897	-0.08564871
162	0xbe2e974f	-0.17049907
163	0xbe0907c4	-0.13381869
164	0x3dd54fc0	0.10415602
165	0xbed57be0	-0.41696072
166	0xbed78abc	-0.42098033
167	0xbdba54b1	-0.09098185
168	0xbd10a0f7	-0.035309758
169	0xbfdfc88a	-1.7483075
170	0xbc589b14	-0.013220567
171	0xbe5cc8b0	-0.21560931
172	0x3f01b335	0.50664073
173	0xbd7943a4	-0.060855523
174	0x3e47e437	0.19520651
175	0x3da1c18b	0.078982435
176	0xbc841c6a	-0.01612683
177	0xbb682e54	-0.0035428004
178	0xbd8470df	-0.06466841
179	0x3d89d345	0.067297496
180	0x3c26fa92	0.010191577
181	0xbdacea3a	-0.08443113
182	0x3dad3cbc	0.0845885
183	0x3e1b9413	0.15193205
184	0x3c9decea	0.019278008
185	0x3d2724b4	0.040806487
186	0x3e11cc6f	0.14238141
187	0x3dbbfb94	0.09178844
188	0xbdaa712a	-0.083223656
189	0xbe06de80	-0.13170815
190	0xbd1180c0	-0.035523176
191	0x3e035b96	0.12827906
192	0x3cacd0b7	0.021095617
193	0xbe8403a4	-0.25784028
194	0x3e39cc96	0.1814445
195	0xbf806ec1	-1.00338
196	0x3ebefbff	0.37301633
197	0x400aa341	2.1662142
198	0x3ec10443	0.37698564
199	0xbdac7620	-0.08420968
200	0xbda9a243	-0.08282902
201	0xbde5303e	-0.11190842
202	0xbcee9fcd	-0.029128933
203	0x3bb41282	0.0054953704
204	0xbe13846d	-0.14405985
205	0x3dadd1f9	0.08487315
206	0xbe21ce93	-0.15801458
207	0x3c97a91a	0.018513251
208	0xbe0b4a12	-0.13602474
209	0xbda2ce4f	-0.079495065
210	0x3dc1f353	0.094702385
211	0xbd723b4d	-0.059138585
212	0x3d212525	0.039342064
213	0x3ded74bd	0.11594532
214	0xbdb7f3ec	-0.08982071
215	0x3dda03e3	0.106452726
216	0xbddf1388	-0.10892397
217	0xbe2748ac	-0.16336316
218	0xbd5ebc39	-0.054378722
219	0xbe9ca8d9	-0.3059757
220	0x3b333389	0.002734395
221	0xbd426600	-0.047460556
222	0x3da7abb9	0.0818705
223	0x3ec74c3f	0.3892536
224	0xbf1c8c52	-0.6115161
225	0xbe978c2e	-0.29599136
226	0x3da8ceb0	0.082425475
227	0xbea00007	-0.3125002
228	0x3de6630d	0.11249361
229	0xbd8d5add	-0.069020964
230	0xbd905c9a	-0.07048912
231	0xbdc3c33b	-0.09558722
232	0xbd835883	-0.06413367
233	0x3c78175e	0.01514229
234	0xbdaf2e93	-0.08553805
235	0x3d9e479c	0.07728502
236	0xbc083b9f	-0.008314996
237	0xbdae2c1f	-0.08504509
238	0x3de55361	0.11197544
239	0x3e150620	0.14553118
240	0x3dfc1f44	0.12310651
241	0x3e09256a	0.13393179
242	0xbcc537c2	-0.024074439
243	0x3d98320e	0.07431422
244	0xbb831cad	-0.004001221
245	0xbe3696ae	-0.17830917
246	0xbd6a4e20	-0.057203412
247	0xbedc83b8	-0.43069243
248	0xbdd0fbe1	-0.10204292
249	0x3de35dea	0.11101897
250	0xbef9f528	-0.48819852
251	0x3f3f2cc6	0.74677694
252	0xbe21f6ad	-0.15816756
253	0x3f1474cc	0.5799072
254	0xbec71734	-0.3888489
255	0x3e831751	0.25603727

encoder.0.bias f4 [64]
0	0x3f93eb38	1.1556158
1	0xbf423556	-0.75862634
2	0xbdaf8ea0	-0.085721254
3	0x3f2082c0	0.6269951
4	0x3fbd1535	1.4772097
5	0xbf88d4b3	-1.0689911
6	0x3f96dc61	1.1786004
7	0xbe0ba1b4	-0.13635904
8	0x3f73c36c	0.95220065
9	0x3d090e8f	0.03346115
10	0x3fa21ab0	1.2664394
11	0x3fb59b1c	1.4187961
12	0x3fc62ac7	1.5481805
13	0x3f8ab3c6	1.0836112
14	0x3f8a34ae	1.0797327
15	0x3f877a61	1.0584222
16	0x3f7cee21	0.98800856
17	0x3f7d0a3b	0.98843735
18	0x3fd28454	1.6446633
19	0xbe72310c	-0.23651522
20	0x3fe7b569	1.8102237
21	0x3f92edbd	1.1478802
22	0x3f363df5	0.7118829
23	0xbd4b7c26	-0.049678944
24	0x3f68f8d7	0.910047
25	0x3e927356	0.2860362
26	0x3f8fce65	1.1234862
27	0x3fa849b3	1.3147491
28	0xbc67dac5	-0.01415128
29	0x3f922e6c	1.1420417
30	0x3f0dfcaf	0.5546369
31	0x3f103a2a	0.5633875
32	0x3dc70f1e	0.0971968
33	0x3f263380	0.6492233
34	0x3ffc0c0f	1.969118
35	0x3e89929c	0.26869667
36	0x3fb4790d	1.4099442
37	0x3f9876ef	1.1911296
38	0x3f91c8da	1.138942
39	0xbe117615	-0.14205201
40	0xbe0eecd2	-0.13957527
41	0x3e998a09	0.29988125
42	0x3f35f385	0.71074706
43	0x3f197c44	0.5995524
44	0x3f9e447e	1.2364652
45	0x3fc8fdb4	1.5702424
46	0x3f5a94d7	0.8538336
47	0x3f676033	0.90381163
48	0x3f0ef4f1	0.558425
49	0x3f292c7e	0.66083515
50	0x3d948a88	0.07252985
51	0x3fbc4f6e	1.471174
52	0x3d46d0ea	0.04853908
53	0x3fc30a5d	1.5237538
54	0x3fa51387	1.2896584
55	0x3fa083cc	1.2540221
56	0x3f00161b	0.5003373
57	0xbebc599b	-0.36787114
58	0x3ea2ecec	0.31821382
59	0x3f8e9645	1.1139609
60	0xbe5844b6	-0.21119961
61	0x3f3f6d34	0.74776006
62	0x3f34a078	0.70557356
63	0x3ef21212	0.47279412

encoder.2.weight f4 [32, 64]
0	0xbe006b40	-0.12540913
1	0xbde39901	-0.111131676
2	0xbd6824aa	-0.05667559
3	0xbe001ed7	-0.12511764
4	0xbe36c119	-0.17847098
5	0x3cb72e1b	0.022360852
6	0xbda2c504	-0.07947734
7	0x3ca36063	0.019943422
8	0x3abc9581	0.0014387817
9	0xbe2df7b0	-0.16989017
10	0xbd4543e2	-0.04816044
11	0xbcd1268d	-0.025531078
12	0xbd138fda	-0.03602586
13	0xbe0e9b62	-0.13926461
14	0x3af9b7f0	0.001905201
15	0x3c221b97	0.009894273
16	0x3d846f66	0.0646656
17	0x3d4fc397	0.05072364
18	0xbdbb84a7	-0.09156161
19	0x3d840314	0.064458996
20	0xbe1ba4f7	-0.15199648
21	0xbe20246a	-0.15638891
22	0xbcd8b1e2	-0.026452009
23	0xbda35f4f	-0.07977163
24	0x3d083cf8	0.03326127
25	0xbe06e8c9	-0.13174738
26	0xbe0ecc38	-0.13945091
27	0xbd9aac98	-0.07552451
28	0xbddc8746	-0.10767989
29	0xbdc8b793	-0.09800639
30	0xbd5826c3	-0.05277134
31	0xbdb0c001	-0.08630372
32	0xbc3c7cdf	-0.011504381
33	0xbe32663d	-0.17421813
34	0xbe1f203e	-0.15539643
35	0xbdd1abd6	-0.10237853
36	0xbd5f3f9f	-0.054504033
37	0xbe147448	-0.14497483
38	0xbe27c687	-0.16384326
39	0xbdf5b2cd	-0.11996994
40	0x3d456423	0.0481912
41	0xbd1c1ee6	-0.038115405
42	0x3d61a455	0.05508836
43	0x3d3ff81c	0.046867475
44	0xbc0d8a1d	-0.008638886
45	0x3d1852be	0.037188284
46	0xbe21fd0b	-0.15819184
47	0xbdd8a76d	-0.10578809
48	0xbe3b9a48	-0.18320572
49	0x3d1dac08	0.03849414
50	0xbd204c07	-0.039135005
51	0xbd3cc8a1	-0.046089772
52	0xbe1fbbf2	-0.15599039
53	0xbda7da1b	-0.08195897
54	0x3d1133af	0.03544968
55	0xbe10bd54	-0.14134723
56	0xbb0d2a9b	-0.0021540287
57	0xbe286977	-0.16446482
58	0x3cb1fd2d	0.021727169
59	0xbcb5755d	-0.02215069
60	0xbd715ede	-0.058928363
61	0x3cac3dc6	0.02102555
62	0xbd3e6425	-0.046482224
63	0xbe380ecf	-0.17974399
64	0x3d518223	0.0511495
65	0xbb4e711b	-0.0031500522
66	0xbdbbbe69	-0.09167177
67	0xbd4c6d9e	-0.049909227
68	0x3cf69ce7	0.030104114
69	0xbc0a1601	-0.008428098
70	0x3d30c94f	0.043160733
71	0xbce14698	-0.027499482
72	0x3d1fd990	0.039025843
73	0xbdbfaacc	-0.09358749
74	0x3d54a43a	0.05191443
75	0xbdc91d9f	-0.09820103
76	0xbcb66d8e	-0.022269037
77	0xbe327c82	-0.17430308
78	0xbe05d870	-0.13070846
79	0x3be08726	0.0068520484
80	0xbd30e7b3	-0.043189716
81	0xbd377165	-0.044785876
82	0xbd96c6e4	-0.07362154
83	0xbda77a79	-0.08177657
84	0xbdbe849b	-0.09302636
85	0xbe1f9c20	-0.155869
86	0x3d7d5aee	0.061854295
87	0xbc58d820	-0.013235122
88	0xbe2763e4	-0.16346699
89	0xbde1641f	-0.11005425
90	0xbe09f6c0	-0.13473034
91	0xbdbef5d6	-0.09324233
92	0x3d36af78	0.044600934
93	0xbdbbf319	-0.091772266
94	0xbe2334cc	-0.15938109
95	0xbd352beb	-0.044231337
96	0x3b49e20b	0.0030804898
97	0xbdb5a89f	-0.088700525
98	0xbc3646f4	-0.011125315
99	0xbdaed310	-0.08536351
100	0xbdfe69fa	-0.12422557
101	0xbe258fee	-0.16168186
102	0xbe2e6b7d	-0.17033191
103	0x3b372a72	0.0027948883
104	0xbe022586	-0.12709627
105	0x3b78b05c	0.0037946915
106	0x3d05355f	0.0325216
107	0xbd3c4975	-0.04596849
108	0xbd9aa6d3	-0.075513504
109	0xbe2a78a0	-0.16647577
110	0xbda87344	-0.0822511
111	0xbe3a1c5d	-0.18174882
112	0x3d0ccd32	0.034375377
113	0xbe29119c	-0.16510624
114	0xbd971aa9	-0.07378132
115	0xbd63736e	-0.055530004
116	0xbe2a277f	-0.16616629
117	0xbc8ad5a2	-0.016947571
118	0xbe393610	-0.1808703
119	0xbe04985e	-0.12948748
120	0xbdb695a8	-0.089152634
121	0x3c9d87f1	0.019229861
122	0x3bf71e7e	0.0075414767
123	0xbe010c22	-0.12602285
124	0xbe2f84ab	-0.17140453
125	0xbdccd078	-0.100007
126	0xbe0f2959	-0.13980617
127	0x3cadbc6a	0.021208007
128	0x3e2ebb7c	0.17063707
129	0x3d4eebc3	0.05051781
130	0xbcfe09fd	-0.031010622
131	0xbc8cd2f1	-0.017190428
132	0xbe00d124	-0.12579781
133	0x3ca41a51	0.02003208
134	0x3d974de4	0.07387903
135	0x3d85bcb2	0.065301314
136	0x3d56a1ad	0.05240028
137	0x3d773ae2	0.06035889
138	0x3d402258	0.046907753
139	0xbd977cab	-0.073968254
140	0xbbe09907	-0.00685418
141	0xbdb7739d	-0.08957598
142	0xbde51800	-0.11186218
143	0xbdf88e62	-0.12136532
144	0x3db09b6b	0.086233936
145	0xbd04466c	-0.032293722
146	0x3e54f16d	0.20795222
147	0x3e1d5920	0.1536603
148	0xbe2345f2	-0.15944651
149	0xbd69a045	-0.05703761
150	0xbe4a3a97	-0.19748913
151	0xbd117697	-0.035513487
152	0xbdabb2c2	-0.08383705
153	0x3c6c8d85	0.014438038
154	0xbc256e0d	-0.010097039
155	0xbd094dc9	-0.033521447
156	0x3dd37520	0.10325074
157	0xbe1ffa8b	-0.15622918
158	0xbda74c2c	-0.081688255
159	0x3d5caa3f	0.053873297
160	0x3d182749	0.03714684
161	0x3cd5c42e	0.026094522
162	0xbe25a3ef	-0.16175817
163	0x3d6a6282	0.05722285
164	0xbdac6fa4	-0.08419731
165	0xbe02a601	-0.12758638
166	0xbcfa590d	-0.03056004
167	0x3ccb5eef	0.024825541
168	0xbe34908c	-0.17633265
169	0x3d94657a	0.072459176
170	0xbeb6a51e	-0.3567285
171	0xbd81745a	-0.063210204
172	0xbcb2d86b	-0.021831712
173	0xbd34d57c	-0.044148907
174	0x3e2bf42f	0.16792367
175	0xbe0ec665	-0.13942869
176	0x3d3fc401	0.046817783
177	0xbdb116a1	-0.08646894
178	0xbb1ccd27	-0.0023925991
179	0x3d3825b7	0.044957843
180	0x3d82b92c	0.06382975
181	0xbd9cfdde	-0.07665609
182	0x3e6590df	0.22418545
183	0xbd4888c6	-0.048958562
184	0x3d1acbef	0.037792142
185	0xbcee5423	-0.029092854
186	0xbe4ad957	-0.19809471
187	0xbe2b99cc	-0.16757888
188	0x3cf97e31	0.03045568
189	0x3d5f50c1	0.054520372
190	0xbdaa455d	-0.08314011
191	0xbbffe8a6	-0.0078097163
192	0xbceac68f	-0.028659133
193	0xbe2ff7a7	-0.17184316
194	0x3d48d801	0.049034122
195	0x3e16620c	0.1468584
196	0xbd853979	-0.06505103
197	0xbcbad53e	-0.02280676
198	0x3e45a189	0.19299902
199	0xbde7cafb	-0.11318012
200	0x3da3347a	0.079689935
201	0xbd358ea3	-0.044325482
202	0x3d700acb	0.058604043
203	0x3e571e9b	0.21007769
204	0xbf3ba2c6	-0.7329525
205	0x3daa4ba9	0.08315212
206	0xbd3524b1	-0.044224445
207	0xbe6bb199	-0.23016967
208	0xbc9bff85	-0.01904274
209	0xbe603544	-0.21895319
210	0x3cc960a3	0.024582213
211	0xbdb178cb	-0.086656176
212	0xbe4d8a12	-0.20072201
213	0x3d381066	0.044937514
214	0xbb868829	-0.004105587
215	0x3d1ffb02	0.03905774
216	0xbd9c8e7a	-0.07644363
217	0xbc799745	-0.015233819
218	0xb93352a4	-0.00017101556
219	0x3dc4dd26	0.09612493
220	0x3d89f3a7	0.06735926
221	0xbfbe0793	-1.4846061
222	0xbcebaab3	-0.02876792
223	0x3d8c3b3c	0.068472356
224	0xbd864ec6	-0.065579936
225	0x3c998f7b	0.018745175
226	0xbfb0bb15	-1.3807093
227	0xbcb7916d	-0.022408212
228	0xba1ffb52	-0.00061028183
229	0x3b98fe9a	0.0046690227
230	0x3d150080	0.03637743
231	0x3d3b0535	0.045659263
232	0xbd5480a9	-0.051880512
233	0x3db47a56	0.08812396
234	0xbed35c85	-0.41281524
235	0xbd977447	-0.07395225
236	0xbcb0afc1	-0.021568181
237	0x3e1ea9aa	0.15494409
238	0x3dda1ab0	0.106496215
239	0xbe40f801	-0.18844606
240	0x3dd378c6	0.1032577
241	0x3d820531	0.063486464
242	0xbc4a6e6d	-0.012355429
243	0xbd7b2cfb	-0.061322194
244	0x3e68f33f	0.22749041
245	0x3e41b713	0.18917494
246	0x3cbc9b3f	0.023023246
247	0xbe0b1755	-0.13583119
248	0x3dd06259	0.10175008
249	0xbd90abba	-0.07064004
250	0xbea3d1e1	-0.31996062
251	0xbbdd3bc7	-0.006751511
252	0xbcc71ea4	-0.024306603
253	0x3dc2a56f	0.0950421
254	0xbf0c6cde	-0.5485362
255	0xbd88637c	-0.066596

encoder.2.bias f4 [32]
0	0xbd93b024	-0.072113305
1	0x39cda264	0.00039221637
2	0x3eb53926	0.35395163
3	0x3f08b7a6	0.53405225
4	0x3efcb94e	0.49360126
5	0x3ccc126b	0.024911126
6	0xbd8ae757	-0.06782406
7	0xbe15916e	-0.14606258
8	0xbe17e25b	-0.14832442
9	0xbed5d30e	-0.41762584
10	0x3ecaef58	0.3963573
11	0x3ec86caf	0.3914542
12	0xbd85d65f	-0.06535029
13	0x3e6b2af6	0.22965607
14	0x3e605f7f	0.21911429
15	0x3bd94afb	0.006631253
16	0xbe2156df	-0.15755795
17	0x3d3ab110	0.045579016
18	0x3efa1f44	0.4885198
19	0x3e9122e9	0.28346947
20	0x3a4564ad	0.00075299555
21	0xbdcc6273	-0.09979715
22	0x3dfd9ba3	0.12383201
23	0xbd6bae42	-0.057539232
24	0x3eca73e8	0.39541554
25	0xbe6ab756	-0.229215
26	0x3ee9731f	0.45595643
27	0x3f08b8b7	0.5340685
28	0x3d254f36	0.040358745
29	0x3e6c0ac6	0.23050985
30	0x3e9b78d4	0.30365622
31	0x3e9c62ab	0.30544028

decoder.0.weight f4 [64, 32]
0	0xbe81b3f1	-0.25332597
1	0xbe922c7c	-0.28549564
2	0xbeb7f8f8	-0.35932136
3	0xbe8ae9e6	-0.27131575
4	0xbeb7f1fa	-0.359268
5	0xbe93c36f	-0.28860041
6	0xbdf4c1d6	-0.11951034
7	0xbdddd095	-0.108307995
8	0x3ed2bf4b	0.4116157
9	0xbd16b11a	-0.03678999
10	0xbde4d54d	-0.111734964
11	0xbee8fbf7	-0.45504734
12	0xbe94f382	-0.29092032
13	0x3d92c902	0.071672454
14	0xbedc30fd	-0.43006125
15	0xbee802e7	-0.45314714
16	0xbd98fa53	-0.074696206
17	0xbeb496f5	-0.3527142
18	0xbe5a56c7	-0.21322165
19	0xbea2bfee	-0.31787056
20	0xbe51aaf2	-0.20475367
21	0xbebfaf1e	-0.3743829
22	0xbead6a3e	-0.3387012
23	0xbed9bbd7	-0.42526123
24	0x3e9acb77	0.30233356
25	0x3ed0a8f8	0.40753913
26	0x3edb20f3	0.42798576
27	0xbeb837bd	-0.35980025
28	0x3e6bffae	0.23046753
29	0xbece5862	-0.40301806
30	0xbe5bb23e	-0.21454713
31	0x3e233e2f	0.1594169
32	0xbe047467	-0.12935029
33	0xbd9a0e73	-0.07522287
34	0x3d385bd8	0.045009464
35	0x3e5889f3	0.21146373
36	0x3d0f11c1	0.03492904
37	0x3e156b54	0.14591724
38	0xbda0ad81	-0.07845593
39	0x3e0f906b	0.14019935
40	0x3e02e048	0.12780869
41	0xbdd88be3	-0.10573556
42	0x3ca483e6	0.020082425
43	0x3d5dedef	0.05418199
44	0x3e3bddea	0.18346372
45	0xbef0703c	-0.46960628
46	0xbe579463	-0.21052699
47	0x3d887ad5	0.06664053
48	0xbe12af92	-0.14324787
49	0x3e1067f1	0.1410215
50	0xbe3da891	-0.18521334
51	0x3ea44f50	0.3209176
52	0xbdb3617c	-0.08758828
53	0x3c24dccc	0.010062408
54	0xbd99269e	-0.07478069
55	0xbcde0ea1	-0.027106585
56	0xbe0118eb	-0.12607162
57	0xbddb0dfc	-0.10696027
58	0x3dd3bc52	0.103386536
59	0xbe1407c7	-0.14456092
60	0xbc89938f	-0.016793994
61	0x3d8d7c24	0.069084436
62	0xbc9df377	-0.019281132
63	0x3c8db818	0.017299697
64	0x3dd981a8	0.10620433
65	0xbc918cf0	-0.0177674
66	0x3c59a677	0.013284317
67	0xbd8b1c76	-0.06792538
68	0x3da7b3eb	0.081886135
69	0x3e3bbaf2	0.18333033
70	0x3dbdbf38	0.09264988
71	0x3e16964e	0.14705774
72	0xbe0e298b	-0.13883035
73	0xbc32ee9e	-0.010921149
74	0xbd8d07d8	-0.06886262
75	0xbe600f02	-0.21880725
76	0x3da2aa6f	0.07942664
77	0xbe0b9c38	-0.13633811
78	0xbd23071f	-0.039801713
79	0xbe14724d	-0.14496727
80	0xbdedc487	-0.1160975
81	0x3dd9f6bf	0.10642766
82	0x3d86866d	0.065686084
83	0xbc6adef7	-0.0143353855
84	0xbdae8bdf	-0.08522772
85	0x3e23c560	0.15993261
86	0xbeceda72	-0.40401036
87	0x3e318276	0.17334923
88	0x3e00f7d8	0.12594545
89	0x3dbe3548	0.09287506
90	0x3f0caebf	0.5495414
91	0xbd5bed78	-0.053693265
92	0xbdc3e17f	-0.09564494
93	0x3e0bbb51	0.13645674
94	0xbd6287c1	-0.055305246
95	0x3da9bcae	0.08287941
96	0xbdbfc36a	-0.09363444
97	0x3d8b3c67	0.0679863
98	0xbbba0134	-0.005676413
99	0xbe72d9e7	-0.23715936
100	0xbdef6843	-0.11689808
101	0xbe0afafc	-0.13572305
102	0xbe3b7c4b	-0.18309133
103	0x3df34c9b	0.11879846
104	0x3e2db716	0.16964373
105	0x3de66024	0.11248806
106	0x3d4dba15	0.05022629
107	0xbde7683d	-0.11299179
108	0xbe2229e4	-0.15836293
109	0xbe21c636	-0.15798268
110	0xbdd6fe8c	-0.1049777
111	0x3d899e8d	0.06719694
112	0x3ca98845	0.020694861
113	0xbdc085d4	-0.09400526
114	0xbe22c143	-0.15894036
115	0x3cdfa96f	0.027302472
116	0xbd515de7	-0.051114943
117	0xbdb338e8	-0.087510884
118	0x3e3afddf	0.18260907
119	0xbe6aba5b	-0.22922651
120	0x3d56d3f1	0.052448217
121	0xbcc824f6	-0.024431687
122	0x3e37707b	0.17914002
123	0x3d640546	0.05566909
124	0x3e2fbdfd	0.17162319
125	0xbe705cac	-0.23472852
126	0xbde41cf4	-0.11138335
127	0xbd1d4670	-0.038397253
128	0xbdd5f145	-0.10446409
129	0xbe88e4cb	-0.26737055
130	0xbded747b	-0.115944825
131	0xbe174c35	-0.14775164
132	0xbe48ea4b	-0.19620626
133	0xbda9eb73	-0.082968615
134	0xbe6ffe21	-0.23436786
135	0x3db79aca	0.089650705
136	0x3cd87ddb	0.0264272
137	0x3e0fec91	0.14055087
138	0xbccb0204	-0.024781235
139	0xbda25d7f	-0.07927989
140	0xbe201609	-0.15633406
141	0xbe64387a	-0.22287169
142	0x3ce9d810	0.02854541
143	0xbe5afb39	-0.21384896
144	0x3da3ef35	0.080046095
145	0xbe467788	-0.19381535
146	0xbe4fe494	-0.2030204
147	0xbe0d4116	-0.1379436
148	0x3d8d46cc	0.06898269
149	0xbe317336	-0.17329106
150	0xbdad01c3	-0.08447602
151	0xbd5d6bf0	-0.054058015
152	0xbe0377e4	-0.12838703
153	0xbd7ab88f	-0.061211165
154	0x3d8d99e4	0.06914118
155	0x3e60685c	0.2191481
156	0x3e6a18ad	0.22860976
157	0xbe4c70f1	-0.19964959
158	0xbdd01bdc	-0.10161564
159	0xbd842113	-0.06451621
160	0xbaa53901	-0.001260549
161	0xbdf655d3	-0.120280884
162	0xbb5d11a5	-0.003373244
163	0xbc99a410	-0.018754989
164	0xbdba4e9b	-0.09097024
165	0xbd4f4ae8	-0.050608546
166	0x3df965a2	0.12177588
167	0xbdbbebb6	-0.09175818
168	0x3dc84bc2	0.09780075
169	0x3d914dd1	0.070949204
170	0x3d821adc	0.06352779
171	0x3d831782	0.06400968
172	0x3d273ead	0.040831257
173	0xbdb657f1	-0.08903492
174	0xbe16011b	-0.14648859
175	0xbe116ed4	-0.14202434
176	0xbd0b683b	-0.03403495
177	0xbd020b51	-0.031749073
178	0x3d84fd34	0.06493607
179	0xbc978742	-0.018497113
180	0xbe2d9eb3	-0.1695507
181	0xbdd39c88	-0.1033259
182	0x3d0c01f6	0.034181558
183	0x3e0d0f54	0.13775378
184	0x3dc484e4	0.095956594
185	0x3df16c3a	0.11788221
186	0xbdf38a8b	-0.11891659
187	0xbda45425	-0.08023862
188	0x3e0cb851	0.13742186
189	0xbd2319b4	-0.039819434
190	0xbe262813	-0.16226225
191	0xbdffddd2	-0.12493481
192	0x3cb441b1	0.02200398
193	0xbe2a64f1	-0.16640069
194	0x3c190e5b	0.0093418015
195	0xbe99a4bb	-0.30008492
196	0xbee21a62	-0.44160753
197	0xbe556582	-0.20839503
198	0x3d3d29fe	0.046182625
199	0xbe5b5db4	-0.21422464
200	0x3dc96e5b	0.09835502
201	0x3e34d736	0.17660221
202	0xbdbc4c4d	-0.09194241
203	0x3d342747	0.04398277
204	0xbe685b7d	-0.2269115
205	0xbe5fa1e6	-0.21839103
206	0xbd2490cb	-0.040177148
207	0x3d8df8f3	0.06932249
208	0xbde1af70	-0.1101979
209	0x3d576726	0.052588604
210	0x3dc4022a	0.09570725
211	0x3e3c91f5	0.18415053
212	0xbe02f9ec	-0.1279065
213	0xbd7a6442	-0.06113077
214	0xbd39d12a	-0.04536549
215	0x3dee7d58	0.11645001
216	0x3de7f0ef	0.11325251
217	0x3e08ace5	0.13347204
218	0xbd694e0b	-0.056959193
219	0x3c258765	0.010103081
220	0x3bace68e	0.0052765077
221	0xbda85ef8	-0.08221239
222	0x3ecc587c	0.39911258
223	0xbe056651	-0.13027312
224	0xbdffec63	-0.12496259
225	0xbe2a272d	-0.16616507
226	0x3d80ab04	0.06282619
227	0xbdd92a31	-0.106037505
228	0xbe1e1cbe	-0.15440652
229	0x3daeba99	0.085316844
230	0x3d442d4b	0.047894757
231	0xbe45b7f5	-0.19308455
232	0x3cc64302	0.024201874
233	0x3b1ef232	0.0024253246
234	0x3e2a4aa0	0.1663003
235	0xbe7fb1fe	-0.24970242
236	0xbdc5c950	-0.09657538
237	0xbe80b845	-0.25140586
238	0x3d4f5648	0.050619394
239	0xbe410acd	-0.18851776
240	0x3e1383e6	0.14405784
241	0x3dbd8a6d	0.09254918
242	0x3eb8ad2c	0.3606962
243	0x3dea0646	0.11426978
244	0x3d860e00	0.06545639
245	0xbe35618c	-0.17712992
246	0xbd9999d5	-0.07500044
247	0xbd027f76	-0.031859837
248	0xbdc611ba	-0.0967135
249	0x3d0bb78c	0.03411059
250	0x3da145ab	0.07874616
251	0x3d8e6114	0.0695211
252	0xbde2a0b8	-0.11065811
253	0xbe2aaef9	-0.1666831
254	0xbda0d6b7	-0.078534536
255	0x3ea4deb7	0.32201168

decoder.0.bias f4 [64]
0	0xbe684050	-0.22680783
1	0xbc33f6fa	-0.010984177
2	0x3da4ce6e	0.08047186
3	0xbdec4df2	-0.115383044
4	0x3a877468	0.0010334374
5	0x3cbef3a9	0.023309546
6	0x3d8c890a	0.068620756
7	0x3d3b1c49	0.04568127
8	0x3e3d0e67	0.18462525
9	0xbe0f0a74	-0.13968831
10	0x3c187338	0.009304814
11	0xbc307140	-0.010769188
12	0xbbed5e0c	-0.0072438773
13	0xbe15cd66	-0.14629135
14	0xbd035cae	-0.032070808
15	0xbe5d0930	-0.21585536
16	0xbda63949	-0.08116395
17	0xbb996898	-0.004681658
18	0xbe4e96db	-0.20174734
19	0xbd5cf201	-0.05394173
20	0x3bf27a6c	0.0073998477
21	0x3b8fdb03	0.004390122
22	0x3dc15782	0.09440519
23	0xbdb518f3	-0.08842649
24	0xbe45d637	-0.19319998
25	0xbe55ef6a	-0.2089211
26	0xbe2cd726	-0.16878948
27	0xbebc0e06	-0.3672945
28	0xbe1fc522	-0.15602544
29	0x3e5203a5	0.20509203
30	0xbc14d6ab	-0.009084384
31	0xbe802b43	-0.25033006
32	0xbdc3c7af	-0.09559571
33	0x3d573d84	0.0525489
34	0xbdd0c404	-0.10193637
35	0x3dd57175	0.10422031
36	0x3df04f15	0.11733834
37	0xbe37c363	-0.17945628
38	0x3d712ce1	0.05888069
39	0xbdc817a7	-0.09770136
40	0xbe5e8bce	-0.21733019
41	0x3db8e9fc	0.09029004
42	0x3c615e9f	0.01375547
43	0x3dbc7043	0.092011
44	0x3e5353a2	0.20637372
45	0xbde72b98	-0.11287612
46	0x3d687e20	0.056760907
47	0x3db4d131	0.088289626
48	0xbe76825d	-0.24073167
49	0xbdf2d971	-0.1185788
50	0x3dd6ee67	0.104946904
51	0xbd8af6a3	-0.067853235
52	0xbe42657b	-0.18984024
53	0x3de2b5f2	0.110698596
54	0xbdcf3358	-0.10117215
55	0x3ba1bb23	0.0049356385
56	0xbe17d3e4	-0.14826924
57	0x3e03f946	0.12888059
58	0xbcaf4bb8	-0.02139841
59	0xbe52400a	-0.20532241
60	0x3e556992	0.20841053
61	0x3e3824a7	0.17982732
62	0x3de7f865	0.11326674
63	0x3da347c6	0.07972674

decoder.2.weight f4 [784, 64]
0	0x3df6bfe0	0.12048316
1	0xbd92d7de	-0.0717008
2	0x3ce40c08	0.027837768
3	0xbd7fffac	-0.062499687
4	0xbd9d605a	-0.07684393
5	0xbcf92a20	-0.030415595
6	0x3d40b170	0.047044218
7	0xbd8ca4b2	-0.06867351
8	0x3bb8b728	0.0056370683
9	0xbd807f12	-0.06274237
10	0xbe1e7700	-0.15475082
11	0xbd991490	-0.07474625
12	0xbbdac1f1	-0.0066759516
13	0x3c852e1f	0.016257344
14	0x3d212d0f	0.03934961
15	0xbdd9cd2a	-0.10634835
16	0xbab4b556	-0.0013786952
17	0xbdede4a6	-0.11615877
18	0xbd004f94	-0.03132589
19	0xbddf52c7	-0.109044604
20	0xbd41c8a8	-0.0473105
21	0xbe0f23a0	-0.13978434
22	0xbd98b2d7	-0.07455986
23	0xbdce2d3f	-0.10067224
24	0x3d608410	0.054813445
25	0xbc1bb390	-0.00950326
26	0xbe1ac14a	-0.15112796
27	0x3d924336	0.07141726
28	0x3c02c870	0.007982358
29	0xbc9ddadc	-0.0192694
30	0xbdab444e	-0.083626375
31	0xbd9ebfa4	-0.07751396
32	0x3c170900	0.009218454
33	0xbd214738	-0.03937456
34	0xbdd02cca	-0.10164793
35	0xbe095187	-0.13410006
36	0xbe28f1f3	-0.16498546
37	0xbc31e84c	-0.010858607
38	0xbe195084	-0.1497212
39	0xbe0ebfc6	-0.13940343
40	0xbdd58d46	-0.104273364
41	0xbdfb8d33	-0.12282791
42	0xbd98d90a	-0.07463272
43	0x3da28898	0.079362094
44	0xbd307cd2	-0.043087788
45	0xbe21bfb8	-0.15795791
46	0xbb974ae0	-0.00461708
47	0x3cd09998	0.025463864
48	0xbcb7af10	-0.022422343
49	0xbdc7e2fd	-0.097600915
50	0xbe402222	-0.1876302
51	0xbd590d6a	-0.05299131
52	0xbd555f6c	-0.052092955
53	0xbd23bca4	-0.039974824
54	0x3caa12a8	0.02076085
55	0x3ddeb5fc	0.108745545
56	0xbd19d024	-0.037552014
57	0xbc93e242	-0.018052224
58	0x3d0db884	0.034599796
59	0xbda6d0e6	-0.08145313
60	0x3d9b8d6e	0.07595335
61	0xbd2a51de	-0.04158198
62	0xbe29f800	-0.1659851
63	0xbd9c0d76	-0.07619755
64	0x3d8e9ad4	0.06963125
65	0x3c621316	0.013798496
66	0xbda909c0	-0.08253813
67	0x3da8f35c	0.08249542
68	0xbdfdfcc8	-0.1240173
69	0xbd73a3a4	-0.05948223
70	0xbd353804	-0.044242874
71	0xbcab09c2	-0.020878676
72	0xbe421a2f	-0.18955301
73	0x3c245274	0.010029424
74	0xbc9dc4fc	-0.019258969
75	0xbd3089c9	-0.043100152
76	0xbd4419b6	-0.047876082
77	0xbe4efd5f	-0.20213841
78	0xbcdf0142	-0.02722228
79	0x39723c00	0.0002310127
80	0xbe44f5dc	-0.19234413
81	0x3cf6f4d0	0.030146033
82	0xbd088100	-0.03332615
83	0xbe0e7f82	-0.13915828
84	0xbd7c0b4c	-0.06153421
85	0xbdb94256	-0.09045856
86	0xbd5323a3	-0.051547658
87	0xbcdeefcf	-0.027213959
88	0xbd8d35d6	-0.06895034
89	0xbc20e440	-0.009820044
90	0x3d41d796	0.04732474
91	0xbd93aede	-0.07211088
92	0x3d13eb44	0.03611304
93	0xbcb50e90	-0.02210167
94	0x3cd781e7	0.02630706
95	0x3da23280	0.07919788
96	0x3c806afe	0.015676018
97	0xbd7188a4	-0.0589682
98	0xbdf61052	-0.120148316
99	0xbc87b395	-0.016565124
100	0xbafe20eb	-0.0019388472
101	0xbd0506a0	-0.03247702
102	0xbda9e43b	-0.08295485
103	0xbe0da109	-0.13830961
104	0xbd90f378	-0.07077688
105	0x3d2826e2	0.041052707
106	0xbd83c6a6	-0.064343736
107	0x3d0fe148	0.035126954
108	0xbd1d6394	-0.038425043
109	0x3c382b3c	0.011240777
110	0x3db0d94a	0.086351946
111	0xbd15a235	-0.036531646
112	0xbb37f240	-0.0028067976
113	0xbd184273	-0.037172746
114	0xbe1b5c30	-0.15171885
115	0xbd2fa6e7	-0.04288378
116	0x3bebe6e0	0.0071991533
117	0xbe118b00	-0.1421318
118	0xbcb3c492	-0.021944318
119	0xbe314897	-0.17312847
120	0xbe2fbe71	-0.17162491
121	0xbd50db12	-0.05099017
122	0x3b4518d1	0.0030074606
123	0xbd0f3d89	-0.034970794
124	0x3c47cee8	0.012195326
125	0xbd3dbfbd	-0.046325434
126	0xbd664501	-0.05621815
127	0xbe098a7e	-0.13431737
128	0x3de253e4	0.11051157
129	0xbe744e14	-0.2385791
130	0xbdd9ce9c	-0.10635111
131	0x3de02314	0.109441906
132	0xbd77e510	-0.060521185
133	0xbd06c284	-0.03290035
134	0x3dac548c	0.084145635
135	0x3c32a461	0.010903449
136	0xbe2a91bd	-0.16657157
137	0xbdb7ebcd	-0.08980522
138	0x3d888508	0.06665999
139	0xbcab04e8	-0.020876363
140	0xbd331426	-0.043720387
141	0xbda046ca	-0.07826002
142	0xbc861534	-0.016367532
143	0x3c8e6ff8	0.017387375
144	0x3d06fcd3	0.032955956
145	0x3d237898	0.03990993
146	0x3b852060	0.0040626973
147	0xbd5d1af2	-0.053980775
148	0xbdad0ecc	-0.08450088
149	0xbe2fc32a	-0.17164293
150	0xbd82f9a8	-0.063952744
151	0xbc3248a0	-0.010881573
152	0x3d84ea88	0.06490046
153	0xbccb1658	-0.024790928
154	0xbd83659a	-0.06415863
155	0xbc38b5a0	-0.0112737715
156	0xbd94c0ba	-0.07263322
157	0xbc7511e8	-0.014957882
158	0xbe0baf9c	-0.13641208
159	0xbd844d38	-0.06460041
160	0x3da8a53c	0.08234641
161	0x3d56a3c8	0.052402288
162	0xbd337c14	-0.043819502
163	0xbe1624e8	-0.14662516
164	0xbe012781	-0.12612726
165	0xbc965a58	-0.018353626
166	0xbe424668	-0.1897217
167	0x3d9c350e	0.07627307
168	0x3d6f98e0	0.058495402
169	0xbddf9491	-0.10917009
170	0x3cf37100	0.029716969
171	0xbdc9b17e	-0.09848307
172	0xbce4a2fc	-0.027909748
173	0x3d0c7ace	0.034296803
174	0x3db78b34	0.08962098
175	0xba960700	-0.0011446178
176	0x3d193ce9	0.037411604
177	0x3d987de4	0.07445887
178	0xbe0cadfe	-0.13738248
179	0xbdded661	-0.10880733
180	0xbd4d8710	-0.050177634
181	0x3dafba34	0.08580437
182	0x3c978f30	0.018500894
183	0xbcd68528	-0.02618654
184	0x3d7f53e0	0.06233585
185	0xbe1a8411	-0.15089442
186	0xbdbcc6ee	-0.0921763
187	0x3de6658a	0.11249836
188	0xbd86c215	-0.06579987
189	0xbe0a0a86	-0.13480577
190	0xbe3513c2	-0.17683318
191	0xbd9878cc	-0.07444915
192	0xbcf491b8	-0.02985464
193	0xbb196580	-0.0023406446
194	0xbbfc0f0f	-0.007692225
195	0x3def9708	0.11698729
196	0xbdf9ba1c	-0.12193701
197	0x3dbf651a	0.093454555
198	0x3d56ac94	0.052410677
199	0xbded5c3d	-0.11589859
200	0xbe327111	-0.17425944
201	0xbe440d70	-0.19145751
202	0xbd46c770	-0.048530042
203	0xbb5d3dfe	-0.0033758874
204	0xbe0cacc5	-0.13737781
205	0x3bcbb7a0	0.006216958
206	0x3d17c363	0.03705157
207	0xbda8963a	-0.082317784
208	0xbdd70b57	-0.1050021
209	0xbdcfb502	-0.101419464
210	0xbe40eb94	-0.18839866
211	0xbcd9988a	-0.026561994
212	0x3d7f0efc	0.06227015
213	0x3d3b25d9	0.04569039
214	0xbd48a2f8	-0.048983544
215	0x3d0bd564	0.034139052
216	0xbc27b940	-0.010237038
217	0xbd04cb28	-0.032420307
218	0xbe073cae	-0.13206741
219	0x3dcb65ce	0.09931527
220	0x3db4af3a	0.08822484
221	0xbe26da4c	-0.16294211
222	0x3d4e6d14	0.050396994
223	0x3babe540	0.0052458346
224	0x3dfc1752	0.123091355
225	0xbdc37ce6	-0.09545307
226	0x3d97f9c8	0.07420689
227	0x3cc47aa9	0.02398427
228	0xbdb72a42	-0.08943607
229	0x3d7541a0	0.059877038
230	0xbe4626a8	-0.19350684
231	0xbdf75182	-0.12076093
232	0x3d4220d0	0.047394574
233	0xbdf9651d	-0.12177489
234	0x3de9d2bc	0.114171475
235	0xbdd40d40	-0.1035409
236	0xbbd65205	-0.006540539
237	0xbd89d04b	-0.06729182
238	0xbdd9eb4a	-0.10640581
239	0xbd907998	-0.07054442
240	0x3d8ad97e	0.067797646
241	0xbcf26c01	-0.029592516
242	0x3d3d73fd	0.046253193
243	0x3cec1bd8	0.02882187
244	0x3df5bdc6	0.11999087
245	0xbbe99f3f	-0.0071295793
246	0xbda172fb	-0.07883259
247	0xbd09db3b	-0.03365634
248	0xbe0f1803	-0.13974003
249	0xbd99fd52	-0.0751902
250	0xbe2b4407	-0.16725169
251	0xbdaeca84	-0.085347205
252	0xbde5d8fc	-0.11223027
253	0xbe0caf6b	-0.13738792
254	0x3c4a6241	0.012352527
255	0xbd7ce314	-0.061739996

decoder.2.bias f4 [784]
0	0x3c423e91	0.011855737
1	0xbcb3d408	-0.02195169
2	0x3c514389	0.012772449
3	0xbdbfd7d6	-0.09367339
4	0xbe1327ab	-0.14370601
5	0xbd293264	-0.041307822
6	0xbe1fb575	-0.15596564
7	0xbc8d691c	-0.017262034
8	0xbd9ccfd9	-0.07656831
9	0xbe217ad3	-0.1576951
10	0xbdaae845	-0.08345083
11	0xbe0f22a9	-0.13978066
12	0xbe2d1f88	-0.1690656
13	0xbd03a96d	-0.032144
14	0xbe3fe0b8	-0.18738067
15	0xbe0abdf7	-0.13549028
16	0xbe3a67b7	-0.18203627
17	0x3cde6dd0	0.027151972
18	0x3cb018c0	0.021496177
19	0xbce3f24d	-0.027825499
20	0xbd0b77c0	-0.03404975
21	0xbe24cc8d	-0.16093655
22	0xbd1f482c	-0.038887188
23	0xbe1d0a3e	-0.15335938
24	0xbe2b5c45	-0.16734417
25	0x3cf2d8d9	0.029644417
26	0xbdb64526	-0.08899908
27	0xbe384e70	-0.17998672
28	0xbe0baa9d	-0.13639303
29	0xbd6f3f2b	-0.05840985
30	0xbb4259f9	-0.0029655679
31	0xbe426e4d	-0.18987389
32	0xbd087f0a	-0.03332428
33	0xbd89937a	-0.06717582
34	0xbb6084e8	-0.0034258906
35	0xbd9c604e	-0.07635556
36	0xbe1a283b	-0.15054409
37	0xbd74cffb	-0.059768658
38	0xbe36fc4b	-0.1786968
39	0x3bd53147	0.0065061185
40	0xbbfc1188	-0.0076925196
41	0x3b64ef12	0.0034932536
42	0x3ccaf34c	0.024774216
43	0xbdbe022f	-0.0927776
44	0xbbb19cc3	-0.005420299
45	0xbde80cb6	-0.113305494
46	0xbe25ae6d	-0.1617982
47	0xbd854c9a	-0.06508751
48	0xbe23b505	-0.15987022
49	0xbd4c921c	-0.04994403
50	0xbe32ebfe	-0.17472836
51	0xbc76a49c	-0.015053894
52	0xbde4a3b5	-0.11164037
53	0xbd97bb9b	-0.0740883
54	0x3cc883a1	0.024476828
55	0x3cf91aa0	0.030408204
56	0xbdf88114	-0.12133995
57	0xbda7df09	-0.081968375
58	0xbdd13386	-0.102149054
59	0xbd603fdd	-0.054748405
60	0xbd171b4d	-0.03689127
61	0xbdc94dbe	-0.09829281
62	0xbda88775	-0.082289614
63	0xbe6d07c6	-0.23147497
64	0xbc8a85a3	-0.016909426
65	0xbdf56d7c	-0.11983773
66	0x3be01449	0.0068383557
67	0xbdd82eba	-0.105557874
68	0xbe24b62c	-0.16085118
69	0xbd04fa75	-0.032465417
70	0xbe34c01a	-0.17651406
71	0xbc0c8a01	-0.008577825
72	0xbcf479a1	-0.029843153
73	0xbdb1d56a	-0.086832836
74	0xbd1006ef	-0.035162862
75	0xbdc5698e	-0.096392736
76	0xbd66f5d8	-0.0563868
77	0xbd011821	-0.03151715
78	0x3c38918a	0.011265168
79	0xbdaff74e	-0.085920915
80	0xbe0981a9	-0.13428368
81	0xbdbfebc5	-0.09371141
82	0xbc83b91d	-0.01607948
83	0xbcba626c	-0.02275201
84	0xbd9d6297	-0.0768482
85	0xbddf0dcd	-0.10891304
86	0xbd35bbed	-0.044368673
87	0xbdd606b7	-0.104504995
88	0xbc50e135	-0.012749006
89	0xbd337bb0	-0.04381913
90	0xbe4c9b67	-0.19981156
91	0xbdd418a1	-0.1035626
92	0xbe015104	-0.12628561
93	0xbd2fc0a6	-0.042908333
94	0xbdb867ef	-0.09004199
95	0xbd9b84fd	-0.07593725
96	0x3d173a95	0.036921103
97	0xbe2e60e8	-0.17029154
98	0xbe04b8a2	-0.12961057
99	0xbd5888bb	-0.05286477
100	0xbd81067b	-0.06300064
101	0xbd43aafb	-0.04777048
102	0xbe01d5b9	-0.12679185
103	0xbe6e6840	-0.23281956
104	0xbe19dea3	-0.15026335
105	0xbe22e589	-0.15907873
106	0xbe2d7a45	-0.16941173
107	0xbd880ece	-0.06643449
108	0x3d48bac2	0.04900623
109	0xbddad9fd	-0.10686109
110	0xbd84df2c	-0.06487879
111	0xbda42966	-0.080157086
112	0xbe1bad6b	-0.15202872
113	0xbd2cb7ff	-0.04216766
114	0xbc6f1757	-0.014592967
115	0xbe0fa294	-0.14026862
116	0xbd103ace	-0.03521233
117	0x3d621efa	0.055205323
118	0xbda66a1b	-0.08125707
119	0xbd507347	-0.050891187
120	0xbda132c8	-0.07871014
121	0xbe242a05	-0.16031654
122	0xbe37f2f3	-0.17963772
123	0xbe09c20a	-0.13452926
124	0xbddef299	-0.108861156
125	0x3d423cc8	0.047421247
126	0xbdd22d48	-0.10262543
127	0xbe5b79b3	-0.21433143
128	0xbe346c08	-0.17619336
129	0xbe7eeb28	-0.24894392
130	0xbeaa40d5	-0.33252588
131	0xbec1dd86	-0.3786432
132	0xbd4cc04d	-0.04998808
133	0xbe292bd6	-0.16520628
134	0xbd8f9489	-0.07010753
135	0xbde4cf24	-0.111723214
136	0x3a20e902	0.00061382365
137	0xbe3666db	-0.17812674
138	0xbdc29002	-0.095001236
139	0xbdb32600	-0.08747482
140	0xbe005d01	-0.12535478
141	0xbdfe7795	-0.12425152
142	0xbbd0d965	-0.0063735717
143	0xbde612a0	-0.11234021
144	0xbdcfd819	-0.10148639
145	0xbe35d7bb	-0.17758076
146	0x3c606088	0.01369489
147	0xbdf03d15	-0.117304005
148	0xbcf3854f	-0.029726652
149	0x3d5564a3	0.052097928
150	0x3d4d2068	0.050079733
151	0x3e36493b	0.17801373
152	0x3e66615b	0.22498076
153	0x3e16e9c2	0.14737609
154	0xbc0d9eec	-0.008643847
155	0xbe9e2118	-0.30884624
156	0xbdf89a04	-0.12138751
157	0xbe4189e0	-0.18900251
158	0xbedb6fa2	-0.42858607
159	0xbeaf52eb	-0.3424295
160	0xbea24af8	-0.31697822
161	0xbe98c7c1	-0.298399
162	0xbce9fc15	-0.028562585
163	0xbcefb3ce	-0.029260542
164	0xbccfb952	-0.025356922
165	0xbd1fe102	-0.039032944
166	0xbe3d2bd9	-0.18473758
167	0xbddaadcc	-0.106776804
168	0x3d26f4c7	0.04076078
169	0xbdb49d04	-0.08819011
170	0xbdade15d	-0.0849025
171	0xbdb72cf3	-0.0894412
172	0xbdd09c26	-0.10186033
173	0xbd89d338	-0.0672974
174	0xbe1258cb	-0.14291684
175	0xbb88bae0	-0.004172668
176	0xbe00cf4d	-0.12579079
177	0x3c9ea634	0.019366361
178	0x3e5c835e	0.21534488
179	0x3e3f97c3	0.18710236
180	0x3e50c9be	0.20389459
181	0x3e569e9e	0.20958945
182	0x3d249f53	0.040191006
183	0x3d86c00a	0.06579597
184	0xbd65ed50	-0.056134522
185	0xbd9f0973	-0.07765474
186	0xbe15e993	-0.14639883
187	0xbe38de75	-0.1805361
188	0xbea75db4	-0.32688677
189	0xbe402f34	-0.18768007
190	0xba984653	-0.0011617638
191	0xbdafbc5e	-0.0858085
192	0xbc963e01	-0.018340113
193	0xbe4c0e60	-0.19927359
194	0xbde094ac	-0.10965857
195	0xbe0da761	-0.13833381
196	0xbe001c73	-0.12510853
197	0xbbc7f010	-0.0061016157
198	0x3981b71f	0.00024741233
199	0xbe04eb5b	-0.12980406
200	0xbe1a4a88	-0.15067494
201	0xbdd45140	-0.1036706
202	0xbab4055d	-0.0013734509
203	0xbc85e444	-0.016344197
204	0x3c3003b0	0.010743067
205	0x3e02e798	0.12783659
206	0x3e19ccfc	0.15019602
207	0x3e3749cc	0.17899245
208	0x3e9af931	0.30268243
209	0x3df6cd47	0.12050872
210	0x3de72dcb	0.11288031
211	0xbc55e314	-0.013054628
212	0xbde9c968	-0.11415368
213	0x3d32f00d	0.04368596
214	0xbc4cdfee	-0.012504561
215	0xbe3a22d2	-0.18177345
216	0xbe1f041f	-0.15528916
217	0xbe25a12e	-0.16174766
218	0xbdf05070	-0.11734092
219	0xbd329bdc	-0.04360567
220	0xbe12a0c3	-0.14319138
221	0xbb4caf12	-0.003123228
222	0xbe109884	-0.1412068
223	0xbe1652df	-0.1468005
224	0xbdd31422	-0.103065744
225	0x3ce90ff3	0.028449988
226	0xbdde9d52	-0.1086985
227	0xbe01410f	-0.12622474
228	0xbc4666b3	-0.012109446
229	0xbd5e11cf	-0.054216202
230	0xbcf7628f	-0.030198364
231	0xbc43ef96	-0.011958977
232	0x3e10f785	0.14156921
233	0x3e1e104a	0.15435901
234	0x3e554e34	0.20830613
235	0x3dd4481b	0.103653155
236	0x3e42339d	0.18965001
237	0x3dadf93b	0.084948026
238	0xbc72bbac	-0.014815252
239	0xbd429201	-0.04750252
240	0xbd804091	-0.06262315
241	0x3d69acac	0.05704944
242	0x3d505d60	0.0508703
243	0xbdc7272d	-0.09724269
244	0xbdb0f4a3	-0.08640411
245	0xbdde58f3	-0.108568095
246	0xbe0e04d2	-0.13869026
247	0xbd8334b1	-0.064065345
248	0xbe1495ef	-0.1451032
249	0xbdbeca61	-0.093159445
250	0xbe2724f3	-0.16322689
251	0x3d03b656	0.03215631
252	0x3c3288ab	0.010896842
253	0xbe2c8484	-0.16847426
254	0xbdd98eeb	-0.106229626
255	0x3ba4221c	0.005008949
