20220518270.pt (torch, 424079 bytes, 8 tensors)

encoder.0.weight f4 [64, 784]
0	0xbc6ddf61	-0.01451859
1	0x3cf0d2ac	0.029397331
2	0x3c9aec90	0.01891163
3	0x3c97ddbe	0.018538352
4	0x3d033958	0.03203711
5	0xbdf4ef31	-0.11959685
6	0xc008017f	-2.1250913
7	0xbf9c3c25	-1.2205855
8	0xbfc05e3d	-1.5028759
9	0xc02f3232	-2.7374387
10	0xc04224e9	-3.0335028
11	0xbfcea85f	-1.6145133
12	0xc0651a6e	-3.5797381
13	0xc012fdf5	-2.2967503
14	0xc025fad9	-2.5934355
15	0xbfa77f00	-1.3085632
16	0x3e18e3e6	0.14930686
17	0xbf8c3fb2	-1.0956938
18	0xbff539d6	-1.9158275
19	0xbfe02465	-1.7511107
20	0xbfd84aa3	-1.6897777
21	0xc05163c4	-3.2717142
22	0xc0048013	-2.070317
23	0xbfddc960	-1.732708
24	0xbcc10f23	-0.023566788
25	0xbbe05d4a	-0.0068470584
26	0xbaf7e401	-0.0018912555
27	0xbcc1b7ac	-0.023647152
28	0xbc8a6ce3	-0.016897624
29	0xbaf53c4a	-0.0018709984
30	0x3f8594c7	1.0436028
31	0x3e291833	0.16513138
32	0xbffdb441	-1.9820634
33	0xbf7b25b8	-0.9810443
34	0xbe7bb5fb	-0.24581139
35	0xc04d15e0	-3.2044601
36	0xc01e3b22	-2.4723592
37	0xbfcd76bb	-1.6051859
38	0xc0515b0d	-3.2711823
39	0xc02a6afd	-2.66278
40	0xc0018d04	-2.024232
41	0xc02cdba9	-2.700907
42	0xbf83bd37	-1.0292119
43	0x3e86afd0	0.2630601
44	0xbfd0488e	-1.6272142
45	0xbfb8bd03	-1.4432682
46	0xbfb6a028	-1.4267626
47	0xbf8d99a9	-1.1062518
48	0xbf4f83b5	-0.81060344
49	0xbfe2f66c	-1.7731452
50	0xc066978c	-3.6029997
51	0xc08affcc	-4.343725
52	0xbf09bc7f	-0.5380325
53	0x3fffbd36	1.9979618
54	0xbaca4525	-0.0015431984
55	0xbce1f643	-0.027583247
56	0x3c83af25	0.016074726
57	0x3c6d1b25	0.014471804
58	0xbe052020	-0.13000536
59	0xbf766ab9	-0.96256596
60	0x4047f749	3.124468
61	0xc08fa97d	-4.4894395
62	0x3efccfce	0.49377292
63	0xbea1da80	-0.31612015
64	0xbfcc026b	-1.5938238
65	0xbf70527b	-0.93875855
66	0xbf634553	-0.88777655
67	0x3af417a5	0.0018622769
68	0xbf4ca786	-0.7994312
69	0xbf61310c	-0.87965465
70	0xbf723cef	-0.9462423
71	0x3e1f3039	0.15545739
72	0xbf4a966c	-0.79135776
73	0xbf548cbf	-0.8302726
74	0xbf54becc	-0.8310363
75	0xbd664009	-0.056213412
76	0xbf3f1300	-0.74638367
77	0xbe913d2e	-0.2836699
78	0xbf03ef3e	-0.5153693
79	0xbec77f46	-0.3896429
80	0xbff7284a	-1.930917
81	0x3ebd52bf	0.36977193
82	0xbe037390	-0.12837052
83	0xbc8be6c0	-0.017077804
84	0x3d0121d8	0.031526417
85	0xbf5bfe67	-0.8593506
86	0xbf4b3bf2	-0.79388344
87	0xbf401307	-0.75029033
88	0xbf4bc5a7	-0.7959847
89	0xbf7c315d	-0.9851282
90	0xbe78dbc7	-0.24302588
91	0x3f5b86d2	0.85752594
92	0xbee233ac	-0.44180048
93	0x3f1d3523	0.61409205
94	0xbf1b42d0	-0.6064882
95	0x3d0f0d4f	0.0349248
96	0x3cc2e244	0.023789532
97	0x3d6544e1	0.05597389
98	0x3d0b6114	0.034028128
99	0xbdc0125b	-0.09378501
100	0x3e974e28	0.29551816
101	0xbc7a9d96	-0.0152963605
102	0xbe989fa7	-0.29809305
103	0xbcbffe24	-0.023436613
104	0x3e0718f3	0.13193111
105	0xbe521705	-0.20516594
106	0xbd92a62d	-0.07160602
107	0xbe487a06	-0.19577798
108	0x3f042c0e	0.5162972
109	0x3f01372c	0.5047481
110	0xbfdc28f0	-1.7199993
111	0x3f84a3aa	1.0362446
112	0xbb86a9ee	-0.0041096127
113	0x3fb7037f	1.4297942
114	0xbf9df21c	-1.2339511
115	0x3ddfd6cc	0.10929641
116	0xbf69f0af	-0.9138288
117	0x3f942cbd	1.1576153
118	0xbf4e2cc8	-0.8053708
119	0x3dff10c1	0.124543674
120	0xbe7abfc7	-0.2448722
121	0x3e24d857	0.16098152
122	0xbe0ee6ca	-0.13955227
123	0x3e9625c3	0.29325685
124	0xbbc69f6b	-0.0060614846
125	0x3d9cc9da	0.07655688
126	0x3e927713	0.2860647
127	0xbd4ab4e6	-0.049488924
128	0x3dfaa239	0.12237973
129	0xba94d35c	-0.0011354494
130	0xbdd77250	-0.1051985
131	0x3e594da1	0.2122102
132	0xbe397608	-0.18111432
133	0x3dd5a3d8	0.10431641
134	0x3ea29f3d	0.31762114
135	0xbdc446b9	-0.09583802
136	0x3f4de214	0.8042309
137	0xbf9fc1c1	-1.2481004
138	0x3f38ade4	0.72140336
139	0xbf00292b	-0.5006282
140	0xbc606fea	-0.013698557
141	0xbed4e248	-0.4157889
142	0xbf565491	-0.8372279
143	0x3f54d4f9	0.8313747
144	0xbe778704	-0.24172598
145	0xbf0b850a	-0.54499876
146	0x3e483c17	0.19554172
147	0xbe9a2e6a	-0.30113536
148	0x3e289d76	0.16466317
149	0xbe6521c6	-0.22376165
150	0xbe016067	-0.12634431
151	0x3a8e3aa4	0.0010851217
152	0x3d3882ab	0.04504649
153	0x3dc56f24	0.09640339
154	0xbd9ec65a	-0.07752676
155	0xbd2a7f08	-0.041625053
156	0x3daa1b78	0.083060205
157	0x3e0322ba	0.12806216
158	0x3da07efe	0.07836722
159	0x3dba3fd8	0.090942085
160	0xbdd68968	-0.10475427
161	0x3b5bd941	0.0033546241
162	0xbe23eec4	-0.1600905
163	0xbe24b625	-0.16085108
164	0x3f08d50b	0.5345008
165	0xbe110de1	-0.1416545
166	0xbfa126ef	-1.2590007
167	0x3e484a2a	0.19559541
168	0xbebd4938	-0.36969924
169	0xbf7e6050	-0.9936571
170	0x3fbcc77c	1.4748378
171	0xbe54c3de	-0.20777842
172	0x3f156035	0.58349925
173	0xbe377afa	-0.17918006
174	0x3e34b6c9	0.17647852
175	0x3ce28c08	0.027654663
176	0x3dc5af9b	0.09652635
177	0xbc53805d	-0.012909022
178	0xbd9c8838	-0.07643169
179	0x3c51e6e6	0.012811398
180	0xbdd8d0bd	-0.10586689
181	0x3de721cb	0.11285742
182	0xbdc5fa6b	-0.09666904
183	0x3d9e9f9b	0.07745286
184	0x3d7571e1	0.059923057
185	0x3d3ff69e	0.04686605
186	0x3e012de3	0.1261516
187	0x3e598284	0.21241194
188	0xbdd3ad6e	-0.103358135
189	0x3da00103	0.07812693
190	0xbe0d44e9	-0.13795818
191	0x3e649f78	0.22326458
192	0xbf2e5650	-0.6810045
193	0x3f4f7944	0.8104441
194	0xbfbe9e91	-1.4892141
195	0x40281df6	2.6268287
196	0x3f035cf2	0.513137
197	0x3fe9dc85	1.8270422
198	0xbd4fe22e	-0.05075281
199	0x3f235cd0	0.63813496
200	0xbe6fe018	-0.23425329
201	0xbe3f4086	-0.18676957
202	0xbd0e50b6	-0.03474494
203	0x3d71bc2a	0.059017338
204	0xbe5c5d72	-0.21520022
205	0xbd14084a	-0.036140718
206	0x3dd17da2	0.10229041
207	0xbd4c55d8	-0.049886554
208	0xbe4d9ae1	-0.20078613
209	0x3b6090cc	0.0034265993
210	0x3d146971	0.03623337
211	0x3dc9ad50	0.0984751
212	0xbddba5ff	-0.107250206
213	0x3e3098ae	0.17245743
214	0x3dafb58e	0.08579551
215	0xbdb53efa	-0.088499025
216	0xbd9a3476	-0.075295374
217	0x3aee8b82	0.0018199536
218	0xbe9d19b5	-0.30683675
219	0xbe2fe5de	-0.17177531
220	0x3ecee822	0.40411478
221	0xbedcfd8d	-0.43162194
222	0xbf424664	-0.7588866
223	0x3f9a899d	1.2073246
224	0x3ed3a0c3	0.4133359
225	0x3d1a03cc	0.037601277
226	0xbf7ca48e	-0.9868859
227	0x3e86b3a9	0.26308945
228	0xbe77fc55	-0.24217351
229	0x3e4bb5ce	0.19893572
230	0x3bf658c5	0.0075179064
231	0xbd9eed88	-0.07760149
232	0x3dd768e7	0.105180554
233	0xbd7c3940	-0.061578035
234	0xbd398277	-0.045290437
235	0x3e42b00b	0.19012468
236	0x3c6af99c	0.014341738
237	0x3d89109d	0.06692622
238	0x3bbc6ec8	0.005750511
239	0x3db74a2b	0.08949693
240	0x3debcd91	0.11513818
241	0x3df619c1	0.12016631
242	0x3d705646	0.058676027
243	0x3d5288b4	0.0513999
244	0x3df47f03	0.11938288
245	0xbe07bb0c	-0.13254946
246	0x3e130c5b	0.14360182
247	0xbe9a6df7	-0.30162022
248	0xbd677b44	-0.05651404
249	0xbeb23d72	-0.34812504
250	0xbff57eb9	-1.9179298
251	0x406c46c0	3.6918182
252	0x3f39320a	0.7234198
253	0xbd69bb20	-0.057063222
254	0x3ec44bac	0.38338983
255	0xbdc2c071	-0.095093615

encoder.0.bias f4 [64]
0	0x4028eda5	2.6395047
1	0x3f1dd621	0.6165486
2	0xbfa4195a	-1.2820237
3	0x400fb953	2.2456863
4	0x400c2c4a	2.1902032
5	0xc0751c75	-3.8298619
6	0x400357a9	2.0522254
7	0x40114f4c	2.270465
8	0x3fe65295	1.7993952
9	0x3fd6c6b5	1.677939
10	0x40230122	2.5469441
11	0x40135eec	2.3026686
12	0x3fbab80d	1.4587418
13	0x403f77e1	2.9916918
14	0x4021a919	2.525946
15	0x401c5a08	2.442995
16	0x404dc88c	3.2153654
17	0x4006479b	2.0981205
18	0x400088d9	2.0083525
19	0xbe952811	-0.2913213
20	0x406d6b0e	3.709659
21	0x403aeac6	2.9205794
22	0x3e2c63fe	0.16835019
23	0x3f600712	0.8751079
24	0x40052f02	2.0809941
25	0x4018cd73	2.3875396
26	0x3fbddf36	1.4833744
27	0x402bb6c6	2.6830306
28	0xbcfea090	-0.031082422
29	0x3f93438d	1.150499
30	0x3fa2549c	1.2682071
31	0x3fc21bbe	1.5164716
32	0x3dcfbc9b	0.101433955
33	0x3fda7f5e	1.7070119
34	0x40517a12	3.2730756
35	0x3ffc5821	1.9714395
36	0x4024698b	2.5689418
37	0x40288beb	2.63354
38	0x40126eca	2.288012
39	0x3f5d0309	0.86332756
40	0x3e733c8e	0.23753569
41	0x3ec25258	0.37953448
42	0x400fc17f	2.246185
43	0x3fd234de	1.6422384
44	0x40398471	2.8987086
45	0x40190ab5	2.3912785
46	0x3fc72aee	1.5559976
47	0x4004bdf0	2.0740929
48	0xbeacf6b4	-0.3378197
49	0x3d79f561	0.061025027
50	0xbfc7d354	-1.5611367
51	0x404a63d1	3.1623423
52	0x3efd9e00	0.49534607
53	0x40013c4c	2.0193052
54	0x3fefd57b	1.8737024
55	0x4035a0c2	2.8379369
56	0x3f0eb3f7	0.55743355
57	0xbf1f28ec	-0.62171817
58	0x3f77b6a6	0.96763074
59	0x3f7f5b09	0.99748284
60	0x3fd10ac2	1.6331408
61	0x405c2395	3.4396718
62	0x3fa4e6b6	1.2882907
63	0x3fdcb7ac	1.7243552

encoder.2.weight f4 [32, 64]
0	0xbecc8045	-0.39941612
1	0xbde39901	-0.111131676
2	0xbe9e6be2	-0.30941683
3	0xbeb4b531	-0.35294488
4	0xbe36c119	-0.17847098
5	0x3cb72e1b	0.022360852
6	0xbda2c504	-0.07947734
7	0x3ca36063	0.019943422
8	0x3abc9581	0.0014387817
9	0xbe2df7b0	-0.16989017
10	0xbd4543e2	-0.04816044
11	0xbeae1ce4	-0.34006417
12	0xbd138fda	-0.03602586
13	0xbe0e9b62	-0.13926461
14	0xbe9e4e2f	-0.30919024
15	0x3c221b97	0.009894273
16	0x3d846f66	0.0646656
17	0x3d4fc397	0.05072364
18	0xbdbb84a7	-0.09156161
19	0xbe3e648f	-0.18593048
20	0xbe1ba4f7	-0.15199648
21	0xbe20246a	-0.15638891
22	0xbcd8b1e2	-0.026452009
23	0xbda35f4f	-0.07977163
24	0x3d083cf8	0.03326127
25	0xbee58edc	-0.44835556
26	0xbedd085c	-0.4317044
27	0xbeba560f	-0.36393782
28	0xbed55013	-0.41662654
29	0xbdc8b793	-0.09800639
30	0xbd5826c3	-0.05277134
31	0xbeceb086	-0.40369052
32	0xbe865ed7	-0.26244232
33	0xbe32663d	-0.17421813
34	0xbe1f203e	-0.15539643
35	0xbed6b091	-0.41931584
36	0xbd5f3f9f	-0.054504033
37	0xbe147448	-0.14497483
38	0xbe27c687	-0.16384326
39	0xbedfc275	-0.43703046
40	0xbe471709	-0.19442381
41	0xbe94280e	-0.2893681
42	0x3d61a455	0.05508836
43	0xbe4c91ad	-0.19977446
44	0xbc0d8a1d	-0.008638886
45	0xbd8cbf88	-0.06872469
46	0xbef35bdf	-0.4753103
47	0xbdd8a76d	-0.10578809
48	0xbee221d4	-0.44166434
49	0xbe8ac918	-0.27106547
50	0xbe93ec56	-0.28891248
51	0xbd3cc8a1	-0.046089772
52	0xbe1fbbf2	-0.15599039
53	0xbecc2189	-0.39869335
54	0xbe904d3d	-0.28183928
55	0xbe10bd54	-0.14134723
56	0xbe80ca9f	-0.25154588
57	0xbedb2ba6	-0.4280674
58	0x3cb1fd2d	0.021727169
59	0xbcb5755d	-0.02215069
60	0xbec0573b	-0.37566552
61	0x3cac3dc6	0.02102555
62	0xbd3e6425	-0.046482224
63	0xbe380ecf	-0.17974399
64	0x3d518223	0.0511495
65	0xbb4e711b	-0.0031500522
66	0xbec0c551	-0.3765054
67	0xbd4c6d9e	-0.049909227
68	0x3cf69ce7	0.030104114
69	0xbc0a1601	-0.008428098
70	0xbe865222	-0.26234537
71	0xbce14698	-0.027499482
72	0x3d1fd990	0.039025843
73	0xbdbfaacc	-0.09358749
74	0x3d54a43a	0.05191443
75	0xbdc91d9f	-0.09820103
76	0xbcb66d8e	-0.022269037
77	0xbe327c82	-0.17430308
78	0xbe05d870	-0.13070846
79	0x3be08726	0.0068520484
80	0xbd30e7b3	-0.043189716
81	0xbd377165	-0.044785876
82	0xbd96c6e4	-0.07362154
83	0xbebffbc2	-0.37496763
84	0xbdbe849b	-0.09302636
85	0xbe1f9c20	-0.155869
86	0x3d7d5aee	0.061854295
87	0xbc58d820	-0.013235122
88	0xbe2763e4	-0.16346699
89	0xbde1641f	-0.11005425
90	0xbe09f6c0	-0.13473034
91	0xbdbef5d6	-0.09324233
92	0xbe83112f	-0.25599048
93	0xbdbbf319	-0.091772266
94	0xbe2334cc	-0.15938109
95	0xbe2d13fb	-0.16902153
96	0xbe9d883e	-0.30768007
97	0xbdb5a89f	-0.088700525
98	0xbc3646f4	-0.011125315
99	0xbdaed310	-0.08536351
100	0xbdfe69fa	-0.12422557
101	0xbe258fee	-0.16168186
102	0xbe2e6b7d	-0.17033191
103	0xbe8e326b	-0.2777284
104	0xbec31965	-0.38105312
105	0xbe9602ed	-0.29299107
106	0x3d05355f	0.0325216
107	0xbd3c4975	-0.04596849
108	0xbd9aa6d3	-0.075513504
109	0xbe2a78a0	-0.16647577
110	0xbe8e59f8	-0.27803016
111	0xbe3a1c5d	-0.18174882
112	0xbe8d1ae7	-0.27559587
113	0xbe29119c	-0.16510624
114	0xbd971aa9	-0.07378132
115	0xbd63736e	-0.055530004
116	0xbe2a277f	-0.16616629
117	0xbc8ad5a2	-0.016947571
118	0xbe393610	-0.1808703
119	0xbe04985e	-0.12948748
120	0xbec519f0	-0.3849635
121	0xbe93e0b8	-0.28882384
122	0x3bf71e7e	0.0075414767
123	0xbe010c22	-0.12602285
124	0xbe2f84ab	-0.17140453
125	0xbdccd078	-0.100007
126	0xbe0f2959	-0.13980617
127	0x3cadbc6a	0.021208007
128	0x3f368a1b	0.7130448
129	0x3d33caed	0.043894697
130	0x3c898021	0.01678473
131	0xbc45b9da	-0.012068236
132	0xbf233ad6	-0.6376165
133	0x3c2328dc	0.009958472
134	0x3e68368c	0.22677058
135	0x3f2dfb72	0.679618
136	0x3c15ec23	0.009150538
137	0xbc24e000	-0.010063171
138	0xbf819a7c	-1.012527
139	0xbc9ac223	-0.0188914
140	0xc01c1440	-2.438736
141	0xbb3e508b	-0.0029039707
142	0xbcd44350	-0.025911003
143	0x3e9e1740	0.30877113
144	0x3e44be1e	0.19213149
145	0x3d8dca6f	0.06923377
146	0x3cafb1a4	0.02144701
147	0x3cc83a44	0.024441846
148	0xbfad9723	-1.3561748
149	0x3da41573	0.080119036
150	0xbd4aeec7	-0.049544122
151	0x3cb344bb	0.02188336
152	0xbeacebb7	-0.33773586
153	0xbc396181	-0.011314751
154	0x3ba26fde	0.0049571833
155	0xbbdbf8d3	-0.006713012
156	0x3d7b0c65	0.061291117
157	0xbfb287ed	-1.3947731
158	0x3e0e4463	0.13893275
159	0x3c5afe28	0.01336626
160	0x3c0f03c9	0.00872893
161	0xbcc55562	-0.024088565
162	0xbffbef3c	-1.9682384
163	0x3dee6e08	0.116420805
164	0xbf977619	-1.1832916
165	0xbeffc1ec	-0.49952638
166	0xbe36dd36	-0.17857823
167	0xbb5d9cc2	-0.0033815359
168	0xbcadde70	-0.02122423
169	0xbe016aa0	-0.1263833
170	0xbe09d971	-0.13461854
171	0xbda8bffd	-0.08239744
172	0xbc3526bd	-0.011056599
173	0xbd3c4956	-0.045968376
174	0x3e81dc59	0.25363424
175	0xbdfc2da1	-0.123133905
176	0xbd1c718b	-0.03819422
177	0xbc30484f	-0.010759427
178	0xbc4999d3	-0.012304741
179	0x3f04ae50	0.5182848
180	0x3e4eaa62	0.20182183
181	0xbc846880	-0.01616311
182	0x3d025f6c	0.031829283
183	0xbdd69d41	-0.104792126
184	0x3caa7b7e	0.020810839
185	0x3c1b2778	0.009469859
186	0x3d2eb6ec	0.042654917
187	0xbd4e7888	-0.050407916
188	0x3d07175d	0.032981265
189	0x3d125e51	0.03573448
190	0x3c2c8887	0.0105305975
191	0x3d23085e	0.0398029
192	0x3d7a522a	0.061113514
193	0x3d77ece2	0.060528643
194	0x3ce3f064	0.027824588
195	0xbd3f15e0	-0.04665172
196	0x3ce4f0cf	0.027946858
197	0xbdca2bfa	-0.09871669
198	0x3e5dac06	0.21647653
199	0x3f3725fe	0.71542346
200	0xbbcca415	-0.006245146
201	0x3d801109	0.06253249
202	0xbe9977cc	-0.2997421
203	0x3e2fda99	0.17173232
204	0xc03f895c	-2.9927588
205	0x3d1b9959	0.03798804
206	0xbd7b32f5	-0.061327893
207	0x3c9245c0	0.017855525
208	0xbcb2133d	-0.02173769
209	0x3f3415af	0.70345587
210	0xbc92aed6	-0.017905634
211	0xbdd49f1a	-0.10381909
212	0x3d88ddb5	0.06682912
213	0xbd4dc241	-0.050234083
214	0x3deff34b	0.11716326
215	0xbd46e280	-0.04855585
216	0xbe67f079	-0.22650327
217	0x3d1124ce	0.03543549
218	0x3d0d0566	0.034428976
219	0x3dda1974	0.10649386
220	0xbbc06cab	-0.005872329
221	0xc02dbd0b	-2.7146633
222	0x3ec36a33	0.3816696
223	0xbcb1a88f	-0.02168682
224	0xbd8f06f9	-0.06983752
225	0x3e2083bd	0.15675254
226	0xc04741ae	-3.1133838
227	0xbd552d56	-0.05204519
228	0xbf756efd	-0.9587248
229	0x3ebd6776	0.36992997
230	0xbdc2a53b	-0.095041715
231	0x3c49654c	0.012292217
232	0x3bf12cbd	0.0073600695
233	0xbcdd963b	-0.027049175
234	0xbe00326c	-0.12519234
235	0xbcbb2c1d	-0.022848183
236	0xbdf13112	-0.117769375
237	0x3e6580dd	0.22412439
238	0x3d271d81	0.04079962
239	0xbcc43913	-0.023952996
240	0x3d0e91a7	0.034806874
241	0x3d2120b4	0.03933783
242	0xbd384a16	-0.04499253
243	0xbe9dd522	-0.3082667
244	0x3e8ee642	0.27910048
245	0x3cdcdbac	0.026960216
246	0x3a6efc1e	0.0009116548
247	0xbeccf42a	-0.40030032
248	0xbcb29b88	-0.021802679
249	0x3cac03da	0.02099793
250	0x3dd21e14	0.10259643
251	0x3d0c3a6e	0.03423541
252	0xbd11f53e	-0.03563427
253	0x3e25499f	0.16141365
254	0x3dfd74ea	0.12375815
255	0xb8bdd4a0	-9.051827e-05

encoder.2.bias f4 [32]
0	0xbea5956f	-0.3234057
1	0xbe7eb659	-0.24874248
2	0x3f4e1c7c	0.80512214
3	0x3f86dd8d	1.0536362
4	0x3f889756	1.0671184
5	0x3ccc126b	0.024911126
6	0xbd8ae757	-0.06782406
7	0xbf1ae7d5	-0.6051
8	0xbed269ed	-0.4109644
9	0xbed5d30e	-0.41762584
10	0x3f83f391	1.0308706
11	0x3ee38531	0.44437554
12	0xbd85d65f	-0.06535029
13	0xbe2355cc	-0.15950698
14	0x3f646e34	0.89230657
15	0x3bd94afb	0.006631253
16	0xbe2156df	-0.15755795
17	0x3d3ab110	0.045579016
18	0x3f51e3b7	0.8198809
19	0x3ec775c0	0.38957024
20	0xbe0c1b96	-0.13682398
21	0xbdcc6273	-0.09979715
22	0x3f09f784	0.53893304
23	0xbd6bae42	-0.057539232
24	0x3f884fb4	1.0649323
25	0xbe6ab756	-0.229215
26	0x3f7c6ee6	0.9860672
27	0x3f09bb2b	0.5380122
28	0x3d254f36	0.040358745
29	0x3e3f373a	0.18673411
30	0x3f4a716e	0.7907933
31	0x3f5ee8d3	0.8707401

decoder.0.weight f4 [64, 32]
0	0xbe81b3f1	-0.25332597
1	0xbe922c7c	-0.28549564
2	0xbeb7f8f8	-0.35932136
3	0xbe8ae9e6	-0.27131575
4	0xbeb7f1fa	-0.359268
5	0xbe93c36f	-0.28860041
6	0xbdf4c1d6	-0.11951034
7	0xbdddd095	-0.108307995
8	0x3ed2bf4b	0.4116157
9	0xbd16b11a	-0.03678999
10	0xbde4d54d	-0.111734964
11	0xbee8fbf7	-0.45504734
12	0xbe94f382	-0.29092032
13	0x3d92c902	0.071672454
14	0xbedc30fd	-0.43006125
15	0xbee802e7	-0.45314714
16	0xbd98fa53	-0.074696206
17	0xbeb496f5	-0.3527142
18	0xbe5a56c7	-0.21322165
19	0xbea2bfee	-0.31787056
20	0xbe51aaf2	-0.20475367
21	0xbebfaf1e	-0.3743829
22	0xbead6a3e	-0.3387012
23	0xbed9bbd7	-0.42526123
24	0x3e9acb77	0.30233356
25	0x3ed0a8f8	0.40753913
26	0x3edb20f3	0.42798576
27	0xbeb837bd	-0.35980025
28	0x3e6bffae	0.23046753
29	0xbece5862	-0.40301806
30	0xbe5bb23e	-0.21454713
31	0x3e233e2f	0.1594169
32	0xbe9a307e	-0.30115122
33	0xbe7dcfc3	-0.24786286
34	0xbcdbc526	-0.026827406
35	0x3e8aeacd	0.27132264
36	0x3d8213ca	0.06351431
37	0xbcdb12f4	-0.026742436
38	0xbe80904a	-0.25110084
39	0xbd082f06	-0.03324797
40	0x3e99d59a	0.30045778
41	0x3d88d672	0.06681527
42	0x3bbf50ec	0.005838504
43	0x3dce28d2	0.100663796
44	0x3c31e2a1	0.010857255
45	0xbc9132c0	-0.017724395
46	0xbe05a4f7	-0.1305121
47	0xbdd91a0e	-0.10600673
48	0x3cef4163	0.029205984
49	0xbd019451	-0.031635586
50	0xbcb2afce	-0.021812346
51	0x3ee0317c	0.43787754
52	0xbe853e2a	-0.2602399
53	0xbe267cc8	-0.16258538
54	0x393ec7f2	0.00018194297
55	0xbe4c90ff	-0.19977187
56	0x3dad8126	0.08471899
57	0x3d8688de	0.06569074
58	0x3cf6a389	0.030107277
59	0xbd82d4a6	-0.06388216
60	0x3e1f9382	0.15583614
61	0x3e0fd0c2	0.14044479
62	0x3e3d587e	0.18490788
63	0xbc1fdc9e	-0.009757189
64	0x3e06b4ab	0.13154857
65	0x3c375bda	0.011191333
66	0xbbc326be	-0.005955546
67	0xbd7b40a5	-0.061340947
68	0xbc321fa5	-0.010871802
69	0x3e596042	0.21228126
70	0x3df90c30	0.12160528
71	0x3e33b664	0.17550045
72	0xbe2bce24	-0.16777855
73	0xbd232d46	-0.039838098
74	0xbd403b41	-0.04693151
75	0xbd40196b	-0.04689924
76	0x3dddef93	0.10836711
77	0xbc3eb667	-0.011640168
78	0xbdec5376	-0.115393564
79	0xbdeda1a6	-0.116030976
80	0xbe147e4c	-0.14501303
81	0x3e0aa024	0.13537651
82	0xbd9c1395	-0.076209225
83	0x3cc699ba	0.024243224
84	0xbd6689cd	-0.05628376
85	0x3e41693a	0.18887797
86	0xbda2eb3e	-0.07955025
87	0x3e4f2b10	0.20231271
88	0x3c3a8661	0.0113845775
89	0x3d82e8fa	0.06392093
90	0x3f140fbe	0.5783652
91	0xbe7a23e3	-0.24427752
92	0xbdff259c	-0.12458345
93	0xbde76d44	-0.11300138
94	0x3c58c92f	0.01323156
95	0x3d1c7b7c	0.0382037
96	0xbdbfc36a	-0.09363444
97	0x3d8b3c67	0.0679863
98	0xbbba0134	-0.005676413
99	0xbe72d9e7	-0.23715936
100	0xbdef6843	-0.11689808
101	0xbe0afafc	-0.13572305
102	0xbe3b7c4b	-0.18309133
103	0x3df34c9b	0.11879846
104	0x3e2db716	0.16964373
105	0x3de66024	0.11248806
106	0x3d4dba15	0.05022629
107	0xbde7683d	-0.11299179
108	0xbe2229e4	-0.15836293
109	0xbe21c636	-0.15798268
110	0xbdd6fe8c	-0.1049777
111	0x3d899e8d	0.06719694
112	0x3ca98845	0.020694861
113	0xbdc085d4	-0.09400526
114	0xbe22c143	-0.15894036
115	0x3cdfa96f	0.027302472
116	0xbd515de7	-0.051114943
117	0xbdb338e8	-0.087510884
118	0x3e3afddf	0.18260907
119	0xbe6aba5b	-0.22922651
120	0x3d56d3f1	0.052448217
121	0xbcc824f6	-0.024431687
122	0x3e37707b	0.17914002
123	0x3d640546	0.05566909
124	0x3e2fbdfd	0.17162319
125	0xbe705cac	-0.23472852
126	0xbde41cf4	-0.11138335
127	0xbd1d4670	-0.038397253
128	0xbdd5f145	-0.10446409
129	0xbe88e4cb	-0.26737055
130	0xbded747b	-0.115944825
131	0xbe174c35	-0.14775164
132	0xbe48ea4b	-0.19620626
133	0xbda9eb73	-0.082968615
134	0xbe6ffe21	-0.23436786
135	0x3db79aca	0.089650705
136	0x3cd87ddb	0.0264272
137	0x3e0fec91	0.14055087
138	0xbccb0204	-0.024781235
139	0xbda25d7f	-0.07927989
140	0xbe201609	-0.15633406
141	0xbe64387a	-0.22287169
142	0x3ce9d810	0.02854541
143	0xbe5afb39	-0.21384896
144	0x3da3ef35	0.080046095
145	0xbe467788	-0.19381535
146	0xbe4fe494	-0.2030204
147	0xbe0d4116	-0.1379436
148	0x3d8d46cc	0.06898269
149	0xbe317336	-0.17329106
150	0xbdad01c3	-0.08447602
151	0xbd5d6bf0	-0.054058015
152	0xbe0377e4	-0.12838703
153	0xbd7ab88f	-0.061211165
154	0x3d8d99e4	0.06914118
155	0x3e60685c	0.2191481
156	0x3e6a18ad	0.22860976
157	0xbe4c70f1	-0.19964959
158	0xbdd01bdc	-0.10161564
159	0xbd842113	-0.06451621
160	0xbda7bfea	-0.081909016
161	0xbe90659e	-0.28202528
162	0xbe8e72f8	-0.2782209
163	0xbea57312	-0.32314354
164	0xbeba23c3	-0.3635541
165	0xbead560e	-0.33854717
166	0x3bc78dc9	0.0060899
167	0xbe245842	-0.16049293
168	0x3e87c768	0.26519322
169	0x3dd8ffb1	0.10595644
170	0xbe794df7	-0.24346147
171	0xbe5e1ff0	-0.2169187
172	0xbc995e9e	-0.018721875
173	0xbc10d9f2	-0.008841025
174	0x3d0fe41a	0.035129644
175	0xbed69cd5	-0.41916528
176	0xbc888cc6	-0.016668689
177	0xbe9a4315	-0.30129305
178	0xbe6f5adc	-0.23374504
179	0xbe976ef5	-0.2957684
180	0xbee0fdf6	-0.43943757
181	0xbe953071	-0.2913852
182	0xbe7801dc	-0.2421946
183	0xbda5b68d	-0.080914594
184	0xbe4659fc	-0.19370264
185	0x3e8a3521	0.2699366
186	0xbeb5e9f8	-0.35530066
187	0xbea37e07	-0.3193209
188	0x3e78f0af	0.24310564
189	0xbe7c42d4	-0.24634868
190	0xbed86262	-0.4226256
191	0x3e0338a9	0.12814583
192	0x3d94ccae	0.07265602
193	0xbdea76c8	-0.11448437
194	0xbe240c15	-0.16020234
195	0x3bdc3a39	0.006720808
196	0xbf8ef8bd	-1.1169659
197	0xbe204970	-0.15653014
198	0x3dc8ce6d	0.098049976
199	0xbe27f3ba	-0.16401568
200	0x3d3e71df	0.046495315
201	0x3dff95ae	0.12479721
202	0xbe50efa2	-0.20403913
203	0xbcc9080c	-0.02453997
204	0xbe3344ea	-0.17506757
205	0xbea5e38e	-0.32400173
206	0x3e245af2	0.16050318
207	0x3df82495	0.121163525
208	0xbe25e03e	-0.16198823
209	0x3dd5e9e5	0.104450025
210	0x3cfbfbe4	0.03075976
211	0x3cadae27	0.021201206
212	0xbd9bc16c	-0.07605252
213	0xbc180173	-0.009277689
214	0x3bc8bb95	0.006125877
215	0x3e2c5f66	0.16833267
216	0x3d1f3ec9	0.038878236
217	0x3da72080	0.08160496
218	0xbdc13805	-0.09434513
219	0xbd26a50a	-0.040684737
220	0xbd3ebce3	-0.046566855
221	0xbe0868d4	-0.13321239
222	0x3f04a16e	0.5180882
223	0xbd8b186d	-0.06791768
224	0xbe9564d9	-0.29178503
225	0xbea9b783	-0.3314782
226	0x3d0faf42	0.03507925
227	0xbd5cea70	-0.053934515
228	0xbbb5ba9a	-0.0055459263
229	0xbda3dbb0	-0.080008864
230	0xbdf07655	-0.1174132
231	0xbeb78f65	-0.3585159
232	0x3e421125	0.18951853
233	0x3e2badf2	0.16765574
234	0x3d7443e5	0.05963506
235	0xbd5a60bc	-0.05331491
236	0xbe861157	-0.26185104
237	0xbd445149	-0.047929082
238	0x3a841270	0.0010076296
239	0xbeb52aee	-0.35384315
240	0x3e9e4cfe	0.30918115
241	0xbd950b5c	-0.07277557
242	0x3ee22ab2	0.441732
243	0x3e35ddf1	0.17760445
244	0xbdcc87fe	-0.09986876
245	0xbeaf5566	-0.3424484
246	0x3d5f56f2	0.054526277
247	0xbe49ea4f	-0.19718288
248	0x3d2245f7	0.039617505
249	0x3e4c362c	0.1994254
250	0x3da1336a	0.078711346
251	0x3a56b758	0.00081907725
252	0x3d5fd3b1	0.054645244
253	0x3cfaed8b	0.030630847
254	0xbbcfe784	-0.0063447375
255	0x3e9431b7	0.2894418

decoder.0.bias f4 [64]
0	0xbe684050	-0.22680783
1	0xbe3bf811	-0.18356349
2	0x3de01f37	0.10943454
3	0xbdec4df2	-0.115383044
4	0x3a877468	0.0010334374
5	0xbe609b82	-0.21934322
6	0x3df6d183	0.1205168
7	0xbdf4bec5	-0.11950449
8	0x3dd1f235	0.102512754
9	0xbe173ca8	-0.14769232
10	0x3c187338	0.009304814
11	0xbd76f5ac	-0.060292885
12	0x3d35277c	0.04422711
13	0xbdfc8c85	-0.123314895
14	0xbd8b3edc	-0.06799099
15	0xbe5d0930	-0.21585536
16	0xbcd34823	-0.025791233
17	0xbb996898	-0.004681658
18	0xbe4e96db	-0.20174734
19	0xbd3da115	-0.046296198
20	0x3bf27a6c	0.0073998477
21	0xbd043c99	-0.032284353
22	0x3e43c628	0.1911856
23	0xbdcb105c	-0.0991523
24	0xbeef20d1	-0.46704724
25	0xbe55ef6a	-0.2089211
26	0xbe3a5bc0	-0.18199062
27	0xbebc0e06	-0.3672945
28	0xbee1fce2	-0.44138247
29	0x3e26c997	0.16287838
30	0xbd2d8c5e	-0.042370193
31	0xbe802b43	-0.25033006
32	0xbdd550b7	-0.10415786
33	0x3d573d84	0.0525489
34	0xbdd0c404	-0.10193637
35	0x3eabadce	0.3353104
36	0x3e0cad8a	0.13738075
37	0xbe37c363	-0.17945628
38	0xbcc24e0c	-0.023718856
39	0xbdc817a7	-0.09770136
40	0xbe5e8bce	-0.21733019
41	0xbe1b62a2	-0.15174344
42	0x3c615e9f	0.01375547
43	0x3dbc7043	0.092011
44	0x3e4ffc74	0.20311147
45	0xbd99854e	-0.07496129
46	0x3d687e20	0.056760907
47	0x3e80b007	0.25134298
48	0xbe76825d	-0.24073167
49	0xbdf2d971	-0.1185788
50	0x3ddbfad8	0.10741204
51	0xbd728ddf	-0.05921733
52	0xbe42657b	-0.18984024
53	0xbd26a446	-0.040684007
54	0xbecc5e5d	-0.39915743
55	0x3bc06757	0.005871694
56	0xbe17d3e4	-0.14826924
57	0x3e430eea	0.19048658
58	0xbcf44976	-0.029820185
59	0xbe8b051e	-0.27152342
60	0x3e946202	0.28981024
61	0x3dfbb6f8	0.12290758
62	0x3de92f11	0.1138593
63	0xbb539c73	-0.0032289296

decoder.2.weight f4 [784, 64]
0	0x3df6bfe0	0.12048316
1	0xbd92d7de	-0.0717008
2	0x3ce40c08	0.027837768
3	0xbd7fffac	-0.062499687
4	0xbd9d605a	-0.07684393
5	0xbcf92a20	-0.030415595
6	0x3d40b170	0.047044218
7	0xbd8ca4b2	-0.06867351
8	0x3bb8b728	0.0056370683
9	0xbd807f12	-0.06274237
10	0xbe1e7700	-0.15475082
11	0xbd991490	-0.07474625
12	0xbbdac1f1	-0.0066759516
13	0x3c852e1f	0.016257344
14	0x3d212d0f	0.03934961
15	0xbdd9cd2a	-0.10634835
16	0xbab4b556	-0.0013786952
17	0xbdede4a6	-0.11615877
18	0xbd004f94	-0.03132589
19	0xbddf52c7	-0.109044604
20	0xbd41c8a8	-0.0473105
21	0xbe0f23a0	-0.13978434
22	0xbd98b2d7	-0.07455986
23	0xbdce2d3f	-0.10067224
24	0x3d608410	0.054813445
25	0xbc1bb390	-0.00950326
26	0xbe1ac14a	-0.15112796
27	0x3d924336	0.07141726
28	0x3c02c870	0.007982358
29	0xbc9ddadc	-0.0192694
30	0xbdab444e	-0.083626375
31	0xbd9ebfa4	-0.07751396
32	0x3c170900	0.009218454
33	0xbd214738	-0.03937456
34	0xbdd02cca	-0.10164793
35	0xbe095187	-0.13410006
36	0xbe28f1f3	-0.16498546
37	0xbc31e84c	-0.010858607
38	0xbe195084	-0.1497212
39	0xbe0ebfc6	-0.13940343
40	0xbdd58d46	-0.104273364
41	0xbdfb8d33	-0.12282791
42	0xbd98d90a	-0.07463272
43	0x3da28898	0.079362094
44	0xbd307cd2	-0.043087788
45	0xbe21bfb8	-0.15795791
46	0xbb974ae0	-0.00461708
47	0x3cd09998	0.025463864
48	0xbcb7af10	-0.022422343
49	0xbdc7e2fd	-0.097600915
50	0xbe402222	-0.1876302
51	0xbd590d6a	-0.05299131
52	0xbd555f6c	-0.052092955
53	0xbd23bca4	-0.039974824
54	0x3caa12a8	0.02076085
55	0x3ddeb5fc	0.108745545
56	0xbd19d024	-0.037552014
57	0xbc93e242	-0.018052224
58	0x3d0db884	0.034599796
59	0xbda6d0e6	-0.08145313
60	0x3d9b8d6e	0.07595335
61	0xbd2a51de	-0.04158198
62	0xbe29f800	-0.1659851
63	0xbd9c0d76	-0.07619755
64	0x3d8e9ad4	0.06963125
65	0x3c621316	0.013798496
66	0xbda909c0	-0.08253813
67	0x3da8f35c	0.08249542
68	0xbdfdfcc8	-0.1240173
69	0xbd73a3a4	-0.05948223
70	0xbd353804	-0.044242874
71	0xbcab09c2	-0.020878676
72	0xbe421a2f	-0.18955301
73	0x3c245274	0.010029424
74	0xbc9dc4fc	-0.019258969
75	0xbd3089c9	-0.043100152
76	0xbd4419b6	-0.047876082
77	0xbe4efd5f	-0.20213841
78	0xbcdf0142	-0.02722228
79	0x39723c00	0.0002310127
80	0xbe44f5dc	-0.19234413
81	0x3cf6f4d0	0.030146033
82	0xbd088100	-0.03332615
83	0xbe0e7f82	-0.13915828
84	0xbd7c0b4c	-0.06153421
85	0xbdb94256	-0.09045856
86	0xbd5323a3	-0.051547658
87	0xbcdeefcf	-0.027213959
88	0xbd8d35d6	-0.06895034
89	0xbc20e440	-0.009820044
90	0x3d41d796	0.04732474
91	0xbd93aede	-0.07211088
92	0x3d13eb44	0.03611304
93	0xbcb50e90	-0.02210167
94	0x3cd781e7	0.02630706
95	0x3da23280	0.07919788
96	0x3c806afe	0.015676018
97	0xbd7188a4	-0.0589682
98	0xbdf61052	-0.120148316
99	0xbc87b395	-0.016565124
100	0xbafe20eb	-0.0019388472
101	0xbd0506a0	-0.03247702
102	0xbda9e43b	-0.08295485
103	0xbe0da109	-0.13830961
104	0xbd90f378	-0.07077688
105	0x3d2826e2	0.041052707
106	0xbd83c6a6	-0.064343736
107	0x3d0fe148	0.035126954
108	0xbd1d6394	-0.038425043
109	0x3c382b3c	0.011240777
110	0x3db0d94a	0.086351946
111	0xbd15a235	-0.036531646
112	0xbb37f240	-0.0028067976
113	0xbd184273	-0.037172746
114	0xbe1b5c30	-0.15171885
115	0xbd2fa6e7	-0.04288378
116	0x3bebe6e0	0.0071991533
117	0xbe118b00	-0.1421318
118	0xbcb3c492	-0.021944318
119	0xbe314897	-0.17312847
120	0xbe2fbe71	-0.17162491
121	0xbd50db12	-0.05099017
122	0x3b4518d1	0.0030074606
123	0xbd0f3d89	-0.034970794
124	0x3c47cee8	0.012195326
125	0xbd3dbfbd	-0.046325434
126	0xbd664501	-0.05621815
127	0xbe098a7e	-0.13431737
128	0x3de253e4	0.11051157
129	0xbe744e14	-0.2385791
130	0xbdd9ce9c	-0.10635111
131	0x3de02314	0.109441906
132	0xbd77e510	-0.060521185
133	0xbd06c284	-0.03290035
134	0x3dac548c	0.084145635
135	0x3c32a461	0.010903449
136	0xbe2a91bd	-0.16657157
137	0xbdb7ebcd	-0.08980522
138	0x3d888508	0.06665999
139	0xbcab04e8	-0.020876363
140	0xbd331426	-0.043720387
141	0xbda046ca	-0.07826002
142	0xbc861534	-0.016367532
143	0x3c8e6ff8	0.017387375
144	0x3d06fcd3	0.032955956
145	0x3d237898	0.03990993
146	0x3b852060	0.0040626973
147	0xbd5d1af2	-0.053980775
148	0xbdad0ecc	-0.08450088
149	0xbe2fc32a	-0.17164293
150	0xbd82f9a8	-0.063952744
151	0xbc3248a0	-0.010881573
152	0x3d84ea88	0.06490046
153	0xbccb1658	-0.024790928
154	0xbd83659a	-0.06415863
155	0xbc38b5a0	-0.0112737715
156	0xbd94c0ba	-0.07263322
157	0xbc7511e8	-0.014957882
158	0xbe0baf9c	-0.13641208
159	0xbd844d38	-0.06460041
160	0x3da8a53c	0.08234641
161	0x3d56a3c8	0.052402288
162	0xbd337c14	-0.043819502
163	0xbe1624e8	-0.14662516
164	0xbe012781	-0.12612726
165	0xbc965a58	-0.018353626
166	0xbe424668	-0.1897217
167	0x3d9c350e	0.07627307
168	0x3d6f98e0	0.058495402
169	0xbddf9491	-0.10917009
170	0x3cf37100	0.029716969
171	0xbdc9b17e	-0.09848307
172	0xbce4a2fc	-0.027909748
173	0x3d0c7ace	0.034296803
174	0x3db78b34	0.08962098
175	0xba960700	-0.0011446178
176	0x3d193ce9	0.037411604
177	0x3d987de4	0.07445887
178	0xbe0cadfe	-0.13738248
179	0xbdded661	-0.10880733
180	0xbd4d8710	-0.050177634
181	0x3dafba34	0.08580437
182	0x3c978f30	0.018500894
183	0xbcd68528	-0.02618654
184	0x3d7f53e0	0.06233585
185	0xbe1a8411	-0.15089442
186	0xbdbcc6ee	-0.0921763
187	0x3de6658a	0.11249836
188	0xbd86c215	-0.06579987
189	0xbe0a0a86	-0.13480577
190	0xbe3513c2	-0.17683318
191	0xbd9878cc	-0.07444915
192	0xbcf491b8	-0.02985464
193	0xbb196580	-0.0023406446
194	0xbbfc0f0f	-0.007692225
195	0x3def9708	0.11698729
196	0xbdf9ba1c	-0.12193701
197	0x3dbf651a	0.093454555
198	0x3d56ac94	0.052410677
199	0xbded5c3d	-0.11589859
200	0xbe327111	-0.17425944
201	0xbe440d70	-0.19145751
202	0xbd46c770	-0.048530042
203	0xbb5d3dfe	-0.0033758874
204	0xbe0cacc5	-0.13737781
205	0x3bcbb7a0	0.006216958
206	0x3d17c363	0.03705157
207	0xbda8963a	-0.082317784
208	0xbdd70b57	-0.1050021
209	0xbdcfb502	-0.101419464
210	0xbe40eb94	-0.18839866
211	0xbcd9988a	-0.026561994
212	0x3d7f0efc	0.06227015
213	0x3d3b25d9	0.04569039
214	0xbd48a2f8	-0.048983544
215	0x3d0bd564	0.034139052
216	0xbc27b940	-0.010237038
217	0xbd04cb28	-0.032420307
218	0xbe073cae	-0.13206741
219	0x3dcb65ce	0.09931527
220	0x3db4af3a	0.08822484
221	0xbe26da4c	-0.16294211
222	0x3d4e6d14	0.050396994
223	0x3babe540	0.0052458346
224	0x3dfc1752	0.123091355
225	0xbdc37ce6	-0.09545307
226	0x3d97f9c8	0.07420689
227	0x3cc47aa9	0.02398427
228	0xbdb72a42	-0.08943607
229	0x3d7541a0	0.059877038
230	0xbe4626a8	-0.19350684
231	0xbdf75182	-0.12076093
232	0x3d4220d0	0.047394574
233	0xbdf9651d	-0.12177489
234	0x3de9d2bc	0.114171475
235	0xbdd40d40	-0.1035409
236	0xbbd65205	-0.006540539
237	0xbd89d04b	-0.06729182
238	0xbdd9eb4a	-0.10640581
239	0xbd907998	-0.07054442
240	0x3d8ad97e	0.067797646
241	0xbcf26c01	-0.029592516
242	0x3d3d73fd	0.046253193
243	0x3cec1bd8	0.02882187
244	0x3df5bdc6	0.11999087
245	0xbbe99f3f	-0.0071295793
246	0xbda172fb	-0.07883259
247	0xbd09db3b	-0.03365634
248	0xbe0f1803	-0.13974003
249	0xbd99fd52	-0.0751902
250	0xbe2b4407	-0.16725169
251	0xbdaeca84	-0.085347205
252	0xbde5d8fc	-0.11223027
253	0xbe0caf6b	-0.13738792
254	0x3c4a6241	0.012352527
255	0xbd7ce314	-0.061739996

decoder.2.bias f4 [784]
0	0x3c423e91	0.011855737
1	0xbcb3d408	-0.02195169
2	0x3c514389	0.012772449
3	0xbdbfd7d6	-0.09367339
4	0xbe1327ab	-0.14370601
5	0xbd293264	-0.041307822
6	0xbe1fb575	-0.15596564
7	0xbc8d691c	-0.017262034
8	0xbd9ccfd9	-0.07656831
9	0xbe217ad3	-0.1576951
10	0xbdaae845	-0.08345083
11	0xbe0f22a9	-0.13978066
12	0xbe2d1f88	-0.1690656
13	0xbd03a96d	-0.032144
14	0xbe3fe0b8	-0.18738067
15	0xbe0abdf7	-0.13549028
16	0xbe3a67b7	-0.18203627
17	0x3cde6dd0	0.027151972
18	0x3cb018c0	0.021496177
19	0xbcf33a83	-0.029690986
20	0xbd0b77c0	-0.03404975
21	0xbe24cc8d	-0.16093655
22	0xbd1f482c	-0.038887188
23	0xbe1d0a3e	-0.15335938
24	0xbe2b5c45	-0.16734417
25	0x3cf2d8d9	0.029644417
26	0xbdb64526	-0.08899908
27	0xbe384e70	-0.17998672
28	0xbe0baa9d	-0.13639303
29	0xbd6f3f2b	-0.05840985
30	0xbb4259f9	-0.0029655679
31	0xbe426e4d	-0.18987389
32	0xbd087f0a	-0.03332428
33	0xbd89937a	-0.06717582
34	0xbb6084e8	-0.0034258906
35	0xbd9c604e	-0.07635556
36	0xbe1a283b	-0.15054409
37	0xbdb3b67a	-0.08775039
38	0xbe36fc4b	-0.1786968
39	0x3bd53147	0.0065061185
40	0xbbfc1188	-0.0076925196
41	0xbd79d217	-0.060991373
42	0x3bdb3de9	0.00669073
43	0xbdbe022f	-0.0927776
44	0xbd0629f7	-0.032754865
45	0xbe1c73f2	-0.15278605
46	0xbe25ae6d	-0.1617982
47	0xbd854c9a	-0.06508751
48	0xbe23b505	-0.15987022
49	0xbd4c921c	-0.04994403
50	0xbe32ebfe	-0.17472836
51	0xbc76a49c	-0.015053894
52	0xbde4a3b5	-0.11164037
53	0xbd97bb9b	-0.0740883
54	0x3cc883a1	0.024476828
55	0x3cf91aa0	0.030408204
56	0xbdf88114	-0.12133995
57	0xbda7df09	-0.081968375
58	0xbdd13386	-0.102149054
59	0xbd603fdd	-0.054748405
60	0xbd171b4d	-0.03689127
61	0xbdc94dbe	-0.09829281
62	0xbda88775	-0.082289614
63	0xbe6d07c6	-0.23147497
64	0xbc8a85a3	-0.016909426
65	0xbdf56d7c	-0.11983773
66	0x3be01449	0.0068383557
67	0xbdd82eba	-0.105557874
68	0xbe24b62c	-0.16085118
69	0xbea2282b	-0.3167127
70	0xbe34c01a	-0.17651406
71	0xbea4bac1	-0.32173732
72	0xbcf479a1	-0.029843153
73	0xbdb1d56a	-0.086832836
74	0xbd1006ef	-0.035162862
75	0xbdc5698e	-0.096392736
76	0xbd66f5d8	-0.0563868
77	0xbd011821	-0.03151715
78	0x3c38918a	0.011265168
79	0xbdaff74e	-0.085920915
80	0xbe0981a9	-0.13428368
81	0xbdbfebc5	-0.09371141
82	0xbc83b91d	-0.01607948
83	0xbd6a6219	-0.05722246
84	0xbd9d6297	-0.0768482
85	0xbddf0dcd	-0.10891304
86	0xbd35bbed	-0.044368673
87	0xbdd606b7	-0.104504995
88	0xbc50e135	-0.012749006
89	0xbd337bb0	-0.04381913
90	0xbe4c9b67	-0.19981156
91	0xbe001397	-0.12507473
92	0xbe015104	-0.12628561
93	0xbd2fc0a6	-0.042908333
94	0xbdb867ef	-0.09004199
95	0xbd9b84fd	-0.07593725
96	0x3d173a95	0.036921103
97	0xbe56fe5c	-0.20995468
98	0xbe04b8a2	-0.12961057
99	0xbe0ae347	-0.13563262
100	0xbe06bc07	-0.13157664
101	0xbd43aafb	-0.04777048
102	0xbde7e7ca	-0.11323507
103	0xbe6e6840	-0.23281956
104	0xbe19dea3	-0.15026335
105	0xbe22e589	-0.15907873
106	0xbe2d7a45	-0.16941173
107	0xbd880ece	-0.06643449
108	0x3d48bac2	0.04900623
109	0xbddad9fd	-0.10686109
110	0xbdd21bdc	-0.1025922
111	0xbda42966	-0.080157086
112	0xbe1bad6b	-0.15202872
113	0xbd2cb7ff	-0.04216766
114	0xbcedd0a4	-0.029030152
115	0xbe0fa294	-0.14026862
116	0xbd103ace	-0.03521233
117	0x3d621efa	0.055205323
118	0xbdaf4391	-0.08557809
119	0xbd507347	-0.050891187
120	0xbda132c8	-0.07871014
121	0xbe242a05	-0.16031654
122	0xbe37f2f3	-0.17963772
123	0xbe09c20a	-0.13452926
124	0xbddef299	-0.108861156
125	0x3d822e07	0.06356435
126	0xbe96145d	-0.2931241
127	0xbf012d9d	-0.50460225
128	0xbe9fa4e6	-0.31180495
129	0xbe006e1c	-0.12542003
130	0xbe2ba87c	-0.1676349
131	0xbe7f739b	-0.24946444
132	0xbd4cc04d	-0.04998808
133	0xbe292bd6	-0.16520628
134	0xbd8f9489	-0.07010753
135	0xbe06ff63	-0.1318336
136	0x3a20e902	0.00061382365
137	0xbe3666db	-0.17812674
138	0xbdc29002	-0.095001236
139	0xbdb32600	-0.08747482
140	0xbe005d01	-0.12535478
141	0xbe490fe1	-0.19634964
142	0xbc7ce960	-0.0154365
143	0xbde612a0	-0.11234021
144	0xbdcfd819	-0.10148639
145	0xbe35d7bb	-0.17758076
146	0x3c606088	0.01369489
147	0xbea762b6	-0.32692498
148	0xbe69018b	-0.22754495
149	0x3d306230	0.04306239
150	0x3dc31525	0.095255174
151	0x3e81a889	0.25323895
152	0x3ea77078	0.32702994
153	0x3e88ffda	0.267577
154	0xbe4b17a0	-0.19833231
155	0xbe9e2118	-0.30884624
156	0xbdf89a04	-0.12138751
157	0xbe90e716	-0.28301305
158	0xbeca132a	-0.39467746
159	0xbe8d5f3a	-0.27611715
160	0xbe50dd5d	-0.20396943
161	0xbdec8220	-0.11548257
162	0xbce9fc15	-0.028562585
163	0xbebb9574	-0.3663746
164	0xbccfb952	-0.025356922
165	0xbd1fe102	-0.039032944
166	0xbe3d2bd9	-0.18473758
167	0xbddaadcc	-0.106776804
168	0x3d26f4c7	0.04076078
169	0xbdb82a2b	-0.08992418
170	0xbdade15d	-0.0849025
171	0xbdb72cf3	-0.0894412
172	0xbdd09c26	-0.10186033
173	0xbd89d338	-0.0672974
174	0xbe1258cb	-0.14291684
175	0xbb88bae0	-0.004172668
176	0xbe4c8f74	-0.19976598
177	0x3e67cd4a	0.22636905
178	0x3f0acc06	0.54217565
179	0x3f1c1533	0.6096985
180	0x3f27f141	0.656025
181	0x3f2225df	0.63339037
182	0x3d05760c	0.03258328
183	0xbe4b74cd	-0.19868775
184	0xbe65bc19	-0.22435035
185	0xbe173490	-0.14766145
186	0xbc81181d	-0.015758568
187	0x3da7967d	0.08183
188	0x3d230710	0.039801657
189	0x3e0eaab1	0.13932301
190	0xba984653	-0.0011617638
191	0xbdafbc5e	-0.0858085
192	0xbc963e01	-0.018340113
193	0xbe4c0e60	-0.19927359
194	0xbde094ac	-0.10965857
195	0xbe0da761	-0.13833381
196	0xbe38f877	-0.18063532
197	0xbbc7f010	-0.0061016157
198	0x3981b71f	0.00024741233
199	0xbe1341db	-0.1438059
200	0xbe1a4a88	-0.15067494
201	0xbdd45140	-0.1036706
202	0xbd97dfd5	-0.074157394
203	0x3c9b32f9	0.018945204
204	0x3e4adb18	0.1981014
205	0x3f135838	0.57556486
206	0x3f35a926	0.70961225
207	0x3f49b20f	0.7878732
208	0x3f55363d	0.83285886
209	0x3f12709b	0.5720307
210	0x3dbc5cce	0.091973886
211	0xbe01da24	-0.1268087
212	0xbda371a8	-0.079806626
213	0x3e25c23e	0.16187379
214	0x3ec796c3	0.3898221
215	0x3ee545ee	0.44779915
216	0x3edabfbb	0.42724404
217	0x3ea927cc	0.33038175
218	0x3e5aad60	0.213552
219	0x3e52ceae	0.20586655
220	0xbe12a0c3	-0.14319138
221	0xbb4caf12	-0.003123228
222	0xbe109884	-0.1412068
223	0xbe1652df	-0.1468005
224	0xbdd31422	-0.103065744
225	0x3ce90ff3	0.028449988
226	0xbdde9d52	-0.1086985
227	0xbe01410f	-0.12622474
228	0xbc4666b3	-0.012109446
229	0xbe8ecf17	-0.27892372
230	0xbe4b9c3b	-0.19883816
231	0xbce12130	-0.027481645
232	0x3ea7ae08	0.32749963
233	0x3f10248c	0.56305766
234	0x3f16436a	0.58696616
235	0x3ed8336a	0.42226726
236	0x3ecb4ae5	0.39705577
237	0x3e351902	0.17685321
238	0xbdd9d731	-0.10636748
239	0xbe17b2cc	-0.148143
240	0xbdc0c1d6	-0.09411971
241	0x3e6356fa	0.22201148
242	0x3ef28cf8	0.47373176
243	0x3efc5667	0.4928467
244	0x3ed57019	0.41687086
245	0x3e9c8f4f	0.30578086
246	0xbe0e04d2	-0.13869026
247	0x3d408b8d	0.047008086
248	0xbe1495ef	-0.1451032
249	0xbe9238f6	-0.28559083
250	0xbe2b0650	-0.16701627
251	0x3d03b656	0.03215631
252	0xbcd8188d	-0.026378894
253	0xbe2c8484	-0.16847426
254	0xbdd98eeb	-0.106229626
255	0xbeb8af9d	-0.36071482
