20220518240.pt (torch, 424079 bytes, 8 tensors)

encoder.0.weight f4 [64, 784]
0	0xbc6ddf61	-0.01451859
1	0x3cf0d2ac	0.029397331
2	0x3c9aec90	0.01891163
3	0x3c97ddbe	0.018538352
4	0xbd116b33	-0.035502624
5	0xbe896df7	-0.2684171
6	0xbfed67ec	-1.854734
7	0xbee036ec	-0.43791902
8	0xbf579b78	-0.842216
9	0xc02d3fb8	-2.707014
10	0xc0737862	-3.8042226
11	0xc00c3dd0	-2.1912727
12	0xc04d8ca4	-3.211709
13	0xc00351e5	-2.0518734
14	0xc06837d3	-3.6284072
15	0xc0222943	-2.5337684
16	0x3e84c02b	0.25927863
17	0xbf73fac9	-0.9530454
18	0xbfd372c0	-1.6519394
19	0xbfbf8fbb	-1.4965738
20	0xc012b237	-2.2921274
21	0xc035c426	-2.840097
22	0xbfcf8b16	-1.6214321
23	0xbfc28ba9	-1.5198871
24	0xbcc10f23	-0.023566788
25	0xbbe05d4a	-0.0068470584
26	0xbaf7e401	-0.0018912555
27	0xbcc1b7ac	-0.023647152
28	0xbc8a6ce3	-0.016897624
29	0xbaf53c4a	-0.0018709984
30	0x3f8ccef8	1.1000662
31	0x3eb3fbd2	0.3515306
32	0xc003837a	-2.0548997
33	0xbf3cc759	-0.7374168
34	0xbf3acc32	-0.7296783
35	0xc0824d13	-4.0719085
36	0xc054cd6e	-3.3250384
37	0xc05083dc	-3.258048
38	0xc066f957	-3.6089685
39	0xc04531bc	-3.0811605
40	0xbff86cc0	-1.9408188
41	0xc034ec7f	-2.8269346
42	0xbf93913c	-1.1528697
43	0x3d9bb97f	0.0760374
44	0xbfc8feb8	-1.5702734
45	0xbf9dcd1a	-1.2328217
46	0xbfb09438	-1.3795233
47	0xbf807553	-1.0035805
48	0xbf69f8a7	-0.9139504
49	0xc01748d0	-2.3638191
50	0xc06382e8	-3.554865
51	0xc06a0a06	-3.6568618
52	0xbea962c3	-0.33083162
53	0x3ff6bae3	1.9275783
54	0xbaca4525	-0.0015431984
55	0xbce1f643	-0.027583247
56	0x3c83af25	0.016074726
57	0x3c6d1b25	0.014471804
58	0x3e3acc40	0.18241978
59	0xbf0b24fd	-0.54353315
60	0x404f9c98	3.2439327
61	0xc05b75cc	-3.4290648
62	0x3e6069cf	0.21915363
63	0x3d5c22ea	0.053744234
64	0xc01d8826	-2.4614348
65	0xbfe3452b	-1.7755483
66	0xbf72620e	-0.9468087
67	0x3d01f566	0.03172817
68	0xbf364132	-0.7119323
69	0xbf7374b1	-0.9509993
70	0xbf883259	-1.0640365
71	0x3dab3a05	0.08360676
72	0xbf4e9f3b	-0.80711716
73	0xbf7d60e9	-0.98976
74	0xbf2be9c4	-0.67153573
75	0xbd99956e	-0.074992046
76	0xbf0e1249	-0.5549665
77	0xbeeb2680	-0.4592781
78	0xbed3dea1	-0.4138079
79	0xbed54387	-0.41653082
80	0xbff08442	-1.8790362
81	0x3f0f8c00	0.56073
82	0x3d6e2834	0.05814381
83	0xbc8be6c0	-0.017077804
84	0x3d0121d8	0.031526417
85	0xbf40d09e	-0.75318325
86	0xbf45fb03	-0.7733614
87	0xbf66361c	-0.89926314
88	0xbf11452c	-0.5674617
89	0xbf9d6f25	-1.2299544
90	0xbeec7e5e	-0.4619016
91	0x3f55f915	0.83583194
92	0xbe92f65b	-0.2870358
93	0x3f065bc8	0.524838
94	0xbedb0a6e	-0.42781395
95	0x3d56da1d	0.052454103
96	0x3cdc2f91	0.02687815
97	0x3e0c0c42	0.13676551
98	0x3d38c0b4	0.04510565
99	0xbe0a90e6	-0.13531837
100	0x3ea132e4	0.3148414
101	0xbd154f18	-0.036452383
102	0xbe770797	-0.24123989
103	0xbb86af36	-0.0041102422
104	0x3e22c575	0.15895636
105	0xbc62e8e8	-0.0138494745
106	0x3d743afe	0.05962657
107	0xbf0503df	-0.5195903
108	0x3e98c519	0.29837874
109	0x3ef71fea	0.48266536
110	0xbfd7826a	-1.6836674
111	0x3f8a6a1d	1.0813633
112	0xbb86a9ee	-0.0041096127
113	0x3fa02997	1.2512692
114	0xbf9de62a	-1.2335865
115	0xbea8a9a0	-0.32941914
116	0xbfa1aaf4	-1.2630296
117	0x3fb57df8	1.4179068
118	0xbf1c625f	-0.610876
119	0x3e19dc32	0.15025404
120	0xbeb4250f	-0.35184523
121	0x3e8b81bd	0.2724742
122	0xbd5d44e9	-0.054020796
123	0x3e737a61	0.23777153
124	0x3cc1366e	0.023585524
125	0xbc921733	-0.017833328
126	0x3e84c886	0.25934237
127	0xbc24033d	-0.010010538
128	0x3e00d0a0	0.12579584
129	0x3cadb655	0.021205107
130	0xbda6ec8c	-0.081505865
131	0x3e89acef	0.2688975
132	0xbe379f45	-0.1793185
133	0x3e602390	0.21888566
134	0x3d3797f0	0.044822633
135	0x3c85b89d	0.016323382
136	0x3f34c69f	0.7061557
137	0xbfb942d2	-1.4473517
138	0x3eb581fe	0.3545074
139	0xbf150f0a	-0.5822607
140	0xbc606fea	-0.013698557
141	0xbec292c4	-0.38002598
142	0xbf767f36	-0.9628786
143	0x3f604738	0.8760867
144	0xbe881c65	-0.26584163
145	0xbef422d0	-0.4768281
146	0x3d8a79f9	0.06761546
147	0xbe83f7d9	-0.2577503
148	0x3e7572d4	0.23969585
149	0xbe581fa6	-0.21105823
150	0xbe0ab4ae	-0.13545486
151	0x3d5b8f0e	0.053603224
152	0x3d8ef314	0.06979957
153	0x3da9505d	0.08267281
154	0xbd540d8b	-0.051770728
155	0xbca58862	-0.020206634
156	0x3d4e7fad	0.05041473
157	0x3de643b9	0.11243386
158	0x3e5bd525	0.21468027
159	0x3d2b8b59	0.04188094
160	0xbd4fcb41	-0.050730947
161	0xbb122d85	-0.0022304964
162	0xbdf54b41	-0.11977244
163	0xbe3f9665	-0.18709715
164	0x3ec45838	0.38348556
165	0xbeb6dc15	-0.35714784
166	0xbf3f77cf	-0.7479219
167	0x3f2e65c1	0.68124014
168	0xbebbc93c	-0.36676967
169	0xbfccdb6d	-1.6004463
170	0x3fd50f2c	1.6645255
171	0xbe3d9204	-0.18512732
172	0x3f0100fa	0.50392115
173	0xbe4f73f9	-0.20259084
174	0xbdcf760a	-0.10129936
175	0xbd89bac7	-0.06725078
176	0x3e01fcb5	0.12694056
177	0xbda995f7	-0.08280557
178	0xbc57293c	-0.01313239
179	0xbda7c658	-0.08192128
180	0xbdd409b7	-0.103534155
181	0x3dea7609	0.11448295
182	0xbe138bf2	-0.14408854
183	0x3dab6d9b	0.08370515
184	0x3d56a4b8	0.05240318
185	0x3db0a8fd	0.08625982
186	0x3de798ee	0.11308466
187	0x3e67d93f	0.22641467
188	0xbe113519	-0.14180411
189	0x3d098661	0.03357542
190	0xbe5a855e	-0.21339938
191	0x3e532eb8	0.2062329
192	0xbee62a60	-0.44954205
193	0x3ec043b7	0.37551662
194	0xbf69c246	-0.9131206
195	0x3ff99ed3	1.9501594
196	0x3f26dc4a	0.65179884
197	0x3fbd6c7b	1.4798731
198	0xbeb8f05d	-0.36120883
199	0x3f149553	0.5804035
200	0xbec8fd37	-0.39255688
201	0xbdd07e11	-0.10180295
202	0x3ca5ecca	0.020254511
203	0x3da70132	0.08154525
204	0xbe655b21	-0.22398044
205	0xb9b7e07b	-0.0003507173
206	0x3de2e95d	0.11079667
207	0xbe02dea9	-0.1278025
208	0xbe0a9d41	-0.1353655
209	0xba705f98	-0.0009169518
210	0x3d7dbbcb	0.06194667
211	0x3d69260c	0.05692105
212	0xbe017049	-0.1264049
213	0x3e3796d5	0.17928632
214	0x3da1d0f3	0.07901182
215	0xbd9e3fb0	-0.07726991
216	0xbd7030ca	-0.05864028
217	0x3d8c5141	0.068514355
218	0xbeaf8805	-0.34283462
219	0xbe449a2d	-0.19199438
220	0x3eb5d28a	0.3551219
221	0xbdad978c	-0.08476171
222	0xbf7cde22	-0.9877645
223	0x3f826d40	1.018959
224	0x3e350588	0.17677891
225	0xbe3289be	-0.17435357
226	0xbf740645	-0.95322067
227	0x3eec0ed6	0.4610507
228	0xbdf8f621	-0.1215632
229	0x3e89848c	0.26858938
230	0xbe0f0417	-0.13966404
231	0xbd56bdb0	-0.052426994
232	0x3d9c9789	0.076460905
233	0xbde5941f	-0.112098925
234	0xbdb54905	-0.08851818
235	0x3e30b314	0.17255813
236	0x3d626583	0.05527259
237	0x3d3a58d0	0.045494854
238	0x3d2f22d8	0.04275784
239	0x3db281b6	0.08716147
240	0x3df1e0bb	0.11810442
241	0x3d13c2c5	0.03607442
242	0x3d13b735	0.03606339
243	0x3d8dd6c0	0.06925726
244	0x3e09eb24	0.13468605
245	0xbdaf19ec	-0.08549866
246	0x3de5c8f2	0.11219968
247	0xbebedbab	-0.37276968
248	0xbe28712e	-0.16449425
249	0xbe89868c	-0.26860464
250	0xc0169d31	-2.3533442
251	0x40801ee8	4.0037727
252	0x3f07c571	0.53035647
253	0xbe945c37	-0.28976604
254	0x3ece0d0b	0.40244326
255	0xbe39aa63	-0.18131404

encoder.0.bias f4 [64]
0	0x402028bb	2.502486
1	0x3f26f83a	0.65222514
2	0xbf8c0075	-1.093764
3	0x400d8530	2.2112541
4	0x40151c95	2.3298695
5	0xc0788671	-3.8832057
6	0x40049465	2.0715573
7	0x3ffde888	1.9836588
8	0x3fda1072	1.7036269
9	0x3fc2870b	1.5197462
10	0x401b34a7	2.4250886
11	0x40106b1f	2.2565382
12	0x3fc8dc80	1.5692291
13	0x40366bc9	2.8503287
14	0x401aa944	2.4165812
15	0x40075080	2.1142883
16	0x4040e010	3.0136757
17	0x3ff8eabe	1.9446638
18	0x40004e22	2.0047688
19	0xbe8aac4e	-0.27084583
20	0x405c4f20	3.4423294
21	0x40312737	2.7680185
22	0x3e1d8313	0.15382032
23	0x3f472677	0.7779307
24	0x4001302f	2.018566
25	0x4014befd	2.324157
26	0x3fbfb077	1.4975728
27	0x402918d9	2.6421416
28	0xbe09a7db	-0.13442938
29	0x3f90ff3e	1.1327894
30	0x3f85ad9e	1.0443609
31	0x3fba1558	1.4537764
32	0x3defb553	0.11704507
33	0x3fcb5f1a	1.5888398
34	0x404da7f5	3.2133763
35	0x3fe2e01b	1.7724642
36	0x401d9d41	2.462723
37	0x401ea7df	2.478996
38	0x400c5780	2.1928406
39	0x3f0865a4	0.5328009
40	0x3e5efc6d	0.2177598
41	0x3e1735c3	0.14766602
42	0x40076e85	2.1161206
43	0x3fb8cc2e	1.4437311
44	0x403b664c	2.9281187
45	0x4012972c	2.2904768
46	0x3fcbefb7	1.593253
47	0x40006edd	2.0067666
48	0xbeee0f89	-0.46496227
49	0xbde60c9e	-0.11232875
50	0xbfae23ea	-1.360471
51	0x403eeaa4	2.9830713
52	0x3eb1cb22	0.3472529
53	0x4002da42	2.0445714
54	0x3fecad8f	1.8490466
55	0x403a2d2f	2.9090078
56	0x3f0400f8	0.5156398
57	0xbf33217a	-0.69972956
58	0x3f753fa9	0.9580026
59	0x3facbb59	1.3494674
60	0x3fd08f77	1.6293782
61	0x40506323	3.2560508
62	0x3fa29e1c	1.2704501
63	0x3fd840de	1.6894796

encoder.2.weight f4 [32, 64]
0	0xbecc8045	-0.39941612
1	0xbde39901	-0.111131676
2	0xbe9e6be2	-0.30941683
3	0xbeb4b531	-0.35294488
4	0xbe36c119	-0.17847098
5	0x3cb72e1b	0.022360852
6	0xbda2c504	-0.07947734
7	0x3ca36063	0.019943422
8	0x3abc9581	0.0014387817
9	0xbe2df7b0	-0.16989017
10	0xbd4543e2	-0.04816044
11	0xbeae1ce4	-0.34006417
12	0xbd138fda	-0.03602586
13	0xbe0e9b62	-0.13926461
14	0xbe9e4e2f	-0.30919024
15	0x3c221b97	0.009894273
16	0x3d846f66	0.0646656
17	0x3d4fc397	0.05072364
18	0xbdbb84a7	-0.09156161
19	0xbe3e648f	-0.18593048
20	0xbe1ba4f7	-0.15199648
21	0xbe20246a	-0.15638891
22	0xbcd8b1e2	-0.026452009
23	0xbda35f4f	-0.07977163
24	0x3d083cf8	0.03326127
25	0xbee58edc	-0.44835556
26	0xbedd085c	-0.4317044
27	0xbeba560f	-0.36393782
28	0xbed55013	-0.41662654
29	0xbdc8b793	-0.09800639
30	0xbd5826c3	-0.05277134
31	0xbeceb086	-0.40369052
32	0xbe865ed7	-0.26244232
33	0xbe32663d	-0.17421813
34	0xbe1f203e	-0.15539643
35	0xbed6b091	-0.41931584
36	0xbd5f3f9f	-0.054504033
37	0xbe147448	-0.14497483
38	0xbe27c687	-0.16384326
39	0xbedfc275	-0.43703046
40	0xbe471709	-0.19442381
41	0xbe94280e	-0.2893681
42	0x3d61a455	0.05508836
43	0xbe4c91ad	-0.19977446
44	0xbc0d8a1d	-0.008638886
45	0xbd8cbf88	-0.06872469
46	0xbef35bdf	-0.4753103
47	0xbdd8a76d	-0.10578809
48	0xbee221d4	-0.44166434
49	0xbe8ac918	-0.27106547
50	0xbe93ec56	-0.28891248
51	0xbd3cc8a1	-0.046089772
52	0xbe1fbbf2	-0.15599039
53	0xbecc2189	-0.39869335
54	0xbe904d3d	-0.28183928
55	0xbe10bd54	-0.14134723
56	0xbe80ca9f	-0.25154588
57	0xbedb2ba6	-0.4280674
58	0x3cb1fd2d	0.021727169
59	0xbcb5755d	-0.02215069
60	0xbec0573b	-0.37566552
61	0x3cac3dc6	0.02102555
62	0xbd3e6425	-0.046482224
63	0xbe380ecf	-0.17974399
64	0x3d518223	0.0511495
65	0xbb4e711b	-0.0031500522
66	0xbec0c551	-0.3765054
67	0xbd4c6d9e	-0.049909227
68	0x3cf69ce7	0.030104114
69	0xbc0a1601	-0.008428098
70	0xbe865222	-0.26234537
71	0xbce14698	-0.027499482
72	0x3d1fd990	0.039025843
73	0xbdbfaacc	-0.09358749
74	0x3d54a43a	0.05191443
75	0xbdc91d9f	-0.09820103
76	0xbcb66d8e	-0.022269037
77	0xbe327c82	-0.17430308
78	0xbe05d870	-0.13070846
79	0x3be08726	0.0068520484
80	0xbd30e7b3	-0.043189716
81	0xbd377165	-0.044785876
82	0xbd96c6e4	-0.07362154
83	0xbebffbc2	-0.37496763
84	0xbdbe849b	-0.09302636
85	0xbe1f9c20	-0.155869
86	0x3d7d5aee	0.061854295
87	0xbc58d820	-0.013235122
88	0xbe2763e4	-0.16346699
89	0xbde1641f	-0.11005425
90	0xbe09f6c0	-0.13473034
91	0xbdbef5d6	-0.09324233
92	0xbe83112f	-0.25599048
93	0xbdbbf319	-0.091772266
94	0xbe2334cc	-0.15938109
95	0xbe2d13fb	-0.16902153
96	0xbe9d883e	-0.30768007
97	0xbdb5a89f	-0.088700525
98	0xbc3646f4	-0.011125315
99	0xbdaed310	-0.08536351
100	0xbdfe69fa	-0.12422557
101	0xbe258fee	-0.16168186
102	0xbe2e6b7d	-0.17033191
103	0xbe8e326b	-0.2777284
104	0xbec31965	-0.38105312
105	0xbe9602ed	-0.29299107
106	0x3d05355f	0.0325216
107	0xbd3c4975	-0.04596849
108	0xbd9aa6d3	-0.075513504
109	0xbe2a78a0	-0.16647577
110	0xbe8e59f8	-0.27803016
111	0xbe3a1c5d	-0.18174882
112	0xbe8d1ae7	-0.27559587
113	0xbe29119c	-0.16510624
114	0xbd971aa9	-0.07378132
115	0xbd63736e	-0.055530004
116	0xbe2a277f	-0.16616629
117	0xbc8ad5a2	-0.016947571
118	0xbe393610	-0.1808703
119	0xbe04985e	-0.12948748
120	0xbec519f0	-0.3849635
121	0xbe93e0b8	-0.28882384
122	0x3bf71e7e	0.0075414767
123	0xbe010c22	-0.12602285
124	0xbe2f84ab	-0.17140453
125	0xbdccd078	-0.100007
126	0xbe0f2959	-0.13980617
127	0x3cadbc6a	0.021208007
128	0x3f2cea3c	0.67544913
129	0x3dd37d7b	0.10326668
130	0x3ccdf836	0.02514277
131	0xbbae0701	-0.0053108935
132	0xbede58ec	-0.43427217
133	0x3c84b3a0	0.016198933
134	0x3e547446	0.2074748
135	0x3ef0568f	0.4694104
136	0x3b550006	0.0032501235
137	0x3cfb5add	0.030682975
138	0xbf4a8180	-0.7910385
139	0xbc638cc1	-0.013888539
140	0xc007fdd8	-2.1248684
141	0xbc504459	-0.012711608
142	0xbcc1ba4b	-0.023648402
143	0x3eee3099	0.46521452
144	0x3e4106dc	0.18850273
145	0xbd91d639	-0.07120938
146	0x3cf9684b	0.030445239
147	0x3d3da3d0	0.046298802
148	0xbf907401	-1.1285402
149	0x3b4ad6c4	0.0030950764
150	0xbd55455c	-0.0520681
151	0x3c1bd2cb	0.009510706
152	0x3e838d38	0.2569368
153	0xbc301399	-0.01074686
154	0xba77c8ff	-0.0009452253
155	0xbb80e05a	-0.003932995
156	0x3d5c3906	0.05376532
157	0xbfae21e9	-1.3604099
158	0x3e0b8d03	0.1362801
159	0x3c65872a	0.014009276
160	0x3c102071	0.008796797
161	0xbd09263c	-0.03348373
162	0xbfcf792f	-1.6208857
163	0x3dcae8f8	0.099077165
164	0xbf5d9b49	-0.8656507
165	0xbeca8b7c	-0.39559543
166	0x3d3ff6cc	0.046866223
167	0xb9ada9cd	-0.00033123643
168	0xbcb97fe0	-0.022643983
169	0xbdfef264	-0.12448576
170	0xbd8c1cea	-0.068414524
171	0xbd9633f2	-0.073341265
172	0x3cc33b0b	0.023831865
173	0xbda67ce3	-0.08129289
174	0x3e8ab318	0.27089763
175	0xbd917687	-0.071026854
176	0xbce9d336	-0.028543096
177	0xbcc22ffc	-0.023704521
178	0xba899744	-0.0010497351
179	0x3e90cf9f	0.28283402
180	0x3e6afaad	0.22947188
181	0xbca0d909	-0.01963474
182	0x3d1eaa5f	0.038736697
183	0xbdce8ac1	-0.10085059
184	0x3cbbed4d	0.022940302
185	0x3c320a61	0.010866732
186	0x3cc03d6d	0.02346679
187	0x3c1efce9	0.009703853
188	0x3d3436e8	0.043997675
189	0x3cec9aaa	0.028882343
190	0xbc1defd8	-0.009639703
191	0xbc6593f7	-0.014012328
192	0x3dc9fe14	0.09862915
193	0xbe8218b1	-0.25409463
194	0x3cf21a82	0.029553656
195	0xbcb802d0	-0.022462279
196	0xbdf91ade	-0.12163328
197	0xbd8ec4c9	-0.069711275
198	0x3e587b43	0.2114077
199	0x3f30a4bc	0.69001365
200	0xbaf27266	-0.0018497228
201	0x3c929719	0.017894315
202	0xbe28ec42	-0.16496375
203	0x3e527202	0.20551303
204	0xc03f895c	-2.9927588
205	0x3d1fb83a	0.03899405
206	0xbd817593	-0.06321254
207	0x3e1facee	0.15593311
208	0x3cd1ccab	0.025610289
209	0x3e046263	0.12928157
210	0xbc93edfa	-0.018057812
211	0xbdb6958f	-0.08915245
212	0x3d789970	0.060693204
213	0xbe8941f6	-0.26808137
214	0xba8a1d0c	-0.0010537221
215	0xbce407ed	-0.02783581
216	0x3ce54715	0.027987996
217	0x3d351b31	0.044215385
218	0x3d4ab7e0	0.049491763
219	0x3dfdc338	0.12390751
220	0xbc1922da	-0.009346688
221	0xc02ea09f	-2.7285535
222	0x3ecb5b34	0.3971802
223	0xbca87a33	-0.020566082
224	0xbd93c84c	-0.07215938
225	0x3ddbef73	0.10739031
226	0xc04a0d66	-3.1570678
227	0xbd4f7bad	-0.050655056
228	0xbf977404	-1.183228
229	0x3dd33e2b	0.10314592
230	0x3c6398d3	0.013891417
231	0x3c2e9354	0.010655243
232	0x3b019022	0.0019769748
233	0xbd16beca	-0.036803044
234	0xbdb5077e	-0.0883932
235	0xbd18aa5f	-0.037271854
236	0xbe4747bb	-0.19460957
237	0x3e3e33d7	0.18574463
238	0x3d890be2	0.066917196
239	0xbdb2fab5	-0.08739225
240	0x3d2447f5	0.040107686
241	0x3d1d808e	0.038452677
242	0xbd603e41	-0.05474687
243	0xbe9a153b	-0.30094323
244	0x3ea16b31	0.31527093
245	0x3d59d7a8	0.05318418
246	0x3bb00229	0.0053713513
247	0xbcbd74bc	-0.023126952
248	0xbce415f4	-0.0278425
249	0x3ca4514f	0.020058302
250	0x3ddc91c1	0.10769988
251	0x3dd0a5ae	0.10187851
252	0xbd012568	-0.031529814
253	0x3e2dc145	0.16968258
254	0x3dcbf33b	0.09958502
255	0x3c1af4fc	0.009457823

encoder.2.bias f4 [32]
0	0xbea5956f	-0.3234057
1	0xbe7eb659	-0.24874248
2	0x3f336e3d	0.70090085
3	0x3f83bb69	1.0291568
4	0x3f841fba	1.0322182
5	0x3ccc126b	0.024911126
6	0xbd8ae757	-0.06782406
7	0xbf1ae7d5	-0.6051
8	0xbed269ed	-0.4109644
9	0xbed5d30e	-0.41762584
10	0x3f820130	1.0156612
11	0x3ed347e2	0.4126578
12	0xbd85d65f	-0.06535029
13	0xbe129ce6	-0.14317665
14	0x3f585a69	0.84512955
15	0x3bd94afb	0.006631253
16	0xbe2156df	-0.15755795
17	0x3d3ab110	0.045579016
18	0x3f455b71	0.77092654
19	0x3ebc02d0	0.36720896
20	0xbe0c1b96	-0.13682398
21	0xbdcc6273	-0.09979715
22	0x3ed04be7	0.4068291
23	0xbd6bae42	-0.057539232
24	0x3f797ddb	0.97457665
25	0xbe6ab756	-0.229215
26	0x3f6da7be	0.9283408
27	0x3f030037	0.511722
28	0x3d254f36	0.040358745
29	0x3e4f0400	0.2021637
30	0x3f240923	0.6407644
31	0x3f506e52	0.81418335

decoder.0.weight f4 [64, 32]
0	0xbe81b3f1	-0.25332597
1	0xbe922c7c	-0.28549564
2	0xbeb7f8f8	-0.35932136
3	0xbe8ae9e6	-0.27131575
4	0xbeb7f1fa	-0.359268
5	0xbe93c36f	-0.28860041
6	0xbdf4c1d6	-0.11951034
7	0xbdddd095	-0.108307995
8	0x3ed2bf4b	0.4116157
9	0xbd16b11a	-0.03678999
10	0xbde4d54d	-0.111734964
11	0xbee8fbf7	-0.45504734
12	0xbe94f382	-0.29092032
13	0x3d92c902	0.071672454
14	0xbedc30fd	-0.43006125
15	0xbee802e7	-0.45314714
16	0xbd98fa53	-0.074696206
17	0xbeb496f5	-0.3527142
18	0xbe5a56c7	-0.21322165
19	0xbea2bfee	-0.31787056
20	0xbe51aaf2	-0.20475367
21	0xbebfaf1e	-0.3743829
22	0xbead6a3e	-0.3387012
23	0xbed9bbd7	-0.42526123
24	0x3e9acb77	0.30233356
25	0x3ed0a8f8	0.40753913
26	0x3edb20f3	0.42798576
27	0xbeb837bd	-0.35980025
28	0x3e6bffae	0.23046753
29	0xbece5862	-0.40301806
30	0xbe5bb23e	-0.21454713
31	0x3e233e2f	0.1594169
32	0xbe9493c4	-0.29018986
33	0xbe72987c	-0.2369098
34	0xbd1333d3	-0.035938095
35	0x3e6696e1	0.22518493
36	0x3d57abc4	0.052654043
37	0xbc814a65	-0.015782544
38	0xbe75e6aa	-0.24013773
39	0xbcb699f2	-0.022290204
40	0x3e943935	0.28949896
41	0x3d64d54d	0.055867482
42	0x3b8c6fdd	0.004285796
43	0x3e02d0aa	0.12774912
44	0x3cb2b2a7	0.021813704
45	0xbd6f69af	-0.058450397
46	0xbdf59e85	-0.11993126
47	0xbdc2ac0f	-0.09505474
48	0x3c958839	0.018253433
49	0xbca962ad	-0.020676935
50	0xbd16ec47	-0.036846425
51	0x3eebfd26	0.46091574
52	0xbe7f4415	-0.24928315
53	0xbe1b44ad	-0.15162916
54	0x3b625f25	0.0034541574
55	0xbe41563a	-0.18880549
56	0x3e070e67	0.13189088
57	0x3d602bae	0.054729156
58	0x3d37f1f7	0.04490849
59	0xbd607407	-0.054798152
60	0x3e145bc8	0.14488137
61	0x3e007cda	0.12547627
62	0x3e322336	0.17396244
63	0xbb3b7354	-0.0028602676
64	0x3e0b1f9b	0.13586275
65	0x3c7ece16	0.015552064
66	0xba5ccbcf	-0.0008422704
67	0xbdc2026f	-0.094731204
68	0xbadc233b	-0.0016795167
69	0x3e5dd07a	0.21661559
70	0x3e00f1c1	0.12592222
71	0x3e382590	0.17983079
72	0xbe303ec3	-0.17211442
73	0xbd3508b8	-0.044197768
74	0xbd53e592	-0.051732607
75	0xbd1aa16f	-0.03775161
76	0x3de6cfcf	0.11270105
77	0xbc9f76dd	-0.019465858
78	0xbdcc5e94	-0.09978977
79	0xbde4aebf	-0.11166143
80	0xbe18e6a7	-0.14931737
81	0x3e0f11a8	0.13971579
82	0xbdbcf7c2	-0.092269436
83	0x3d271bb6	0.04079791
84	0xbd54b728	-0.051932484
85	0x3e45dce1	0.1932254
86	0xbe06b771	-0.13155915
87	0x3e539317	0.20661579
88	0x3d3d094c	0.046151444
89	0x3d741db5	0.059598643
90	0x3f185842	0.5950967
91	0xbe4eac8c	-0.20183009
92	0xbe040786	-0.12893495
93	0xbdfc585f	-0.12321543
94	0x3c608947	0.0137046045
95	0x3d826f7d	0.06368921
96	0xbdbfc36a	-0.09363444
97	0x3d8b3c67	0.0679863
98	0xbbba0134	-0.005676413
99	0xbe72d9e7	-0.23715936
100	0xbdef6843	-0.11689808
101	0xbe0afafc	-0.13572305
102	0xbe3b7c4b	-0.18309133
103	0x3df34c9b	0.11879846
104	0x3e2db716	0.16964373
105	0x3de66024	0.11248806
106	0x3d4dba15	0.05022629
107	0xbde7683d	-0.11299179
108	0xbe2229e4	-0.15836293
109	0xbe21c636	-0.15798268
110	0xbdd6fe8c	-0.1049777
111	0x3d899e8d	0.06719694
112	0x3ca98845	0.020694861
113	0xbdc085d4	-0.09400526
114	0xbe22c143	-0.15894036
115	0x3cdfa96f	0.027302472
116	0xbd515de7	-0.051114943
117	0xbdb338e8	-0.087510884
118	0x3e3afddf	0.18260907
119	0xbe6aba5b	-0.22922651
120	0x3d56d3f1	0.052448217
121	0xbcc824f6	-0.024431687
122	0x3e37707b	0.17914002
123	0x3d640546	0.05566909
124	0x3e2fbdfd	0.17162319
125	0xbe705cac	-0.23472852
126	0xbde41cf4	-0.11138335
127	0xbd1d4670	-0.038397253
128	0xbdd5f145	-0.10446409
129	0xbe88e4cb	-0.26737055
130	0xbded747b	-0.115944825
131	0xbe174c35	-0.14775164
132	0xbe48ea4b	-0.19620626
133	0xbda9eb73	-0.082968615
134	0xbe6ffe21	-0.23436786
135	0x3db79aca	0.089650705
136	0x3cd87ddb	0.0264272
137	0x3e0fec91	0.14055087
138	0xbccb0204	-0.024781235
139	0xbda25d7f	-0.07927989
140	0xbe201609	-0.15633406
141	0xbe64387a	-0.22287169
142	0x3ce9d810	0.02854541
143	0xbe5afb39	-0.21384896
144	0x3da3ef35	0.080046095
145	0xbe467788	-0.19381535
146	0xbe4fe494	-0.2030204
147	0xbe0d4116	-0.1379436
148	0x3d8d46cc	0.06898269
149	0xbe317336	-0.17329106
150	0xbdad01c3	-0.08447602
151	0xbd5d6bf0	-0.054058015
152	0xbe0377e4	-0.12838703
153	0xbd7ab88f	-0.061211165
154	0x3d8d99e4	0.06914118
155	0x3e60685c	0.2191481
156	0x3e6a18ad	0.22860976
157	0xbe4c70f1	-0.19964959
158	0xbdd01bdc	-0.10161564
159	0xbd842113	-0.06451621
160	0xbda7bfea	-0.081909016
161	0xbe90659e	-0.28202528
162	0xbe8e72f8	-0.2782209
163	0xbea57312	-0.32314354
164	0xbeba23c3	-0.3635541
165	0xbead560e	-0.33854717
166	0x3bc78dc9	0.0060899
167	0xbe245842	-0.16049293
168	0x3e87c768	0.26519322
169	0x3dd8ffb1	0.10595644
170	0xbe794df7	-0.24346147
171	0xbe5e1ff0	-0.2169187
172	0xbc995e9e	-0.018721875
173	0xbc10d9f2	-0.008841025
174	0x3d0fe41a	0.035129644
175	0xbed69cd5	-0.41916528
176	0xbc888cc6	-0.016668689
177	0xbe9a4315	-0.30129305
178	0xbe6f5adc	-0.23374504
179	0xbe976ef5	-0.2957684
180	0xbee0fdf6	-0.43943757
181	0xbe953071	-0.2913852
182	0xbe7801dc	-0.2421946
183	0xbda5b68d	-0.080914594
184	0xbe4659fc	-0.19370264
185	0x3e8a3521	0.2699366
186	0xbeb5e9f8	-0.35530066
187	0xbea37e07	-0.3193209
188	0x3e78f0af	0.24310564
189	0xbe7c42d4	-0.24634868
190	0xbed86262	-0.4226256
191	0x3e0338a9	0.12814583
192	0x3d9de8a8	0.07710391
193	0xbde1670d	-0.110059835
194	0xbe230ca3	-0.1592279
195	0xbc9da170	-0.019242018
196	0xbf8bd4c0	-1.0924301
197	0xbe1bbdae	-0.15209076
198	0x3dd1e9ec	0.10249695
199	0xbe2367ef	-0.15957616
200	0x3d2c4488	0.042057544
201	0x3df68807	0.12037664
202	0xbe51e991	-0.20499255
203	0xbd0c74d5	-0.034291107
204	0xbe2eba02	-0.17063144
205	0xbeb72e6a	-0.357776
206	0x3e3840e1	0.179935
207	0x3e009927	0.12558423
208	0xbe2a6d16	-0.16643175
209	0x3ddeffcc	0.10888633
210	0x3d3249a1	0.04352725
211	0x3c4afa22	0.012388738
212	0xbd92aeae	-0.07162224
213	0xbb9eca51	-0.0048458953
214	0x3b86af9b	0.0041102893
215	0x3e30ef67	0.17278825
216	0x3ca9bc0f	0.020719556
217	0x3d9e0627	0.07716017
218	0xbd9b34c7	-0.07578426
219	0xbd5fe9d1	-0.054666344
220	0xbd50e0b7	-0.050995555
221	0xbe1297f3	-0.14315777
222	0x3f02d59e	0.51107204
223	0xbdf12637	-0.11774867
224	0xbe91a63c	-0.2844714
225	0xbea5f446	-0.32412928
226	0x3d1039a7	0.03521123
227	0xbd48e912	-0.0490504
228	0xbc9571af	-0.018242685
229	0xbd94d91b	-0.07267972
230	0xbde17a01	-0.110095985
231	0xbeb3cf51	-0.35119107
232	0x3e3a8f73	0.18218784
233	0x3e242800	0.16030884
234	0x3d6f8601	0.058477405
235	0xbd6a3047	-0.057174947
236	0xbe8250ce	-0.25452274
237	0xbd950dd8	-0.07278031
238	0x3c9462d6	0.018113535
239	0xbeb166d6	-0.3464877
240	0x3e9a8f7f	0.30187604
241	0xbd8606a2	-0.06544234
242	0x3ee6a79d	0.45049754
243	0x3e37b4f1	0.17940117
244	0xbdbd7ecb	-0.092526995
245	0xbeab939d	-0.33511057
246	0x3d4e8acc	0.050425336
247	0xbe426edc	-0.18987602
248	0x3d05b356	0.03264173
249	0x3e44b71c	0.19210476
250	0x3dcc4cfb	0.0997562
251	0x3b7e7ea5	0.003883281
252	0x3d41c141	0.047303442
253	0x3ce9bc4e	0.028532173
254	0xbcf25a1d	-0.029583985
255	0x3ea52ce8	0.32260823

decoder.0.bias f4 [64]
0	0xbe684050	-0.22680783
1	0xbe30c8db	-0.1726412
2	0x3de8fbe7	0.113761716
3	0xbdec4df2	-0.115383044
4	0x3a877468	0.0010334374
5	0xbe609b82	-0.21934322
6	0x3dfff227	0.12497359
7	0xbde5bd75	-0.11217777
8	0x3dd5572c	0.10417017
9	0xbe199774	-0.14999181
10	0x3c187338	0.009304814
11	0xbd6bfc8a	-0.057613887
12	0x3d3e065f	0.046392795
13	0xbe03eb00	-0.12882614
14	0xbd8f6e08	-0.07003409
15	0xbe5d0930	-0.21585536
16	0xbd257c04	-0.040401474
17	0xbb996898	-0.004681658
18	0xbe4e96db	-0.20174734
19	0xbd33f3c6	-0.043933652
20	0x3bf27a6c	0.0073998477
21	0xbd1feaa3	-0.039042126
22	0x3e435430	0.19075084
23	0xbdb85843	-0.090012096
24	0xbeef20d1	-0.46704724
25	0xbe55ef6a	-0.2089211
26	0xbe3a5bc0	-0.18199062
27	0xbebc0e06	-0.3672945
28	0xbee1fce2	-0.44138247
29	0x3e310d85	0.17290314
30	0xbc9f090c	-0.019413494
31	0xbe802b43	-0.25033006
32	0xbdcd6094	-0.100281864
33	0x3d573d84	0.0525489
34	0xbdd0c404	-0.10193637
35	0x3e9d5bd2	0.30734116
36	0x3e15eaf0	0.14640403
37	0xbe37c363	-0.17945628
38	0xbbcb3fc9	-0.006202672
39	0xbdc817a7	-0.09770136
40	0xbe5e8bce	-0.21733019
41	0xbdfcb51a	-0.1233923
42	0x3c615e9f	0.01375547
43	0x3dbc7043	0.092011
44	0x3e5dcc9c	0.21660084
45	0xbd8b21c9	-0.067935534
46	0x3d687e20	0.056760907
47	0x3e7caddf	0.24675702
48	0xbe76825d	-0.24073167
49	0xbdf2d971	-0.1185788
50	0x3de5010e	0.11181842
51	0xbd973d47	-0.073847346
52	0xbe42657b	-0.18984024
53	0xbc92a484	-0.017900713
54	0xbecc5e5d	-0.39915743
55	0x39cb0181	0.00038720298
56	0xbe17d3e4	-0.14826924
57	0x3e3d10a2	0.18463376
58	0xbcd72065	-0.026260564
59	0xbe8b051e	-0.27152342
60	0x3e8b5a2b	0.2721723
61	0x3e04d710	0.12972665
62	0x3df0fff6	0.11767571
63	0xbc34e2fe	-0.011040447

decoder.2.weight f4 [784, 64]
0	0x3df6bfe0	0.12048316
1	0xbd92d7de	-0.0717008
2	0x3ce40c08	0.027837768
3	0xbd7fffac	-0.062499687
4	0xbd9d605a	-0.07684393
5	0xbcf92a20	-0.030415595
6	0x3d40b170	0.047044218
7	0xbd8ca4b2	-0.06867351
8	0x3bb8b728	0.0056370683
9	0xbd807f12	-0.06274237
10	0xbe1e7700	-0.15475082
11	0xbd991490	-0.07474625
12	0xbbdac1f1	-0.0066759516
13	0x3c852e1f	0.016257344
14	0x3d212d0f	0.03934961
15	0xbdd9cd2a	-0.10634835
16	0xbab4b556	-0.0013786952
17	0xbdede4a6	-0.11615877
18	0xbd004f94	-0.03132589
19	0xbddf52c7	-0.109044604
20	0xbd41c8a8	-0.0473105
21	0xbe0f23a0	-0.13978434
22	0xbd98b2d7	-0.07455986
23	0xbdce2d3f	-0.10067224
24	0x3d608410	0.054813445
25	0xbc1bb390	-0.00950326
26	0xbe1ac14a	-0.15112796
27	0x3d924336	0.07141726
28	0x3c02c870	0.007982358
29	0xbc9ddadc	-0.0192694
30	0xbdab444e	-0.083626375
31	0xbd9ebfa4	-0.07751396
32	0x3c170900	0.009218454
33	0xbd214738	-0.03937456
34	0xbdd02cca	-0.10164793
35	0xbe095187	-0.13410006
36	0xbe28f1f3	-0.16498546
37	0xbc31e84c	-0.010858607
38	0xbe195084	-0.1497212
39	0xbe0ebfc6	-0.13940343
40	0xbdd58d46	-0.104273364
41	0xbdfb8d33	-0.12282791
42	0xbd98d90a	-0.07463272
43	0x3da28898	0.079362094
44	0xbd307cd2	-0.043087788
45	0xbe21bfb8	-0.15795791
46	0xbb974ae0	-0.00461708
47	0x3cd09998	0.025463864
48	0xbcb7af10	-0.022422343
49	0xbdc7e2fd	-0.097600915
50	0xbe402222	-0.1876302
51	0xbd590d6a	-0.05299131
52	0xbd555f6c	-0.052092955
53	0xbd23bca4	-0.039974824
54	0x3caa12a8	0.02076085
55	0x3ddeb5fc	0.108745545
56	0xbd19d024	-0.037552014
57	0xbc93e242	-0.018052224
58	0x3d0db884	0.034599796
59	0xbda6d0e6	-0.08145313
60	0x3d9b8d6e	0.07595335
61	0xbd2a51de	-0.04158198
62	0xbe29f800	-0.1659851
63	0xbd9c0d76	-0.07619755
64	0x3d8e9ad4	0.06963125
65	0x3c621316	0.013798496
66	0xbda909c0	-0.08253813
67	0x3da8f35c	0.08249542
68	0xbdfdfcc8	-0.1240173
69	0xbd73a3a4	-0.05948223
70	0xbd353804	-0.044242874
71	0xbcab09c2	-0.020878676
72	0xbe421a2f	-0.18955301
73	0x3c245274	0.010029424
74	0xbc9dc4fc	-0.019258969
75	0xbd3089c9	-0.043100152
76	0xbd4419b6	-0.047876082
77	0xbe4efd5f	-0.20213841
78	0xbcdf0142	-0.02722228
79	0x39723c00	0.0002310127
80	0xbe44f5dc	-0.19234413
81	0x3cf6f4d0	0.030146033
82	0xbd088100	-0.03332615
83	0xbe0e7f82	-0.13915828
84	0xbd7c0b4c	-0.06153421
85	0xbdb94256	-0.09045856
86	0xbd5323a3	-0.051547658
87	0xbcdeefcf	-0.027213959
88	0xbd8d35d6	-0.06895034
89	0xbc20e440	-0.009820044
90	0x3d41d796	0.04732474
91	0xbd93aede	-0.07211088
92	0x3d13eb44	0.03611304
93	0xbcb50e90	-0.02210167
94	0x3cd781e7	0.02630706
95	0x3da23280	0.07919788
96	0x3c806afe	0.015676018
97	0xbd7188a4	-0.0589682
98	0xbdf61052	-0.120148316
99	0xbc87b395	-0.016565124
100	0xbafe20eb	-0.0019388472
101	0xbd0506a0	-0.03247702
102	0xbda9e43b	-0.08295485
103	0xbe0da109	-0.13830961
104	0xbd90f378	-0.07077688
105	0x3d2826e2	0.041052707
106	0xbd83c6a6	-0.064343736
107	0x3d0fe148	0.035126954
108	0xbd1d6394	-0.038425043
109	0x3c382b3c	0.011240777
110	0x3db0d94a	0.086351946
111	0xbd15a235	-0.036531646
112	0xbb37f240	-0.0028067976
113	0xbd184273	-0.037172746
114	0xbe1b5c30	-0.15171885
115	0xbd2fa6e7	-0.04288378
116	0x3bebe6e0	0.0071991533
117	0xbe118b00	-0.1421318
118	0xbcb3c492	-0.021944318
119	0xbe314897	-0.17312847
120	0xbe2fbe71	-0.17162491
121	0xbd50db12	-0.05099017
122	0x3b4518d1	0.0030074606
123	0xbd0f3d89	-0.034970794
124	0x3c47cee8	0.012195326
125	0xbd3dbfbd	-0.046325434
126	0xbd664501	-0.05621815
127	0xbe098a7e	-0.13431737
128	0x3de253e4	0.11051157
129	0xbe744e14	-0.2385791
130	0xbdd9ce9c	-0.10635111
131	0x3de02314	0.109441906
132	0xbd77e510	-0.060521185
133	0xbd06c284	-0.03290035
134	0x3dac548c	0.084145635
135	0x3c32a461	0.010903449
136	0xbe2a91bd	-0.16657157
137	0xbdb7ebcd	-0.08980522
138	0x3d888508	0.06665999
139	0xbcab04e8	-0.020876363
140	0xbd331426	-0.043720387
141	0xbda046ca	-0.07826002
142	0xbc861534	-0.016367532
143	0x3c8e6ff8	0.017387375
144	0x3d06fcd3	0.032955956
145	0x3d237898	0.03990993
146	0x3b852060	0.0040626973
147	0xbd5d1af2	-0.053980775
148	0xbdad0ecc	-0.08450088
149	0xbe2fc32a	-0.17164293
150	0xbd82f9a8	-0.063952744
151	0xbc3248a0	-0.010881573
152	0x3d84ea88	0.06490046
153	0xbccb1658	-0.024790928
154	0xbd83659a	-0.06415863
155	0xbc38b5a0	-0.0112737715
156	0xbd94c0ba	-0.07263322
157	0xbc7511e8	-0.014957882
158	0xbe0baf9c	-0.13641208
159	0xbd844d38	-0.06460041
160	0x3da8a53c	0.08234641
161	0x3d56a3c8	0.052402288
162	0xbd337c14	-0.043819502
163	0xbe1624e8	-0.14662516
164	0xbe012781	-0.12612726
165	0xbc965a58	-0.018353626
166	0xbe424668	-0.1897217
167	0x3d9c350e	0.07627307
168	0x3d6f98e0	0.058495402
169	0xbddf9491	-0.10917009
170	0x3cf37100	0.029716969
171	0xbdc9b17e	-0.09848307
172	0xbce4a2fc	-0.027909748
173	0x3d0c7ace	0.034296803
174	0x3db78b34	0.08962098
175	0xba960700	-0.0011446178
176	0x3d193ce9	0.037411604
177	0x3d987de4	0.07445887
178	0xbe0cadfe	-0.13738248
179	0xbdded661	-0.10880733
180	0xbd4d8710	-0.050177634
181	0x3dafba34	0.08580437
182	0x3c978f30	0.018500894
183	0xbcd68528	-0.02618654
184	0x3d7f53e0	0.06233585
185	0xbe1a8411	-0.15089442
186	0xbdbcc6ee	-0.0921763
187	0x3de6658a	0.11249836
188	0xbd86c215	-0.06579987
189	0xbe0a0a86	-0.13480577
190	0xbe3513c2	-0.17683318
191	0xbd9878cc	-0.07444915
192	0xbcf491b8	-0.02985464
193	0xbb196580	-0.0023406446
194	0xbbfc0f0f	-0.007692225
195	0x3def9708	0.11698729
196	0xbdf9ba1c	-0.12193701
197	0x3dbf651a	0.093454555
198	0x3d56ac94	0.052410677
199	0xbded5c3d	-0.11589859
200	0xbe327111	-0.17425944
201	0xbe440d70	-0.19145751
202	0xbd46c770	-0.048530042
203	0xbb5d3dfe	-0.0033758874
204	0xbe0cacc5	-0.13737781
205	0x3bcbb7a0	0.006216958
206	0x3d17c363	0.03705157
207	0xbda8963a	-0.082317784
208	0xbdd70b57	-0.1050021
209	0xbdcfb502	-0.101419464
210	0xbe40eb94	-0.18839866
211	0xbcd9988a	-0.026561994
212	0x3d7f0efc	0.06227015
213	0x3d3b25d9	0.04569039
214	0xbd48a2f8	-0.048983544
215	0x3d0bd564	0.034139052
216	0xbc27b940	-0.010237038
217	0xbd04cb28	-0.032420307
218	0xbe073cae	-0.13206741
219	0x3dcb65ce	0.09931527
220	0x3db4af3a	0.08822484
221	0xbe26da4c	-0.16294211
222	0x3d4e6d14	0.050396994
223	0x3babe540	0.0052458346
224	0x3dfc1752	0.123091355
225	0xbdc37ce6	-0.09545307
226	0x3d97f9c8	0.07420689
227	0x3cc47aa9	0.02398427
228	0xbdb72a42	-0.08943607
229	0x3d7541a0	0.059877038
230	0xbe4626a8	-0.19350684
231	0xbdf75182	-0.12076093
232	0x3d4220d0	0.047394574
233	0xbdf9651d	-0.12177489
234	0x3de9d2bc	0.114171475
235	0xbdd40d40	-0.1035409
236	0xbbd65205	-0.006540539
237	0xbd89d04b	-0.06729182
238	0xbdd9eb4a	-0.10640581
239	0xbd907998	-0.07054442
240	0x3d8ad97e	0.067797646
241	0xbcf26c01	-0.029592516
242	0x3d3d73fd	0.046253193
243	0x3cec1bd8	0.02882187
244	0x3df5bdc6	0.11999087
245	0xbbe99f3f	-0.0071295793
246	0xbda172fb	-0.07883259
247	0xbd09db3b	-0.03365634
248	0xbe0f1803	-0.13974003
249	0xbd99fd52	-0.0751902
250	0xbe2b4407	-0.16725169
251	0xbdaeca84	-0.085347205
252	0xbde5d8fc	-0.11223027
253	0xbe0caf6b	-0.13738792
254	0x3c4a6241	0.012352527
255	0xbd7ce314	-0.061739996

decoder.2.bias f4 [784]
0	0x3c423e91	0.011855737
1	0xbcb3d408	-0.02195169
2	0x3c514389	0.012772449
3	0xbdbfd7d6	-0.09367339
4	0xbe1327ab	-0.14370601
5	0xbd293264	-0.041307822
6	0xbe1fb575	-0.15596564
7	0xbc8d691c	-0.017262034
8	0xbd9ccfd9	-0.07656831
9	0xbe217ad3	-0.1576951
10	0xbdaae845	-0.08345083
11	0xbe0f22a9	-0.13978066
12	0xbe2d1f88	-0.1690656
13	0xbd03a96d	-0.032144
14	0xbe3fe0b8	-0.18738067
15	0xbe0abdf7	-0.13549028
16	0xbe3a67b7	-0.18203627
17	0x3cde6dd0	0.027151972
18	0x3cb018c0	0.021496177
19	0xbcf33a83	-0.029690986
20	0xbd0b77c0	-0.03404975
21	0xbe24cc8d	-0.16093655
22	0xbd1f482c	-0.038887188
23	0xbe1d0a3e	-0.15335938
24	0xbe2b5c45	-0.16734417
25	0x3cf2d8d9	0.029644417
26	0xbdb64526	-0.08899908
27	0xbe384e70	-0.17998672
28	0xbe0baa9d	-0.13639303
29	0xbd6f3f2b	-0.05840985
30	0xbb4259f9	-0.0029655679
31	0xbe426e4d	-0.18987389
32	0xbd087f0a	-0.03332428
33	0xbd89937a	-0.06717582
34	0xbb6084e8	-0.0034258906
35	0xbd9c604e	-0.07635556
36	0xbe1a283b	-0.15054409
37	0xbdb3b67a	-0.08775039
38	0xbe36fc4b	-0.1786968
39	0x3bd53147	0.0065061185
40	0xbbfc1188	-0.0076925196
41	0xbd79d217	-0.060991373
42	0x3bdb3de9	0.00669073
43	0xbdbe022f	-0.0927776
44	0xbd0629f7	-0.032754865
45	0xbe1c73f2	-0.15278605
46	0xbe25ae6d	-0.1617982
47	0xbd854c9a	-0.06508751
48	0xbe23b505	-0.15987022
49	0xbd4c921c	-0.04994403
50	0xbe32ebfe	-0.17472836
51	0xbc76a49c	-0.015053894
52	0xbde4a3b5	-0.11164037
53	0xbd97bb9b	-0.0740883
54	0x3cc883a1	0.024476828
55	0x3cf91aa0	0.030408204
56	0xbdf88114	-0.12133995
57	0xbda7df09	-0.081968375
58	0xbdd13386	-0.102149054
59	0xbd603fdd	-0.054748405
60	0xbd171b4d	-0.03689127
61	0xbdc94dbe	-0.09829281
62	0xbda88775	-0.082289614
63	0xbe6d07c6	-0.23147497
64	0xbc8a85a3	-0.016909426
65	0xbdf56d7c	-0.11983773
66	0x3be01449	0.0068383557
67	0xbdd82eba	-0.105557874
68	0xbe24b62c	-0.16085118
69	0xbea901aa	-0.33009082
70	0xbe34c01a	-0.17651406
71	0xbe9d66f4	-0.3074261
72	0xbcf479a1	-0.029843153
73	0xbdb1d56a	-0.086832836
74	0xbd1006ef	-0.035162862
75	0xbdc5698e	-0.096392736
76	0xbd66f5d8	-0.0563868
77	0xbd011821	-0.03151715
78	0x3c38918a	0.011265168
79	0xbdaff74e	-0.085920915
80	0xbe0981a9	-0.13428368
81	0xbdbfebc5	-0.09371141
82	0xbc83b91d	-0.01607948
83	0xbd6a6219	-0.05722246
84	0xbd9d6297	-0.0768482
85	0xbddf0dcd	-0.10891304
86	0xbd35bbed	-0.044368673
87	0xbdd606b7	-0.104504995
88	0xbc50e135	-0.012749006
89	0xbd337bb0	-0.04381913
90	0xbe4c9b67	-0.19981156
91	0xbe001397	-0.12507473
92	0xbe015104	-0.12628561
93	0xbd2fc0a6	-0.042908333
94	0xbdb867ef	-0.09004199
95	0xbd9b84fd	-0.07593725
96	0x3d173a95	0.036921103
97	0xbe56fe5c	-0.20995468
98	0xbe04b8a2	-0.12961057
99	0xbe00d12d	-0.12579794
100	0xbd81067b	-0.06300064
101	0xbd43aafb	-0.04777048
102	0xbe00b3c8	-0.12568581
103	0xbe6e6840	-0.23281956
104	0xbe19dea3	-0.15026335
105	0xbe22e589	-0.15907873
106	0xbe2d7a45	-0.16941173
107	0xbd880ece	-0.06643449
108	0x3d48bac2	0.04900623
109	0xbddad9fd	-0.10686109
110	0xbd84df2c	-0.06487879
111	0xbda42966	-0.080157086
112	0xbe1bad6b	-0.15202872
113	0xbd2cb7ff	-0.04216766
114	0xbcedd0a4	-0.029030152
115	0xbe0fa294	-0.14026862
116	0xbd103ace	-0.03521233
117	0x3d621efa	0.055205323
118	0xbdaf4391	-0.08557809
119	0xbd507347	-0.050891187
120	0xbda132c8	-0.07871014
121	0xbe242a05	-0.16031654
122	0xbe37f2f3	-0.17963772
123	0xbe09c20a	-0.13452926
124	0xbddef299	-0.108861156
125	0x3d64e358	0.055880874
126	0xbe9a826f	-0.30177638
127	0xbf045b00	-0.51701355
128	0xbea5f451	-0.3241296
129	0xbe17b002	-0.14813235
130	0xbe4d2fe2	-0.20037797
131	0xbe947c61	-0.29001144
132	0xbd4cc04d	-0.04998808
133	0xbe292bd6	-0.16520628
134	0xbd8f9489	-0.07010753
135	0xbe06ff63	-0.1318336
136	0x3a20e902	0.00061382365
137	0xbe3666db	-0.17812674
138	0xbdc29002	-0.095001236
139	0xbdb32600	-0.08747482
140	0xbe005d01	-0.12535478
141	0xbdfe7795	-0.12425152
142	0xbc7ce960	-0.0154365
143	0xbde612a0	-0.11234021
144	0xbdcfd819	-0.10148639
145	0xbe35d7bb	-0.17758076
146	0x3c606088	0.01369489
147	0xbea03d93	-0.31296977
148	0xbe4f047e	-0.20216557
149	0x3d32e67e	0.043676846
150	0x3d9011cd	0.07034645
151	0x3e5aaf31	0.21355893
152	0x3e920a5f	0.28523538
153	0x3e68ac92	0.2272208
154	0xbe686ab1	-0.2269695
155	0xbe9e2118	-0.30884624
156	0xbdf89a04	-0.12138751
157	0xbe9931fc	-0.29920948
158	0xbeddf322	-0.43349558
159	0xbea361b1	-0.3191047
160	0xbe80ef62	-0.25182635
161	0xbe247820	-0.16061449
162	0xbce9fc15	-0.028562585
163	0xbebb9574	-0.3663746
164	0xbccfb952	-0.025356922
165	0xbd1fe102	-0.039032944
166	0xbe3d2bd9	-0.18473758
167	0xbddaadcc	-0.106776804
168	0x3d26f4c7	0.04076078
169	0xbdb82a2b	-0.08992418
170	0xbdade15d	-0.0849025
171	0xbdb72cf3	-0.0894412
172	0xbdd09c26	-0.10186033
173	0xbd89d338	-0.0672974
174	0xbe1258cb	-0.14291684
175	0xbb88bae0	-0.004172668
176	0xbe389c96	-0.18028483
177	0x3e5192fc	0.20466226
178	0x3ef98715	0.48735872
179	0x3f0aa9c4	0.5416529
180	0x3f173137	0.5905947
181	0x3f164498	0.58698416
182	0x3918b1e1	0.00014562115
183	0xbe51100f	-0.20416282
184	0xbe624b7a	-0.22099105
185	0xbe3940a2	-0.18091062
186	0xbd9daf0b	-0.076994024
187	0x3c8e2451	0.017351301
188	0xbc99d35e	-0.018777546
189	0x3dd68ca6	0.10476045
190	0xba984653	-0.0011617638
191	0xbdafbc5e	-0.0858085
192	0xbc963e01	-0.018340113
193	0xbe4c0e60	-0.19927359
194	0xbde094ac	-0.10965857
195	0xbe0da761	-0.13833381
196	0xbe38f877	-0.18063532
197	0xbbc7f010	-0.0061016157
198	0x3981b71f	0.00024741233
199	0xbe1341db	-0.1438059
200	0xbe1a4a88	-0.15067494
201	0xbdd45140	-0.1036706
202	0xbdabe563	-0.083933614
203	0x3c448b51	0.011996106
204	0x3e3cca9f	0.18436669
205	0x3f081b1e	0.5316638
206	0x3f2400c1	0.6406365
207	0x3f360c72	0.7111274
208	0x3f46fc62	0.77728856
209	0x3f06ae3f	0.5260963
210	0x3d879b97	0.06621473
211	0xbe03ed22	-0.12883428
212	0xbda4b38e	-0.0804206
213	0x3e0bc359	0.13648738
214	0x3ea79667	0.32731935
215	0x3ebdf9ac	0.37104547
216	0x3ebcb594	0.36857283
217	0x3e9389a6	0.28815955
218	0x3e5151fc	0.20441431
219	0x3e60f9b9	0.21970262
220	0xbe12a0c3	-0.14319138
221	0xbb4caf12	-0.003123228
222	0xbe109884	-0.1412068
223	0xbe1652df	-0.1468005
224	0xbdd31422	-0.103065744
225	0x3ce90ff3	0.028449988
226	0xbdde9d52	-0.1086985
227	0xbe01410f	-0.12622474
228	0xbc4666b3	-0.012109446
229	0xbe6dc20f	-0.23218559
230	0xbe2c4538	-0.1682328
231	0xb869a9db	-5.570972e-05
232	0x3eaf595e	0.3424787
233	0x3f074700	0.5284271
234	0x3f07fdeb	0.53121823
235	0x3eb98ab5	0.36238638
236	0x3ebb6605	0.36601272
237	0x3e1f4393	0.15553121
238	0xbdd33f11	-0.10314763
239	0xbdf269e8	-0.11836606
240	0xbd80829a	-0.0627491
241	0x3e561cee	0.20909473
242	0x3ed6a609	0.4192355
243	0x3ed6628a	0.41872054
244	0x3eb7b388	0.3587916
245	0x3e875a43	0.26436052
246	0xbe0e04d2	-0.13869026
247	0x3d6cea07	0.057840373
248	0xbe1495ef	-0.1451032
249	0xbe9238f6	-0.28559083
250	0xbe2b0650	-0.16701627
251	0x3d03b656	0.03215631
252	0x3c3288ab	0.010896842
253	0xbe2c8484	-0.16847426
254	0xbdd98eeb	-0.106229626
255	0xbe89900a	-0.26867706
