20220518130.pt (torch, 424079 bytes, 8 tensors)

encoder.0.weight f4 [64, 784]
00000000: 61df 6dbc acd2 f03c 90ec 9a3c bedd 973c
00000010: 67a6 fbbc 2318 0cbe a463 52bf db3a bdbf
00000020: 25db 9bbf 166d d1bf 14fb e4be 3ae6 103e
00000030: d4f4 51bf c289 8fbe 1137 c6bf 6b54 dabf
00000040: 23ec d0be 894e 4ebf 798c 93bf f110 49bf
00000050: b290 4fbf 91c6 d1bf 1f5c 9cbf f850 01be
00000060: 230f c1bc 4a5d e0bb 01e4 f7ba acb7 c1bc
00000070: e36c 8abc 4a3c f5ba 3ae9 8a3f 1ee7 363e
00000080: 8189 a23d a84c 253e c972 efbf 54b1 f5bf
00000090: efa6 28c0 d853 9cbf 0224 c4bd c452 2c3f
000000a0: 70b2 c33e da52 e7bf 84b1 3dbf 6195 cc3c
000000b0: 9f9c 7bbf 6a9a 8dbf e4b7 d5bf cdd0 7bbf
000000c0: 3761 54bf bcc9 febf a8ab 10bf 7513 38c0
000000d0: c161 d4be e80a 963e 2545 caba 43f6 e1bc
000000e0: 25af 833c 251b 6d3c 8ee4 343e e6b0 9bbe
000000f0: 12ae d23e 9695 30c0 48b8 d4bf a58d 13bf
00000100: 8181 b1bf 045c bbbe 9962 c7be 322f 82be
00000110: 3cb6 e63e c387 ecbe 2b6b 0bbf 1918 1ebe
00000120: 9aec 6ebe e9e9 51bf 84d2 0fbf b06d 9fbc
00000130: a41f 5fbf e51d ecbe b5e3 3fbf b283 393f
00000140: fdf7 04bf acdf 463e 3f97 143f c0e6 8bbc
00000150: d821 013d 3dcf c1be a44d ec3e 6e06 c8be
00000160: 176b 9dbf 6a2e 76be 759d 17bf 2dc1 2d3e
00000170: 8af8 7b3e 5b3b a43d e4ca 3abe 9ae7 493e
00000180: dba4 0bbe 1352 293e c2e1 463c cd6d 243e
00000190: 8d6a b33e 0061 48be 828d 0cbe 2a52 a83d
000001a0: 8b8f 5b3d 5b92 29be 6200 1dbd d7e1 41bf
000001b0: 46c9 fabe da75 973f 7926 8eba e9c9 fa3e
000001c0: eea9 86bb 2b20 1b3f cacc 94bf f85b da3e
000001d0: 4f22 1ebf 65e5 333f 23d0 98be 7a45 98bc
000001e0: bd09 86be 5766 843e f09b 083d 17a1 2c3e
000001f0: 54ec 903d 21bb b7bd 731f c43d f015 a33d
00000200: adec 3d3e 2c1f 403d 80a4 d3bc f318 0c3e
00000210: 555f f3bd 178c 763e 2850 0fbe fd80 a33c
00000220: 39fc f63e 462a 22c0 37cf f5be 511d 353d
00000230: ea6f 60bc 4403 febd de67 08bf 69d3 0a3e
00000240: 1cf5 bbbd 85e3 e6bd 716e 0e3e 7dd9 70be
00000250: f2b0 b93d a870 c6bc e77d 9abd 083c 54bc
00000260: f459 8b3d 2e4c 76bd d055 a8bb 071c e63c
00000270: 696b bb3d dc82 f93d 9420 663e 883f 373d
00000280: 5f13 6bbd 4999 16be 3a05 223c de1b 33bd
00000290: 35bc 7f3e e82f 8cbf 637f c5be fe2d 1b3f
000002a0: d405 43be ef89 2cc0 fe22 973f c410 99be
000002b0: 8469 193e b778 09be 6e7a 013e 386e 633d
000002c0: 574d 283e cd92 afbd cdbb 5739 4115 bdbc
000002d0: 4c58 a5bd 8188 00bd d503 0ebe 8e24 b43a
000002e0: 0030 ce3d b2e0 1c3c ba4d 223d 710f 8b3e
000002f0: 3853 9bbc 3c34 ecbb 1409 0fbe a742 cc3d
00000300: a25f fabc afb0 94be f2fb cf3d a3af 33bf
00000310: e5c2 0f3f 0b5f b83f 7aef aabe 5cd7 0d3f
00000320: 9bfb a03c 64de 13be f1e6 06be fd6f b93d
00000330: e653 7abe 5b15 6bbd bb2d 063d 41bd aebc
00000340: 20c1 efbd 817f 2fbd bafd ea3c 7c6d 003d
00000350: d49e ffbd 5125 4a3e b696 26bd c26e 37bd
00000360: 887f 34be 7501 bfbc fa91 86be 76cc 29be
00000370: f1ae a73c ab87 fabe 1bdf 4bbe 9bf1 c53f
00000380: 3571 cabc 73db 3dbe 2985 e5be 29c1 913d
00000390: 082c af3d 99b1 0b3d 37d7 21be de93 863a
000003a0: dc6c 1d3d b5e0 8f3c cb0d 6cbc b153 963d
000003b0: c1e4 223e 5ae6 75bd c8e3 293d eec9 7d3d
000003c0: 57ff e53d 6d76 00bd 1e3d 0f3e f183 083e
000003d0: a933 e43d 5064 9fbd c9ae 813d 81d5 d0be
000003e0: d8d5 82bc b4c9 57bf b51c 9fbf f366 4f40
000003f0: a3bc 0fbc e39e ac3e ac7a e63d f7f8 eb3d
-0.01451859 0.029397331 0.01891163 0.018538352 -0.030718995 -0.13681082 -0.8218329 -1.4783586
-1.2176253 -1.6361415 -0.44722807 0.14150324 -0.82014203 -0.28034788 -1.5485555 -1.7057012
-0.40805158 -0.80588585 -1.1527244 -0.78541476 -0.8108016 -1.6388723 -1.2215613 -0.12628543
-0.023566788 -0.0068470584 -0.0018912555 -0.023647152 -0.016897624 -0.0018709984 1.0852425 0.17861602
0.07936383 0.16142523 -1.8706905 -1.9194741 -2.6351888 -1.2213087 -0.095771804 0.6731379
0.38222075 -1.8072159 -0.7409899 0.024973573 -0.9828586 -1.1062748 -1.6696744 -0.9836548
-0.8296084 -1.9905314 -0.56511927 -2.8761876 -0.4148083 0.29305196 -0.0015431984 -0.027583247
0.016074726 0.014471804 0.17665312 -0.304084 0.4114843 -2.75913 -1.6618738 -0.5763801
-1.3867646 -0.3659364 -0.38942412 -0.25426632 0.4506091 -0.46197328 -0.544604 -0.1543888
-0.23332444 -0.81997544 -0.56180596 -0.019461483 -0.87157655 -0.46116558 -0.7495683 0.72466576
-0.519409 0.19421262 0.58043283 -0.017077804 0.031526417 -0.37853423 0.46152985 -0.39067405
-1.2298306 -0.24041143 -0.59224635 0.16968222 0.24606529 0.08019134 -0.18241459 0.19717255
-0.13637106 0.16535215 0.012138786 0.1605751 0.3504223 -0.19568253 -0.13725856 0.082187966
0.05360369 -0.16559736 -0.038330443 -0.7573523 -0.48981684 1.183284 -0.0010845206 0.4898217
-0.0041096127 0.6059596 -1.1624997 0.42648292 -0.617711 0.70271903 -0.29846296 -0.018587817
-0.26179305 0.2585933 0.03335184 0.16858326 0.07076326 -0.08971239 0.09576311 0.079631686
0.18547316 0.046904728 -0.025835276 0.13681392 -0.118834175 0.24076878 -0.13995421 0.019958967
0.48239306 -2.5338302 -0.48009655 0.04421741 -0.013698557 -0.124029666 -0.5328349 0.13557209
-0.0917761 -0.11273865 0.13909318 -0.23520465 0.09066953 -0.02422364 -0.07543545 -0.012953766
0.068042666 -0.060131244 -0.005137183 0.028089536 0.09151346 0.121831626 0.22473365 0.044738322
-0.05739152 -0.14706911 0.009888941 -0.043727748 0.24974139 -1.095212 -0.3857375 0.60617054
-0.19045192 -2.6959188 1.1807554 -0.29895604 0.14981657 -0.13424955 0.1264436 0.055525035
0.16435753 -0.08572922 0.00020573959 -0.023081424 -0.08073482 -0.03138018 -0.1386865 0.0013743804
0.10067749 0.009575056 0.039624907 0.27160218 -0.01896058 -0.0072083753 -0.13968307 0.099736504
-0.03056318 -0.2904105 0.10155477 -0.70189875 0.5615676 1.4404005 -0.3338583 0.5540674
0.019651225 -0.14440304 -0.13174035 0.09054563 -0.24446067 -0.057393413 0.032758456 -0.021330478
-0.117067575 -0.042846207 0.02868544 0.031354412 -0.12481466 0.19740798 -0.040671073 -0.04478336
-0.17626774 -0.023316124 -0.26283246 -0.16581902 0.02046916 -0.4893163 -0.19909327 1.5464357
-0.024712184 -0.18540744 -0.44828156 0.071169205 0.0855332 0.034104917 -0.15804754 0.0010267457
0.038433895 0.017563203 -0.014407585 0.073401816 0.15907575 -0.060034133 0.041476995 0.061960153
0.11230343 -0.03136294 0.13988158 0.13331582 0.11142666 -0.07782805 0.06332166 -0.4078789
-0.01597111 -0.8429215 -1.2430636 3.2406585 -0.008773002 0.3371497 0.112538666 0.11522096

encoder.0.bias f4 [64]
00000000: 14bc 0a40 e7b9 abbe 4131 09bf d54c e23f
00000010: e528 1640 c5d7 39c0 da98 0a40 2b45 8c3f
00000020: 5c36 953f 9327 373f d221 0340 2ea9 fa3f
00000030: a3e8 f23f b436 1640 bf93 0240 095e af3f
00000040: 72a2 0f40 5d1d c03f cbcc 0440 b7a1 0ebe
00000050: 65e1 1940 d27b 0640 bc24 bd3d ef38 b63e
00000060: 2651 c43f 4be3 e13f ac56 b63f df8c 1940
00000070: c07d 8bbe 04ed b93f d794 7f3f 6da5 ef3e
00000080: 4a41 863e d032 ad3f 2882 3f40 1c5e 3e3f
00000090: 2a3e ec3f 28dc 0240 145b d53f ebb8 dfbe
000000a0: 04d9 d2bd 8412 863e d323 e83e 002a 593f
000000b0: 24d0 2940 d9a2 0340 a4c0 c33f fa17 c13f
000000c0: 6913 523e edc9 193e b2b4 18bf 3588 1940
000000d0: ae66 8dbd afbf 0440 7e1b ea3f ca94 0f40
000000e0: c451 303f 1a96 24bf 8bb8 283f 5c95 cb3f
000000f0: d7c6 873f 873d 2040 d3e7 6a3f f3c9 b53f
2.1677294 -0.3354027 -0.5359078 1.7679697 2.346246 -2.9037945 2.1655793 1.0958608
1.1657214 0.7154476 2.0489392 1.958288 1.8977245 2.3470888 2.0402677 1.3700572
2.2442899 1.5008961 2.0749996 -0.13928877 2.404382 2.1013074 0.09235522 0.35590312
1.5337265 1.7647489 1.42452 2.399223 -0.27244377 1.4525456 0.99836487 0.46805897
0.26221687 1.3531132 2.992319 0.7436235 1.8456471 2.0446873 1.666842 -0.4369577
-0.10295299 0.26186 0.45339832 0.8482971 2.653329 2.0568144 1.5293164 1.5085442
0.20515217 0.15018435 -0.5965072 2.3989384 -0.0690435 2.0741994 1.828964 2.2434564
0.68874764 -0.64291537 0.6590659 1.5904956 1.0607556 2.5037553 0.91759986 1.4202255

encoder.2.weight f4 [32, 64]
00000000: 406b 00be 0199 e3bd aa24 68bd d71e 00be
00000010: 19c1 36be 1b2e b73c 04c5 a2bd 6360 a33c
00000020: 8195 bc3a b0f7 2dbe e243 45bd 8d26 d1bc
00000030: da8f 13bd 629b 0ebe f0b7 f93a 971b 223c
00000040: 666f 843d 97c3 4f3d a784 bbbd 1403 843d
00000050: f7a4 1bbe 6a24 20be e2b1 d8bc 4f5f a3bd
00000060: f83c 083d c9e8 06be 38cc 0ebe 98ac 9abd
00000070: 4687 dcbd 93b7 c8bd c326 58bd 01c0 b0bd
00000080: df7c 3cbc 3d66 32be 3e20 1fbe d6ab d1bd
00000090: 9f3f 5fbd 4874 14be 87c6 27be cdb2 f5bd
000000a0: 2364 453d e61e 1cbd 55a4 613d 1cf8 3f3d
000000b0: 1d8a 0dbc be52 183d 0bfd 21be 6da7 d8bd
000000c0: 489a 3bbe 08ac 1d3d 074c 20bd a1c8 3cbd
000000d0: f2bb 1fbe 1bda a7bd af33 113d 54bd 10be
000000e0: 9b2a 0dbb 7769 28be 2dfd b13c 5d75 b5bc
000000f0: de5e 71bd c63d ac3c 2564 3ebd cf0e 38be
00000100: 2382 513d 1b71 4ebb 51c5 c0be 9e6d 4cbd
00000110: e79c f63c 0116 0abc 2252 86be 9846 e1bc
00000120: 90d9 1f3d ccaa bfbd 3aa4 543d 9f1d c9bd
00000130: 8e6d b6bc 827c 32be 70d8 05be 2687 e03b
00000140: b3e7 30bd 6571 37bd e4c6 96bd c2fb bfbe
00000150: 9b84 bebd 209c 1fbe ee5a 7d3d 20d8 58bc
00000160: e463 27be 1f64 e1bd c0f6 09be d6f5 bebd
00000170: 2f11 83be 19f3 bbbd cc34 23be fb13 2dbe
00000180: 3e88 9dbe 9fa8 b5bd f446 36bc 10d3 aebd
00000190: fa69 febd ee8f 25be 7d6b 2ebe 6b32 8ebe
000001a0: 6519 c3be ed02 96be 5f35 053d 7549 3cbd
000001b0: d3a6 9abd a078 2abe f859 8ebe 5d1c 3abe
000001c0: e71a 8dbe 9c11 29be a91a 97bd 6e73 63bd
000001d0: 7f27 2abe a2d5 8abc 1036 39be 5e98 04be
000001e0: f019 c5be b8e0 93be 7e1e f73b 220c 01be
000001f0: ab84 2fbe 78d0 ccbd 5929 0fbe 6abc ad3c
00000200: 91e0 fb3e 5bd4 cb3d 3298 1e3d d6d4 103c
00000210: ca85 79be 11e0 143d bc9b e63d 3b35 e2bd
00000220: f838 8cbc 33a9 533b c034 99bd ebde 633b
00000230: ca70 5fbf eaf8 9dba 0b4e 0dbe 3024 3f3e
00000240: 27c1 133e 16db c1be 2394 b13d c8de 3d3e
00000250: 2a69 f5be 578c 37be 5df6 373e d69a 3bbd
00000260: d6f6 dc3d eb0e de3b 1813 b0bb d9a2 4abb
00000270: ffe9 253c 2d31 80bf b760 6ebe 5938 493c
00000280: 7741 203c 324b 9ebc e867 3ebf 0a99 743d
00000290: a5c7 c9be 4dd8 14be e175 d73d 9cff 0e3d
000002a0: deae babd 81f7 0a3c ddfd 28be 47e1 6fbd
000002b0: 84c5 6cbd cd18 87bd 91fc 5f3e 0e10 143c
000002c0: f44c b8bb b48d 1abd 0689 01bd ce90 d8bd
000002d0: 701e 9d3d adde 39bc bcc6 f63d fda8 57bd
000002e0: 0ce4 c83c f4db 53bc c4d7 793c 37be 2cbe
000002f0: 51f3 023e ef72 0cbc 9b24 d6bc b76f 09be
00000300: 1769 4c3d 356f 01be 0af6 423d 10bf 093e
00000310: e04e bd3e 1dbe 22bd f3dd 4c3e 3b41 ca3e
00000320: e7bd 0f3d 73a7 9dbd 2440 bbbd 9171 7d3e
00000330: d88e d8bf 7504 9f3d 76eb 5fbd 8a20 203e
00000340: 0bd4 f83b 9bdd f6be 1481 d93b 6309 19bd
00000350: 79c8 a73d 3dcb efbd e3c8 acbd d5ba c8bd
00000360: 846d bf39 823a 2c3d 4d83 823d 5281 1a3e
00000370: 225d e53c f93e debf 08dd 0c3e e1b5 74bc
00000380: cf4e 99bd 4a07 2e3d fbf9 03c0 6654 02bd
00000390: 3f65 c8be 2937 2cbe 4d94 90bd 61db 9f3c
000003a0: 6d31 a6bc 52f7 d63c 5963 1c3e 6c65 44bd
000003b0: 542f 42be b4eb 0f3e 5ac9 ad3d 5843 f5be
000003c0: dce6 b23d 08a7 6c3d 24bc 54bd b6c5 a0be
000003d0: cee9 9f3e 206e 2d3e 6d02 793c 6b60 e7bd
000003e0: c24e 57bb f05e 44bd f7b1 c33d 7273 353e
000003f0: f320 c5bc bbe0 303e 1236 ed3d d11b 083e
-0.12540913 -0.111131676 -0.05667559 -0.12511764 -0.17847098 0.022360852 -0.07947734 0.019943422
0.0014387817 -0.16989017 -0.04816044 -0.025531078 -0.03602586 -0.13926461 0.001905201 0.009894273
0.0646656 0.05072364 -0.09156161 0.064458996 -0.15199648 -0.15638891 -0.026452009 -0.07977163
0.03326127 -0.13174738 -0.13945091 -0.07552451 -0.10767989 -0.09800639 -0.05277134 -0.08630372
-0.011504381 -0.17421813 -0.15539643 -0.10237853 -0.054504033 -0.14497483 -0.16384326 -0.11996994
0.0481912 -0.038115405 0.05508836 0.046867475 -0.008638886 0.037188284 -0.15819184 -0.10578809
-0.18320572 0.03849414 -0.039135005 -0.046089772 -0.15599039 -0.08195897 0.03544968 -0.14134723
-0.0021540287 -0.16446482 0.021727169 -0.02215069 -0.058928363 0.02102555 -0.046482224 -0.17974399
0.0511495 -0.0031500522 -0.3765054 -0.049909227 0.030104114 -0.008428098 -0.26234537 -0.027499482
0.039025843 -0.09358749 0.05191443 -0.09820103 -0.022269037 -0.17430308 -0.13070846 0.0068520484
-0.043189716 -0.044785876 -0.07362154 -0.37496763 -0.09302636 -0.155869 0.061854295 -0.013235122
-0.16346699 -0.11005425 -0.13473034 -0.09324233 -0.25599048 -0.091772266 -0.15938109 -0.16902153
-0.30768007 -0.088700525 -0.011125315 -0.08536351 -0.12422557 -0.16168186 -0.17033191 -0.2777284
-0.38105312 -0.29299107 0.0325216 -0.04596849 -0.075513504 -0.16647577 -0.27803016 -0.18174882
-0.27559587 -0.16510624 -0.07378132 -0.055530004 -0.16616629 -0.016947571 -0.1808703 -0.12948748
-0.3849635 -0.28882384 0.0075414767 -0.12602285 -0.17140453 -0.100007 -0.13980617 0.021208007
0.49194768 0.09952613 0.038719364 0.008839807 -0.24367443 0.0363465 0.11260173 -0.11045309
-0.017117009 0.0032296896 -0.074807644 0.003477032 -0.8728148 -0.0012052332 -0.13799302 0.18666148
0.1442915 -0.37862462 0.08670833 0.18542016 -0.47931796 -0.17924629 0.17965074 -0.04580196
0.10789268 0.0067766807 -0.00537337 -0.0030919819 0.01012659 -1.0015007 -0.23279081 0.012281501
0.009781233 -0.019322965 -0.743773 0.059716262 -0.3941013 -0.14535637 0.105205305 0.034911737
-0.091153845 0.008481861 -0.16503091 -0.05856445 -0.057805553 -0.06596527 0.2187369 0.009037031
-0.005624408 -0.037732795 -0.031624816 -0.10574494 0.07671821 -0.011344594 0.12049624 -0.052651394
0.024522804 -0.012930859 0.015249196 -0.16869436 0.1278813 -0.008572324 -0.026140502 -0.13421522
0.04990491 -0.12640078 0.047597922 0.13451791 0.3697424 -0.039732087 0.20006542 0.39502892
0.035093214 -0.07697954 -0.09143093 0.24750353 -1.6918592 0.07764522 -0.054667912 0.15637413
0.007593637 -0.48215947 0.0066377018 -0.037362467 0.08192534 -0.117086865 -0.084367536 -0.098012604
0.00036511954 0.042047985 0.063727 0.15088394 0.02799851 -1.7362968 0.13756192 -0.014935941
-0.07485735 0.04248742 -2.0621326 -0.03181877 -0.39139745 -0.16817917 -0.07059536 0.019513788
-0.02028724 0.026240978 0.15272273 -0.047948286 -0.18963367 0.14054757 0.084856704 -0.47902942
0.08735439 0.05777648 -0.051937237 -0.3140084 0.31233066 0.1693654 0.015198332 -0.11297687
-0.003285334 -0.047942102 0.095554285 0.1771982 -0.024063563 0.17273228 0.11582579 0.13291861

encoder.2.bias f4 [32]
00000000: 24b0 93bd 59b6 7ebe a670 0c3f 6a98 4d3f
00000010: 021b 653f 6b12 cc3c 57e7 8abd d5e7 1abf
00000020: 5be2 17be 0ed3 d5be 0048 563f 1ccc c93e
00000030: 5fd6 85bd 1af9 083e 5f5c ff3e fb4a d93b
00000040: df56 21be 10b1 3a3d 5093 263f f92c 963e
00000050: 961b 0cbe 7362 ccbd 21a2 3b3e 42ae 6bbd
00000060: 0872 1d3f 56b7 6abe dfb4 303f 8270 013f
00000070: 364f 253d 0e29 883e d72c b73e 3dd3 0d3f
-0.072113305 -0.24874248 0.5485939 0.8031069 0.89494336 0.024911126 -0.06782406 -0.6051
-0.14832442 -0.41762584 0.83703613 0.39413536 -0.06535029 0.13376275 0.4987516 0.006631253
-0.15755795 0.045579016 0.6506853 0.29331186 -0.13682398 -0.09979715 0.18323566 -0.057539232
0.6150212 -0.229215 0.6902599 0.505623 0.040358745 0.26593822 0.35776398 0.5540045

decoder.0.weight f4 [64, 32]
00000000: f1b3 81be 7c2c 92be f8f8 b7be e6e9 8abe
00000010: faf1 b7be 6fc3 93be d6c1 f4bd 95d0 ddbd
00000020: 4bbf d23e 1ab1 16bd 4dd5 e4bd f7fb e8be
00000030: 82f3 94be 02c9 923d fd30 dcbe e702 e8be
00000040: 53fa 98bd f596 b4be c756 5abe eebf a2be
00000050: f2aa 51be 1eaf bfbe 3e6a adbe d7bb d9be
00000060: 77cb 9a3e f8a8 d03e f320 db3e bd37 b8be
00000070: aeff 6b3e 6258 cebe 3eb2 5bbe 2f3e 233e
00000080: 0c3a 5cbe 84d9 24be affe cfbc 85db 3d3e
00000090: 83f8 cab8 4f75 763d b11e 28be 00bc 5b3d
000000a0: 86ad 5a3e a7fd a3bc 7790 f93c 879a 163e
000000b0: 562d c83d 0e54 71be 6ac8 18be 8bbf 9cbc
000000c0: 6a0e 6cbd ad63 623d 0e53 18be 7582 dc3e
000000d0: 0282 31be 3704 9bbd eafa 2a3d b011 e7bd
000000e0: 7b24 ac3d c0e6 adbc e123 d93d 9a09 94bd
000000f0: 4b38 8d3d 298f aa3d 4775 8b3d 003e 723c
00000100: a289 173e 032e c53c dd9f 0dbd 2ab3 ffbd
00000110: f37d 853d 5689 663e e6a9 093e b8dd 403e
00000120: aff7 38be f2e6 57bd 4f68 83bd 1afb 09be
00000130: 7a3f f83d 42e7 89bc c6d1 16bd 7b3c d3bd
00000140: bd9b 21be a6ca 173e df2a 72bd 1148 3c3d
00000150: f9d2 31bd 9195 4e3e ac00 d1be c64b 5c3e
00000160: f452 c93d bd3b 513d a7f8 123f ea22 b6bd
00000170: 3ac0 0cbe bb2b 473c 39e8 74bb 1473 fa3d
00000180: 6ac3 bfbd 673c 8b3d 3401 babb e7d9 72be
00000190: 4368 efbd fcfa 0abe 4b7c 3bbe 9b4c f33d
000001a0: 16b7 2d3e 2460 e63d 15ba 4d3d 3d68 e7bd
000001b0: e429 22be 36c6 21be 8cfe d6bd 8d9e 893d
000001c0: 4588 a93c d485 c0bd 43c1 22be 6fa9 df3c
000001d0: e75d 51bd e838 b3bd dffd 3a3e 5bba 6abe
000001e0: f1d3 563d f624 c8bc 7b70 373e 4605 643d
000001f0: fdbd 2f3e ac5c 70be f41c e4bd 7046 1dbd
00000200: 45f1 d5bd cbe4 88be 7b74 edbd 354c 17be
00000210: 4bea 48be 73eb a9bd 21fe 6fbe ca9a b73d
00000220: db7d d83c 91ec 0f3e 0402 cbbc 7f5d a2bd
00000230: 0916 20be 7a38 64be 10d8 e93c 39fb 5abe
00000240: 35ef a33d 8877 46be 94e4 4fbe 1641 0dbe
00000250: cc46 8d3d 3673 31be c301 adbd f06b 5dbd
00000260: e477 03be 8fb8 7abd e499 8d3d 5c68 603e
00000270: ad18 6a3e f170 4cbe dc1b d0bd 1321 84bd
00000280: eabf a7bd 9e65 90be f872 8ebe 1273 a5be
00000290: c323 babe 0e56 adbe c98d c73b 4258 24be
000002a0: 68c7 873e b1ff d83d f74d 79be f01f 5ebe
000002b0: 9e5e 99bc f2d9 10bc 1ae4 0f3d d59c d6be
000002c0: c68c 88bc 1543 9abe dc5a 6fbe f56e 97be
000002d0: f6fd e0be 7130 95be dc01 78be 8db6 a5bd
000002e0: fc59 46be 2135 8a3e f8e9 b5be 077e a3be
000002f0: aff0 783e d442 7cbe 6262 d8be a938 033e
00000300: b92b b53d 0c8f ccbd 3e33 01be 4b33 76be
00000310: 2007 59bf a455 11be cbb3 e63d 7b01 19be
00000320: 80a4 023d b6b3 e13d 3863 32be 61b2 92bc
00000330: 2353 24be dd49 93be b963 023e c606 0b3e
00000340: 95cc 34be 48d1 f33d 12a4 483c a384 40bd
00000350: 2eb3 7bbd b772 ae3b 15d2 88bb 6852 3b3e
00000360: 5b85 57bc 2f3a 893d 9923 c2bc 98d4 3dbd
00000370: c789 7abd 0761 20be 850b 0d3f 78eb 69be
00000380: 28d4 59be ddfc 81be 0673 683c 0525 00bd
00000390: d9fb 93bd 7efb 1fbb c650 23bd cfda 8fbe
000003a0: ce46 e53d ff80 b83d 51fb c73d 3f1e 21be
000003b0: 62b9 3cbe d759 24be e157 073d 106e 8dbe
000003c0: 3748 6d3e 403e 9d3b b0b7 e73e 9bdb 243e
000003d0: e883 b6bc c39c 87be 2ba3 413c 620d f5bd
000003e0: cf85 22bd ea99 f93d 06f1 1d3e bb66 8cbb
000003f0: 85e5 bbbc 1c06 cbbd 577f bfbd ca74 a23e
-0.25332597 -0.28549564 -0.35932136 -0.27131575 -0.359268 -0.28860041 -0.11951034 -0.108307995
0.4116157 -0.03678999 -0.111734964 -0.45504734 -0.29092032 0.071672454 -0.43006125 -0.45314714
-0.074696206 -0.3527142 -0.21322165 -0.31787056 -0.20475367 -0.3743829 -0.3387012 -0.42526123
0.30233356 0.40753913 0.42798576 -0.35980025 0.23046753 -0.40301806 -0.21454713 0.1594169
-0.21506518 -0.160986 -0.025389997 0.18540771 -9.6783995e-05 0.060170468 -0.16417958 0.053646088
0.21355256 -0.020018412 0.030464394 0.14707385 0.09774272 -0.2356722 -0.14920202 -0.019134304
-0.057630934 0.05527084 -0.14875433 0.4306828 -0.1733475 -0.07569163 0.041743197 -0.112826705
0.084053956 -0.021228194 0.106025465 -0.07228394 0.06895503 0.08328087 0.06809478 0.01478529
0.14798597 0.024069792 -0.034576286 -0.12485345 0.065181635 0.22513327 0.13443717 0.18834579
-0.18063234 -0.05271048 -0.0641638 -0.13474694 0.12121482 -0.016833905 -0.03682115 -0.1031427
-0.15782066 0.14823398 -0.059122916 0.045967165 -0.04341409 0.20174243 -0.40820825 0.2151328
0.09830275 0.05108236 0.57410663 -0.08893378 -0.13745204 0.012156422 -0.003736986 0.12228981
-0.09363444 0.0679863 -0.005676413 -0.23715936 -0.11689808 -0.13572305 -0.18309133 0.11879846
0.16964373 0.11248806 0.05022629 -0.11299179 -0.15836293 -0.15798268 -0.1049777 0.06719694
0.020694861 -0.09400526 -0.15894036 0.027302472 -0.051114943 -0.087510884 0.18260907 -0.22922651
0.052448217 -0.024431687 0.17914002 0.05566909 0.17162319 -0.23472852 -0.11138335 -0.038397253
-0.10446409 -0.26737055 -0.115944825 -0.14775164 -0.19620626 -0.082968615 -0.23436786 0.089650705
0.0264272 0.14055087 -0.024781235 -0.07927989 -0.15633406 -0.22287169 0.02854541 -0.21384896
0.080046095 -0.19381535 -0.2030204 -0.1379436 0.06898269 -0.17329106 -0.08447602 -0.054058015
-0.12838703 -0.061211165 0.06914118 0.2191481 0.22860976 -0.19964959 -0.10161564 -0.06451621
-0.081909016 -0.28202528 -0.2782209 -0.32314354 -0.3635541 -0.33854717 0.0060899 -0.16049293
0.26519322 0.10595644 -0.24346147 -0.2169187 -0.018721875 -0.008841025 0.035129644 -0.41916528
-0.016668689 -0.30129305 -0.23374504 -0.2957684 -0.43943757 -0.2913852 -0.2421946 -0.080914594
-0.19370264 0.2699366 -0.35530066 -0.3193209 0.24310564 -0.24634868 -0.4226256 0.12814583
0.0884623 -0.099882215 -0.12617204 -0.24043004 -0.84776497 -0.14192826 0.112647615 -0.14941971
0.03189516 0.11020605 -0.17420661 -0.017907323 -0.16047339 -0.2876729 0.12733354 0.13576803
-0.17656167 0.119051516 0.012246149 -0.047001492 -0.061450176 0.0053237337 -0.0041754344 0.18293154
-0.013154353 0.06700551 -0.023698615 -0.046345323 -0.06116655 -0.15662013 0.550957 -0.2284373
-0.21272337 -0.25388232 0.01418758 -0.031285305 -0.072257705 -0.0024411376 -0.039871953 -0.28096625
0.111951455 0.09008979 0.09764732 -0.15734194 -0.18430093 -0.16049896 0.033042792 -0.27623034
0.23172079 0.0047986805 0.4525733 0.16099398 -0.022279695 -0.26486787 0.011818687 -0.11965443
-0.03967839 0.1218756 0.15423974 -0.0042847074 -0.022936592 -0.09913275 -0.0935046 0.31729728

decoder.0.bias f4 [64]
00000000: 5040 68be 23e3 c5bd 2f7f fa3d f24d ecbd
00000010: 6874 873a 829b 60be 384d 0a3e 2b24 2cbd
00000020: 905b 1a3e 4c83 1bbe 3873 183c 26a9 f4bc
00000030: 05f7 4d3d 0c75 0cbe d229 64bd 3009 5dbe
00000040: bdcf 7fbd 9868 99bb db96 4ebe baea 3dbd
00000050: 6c7a f23b 099e 96bd 984f b43d 6e6c a3bd
00000060: 37d6 45be 6aef 55be c05b 3abe 060e bcbe
00000070: 22c5 1fbe ec91 5a3e 4406 c13b 432b 80be
00000080: ff7f a4bd 843d 573d 04c4 d0bd 5378 273e
00000090: 408b 2c3e 63c3 37be 37d3 2f3d a717 c8bd
000000a0: ce8b 5ebe d942 80bb 9f5e 613c 4370 bc3d
000000b0: 2ca0 623e 33fa c1bd 207e 683d 1a06 413e
000000c0: 5d82 76be 71d9 f2bd 0a38 d33d 10f6 debd
000000d0: 7b65 42be 4b95 b73d 5833 cfbd 01a6 88bc
000000e0: e4d3 17be 9a05 123e ebfd c2bc 1e05 8bbe
000000f0: 9cea 763e 4eb6 233e e4ba d23d e235 523c
-0.22680783 -0.096624635 0.122312896 -0.115383044 0.0010334374 -0.21934322 0.13506019 -0.04202668
0.15073991 -0.15186805 0.009304814 -0.029865813 0.050284404 -0.13716525 -0.055703945 -0.21585536
-0.062453974 -0.004681658 -0.20174734 -0.04636643 0.0073998477 -0.073543616 0.08804244 -0.07979666
-0.19319998 -0.2089211 -0.18199062 -0.3672945 -0.15602544 0.21344727 0.0058906395 -0.25033006
-0.08032226 0.0525489 -0.10193637 0.16354494 0.16849995 -0.17945628 0.04292604 -0.09770136
-0.21733019 -0.003914219 0.01375547 0.092011 0.22131413 -0.0947155 0.056760907 0.18849984
-0.24073167 -0.1185788 0.10313423 -0.108867764 -0.18984024 0.08964022 -0.10117215 -0.01668072
-0.14826924 0.1425995 -0.023802718 -0.27152342 0.24112934 0.15987512 0.10289553 0.0128302295

decoder.2.weight f4 [784, 64]
00000000: e0bf f63d ded7 92bd 080c e43c acff 7fbd
00000010: 5a60 9dbd 202a f9bc 70b1 403d b2a4 8cbd
00000020: 28b7 b83b 127f 80bd 0077 1ebe 9014 99bd
00000030: f1c1 dabb 1f2e 853c 0f2d 213d 2acd d9bd
00000040: 56b5 b4ba a6e4 edbd 944f 00bd c752 dfbd
00000050: a8c8 41bd a023 0fbe d7b2 98bd 3f2d cebd
00000060: 1084 603d 90b3 1bbc 4ac1 1abe 3643 923d
00000070: 70c8 023c dcda 9dbc 4e44 abbd a4bf 9ebd
00000080: 0009 173c 3847 21bd ca2c d0bd 8751 09be
00000090: f3f1 28be 4ce8 31bc 8450 19be c6bf 0ebe
000000a0: 468d d5bd 338d fbbd 0ad9 98bd 9888 a23d
000000b0: d27c 30bd b8bf 21be e04a 97bb 9899 d03c
000000c0: 10af b7bc fde2 c7bd 2222 40be 6a0d 59bd
000000d0: 6c5f 55bd a4bc 23bd a812 aa3c fcb5 de3d
000000e0: 24d0 19bd 42e2 93bc 84b8 0d3d e6d0 a6bd
000000f0: 6e8d 9b3d de51 2abd 00f8 29be 760d 9cbd
00000100: d49a 8e3d 1613 623c c009 a9bd 5cf3 a83d
00000110: c8fc fdbd a4a3 73bd 0438 35bd c209 abbc
00000120: 2f1a 42be 7452 243c fcc4 9dbc c989 30bd
00000130: b619 44bd 5ffd 4ebe 4201 dfbc 003c 7239
00000140: dcf5 44be d0f4 f63c 0081 08bd 827f 0ebe
00000150: 4c0b 7cbd 5642 b9bd a323 53bd cfef debc
00000160: d635 8dbd 40e4 20bc 96d7 413d deae 93bd
00000170: 44eb 133d 900e b5bc e781 d73c 8032 a23d
00000180: fe6a 803c a488 71bd 5210 f6bd 95b3 87bc
00000190: eb20 feba a006 05bd 3be4 a9bd 09a1 0dbe
000001a0: 78f3 90bd e226 283d a6c6 83bd 48e1 0f3d
000001b0: 9463 1dbd 3c2b 383c 4ad9 b03d 35a2 15bd
000001c0: 40f2 37bb 7342 18bd 305c 1bbe e7a6 2fbd
000001d0: e0e6 eb3b 008b 11be 92c4 b3bc 9748 31be
000001e0: 71be 2fbe 12db 50bd d118 453b 893d 0fbd
000001f0: e8ce 473c bdbf 3dbd 0145 66bd 7e8a 09be
00000200: e453 e23d 144e 74be 9cce d9bd 1423 e03d
00000210: 10e5 77bd 84c2 06bd 8c54 ac3d 61a4 323c
00000220: bd91 2abe cdeb b7bd 0885 883d e804 abbc
00000230: 2614 33bd ca46 a0bd 3415 86bc f86f 8e3c
00000240: d3fc 063d 9878 233d 6020 853b f21a 5dbd
00000250: cc0e adbd 2ac3 2fbe a8f9 82bd a048 32bc
00000260: 88ea 843d 5816 cbbc 9a65 83bd a0b5 38bc
00000270: bac0 94bd e811 75bc 9caf 0bbe 384d 84bd
00000280: 3ca5 a83d c8a3 563d 147c 33bd e824 16be
00000290: 8127 01be 585a 96bc 6846 42be 0e35 9c3d
000002a0: e098 6f3d 9194 dfbd 0071 f33c 7eb1 c9bd
000002b0: fca2 e4bc ce7a 0c3d 348b b73d 0007 96ba
000002c0: e93c 193d e47d 983d fead 0cbe 61d6 debd
000002d0: 1087 4dbd 34ba af3d 308f 973c 2885 d6bc
000002e0: e053 7f3d 1184 1abe eec6 bcbd 8a65 e63d
000002f0: 15c2 86bd 860a 0abe c213 35be cc78 98bd
00000300: b891 f4bc 8065 19bb 0f0f fcbb 0897 ef3d
00000310: 1cba f9bd 1a65 bf3d 94ac 563d 3d5c edbd
00000320: 1171 32be 700d 44be 70c7 46bd fe3d 5dbb
00000330: c5ac 0cbe a0b7 cb3b 63c3 173d 3a96 a8bd
00000340: 570b d7bd 02b5 cfbd 94eb 40be 8a98 d9bc
00000350: fc0e 7f3d d925 3b3d f8a2 48bd 64d5 0b3d
00000360: 40b9 27bc 28cb 04bd ae3c 07be ce65 cb3d
00000370: 3aaf b43d 4cda 26be 146d 4e3d 40e5 ab3b
00000380: 5217 fc3d e67c c3bd c8f9 973d a97a c43c
00000390: 422a b7bd a041 753d a826 46be 8251 f7bd
000003a0: d020 423d 1d65 f9bd bcd2 e93d 400d d4bd
000003b0: 0552 d6bb 4bd0 89bd 4aeb d9bd 9879 90bd
000003c0: 7ed9 8a3d 016c f2bc fd73 3d3d d81b ec3c
000003d0: c6bd f53d 3f9f e9bb fb72 a1bd 3bdb 09bd
000003e0: 0318 0fbe 52fd 99bd 0744 2bbe 84ca aebd
000003f0: fcd8 e5bd 6baf 0cbe 4162 4a3c 14e3 7cbd
0.12048316 -0.0717008 0.027837768 -0.062499687 -0.07684393 -0.030415595 0.047044218 -0.06867351
0.0056370683 -0.06274237 -0.15475082 -0.07474625 -0.0066759516 0.016257344 0.03934961 -0.10634835
-0.0013786952 -0.11615877 -0.03132589 -0.109044604 -0.0473105 -0.13978434 -0.07455986 -0.10067224
0.054813445 -0.00950326 -0.15112796 0.07141726 0.007982358 -0.0192694 -0.083626375 -0.07751396
0.009218454 -0.03937456 -0.10164793 -0.13410006 -0.16498546 -0.010858607 -0.1497212 -0.13940343
-0.104273364 -0.12282791 -0.07463272 0.079362094 -0.043087788 -0.15795791 -0.00461708 0.025463864
-0.022422343 -0.097600915 -0.1876302 -0.05299131 -0.052092955 -0.039974824 0.02076085 0.108745545
-0.037552014 -0.018052224 0.034599796 -0.08145313 0.07595335 -0.04158198 -0.1659851 -0.07619755
0.06963125 0.013798496 -0.08253813 0.08249542 -0.1240173 -0.05948223 -0.044242874 -0.020878676
-0.18955301 0.010029424 -0.019258969 -0.043100152 -0.047876082 -0.20213841 -0.02722228 0.0002310127
-0.19234413 0.030146033 -0.03332615 -0.13915828 -0.06153421 -0.09045856 -0.051547658 -0.027213959
-0.06895034 -0.009820044 0.04732474 -0.07211088 0.03611304 -0.02210167 0.02630706 0.07919788
0.015676018 -0.0589682 -0.120148316 -0.016565124 -0.0019388472 -0.03247702 -0.08295485 -0.13830961
-0.07077688 0.041052707 -0.064343736 0.035126954 -0.038425043 0.011240777 0.086351946 -0.036531646
-0.0028067976 -0.037172746 -0.15171885 -0.04288378 0.0071991533 -0.1421318 -0.021944318 -0.17312847
-0.17162491 -0.05099017 0.0030074606 -0.034970794 0.012195326 -0.046325434 -0.05621815 -0.13431737
0.11051157 -0.2385791 -0.10635111 0.109441906 -0.060521185 -0.03290035 0.084145635 0.010903449
-0.16657157 -0.08980522 0.06665999 -0.020876363 -0.043720387 -0.07826002 -0.016367532 0.017387375
0.032955956 0.03990993 0.0040626973 -0.053980775 -0.08450088 -0.17164293 -0.063952744 -0.010881573
0.06490046 -0.024790928 -0.06415863 -0.0112737715 -0.07263322 -0.014957882 -0.13641208 -0.06460041
0.08234641 0.052402288 -0.043819502 -0.14662516 -0.12612726 -0.018353626 -0.1897217 0.07627307
0.058495402 -0.10917009 0.029716969 -0.09848307 -0.027909748 0.034296803 0.08962098 -0.0011446178
0.037411604 0.07445887 -0.13738248 -0.10880733 -0.050177634 0.08580437 0.018500894 -0.02618654
0.06233585 -0.15089442 -0.0921763 0.11249836 -0.06579987 -0.13480577 -0.17683318 -0.07444915
-0.02985464 -0.0023406446 -0.007692225 0.11698729 -0.12193701 0.093454555 0.052410677 -0.11589859
-0.17425944 -0.19145751 -0.048530042 -0.0033758874 -0.13737781 0.006216958 0.03705157 -0.082317784
-0.1050021 -0.101419464 -0.18839866 -0.026561994 0.06227015 0.04569039 -0.048983544 0.034139052
-0.010237038 -0.032420307 -0.13206741 0.09931527 0.08822484 -0.16294211 0.050396994 0.0052458346
0.123091355 -0.09545307 0.07420689 0.02398427 -0.08943607 0.059877038 -0.19350684 -0.12076093
0.047394574 -0.12177489 0.114171475 -0.1035409 -0.006540539 -0.06729182 -0.10640581 -0.07054442
0.067797646 -0.029592516 0.046253193 0.02882187 0.11999087 -0.0071295793 -0.07883259 -0.03365634
-0.13974003 -0.0751902 -0.16725169 -0.085347205 -0.11223027 -0.13738792 0.012352527 -0.061739996

decoder.2.bias f4 [784]
00000000: 913e 423c 08d4 b3bc 8943 513c d6d7 bfbd
00000010: ab27 13be 6432 29bd 75b5 1fbe 1c69 8dbc
00000020: d9cf 9cbd d37a 21be 45e8 aabd a922 0fbe
00000030: 881f 2dbe 6da9 03bd b8e0 3fbe f7bd 0abe
00000040: b767 3abe d06d de3c c018 b03c 833a f3bc
00000050: c077 0bbd 8dcc 24be 2c48 1fbd 3e0a 1dbe
00000060: 455c 2bbe d9d8 f23c 2645 b6bd 704e 38be
00000070: 9daa 0bbe 2b3f 6fbd f959 42bb 4d6e 42be
00000080: 0a7f 08bd 7a93 89bd e884 60bb 4e60 9cbd
00000090: 3b28 1abe fbcf 74bd 4bfc 36be 4731 d53b
000000a0: 8811 fcbb 12ef 643b 4cf3 ca3c 2f02 bebd
000000b0: c39c b1bb f273 1cbe 6dae 25be 9a4c 85bd
000000c0: 05b5 23be 1c92 4cbd feeb 32be 9ca4 76bc
000000d0: b5a3 e4bd 9bbb 97bd a183 c83c a01a f93c
000000e0: 1481 f8bd 09df a7bd 8633 d1bd dd3f 60bd
000000f0: 4d1b 17bd be4d c9bd 7587 a8bd c607 6dbe
00000100: a385 8abc 7c6d f5bd 4914 e03b ba2e d8bd
00000110: 2cb6 24be ff87 fdbd 1ac0 34be f4a1 30be
00000120: a179 f4bc 6ad5 b1bd ef06 10bd 8e69 c5bd
00000130: d8f5 66bd 2118 01bd 8a91 383c 4ef7 afbd
00000140: a981 09be c5eb bfbd 1db9 83bc 6c62 babc
00000150: 9762 9dbd cd0d dfbd edbb 35bd b706 d6bd
00000160: 35e1 50bc b07b 33bd 679b 4cbe 9713 00be
00000170: 0451 01be a6c0 2fbd ef67 b8bd fd84 9bbd
00000180: 953a 173d 5cfe 56be a2b8 04be 6637 b0bd
00000190: 7b06 81bd fbaa 43bd 68e0 46be 4068 6ebe
000001a0: a3de 19be 89e5 22be 457a 2dbe ce0e 88bd
000001b0: c2ba 483d fdd9 dabd 2cdf 84bd 6629 a4bd
000001c0: 6bad 1bbe ffb7 2cbd 5717 6fbc 94a2 0fbe
000001d0: ce3a 10bd fa1e 623d 1b6a a6bd 4773 50bd
000001e0: c832 a1bd 052a 24be f3f2 37be 0ac2 09be
000001f0: 99f2 debd 4b50 4b3c af6a 70be 9c80 c3be
00000200: 6c6e 83be dc8b 82be df2f b1be 0bdb d6be
00000210: 4dc0 4cbd d62b 29be 8994 8fbd 24cf e4bd
00000220: 02e9 203a db66 36be 0290 c2bd 0026 b3bd
00000230: 015d 00be 9577 febd 60e9 7cbc a012 e6bd
00000240: 19d8 cfbd bbd7 35be 8860 603c c672 74be
00000250: d7a2 ebbd 98e7 733c d88b ce3b 3bd6 e93d
00000260: 3fae 3a3e 64d5 f63d a0fb 1ebe 1821 9ebe
00000270: 049a f8bd 8ba8 97be 9dda 04bf be21 d4be
00000280: 5a7f c1be df5d a8be 15fc e9bc ceb3 efbc
00000290: 52b9 cfbc 02e1 1fbd d92b 3dbe ccad dabd
000002a0: c7f4 263d 049d b4bd 5de1 adbd f32c b7bd
000002b0: 269c d0bd 38d3 89bd cb58 12be e0ba 88bb
000002c0: 6740 2bbe 6642 5d3d ea9d 7a3e ace5 773e
000002d0: 1b25 913e 13c2 9d3e 9a5a adbc 657f 9abd
000002e0: 82bf 13be 30df 1fbe 77ca 2abe 191b 2abe
000002f0: 2788 8abe d8bd 06be 5346 98ba 5ebc afbd
00000300: 013e 96bc 600e 4cbe ac94 e0bd 61a7 0dbe
00000310: 731c 00be 10f0 c7bb 1fb7 8139 db41 13be
00000320: 884a 1abe 4051 d4bd 8ba4 a1bd 85ca 2dbd
00000330: a1ce 4f3d 780d 7e3e f64b 983e 3e11 af3e
00000340: 3cbb e53e c484 783e d212 b73d bec1 9fbc
00000350: d480 69bd eef3 bb3d 1401 e53d c1cb 873b
00000360: 093c 683b 0606 dcba 7572 4b3c 0048 b63d
00000370: c3a0 12be 12af 4cbb 8498 10be df52 16be
00000380: 2214 d3bd f30f e93c 529d debd 0f41 01be
00000390: b366 46bc ab2a 01be 3903 cebd 3711 85bc
000003a0: 8c86 5a3e 932d 8b3e 5b0d ac3e f448 633e
000003b0: 9d98 833e d93f f33d 7bc0 2fbc f0c5 b7bb
000003c0: fbe9 88bc dedb 063e 2ce1 513e 9ece be3d
000003d0: 07d6 893d 9ebe 8e3d d204 0ebe d584 183d
000003e0: ef95 14be 61ca bebd f324 27be 56b6 033d
000003f0: ab88 323c 8484 2cbe eb8e d9bd 80f6 6cbd
0.011855737 -0.02195169 0.012772449 -0.09367339 -0.14370601 -0.041307822 -0.15596564 -0.017262034
-0.07656831 -0.1576951 -0.08345083 -0.13978066 -0.1690656 -0.032144 -0.18738067 -0.13549028
-0.18203627 0.027151972 0.021496177 -0.029690986 -0.03404975 -0.16093655 -0.038887188 -0.15335938
-0.16734417 0.029644417 -0.08899908 -0.17998672 -0.13639303 -0.05840985 -0.0029655679 -0.18987389
-0.03332428 -0.06717582 -0.0034258906 -0.07635556 -0.15054409 -0.059768658 -0.1786968 0.0065061185
-0.0076925196 0.0034932536 0.024774216 -0.0927776 -0.005420299 -0.15278605 -0.1617982 -0.06508751
-0.15987022 -0.04994403 -0.17472836 -0.015053894 -0.11164037 -0.0740883 0.024476828 0.030408204
-0.12133995 -0.081968375 -0.102149054 -0.054748405 -0.03689127 -0.09829281 -0.082289614 -0.23147497
-0.016909426 -0.11983773 0.0068383557 -0.105557874 -0.16085118 -0.12379455 -0.17651406 -0.1724928
-0.029843153 -0.086832836 -0.035162862 -0.096392736 -0.0563868 -0.03151715 0.011265168 -0.085920915
-0.13428368 -0.09371141 -0.01607948 -0.02275201 -0.0768482 -0.10891304 -0.044368673 -0.104504995
-0.012749006 -0.04381913 -0.19981156 -0.12507473 -0.12628561 -0.042908333 -0.09004199 -0.07593725
0.036921103 -0.20995468 -0.12961057 -0.086043164 -0.06300064 -0.04777048 -0.19421542 -0.23281956
-0.15026335 -0.15907873 -0.16941173 -0.06643449 0.04900623 -0.10686109 -0.06487879 -0.080157086
-0.15202872 -0.04216766 -0.014592967 -0.14026862 -0.03521233 0.055205323 -0.08125707 -0.050891187
-0.07871014 -0.16031654 -0.17963772 -0.13452926 -0.108861156 0.01240928 -0.23478197 -0.3818406
-0.25670183 -0.2549733 -0.34606835 -0.41963992 -0.04998808 -0.16520628 -0.07010753 -0.111723214
0.00061382365 -0.17812674 -0.095001236 -0.08747482 -0.12535478 -0.12425152 -0.0154365 -0.11234021
-0.10148639 -0.17758076 0.01369489 -0.23871908 -0.115056686 0.014886759 0.006303292 0.11417814
0.18230532 0.1205242 -0.15525675 -0.30884624 -0.12138751 -0.29620776 -0.5189608 -0.41431993
-0.37792474 -0.32884118 -0.028562585 -0.029260542 -0.025356922 -0.039032944 -0.18473758 -0.106776804
0.04076078 -0.08819011 -0.0849025 -0.0894412 -0.10186033 -0.0672974 -0.14291684 -0.004172668
-0.16723786 0.0540184 0.24474302 0.24208707 0.28348622 0.3081213 -0.021161366 -0.0754383
-0.14428523 -0.15612483 -0.16678797 -0.166119 -0.27057 -0.13158357 -0.0011617638 -0.0858085
-0.018340113 -0.19927359 -0.10965857 -0.13833381 -0.12510853 -0.0061016157 0.00024741233 -0.1438059
-0.15067494 -0.1036706 -0.07892712 -0.042429466 0.050734166 0.24809825 0.29745454 0.34192842
0.4486941 0.24269396 0.089391366 -0.019501563 -0.057007626 0.09177385 0.11181846 0.0041441624
0.0035436174 -0.0016786463 0.012417425 0.08900452 -0.14319138 -0.003123228 -0.1412068 -0.1468005
-0.103065744 0.028449988 -0.1086985 -0.12622474 -0.012109446 -0.12613933 -0.100592084 -0.01624356
0.21340388 0.27183208 0.3360394 0.22195798 0.25702372 0.11877412 -0.010727043 -0.005608313
-0.016713133 0.1316981 0.20496053 0.09316753 0.067302756 0.06969951 -0.13869026 0.037236053
-0.1451032 -0.093159445 -0.16322689 0.03215631 0.010896842 -0.16847426 -0.106229626 -0.05785227
