2022051830.pt (torch, 424079 bytes, 8 tensors)

encoder.0.weight f4 [64, 784]
000000 61 df 6d bc ac d2 f0 3c 90 ec 9a 3c be dd 97 3c
       -0.01451859 0.029397331 0.01891163 0.018538352
000010 ee 88 12 3d a1 d2 74 3d c7 b3 3c bf d1 5c fe be
       0.035775118 0.059771184 -0.7371182 -0.49680188
000020 3f 6b 13 3e 5b 34 df 3e e7 a6 b2 3e e4 ca a5 3d
       0.1439638 0.43594632 0.3489296 0.08095339
000030 fd 4d 08 be 1f 86 a4 be aa e9 1a bf f2 59 9a bc
       -0.13311 -0.32133576 -0.60512793 -0.018841717
000040 79 66 c8 3e da 5d 00 3f 27 6f 1d 3f 6c 58 c9 3e
       0.3914068 0.50143206 0.6149773 0.39325273
000050 47 66 04 3d c4 63 a0 3d 67 3b c1 be ee eb 21 bd
       0.0323241 0.07831529 -0.37740633 -0.03953164
000060 23 0f c1 bc 4a 5d e0 bb 01 e4 f7 ba ac b7 c1 bc
       -0.023566788 -0.0068470584 -0.0018912555 -0.023647152
000070 e3 6c 8a bc 4a 3c f5 ba a4 8d 9e 3e ac 1a d1 bd
       -0.016897624 -0.0018709984 0.30967438 -0.102101654
000080 84 f0 4e 3e f2 7c 6c bf e2 aa cc bd 3a a1 4d bd
       0.20208937 -0.9237815 -0.09993531 -0.050202586
000090 96 35 f6 3d 88 d0 15 3f c2 90 6e 3f 9c c7 9d 3e
       0.120219395 0.5852132 0.9318963 0.30816352
0000a0 29 70 ac bd 37 11 51 bf bd 28 f7 be 87 48 d5 3b
       -0.0841983 -0.8166689 -0.48273268 0.00650889
0000b0 dd d1 13 be b6 c0 50 3d 67 48 c2 bd 99 52 eb bd
       -0.14435525 0.050965033 -0.09486466 -0.11490364
0000c0 34 08 25 3e de 33 5c be f8 cc 44 3e 45 53 11 bf
       0.1611641 -0.21504161 0.19218814 -0.56767684
0000d0 df d5 e7 bd 03 a2 85 be 25 45 ca ba 43 f6 e1 bc
       -0.113200895 -0.26100168 -0.0015431984 -0.027583247
0000e0 25 af 83 3c 25 1b 6d 3c 38 43 35 bd 79 7d 3a bf
       0.016074726 0.014471804 -0.044253558 -0.72847706
0000f0 a3 3c 84 3e c3 65 36 bf c1 74 50 bf 20 f3 3c be
       0.25827512 -0.71249026 -0.8142815 -0.1845212
000100 a2 4e 8c 3e bf 23 16 3f 42 fa 27 3f dc 9c 69 3e
       0.27403742 0.58648294 0.6561624 0.22813743
000110 a6 67 0a be f3 9d 0e 3e 71 88 26 3d 2d cd 1f be
       -0.13516101 0.1392744 0.040657464 -0.15605612
000120 f1 d4 b4 be a5 6a e7 3d ca 63 1a 3d 30 e9 61 be
       -0.3531871 0.11299638 0.037692823 -0.2206161
000130 19 a1 bf be b6 0f a5 3e 8e ff 53 3e f1 a2 06 3f
       -0.37427595 0.3223855 0.20702955 0.5259238
000140 1f 60 9f 3e a1 2e 78 3c 0d 28 bd 3e c0 e6 8b bc
       0.31128022 0.015147836 0.3694462 -0.017077804
000150 d8 21 01 3d 82 d9 64 3d 67 a9 27 be 9c 12 0b 3d
       0.031526417 0.055871494 -0.16373216 0.033953294
000160 b2 6a fa 3d f3 16 19 3e dd 7a ee be 4b 6d c1 be
       0.12227382 0.1495016 -0.46578112 -0.37778696
000170 db 3c ea ba c6 03 6b 3e d1 a1 b0 3d 28 5a 1c 3e
       -0.001787092 0.22950658 0.08624614 0.15268767
000180 a6 37 7f 3e 55 bd 33 3e 2d 09 82 3e 86 c1 72 3e
       0.24923572 0.17552693 0.25397626 0.23706636
000190 2d 8b 5e 3e fe fb 47 be 42 29 c1 be a9 9f 94 bd
       0.21732779 -0.19529721 -0.3772679 -0.07257015
0001a0 50 7f 10 bd c5 5a fd 3d b9 89 d3 3e 38 e5 03 3e
       -0.035277665 0.123708285 0.41316012 0.12880409
0001b0 96 7e 16 bd 15 33 b5 3e 23 62 64 be 37 1a 20 3f
       -0.036741816 0.35390535 -0.22303061 0.6254
0001c0 ee a9 86 bb 02 2b cf bd 40 73 85 be 8a 5e 68 be
       -0.0041096127 -0.10115625 -0.2606449 -0.22692314
0001d0 7a fc 0b bf 70 20 bb 3e ea 1a 6a bd 54 59 5e be
       -0.54682124 0.36548185 -0.057154574 -0.21713763
0001e0 e6 c5 bb 3c e1 c5 1d bd 34 9f 88 3d ac 22 42 3d
       0.022921514 -0.03851879 0.066709906 0.047396347
0001f0 ac 22 19 3e 1b 4e 6a 3e a5 45 10 3e e4 e8 1a 3e
       0.14954633 0.22881357 0.14089067 0.15127903
000200 73 11 45 3e 18 5c bf bd b9 a1 d7 3c 2d e5 8a bb
       0.19244938 -0.09343737 0.026322233 -0.0042387457
000210 e4 e6 45 3c 1f 55 74 3e 5c 91 51 3d ec ac 22 3e
       0.012078974 0.23860596 0.051164016 0.15886277
000220 0e 24 e7 3c 4f 95 15 be 56 4d f0 3d ee 72 e3 bd
       0.028215434 -0.14607738 0.11733501 -0.111059055
000230 ea 6f 60 bc d9 7f 09 3e 63 35 93 3e 24 24 01 be
       -0.013698557 0.13427676 0.28751668 -0.12611443
000240 21 98 b3 bd 70 93 7f bd 14 6c ab bd fb ff f7 3d
       -0.08769251 -0.062396467 -0.08370224 0.12109371
000250 8f 6d c2 3c bc db b0 bd d8 7c 07 be 89 92 c7 3d
       0.023733882 -0.08635661 -0.13231218 0.09744746
000260 31 69 50 3e 4a be 0a 3d de af 40 3d 54 ca 40 3e
       0.20352627 0.03387288 0.04704272 0.18827182
000270 2c 49 1d 3e 6f 0d 40 bd a5 55 82 3d 5f 3c 29 3e
       0.15359944 -0.04688781 0.06363992 0.16526936
000280 66 26 28 3c 1f 5d b7 bd 98 17 98 bd 48 cf 97 3d
       0.010263061 -0.08953308 -0.07426375 0.07412583
000290 7b ec 16 3d 85 31 22 3e d1 4d 24 be 57 8d a7 bd
       0.03684662 0.15839203 -0.1604531 -0.08181255
0002a0 f7 a0 10 bd 44 e3 85 bf 4a 85 18 3e 24 b6 23 bf
       -0.035309758 -1.0459981 0.14894596 -0.639498
0002b0 2a 1a 04 3e 74 c7 36 be 4b 33 b5 3d a1 e5 9a 3d
       0.12900606 -0.17849523 0.08847674 0.075633295
0002c0 1b b4 cd 3d cb a2 ec bd 6f ec 8f bc a8 69 2f 3d
       0.10044118 -0.11554488 -0.017568795 0.04282537
0002d0 d4 60 b2 3c f8 d0 66 bd 8d 7a 20 3e 34 09 fc 3d
       0.021774687 -0.056351632 0.1567175 0.12306443
0002e0 0c a1 9e 3d d0 56 3e 3d 95 6e 83 3d 64 15 a5 3d
       0.07745561 0.04646951 0.06417576 0.080607206
0002f0 6e 71 0e be 3e 6f 40 be 23 61 14 be 4c e2 33 3d
       -0.13910457 -0.18792436 -0.1449018 0.043916985
000300 c4 f5 79 3e 27 62 19 be 3c 4e d8 bd 76 2e 99 be
       0.24410158 -0.14978848 -0.10561797 -0.2991826
000310 39 9e cc 3d 7a 73 b3 3f 4e 99 b5 3d 9e 90 d1 bd
       0.09991116 1.4019616 0.08867131 -0.10232662
000320 a7 d0 a7 3e 4f 4c 3f be a3 70 89 bc af c5 81 ba
       0.32776377 -0.18681453 -0.016777342 -0.0009900833
000330 c6 7a f0 bd 91 9d de bc fc 4e a5 bd 2e 68 6b 3c
       -0.11742167 -0.027174743 -0.08071706 0.0143681
000340 ef d3 92 bd 9a 72 66 bd de 22 f8 3d 56 e7 7f 3d
       -0.071693294 -0.056261636 0.121160254 0.06247648
000350 b4 69 ac 3d b4 e8 33 3e 98 6a 23 36 b3 eb 71 3d
       0.08418599 0.17569238 2.4350938e-06 0.05906267
000360 e7 89 70 bd 21 d3 81 bd 63 54 e4 bd 59 0a 84 be
       -0.058725264 -0.06339098 -0.11148908 -0.25789145
000370 17 36 1a 3d c2 56 19 bc a2 d2 5a 3e c7 22 3f 3e
       0.03764924 -0.009359064 0.21369413 0.1866561
000380 39 cf be be 0a 74 95 bd 63 17 76 be 05 bb 4f 3d
       -0.37267473 -0.07297523 -0.24032359 0.050715465
000390 57 ec 10 3e 21 0d 2f 3d 7d 83 d2 bd 8a ba b3 bd
       0.14152656 0.04273713 -0.10278986 -0.08775814
0003a0 72 4a e5 bb ca 00 91 3d ec 9d 0b 3d 6b 6f df 3d
       -0.0069974 0.070802286 0.034086153 0.10909923
0003b0 03 77 88 bd 8f f5 63 bd 97 18 ea 3d 95 19 90 3e
       -0.06663325 -0.055654105 0.114304714 0.28144518
0003c0 9f c8 1c 3e 2b 16 4d 3e a6 a5 80 3c d6 27 36 bd
       0.15310906 0.20027988 0.015703987 -0.044471584
0003d0 2f 65 c0 bc 1f 88 a5 be 7f 7a 84 be 1b 7d c0 be
       -0.023485748 -0.32330415 -0.25874707 -0.37595448
0003e0 8f 9c 64 be 96 34 38 3e 7f e9 6a be 70 0c db bd
       -0.22325347 0.1798881 -0.22940634 -0.10695732
0003f0 84 69 49 be 51 74 1d 3f e7 9c 9c be 9f 1d b6 3e
       -0.19669157 0.6150561 -0.30588457 0.35569474

encoder.0.bias f4 [64]
000000 35 26 01 3f b9 44 22 bf 8c 14 8c 3d 11 a6 58 3e
       0.50448924 -0.6338611 0.068398565 0.211571
000010 b0 56 91 3f b8 02 45 bf ed d1 24 3f b9 f2 35 bc
       1.135458 -0.76957273 0.6438282 -0.011105233
000020 cb ab 3c 3f 9f 1b d8 3d 26 c6 77 3f 74 d6 97 3f
       0.73699635 0.10552143 0.96786726 1.1862321
000030 59 bf 93 3f ba 27 39 3f 43 30 c8 3e 3c 7b 58 3f
       1.154277 0.7232624 0.3909932 0.8456304
000040 2b 85 e8 3e 24 11 2a 3f 8a e3 8b 3f dc 7c 53 be
       0.454141 0.66432405 1.0928814 -0.20653099
000050 ee dc bd 3f 05 36 30 3f 0a d7 3e 3f 15 fd 52 be
       1.4833047 0.6883243 0.74546874 -0.20604356
000060 5a 33 2f 3f a9 ff 71 3e df 7e e8 3e 34 64 6d 3f
       0.6843773 0.23632683 0.45409295 0.9273102
000070 34 de 2c bd e7 eb 84 3f f5 e6 6a 3e 07 7a 0e 3f
       -0.042204097 1.0384492 0.22939666 0.5565495
000080 bf 27 0c 3e ce a2 d2 3e 87 8b c1 3f 89 cb ab 3e
       0.13687037 0.41139835 1.5120705 0.33553723
000090 09 43 9d 3f f7 20 40 3f ab ad 53 3f 90 e7 c8 bd
       1.2286083 0.750503 0.8268687 -0.09809792
0000a0 7f 65 ef bd 17 4b 8d 3e 5a 4f 52 3f 7e 01 a0 3e
       -0.11689281 0.27596352 0.8215233 0.31251138
0000b0 c4 e7 4c 3f 94 fe 8d 3f 4a ed ab 3e 16 53 32 3f
       0.80041146 1.1093316 0.33579475 0.6965803
0000c0 af aa 02 3f 0c ce 0e 3f 62 84 9f 3d b5 45 89 3f
       0.5104169 0.5578315 0.07788922 1.0724398
0000d0 af 36 9e 3d 03 41 84 3f 5b 02 1d 3f 64 53 81 3f
       0.07725274 1.033234 0.6133172 1.0103574
0000e0 b2 e8 d2 3e ec 31 2f be 3b 26 ee 3e d6 14 4b 3f
       0.41193157 -0.17108887 0.46513543 0.7932867
0000f0 ac 8b 6f be e6 18 07 3f e6 80 1a 3f b9 40 be 3e
       -0.23393124 0.52772367 0.60352933 0.37158754

encoder.2.weight f4 [32, 64]
000000 40 6b 00 be 01 99 e3 bd aa 24 68 bd d7 1e 00 be
       -0.12540913 -0.111131676 -0.05667559 -0.12511764
000010 19 c1 36 be 1b 2e b7 3c 04 c5 a2 bd 63 60 a3 3c
       -0.17847098 0.022360852 -0.07947734 0.019943422
000020 81 95 bc 3a b0 f7 2d be e2 43 45 bd 8d 26 d1 bc
       0.0014387817 -0.16989017 -0.04816044 -0.025531078
000030 da 8f 13 bd 62 9b 0e be f0 b7 f9 3a 97 1b 22 3c
       -0.03602586 -0.13926461 0.001905201 0.009894273
000040 66 6f 84 3d 97 c3 4f 3d a7 84 bb bd 14 03 84 3d
       0.0646656 0.05072364 -0.09156161 0.064458996
000050 f7 a4 1b be 6a 24 20 be e2 b1 d8 bc 4f 5f a3 bd
       -0.15199648 -0.15638891 -0.026452009 -0.07977163
000060 f8 3c 08 3d c9 e8 06 be 38 cc 0e be 98 ac 9a bd
       0.03326127 -0.13174738 -0.13945091 -0.07552451
000070 46 87 dc bd 93 b7 c8 bd c3 26 58 bd 01 c0 b0 bd
       -0.10767989 -0.09800639 -0.05277134 -0.08630372
000080 df 7c 3c bc 3d 66 32 be 3e 20 1f be d6 ab d1 bd
       -0.011504381 -0.17421813 -0.15539643 -0.10237853
000090 9f 3f 5f bd 48 74 14 be 87 c6 27 be cd b2 f5 bd
       -0.054504033 -0.14497483 -0.16384326 -0.11996994
0000a0 23 64 45 3d e6 1e 1c bd 55 a4 61 3d 1c f8 3f 3d
       0.0481912 -0.038115405 0.05508836 0.046867475
0000b0 1d 8a 0d bc be 52 18 3d 0b fd 21 be 6d a7 d8 bd
       -0.008638886 0.037188284 -0.15819184 -0.10578809
0000c0 48 9a 3b be 08 ac 1d 3d 07 4c 20 bd a1 c8 3c bd
       -0.18320572 0.03849414 -0.039135005 -0.046089772
0000d0 f2 bb 1f be 1b da a7 bd af 33 11 3d 54 bd 10 be
       -0.15599039 -0.08195897 0.03544968 -0.14134723
0000e0 9b 2a 0d bb 77 69 28 be 2d fd b1 3c 5d 75 b5 bc
       -0.0021540287 -0.16446482 0.021727169 -0.02215069
0000f0 de 5e 71 bd c6 3d ac 3c 25 64 3e bd cf 0e 38 be
       -0.058928363 0.02102555 -0.046482224 -0.17974399
000100 23 82 51 3d 1b 71 4e bb 69 be bb bd 9e 6d 4c bd
       0.0511495 -0.0031500522 -0.09167177 -0.049909227
000110 e7 9c f6 3c 01 16 0a bc 4f c9 30 3d 98 46 e1 bc
       0.030104114 -0.008428098 0.043160733 -0.027499482
000120 90 d9 1f 3d cc aa bf bd 3a a4 54 3d 9f 1d c9 bd
       0.039025843 -0.09358749 0.05191443 -0.09820103
000130 8e 6d b6 bc 82 7c 32 be 70 d8 05 be 26 87 e0 3b
       -0.022269037 -0.17430308 -0.13070846 0.0068520484
000140 b3 e7 30 bd 65 71 37 bd e4 c6 96 bd 79 7a a7 bd
       -0.043189716 -0.044785876 -0.07362154 -0.08177657
000150 9b 84 be bd 20 9c 1f be ee 5a 7d 3d 20 d8 58 bc
       -0.09302636 -0.155869 0.061854295 -0.013235122
000160 e4 63 27 be 1f 64 e1 bd c0 f6 09 be d6 f5 be bd
       -0.16346699 -0.11005425 -0.13473034 -0.09324233
000170 78 af 36 3d 19 f3 bb bd cc 34 23 be eb 2b 35 bd
       0.044600934 -0.091772266 -0.15938109 -0.044231337
000180 0b e2 49 3b 9f a8 b5 bd f4 46 36 bc 10 d3 ae bd
       0.0030804898 -0.088700525 -0.011125315 -0.08536351
000190 fa 69 fe bd ee 8f 25 be 7d 6b 2e be 72 2a 37 3b
       -0.12422557 -0.16168186 -0.17033191 0.0027948883
0001a0 86 25 02 be 5c b0 78 3b 5f 35 05 3d 75 49 3c bd
       -0.12709627 0.0037946915 0.0325216 -0.04596849
0001b0 d3 a6 9a bd a0 78 2a be 44 73 a8 bd 5d 1c 3a be
       -0.075513504 -0.16647577 -0.0822511 -0.18174882
0001c0 32 cd 0c 3d 9c 11 29 be a9 1a 97 bd 6e 73 63 bd
       0.034375377 -0.16510624 -0.07378132 -0.055530004
0001d0 7f 27 2a be a2 d5 8a bc 10 36 39 be 5e 98 04 be
       -0.16616629 -0.016947571 -0.1808703 -0.12948748
0001e0 a8 95 b6 bd f1 87 9d 3c 7e 1e f7 3b 22 0c 01 be
       -0.089152634 0.019229861 0.0075414767 -0.12602285
0001f0 ab 84 2f be 78 d0 cc bd 59 29 0f be 6a bc ad 3c
       -0.17140453 -0.100007 -0.13980617 0.021208007
000200 22 7d 9f 3d ad 03 ec 3d c7 1f 88 bd 6f 32 b2 3b
       0.07787539 0.115241386 -0.06646686 0.005438141
000210 7a cb b8 bd b4 e6 08 3d 0a f8 9c 3d 94 e8 c7 3d
       -0.09023185 0.03342314 0.07664497 0.09761158
000220 6c 65 09 3e b1 58 dc bb 88 d9 5b 3c 66 b5 bc bd
       0.13417596 -0.00672444 0.013418563 -0.092142865
000230 f8 20 8d bc 6f 8f 9a 39 1f 14 d1 bd a6 69 24 bd
       -0.017227635 0.00029480035 -0.10208916 -0.040139817
000240 50 ee 74 3d c3 c2 dd bc a3 71 86 3e 66 27 32 3e
       0.059797585 -0.027070409 0.26258573 0.17397842
000250 b0 8f d0 bd 29 bf 8e 3c 57 ba af bd c4 75 4a ba
       -0.10183656 0.017425137 -0.085804634 -0.0007723237
000260 4b 71 9c bd 06 1d 78 3c 4a f1 69 3b 4d 41 49 bd
       -0.076387964 0.0151436385 0.0035696798 -0.04913454
000270 46 87 b8 3d bf 52 af bd 3e e1 a6 bc 07 a1 be 3d
       0.09010176 -0.085607044 -0.020371076 0.09308057
000280 91 6e 20 3d 60 99 ae 3c d5 d8 f1 bd 2c 5d f8 3c
       0.039167944 0.02131337 -0.118089356 0.030317865
000290 1b 8a cb 3c 4a aa be bd 2d 90 11 bb 3c 6c 54 3d
       0.024846127 -0.09309824 -0.002221118 0.051861033
0002a0 2e 74 47 be 6b 8b b8 3d 5f bb 71 be 32 9e 99 3c
       -0.19477913 0.09010967 -0.23606633 0.018752191
0002b0 bd 6a ee 3b 4c 67 3f bd c1 7a d3 3d 62 ee 93 bd
       0.007275908 -0.04672937 0.10326148 -0.07223202
0002c0 69 24 e1 3d 59 6c df bd 35 0f 2c bc d1 99 a1 3d
       0.10993273 -0.109093376 -0.0105016725 0.07890666
0002d0 2c 12 4d 3d b5 5a 86 bd 58 62 43 3e 19 36 8f bd
       0.05006616 -0.0656027 0.19080484 -0.0699274
0002e0 ea 4b 9a 3d d4 bc 2a bd 4f fe 98 bc af 5e 54 bd
       0.07534011 -0.041683987 -0.018675951 -0.05184811
0002f0 fb 84 44 3d b7 38 78 3d 79 d1 8c bd 04 7a ed 3c
       0.047978383 0.060600962 -0.06875891 0.028988846
000300 c6 53 60 bd 87 ac 49 bd 0b 56 65 3d 66 9d 1e 3e
       -0.054767393 -0.0492368 0.05599026 0.1548973
000310 fa 8c 30 bd d0 5b 2b bc 31 73 1d 3e 69 84 1d be
       -0.043103196 -0.0104589015 0.15375973 -0.15382542
000320 98 07 61 3e 15 e1 b4 bc e9 cb 51 3d fe 7a 66 3e
       0.21975553 -0.022079984 0.051219855 0.22507855
000330 1a c7 af be a6 a5 bd 3d a1 e3 0a bd 35 8c 9a bd
       -0.3433159 0.092601106 -0.03390849 -0.075462736
000340 48 68 7f bc 78 0a 05 be 85 66 50 3d 60 ec e5 bd
       -0.015588827 -0.12992275 0.05087902 -0.112267256
000350 a8 81 35 bc 84 02 1b be 69 e2 db bd dd ae 56 bd
       -0.011078276 -0.15137678 -0.10736544 -0.052412856
000360 3d 55 22 bd 57 6d 1a bb 00 dd 97 3c 1e 73 8b 3d
       -0.03963207 -0.0023563707 0.018537998 0.06809066
000370 19 66 ac 3d 97 36 b0 bf d9 26 25 bd f0 ee dc 3d
       0.08417911 -1.376666 -0.04032025 0.10787761
000380 96 78 6d bd e6 bc 21 3d 3d 34 83 bf bc bd 0f bc
       -0.057976328 0.03948679 -1.0250317 -0.008773264
000390 8a af 41 3d a9 2a 03 be 0e 7c ad 3c 0a 54 94 3d
       0.047286548 -0.12809242 0.021177318 0.07242592
0003a0 e3 bf 70 bd 01 49 97 3d f7 44 76 bd f9 90 c2 3a
       -0.058776747 0.07386971 -0.060124364 0.0014844231
0003b0 e5 3f 8b bb 6d 60 1c 3e 64 a9 3d 3d 31 2b ab bd
       -0.00424956 0.15271159 0.04630412 -0.083578475
0003c0 d8 a9 01 3e 47 5a ac 3d c2 eb 0c bd 06 e7 15 bd
       0.12662446 0.084156565 -0.034404524 -0.036597274
0003d0 9c 79 67 3e 47 53 5a 3e e6 ac a4 3b 3c 70 99 bd
       0.22604984 0.2132083 0.005025494 -0.0749211
0003e0 8a ba 1b 3e fe a7 68 bd 29 c9 d0 be 16 62 1f 3d
       0.15207878 -0.056800835 -0.40778473 0.0389119
0003f0 0b 1d b5 bc 10 6c c1 3d 89 65 1e bf 7c db 82 3b
       -0.022108575 0.094444394 -0.6187368 0.0039934497

encoder.2.bias f4 [32]
000000 24 b0 93 bd 64 a2 cd 39 93 0c 8c 3e ee 71 c7 3e
       -0.072113305 0.00039221637 0.27353343 0.3895411
000010 59 8b b8 3e 6b 12 cc 3c 57 e7 8a bd 6e 91 15 be
       0.36043814 0.024911126 -0.06782406 -0.14606258
000020 7e 78 a7 bd 5a 3f 0c be 44 0f 8c 3e a7 a4 ad 3e
       -0.08177279 -0.13696042 0.27355397 0.33914682
000030 5f d6 85 bd 2c 6d 31 3e ed 36 3e 3e fb 4a d9 3b
       -0.06535029 0.17326802 0.1857564 0.006631253
000040 df 56 21 be 10 b1 3a 3d 4b 2f c8 3e 47 f4 87 3e
       -0.15755795 0.045579016 0.39098582 0.26553556
000050 ad 64 45 3a 73 62 cc bd 56 0e f7 3d 42 ae 6b bd
       0.00075299555 -0.09979715 0.12063281 -0.057539232
000060 97 f7 94 3e 56 b7 6a be 42 23 c0 3e 38 7d e0 3e
       0.29095146 -0.229215 0.375269 0.43845534
000070 36 4f 25 3d aa f3 35 3e f0 1d 63 3e d6 37 90 3e
       0.040358745 0.17768732 0.22179389 0.281676

decoder.0.weight f4 [64, 32]
000000 f1 b3 81 be 7c 2c 92 be f8 f8 b7 be e6 e9 8a be
       -0.25332597 -0.28549564 -0.35932136 -0.27131575
000010 fa f1 b7 be 6f c3 93 be d6 c1 f4 bd 95 d0 dd bd
       -0.359268 -0.28860041 -0.11951034 -0.108307995
000020 4b bf d2 3e 1a b1 16 bd 4d d5 e4 bd f7 fb e8 be
       0.4116157 -0.03678999 -0.111734964 -0.45504734
000030 82 f3 94 be 02 c9 92 3d fd 30 dc be e7 02 e8 be
       -0.29092032 0.071672454 -0.43006125 -0.45314714
000040 53 fa 98 bd f5 96 b4 be c7 56 5a be ee bf a2 be
       -0.074696206 -0.3527142 -0.21322165 -0.31787056
000050 f2 aa 51 be 1e af bf be 3e 6a ad be d7 bb d9 be
       -0.20475367 -0.3743829 -0.3387012 -0.42526123
000060 77 cb 9a 3e f8 a8 d0 3e f3 20 db 3e bd 37 b8 be
       0.30233356 0.40753913 0.42798576 -0.35980025
000070 ae ff 6b 3e 62 58 ce be 3e b2 5b be 2f 3e 23 3e
       0.23046753 -0.40301806 -0.21454713 0.1594169
000080 fe f3 fe bd 12 02 90 bd b3 e3 24 bc 62 bc 8a 3e
       -0.124488816 -0.07031645 -0.010064053 0.2709685
000090 65 61 3b 3d ac 6a 1a 3e 0a b7 96 bd f2 8e 14 3e
       0.04574718 0.15079755 -0.07359131 0.14507654
0000a0 ca c0 fb 3d 9f 56 e1 bd b8 da 88 bd 7b 18 87 3d
       0.12292631 -0.1100285 -0.06682342 0.06596466
0000b0 61 dd 40 3e 3e 44 e6 be 88 07 5d be a4 8b 92 3d
       0.1883445 -0.4497394 -0.21584904 0.071555406
0000c0 89 a7 17 be aa 68 15 3e ef 77 1a be 5a c9 9a 3e
       -0.14810003 0.14590707 -0.15084814 0.30231744
0000d0 09 5a a9 bd 90 0a 75 3c 90 05 48 bd 20 51 b6 bc
       -0.08269126 0.014956132 -0.04883343 -0.02225548
0000e0 74 5e 39 be 0c 07 e5 bd f1 74 7e 3d f2 b6 39 be
       -0.18102437 -0.11182985 0.062123243 -0.18136194
0000f0 6f b2 b1 bc d0 c0 3d bc 3f 0a 62 bc 26 e3 28 3d
       -0.02169153 -0.011581615 -0.013796388 0.04123225
000100 34 ae ee 3d c7 09 f4 bb c0 e9 02 3d 74 39 88 bd
       0.1165432 -0.0074474546 0.031961203 -0.06651583
000110 8d 86 84 3d b3 4f 46 3e a1 eb d2 3d 89 2a 21 3e
       0.06470976 0.1936634 0.10298849 0.15738882
000120 34 2b 19 be 84 b4 c4 bc f8 6f 98 bd 50 4b 72 be
       -0.14957887 -0.024011858 -0.07443231 -0.23661542
000130 6e d1 b7 3d f3 dd 56 be 91 d6 b8 bc d2 e1 09 be
       0.089754924 -0.20983104 -0.02256325 -0.1346505
000140 8e 75 01 be 22 1f ef 3d f6 fb c5 3d 4a 61 a9 bc
       -0.126425 0.1167586 0.09667198 -0.020676274
000150 5d 66 99 bd 75 58 2e 3e a0 7b d8 be f0 1a 3c 3e
       -0.07490227 0.17025931 -0.42281818 0.18369651
000160 c4 7e 0e 3e 75 09 a9 3d 7e 45 f9 3e c9 c8 4c 3d
       0.13915545 0.08253757 0.4868583 0.04999617
000170 e5 05 d9 bd 61 8b 94 3d ea 63 aa bd 98 7f f1 3d
       -0.105968274 0.07253147 -0.08319838 0.11791915
000180 6a c3 bf bd 67 3c 8b 3d 34 01 ba bb e7 d9 72 be
       -0.09363444 0.0679863 -0.005676413 -0.23715936
000190 43 68 ef bd fc fa 0a be 4b 7c 3b be 9b 4c f3 3d
       -0.11689808 -0.13572305 -0.18309133 0.11879846
0001a0 16 b7 2d 3e 24 60 e6 3d 15 ba 4d 3d 3d 68 e7 bd
       0.16964373 0.11248806 0.05022629 -0.11299179
0001b0 e4 29 22 be 36 c6 21 be 8c fe d6 bd 8d 9e 89 3d
       -0.15836293 -0.15798268 -0.1049777 0.06719694
0001c0 45 88 a9 3c d4 85 c0 bd 43 c1 22 be 6f a9 df 3c
       0.020694861 -0.09400526 -0.15894036 0.027302472
0001d0 e7 5d 51 bd e8 38 b3 bd df fd 3a 3e 5b ba 6a be
       -0.051114943 -0.087510884 0.18260907 -0.22922651
0001e0 f1 d3 56 3d f6 24 c8 bc 7b 70 37 3e 46 05 64 3d
       0.052448217 -0.024431687 0.17914002 0.05566909
0001f0 fd bd 2f 3e ac 5c 70 be f4 1c e4 bd 70 46 1d bd
       0.17162319 -0.23472852 -0.11138335 -0.038397253
000200 45 f1 d5 bd cb e4 88 be 7b 74 ed bd 35 4c 17 be
       -0.10446409 -0.26737055 -0.115944825 -0.14775164
000210 4b ea 48 be 73 eb a9 bd 21 fe 6f be ca 9a b7 3d
       -0.19620626 -0.082968615 -0.23436786 0.089650705
000220 db 7d d8 3c 91 ec 0f 3e 04 02 cb bc 7f 5d a2 bd
       0.0264272 0.14055087 -0.024781235 -0.07927989
000230 09 16 20 be 7a 38 64 be 10 d8 e9 3c 39 fb 5a be
       -0.15633406 -0.22287169 0.02854541 -0.21384896
000240 35 ef a3 3d 88 77 46 be 94 e4 4f be 16 41 0d be
       0.080046095 -0.19381535 -0.2030204 -0.1379436
000250 cc 46 8d 3d 36 73 31 be c3 01 ad bd f0 6b 5d bd
       0.06898269 -0.17329106 -0.08447602 -0.054058015
000260 e4 77 03 be 8f b8 7a bd e4 99 8d 3d 5c 68 60 3e
       -0.12838703 -0.061211165 0.06914118 0.2191481
000270 ad 18 6a 3e f1 70 4c be dc 1b d0 bd 13 21 84 bd
       0.22860976 -0.19964959 -0.10161564 -0.06451621
000280 01 39 a5 ba d3 55 f6 bd a5 11 5d bb 10 a4 99 bc
       -0.001260549 -0.120280884 -0.003373244 -0.018754989
000290 9b 4e ba bd e8 4a 4f bd a2 65 f9 3d b6 eb bb bd
       -0.09097024 -0.050608546 0.12177588 -0.09175818
0002a0 c2 4b c8 3d d1 4d 91 3d dc 1a 82 3d 82 17 83 3d
       0.09780075 0.070949204 0.06352779 0.06400968
0002b0 ad 3e 27 3d f1 57 b6 bd 1b 01 16 be d4 6e 11 be
       0.040831257 -0.08903492 -0.14648859 -0.14202434
0002c0 3b 68 0b bd 51 0b 02 bd 34 fd 84 3d 42 87 97 bc
       -0.03403495 -0.031749073 0.06493607 -0.018497113
0002d0 b3 9e 2d be 88 9c d3 bd f6 01 0c 3d 54 0f 0d 3e
       -0.1695507 -0.1033259 0.034181558 0.13775378
0002e0 e4 84 c4 3d 3a 6c f1 3d 8b 8a f3 bd 25 54 a4 bd
       0.095956594 0.11788221 -0.11891659 -0.08023862
0002f0 51 b8 0c 3e b4 19 23 bd 13 28 26 be d2 dd ff bd
       0.13742186 -0.039819434 -0.16226225 -0.12493481
000300 cc d1 aa 3c 3d a5 2b be d3 de 1a 3d 6a f2 8e be
       0.020851992 -0.16762252 0.037810158 -0.27919322
000310 89 d3 97 be 2c 9b 56 be 5f 6d 38 3d 50 92 5c be
       -0.29653576 -0.20957631 0.04502618 -0.21540189
000320 a8 db cb 3d 76 53 3e 3e 22 1a cb bd 3b f1 56 3c
       0.099540055 0.18586525 -0.09917094 0.013119037
000330 83 91 69 be 96 5b 75 be 93 3b 0e bb 6e 71 8b 3d
       -0.22809415 -0.23960719 -0.002170299 0.06808744
000340 4d 58 df bd d1 87 52 3d fc e7 c2 3d e9 18 83 3e
       -0.10905514 0.051399056 0.09516904 0.25604942
000350 6b 36 04 be ba 50 7f bd a9 20 4c bd 12 2a ec 3d
       -0.12911384 -0.062332846 -0.049835835 0.11531462
000360 17 19 1b 3e 1f de 09 3e 1e 99 48 bd 9e 56 0b bd
       0.1514629 0.13463639 -0.04897415 -0.03401815
000370 28 89 d4 3b 52 2f 01 be 2b 2f b8 3e 89 75 5b be
       0.006486077 -0.12615708 0.35973486 -0.21431555
000380 c9 5d 85 bd 17 b2 d9 bd 46 4f 60 3d 45 05 03 be
       -0.06512029 -0.10629671 0.0547631 -0.12794979
000390 32 41 42 be ea aa 14 3e d2 a7 dc 3d 9c 6f 08 be
       -0.18970183 0.14518324 0.10774197 -0.13323826
0003a0 59 13 12 bd 51 88 6a bd 75 89 60 3e 42 7a 77 be
       -0.035662983 -0.057258908 0.21927436 -0.24167731
0003b0 b8 76 16 bd 06 78 86 be b4 ef 05 3e cb ba 03 be
       -0.036734313 -0.26263446 0.1307972 -0.12864225
0003c0 e0 a0 ac 3d 35 13 1c 3e 83 60 82 3e 1e 9d 69 3d
       0.08429122 0.15241702 0.25464258 0.057034604
0003d0 22 56 00 3e 0c 27 f0 bd 8b 56 ac bd d9 57 e5 3c
       0.12532857 -0.117261976 -0.08414944 0.02799599
0003e0 ff 70 f1 bd 66 ed d2 bc ea 88 f4 3c b9 6c 6f 3d
       -0.117891304 -0.025747966 0.029850442 0.058453295
0003f0 e8 9e 2e be f8 64 24 be cd 08 b1 bd 31 e0 c4 3e
       -0.17052805 -0.16054142 -0.08644257 0.38452294

decoder.0.bias f4 [64]
000000 50 40 68 be 62 57 c8 bb c9 ed b9 3d f2 4d ec bd
       -0.22680783 -0.0061139325 0.09078557 -0.115383044
000010 68 74 87 3a a9 f3 be 3c 82 39 8a 3d ad 22 d8 3d
       0.0010334374 0.023309546 0.0674925 0.10553489
000020 d2 58 35 3e 7a 34 07 be 38 73 18 3c 91 3e 28 bc
       0.17709664 -0.13203612 0.009304814 -0.010268823
000030 3d f4 a5 bc f0 f3 20 be fa b5 8c bc 30 09 5d be
       -0.020258063 -0.15718055 -0.017176617 -0.21585536
000040 76 6a d4 bd 98 68 99 bb db 96 4e be 27 4d 89 bd
       -0.10371868 -0.004681658 -0.20174734 -0.06704169
000050 6c 7a f2 3b b6 c5 a7 3c f6 36 27 3e 79 3f b3 bd
       0.0073998477 0.020480018 0.1632956 -0.08752341
000060 37 d6 45 be 6a ef 55 be 26 d7 2c be 06 0e bc be
       -0.19319998 -0.2089211 -0.16878948 -0.3672945
000070 22 c5 1f be 3a e1 43 3e 78 b5 cd bc 43 2b 80 be
       -0.15602544 0.19128886 -0.025110945 -0.25033006
000080 a2 d0 ca bd 84 3d 57 3d 04 c4 d0 bd 6c c8 15 3e
       -0.09903075 0.0525489 -0.10193637 0.14627236
000090 e8 00 b8 3d 63 c3 37 be 9a e1 81 3d a7 17 c8 bd
       0.08984548 -0.17945628 0.06341858 -0.09770136
0000a0 ce 8b 5e be 7d bb ba 3d 9f 5e 61 3c 43 70 bc 3d
       -0.21733019 0.09117792 0.01375547 0.092011
0000b0 18 47 4e 3e 50 5f 09 be 20 7e 68 3d 64 99 c6 3d
       0.20144308 -0.13415265 0.056760907 0.09697226
0000c0 5d 82 76 be 71 d9 f2 bd e5 82 cf 3d 07 5e 7c bd
       -0.24073167 -0.1185788 0.10132388 -0.06161311
0000d0 7b 65 42 be ce db c2 3d 7d d5 c8 bd f8 d1 f5 3c
       -0.18984024 0.09514581 -0.09806345 0.030007347
0000e0 e4 d3 17 be 9d 6a 11 3e c6 28 08 bd 0a 40 52 be
       -0.14826924 0.14200826 -0.03324201 -0.20532241
0000f0 2c 16 53 3e 83 74 30 3e bb 9f 01 3e 57 95 eb 3d
       0.20613927 0.17231946 0.12658589 0.11503094

decoder.2.weight f4 [784, 64]
000000 e0 bf f6 3d de d7 92 bd 08 0c e4 3c ac ff 7f bd
       0.12048316 -0.0717008 0.027837768 -0.062499687
000010 5a 60 9d bd 20 2a f9 bc 70 b1 40 3d b2 a4 8c bd
       -0.07684393 -0.030415595 0.047044218 -0.06867351
000020 28 b7 b8 3b 12 7f 80 bd 00 77 1e be 90 14 99 bd
       0.0056370683 -0.06274237 -0.15475082 -0.07474625
000030 f1 c1 da bb 1f 2e 85 3c 0f 2d 21 3d 2a cd d9 bd
       -0.0066759516 0.016257344 0.03934961 -0.10634835
000040 56 b5 b4 ba a6 e4 ed bd 94 4f 00 bd c7 52 df bd
       -0.0013786952 -0.11615877 -0.03132589 -0.109044604
000050 a8 c8 41 bd a0 23 0f be d7 b2 98 bd 3f 2d ce bd
       -0.0473105 -0.13978434 -0.07455986 -0.10067224
000060 10 84 60 3d 90 b3 1b bc 4a c1 1a be 36 43 92 3d
       0.054813445 -0.00950326 -0.15112796 0.07141726
000070 70 c8 02 3c dc da 9d bc 4e 44 ab bd a4 bf 9e bd
       0.007982358 -0.0192694 -0.083626375 -0.07751396
000080 00 09 17 3c 38 47 21 bd ca 2c d0 bd 87 51 09 be
       0.009218454 -0.03937456 -0.10164793 -0.13410006
000090 f3 f1 28 be 4c e8 31 bc 84 50 19 be c6 bf 0e be
       -0.16498546 -0.010858607 -0.1497212 -0.13940343
0000a0 46 8d d5 bd 33 8d fb bd 0a d9 98 bd 98 88 a2 3d
       -0.104273364 -0.12282791 -0.07463272 0.079362094
0000b0 d2 7c 30 bd b8 bf 21 be e0 4a 97 bb 98 99 d0 3c
       -0.043087788 -0.15795791 -0.00461708 0.025463864
0000c0 10 af b7 bc fd e2 c7 bd 22 22 40 be 6a 0d 59 bd
       -0.022422343 -0.097600915 -0.1876302 -0.05299131
0000d0 6c 5f 55 bd a4 bc 23 bd a8 12 aa 3c fc b5 de 3d
       -0.052092955 -0.039974824 0.02076085 0.108745545
0000e0 24 d0 19 bd 42 e2 93 bc 84 b8 0d 3d e6 d0 a6 bd
       -0.037552014 -0.018052224 0.034599796 -0.08145313
0000f0 6e 8d 9b 3d de 51 2a bd 00 f8 29 be 76 0d 9c bd
       0.07595335 -0.04158198 -0.1659851 -0.07619755
000100 d4 9a 8e 3d 16 13 62 3c c0 09 a9 bd 5c f3 a8 3d
       0.06963125 0.013798496 -0.08253813 0.08249542
000110 c8 fc fd bd a4 a3 73 bd 04 38 35 bd c2 09 ab bc
       -0.1240173 -0.05948223 -0.044242874 -0.020878676
000120 2f 1a 42 be 74 52 24 3c fc c4 9d bc c9 89 30 bd
       -0.18955301 0.010029424 -0.019258969 -0.043100152
000130 b6 19 44 bd 5f fd 4e be 42 01 df bc 00 3c 72 39
       -0.047876082 -0.20213841 -0.02722228 0.0002310127
000140 dc f5 44 be d0 f4 f6 3c 00 81 08 bd 82 7f 0e be
       -0.19234413 0.030146033 -0.03332615 -0.13915828
000150 4c 0b 7c bd 56 42 b9 bd a3 23 53 bd cf ef de bc
       -0.06153421 -0.09045856 -0.051547658 -0.027213959
000160 d6 35 8d bd 40 e4 20 bc 96 d7 41 3d de ae 93 bd
       -0.06895034 -0.009820044 0.04732474 -0.07211088
000170 44 eb 13 3d 90 0e b5 bc e7 81 d7 3c 80 32 a2 3d
       0.03611304 -0.02210167 0.02630706 0.07919788
000180 fe 6a 80 3c a4 88 71 bd 52 10 f6 bd 95 b3 87 bc
       0.015676018 -0.0589682 -0.120148316 -0.016565124
000190 eb 20 fe ba a0 06 05 bd 3b e4 a9 bd 09 a1 0d be
       -0.0019388472 -0.03247702 -0.08295485 -0.13830961
0001a0 78 f3 90 bd e2 26 28 3d a6 c6 83 bd 48 e1 0f 3d
       -0.07077688 0.041052707 -0.064343736 0.035126954
0001b0 94 63 1d bd 3c 2b 38 3c 4a d9 b0 3d 35 a2 15 bd
       -0.038425043 0.011240777 0.086351946 -0.036531646
0001c0 40 f2 37 bb 73 42 18 bd 30 5c 1b be e7 a6 2f bd
       -0.0028067976 -0.037172746 -0.15171885 -0.04288378
0001d0 e0 e6 eb 3b 00 8b 11 be 92 c4 b3 bc 97 48 31 be
       0.0071991533 -0.1421318 -0.021944318 -0.17312847
0001e0 71 be 2f be 12 db 50 bd d1 18 45 3b 89 3d 0f bd
       -0.17162491 -0.05099017 0.0030074606 -0.034970794
0001f0 e8 ce 47 3c bd bf 3d bd 01 45 66 bd 7e 8a 09 be
       0.012195326 -0.046325434 -0.05621815 -0.13431737
000200 e4 53 e2 3d 14 4e 74 be 9c ce d9 bd 14 23 e0 3d
       0.11051157 -0.2385791 -0.10635111 0.109441906
000210 10 e5 77 bd 84 c2 06 bd 8c 54 ac 3d 61 a4 32 3c
       -0.060521185 -0.03290035 0.084145635 0.010903449
000220 bd 91 2a be cd eb b7 bd 08 85 88 3d e8 04 ab bc
       -0.16657157 -0.08980522 0.06665999 -0.020876363
000230 26 14 33 bd ca 46 a0 bd 34 15 86 bc f8 6f 8e 3c
       -0.043720387 -0.07826002 -0.016367532 0.017387375
000240 d3 fc 06 3d 98 78 23 3d 60 20 85 3b f2 1a 5d bd
       0.032955956 0.03990993 0.0040626973 -0.053980775
000250 cc 0e ad bd 2a c3 2f be a8 f9 82 bd a0 48 32 bc
       -0.08450088 -0.17164293 -0.063952744 -0.010881573
000260 88 ea 84 3d 58 16 cb bc 9a 65 83 bd a0 b5 38 bc
       0.06490046 -0.024790928 -0.06415863 -0.0112737715
000270 ba c0 94 bd e8 11 75 bc 9c af 0b be 38 4d 84 bd
       -0.07263322 -0.014957882 -0.13641208 -0.06460041
000280 3c a5 a8 3d c8 a3 56 3d 14 7c 33 bd e8 24 16 be
       0.08234641 0.052402288 -0.043819502 -0.14662516
000290 81 27 01 be 58 5a 96 bc 68 46 42 be 0e 35 9c 3d
       -0.12612726 -0.018353626 -0.1897217 0.07627307
0002a0 e0 98 6f 3d 91 94 df bd 00 71 f3 3c 7e b1 c9 bd
       0.058495402 -0.10917009 0.029716969 -0.09848307
0002b0 fc a2 e4 bc ce 7a 0c 3d 34 8b b7 3d 00 07 96 ba
       -0.027909748 0.034296803 0.08962098 -0.0011446178
0002c0 e9 3c 19 3d e4 7d 98 3d fe ad 0c be 61 d6 de bd
       0.037411604 0.07445887 -0.13738248 -0.10880733
0002d0 10 87 4d bd 34 ba af 3d 30 8f 97 3c 28 85 d6 bc
       -0.050177634 0.08580437 0.018500894 -0.02618654
0002e0 e0 53 7f 3d 11 84 1a be ee c6 bc bd 8a 65 e6 3d
       0.06233585 -0.15089442 -0.0921763 0.11249836
0002f0 15 c2 86 bd 86 0a 0a be c2 13 35 be cc 78 98 bd
       -0.06579987 -0.13480577 -0.17683318 -0.07444915
000300 b8 91 f4 bc 80 65 19 bb 0f 0f fc bb 08 97 ef 3d
       -0.02985464 -0.0023406446 -0.007692225 0.11698729
000310 1c ba f9 bd 1a 65 bf 3d 94 ac 56 3d 3d 5c ed bd
       -0.12193701 0.093454555 0.052410677 -0.11589859
000320 11 71 32 be 70 0d 44 be 70 c7 46 bd fe 3d 5d bb
       -0.17425944 -0.19145751 -0.048530042 -0.0033758874
000330 c5 ac 0c be a0 b7 cb 3b 63 c3 17 3d 3a 96 a8 bd
       -0.13737781 0.006216958 0.03705157 -0.082317784
000340 57 0b d7 bd 02 b5 cf bd 94 eb 40 be 8a 98 d9 bc
       -0.1050021 -0.101419464 -0.18839866 -0.026561994
000350 fc 0e 7f 3d d9 25 3b 3d f8 a2 48 bd 64 d5 0b 3d
       0.06227015 0.04569039 -0.048983544 0.034139052
000360 40 b9 27 bc 28 cb 04 bd ae 3c 07 be ce 65 cb 3d
       -0.010237038 -0.032420307 -0.13206741 0.09931527
000370 3a af b4 3d 4c da 26 be 14 6d 4e 3d 40 e5 ab 3b
       0.08822484 -0.16294211 0.050396994 0.0052458346
000380 52 17 fc 3d e6 7c c3 bd c8 f9 97 3d a9 7a c4 3c
       0.123091355 -0.09545307 0.07420689 0.02398427
000390 42 2a b7 bd a0 41 75 3d a8 26 46 be 82 51 f7 bd
       -0.08943607 0.059877038 -0.19350684 -0.12076093
0003a0 d0 20 42 3d 1d 65 f9 bd bc d2 e9 3d 40 0d d4 bd
       0.047394574 -0.12177489 0.114171475 -0.1035409
0003b0 05 52 d6 bb 4b d0 89 bd 4a eb d9 bd 98 79 90 bd
       -0.006540539 -0.06729182 -0.10640581 -0.07054442
0003c0 7e d9 8a 3d 01 6c f2 bc fd 73 3d 3d d8 1b ec 3c
       0.067797646 -0.029592516 0.046253193 0.02882187
0003d0 c6 bd f5 3d 3f 9f e9 bb fb 72 a1 bd 3b db 09 bd
       0.11999087 -0.0071295793 -0.07883259 -0.03365634
0003e0 03 18 0f be 52 fd 99 bd 07 44 2b be 84 ca ae bd
       -0.13974003 -0.0751902 -0.16725169 -0.085347205
0003f0 fc d8 e5 bd 6b af 0c be 41 62 4a 3c 14 e3 7c bd
       -0.11223027 -0.13738792 0.012352527 -0.061739996

decoder.2.bias f4 [784]
000000 91 3e 42 3c 08 d4 b3 bc 89 43 51 3c d6 d7 bf bd
       0.011855737 -0.02195169 0.012772449 -0.09367339
000010 ab 27 13 be 64 32 29 bd 75 b5 1f be 1c 69 8d bc
       -0.14370601 -0.041307822 -0.15596564 -0.017262034
000020 d9 cf 9c bd d3 7a 21 be 45 e8 aa bd a9 22 0f be
       -0.07656831 -0.1576951 -0.08345083 -0.13978066
000030 88 1f 2d be 6d a9 03 bd b8 e0 3f be f7 bd 0a be
       -0.1690656 -0.032144 -0.18738067 -0.13549028
000040 df 1c 26 be d0 6d de 3c c0 18 b0 3c 4d f2 e3 bc
       -0.16221951 0.027151972 0.021496177 -0.027825499
000050 c0 77 0b bd 8d cc 24 be 2c 48 1f bd 3e 0a 1d be
       -0.03404975 -0.16093655 -0.038887188 -0.15335938
000060 45 5c 2b be d9 d8 f2 3c 26 45 b6 bd 70 4e 38 be
       -0.16734417 0.029644417 -0.08899908 -0.17998672
000070 9d aa 0b be 2b 3f 6f bd f9 59 42 bb 4d 6e 42 be
       -0.13639303 -0.05840985 -0.0029655679 -0.18987389
000080 0a 7f 08 bd 7a 93 89 bd e8 84 60 bb 4e 60 9c bd
       -0.03332428 -0.06717582 -0.0034258906 -0.07635556
000090 3b 28 1a be fb cf 74 bd 4b fc 36 be 47 31 d5 3b
       -0.15054409 -0.059768658 -0.1786968 0.0065061185
0000a0 88 11 fc bb 12 ef 64 3b 4c f3 ca 3c 2f 02 be bd
       -0.0076925196 0.0034932536 0.024774216 -0.0927776
0000b0 c3 9c b1 bb b6 0c e8 bd 6d ae 25 be 9a 4c 85 bd
       -0.005420299 -0.113305494 -0.1617982 -0.06508751
0000c0 05 b5 23 be 1c 92 4c bd fe eb 32 be 9c a4 76 bc
       -0.15987022 -0.04994403 -0.17472836 -0.015053894
0000d0 b5 a3 e4 bd 9b bb 97 bd a1 83 c8 3c a0 1a f9 3c
       -0.11164037 -0.0740883 0.024476828 0.030408204
0000e0 14 81 f8 bd 09 df a7 bd 86 33 d1 bd dd 3f 60 bd
       -0.12133995 -0.081968375 -0.102149054 -0.054748405
0000f0 4d 1b 17 bd be 4d c9 bd 75 87 a8 bd c6 07 6d be
       -0.03689127 -0.09829281 -0.082289614 -0.23147497
000100 a3 85 8a bc 7c 6d f5 bd 02 0e 97 3c ba 2e d8 bd
       -0.016909426 -0.11983773 0.018439297 -0.105557874
000110 2c b6 24 be cf b3 00 bd 1a c0 34 be 7e af 79 3d
       -0.16085118 -0.03142148 -0.17651406 0.060958378
000120 a1 79 f4 bc 6a d5 b1 bd ef 06 10 bd 8e 69 c5 bd
       -0.029843153 -0.086832836 -0.035162862 -0.096392736
000130 d8 f5 66 bd 21 18 01 bd 8a 91 38 3c 4e f7 af bd
       -0.0563868 -0.03151715 0.011265168 -0.085920915
000140 a9 81 09 be c5 eb bf bd 1d b9 83 bc 6c 62 ba bc
       -0.13428368 -0.09371141 -0.01607948 -0.02275201
000150 97 62 9d bd cd 0d df bd ed bb 35 bd b7 06 d6 bd
       -0.0768482 -0.10891304 -0.044368673 -0.104504995
000160 35 e1 50 bc b0 7b 33 bd 67 9b 4c be a1 18 d4 bd
       -0.012749006 -0.04381913 -0.19981156 -0.1035626
000170 04 51 01 be a6 c0 2f bd ef 67 b8 bd fd 84 9b bd
       -0.12628561 -0.042908333 -0.09004199 -0.07593725
000180 95 3a 17 3d e8 60 2e be a2 b8 04 be 72 16 3f 3c
       0.036921103 -0.17029154 -0.12961057 0.011663066
000190 7b 06 81 bd fb aa 43 bd a7 f2 70 bd 40 68 6e be
       -0.06300064 -0.04777048 -0.05882516 -0.23281956
0001a0 a3 de 19 be 89 e5 22 be 45 7a 2d be ce 0e 88 bd
       -0.15026335 -0.15907873 -0.16941173 -0.06643449
0001b0 c2 ba 48 3d fd d9 da bd 2c df 84 bd 66 29 a4 bd
       0.04900623 -0.10686109 -0.06487879 -0.080157086
0001c0 6b ad 1b be ff b7 2c bd 57 17 6f bc 94 a2 0f be
       -0.15202872 -0.04216766 -0.014592967 -0.14026862
0001d0 ce 3a 10 bd fa 1e 62 3d 1e 25 a6 bd 47 73 50 bd
       -0.03521233 0.055205323 -0.08112548 -0.050891187
0001e0 c8 32 a1 bd 05 2a 24 be f3 f2 37 be 0a c2 09 be
       -0.07871014 -0.16031654 -0.17963772 -0.13452926
0001f0 99 f2 de bd 20 0a 9f 3d 73 94 18 bd 82 09 08 be
       -0.108861156 0.07765603 -0.037250947 -0.13284877
000200 4d 4c b4 bd 3c 86 1f be 3d 3a 7a be 1e 7c 8c be
       -0.08803616 -0.1557855 -0.24436279 -0.27438444
000210 4d c0 4c bd d6 2b 29 be 89 94 8f bd 24 cf e4 bd
       -0.04998808 -0.16520628 -0.07010753 -0.111723214
000220 02 e9 20 3a db 66 36 be 02 90 c2 bd 00 26 b3 bd
       0.00061382365 -0.17812674 -0.095001236 -0.08747482
000230 01 5d 00 be 95 77 fe bd 65 d9 d0 bb a0 12 e6 bd
       -0.12535478 -0.12425152 -0.0063735717 -0.11234021
000240 19 d8 cf bd bb d7 35 be 88 60 60 3c 75 b5 f7 bd
       -0.10148639 -0.17758076 0.01369489 -0.12095157
000250 28 1a 66 bc 7b e9 5c 3d a1 18 48 3d 92 b9 41 3e
       -0.014044322 0.0539336 0.048851613 0.18918446
000260 77 3e 73 3e dd d6 30 3e 65 5d 09 3d 18 21 9e be
       0.23754297 0.17269464 0.033536334 -0.30884624
000270 04 9a f8 bd b6 bf f2 bd d1 57 c1 be 43 ea 90 be
       -0.12138751 -0.11852972 -0.3776231 -0.28303728
000280 21 52 81 be 2d cb 76 be 15 fc e9 bc ce b3 ef bc
       -0.25257972 -0.24100943 -0.028562585 -0.029260542
000290 52 b9 cf bc 02 e1 1f bd d9 2b 3d be cc ad da bd
       -0.025356922 -0.039032944 -0.18473758 -0.106776804
0002a0 c7 f4 26 3d 04 9d b4 bd 5d e1 ad bd f3 2c b7 bd
       0.04076078 -0.08819011 -0.0849025 -0.0894412
0002b0 26 9c d0 bd 38 d3 89 bd cb 58 12 be e0 ba 88 bb
       -0.10186033 -0.0672974 -0.14291684 -0.004172668
0002c0 d5 bd 09 be aa 79 38 bc 05 dc 3e 3e 9d e2 23 3e
       -0.13451321 -0.011259476 0.18638618 0.16004415
0002d0 b5 d7 36 3e 53 17 4b 3e 58 cd 22 3d 4d 2e ad 3d
       0.17855723 0.19833116 0.039746612 0.08456097
0002e0 f1 81 11 bd 3a 31 82 bd 1a 4d 1d be 85 24 2e be
       -0.035524312 -0.063570455 -0.15361443 -0.17006119
0002f0 91 46 9f be 82 fd 2a be 53 46 98 ba 5e bc af bd
       -0.31108525 -0.16698268 -0.0011617638 -0.0858085
000300 01 3e 96 bc 1c 37 19 be ac 94 e0 bd 61 a7 0d be
       -0.018340113 -0.14962429 -0.10965857 -0.13833381
000310 73 1c 00 be 10 f0 c7 bb 1f b7 81 39 5b eb 04 be
       -0.12510853 -0.0061016157 0.00024741233 -0.12980406
000320 88 4a 1a be 40 51 d4 bd 5e af 4c 3b 2f 56 fc bc
       -0.15067494 -0.1036706 0.0031232457 -0.030802814
000330 09 8f ce bc 86 8c 88 3d e0 34 a8 3d 15 8e f2 3d
       -0.025214689 0.06667428 0.0821321 0.11843506
000340 7b 59 7c 3e b8 b2 97 3d 9d 0a ae 3d ed 66 cf bc
       0.24643509 0.07407135 0.08498118 -0.025317634
000350 37 fe 0c be 48 87 5e 3c b2 3b 88 bd 26 7f 5b be
       -0.1376885 0.013582058 -0.06652011 -0.21435222
000360 c2 a6 41 be 98 eb 43 be 69 44 0b be b7 fe 72 bd
       -0.1891127 -0.1913284 -0.13600315 -0.059324946
000370 c3 a0 12 be 12 af 4c bb 84 98 10 be df 52 16 be
       -0.14319138 -0.003123228 -0.1412068 -0.1468005
000380 22 14 d3 bd f3 0f e9 3c 52 9d de bd 0f 41 01 be
       -0.103065744 0.028449988 -0.1086985 -0.12622474
000390 b3 66 46 bc 77 0b 01 bd b6 8d 0c bd be 4a e2 bc
       -0.012109446 -0.031505074 -0.034314834 -0.02762353
0003a0 2f 59 d5 3d 95 1a c2 3d 38 b1 12 3e dd 84 05 3d
       0.10417401 0.09477726 0.14325416 0.03259741
0003b0 85 b5 02 3e 98 0e 43 3d 77 d7 11 bd b0 56 3c bd
       0.12764557 0.04762134 -0.035605874 -0.04598111
0003c0 a3 d0 9e bd c4 64 1e 3c cf 02 c9 bb 84 01 05 be
       -0.07754638 0.009667579 -0.006134368 -0.1298886
0003d0 34 4b fd bd 28 7e 1c be d2 04 0e be 8a e5 a1 bd
       -0.123678595 -0.152825 -0.13869026 -0.07905109
0003e0 ef 95 14 be 61 ca be bd f3 24 27 be 56 b6 03 3d
       -0.1451032 -0.093159445 -0.16322689 0.03215631
0003f0 ab 88 32 3c 84 84 2c be eb 8e d9 bd e8 03 93 bc
       0.010896842 -0.16847426 -0.106229626 -0.017946199
