20220518150.pt (torch, 424079 bytes, 8 tensors)

encoder.0.weight f4 [64, 784]
0	0xbc6ddf61	-0.01451859
1	0x3cf0d2ac	0.029397331
2	0x3c9aec90	0.01891163
3	0x3c97ddbe	0.018538352
4	0xbc195ec3	-0.009360972
5	0xbdddb8a7	-0.10826235
6	0xbf887eb1	-1.0663663
7	0xbfa91b5e	-1.3211477
8	0xbfc8b62e	-1.5680597
9	0xc0187fe7	-2.3828065
10	0xbfd161ed	-1.635801
11	0xbf73c07c	-0.9521558
12	0xc00ecfb8	-2.2314281
13	0xbfa489d2	-1.285456
14	0xc01e7d0a	-2.4763818
15	0xc01b02d9	-2.4220488
16	0xbf296b55	-0.661794
17	0xbfa5eb71	-1.2962476
18	0xbfbb87a3	-1.4650768
19	0xbf5e7ac2	-0.86906064
20	0xbf6230d9	-0.88355786
21	0xbffde9ca	-1.9836972
22	0xbfa362b5	-1.2764498
23	0xbe933560	-0.2875166
24	0xbcc10f23	-0.023566788
25	0xbbe05d4a	-0.0068470584
26	0xbaf7e401	-0.0018912555
27	0xbcc1b7ac	-0.023647152
28	0xbc8a6ce3	-0.016897624
29	0xbaf53c4a	-0.0018709984
30	0x3f8d3a02	1.1033328
31	0x3e9c352b	0.30509314
32	0xbddc6b49	-0.107626505
33	0xbe202639	-0.15639581
34	0xc00f6768	-2.2406864
35	0xc049248d	-3.142856
36	0xc0545af7	-3.318052
37	0xc028f888	-2.6401691
38	0xbf5c814f	-0.8613481
39	0xbd8239c5	-0.06358675
40	0xbf13445a	-0.5752617
41	0xc02a3c2d	-2.6599228
42	0xbf9d253c	-1.2276988
43	0xbe0fae44	-0.14031321
44	0xbfabddcb	-1.3427061
45	0xbf94e560	-1.16325
46	0xbfd47a28	-1.6599779
47	0xbf89e924	-1.0774274
48	0xbf829259	-1.0200912
49	0xc00cb240	-2.1983795
50	0xbf331343	-0.69951266
51	0xc03604af	-2.8440359
52	0xbee40e80	-0.44542313
53	0x3e94a3f6	0.29031342
54	0xbaca4525	-0.0015431984
55	0xbce1f643	-0.027583247
56	0x3c83af25	0.016074726
57	0x3c6d1b25	0.014471804
58	0x3e8d85dd	0.27641192
59	0xbea41522	-0.32047373
60	0x3f242d25	0.64131385
61	0xc0317503	-2.7727668
62	0xbfc16a30	-1.5110531
63	0xbf1ac280	-0.60453033
64	0xc0161439	-2.3449843
65	0xbf112c7b	-0.56708497
66	0xbf7b44fe	-0.9815215
67	0xbf1f5b17	-0.6224837
68	0x3d1395e2	0.03603161
69	0xbf1fc522	-0.62410176
70	0xbf1cd60d	-0.61264116
71	0xbe01d284	-0.12677962
72	0xbe05c500	-0.13063431
73	0xbf44d13f	-0.76881784
74	0xbf02c0c8	-0.5107541
75	0xbdf1baa5	-0.11803178
76	0xbf33b3f2	-0.7019645
77	0xbeeb6599	-0.4597595
78	0xbf2e7c07	-0.68158
79	0x3ec859ba	0.39130956
80	0xbf059140	-0.5217476
81	0x3f03c8bf	0.5147819
82	0x3f1416df	0.578474
83	0xbc8be6c0	-0.017077804
84	0x3d0121d8	0.031526417
85	0xbefc3222	-0.49256998
86	0x3ed1c884	0.40973294
87	0xbf5c18f7	-0.85975593
88	0xbe9beaac	-0.30452478
89	0xbec32cf5	-0.38120237
90	0xbf54acda	-0.8307625
91	0x3ea9994d	0.33124772
92	0x3e5a98a9	0.21347298
93	0x3e21639d	0.15760656
94	0xbea1f05f	-0.316287
95	0xbd6d8cde	-0.05799567
96	0xbe06c249	-0.13160051
97	0x3e0eb9be	0.13938043
98	0x3d4b0274	0.049562886
99	0x3d781e96	0.060576044
100	0x3ebf73df	0.3739309
101	0xbd5b47f3	-0.053535413
102	0xbe34b061	-0.17645408
103	0x3d1f4eda	0.038893558
104	0x3cec7bb7	0.028867586
105	0xbe071ece	-0.13195345
106	0xbc0024e7	-0.007821298
107	0xbf52c298	-0.82328176
108	0xbe880c40	-0.26571846
109	0x3f8a3188	1.0796366
110	0xbf0d7a9a	-0.552652
111	0x3f348531	0.70515734
112	0xbb86a9ee	-0.0041096127
113	0x3f4e9cec	0.80708194
114	0xbfcfb314	-1.6226525
115	0x3ece7fc0	0.4033184
116	0xbfa7d120	-1.3110695
117	0x3f7e2a93	0.99283713
118	0xbe73b733	-0.23800354
119	0x3b1bba54	0.0023762183
120	0xbea748e3	-0.32672796
121	0x3e7cbcb2	0.24681357
122	0x3db57c0d	0.088615514
123	0x3dbddea2	0.092709795
124	0x3d136d80	0.0359931
125	0xbd563c76	-0.052303754
126	0x3e07e854	0.1327222
127	0x3daa0e31	0.08303488
128	0x3e33e60e	0.17568228
129	0x3c1acb95	0.009447952
130	0xbd865131	-0.06558455
131	0x3e2840cd	0.1643097
132	0xbe0c7c60	-0.1371932
133	0x3e811042	0.25207716
134	0xbd4ad914	-0.049523428
135	0xbe126678	-0.14296901
136	0x3f1c268e	0.6099633
137	0xc00007e4	-2.0004816
138	0xbedf8aa5	-0.43660465
139	0x3e92c5b5	0.28666463
140	0xbc606fea	-0.013698557
141	0xbe62939b	-0.2212662
142	0xbf4dec13	-0.80438346
143	0x3ef0fbd0	0.47067118
144	0xbca5442f	-0.020174114
145	0xbe50510f	-0.20343421
146	0x3d496b79	0.04917476
147	0xbe9d88e4	-0.30768502
148	0x3e8f8824	0.28033555
149	0xbd8d8201	-0.06909562
150	0xbd2584dd	-0.04040991
151	0xbcbafe88	-0.022826448
152	0x3de22d1a	0.11043759
153	0xbd72ddd5	-0.059293587
154	0x3b1d2b31	0.0023982043
155	0xbcb67012	-0.022270236
156	0x3d71a683	0.05899669
157	0x3decd2a0	0.11563611
158	0x3e6f3a8f	0.23362182
159	0x3d5c3edd	0.05377089
160	0xbe1ea87c	-0.15493959
161	0xbd9528f2	-0.072832
162	0xbda08628	-0.07838088
163	0xbce8fbba	-0.028440345
164	0x3f259e73	0.646949
165	0xbf5d0a05	-0.86343414
166	0xbf0598ea	-0.52186453
167	0x3f769e83	0.9633562
168	0xbe5cdd40	-0.21568775
169	0xc0094495	-2.144811
170	0x3f9a55c6	1.2057426
171	0x3dcfe692	0.101514
172	0x3eb67469	0.3563569
173	0x3ca6ba05	0.020352373
174	0x3e43ec90	0.1913321
175	0xb9c61953	-0.0003778437
176	0x3d8cce54	0.068752915
177	0xbe2e0fba	-0.16998187
178	0x3d9a88d7	0.075456314
179	0xbd13f0e4	-0.036118403
180	0xbda208da	-0.079118446
181	0x3c7b50fe	0.015339134
182	0xbdf3c147	-0.11902099
183	0x3c8c143c	0.017099492
184	0x3dca0db6	0.098658964
185	0x3d62eb76	0.055400334
186	0x3d53778f	0.05162769
187	0x3e51bd6a	0.20482412
188	0x3b7c5d4b	0.0038507755
189	0x3cf08f15	0.029365102
190	0xbe3e5ecb	-0.18590848
191	0x3d9bd23a	0.07608457
192	0xbe3b01ea	-0.18262449
193	0xbe847293	-0.25868663
194	0xbd806135	-0.06268541
195	0x3e2da818	0.16958654
196	0x3f1a7452	0.6033374
197	0x3f78b91f	0.9715747
198	0xbf137c5d	-0.5761164
199	0x3f07eef7	0.53099006
200	0xbe893917	-0.2680137
201	0xbd17947b	-0.037006836
202	0xbd94945e	-0.07254861
203	0x3d7fc7b1	0.0624463
204	0xbe6fc21d	-0.23413892
205	0xbcee92bb	-0.0291227
206	0x3cb50b7e	0.022100206
207	0xbd4fcafa	-0.050730683
208	0xbdd3219f	-0.10309147
209	0xbd2cac86	-0.04215672
210	0x3d49b166	0.049241446
211	0x3d73624d	0.05941992
212	0xbdf84479	-0.12122435
213	0x3e50166f	0.20321058
214	0xbd646800	-0.055763245
215	0xbd3bf1b0	-0.045884788
216	0xbe17bfdc	-0.14819282
217	0xbdd13d3d	-0.102167584
218	0xbeaed176	-0.3414418
219	0xbe082c16	-0.13298067
220	0x3e34e344	0.1766482
221	0xbe42be52	-0.19017914
222	0xbe8c1683	-0.27360925
223	0x3f85d163	1.0454525
224	0x3d71fb0e	0.059077315
225	0x3e0974c9	0.13423456
226	0xbf1b5199	-0.60671383
227	0x3e59771b	0.21236841
228	0xbd7e10e7	-0.062027838
229	0x3df35f0a	0.11883362
230	0xbea0c2f1	-0.31398728
231	0xbcc9054e	-0.024538662
232	0x3dac3211	0.08407987
233	0xbd892d9f	-0.06698155
234	0xbd900ad6	-0.07033317
235	0x3d6d244e	0.05789595
236	0x3e06ee9f	0.13176964
237	0xbd90279b	-0.07038804
238	0x3dc0d6d1	0.09415973
239	0x3d193f0b	0.037413638
240	0x3dfcb448	0.123390734
241	0xbca05e3c	-0.019576184
242	0x3dfe16fc	0.12406728
243	0x3d949113	0.07254233
244	0x3e13312a	0.14374223
245	0xbdc68455	-0.09693209
246	0x3dec09b0	0.11525285
247	0xbea1ac70	-0.31576872
248	0xbe43ff52	-0.19140366
249	0xbf407ab6	-0.7518724
250	0xbff13331	-1.8843747
251	0x4063ddec	3.56042
252	0x3ef2f61d	0.47453395
253	0x3e496d6a	0.19670644
254	0x3e7d0656	0.24709448
255	0x3dca55f0	0.098796725

encoder.0.bias f4 [64]
0	0x400f85ed	2.2425492
1	0xbe295176	-0.16534981
2	0xbf187d40	-0.59566116
3	0x3fe6a5c5	1.8019339
4	0x401940c4	2.394578
5	0xc05053fe	-3.2551265
6	0x4006dabd	2.1071007
7	0x3faab3b9	1.3336097
8	0x3f98d79e	1.1940801
9	0x3f6a0a0d	0.91421586
10	0x4004ed77	2.0769937
11	0x4002a6a3	2.0414207
12	0x3fef65c9	1.8702937
13	0x401be9b5	2.4361393
14	0x4006d098	2.1064816
15	0x3fa7d484	1.311173
16	0x40175267	2.3644044
17	0x3fc407f6	1.531493
18	0x400504c5	2.078416
19	0xbe6d97da	-0.23202458
20	0x402834b9	2.628218
21	0x40127723	2.2885215
22	0x3db4a234	0.0882
23	0x3ed82108	0.422127
24	0x3fd20e46	1.6410606
25	0x3ff685ca	1.9259579
26	0x3fb6156c	1.4225287
27	0x401fb63f	2.4954984
28	0xbeabad5f	-0.3353071
29	0x3fb52014	1.4150414
30	0x3f825bc2	1.0184252
31	0x3f3ed54a	0.74544203
32	0x3e6ffb19	0.2343563
33	0x3fb776ee	1.433317
34	0x40430805	3.0473645
35	0x3f81dd37	1.0145634
36	0x4000a2ed	2.0099442
37	0x400de077	2.2168252
38	0x3fe75a03	1.8074344
39	0xbed5a18b	-0.4172481
40	0xbd850e02	-0.064968124
41	0x3e447f93	0.1918929
42	0x3f7ab503	0.9793245
43	0x3f83550e	1.0260332
44	0x403204ef	2.7815511
45	0x40058eba	2.0868363
46	0x3fc59e33	1.5438904
47	0x3fd0ca27	1.6311692
48	0xbd228ebf	-0.039686915
49	0xbc9750b8	-0.018471107
50	0xbf5694dc	-0.8382089
51	0x402201c3	2.5313575
52	0xbcb9983c	-0.022655599
53	0x400333b0	2.0500298
54	0x3ff9914a	1.9497464
55	0x401aad0c	2.416812
56	0x3f25cc8a	0.64765227
57	0xbf39d4c6	-0.7259029
58	0x3f3ab4f2	0.7293235
59	0x3fd41bef	1.6571025
60	0x3f9252d4	1.1431527
61	0x4028f567	2.6399782
62	0x3f7e294f	0.9928178
63	0x3fc7ca85	1.5608679

encoder.2.weight f4 [32, 64]
0	0xbe006b40	-0.12540913
1	0xbde39901	-0.111131676
2	0xbd6824aa	-0.05667559
3	0xbe001ed7	-0.12511764
4	0xbe36c119	-0.17847098
5	0x3cb72e1b	0.022360852
6	0xbda2c504	-0.07947734
7	0x3ca36063	0.019943422
8	0x3abc9581	0.0014387817
9	0xbe2df7b0	-0.16989017
10	0xbd4543e2	-0.04816044
11	0xbcd1268d	-0.025531078
12	0xbd138fda	-0.03602586
13	0xbe0e9b62	-0.13926461
14	0x3af9b7f0	0.001905201
15	0x3c221b97	0.009894273
16	0x3d846f66	0.0646656
17	0x3d4fc397	0.05072364
18	0xbdbb84a7	-0.09156161
19	0x3d840314	0.064458996
20	0xbe1ba4f7	-0.15199648
21	0xbe20246a	-0.15638891
22	0xbcd8b1e2	-0.026452009
23	0xbda35f4f	-0.07977163
24	0x3d083cf8	0.03326127
25	0xbe06e8c9	-0.13174738
26	0xbe0ecc38	-0.13945091
27	0xbd9aac98	-0.07552451
28	0xbddc8746	-0.10767989
29	0xbdc8b793	-0.09800639
30	0xbd5826c3	-0.05277134
31	0xbdb0c001	-0.08630372
32	0xbc3c7cdf	-0.011504381
33	0xbe32663d	-0.17421813
34	0xbe1f203e	-0.15539643
35	0xbdd1abd6	-0.10237853
36	0xbd5f3f9f	-0.054504033
37	0xbe147448	-0.14497483
38	0xbe27c687	-0.16384326
39	0xbdf5b2cd	-0.11996994
40	0x3d456423	0.0481912
41	0xbd1c1ee6	-0.038115405
42	0x3d61a455	0.05508836
43	0x3d3ff81c	0.046867475
44	0xbc0d8a1d	-0.008638886
45	0x3d1852be	0.037188284
46	0xbe21fd0b	-0.15819184
47	0xbdd8a76d	-0.10578809
48	0xbe3b9a48	-0.18320572
49	0x3d1dac08	0.03849414
50	0xbd204c07	-0.039135005
51	0xbd3cc8a1	-0.046089772
52	0xbe1fbbf2	-0.15599039
53	0xbda7da1b	-0.08195897
54	0x3d1133af	0.03544968
55	0xbe10bd54	-0.14134723
56	0xbb0d2a9b	-0.0021540287
57	0xbe286977	-0.16446482
58	0x3cb1fd2d	0.021727169
59	0xbcb5755d	-0.02215069
60	0xbd715ede	-0.058928363
61	0x3cac3dc6	0.02102555
62	0xbd3e6425	-0.046482224
63	0xbe380ecf	-0.17974399
64	0x3d518223	0.0511495
65	0xbb4e711b	-0.0031500522
66	0xbec0c551	-0.3765054
67	0xbd4c6d9e	-0.049909227
68	0x3cf69ce7	0.030104114
69	0xbc0a1601	-0.008428098
70	0xbe865222	-0.26234537
71	0xbce14698	-0.027499482
72	0x3d1fd990	0.039025843
73	0xbdbfaacc	-0.09358749
74	0x3d54a43a	0.05191443
75	0xbdc91d9f	-0.09820103
76	0xbcb66d8e	-0.022269037
77	0xbe327c82	-0.17430308
78	0xbe05d870	-0.13070846
79	0x3be08726	0.0068520484
80	0xbd30e7b3	-0.043189716
81	0xbd377165	-0.044785876
82	0xbd96c6e4	-0.07362154
83	0xbebffbc2	-0.37496763
84	0xbdbe849b	-0.09302636
85	0xbe1f9c20	-0.155869
86	0x3d7d5aee	0.061854295
87	0xbc58d820	-0.013235122
88	0xbe2763e4	-0.16346699
89	0xbde1641f	-0.11005425
90	0xbe09f6c0	-0.13473034
91	0xbdbef5d6	-0.09324233
92	0xbe83112f	-0.25599048
93	0xbdbbf319	-0.091772266
94	0xbe2334cc	-0.15938109
95	0xbe2d13fb	-0.16902153
96	0xbe9d883e	-0.30768007
97	0xbdb5a89f	-0.088700525
98	0xbc3646f4	-0.011125315
99	0xbdaed310	-0.08536351
100	0xbdfe69fa	-0.12422557
101	0xbe258fee	-0.16168186
102	0xbe2e6b7d	-0.17033191
103	0xbe8e326b	-0.2777284
104	0xbec31965	-0.38105312
105	0xbe9602ed	-0.29299107
106	0x3d05355f	0.0325216
107	0xbd3c4975	-0.04596849
108	0xbd9aa6d3	-0.075513504
109	0xbe2a78a0	-0.16647577
110	0xbe8e59f8	-0.27803016
111	0xbe3a1c5d	-0.18174882
112	0xbe8d1ae7	-0.27559587
113	0xbe29119c	-0.16510624
114	0xbd971aa9	-0.07378132
115	0xbd63736e	-0.055530004
116	0xbe2a277f	-0.16616629
117	0xbc8ad5a2	-0.016947571
118	0xbe393610	-0.1808703
119	0xbe04985e	-0.12948748
120	0xbec519f0	-0.3849635
121	0xbe93e0b8	-0.28882384
122	0x3bf71e7e	0.0075414767
123	0xbe010c22	-0.12602285
124	0xbe2f84ab	-0.17140453
125	0xbdccd078	-0.100007
126	0xbe0f2959	-0.13980617
127	0x3cadbc6a	0.021208007
128	0x3f135b0d	0.5756081
129	0xbda0e238	-0.07855648
130	0x3d173e88	0.03692487
131	0x3bc8410b	0.0061112694
132	0xbe3b3335	-0.18281253
133	0x3d2727c9	0.040809426
134	0x3dd94630	0.1060909
135	0x3c90380e	0.017604854
136	0xba458357	-0.0007534525
137	0x3bb749d0	0.005593516
138	0xbef97e90	-0.48729372
139	0x3c2a5155	0.010395368
140	0xbfa55a25	-1.2918135
141	0xbc346b4b	-0.011011909
142	0xbde18734	-0.11012116
143	0x3f3ce942	0.73793423
144	0x3e35b6e1	0.17745544
145	0xbe687838	-0.2270211
146	0x3d963aa4	0.073354036
147	0x3e364715	0.17800553
148	0xbf1da6b3	-0.6158249
149	0x3d73bc9d	0.059506048
150	0x3e201988	0.1563474
151	0xbce590c8	-0.028023139
152	0x3e4cab1c	0.19987148
153	0x38d72a9c	0.000102599355
154	0xbc0aeb23	-0.0084789125
155	0xbb0ab71a	-0.0021166266
156	0x3c52a26e	0.012856109
157	0xbfa2ea63	-1.2727779
158	0xbe219f60	-0.15783453
159	0x3bf81d66	0.007571864
160	0x3c252c36	0.0100813415
161	0xbd0c422d	-0.034242798
162	0xbf4ab50c	-0.79182506
163	0x3d9d814f	0.07690679
164	0xbf002857	-0.50061554
165	0xbe6f3ab3	-0.23362236
166	0x3dbf6988	0.093463
167	0x3d2161c5	0.03939988
168	0xbd92e2c1	-0.07172156
169	0xbd2e79a6	-0.04259648
170	0xbded87b5	-0.1159815
171	0xbd6ee841	-0.058326963
172	0xbdd087f5	-0.10182182
173	0xbda19c69	-0.07891161
174	0x3e6bf4ea	0.23042646
175	0xbc52031a	-0.012818122
176	0x3c0f5834	0.008749057
177	0xbce0fdaf	-0.027464716
178	0xbd1ce8b4	-0.03830786
179	0xbe09da47	-0.13462172
180	0x3dbdf441	0.09275103
181	0xbc063f41	-0.008193792
182	0x3ddaccff	0.10683631
183	0xbdcd967b	-0.100384675
184	0x3cd3e4cf	0.02586594
185	0xbc4a7ad7	-0.012358389
186	0x3b2afc92	0.0026090485
187	0xbe2082fc	-0.15674967
188	0x3e016a68	0.12638247
189	0xbbe3b39b	-0.006948901
190	0xbcdb0763	-0.02673692
191	0xbe0bbde6	-0.1364666
192	0x3d938c6b	0.07204517
193	0xbe0a9f8f	-0.1353743
194	0x3d323b52	0.043513604
195	0x3dde6b2b	0.108602844
196	0x3ecb785a	0.39740258
197	0xbd00d1f1	-0.031450216
198	0x3e5d7ab7	0.21628843
199	0x3ef0ab2a	0.47005588
200	0x3c44bbb0	0.012007639
201	0xbda94838	-0.08265728
202	0x3c9b8b12	0.018987212
203	0x3e77f9d5	0.24216397
204	0xbffe079e	-1.9846075
205	0x3d729582	0.059224613
206	0xbd591e90	-0.053007662
207	0x3ea3134c	0.3185066
208	0x3c9e83fc	0.019350044
209	0xbd82cf16	-0.06387155
210	0x3c1976af	0.009366675
211	0xbd297bac	-0.04137771
212	0xbdcf6942	-0.10127498
213	0x3d62ba79	0.055353615
214	0xbc1fcf24	-0.009753976
215	0xbd8f0dbc	-0.069850415
216	0xbd72953e	-0.05922436
217	0x3d4b6ac0	0.04966235
218	0x3d84dfaa	0.06487973
219	0x3e13d39b	0.1443619
220	0x3c8de688	0.01732184
221	0xc00272ab	-2.0382488
222	0x3d83b2fa	0.064306214
223	0xbc9ba0dc	-0.018997602
224	0xbd987417	-0.074440174
225	0x3d51bd41	0.051205877
226	0xc01b7bde	-2.4294353
227	0xbd28f1b7	-0.041246142
228	0xbec3fb6f	-0.38277766
229	0x3be295a3	0.0069148107
230	0xbcbd9e5c	-0.0231468
231	0x3c866714	0.016406573
232	0xbb963ce8	-0.0045848973
233	0x3bd675a1	0.006544784
234	0xbdfb3168	-0.12265283
235	0xbd25191d	-0.040307153
236	0xbdc8167f	-0.09769916
237	0x3e101177	0.14069162
238	0x3db29470	0.087197185
239	0xbe211294	-0.15729743
240	0x3db338a8	0.08751041
241	0x3d41e909	0.04734138
242	0xbd67284f	-0.056434926
243	0xbe63c073	-0.22241382
244	0x3eadfca1	0.33981803
245	0x3e170486	0.1474782
246	0x3cb6a0f5	0.022293547
247	0xbe0be839	-0.13662805
248	0xbc811c35	-0.01576052
249	0xbd1b7510	-0.037953436
250	0x3dda1bef	0.10649859
251	0x3e59905d	0.21246476
252	0xbcebb434	-0.028772451
253	0x3e2854a4	0.16438538
254	0x3e007b8e	0.12547132
255	0x3db13a68	0.08653718

encoder.2.bias f4 [32]
0	0xbd93b024	-0.072113305
1	0xbe7eb659	-0.24874248
2	0x3f0769e2	0.5289594
3	0x3f59a926	0.85023725
4	0x3f6d2bf9	0.9264522
5	0x3ccc126b	0.024911126
6	0xbd8ae757	-0.06782406
7	0xbf1ae7d5	-0.6051
8	0xbe17e25b	-0.14832442
9	0xbed5d30e	-0.41762584
10	0x3f666282	0.8999406
11	0x3ec56aa2	0.38557917
12	0xbd85d65f	-0.06535029
13	0x3dbae29e	0.09125255
14	0x3f11016d	0.566428
15	0x3bd94afb	0.006631253
16	0xbe2156df	-0.15755795
17	0x3d3ab110	0.045579016
18	0x3f2b83fd	0.66998273
19	0x3e971141	0.2950535
20	0xbe0c1b96	-0.13682398
21	0xbdcc6273	-0.09979715
22	0x3e57bebf	0.21068858
23	0xbd6bae42	-0.057539232
24	0x3f29512d	0.6613949
25	0xbe6ab756	-0.229215
26	0x3f3c6a05	0.7359927
27	0x3eff2f99	0.49841002
28	0x3d254f36	0.040358745
29	0x3e8a001b	0.26953205
30	0x3eb88fcf	0.36047217
31	0x3f1e85ea	0.61923087

decoder.0.weight f4 [64, 32]
0	0xbe81b3f1	-0.25332597
1	0xbe922c7c	-0.28549564
2	0xbeb7f8f8	-0.35932136
3	0xbe8ae9e6	-0.27131575
4	0xbeb7f1fa	-0.359268
5	0xbe93c36f	-0.28860041
6	0xbdf4c1d6	-0.11951034
7	0xbdddd095	-0.108307995
8	0x3ed2bf4b	0.4116157
9	0xbd16b11a	-0.03678999
10	0xbde4d54d	-0.111734964
11	0xbee8fbf7	-0.45504734
12	0xbe94f382	-0.29092032
13	0x3d92c902	0.071672454
14	0xbedc30fd	-0.43006125
15	0xbee802e7	-0.45314714
16	0xbd98fa53	-0.074696206
17	0xbeb496f5	-0.3527142
18	0xbe5a56c7	-0.21322165
19	0xbea2bfee	-0.31787056
20	0xbe51aaf2	-0.20475367
21	0xbebfaf1e	-0.3743829
22	0xbead6a3e	-0.3387012
23	0xbed9bbd7	-0.42526123
24	0x3e9acb77	0.30233356
25	0x3ed0a8f8	0.40753913
26	0x3edb20f3	0.42798576
27	0xbeb837bd	-0.35980025
28	0x3e6bffae	0.23046753
29	0xbece5862	-0.40301806
30	0xbe5bb23e	-0.21454713
31	0x3e233e2f	0.1594169
32	0xbe71f9f9	-0.23630513
33	0xbe3aa2d0	-0.1822617
34	0xbcec026e	-0.028809752
35	0x3e3afaa6	0.18259677
36	0x3cb0aa17	0.02156548
37	0x3d1f631f	0.03891289
38	0xbe3ddf84	-0.18542296
39	0x3d04b102	0.03239537
40	0x3e707234	0.23481065
41	0x3aa39349	0.0012479807
42	0x3cb4b8d8	0.022060797
43	0x3e1bc0b1	0.15210225
44	0x3d9ca6d2	0.07649006
45	0xbe59d1d3	-0.21271448
46	0xbe06c812	-0.13162258
47	0xbd258d18	-0.04041776
48	0xbd152874	-0.036415532
49	0x3d0b4d60	0.034009337
50	0xbdf7af55	-0.12093989
51	0x3eef09bc	0.46687114
52	0xbe4749d3	-0.19461755
53	0xbdc69233	-0.09695854
54	0x3ce04d3d	0.02738058
55	0xbe094776	-0.13406166
56	0x3dda07d5	0.10646025
57	0x37a82a7f	2.004695e-05
58	0x3dda140c	0.10648355
59	0xbd86553a	-0.065592244
60	0x3db8c6e5	0.09022311
61	0x3db9d598	0.09073943
62	0x3dab8234	0.08374444
63	0x3c064dea	0.008197287
64	0x3e1cb122	0.15301946
65	0x3ceecfc2	0.029151801
66	0xbca914ed	-0.020639861
67	0xbe07fdab	-0.1328036
68	0x3d623187	0.055223014
69	0x3e6bb661	0.23018791
70	0x3e0ed263	0.13947444
71	0x3e46099f	0.19339608
72	0xbe3e2541	-0.18568899
73	0xbd6cb61d	-0.057790864
74	0xbd6ba5d0	-0.057531178
75	0xbdfbdef1	-0.12298382
76	0x3e014cbb	0.12626927
77	0xbc4f9ff7	-0.012672416
78	0xbd8403d1	-0.064460404
79	0xbdc8cf3b	-0.09805151
80	0xbe26c07c	-0.16284364
81	0x3e1cf921	0.1532941
82	0xbd9c15d0	-0.07621348
83	0x3d67ca8d	0.05658965
84	0xbd1d0c65	-0.0383419
85	0x3e53c639	0.20681085
86	0xbec0ace3	-0.37631902
87	0x3e617061	0.22015525
88	0x3daf160e	0.085491285
89	0x3d3c9431	0.046039764
90	0x3f13478b	0.5753104
91	0xbdb9e2ac	-0.09076437
92	0xbe11f1f8	-0.1425246
93	0xbcf4f02e	-0.029899683
94	0x3c2c0e8f	0.010501518
95	0x3dc86ddd	0.0978658
96	0xbdbfc36a	-0.09363444
97	0x3d8b3c67	0.0679863
98	0xbbba0134	-0.005676413
99	0xbe72d9e7	-0.23715936
100	0xbdef6843	-0.11689808
101	0xbe0afafc	-0.13572305
102	0xbe3b7c4b	-0.18309133
103	0x3df34c9b	0.11879846
104	0x3e2db716	0.16964373
105	0x3de66024	0.11248806
106	0x3d4dba15	0.05022629
107	0xbde7683d	-0.11299179
108	0xbe2229e4	-0.15836293
109	0xbe21c636	-0.15798268
110	0xbdd6fe8c	-0.1049777
111	0x3d899e8d	0.06719694
112	0x3ca98845	0.020694861
113	0xbdc085d4	-0.09400526
114	0xbe22c143	-0.15894036
115	0x3cdfa96f	0.027302472
116	0xbd515de7	-0.051114943
117	0xbdb338e8	-0.087510884
118	0x3e3afddf	0.18260907
119	0xbe6aba5b	-0.22922651
120	0x3d56d3f1	0.052448217
121	0xbcc824f6	-0.024431687
122	0x3e37707b	0.17914002
123	0x3d640546	0.05566909
124	0x3e2fbdfd	0.17162319
125	0xbe705cac	-0.23472852
126	0xbde41cf4	-0.11138335
127	0xbd1d4670	-0.038397253
128	0xbdd5f145	-0.10446409
129	0xbe88e4cb	-0.26737055
130	0xbded747b	-0.115944825
131	0xbe174c35	-0.14775164
132	0xbe48ea4b	-0.19620626
133	0xbda9eb73	-0.082968615
134	0xbe6ffe21	-0.23436786
135	0x3db79aca	0.089650705
136	0x3cd87ddb	0.0264272
137	0x3e0fec91	0.14055087
138	0xbccb0204	-0.024781235
139	0xbda25d7f	-0.07927989
140	0xbe201609	-0.15633406
141	0xbe64387a	-0.22287169
142	0x3ce9d810	0.02854541
143	0xbe5afb39	-0.21384896
144	0x3da3ef35	0.080046095
145	0xbe467788	-0.19381535
146	0xbe4fe494	-0.2030204
147	0xbe0d4116	-0.1379436
148	0x3d8d46cc	0.06898269
149	0xbe317336	-0.17329106
150	0xbdad01c3	-0.08447602
151	0xbd5d6bf0	-0.054058015
152	0xbe0377e4	-0.12838703
153	0xbd7ab88f	-0.061211165
154	0x3d8d99e4	0.06914118
155	0x3e60685c	0.2191481
156	0x3e6a18ad	0.22860976
157	0xbe4c70f1	-0.19964959
158	0xbdd01bdc	-0.10161564
159	0xbd842113	-0.06451621
160	0xbda7bfea	-0.081909016
161	0xbe90659e	-0.28202528
162	0xbe8e72f8	-0.2782209
163	0xbea57312	-0.32314354
164	0xbeba23c3	-0.3635541
165	0xbead560e	-0.33854717
166	0x3bc78dc9	0.0060899
167	0xbe245842	-0.16049293
168	0x3e87c768	0.26519322
169	0x3dd8ffb1	0.10595644
170	0xbe794df7	-0.24346147
171	0xbe5e1ff0	-0.2169187
172	0xbc995e9e	-0.018721875
173	0xbc10d9f2	-0.008841025
174	0x3d0fe41a	0.035129644
175	0xbed69cd5	-0.41916528
176	0xbc888cc6	-0.016668689
177	0xbe9a4315	-0.30129305
178	0xbe6f5adc	-0.23374504
179	0xbe976ef5	-0.2957684
180	0xbee0fdf6	-0.43943757
181	0xbe953071	-0.2913852
182	0xbe7801dc	-0.2421946
183	0xbda5b68d	-0.080914594
184	0xbe4659fc	-0.19370264
185	0x3e8a3521	0.2699366
186	0xbeb5e9f8	-0.35530066
187	0xbea37e07	-0.3193209
188	0x3e78f0af	0.24310564
189	0xbe7c42d4	-0.24634868
190	0xbed86262	-0.4226256
191	0x3e0338a9	0.12814583
192	0x3db37d89	0.08764178
193	0xbdce2bf1	-0.10066975
194	0xbdf283ee	-0.1184157
195	0xbe47704f	-0.19476436
196	0xbf6c4639	-0.9229465
197	0xbe122951	-0.14273573
198	0x3de5067b	0.11182877
199	0xbe19d575	-0.15022834
200	0x3d05f109	0.032700572
201	0x3de34fb9	0.1109919
202	0xbe24af18	-0.16082418
203	0xbcbc58f7	-0.02299164
204	0xbe252650	-0.16127896
205	0xbeacfe2c	-0.33787668
206	0x3e07a484	0.13246351
207	0x3e0a39e2	0.13498643
208	0xbe33f4ec	-0.17573899
209	0x3df22c1d	0.1182482
210	0x3c7cbe62	0.01542625
211	0xbd3fad8a	-0.04679636
212	0xbd7ef45e	-0.062244765
213	0x3b94541f	0.0045266296
214	0x3c31cfcb	0.010852764
215	0x3e3a790d	0.1821024
216	0xbcfd1f4b	-0.03089871
217	0x3d8ae585	0.067820586
218	0xbcadad62	-0.02120084
219	0xbd53bc7c	-0.051693425
220	0xbd774976	-0.060372792
221	0xbe25d969	-0.16196217
222	0x3f0b2068	0.54346323
223	0xbe8e8ceb	-0.27841887
224	0xbe64fd5b	-0.22362272
225	0xbe8790d7	-0.26477692
226	0x3c63fcca	0.01391525
227	0xbd0d7e17	-0.034544077
228	0xbd8aa033	-0.06768837
229	0xbc5a8f3b	-0.013339813
230	0xbd4ff5f5	-0.050771672
231	0xbe956f1d	-0.29186335
232	0x3dfb984a	0.12284906
233	0x3dcecded	0.10097871
234	0x3db97cb6	0.0905699
235	0xbe08884a	-0.1333324
236	0xbe47e188	-0.19519627
237	0xbe05fe25	-0.1308523
238	0x3cf9aa71	0.03047678
239	0xbe9301e4	-0.2871238
240	0x3e786ed3	0.24261026
241	0xbbc7db90	-0.006099172
242	0x3ee5a695	0.44853655
243	0x3e288500	0.16456985
244	0xbd07e373	-0.033175897
245	0xbe8d30df	-0.27576348
246	0x3cdd26be	0.026996013
247	0xbe05b099	-0.13055648
248	0xbc9f3177	-0.019432766
249	0x3e07f62a	0.13277498
250	0x3e07a861	0.13247825
251	0xbc356d4d	-0.011073423
252	0xbc454b36	-0.0120418575
253	0xbd826125	-0.06366185
254	0xbdc72bc8	-0.097251475
255	0x3ea9cb7f	0.33163068

decoder.0.bias f4 [64]
0	0xbe684050	-0.22680783
1	0xbdf17a7c	-0.1179094
2	0x3e026361	0.12733223
3	0xbdec4df2	-0.115383044
4	0x3a877468	0.0010334374
5	0xbe609b82	-0.21934322
6	0x3e097b22	0.13425878
7	0xbd589e9b	-0.052885633
8	0x3e0bace8	0.13640177
9	0xbe1e5824	-0.1546331
10	0x3c187338	0.009304814
11	0xbd04c14f	-0.032410916
12	0x3d55b8fc	0.052178368
13	0xbe085c51	-0.13316466
14	0xbd71845c	-0.05896412
15	0xbe5d0930	-0.21585536
16	0xbd6e7cb7	-0.058224406
17	0xbb996898	-0.004681658
18	0xbe4e96db	-0.20174734
19	0xbd2f76d1	-0.04283792
20	0x3bf27a6c	0.0073998477
21	0xbd875910	-0.06608784
22	0x3dfd4b3b	0.12367865
23	0xbd8ebb51	-0.069693215
24	0xbe45d637	-0.19319998
25	0xbe55ef6a	-0.2089211
26	0xbe3a5bc0	-0.18199062
27	0xbebc0e06	-0.3672945
28	0xbe1fc522	-0.15602544
29	0x3e51e11f	0.20496033
30	0x3ba9091d	0.005158557
31	0xbe802b43	-0.25033006
32	0xbda4ba24	-0.08043316
33	0x3d573d84	0.0525489
34	0xbdd0c404	-0.10193637
35	0x3e4103d9	0.18849124
36	0x3e2a0187	0.16602145
37	0xbe37c363	-0.17945628
38	0x3d08c525	0.033391137
39	0xbdc817a7	-0.09770136
40	0xbe5e8bce	-0.21733019
41	0xbc9067c1	-0.017627599
42	0x3c615e9f	0.01375547
43	0x3dbc7043	0.092011
44	0x3e5de4ab	0.21669261
45	0xbdc98407	-0.09839635
46	0x3d687e20	0.056760907
47	0x3e532348	0.20618927
48	0xbe76825d	-0.24073167
49	0xbdf2d971	-0.1185788
50	0x3dd1bd1a	0.102411464
51	0xbde94930	-0.113909125
52	0xbe42657b	-0.18984024
53	0x3d90636b	0.070502125
54	0xbdcf3358	-0.10117215
55	0xbc6d8f56	-0.014499506
56	0xbe17d3e4	-0.14826924
57	0x3e169b58	0.14707696
58	0xbcc8403a	-0.024444688
59	0xbe8b051e	-0.27152342
60	0x3e80c074	0.2514683
61	0x3e20fa2e	0.15720436
62	0x3de0c431	0.109749205
63	0x3a422eff	0.00074075157

decoder.2.weight f4 [784, 64]
0	0x3df6bfe0	0.12048316
1	0xbd92d7de	-0.0717008
2	0x3ce40c08	0.027837768
3	0xbd7fffac	-0.062499687
4	0xbd9d605a	-0.07684393
5	0xbcf92a20	-0.030415595
6	0x3d40b170	0.047044218
7	0xbd8ca4b2	-0.06867351
8	0x3bb8b728	0.0056370683
9	0xbd807f12	-0.06274237
10	0xbe1e7700	-0.15475082
11	0xbd991490	-0.07474625
12	0xbbdac1f1	-0.0066759516
13	0x3c852e1f	0.016257344
14	0x3d212d0f	0.03934961
15	0xbdd9cd2a	-0.10634835
16	0xbab4b556	-0.0013786952
17	0xbdede4a6	-0.11615877
18	0xbd004f94	-0.03132589
19	0xbddf52c7	-0.109044604
20	0xbd41c8a8	-0.0473105
21	0xbe0f23a0	-0.13978434
22	0xbd98b2d7	-0.07455986
23	0xbdce2d3f	-0.10067224
24	0x3d608410	0.054813445
25	0xbc1bb390	-0.00950326
26	0xbe1ac14a	-0.15112796
27	0x3d924336	0.07141726
28	0x3c02c870	0.007982358
29	0xbc9ddadc	-0.0192694
30	0xbdab444e	-0.083626375
31	0xbd9ebfa4	-0.07751396
32	0x3c170900	0.009218454
33	0xbd214738	-0.03937456
34	0xbdd02cca	-0.10164793
35	0xbe095187	-0.13410006
36	0xbe28f1f3	-0.16498546
37	0xbc31e84c	-0.010858607
38	0xbe195084	-0.1497212
39	0xbe0ebfc6	-0.13940343
40	0xbdd58d46	-0.104273364
41	0xbdfb8d33	-0.12282791
42	0xbd98d90a	-0.07463272
43	0x3da28898	0.079362094
44	0xbd307cd2	-0.043087788
45	0xbe21bfb8	-0.15795791
46	0xbb974ae0	-0.00461708
47	0x3cd09998	0.025463864
48	0xbcb7af10	-0.022422343
49	0xbdc7e2fd	-0.097600915
50	0xbe402222	-0.1876302
51	0xbd590d6a	-0.05299131
52	0xbd555f6c	-0.052092955
53	0xbd23bca4	-0.039974824
54	0x3caa12a8	0.02076085
55	0x3ddeb5fc	0.108745545
56	0xbd19d024	-0.037552014
57	0xbc93e242	-0.018052224
58	0x3d0db884	0.034599796
59	0xbda6d0e6	-0.08145313
60	0x3d9b8d6e	0.07595335
61	0xbd2a51de	-0.04158198
62	0xbe29f800	-0.1659851
63	0xbd9c0d76	-0.07619755
64	0x3d8e9ad4	0.06963125
65	0x3c621316	0.013798496
66	0xbda909c0	-0.08253813
67	0x3da8f35c	0.08249542
68	0xbdfdfcc8	-0.1240173
69	0xbd73a3a4	-0.05948223
70	0xbd353804	-0.044242874
71	0xbcab09c2	-0.020878676
72	0xbe421a2f	-0.18955301
73	0x3c245274	0.010029424
74	0xbc9dc4fc	-0.019258969
75	0xbd3089c9	-0.043100152
76	0xbd4419b6	-0.047876082
77	0xbe4efd5f	-0.20213841
78	0xbcdf0142	-0.02722228
79	0x39723c00	0.0002310127
80	0xbe44f5dc	-0.19234413
81	0x3cf6f4d0	0.030146033
82	0xbd088100	-0.03332615
83	0xbe0e7f82	-0.13915828
84	0xbd7c0b4c	-0.06153421
85	0xbdb94256	-0.09045856
86	0xbd5323a3	-0.051547658
87	0xbcdeefcf	-0.027213959
88	0xbd8d35d6	-0.06895034
89	0xbc20e440	-0.009820044
90	0x3d41d796	0.04732474
91	0xbd93aede	-0.07211088
92	0x3d13eb44	0.03611304
93	0xbcb50e90	-0.02210167
94	0x3cd781e7	0.02630706
95	0x3da23280	0.07919788
96	0x3c806afe	0.015676018
97	0xbd7188a4	-0.0589682
98	0xbdf61052	-0.120148316
99	0xbc87b395	-0.016565124
100	0xbafe20eb	-0.0019388472
101	0xbd0506a0	-0.03247702
102	0xbda9e43b	-0.08295485
103	0xbe0da109	-0.13830961
104	0xbd90f378	-0.07077688
105	0x3d2826e2	0.041052707
106	0xbd83c6a6	-0.064343736
107	0x3d0fe148	0.035126954
108	0xbd1d6394	-0.038425043
109	0x3c382b3c	0.011240777
110	0x3db0d94a	0.086351946
111	0xbd15a235	-0.036531646
112	0xbb37f240	-0.0028067976
113	0xbd184273	-0.037172746
114	0xbe1b5c30	-0.15171885
115	0xbd2fa6e7	-0.04288378
116	0x3bebe6e0	0.0071991533
117	0xbe118b00	-0.1421318
118	0xbcb3c492	-0.021944318
119	0xbe314897	-0.17312847
120	0xbe2fbe71	-0.17162491
121	0xbd50db12	-0.05099017
122	0x3b4518d1	0.0030074606
123	0xbd0f3d89	-0.034970794
124	0x3c47cee8	0.012195326
125	0xbd3dbfbd	-0.046325434
126	0xbd664501	-0.05621815
127	0xbe098a7e	-0.13431737
128	0x3de253e4	0.11051157
129	0xbe744e14	-0.2385791
130	0xbdd9ce9c	-0.10635111
131	0x3de02314	0.109441906
132	0xbd77e510	-0.060521185
133	0xbd06c284	-0.03290035
134	0x3dac548c	0.084145635
135	0x3c32a461	0.010903449
136	0xbe2a91bd	-0.16657157
137	0xbdb7ebcd	-0.08980522
138	0x3d888508	0.06665999
139	0xbcab04e8	-0.020876363
140	0xbd331426	-0.043720387
141	0xbda046ca	-0.07826002
142	0xbc861534	-0.016367532
143	0x3c8e6ff8	0.017387375
144	0x3d06fcd3	0.032955956
145	0x3d237898	0.03990993
146	0x3b852060	0.0040626973
147	0xbd5d1af2	-0.053980775
148	0xbdad0ecc	-0.08450088
149	0xbe2fc32a	-0.17164293
150	0xbd82f9a8	-0.063952744
151	0xbc3248a0	-0.010881573
152	0x3d84ea88	0.06490046
153	0xbccb1658	-0.024790928
154	0xbd83659a	-0.06415863
155	0xbc38b5a0	-0.0112737715
156	0xbd94c0ba	-0.07263322
157	0xbc7511e8	-0.014957882
158	0xbe0baf9c	-0.13641208
159	0xbd844d38	-0.06460041
160	0x3da8a53c	0.08234641
161	0x3d56a3c8	0.052402288
162	0xbd337c14	-0.043819502
163	0xbe1624e8	-0.14662516
164	0xbe012781	-0.12612726
165	0xbc965a58	-0.018353626
166	0xbe424668	-0.1897217
167	0x3d9c350e	0.07627307
168	0x3d6f98e0	0.058495402
169	0xbddf9491	-0.10917009
170	0x3cf37100	0.029716969
171	0xbdc9b17e	-0.09848307
172	0xbce4a2fc	-0.027909748
173	0x3d0c7ace	0.034296803
174	0x3db78b34	0.08962098
175	0xba960700	-0.0011446178
176	0x3d193ce9	0.037411604
177	0x3d987de4	0.07445887
178	0xbe0cadfe	-0.13738248
179	0xbdded661	-0.10880733
180	0xbd4d8710	-0.050177634
181	0x3dafba34	0.08580437
182	0x3c978f30	0.018500894
183	0xbcd68528	-0.02618654
184	0x3d7f53e0	0.06233585
185	0xbe1a8411	-0.15089442
186	0xbdbcc6ee	-0.0921763
187	0x3de6658a	0.11249836
188	0xbd86c215	-0.06579987
189	0xbe0a0a86	-0.13480577
190	0xbe3513c2	-0.17683318
191	0xbd9878cc	-0.07444915
192	0xbcf491b8	-0.02985464
193	0xbb196580	-0.0023406446
194	0xbbfc0f0f	-0.007692225
195	0x3def9708	0.11698729
196	0xbdf9ba1c	-0.12193701
197	0x3dbf651a	0.093454555
198	0x3d56ac94	0.052410677
199	0xbded5c3d	-0.11589859
200	0xbe327111	-0.17425944
201	0xbe440d70	-0.19145751
202	0xbd46c770	-0.048530042
203	0xbb5d3dfe	-0.0033758874
204	0xbe0cacc5	-0.13737781
205	0x3bcbb7a0	0.006216958
206	0x3d17c363	0.03705157
207	0xbda8963a	-0.082317784
208	0xbdd70b57	-0.1050021
209	0xbdcfb502	-0.101419464
210	0xbe40eb94	-0.18839866
211	0xbcd9988a	-0.026561994
212	0x3d7f0efc	0.06227015
213	0x3d3b25d9	0.04569039
214	0xbd48a2f8	-0.048983544
215	0x3d0bd564	0.034139052
216	0xbc27b940	-0.010237038
217	0xbd04cb28	-0.032420307
218	0xbe073cae	-0.13206741
219	0x3dcb65ce	0.09931527
220	0x3db4af3a	0.08822484
221	0xbe26da4c	-0.16294211
222	0x3d4e6d14	0.050396994
223	0x3babe540	0.0052458346
224	0x3dfc1752	0.123091355
225	0xbdc37ce6	-0.09545307
226	0x3d97f9c8	0.07420689
227	0x3cc47aa9	0.02398427
228	0xbdb72a42	-0.08943607
229	0x3d7541a0	0.059877038
230	0xbe4626a8	-0.19350684
231	0xbdf75182	-0.12076093
232	0x3d4220d0	0.047394574
233	0xbdf9651d	-0.12177489
234	0x3de9d2bc	0.114171475
235	0xbdd40d40	-0.1035409
236	0xbbd65205	-0.006540539
237	0xbd89d04b	-0.06729182
238	0xbdd9eb4a	-0.10640581
239	0xbd907998	-0.07054442
240	0x3d8ad97e	0.067797646
241	0xbcf26c01	-0.029592516
242	0x3d3d73fd	0.046253193
243	0x3cec1bd8	0.02882187
244	0x3df5bdc6	0.11999087
245	0xbbe99f3f	-0.0071295793
246	0xbda172fb	-0.07883259
247	0xbd09db3b	-0.03365634
248	0xbe0f1803	-0.13974003
249	0xbd99fd52	-0.0751902
250	0xbe2b4407	-0.16725169
251	0xbdaeca84	-0.085347205
252	0xbde5d8fc	-0.11223027
253	0xbe0caf6b	-0.13738792
254	0x3c4a6241	0.012352527
255	0xbd7ce314	-0.061739996

decoder.2.bias f4 [784]
0	0x3c423e91	0.011855737
1	0xbcb3d408	-0.02195169
2	0x3c514389	0.012772449
3	0xbdbfd7d6	-0.09367339
4	0xbe1327ab	-0.14370601
5	0xbd293264	-0.041307822
6	0xbe1fb575	-0.15596564
7	0xbc8d691c	-0.017262034
8	0xbd9ccfd9	-0.07656831
9	0xbe217ad3	-0.1576951
10	0xbdaae845	-0.08345083
11	0xbe0f22a9	-0.13978066
12	0xbe2d1f88	-0.1690656
13	0xbd03a96d	-0.032144
14	0xbe3fe0b8	-0.18738067
15	0xbe0abdf7	-0.13549028
16	0xbe3a67b7	-0.18203627
17	0x3cde6dd0	0.027151972
18	0x3cb018c0	0.021496177
19	0xbcf33a83	-0.029690986
20	0xbd0b77c0	-0.03404975
21	0xbe24cc8d	-0.16093655
22	0xbd1f482c	-0.038887188
23	0xbe1d0a3e	-0.15335938
24	0xbe2b5c45	-0.16734417
25	0x3cf2d8d9	0.029644417
26	0xbdb64526	-0.08899908
27	0xbe384e70	-0.17998672
28	0xbe0baa9d	-0.13639303
29	0xbd6f3f2b	-0.05840985
30	0xbb4259f9	-0.0029655679
31	0xbe426e4d	-0.18987389
32	0xbd087f0a	-0.03332428
33	0xbd89937a	-0.06717582
34	0xbb6084e8	-0.0034258906
35	0xbd9c604e	-0.07635556
36	0xbe1a283b	-0.15054409
37	0xbd74cffb	-0.059768658
38	0xbe36fc4b	-0.1786968
39	0x3bd53147	0.0065061185
40	0xbbfc1188	-0.0076925196
41	0x3b64ef12	0.0034932536
42	0x3bdb3de9	0.00669073
43	0xbdbe022f	-0.0927776
44	0xbbb19cc3	-0.005420299
45	0xbe1c73f2	-0.15278605
46	0xbe25ae6d	-0.1617982
47	0xbd854c9a	-0.06508751
48	0xbe23b505	-0.15987022
49	0xbd4c921c	-0.04994403
50	0xbe32ebfe	-0.17472836
51	0xbc76a49c	-0.015053894
52	0xbde4a3b5	-0.11164037
53	0xbd97bb9b	-0.0740883
54	0x3cc883a1	0.024476828
55	0x3cf91aa0	0.030408204
56	0xbdf88114	-0.12133995
57	0xbda7df09	-0.081968375
58	0xbdd13386	-0.102149054
59	0xbd603fdd	-0.054748405
60	0xbd171b4d	-0.03689127
61	0xbdc94dbe	-0.09829281
62	0xbda88775	-0.082289614
63	0xbe6d07c6	-0.23147497
64	0xbc8a85a3	-0.016909426
65	0xbdf56d7c	-0.11983773
66	0x3be01449	0.0068383557
67	0xbdd82eba	-0.105557874
68	0xbe24b62c	-0.16085118
69	0xbe244f30	-0.16045833
70	0xbe34c01a	-0.17651406
71	0xbe4408e0	-0.1914401
72	0xbcf479a1	-0.029843153
73	0xbdb1d56a	-0.086832836
74	0xbd1006ef	-0.035162862
75	0xbdc5698e	-0.096392736
76	0xbd66f5d8	-0.0563868
77	0xbd011821	-0.03151715
78	0x3c38918a	0.011265168
79	0xbdaff74e	-0.085920915
80	0xbe0981a9	-0.13428368
81	0xbdbfebc5	-0.09371141
82	0xbc83b91d	-0.01607948
83	0xbcba626c	-0.02275201
84	0xbd9d6297	-0.0768482
85	0xbddf0dcd	-0.10891304
86	0xbd35bbed	-0.044368673
87	0xbdd606b7	-0.104504995
88	0xbc50e135	-0.012749006
89	0xbd337bb0	-0.04381913
90	0xbe4c9b67	-0.19981156
91	0xbe001397	-0.12507473
92	0xbe015104	-0.12628561
93	0xbd2fc0a6	-0.042908333
94	0xbdb867ef	-0.09004199
95	0xbd9b84fd	-0.07593725
96	0x3d173a95	0.036921103
97	0xbe56fe5c	-0.20995468
98	0xbe04b8a2	-0.12961057
99	0xbdaa8735	-0.0832657
100	0xbd81067b	-0.06300064
101	0xbd43aafb	-0.04777048
102	0xbe36eaa5	-0.17862947
103	0xbe6e6840	-0.23281956
104	0xbe19dea3	-0.15026335
105	0xbe22e589	-0.15907873
106	0xbe2d7a45	-0.16941173
107	0xbd880ece	-0.06643449
108	0x3d48bac2	0.04900623
109	0xbddad9fd	-0.10686109
110	0xbd84df2c	-0.06487879
111	0xbda42966	-0.080157086
112	0xbe1bad6b	-0.15202872
113	0xbd2cb7ff	-0.04216766
114	0xbc6f1757	-0.014592967
115	0xbe0fa294	-0.14026862
116	0xbd103ace	-0.03521233
117	0x3d621efa	0.055205323
118	0xbda66a1b	-0.08125707
119	0xbd507347	-0.050891187
120	0xbda132c8	-0.07871014
121	0xbe242a05	-0.16031654
122	0xbe37f2f3	-0.17963772
123	0xbe09c20a	-0.13452926
124	0xbddef299	-0.108861156
125	0x3bd02b6b	0.006352832
126	0xbe86cdfa	-0.26329023
127	0xbed79521	-0.42105964
128	0xbe8c0d82	-0.27354056
129	0xbe77e21b	-0.24207346
130	0xbeac85bb	-0.33695778
131	0xbed57b00	-0.41695404
132	0xbd4cc04d	-0.04998808
133	0xbe292bd6	-0.16520628
134	0xbd8f9489	-0.07010753
135	0xbde4cf24	-0.111723214
136	0x3a20e902	0.00061382365
137	0xbe3666db	-0.17812674
138	0xbdc29002	-0.095001236
139	0xbdb32600	-0.08747482
140	0xbe005d01	-0.12535478
141	0xbdfe7795	-0.12425152
142	0xbc7ce960	-0.0154365
143	0xbde612a0	-0.11234021
144	0xbdcfd819	-0.10148639
145	0xbe35d7bb	-0.17758076
146	0x3c606088	0.01369489
147	0xbe87a51a	-0.2649315
148	0xbe124b96	-0.14286646
149	0x3ca2dd1e	0.019880828
150	0x3c6b3787	0.0143565005
151	0x3e00ad25	0.1256605
152	0x3e400128	0.18750441
153	0x3e0249ab	0.12723415
154	0xbe44409a	-0.19165269
155	0xbe9e2118	-0.30884624
156	0xbdf89a04	-0.12138751
157	0xbe9f718c	-0.31141317
158	0xbf0742b6	-0.5283617
159	0xbed8077e	-0.42193216
160	0xbebcb94d	-0.36860123
161	0xbe9742ac	-0.29543054
162	0xbce9fc15	-0.028562585
163	0xbcefb3ce	-0.029260542
164	0xbccfb952	-0.025356922
165	0xbd1fe102	-0.039032944
166	0xbe3d2bd9	-0.18473758
167	0xbddaadcc	-0.106776804
168	0x3d26f4c7	0.04076078
169	0xbdb49d04	-0.08819011
170	0xbdade15d	-0.0849025
171	0xbdb72cf3	-0.0894412
172	0xbdd09c26	-0.10186033
173	0xbd89d338	-0.0672974
174	0xbe1258cb	-0.14291684
175	0xbb88bae0	-0.004172668
176	0xbe331baf	-0.17491029
177	0x3da31d6c	0.07964596
178	0x3e8dc69d	0.27690592
179	0x3e8f7e9b	0.2802628
180	0x3ea58847	0.32330534
181	0x3eb4908d	0.35266533
182	0xbd10d380	-0.035357952
183	0xbde3a4e0	-0.11115432
184	0xbe24937e	-0.16071889
185	0xbe353e11	-0.17699458
186	0xbe376c5d	-0.17912431
187	0xbe1c6528	-0.15272963
188	0xbe6d899d	-0.23197027
189	0xbda551e8	-0.08072263
190	0xba984653	-0.0011617638
191	0xbdafbc5e	-0.0858085
192	0xbc963e01	-0.018340113
193	0xbe4c0e60	-0.19927359
194	0xbde094ac	-0.10965857
195	0xbe0da761	-0.13833381
196	0xbe001c73	-0.12510853
197	0xbbc7f010	-0.0061016157
198	0x3981b71f	0.00024741233
199	0xbe1341db	-0.1438059
200	0xbe1a4a88	-0.15067494
201	0xbdd45140	-0.1036706
202	0xbddf11bd	-0.10892055
203	0xbd5eb22e	-0.054369144
204	0x3d88d1be	0.0668063
205	0x3e97c40d	0.29641762
206	0x3eb2f031	0.34948877
207	0x3ecd4eca	0.40099174
208	0x3f0082e7	0.5019974
209	0x3e98aac0	0.29817772
210	0x3da3b968	0.07994348
211	0xbcfdf3b8	-0.031000003
212	0xbd45083e	-0.048103563
213	0x3dc07113	0.09396567
214	0x3e0202a6	0.12696323
215	0x3d6e1c24	0.058132306
216	0x3dab1876	0.08354275
217	0x3d7e723d	0.062120665
218	0x3d3afbfe	0.045650475
219	0x3ddf0851	0.10890258
220	0xbe12a0c3	-0.14319138
221	0xbb4caf12	-0.003123228
222	0xbe109884	-0.1412068
223	0xbe1652df	-0.1468005
224	0xbdd31422	-0.103065744
225	0x3ce90ff3	0.028449988
226	0xbdde9d52	-0.1086985
227	0xbe01410f	-0.12622474
228	0xbc4666b3	-0.012109446
229	0xbe213c88	-0.15745747
230	0xbe059488	-0.13044941
231	0xbcf37e46	-0.029723298
232	0x3e6d3e9d	0.23168416
233	0x3ea326bf	0.31865498
234	0x3ebe6e45	0.37193504
235	0x3e8086ad	0.2510275
236	0x3e917a34	0.28413546
237	0x3e05a6eb	0.13051955
238	0xbc8ff325	-0.017571995
239	0xbabab579	-0.0014244757
240	0xbbc9ca75	-0.006158168
241	0x3e0fd828	0.14047301
242	0x3e613d78	0.21996105
243	0x3e0783c6	0.13233861
244	0x3df6266e	0.12019049
245	0x3dcf35f1	0.101177104
246	0xbe0e04d2	-0.13869026
247	0x3cd52338	0.02601777
248	0xbe1495ef	-0.1451032
249	0xbdbeca61	-0.093159445
250	0xbe2724f3	-0.16322689
251	0x3d03b656	0.03215631
252	0x3c3288ab	0.010896842
253	0xbe2c8484	-0.16847426
254	0xbdd98eeb	-0.106229626
255	0xbdc0ce94	-0.09414402
