20220518210.pt (torch, 424079 bytes, 8 tensors)

encoder.0.weight f4 [64, 784]
0	0xbc6ddf61	-0.01451859
1	0x3cf0d2ac	0.029397331
2	0x3c9aec90	0.01891163
3	0x3c97ddbe	0.018538352
4	0xbd116b33	-0.035502624
5	0xbe765878	-0.24057186
6	0xbfe5fa0b	-1.7966932
7	0xbf3104d2	-0.6914798
8	0xbfab4be9	-1.3382541
9	0xc02e6419	-2.7248595
10	0xc06d569e	-3.7084117
11	0xc026c110	-2.6055336
12	0xc05b27a6	-3.424295
13	0xbffeb81e	-1.9899938
14	0xc0927a91	-4.5774617
15	0xc037fe0f	-2.8748815
16	0xbe650a4e	-0.22367212
17	0xbf871585	-1.0553442
18	0xbfd7d9fa	-1.6863396
19	0xbfa3f293	-1.2808403
20	0xbfc6b040	-1.5522537
21	0xbffcc1bd	-1.9746624
22	0xbf97ab5d	-1.1849171
23	0xbfa2b6fa	-1.271209
24	0xbcc10f23	-0.023566788
25	0xbbe05d4a	-0.0068470584
26	0xbaf7e401	-0.0018912555
27	0xbcc1b7ac	-0.023647152
28	0xbc8a6ce3	-0.016897624
29	0xbaf53c4a	-0.0018709984
30	0x3f8e938e	1.113878
31	0x3ee58c50	0.44833612
32	0xbfb33cdb	-1.4002947
33	0xbf40d036	-0.75317705
34	0xbfbebfb3	-1.4902252
35	0xc0897367	-4.295337
36	0xc0680075	-3.625028
37	0xc06dce6f	-3.7157247
38	0xc04e5c8c	-3.2243986
39	0xc05ecf10	-3.481388
40	0xc03433d1	-2.8156626
41	0xc04a72fc	-3.163268
42	0xbfe8c8bf	-1.8186263
43	0xbf55f0f2	-0.8357078
44	0xbfe65c31	-1.7996885
45	0xbfa72a7b	-1.3059839
46	0xbfc84d91	-1.5648671
47	0xbf8f1b46	-1.1180198
48	0xbf7aa392	-0.9790584
49	0xc026f6a5	-2.608804
50	0xc0493edd	-3.1444619
51	0xc0553bbf	-3.3317716
52	0xbf0d05b8	-0.5508685
53	0x3faf48f1	1.3694135
54	0xbaca4525	-0.0015431984
55	0xbce1f643	-0.027583247
56	0x3c83af25	0.016074726
57	0x3c6d1b25	0.014471804
58	0x3e94e8cf	0.2908387
59	0xbf026e63	-0.50949687
60	0x400dc9e5	2.2154477
61	0xc0371a2d	-2.8609726
62	0xbf16026f	-0.58597463
63	0x3d399994	0.04531248
64	0xc0288327	-2.633005
65	0xc0165de7	-2.3494813
66	0xbfa4f117	-1.2886075
67	0xbc936ff0	-0.017997712
68	0xbe669497	-0.2251762
69	0xbf6367a1	-0.8883
70	0xbf8b2939	-1.0871955
71	0x3e2c11ba	0.16803637
72	0xbeed9354	-0.46401465
73	0xbf45ef08	-0.7731786
74	0xbee627ab	-0.4495214
75	0x3d487e66	0.048948668
76	0xbe560253	-0.20899324
77	0xbeb4afce	-0.35290378
78	0xbea2393f	-0.316843
79	0xbe7a7037	-0.24456869
80	0xbfac6fcd	-1.3471619
81	0x3f4f9f10	0.81102085
82	0x3e557c06	0.20848092
83	0xbc8be6c0	-0.017077804
84	0x3d0121d8	0.031526417
85	0xbf46459a	-0.77449954
86	0xbe92592c	-0.28583658
87	0xbf4eeb75	-0.8082803
88	0xbe140d59	-0.14458217
89	0xbf7f2e1c	-0.9967973
90	0xbedbb0bc	-0.42908275
91	0x3f47d2f5	0.7805627
92	0xbe39f94a	-0.18161502
93	0x3edd1106	0.4317705
94	0xbec3d8b4	-0.3825127
95	0x3dcd8b8d	0.10036383
96	0xbda4cb45	-0.08046583
97	0x3df41176	0.11917393
98	0x3e0a7741	0.13522054
99	0xbd87a6ba	-0.066235974
100	0x3eab5cd6	0.33469266
101	0x3c08a5c7	0.008340306
102	0xbe5a4ecb	-0.2131912
103	0xbce06530	-0.027392
104	0x3d5dbd90	0.05413586
105	0xbca38bd0	-0.019964129
106	0x3e50c3d1	0.20387198
107	0xbf205038	-0.62622404
108	0xbe81f8ed	-0.25385228
109	0x3f008bc7	0.50213283
110	0xbfbca44c	-1.473764
111	0x3f8be6bf	1.0929793
112	0xbb86a9ee	-0.0041096127
113	0x3fa4be97	1.2870663
114	0xbf958413	-1.1680931
115	0x3e87fdcd	0.26560822
116	0xbfd2e7c5	-1.647698
117	0x3fb6608a	1.4248211
118	0xbec3b17d	-0.3822135
119	0x3da1dba2	0.0790322
120	0xbebb5325	-0.36586872
121	0x3e4f6635	0.20253833
122	0x3ccbd822	0.024883334
123	0x3dfe2bfe	0.124107346
124	0x3d72dadb	0.059290748
125	0x3aeb471a	0.0017950267
126	0x3e9267a8	0.28594708
127	0xbc40219a	-0.011726761
128	0x3e3326c8	0.17495263
129	0x3d1e9d7a	0.0387244
130	0xbd21f03c	-0.039535746
131	0x3e4b1e98	0.1983589
132	0xbdf02ecf	-0.11727678
133	0x3e1d0f18	0.15337789
134	0xbdb9686c	-0.0905312
135	0x3cb86392	0.022508416
136	0x3ed0f3f6	0.40811127
137	0xbfc85544	-1.5651021
138	0xbde55930	-0.11198652
139	0xbebf42b1	-0.3735557
140	0xbc606fea	-0.013698557
141	0xbef38d50	-0.4756875
142	0xbfa8e5cb	-1.3195127
143	0x3f88bbef	1.0682353
144	0xbe3ee8ce	-0.18643495
145	0xbebfcd31	-0.37461236
146	0x3dd69600	0.10477829
147	0xbe7448e2	-0.23855928
148	0x3ea651d6	0.3248431
149	0xbdded88f	-0.10881149
150	0xbe1e3ee3	-0.15453677
151	0xbd09595c	-0.033532485
152	0x3dcdda95	0.10051457
153	0x3d9ec190	0.07751763
154	0xbca783b1	-0.020448538
155	0x3b44b48c	0.003001484
156	0xbb99154b	-0.004671728
157	0x3dd23724	0.102644235
158	0x3e47dc02	0.1951752
159	0x3cf2c8e3	0.029636806
160	0xbe1453da	-0.14485112
161	0x3c9e2cf0	0.019308537
162	0xbcc7b0e7	-0.024376346
163	0x3d6770b2	0.05650396
164	0x3f0adda1	0.5424443
165	0xbf3cc23f	-0.73733896
166	0xbf06c01c	-0.52636886
167	0x3f392b35	0.72331554
168	0xbece164b	-0.40251383
169	0xbfd8ec46	-1.6947105
170	0x3fee28a6	1.8606155
171	0xbe668fff	-0.22515868
172	0x3f0c0c0c	0.5470588
173	0xbd1daa23	-0.038492333
174	0x3c2ae547	0.010430641
175	0xbd49391e	-0.049126737
176	0x3c8483a1	0.016176047
177	0xbdd6600e	-0.1046754
178	0x3df20913	0.11818137
179	0xbd7976c0	-0.060904264
180	0xbe2c6df4	-0.16838819
181	0x3da3fc3b	0.080070935
182	0xbdf39e59	-0.11895437
183	0x3d9e0fca	0.07717855
184	0x3d54a45c	0.051914558
185	0x3dd48861	0.10377575
186	0x3d7ee8d9	0.06223378
187	0x3e8c8e28	0.27452207
188	0xbd622a53	-0.055216145
189	0x3d9f59a9	0.07780773
190	0xbe89605b	-0.26831326
191	0x3dc0bea3	0.09411361
192	0xbeb6a507	-0.3567278
193	0x3e65d4ad	0.2244441
194	0xbf17dd48	-0.59322023
195	0x3f90b7c6	1.1306083
196	0x3f03bb37	0.5145754
197	0x3fb8fd66	1.4452331
198	0xbf174a90	-0.5909815
199	0x3f01b374	0.5066445
200	0xbea57766	-0.32317656
201	0x3dfa284e	0.12214719
202	0xbd845178	-0.064608514
203	0x3d4de8ee	0.050270967
204	0xbe566117	-0.20935474
205	0x3bff96f0	0.0077999756
206	0x3d770a31	0.060312454
207	0xbdb1d776	-0.08683674
208	0xbd8a15a2	-0.067424074
209	0xbd278854	-0.040901497
210	0x3d055e1d	0.032560457
211	0x3db14192	0.08655085
212	0xbde28f09	-0.11062438
213	0x3e1fdf0b	0.15612428
214	0x3d938357	0.072027855
215	0xbdbb814a	-0.09155519
216	0xbdaabd50	-0.0833689
217	0xbc0009dd	-0.007814852
218	0xbe791ed1	-0.24328162
219	0xbd235c2c	-0.039882824
220	0x3ea958b2	0.33075482
221	0xbde24981	-0.11049176
222	0xbf6f4157	-0.93459076
223	0x3f055bcc	0.52093196
224	0x3e96fe84	0.29491055
225	0x3e5e8850	0.21731687
226	0xbf4d6972	-0.8023902
227	0x3f0489e5	0.5177291
228	0xbe409d4f	-0.18810008
229	0x3e9717cb	0.2951034
230	0xbe81e916	-0.25373143
231	0x3d0f93df	0.03505313
232	0x3d805c05	0.06267551
233	0xbdc1c204	-0.09460834
234	0xbd6ab59b	-0.0573021
235	0x3e19f773	0.150358
236	0x3daae440	0.083443165
237	0xbcd37678	-0.025813326
238	0x3de4352b	0.111429535
239	0x3dbb2642	0.091381565
240	0x3e0ee328	0.1395384
241	0xba6138fb	-0.00085915596
242	0x3d7ad0b4	0.06123419
243	0x3d60b127	0.054856446
244	0x3e47e0c4	0.19519335
245	0xbdc680e5	-0.096925534
246	0x3d5e00ad	0.054199863
247	0xbea70139	-0.3261812
248	0xbe80cebc	-0.25157726
249	0xbf2163da	-0.63042986
250	0xc0164228	-2.3477879
251	0x40902da4	4.5055714
252	0x3f0c7e52	0.5488025
253	0xbe0c5a11	-0.13706233
254	0x3e7bb413	0.24580412
255	0xbc4d69e4	-0.012537453

encoder.0.bias f4 [64]
0	0x40197657	2.397848
1	0x3f0f5d0b	0.5600135
2	0xbf569a60	-0.8382931
3	0x40064327	2.0978487
4	0x40292752	2.643025
5	0xc0726dcc	-3.7879515
6	0x40055369	2.083216
7	0x3fde9544	1.7389302
8	0x3fbd8141	1.480507
9	0x3fb2547f	1.3932036
10	0x4014e383	2.3263862
11	0x400cb24f	2.198383
12	0x3fd8cbd5	1.6937205
13	0x402af8f1	2.6714442
14	0x4014f5dd	2.3275063
15	0x3fdc31f5	1.7202746
16	0x40337168	2.8037968
17	0x3fe8c828	1.8186083
18	0x3ffe8234	1.9883485
19	0xbe8e1178	-0.27747703
20	0x404bde39	3.1854384
21	0x402bbcff	2.6834104
22	0x3e78c7a9	0.24294914
23	0x3f1ee0c9	0.62061745
24	0x3ff67cee	1.9256876
25	0x400d59ce	2.2086062
26	0x3fbd4ebe	1.4789655
27	0x402756be	2.6146693
28	0xbe814ce4	-0.25253975
29	0x3f9c9c45	1.223519
30	0x3f83382c	1.0251517
31	0x3fa95b21	1.3230935
32	0x3ded0575	0.115733065
33	0x3fc46157	1.5342206
34	0x4048232b	3.1271465
35	0x3fcc2d2e	1.5951288
36	0x401550a2	2.3330464
37	0x401b1695	2.4232533
38	0x400954bf	2.1457975
39	0x3e3035da	0.17208043
40	0x3e55e7a5	0.20889147
41	0x3d14f2fc	0.03636454
42	0x3ff88e78	1.9418478
43	0x3f96be39	1.1776801
44	0x40403b6f	3.0036275
45	0x400b9561	2.1809924
46	0x3fc7c6a7	1.5607499
47	0x3ff826a7	1.9386796
48	0xbf0074be	-0.50178134
49	0xbe444906	-0.19168481
50	0xbf9e7c60	-1.2381706
51	0x4034ccd7	2.8250024
52	0x3e4d5e58	0.2005552
53	0x40030e30	2.047741
54	0x3ff203c4	1.8907399
55	0x403aaff5	2.9169896
56	0x3efd5e55	0.49486032
57	0xbf4a068d	-0.78916246
58	0x3f5dd486	0.8665241
59	0x3fc2ce1f	1.5219153
60	0x3fc2e548	1.5226221
61	0x404210d7	3.0322778
62	0x3f96f843	1.1794513
63	0x3fe08531	1.7540647

encoder.2.weight f4 [32, 64]
0	0xbecc8045	-0.39941612
1	0xbde39901	-0.111131676
2	0xbe9e6be2	-0.30941683
3	0xbeb4b531	-0.35294488
4	0xbe36c119	-0.17847098
5	0x3cb72e1b	0.022360852
6	0xbda2c504	-0.07947734
7	0x3ca36063	0.019943422
8	0x3abc9581	0.0014387817
9	0xbe2df7b0	-0.16989017
10	0xbd4543e2	-0.04816044
11	0xbeae1ce4	-0.34006417
12	0xbd138fda	-0.03602586
13	0xbe0e9b62	-0.13926461
14	0xbe9e4e2f	-0.30919024
15	0x3c221b97	0.009894273
16	0x3d846f66	0.0646656
17	0x3d4fc397	0.05072364
18	0xbdbb84a7	-0.09156161
19	0xbe3e648f	-0.18593048
20	0xbe1ba4f7	-0.15199648
21	0xbe20246a	-0.15638891
22	0xbcd8b1e2	-0.026452009
23	0xbda35f4f	-0.07977163
24	0x3d083cf8	0.03326127
25	0xbee58edc	-0.44835556
26	0xbedd085c	-0.4317044
27	0xbeba560f	-0.36393782
28	0xbed55013	-0.41662654
29	0xbdc8b793	-0.09800639
30	0xbd5826c3	-0.05277134
31	0xbeceb086	-0.40369052
32	0xbe865ed7	-0.26244232
33	0xbe32663d	-0.17421813
34	0xbe1f203e	-0.15539643
35	0xbed6b091	-0.41931584
36	0xbd5f3f9f	-0.054504033
37	0xbe147448	-0.14497483
38	0xbe27c687	-0.16384326
39	0xbedfc275	-0.43703046
40	0xbe471709	-0.19442381
41	0xbe94280e	-0.2893681
42	0x3d61a455	0.05508836
43	0xbe4c91ad	-0.19977446
44	0xbc0d8a1d	-0.008638886
45	0xbd8cbf88	-0.06872469
46	0xbef35bdf	-0.4753103
47	0xbdd8a76d	-0.10578809
48	0xbee221d4	-0.44166434
49	0xbe8ac918	-0.27106547
50	0xbe93ec56	-0.28891248
51	0xbd3cc8a1	-0.046089772
52	0xbe1fbbf2	-0.15599039
53	0xbecc2189	-0.39869335
54	0xbe904d3d	-0.28183928
55	0xbe10bd54	-0.14134723
56	0xbe80ca9f	-0.25154588
57	0xbedb2ba6	-0.4280674
58	0x3cb1fd2d	0.021727169
59	0xbcb5755d	-0.02215069
60	0xbec0573b	-0.37566552
61	0x3cac3dc6	0.02102555
62	0xbd3e6425	-0.046482224
63	0xbe380ecf	-0.17974399
64	0x3d518223	0.0511495
65	0xbb4e711b	-0.0031500522
66	0xbec0c551	-0.3765054
67	0xbd4c6d9e	-0.049909227
68	0x3cf69ce7	0.030104114
69	0xbc0a1601	-0.008428098
70	0xbe865222	-0.26234537
71	0xbce14698	-0.027499482
72	0x3d1fd990	0.039025843
73	0xbdbfaacc	-0.09358749
74	0x3d54a43a	0.05191443
75	0xbdc91d9f	-0.09820103
76	0xbcb66d8e	-0.022269037
77	0xbe327c82	-0.17430308
78	0xbe05d870	-0.13070846
79	0x3be08726	0.0068520484
80	0xbd30e7b3	-0.043189716
81	0xbd377165	-0.044785876
82	0xbd96c6e4	-0.07362154
83	0xbebffbc2	-0.37496763
84	0xbdbe849b	-0.09302636
85	0xbe1f9c20	-0.155869
86	0x3d7d5aee	0.061854295
87	0xbc58d820	-0.013235122
88	0xbe2763e4	-0.16346699
89	0xbde1641f	-0.11005425
90	0xbe09f6c0	-0.13473034
91	0xbdbef5d6	-0.09324233
92	0xbe83112f	-0.25599048
93	0xbdbbf319	-0.091772266
94	0xbe2334cc	-0.15938109
95	0xbe2d13fb	-0.16902153
96	0xbe9d883e	-0.30768007
97	0xbdb5a89f	-0.088700525
98	0xbc3646f4	-0.011125315
99	0xbdaed310	-0.08536351
100	0xbdfe69fa	-0.12422557
101	0xbe258fee	-0.16168186
102	0xbe2e6b7d	-0.17033191
103	0xbe8e326b	-0.2777284
104	0xbec31965	-0.38105312
105	0xbe9602ed	-0.29299107
106	0x3d05355f	0.0325216
107	0xbd3c4975	-0.04596849
108	0xbd9aa6d3	-0.075513504
109	0xbe2a78a0	-0.16647577
110	0xbe8e59f8	-0.27803016
111	0xbe3a1c5d	-0.18174882
112	0xbe8d1ae7	-0.27559587
113	0xbe29119c	-0.16510624
114	0xbd971aa9	-0.07378132
115	0xbd63736e	-0.055530004
116	0xbe2a277f	-0.16616629
117	0xbc8ad5a2	-0.016947571
118	0xbe393610	-0.1808703
119	0xbe04985e	-0.12948748
120	0xbec519f0	-0.3849635
121	0xbe93e0b8	-0.28882384
122	0x3bf71e7e	0.0075414767
123	0xbe010c22	-0.12602285
124	0xbe2f84ab	-0.17140453
125	0xbdccd078	-0.100007
126	0xbe0f2959	-0.13980617
127	0x3cadbc6a	0.021208007
128	0x3f23da65	0.6400512
129	0x3e650be8	0.22367823
130	0x3c9192a3	0.017770117
131	0x3b9d9a7e	0.0048096767
132	0xbee277fb	-0.44232163
133	0x3d11af30	0.035567462
134	0x3e283070	0.16424727
135	0x3d283b26	0.041072033
136	0x3bd476d7	0.0064838934
137	0x3cfc0582	0.030764345
138	0xbf3539af	-0.70791143
139	0x39f5bddb	0.00046871495
140	0xc007fdd8	-2.1248684
141	0x39f776d7	0.00047200054
142	0xbd37f7e6	-0.04491415
143	0x3f138aea	0.5763384
144	0x3e638eac	0.22222394
145	0xbecdc17a	-0.40186673
146	0x3d33a1e0	0.043855548
147	0x3dc11cf6	0.09429352
148	0xbfb796a2	-1.4342844
149	0xbe27664c	-0.16347617
150	0xbdeb6f83	-0.114958785
151	0x3b1134e0	0.002215676
152	0x3d6b3051	0.057419125
153	0xbb0c525f	-0.0021411402
154	0xba548e36	-0.0008108349
155	0x39a35483	0.0003115275
156	0x3d4982d2	0.049197026
157	0xbfcfe979	-1.6243125
158	0xbe4c90aa	-0.1997706
159	0x3be058e3	0.0068465336
160	0xb9bbf3c9	-0.00035849054
161	0xbd00536a	-0.03132955
162	0xbfcd0600	-1.6017456
163	0x3daef44b	0.08542689
164	0xbf67ae01	-0.90499884
165	0xbf0a7d0b	-0.5409705
166	0xbdb77033	-0.08956947
167	0x3b4e4edd	0.0031480112
168	0xbd0aa441	-0.03384805
169	0xbdfbf95f	-0.12303423
170	0xbcf5f547	-0.030024184
171	0xbd608595	-0.054814894
172	0x3c8e1d0e	0.017347839
173	0xbdac3915	-0.08409325
174	0x3e83aeb9	0.2571924
175	0xbe8ceb5f	-0.27523324
176	0x3c2e22e2	0.010628434
177	0xbca364a7	-0.019945456
178	0x3c335673	0.010945904
179	0xbe0c7f46	-0.13720426
180	0x3e3ec118	0.18628347
181	0xbc9defd3	-0.019279396
182	0x3d58066f	0.05274051
183	0xbea14428	-0.31497312
184	0x3ca6b92e	0.020351972
185	0x3c83ab93	0.016073024
186	0x3b4ace81	0.003094584
187	0xbe64cad1	-0.22342993
188	0x3d979c85	0.074029006
189	0x3cabc31e	0.020967063
190	0xbbdba95f	-0.00670354
191	0xbd7f406b	-0.062317293
192	0x3dcda5f0	0.10041416
193	0x3e1dbc4f	0.15403865
194	0x3d0c30d7	0.034226265
195	0x3c31d465	0.010853861
196	0x3e2e59dd	0.17026468
197	0xbd46f3e8	-0.04857245
198	0x3e566feb	0.20941131
199	0x3f2c47ca	0.6729704
200	0xbb95c0f0	-0.004570119
201	0xbd0ede7d	-0.03488015
202	0xbe09dd7e	-0.13463399
203	0x3e618ce0	0.22026396
204	0xc03e0465	-2.9690182
205	0x3d51342b	0.051075142
206	0xbd7667f3	-0.060157727
207	0x3e45f94b	0.19333379
208	0x3cea4869	0.028598981
209	0x3e837471	0.25674775
210	0xbc0e32e0	-0.008679122
211	0xbd9a84fe	-0.075448975
212	0x3da31c9e	0.07964443
213	0xbd9f746e	-0.07785879
214	0xbd4a72da	-0.049425937
215	0xbd2deba9	-0.04246107
216	0x3da3e475	0.08002559
217	0x3d61ac2f	0.055095848
218	0x3d708f03	0.058730137
219	0x3e0a3ec8	0.13500512
220	0x3a5d497f	0.0008441433
221	0xc0273419	-2.6125548
222	0x3e9ec266	0.3100769
223	0xbca258e4	-0.019817777
224	0xbda0c08e	-0.07849227
225	0x3d94bf44	0.072630435
226	0xc0456bb3	-3.0846984
227	0xbd539561	-0.05165613
228	0xbf878d79	-1.0590049
229	0x3dedacc6	0.116052195
230	0xbd0a5d29	-0.03378025
231	0x3c133ab8	0.008986168
232	0x3a2b0da7	0.00065251667
233	0xbcc9b098	-0.02462034
234	0xbe19cc78	-0.15019405
235	0xbd1492d9	-0.036272857
236	0xbe14d1ff	-0.14533232
237	0x3e231c82	0.15928844
238	0x3d94c6db	0.07264491
239	0xbcbb72f5	-0.022881964
240	0x3d8774c6	0.0661407
241	0x3d25586e	0.040367536
242	0xbd3fc460	-0.046818137
243	0xbefdae02	-0.4954682
244	0x3eab87e9	0.3350213
245	0x3d9fe772	0.078078166
246	0x3c94bcbb	0.0181564
247	0xbdf1cfce	-0.11807214
248	0xbce521a0	-0.027970135
249	0x3bc2754e	0.005934394
250	0x3de0a4c3	0.10968926
251	0x3ea376e2	0.31926638
252	0xbcb71ea8	-0.022353485
253	0x3e1d5622	0.15364888
254	0x3d915113	0.07095542
255	0x3c9ae68b	0.01890876

encoder.2.bias f4 [32]
0	0xbea5956f	-0.3234057
1	0xbe7eb659	-0.24874248
2	0x3f192969	0.5982881
3	0x3f7fdde6	0.99947965
4	0x3f7ea1da	0.99465716
5	0x3ccc126b	0.024911126
6	0xbd8ae757	-0.06782406
7	0xbf1ae7d5	-0.6051
8	0xbed269ed	-0.4109644
9	0xbed5d30e	-0.41762584
10	0x3f7f8045	0.998051
11	0x3ec51271	0.38490632
12	0xbd85d65f	-0.06535029
13	0xbd9e30da	-0.077241614
14	0x3f427c8c	0.75971293
15	0x3bd94afb	0.006631253
16	0xbe2156df	-0.15755795
17	0x3d3ab110	0.045579016
18	0x3f368bf4	0.713073
19	0x3eb426a4	0.3518573
20	0xbe0c1b96	-0.13682398
21	0xbdcc6273	-0.09979715
22	0x3e9fe6d4	0.31230795
23	0xbd6bae42	-0.057539232
24	0x3f5e6eed	0.8688801
25	0xbe6ab756	-0.229215
26	0x3f610400	0.8789673
27	0x3efbe4e1	0.49198058
28	0x3d254f36	0.040358745
29	0x3e62839e	0.2212052
30	0x3ef86672	0.4851566
31	0x3f3f6866	0.74768674

decoder.0.weight f4 [64, 32]
0	0xbe81b3f1	-0.25332597
1	0xbe922c7c	-0.28549564
2	0xbeb7f8f8	-0.35932136
3	0xbe8ae9e6	-0.27131575
4	0xbeb7f1fa	-0.359268
5	0xbe93c36f	-0.28860041
6	0xbdf4c1d6	-0.11951034
7	0xbdddd095	-0.108307995
8	0x3ed2bf4b	0.4116157
9	0xbd16b11a	-0.03678999
10	0xbde4d54d	-0.111734964
11	0xbee8fbf7	-0.45504734
12	0xbe94f382	-0.29092032
13	0x3d92c902	0.071672454
14	0xbedc30fd	-0.43006125
15	0xbee802e7	-0.45314714
16	0xbd98fa53	-0.074696206
17	0xbeb496f5	-0.3527142
18	0xbe5a56c7	-0.21322165
19	0xbea2bfee	-0.31787056
20	0xbe51aaf2	-0.20475367
21	0xbebfaf1e	-0.3743829
22	0xbead6a3e	-0.3387012
23	0xbed9bbd7	-0.42526123
24	0x3e9acb77	0.30233356
25	0x3ed0a8f8	0.40753913
26	0x3edb20f3	0.42798576
27	0xbeb837bd	-0.35980025
28	0x3e6bffae	0.23046753
29	0xbece5862	-0.40301806
30	0xbe5bb23e	-0.21454713
31	0x3e233e2f	0.1594169
32	0xbe921136	-0.28528756
33	0xbe6d988f	-0.23202728
34	0xbd28f904	-0.041253105
35	0x3e3f628e	0.1868994
36	0x3d306fbd	0.043075312
37	0xbc3262d7	-0.010887823
38	0xbe70e1ec	-0.23523682
39	0xbc8e8191	-0.017395766
40	0x3e91b7df	0.28460595
41	0x3d50d873	0.050987672
42	0x3c42a029	0.0118790055
43	0x3e384c38	0.17997825
44	0x3cdac6f8	0.026706204
45	0xbdf01c0d	-0.117241
46	0xbdc223ac	-0.0947946
47	0xbdb8ae0d	-0.090175726
48	0x3c5acb9d	0.013354209
49	0xbc814eba	-0.01578461
50	0xbd88c603	-0.06678393
51	0x3efdfe9c	0.49608314
52	0xbe7a4314	-0.24439651
53	0xbe164344	-0.14674097
54	0x3c45b837	0.012067846
55	0xbe3c4fb4	-0.1838978
56	0x3df941c6	0.121707484
57	0x3d4c1a9a	0.049830057
58	0x3d5a405a	0.053284027
59	0xbd66fe85	-0.056395072
60	0x3e0f5af2	0.13999537
61	0x3dd52c77	0.104088716
62	0x3e1b0e57	0.15142189
63	0xbc7d1c26	-0.015448606
64	0x3e1003f2	0.14064005
65	0x3ca67bee	0.020322766
66	0xbb2c8c73	-0.0026328831
67	0xbde5909c	-0.11209223
68	0x3be6d4ba	0.007044402
69	0x3e62b454	0.22139102
70	0x3e05d602	0.13069919
71	0x3e3d0928	0.18460524
72	0xbe352288	-0.17688954
73	0xbd488fe2	-0.048965342
74	0xbd5d66e9	-0.05405322
75	0xbd5dd4aa	-0.05415789
76	0x3df09654	0.11747423
77	0xbc85c30a	-0.016328353
78	0xbd9becb8	-0.0761351
79	0xbddaea15	-0.10689179
80	0xbe1dc99a	-0.15408936
81	0x3e13f558	0.1444906
82	0xbdab9e7f	-0.0837984
83	0x3d5b9546	0.053609155
84	0xbd412a96	-0.047159754
85	0x3e4abffc	0.19799799
86	0xbe4b6d99	-0.19866027
87	0x3e58784a	0.21139637
88	0x3d2a00b1	0.041504566
89	0x3d608d09	0.054822
90	0x3f216a0a	0.6305243
91	0xbe1a84bd	-0.15089698
92	0xbe08ea6d	-0.13370676
93	0xbe08c7ce	-0.1335747
94	0x3c6cbfc8	0.014450021
95	0x3da82be3	0.08211496
96	0xbdbfc36a	-0.09363444
97	0x3d8b3c67	0.0679863
98	0xbbba0134	-0.005676413
99	0xbe72d9e7	-0.23715936
100	0xbdef6843	-0.11689808
101	0xbe0afafc	-0.13572305
102	0xbe3b7c4b	-0.18309133
103	0x3df34c9b	0.11879846
104	0x3e2db716	0.16964373
105	0x3de66024	0.11248806
106	0x3d4dba15	0.05022629
107	0xbde7683d	-0.11299179
108	0xbe2229e4	-0.15836293
109	0xbe21c636	-0.15798268
110	0xbdd6fe8c	-0.1049777
111	0x3d899e8d	0.06719694
112	0x3ca98845	0.020694861
113	0xbdc085d4	-0.09400526
114	0xbe22c143	-0.15894036
115	0x3cdfa96f	0.027302472
116	0xbd515de7	-0.051114943
117	0xbdb338e8	-0.087510884
118	0x3e3afddf	0.18260907
119	0xbe6aba5b	-0.22922651
120	0x3d56d3f1	0.052448217
121	0xbcc824f6	-0.024431687
122	0x3e37707b	0.17914002
123	0x3d640546	0.05566909
124	0x3e2fbdfd	0.17162319
125	0xbe705cac	-0.23472852
126	0xbde41cf4	-0.11138335
127	0xbd1d4670	-0.038397253
128	0xbdd5f145	-0.10446409
129	0xbe88e4cb	-0.26737055
130	0xbded747b	-0.115944825
131	0xbe174c35	-0.14775164
132	0xbe48ea4b	-0.19620626
133	0xbda9eb73	-0.082968615
134	0xbe6ffe21	-0.23436786
135	0x3db79aca	0.089650705
136	0x3cd87ddb	0.0264272
137	0x3e0fec91	0.14055087
138	0xbccb0204	-0.024781235
139	0xbda25d7f	-0.07927989
140	0xbe201609	-0.15633406
141	0xbe64387a	-0.22287169
142	0x3ce9d810	0.02854541
143	0xbe5afb39	-0.21384896
144	0x3da3ef35	0.080046095
145	0xbe467788	-0.19381535
146	0xbe4fe494	-0.2030204
147	0xbe0d4116	-0.1379436
148	0x3d8d46cc	0.06898269
149	0xbe317336	-0.17329106
150	0xbdad01c3	-0.08447602
151	0xbd5d6bf0	-0.054058015
152	0xbe0377e4	-0.12838703
153	0xbd7ab88f	-0.061211165
154	0x3d8d99e4	0.06914118
155	0x3e60685c	0.2191481
156	0x3e6a18ad	0.22860976
157	0xbe4c70f1	-0.19964959
158	0xbdd01bdc	-0.10161564
159	0xbd842113	-0.06451621
160	0xbda7bfea	-0.081909016
161	0xbe90659e	-0.28202528
162	0xbe8e72f8	-0.2782209
163	0xbea57312	-0.32314354
164	0xbeba23c3	-0.3635541
165	0xbead560e	-0.33854717
166	0x3bc78dc9	0.0060899
167	0xbe245842	-0.16049293
168	0x3e87c768	0.26519322
169	0x3dd8ffb1	0.10595644
170	0xbe794df7	-0.24346147
171	0xbe5e1ff0	-0.2169187
172	0xbc995e9e	-0.018721875
173	0xbc10d9f2	-0.008841025
174	0x3d0fe41a	0.035129644
175	0xbed69cd5	-0.41916528
176	0xbc888cc6	-0.016668689
177	0xbe9a4315	-0.30129305
178	0xbe6f5adc	-0.23374504
179	0xbe976ef5	-0.2957684
180	0xbee0fdf6	-0.43943757
181	0xbe953071	-0.2913852
182	0xbe7801dc	-0.2421946
183	0xbda5b68d	-0.080914594
184	0xbe4659fc	-0.19370264
185	0x3e8a3521	0.2699366
186	0xbeb5e9f8	-0.35530066
187	0xbea37e07	-0.3193209
188	0x3e78f0af	0.24310564
189	0xbe7c42d4	-0.24634868
190	0xbed86262	-0.4226256
191	0x3e0338a9	0.12814583
192	0x3db0fd73	0.086420916
193	0xbdce4060	-0.10070872
194	0xbe1a1e35	-0.15050586
195	0xbd9172e7	-0.07101994
196	0xbf8a9607	-1.0827035
197	0xbe122f24	-0.14275795
198	0x3de50042	0.1118169
199	0xbe19dacd	-0.15024872
200	0x3d06098a	0.03272394
201	0x3de36499	0.11103172
202	0xbe22b1fa	-0.15888205
203	0xbcc45cc5	-0.023970017
204	0xbe252c55	-0.16130193
205	0xbeb2a382	-0.34890372
206	0x3e1c1dca	0.15245739
207	0x3e0a2e3e	0.13494202
208	0xbe33f303	-0.1757317
209	0x3df21ec9	0.11822278
210	0x3d260ec6	0.040541433
211	0xbc4de6c0	-0.012567222
212	0xbd7f1660	-0.062277198
213	0x3b9353f9	0.0044960943
214	0xbb11eee4	-0.0022267634
215	0x3e3a7844	0.1820994
216	0xbb7e7efc	-0.0038833013
217	0x3d8aeda5	0.06783608
218	0xbd81e636	-0.063427374
219	0xbd5b8376	-0.053592168
220	0xbd772664	-0.060339347
221	0xbe0d8ea8	-0.1382395
222	0x3f02f662	0.511572
223	0xbe5de965	-0.21671064
224	0xbe890bae	-0.26766723
225	0xbe9d61d3	-0.30738696
226	0x3ca37f92	0.019958291
227	0xbd19fee4	-0.0375966
228	0xbd267061	-0.040634517
229	0xbd64f593	-0.05589826
230	0xbdbf1143	-0.09329464
231	0xbeab37a7	-0.33440897
232	0x3e296165	0.1654106
233	0x3e13051b	0.14357416
234	0x3d8236c4	0.06358102
235	0xbdb9622a	-0.090519264
236	0xbe737439	-0.23774804
237	0xbdc0ed24	-0.09420231
238	0x3cab7b48	0.020932809
239	0xbea8d5a0	-0.32975483
240	0x3e91f5fe	0.2850799
241	0xbd4758ab	-0.048668545
242	0x3ee898c4	0.4542905
243	0x3e31fcc2	0.17381576
244	0xbd9b2d01	-0.07576943
245	0xbea2fea7	-0.3183491
246	0x3d4c4d74	0.049878553
247	0xbe313508	-0.17305386
248	0x3c942efe	0.018088814
249	0x3e338451	0.17530943
250	0x3dc7f4c4	0.09763482
251	0x3b0e7bdc	0.0021741306
252	0x3cfa425f	0.030549226
253	0x3cb51b74	0.022107817
254	0xbd5d8dfc	-0.054090485
255	0x3ea18b74	0.31551707

decoder.0.bias f4 [64]
0	0xbe684050	-0.22680783
1	0xbe2bbcb3	-0.16771202
2	0x3df2aee4	0.11849764
3	0xbdec4df2	-0.115383044
4	0x3a877468	0.0010334374
5	0xbe609b82	-0.21934322
6	0x3e098b6d	0.13432093
7	0xbdc367d5	-0.09541289
8	0x3dbea925	0.093096055
9	0xbe1cfbf3	-0.15330486
10	0x3c187338	0.009304814
11	0xbd444899	-0.047920797
12	0x3d4cb59e	0.04997789
13	0xbe03c56a	-0.12868276
14	0xbd8ae82d	-0.06782565
15	0xbe5d0930	-0.21585536
16	0xbd4ba565	-0.04971828
17	0xbb996898	-0.004681658
18	0xbe4e96db	-0.20174734
19	0xbd1f0da3	-0.038831364
20	0x3bf27a6c	0.0073998477
21	0xbd3fd864	-0.046837226
22	0x3e426413	0.18983488
23	0xbda623a5	-0.081122674
24	0xbeef20d1	-0.46704724
25	0xbe55ef6a	-0.2089211
26	0xbe3a5bc0	-0.18199062
27	0xbebc0e06	-0.3672945
28	0xbee1fce2	-0.44138247
29	0x3e3c42c8	0.1838485
30	0xbc0bb44a	-0.008526871
31	0xbe802b43	-0.25033006
32	0xbdbcdfde	-0.09222387
33	0x3d573d84	0.0525489
34	0xbdd0c404	-0.10193637
35	0x3e88bdaf	0.26707217
36	0x3e1eaf08	0.15496457
37	0xbe37c363	-0.17945628
38	0x3c41d40c	0.011830341
39	0xbdc817a7	-0.09770136
40	0xbe5e8bce	-0.21733019
41	0xbdaa7eaa	-0.083249405
42	0x3c615e9f	0.01375547
43	0x3dbc7043	0.092011
44	0x3e627505	0.22114952
45	0xbda62592	-0.08112635
46	0x3d687e20	0.056760907
47	0x3e758840	0.23977757
48	0xbe76825d	-0.24073167
49	0xbdf2d971	-0.1185788
50	0x3dcc292e	0.09968792
51	0xbdb2483d	-0.087051846
52	0xbe42657b	-0.18984024
53	0x3bca2e79	0.0061700908
54	0xbecc5e5d	-0.39915743
55	0xbbfcec1c	-0.007718576
56	0xbe17d3e4	-0.14826924
57	0x3e32235a	0.17396298
58	0xbce16b5a	-0.02751701
59	0xbe8b051e	-0.27152342
60	0x3e89c571	0.26908448
61	0x3e117ebb	0.142085
62	0x3df0379f	0.11729359
63	0xbc166b86	-0.009180909

decoder.2.weight f4 [784, 64]
0	0x3df6bfe0	0.12048316
1	0xbd92d7de	-0.0717008
2	0x3ce40c08	0.027837768
3	0xbd7fffac	-0.062499687
4	0xbd9d605a	-0.07684393
5	0xbcf92a20	-0.030415595
6	0x3d40b170	0.047044218
7	0xbd8ca4b2	-0.06867351
8	0x3bb8b728	0.0056370683
9	0xbd807f12	-0.06274237
10	0xbe1e7700	-0.15475082
11	0xbd991490	-0.07474625
12	0xbbdac1f1	-0.0066759516
13	0x3c852e1f	0.016257344
14	0x3d212d0f	0.03934961
15	0xbdd9cd2a	-0.10634835
16	0xbab4b556	-0.0013786952
17	0xbdede4a6	-0.11615877
18	0xbd004f94	-0.03132589
19	0xbddf52c7	-0.109044604
20	0xbd41c8a8	-0.0473105
21	0xbe0f23a0	-0.13978434
22	0xbd98b2d7	-0.07455986
23	0xbdce2d3f	-0.10067224
24	0x3d608410	0.054813445
25	0xbc1bb390	-0.00950326
26	0xbe1ac14a	-0.15112796
27	0x3d924336	0.07141726
28	0x3c02c870	0.007982358
29	0xbc9ddadc	-0.0192694
30	0xbdab444e	-0.083626375
31	0xbd9ebfa4	-0.07751396
32	0x3c170900	0.009218454
33	0xbd214738	-0.03937456
34	0xbdd02cca	-0.10164793
35	0xbe095187	-0.13410006
36	0xbe28f1f3	-0.16498546
37	0xbc31e84c	-0.010858607
38	0xbe195084	-0.1497212
39	0xbe0ebfc6	-0.13940343
40	0xbdd58d46	-0.104273364
41	0xbdfb8d33	-0.12282791
42	0xbd98d90a	-0.07463272
43	0x3da28898	0.079362094
44	0xbd307cd2	-0.043087788
45	0xbe21bfb8	-0.15795791
46	0xbb974ae0	-0.00461708
47	0x3cd09998	0.025463864
48	0xbcb7af10	-0.022422343
49	0xbdc7e2fd	-0.097600915
50	0xbe402222	-0.1876302
51	0xbd590d6a	-0.05299131
52	0xbd555f6c	-0.052092955
53	0xbd23bca4	-0.039974824
54	0x3caa12a8	0.02076085
55	0x3ddeb5fc	0.108745545
56	0xbd19d024	-0.037552014
57	0xbc93e242	-0.018052224
58	0x3d0db884	0.034599796
59	0xbda6d0e6	-0.08145313
60	0x3d9b8d6e	0.07595335
61	0xbd2a51de	-0.04158198
62	0xbe29f800	-0.1659851
63	0xbd9c0d76	-0.07619755
64	0x3d8e9ad4	0.06963125
65	0x3c621316	0.013798496
66	0xbda909c0	-0.08253813
67	0x3da8f35c	0.08249542
68	0xbdfdfcc8	-0.1240173
69	0xbd73a3a4	-0.05948223
70	0xbd353804	-0.044242874
71	0xbcab09c2	-0.020878676
72	0xbe421a2f	-0.18955301
73	0x3c245274	0.010029424
74	0xbc9dc4fc	-0.019258969
75	0xbd3089c9	-0.043100152
76	0xbd4419b6	-0.047876082
77	0xbe4efd5f	-0.20213841
78	0xbcdf0142	-0.02722228
79	0x39723c00	0.0002310127
80	0xbe44f5dc	-0.19234413
81	0x3cf6f4d0	0.030146033
82	0xbd088100	-0.03332615
83	0xbe0e7f82	-0.13915828
84	0xbd7c0b4c	-0.06153421
85	0xbdb94256	-0.09045856
86	0xbd5323a3	-0.051547658
87	0xbcdeefcf	-0.027213959
88	0xbd8d35d6	-0.06895034
89	0xbc20e440	-0.009820044
90	0x3d41d796	0.04732474
91	0xbd93aede	-0.07211088
92	0x3d13eb44	0.03611304
93	0xbcb50e90	-0.02210167
94	0x3cd781e7	0.02630706
95	0x3da23280	0.07919788
96	0x3c806afe	0.015676018
97	0xbd7188a4	-0.0589682
98	0xbdf61052	-0.120148316
99	0xbc87b395	-0.016565124
100	0xbafe20eb	-0.0019388472
101	0xbd0506a0	-0.03247702
102	0xbda9e43b	-0.08295485
103	0xbe0da109	-0.13830961
104	0xbd90f378	-0.07077688
105	0x3d2826e2	0.041052707
106	0xbd83c6a6	-0.064343736
107	0x3d0fe148	0.035126954
108	0xbd1d6394	-0.038425043
109	0x3c382b3c	0.011240777
110	0x3db0d94a	0.086351946
111	0xbd15a235	-0.036531646
112	0xbb37f240	-0.0028067976
113	0xbd184273	-0.037172746
114	0xbe1b5c30	-0.15171885
115	0xbd2fa6e7	-0.04288378
116	0x3bebe6e0	0.0071991533
117	0xbe118b00	-0.1421318
118	0xbcb3c492	-0.021944318
119	0xbe314897	-0.17312847
120	0xbe2fbe71	-0.17162491
121	0xbd50db12	-0.05099017
122	0x3b4518d1	0.0030074606
123	0xbd0f3d89	-0.034970794
124	0x3c47cee8	0.012195326
125	0xbd3dbfbd	-0.046325434
126	0xbd664501	-0.05621815
127	0xbe098a7e	-0.13431737
128	0x3de253e4	0.11051157
129	0xbe744e14	-0.2385791
130	0xbdd9ce9c	-0.10635111
131	0x3de02314	0.109441906
132	0xbd77e510	-0.060521185
133	0xbd06c284	-0.03290035
134	0x3dac548c	0.084145635
135	0x3c32a461	0.010903449
136	0xbe2a91bd	-0.16657157
137	0xbdb7ebcd	-0.08980522
138	0x3d888508	0.06665999
139	0xbcab04e8	-0.020876363
140	0xbd331426	-0.043720387
141	0xbda046ca	-0.07826002
142	0xbc861534	-0.016367532
143	0x3c8e6ff8	0.017387375
144	0x3d06fcd3	0.032955956
145	0x3d237898	0.03990993
146	0x3b852060	0.0040626973
147	0xbd5d1af2	-0.053980775
148	0xbdad0ecc	-0.08450088
149	0xbe2fc32a	-0.17164293
150	0xbd82f9a8	-0.063952744
151	0xbc3248a0	-0.010881573
152	0x3d84ea88	0.06490046
153	0xbccb1658	-0.024790928
154	0xbd83659a	-0.06415863
155	0xbc38b5a0	-0.0112737715
156	0xbd94c0ba	-0.07263322
157	0xbc7511e8	-0.014957882
158	0xbe0baf9c	-0.13641208
159	0xbd844d38	-0.06460041
160	0x3da8a53c	0.08234641
161	0x3d56a3c8	0.052402288
162	0xbd337c14	-0.043819502
163	0xbe1624e8	-0.14662516
164	0xbe012781	-0.12612726
165	0xbc965a58	-0.018353626
166	0xbe424668	-0.1897217
167	0x3d9c350e	0.07627307
168	0x3d6f98e0	0.058495402
169	0xbddf9491	-0.10917009
170	0x3cf37100	0.029716969
171	0xbdc9b17e	-0.09848307
172	0xbce4a2fc	-0.027909748
173	0x3d0c7ace	0.034296803
174	0x3db78b34	0.08962098
175	0xba960700	-0.0011446178
176	0x3d193ce9	0.037411604
177	0x3d987de4	0.07445887
178	0xbe0cadfe	-0.13738248
179	0xbdded661	-0.10880733
180	0xbd4d8710	-0.050177634
181	0x3dafba34	0.08580437
182	0x3c978f30	0.018500894
183	0xbcd68528	-0.02618654
184	0x3d7f53e0	0.06233585
185	0xbe1a8411	-0.15089442
186	0xbdbcc6ee	-0.0921763
187	0x3de6658a	0.11249836
188	0xbd86c215	-0.06579987
189	0xbe0a0a86	-0.13480577
190	0xbe3513c2	-0.17683318
191	0xbd9878cc	-0.07444915
192	0xbcf491b8	-0.02985464
193	0xbb196580	-0.0023406446
194	0xbbfc0f0f	-0.007692225
195	0x3def9708	0.11698729
196	0xbdf9ba1c	-0.12193701
197	0x3dbf651a	0.093454555
198	0x3d56ac94	0.052410677
199	0xbded5c3d	-0.11589859
200	0xbe327111	-0.17425944
201	0xbe440d70	-0.19145751
202	0xbd46c770	-0.048530042
203	0xbb5d3dfe	-0.0033758874
204	0xbe0cacc5	-0.13737781
205	0x3bcbb7a0	0.006216958
206	0x3d17c363	0.03705157
207	0xbda8963a	-0.082317784
208	0xbdd70b57	-0.1050021
209	0xbdcfb502	-0.101419464
210	0xbe40eb94	-0.18839866
211	0xbcd9988a	-0.026561994
212	0x3d7f0efc	0.06227015
213	0x3d3b25d9	0.04569039
214	0xbd48a2f8	-0.048983544
215	0x3d0bd564	0.034139052
216	0xbc27b940	-0.010237038
217	0xbd04cb28	-0.032420307
218	0xbe073cae	-0.13206741
219	0x3dcb65ce	0.09931527
220	0x3db4af3a	0.08822484
221	0xbe26da4c	-0.16294211
222	0x3d4e6d14	0.050396994
223	0x3babe540	0.0052458346
224	0x3dfc1752	0.123091355
225	0xbdc37ce6	-0.09545307
226	0x3d97f9c8	0.07420689
227	0x3cc47aa9	0.02398427
228	0xbdb72a42	-0.08943607
229	0x3d7541a0	0.059877038
230	0xbe4626a8	-0.19350684
231	0xbdf75182	-0.12076093
232	0x3d4220d0	0.047394574
233	0xbdf9651d	-0.12177489
234	0x3de9d2bc	0.114171475
235	0xbdd40d40	-0.1035409
236	0xbbd65205	-0.006540539
237	0xbd89d04b	-0.06729182
238	0xbdd9eb4a	-0.10640581
239	0xbd907998	-0.07054442
240	0x3d8ad97e	0.067797646
241	0xbcf26c01	-0.029592516
242	0x3d3d73fd	0.046253193
243	0x3cec1bd8	0.02882187
244	0x3df5bdc6	0.11999087
245	0xbbe99f3f	-0.0071295793
246	0xbda172fb	-0.07883259
247	0xbd09db3b	-0.03365634
248	0xbe0f1803	-0.13974003
249	0xbd99fd52	-0.0751902
250	0xbe2b4407	-0.16725169
251	0xbdaeca84	-0.085347205
252	0xbde5d8fc	-0.11223027
253	0xbe0caf6b	-0.13738792
254	0x3c4a6241	0.012352527
255	0xbd7ce314	-0.061739996

decoder.2.bias f4 [784]
0	0x3c423e91	0.011855737
1	0xbcb3d408	-0.02195169
2	0x3c514389	0.012772449
3	0xbdbfd7d6	-0.09367339
4	0xbe1327ab	-0.14370601
5	0xbd293264	-0.041307822
6	0xbe1fb575	-0.15596564
7	0xbc8d691c	-0.017262034
8	0xbd9ccfd9	-0.07656831
9	0xbe217ad3	-0.1576951
10	0xbdaae845	-0.08345083
11	0xbe0f22a9	-0.13978066
12	0xbe2d1f88	-0.1690656
13	0xbd03a96d	-0.032144
14	0xbe3fe0b8	-0.18738067
15	0xbe0abdf7	-0.13549028
16	0xbe3a67b7	-0.18203627
17	0x3cde6dd0	0.027151972
18	0x3cb018c0	0.021496177
19	0xbcf33a83	-0.029690986
20	0xbd0b77c0	-0.03404975
21	0xbe24cc8d	-0.16093655
22	0xbd1f482c	-0.038887188
23	0xbe1d0a3e	-0.15335938
24	0xbe2b5c45	-0.16734417
25	0x3cf2d8d9	0.029644417
26	0xbdb64526	-0.08899908
27	0xbe384e70	-0.17998672
28	0xbe0baa9d	-0.13639303
29	0xbd6f3f2b	-0.05840985
30	0xbb4259f9	-0.0029655679
31	0xbe426e4d	-0.18987389
32	0xbd087f0a	-0.03332428
33	0xbd89937a	-0.06717582
34	0xbb6084e8	-0.0034258906
35	0xbd9c604e	-0.07635556
36	0xbe1a283b	-0.15054409
37	0xbd74cffb	-0.059768658
38	0xbe36fc4b	-0.1786968
39	0x3bd53147	0.0065061185
40	0xbbfc1188	-0.0076925196
41	0xbd79d217	-0.060991373
42	0x3bdb3de9	0.00669073
43	0xbdbe022f	-0.0927776
44	0xbd0629f7	-0.032754865
45	0xbe1c73f2	-0.15278605
46	0xbe25ae6d	-0.1617982
47	0xbd854c9a	-0.06508751
48	0xbe23b505	-0.15987022
49	0xbd4c921c	-0.04994403
50	0xbe32ebfe	-0.17472836
51	0xbc76a49c	-0.015053894
52	0xbde4a3b5	-0.11164037
53	0xbd97bb9b	-0.0740883
54	0x3cc883a1	0.024476828
55	0x3cf91aa0	0.030408204
56	0xbdf88114	-0.12133995
57	0xbda7df09	-0.081968375
58	0xbdd13386	-0.102149054
59	0xbd603fdd	-0.054748405
60	0xbd171b4d	-0.03689127
61	0xbdc94dbe	-0.09829281
62	0xbda88775	-0.082289614
63	0xbe6d07c6	-0.23147497
64	0xbc8a85a3	-0.016909426
65	0xbdf56d7c	-0.11983773
66	0x3be01449	0.0068383557
67	0xbdd82eba	-0.105557874
68	0xbe24b62c	-0.16085118
69	0xbe7e73c8	-0.24848855
70	0xbe34c01a	-0.17651406
71	0xbe7ca4d5	-0.24672253
72	0xbcf479a1	-0.029843153
73	0xbdb1d56a	-0.086832836
74	0xbd1006ef	-0.035162862
75	0xbdc5698e	-0.096392736
76	0xbd66f5d8	-0.0563868
77	0xbd011821	-0.03151715
78	0x3c38918a	0.011265168
79	0xbdaff74e	-0.085920915
80	0xbe0981a9	-0.13428368
81	0xbdbfebc5	-0.09371141
82	0xbc83b91d	-0.01607948
83	0xbd6a6219	-0.05722246
84	0xbd9d6297	-0.0768482
85	0xbddf0dcd	-0.10891304
86	0xbd35bbed	-0.044368673
87	0xbdd606b7	-0.104504995
88	0xbc50e135	-0.012749006
89	0xbd337bb0	-0.04381913
90	0xbe4c9b67	-0.19981156
91	0xbe001397	-0.12507473
92	0xbe015104	-0.12628561
93	0xbd2fc0a6	-0.042908333
94	0xbdb867ef	-0.09004199
95	0xbd9b84fd	-0.07593725
96	0x3d173a95	0.036921103
97	0xbe56fe5c	-0.20995468
98	0xbe04b8a2	-0.12961057
99	0xbd9e76e7	-0.077375226
100	0xbd81067b	-0.06300064
101	0xbd43aafb	-0.04777048
102	0xbdea0358	-0.11426419
103	0xbe6e6840	-0.23281956
104	0xbe19dea3	-0.15026335
105	0xbe22e589	-0.15907873
106	0xbe2d7a45	-0.16941173
107	0xbd880ece	-0.06643449
108	0x3d48bac2	0.04900623
109	0xbddad9fd	-0.10686109
110	0xbd84df2c	-0.06487879
111	0xbda42966	-0.080157086
112	0xbe1bad6b	-0.15202872
113	0xbd2cb7ff	-0.04216766
114	0xbc6f1757	-0.014592967
115	0xbe0fa294	-0.14026862
116	0xbd103ace	-0.03521233
117	0x3d621efa	0.055205323
118	0xbdaf4391	-0.08557809
119	0xbd507347	-0.050891187
120	0xbda132c8	-0.07871014
121	0xbe242a05	-0.16031654
122	0xbe37f2f3	-0.17963772
123	0xbe09c20a	-0.13452926
124	0xbddef299	-0.108861156
125	0x3d1923e8	0.03738776
126	0xbe973ed2	-0.29540116
127	0xbefb8223	-0.49122724
128	0xbe9ac2ea	-0.30226833
129	0xbe1e76fd	-0.15475078
130	0xbe64ddd1	-0.22350241
131	0xbea2836a	-0.31740886
132	0xbd4cc04d	-0.04998808
133	0xbe292bd6	-0.16520628
134	0xbd8f9489	-0.07010753
135	0xbde4cf24	-0.111723214
136	0x3a20e902	0.00061382365
137	0xbe3666db	-0.17812674
138	0xbdc29002	-0.095001236
139	0xbdb32600	-0.08747482
140	0xbe005d01	-0.12535478
141	0xbdfe7795	-0.12425152
142	0xbc7ce960	-0.0154365
143	0xbde612a0	-0.11234021
144	0xbdcfd819	-0.10148639
145	0xbe35d7bb	-0.17758076
146	0x3c606088	0.01369489
147	0xbea88e4f	-0.32921073
148	0xbe5082d9	-0.20362414
149	0x3c96a38a	0.018388528
150	0x3d20722a	0.039171375
151	0x3e2cbc1d	0.16868635
152	0x3e634336	0.22193608
153	0x3e300f3c	0.17193311
154	0xbe80b607	-0.25138876
155	0xbe9e2118	-0.30884624
156	0xbdf89a04	-0.12138751
157	0xbe9d0cf5	-0.30673948
158	0xbef941b2	-0.48682934
159	0xbec1db96	-0.37862843
160	0xbe9f6ca0	-0.31137562
161	0xbe64e884	-0.22354323
162	0xbce9fc15	-0.028562585
163	0xbebb9574	-0.3663746
164	0xbccfb952	-0.025356922
165	0xbd1fe102	-0.039032944
166	0xbe3d2bd9	-0.18473758
167	0xbddaadcc	-0.106776804
168	0x3d26f4c7	0.04076078
169	0xbdb82a2b	-0.08992418
170	0xbdade15d	-0.0849025
171	0xbdb72cf3	-0.0894412
172	0xbdd09c26	-0.10186033
173	0xbd89d338	-0.0672974
174	0xbe1258cb	-0.14291684
175	0xbb88bae0	-0.004172668
176	0xbe3d68df	-0.18497036
177	0x3e1a1b21	0.15049411
178	0x3ec568c0	0.3855648
179	0x3ed636c8	0.4183867
180	0x3ef2a86d	0.47394124
181	0x3f02b28c	0.5105369
182	0xbd13efe1	-0.03611744
183	0xbe45e9ed	-0.19327517
184	0xbe49ff61	-0.19726326
185	0xbe4c6b5a	-0.19962826
186	0xbe10a761	-0.1412635
187	0xbd8c6168	-0.06854516
188	0xbdd278c2	-0.10276939
189	0x3d184682	0.037176616
190	0xba984653	-0.0011617638
191	0xbdafbc5e	-0.0858085
192	0xbc963e01	-0.018340113
193	0xbe4c0e60	-0.19927359
194	0xbde094ac	-0.10965857
195	0xbe0da761	-0.13833381
196	0xbe38f877	-0.18063532
197	0xbbc7f010	-0.0061016157
198	0x3981b71f	0.00024741233
199	0xbe1341db	-0.1438059
200	0xbe1a4a88	-0.15067494
201	0xbdd45140	-0.1036706
202	0xbe25e99d	-0.16202398
203	0xbd7d3547	-0.061818387
204	0x3df15a0c	0.11784753
205	0x3ee0b30c	0.43886602
206	0x3f071afb	0.52775544
207	0x3f173f2f	0.59080786
208	0x3f2de6ee	0.67930496
209	0x3eee0cda	0.4649418
210	0x3d8022c9	0.06256635
211	0xbdbdd3fa	-0.09268947
212	0xbd3ad1d4	-0.045610264
213	0x3e0350c7	0.12823783
214	0x3e8130d4	0.25232565
215	0x3e88c61e	0.2671365
216	0x3e92b6dc	0.28655136
217	0x3e64238f	0.2227919
218	0x3e24375f	0.16036747
219	0x3e40bbee	0.1882169
220	0xbe12a0c3	-0.14319138
221	0xbb4caf12	-0.003123228
222	0xbe109884	-0.1412068
223	0xbe1652df	-0.1468005
224	0xbdd31422	-0.103065744
225	0x3ce90ff3	0.028449988
226	0xbdde9d52	-0.1086985
227	0xbe01410f	-0.12622474
228	0xbc4666b3	-0.012109446
229	0xbe73c7dc	-0.23806709
230	0xbe4f3f2b	-0.2023894
231	0xbd3e1b1c	-0.046412572
232	0x3e994c4d	0.29941025
233	0x3ef0dbcc	0.47042692
234	0x3ef6cf9f	0.48205277
235	0x3e9c4405	0.30520645
236	0x3ea89c58	0.3293178
237	0x3e102392	0.14076069
238	0xbd954d08	-0.07290083
239	0xbd446c9c	-0.04795514
240	0x39332448	0.00017084286
241	0x3e52fca8	0.20604193
242	0x3eb0e09f	0.34546372
243	0x3ea05f2e	0.31322616
244	0x3e91e6ae	0.28496307
245	0x3e5c4a20	0.21512651
246	0xbe0e04d2	-0.13869026
247	0x3d366bd7	0.044536438
248	0xbe1495ef	-0.1451032
249	0xbe9238f6	-0.28559083
250	0xbe2b0650	-0.16701627
251	0x3d03b656	0.03215631
252	0x3c3288ab	0.010896842
253	0xbe2c8484	-0.16847426
254	0xbdd98eeb	-0.106229626
255	0xbe2f8ebc	-0.17144293
