20220518160.pt (torch, 424079 bytes, 8 tensors)

encoder.0.weight f4 [64, 784]
-0.01451859 0.029397331 0.01891163 0.018538352 -0.035502624 -0.19504535 -1.2509542 -1.1481941
-1.6119905 -2.4513521 -2.271692 -1.1360534 -2.431387 -1.9049621 -2.9266617 -2.86392
-0.9781976 -1.6058466 -1.6919941 -0.9509845 -0.9466348 -1.9369744 -1.1706091 -0.38385966
-0.023566788 -0.0068470584 -0.0018912555 -0.023647152 -0.016897624 -0.0018709984 1.1033328 0.3303826
-0.40032282 -0.33468977 -2.0015926 -3.282255 -3.2945368 -2.882324 -1.411987 -0.6240569
-1.0554838 -2.83523 -1.471032 -0.2982543 -1.5558382 -1.2855246 -1.6008962 -1.0403876
-1.0183048 -2.2510102 -0.918855 -2.9069226 -0.22306342 0.656154 -0.0015431984 -0.027583247
0.016074726 0.014471804 0.2960688 -0.45349056 0.9409704 -2.7702582 -1.5301224 -0.22253819
-2.699496 -1.0487608 -1.2932104 -0.5376353 0.005552404 -0.6064348 -0.6683767 -0.19121367
-0.16648051 -0.64971405 -0.42869547 -0.08285282 -0.5592954 -0.50931126 -0.594429 0.3448419
-0.7449767 0.40328553 0.54270774 -0.017077804 0.031526417 -0.6107154 0.27753115 -0.86317027
-0.45943245 -0.6560983 -0.8315364 0.4950151 0.17237775 0.30902544 -0.33619216 -0.00019545898
0.042236183 0.17459299 0.06633645 -0.025835203 0.33561242 -0.07166745 -0.19684818 -0.0562874
0.017487962 -0.09204714 0.08042146 -0.75478745 -0.27711952 1.1286719 -0.80528903 0.8098373
-0.0041096127 1.0097593 -1.5816807 0.32884705 -1.522958 1.0641354 -0.23080923 0.031659104
-0.3622479 0.27874097 0.021295974 0.11623665 0.09528227 -0.045889236 0.13400398 0.08926269
0.18560432 -0.006047713 -0.10771375 0.14444186 -0.1516113 0.19105105 -0.062672436 0.034218892
0.54841113 -2.135941 -0.57093704 0.094984256 -0.013698557 -0.3437782 -1.0151186 0.5552575
-0.009835991 -0.31522265 -0.04393233 -0.27906638 0.34078473 -0.080401324 -0.055334263 -0.026851393
0.08236954 -0.028519936 0.020082824 0.03276395 0.05667043 0.10816614 0.20054315 0.029722348
-0.19717257 -0.024959188 -0.14473101 -0.11276279 0.6892656 -0.86443937 -0.59582186 1.2876109
-0.24793553 -2.1095371 0.7827883 0.028652985 0.34518436 0.11671613 0.049981672 0.035483778
0.062646024 -0.18168682 0.09685046 -0.0045757033 -0.07499144 0.047641885 -0.11594998 0.011228832
0.09245897 0.09286838 0.082927555 0.23982145 0.05183581 0.016986487 -0.24021243 0.06118181
-0.19569755 -0.14149833 -0.23010954 0.58980256 0.63678247 1.0058416 -0.56432056 0.6595511
-0.3066244 -0.09464812 -0.030830929 0.08077938 -0.2693216 -0.082674116 0.026767472 -0.052906867
-0.088694654 -0.070412636 0.009201649 0.067786865 -0.12409983 0.20928134 -0.034560673 -0.06621033
-0.12790969 -0.057626292 -0.2963192 -0.10146469 0.17596547 -0.25752962 -0.50992864 0.79528415
0.06266592 0.277022 -0.73409915 0.39992827 -0.028592592 0.18642612 -0.32920474 0.003107091
0.10458624 -0.019359397 -0.041003257 0.07927062 0.15280522 -0.039417315 0.12879291 0.04063685
0.11928403 -0.014165522 0.15261647 0.047127675 0.14227392 -0.10325912 0.17331553 -0.36213458
-0.21187359 -0.72647685 -1.968502 3.9070134 0.81559616 0.112907924 0.21744551 0.022934128
00000000: 61df 6dbc acd2 f03c 90ec 9a3c bedd 973c
00000010: 336b 11bd f8b9 47be 441f a0bf 06f8 92bf
00000020: b455 cebf f4e2 1cc0 6763 11c0 336a 91bf
00000030: d89b 1bc0 ccd5 f3bf 6d4e 3bc0 774a 37c0
00000040: 286b 7abf 628c cdbf 4393 d8bf b873 73bf
00000050: a956 72bf c7ee f7bf 85d6 95bf 4189 c4be
00000060: 230f c1bc 4a5d e0bb 01e4 f7ba acb7 c1bc
00000070: e36c 8abc 4a3c f5ba 023a 8d3f e827 a93e
00000080: 1df7 ccbe 755c abbe 181a 00c0 7710 52c0
00000090: b1d9 52c0 ff77 38c0 fdbb b4bf 31c2 1fbf
000000a0: 181a 87bf 6974 35c0 c74a bcbf cab4 98be
000000b0: b525 c7bf 128c a4bf 2bea ccbf 6c2b 85bf
000000c0: d057 82bf 8d10 10c0 153a 6bbf 050b 3ac0
000000d0: bd6a 64be b5f9 273f 2545 caba 43f6 e1bc
000000e0: 25af 833c 251b 6d3c 5496 973e ea2f e8be
000000f0: 70e3 703f e94b 31c0 0ddb c3bf 0de1 63be
00000100: 8bc4 2cc0 cb3d 86bf eb87 a5bf 78a2 09bf
00000110: f1f0 b53b 503f 1bbf bc1a 2bbf 84cd 43be
00000120: de79 2abe a953 26bf f97d dbbe bdae a9bd
00000130: fc2d 0fbf 3962 02bf 802c 18bf 1e8f b03e
00000140: cbb6 3ebf 717b ce3e e5ee 0a3f c0e6 8bbc
00000150: d821 013d d857 1cbf 9018 8e3e baf8 5cbf
00000160: bb3a ebbe 0ff6 27bf 92df 54bf 9f72 fd3e
00000170: cb83 303e 9538 9e3e 6121 acbe 1ff4 4cb9
00000180: d9ff 2c3d 81c8 323e 68db 873d 59a4 d3bc
00000190: 64d5 ab3e 62c6 92bd 9292 49be 9e8d 66bd
000001a0: ea42 8f3c 3683 bcbd 02b4 a43d c039 41bf
000001b0: 9ce2 8dbe 5278 903f 6c27 4ebf 7f51 4f3f
000001c0: eea9 86bb cb3f 813f 8374 cabf a45e a83e
000001d0: 4af0 c2bf 9735 883f 4159 6cbe faac 013d
000001e0: 8f78 b9be 23b7 8e3e e574 ae3c 7b0d ee3d
000001f0: 5a23 c33d 5af6 3bbd 5738 093e 5bcf b63d
00000200: 0f0f 3e3e e52b c6bb 0799 dcbd 91e8 133e
00000210: fe3f 1bbe e3a2 433e 685a 80bd 1c29 0c3d
00000220: ac64 0c3f 42b3 08c0 ee28 12bf 1b87 c23d
00000230: ea6f 60bc b203 b0be 68ef 81bf 5b25 0e3f
00000240: 2327 21bc dd64 a1be 63f2 33bd cae1 8ebe
00000250: 567b ae3e 73a9 a4bd 2ea6 62bd 74f7 dbbc
00000260: 5db1 a83d a4a2 e9bc bc84 a43c 7e33 063d
00000270: 411f 683d 3686 dd3d 2f5b 4d3e 487c f33c
00000280: 9be7 49be 3677 ccbc 5e34 14be 2df0 e6bd
00000290: b673 303f e64b 5dbf c887 18bf 6fd0 a43f
000002a0: d0e2 7dbe a802 07c0 d064 483f aab9 ea3c
000002b0: 01bc b03e de08 ef3d 95b9 4c3d 7057 113d
000002c0: 8f4c 803d 1c0c 3abe 8959 c63d c8ef 95bb
000002d0: 1d95 99bd 2324 433d 2f77 edbd 23f9 373c
000002e0: 215b bd3d c731 be3d ecd5 a93d c193 753e
000002f0: c951 543d 3f27 8b3c 3ffa 75be c799 7a3d
00000300: f064 48be f0e4 10be d6a1 6bbe 4dfd 163f
00000310: 2d04 233f 6bbf 803f 5077 10bf 57d8 283f
00000320: e0fd 9cbe e0d6 c1bd 2591 fcbc a96f a53d
00000330: 85e4 89be 0c51 a9bd 7547 db3c dfb4 58bd
00000340: 8ba5 b5bd 8034 90bd 83c2 163c d7d3 8a3d
00000350: 0d28 febd d94d 563e 7e8f 0dbd 4899 87bd
00000360: c2fa 02be 8c09 6cbd 26b7 97be b8cc cfbd
00000370: 4b30 343e ecda 83be af8a 02bf be97 4b3f
00000380: fd56 803d d4d5 8d3e eced 3bbf 66c3 cc3e
00000390: 033b eabc 7de6 3e3e 868d a8be 56a0 4b3b
000003a0: 5031 d63d 9997 9ebc 08f3 27bd a358 a23d
000003b0: f978 1c3e 0d74 21bd 4ae2 033e d372 263d
000003c0: 2f4b f43d 8116 68bc 7e47 1c3e f308 413d
000003d0: 41b0 113e 8479 d3bd a079 313e b469 b9be
000003e0: 64f5 58be 63fa 39bf e0f7 fbbf 820c 7a40
000003f0: e9ca 503f 453c e73d 09aa 5e3e 5ae0 bb3c

encoder.0.bias f4 [64]
2.2644217 0.032919437 -0.625278 1.8718832 2.4160025 -3.3417 2.0986729 1.4301369
1.1871704 1.0326146 2.1188273 2.0899768 1.8591964 2.4895766 2.1489582 1.3535919
2.4400234 1.5503865 2.0638154 -0.2595424 2.7201562 2.4152825 0.08902552 0.46230146
1.695448 1.9913677 1.4327743 2.5371099 -0.34160993 1.397848 1.0476869 0.8468256
0.22105421 1.4727769 3.0910285 1.1362653 2.0846488 2.3103278 1.8712567 -0.37706447
0.021052448 0.16049011 1.2198503 1.0542194 2.8303998 2.101573 1.5450853 1.6703093
-0.16116711 -0.044550896 -0.91691947 2.6022139 0.0076659257 2.0397646 1.9587448 2.4711647
0.63027406 -0.75340694 0.7422914 1.6661648 1.2264383 2.709238 1.03202 1.6161187
00000000: 49ec 1040 88d6 063d 3812 20bf de99 ef3f
00000010: c99f 1a40 6ade 55c0 a850 0640 ba0e b73f
00000020: 33f5 973f b72c 843f de9a 0740 2ec2 0540
00000030: 26fa ed3f 3955 1f40 8888 0940 8042 ad3f
00000040: 5829 1c40 1173 c63f 8d15 0440 bee2 84be
00000050: 0a17 2e40 fd93 1a40 0353 b63d c7b2 ec3e
00000060: 7104 d93f 23e5 fe3f 2665 b73f 0260 2240
00000070: 7fe7 aebe afec b23f 9b1a 863f 90c9 583f
00000080: 095c 623e f483 bc3f 69d3 4540 2471 913f
00000090: e36a 0540 69dc 1340 5785 ef3f 980e c1be
000000a0: 2f76 ac3c 8557 243e 0e24 9c3f a9f0 863f
000000b0: 4525 3540 2c80 0640 5bc5 c53f b2cc d53f
000000c0: fe08 25be 007b 36bd 3cbb 6abf ac8a 2640
000000d0: 7232 fb3b 818b 0240 26b8 fa3f 9027 1e40
000000e0: a459 213f 47df 40bf cf06 3e3f e344 d53f
000000f0: eefb 9c3f 2864 2d40 3b19 843f fadc ce3f

encoder.2.weight f4 [32, 64]
-0.12540913 -0.111131676 -0.05667559 -0.12511764 -0.17847098 0.022360852 -0.07947734 0.019943422
0.0014387817 -0.16989017 -0.04816044 -0.025531078 -0.03602586 -0.13926461 0.001905201 0.009894273
0.0646656 0.05072364 -0.09156161 0.064458996 -0.15199648 -0.15638891 -0.026452009 -0.07977163
0.03326127 -0.13174738 -0.13945091 -0.07552451 -0.10767989 -0.09800639 -0.05277134 -0.08630372
-0.011504381 -0.17421813 -0.15539643 -0.10237853 -0.054504033 -0.14497483 -0.16384326 -0.11996994
0.0481912 -0.038115405 0.05508836 0.046867475 -0.008638886 0.037188284 -0.15819184 -0.10578809
-0.18320572 0.03849414 -0.039135005 -0.046089772 -0.15599039 -0.08195897 0.03544968 -0.14134723
-0.0021540287 -0.16446482 0.021727169 -0.02215069 -0.058928363 0.02102555 -0.046482224 -0.17974399
0.0511495 -0.0031500522 -0.3765054 -0.049909227 0.030104114 -0.008428098 -0.26234537 -0.027499482
0.039025843 -0.09358749 0.05191443 -0.09820103 -0.022269037 -0.17430308 -0.13070846 0.0068520484
-0.043189716 -0.044785876 -0.07362154 -0.37496763 -0.09302636 -0.155869 0.061854295 -0.013235122
-0.16346699 -0.11005425 -0.13473034 -0.09324233 -0.25599048 -0.091772266 -0.15938109 -0.16902153
-0.30768007 -0.088700525 -0.011125315 -0.08536351 -0.12422557 -0.16168186 -0.17033191 -0.2777284
-0.38105312 -0.29299107 0.0325216 -0.04596849 -0.075513504 -0.16647577 -0.27803016 -0.18174882
-0.27559587 -0.16510624 -0.07378132 -0.055530004 -0.16616629 -0.016947571 -0.1808703 -0.12948748
-0.3849635 -0.28882384 0.0075414767 -0.12602285 -0.17140453 -0.100007 -0.13980617 0.021208007
0.5907139 -0.10475977 0.033593316 0.00017219597 -0.31082454 0.04003504 0.11455934 -0.08342342
-0.004142157 -0.0048856204 -0.67583734 0.008476785 -1.2918135 -0.0092027215 -0.10322627 0.82409185
0.18563882 -0.2610543 0.06531786 0.17228961 -0.8385832 -0.008947543 0.12375837 -0.02519577
-0.08989011 -0.0024687366 -0.008148136 -0.0006090285 0.019901022 -1.2727306 -0.15604185 0.006864938
0.0065314607 -0.02933277 -0.79182506 0.07938833 -0.38987836 -0.23137139 0.02935749 0.030879423
-0.06353716 -0.069590196 -0.1842637 -0.058318123 -0.06809239 -0.079944596 0.23048854 -0.015896196
0.016013047 -0.027985297 -0.028555421 -0.14648579 0.10076116 -0.009354949 0.098176084 -0.25844464
0.02925036 -0.010152476 -0.007584261 -0.21104757 0.11863266 0.0033966338 -0.02566999 -0.0735233
0.07630726 -0.2043903 0.04454141 0.09947742 0.23606357 -0.041563753 0.21159996 0.30270112
0.009836489 -0.057434615 -0.22165391 0.24608828 -2.045954 0.06666317 -0.054914556 0.26191878
0.018438915 -0.167596 0.0021108936 -0.044823736 -0.33669785 -0.059969086 -0.059958786 -0.0801974
-0.09981032 0.05178894 0.071399115 0.14091142 0.014882201 -2.0334706 0.07581215 -0.020184815
-0.07577539 0.05493742 -2.7426562 -0.04372908 -0.6596519 -0.0024841542 0.018450066 0.00896725
-0.0032536525 -0.0012124756 -0.14170453 -0.04077646 -0.061378017 0.13424286 0.086230695 -0.3023915
0.08723687 0.041003004 -0.05412166 -0.28929752 0.32145718 0.13603519 0.015377669 -0.2971714
-0.01567034 -0.03189955 0.13291113 0.46723503 -0.027298132 0.15726484 0.10826146 0.13772595
00000000: 406b 00be 0199 e3bd aa24 68bd d71e 00be
00000010: 19c1 36be 1b2e b73c 04c5 a2bd 6360 a33c
00000020: 8195 bc3a b0f7 2dbe e243 45bd 8d26 d1bc
00000030: da8f 13bd 629b 0ebe f0b7 f93a 971b 223c
00000040: 666f 843d 97c3 4f3d a784 bbbd 1403 843d
00000050: f7a4 1bbe 6a24 20be e2b1 d8bc 4f5f a3bd
00000060: f83c 083d c9e8 06be 38cc 0ebe 98ac 9abd
00000070: 4687 dcbd 93b7 c8bd c326 58bd 01c0 b0bd
00000080: df7c 3cbc 3d66 32be 3e20 1fbe d6ab d1bd
00000090: 9f3f 5fbd 4874 14be 87c6 27be cdb2 f5bd
000000a0: 2364 453d e61e 1cbd 55a4 613d 1cf8 3f3d
000000b0: 1d8a 0dbc be52 183d 0bfd 21be 6da7 d8bd
000000c0: 489a 3bbe 08ac 1d3d 074c 20bd a1c8 3cbd
000000d0: f2bb 1fbe 1bda a7bd af33 113d 54bd 10be
000000e0: 9b2a 0dbb 7769 28be 2dfd b13c 5d75 b5bc
000000f0: de5e 71bd c63d ac3c 2564 3ebd cf0e 38be
00000100: 2382 513d 1b71 4ebb 51c5 c0be 9e6d 4cbd
00000110: e79c f63c 0116 0abc 2252 86be 9846 e1bc
00000120: 90d9 1f3d ccaa bfbd 3aa4 543d 9f1d c9bd
00000130: 8e6d b6bc 827c 32be 70d8 05be 2687 e03b
00000140: b3e7 30bd 6571 37bd e4c6 96bd c2fb bfbe
00000150: 9b84 bebd 209c 1fbe ee5a 7d3d 20d8 58bc
00000160: e463 27be 1f64 e1bd c0f6 09be d6f5 bebd
00000170: 2f11 83be 19f3 bbbd cc34 23be fb13 2dbe
00000180: 3e88 9dbe 9fa8 b5bd f446 36bc 10d3 aebd
00000190: fa69 febd ee8f 25be 7d6b 2ebe 6b32 8ebe
000001a0: 6519 c3be ed02 96be 5f35 053d 7549 3cbd
000001b0: d3a6 9abd a078 2abe f859 8ebe 5d1c 3abe
000001c0: e71a 8dbe 9c11 29be a91a 97bd 6e73 63bd
000001d0: 7f27 2abe a2d5 8abc 1036 39be 5e98 04be
000001e0: f019 c5be b8e0 93be 7e1e f73b 220c 01be
000001f0: ab84 2fbe 78d0 ccbd 5929 0fbe 6abc ad3c
00000200: 0739 173f 4a8c d6bd 2599 093d 818f 3439
00000210: 6524 9fbe c8fb 233d 169e ea3d e6d9 aabd
00000220: eeba 87bb 8e17 a0bb ad03 2dbf 37e2 0a3c
00000230: 255a a5bf 03c7 16bc 4b68 d3bd aff7 523f
00000240: 1a18 3e3e e9a8 85be 5fc5 853d b06c 303e
00000250: 63ad 56bf b798 12bc 0775 fd3d 5c67 cebc
00000260: 4e18 b8bd 87ca 21bb c27f 05bc 36a7 1fba
00000270: 7807 a33c d6e8 a2bf 6fc9 1fbe 46f3 e03b
00000280: dd05 d63b 474b f0bc 0cb5 4abf 5996 a23d
00000290: 239e c7be 9fec 6cbe 1e7f f03c d8f6 fc3c
000002a0: c51f 82bd 4e85 8ebd a0af 3cbe fcde 6ebd
000002b0: 0674 8bbd feb9 a3bd 3005 6c3e bd38 82bc
000002c0: cb2d 833c 6c41 e5bc 0fed e9bc 5f00 16be
000002d0: de5b ce3d 8045 19bc 8b10 c93d db52 84be
000002e0: 739e ef3c 9256 26bc 6485 f8bb db1c 58be
000002f0: aef5 f23d 0f9a 5e3b df49 d2bc 6293 96bd
00000300: fb46 9c3d b14b 51be 0e71 363d d1ba cb3d
00000310: a6ba 713e c13e 2abd a9ad 583e a4fb 9a3e
00000320: 3a29 213c 8f40 6bbd 3ef9 62be 91fe 7b3e
00000330: e9f0 02c0 b386 883d 16ee 60bd 381a 863e
00000340: 350d 973c 499e 2bbe eb56 0a3b 1899 37bd
00000350: a963 acbe 25a2 75bd 5897 75bd 893e a4bd
00000360: 5a69 ccbd a420 543d b339 923d 154b 103e
00000370: 7ad4 733c 6224 02c0 6743 9b3d a05a a5bc
00000380: 2130 9bbd 0f06 613d ae87 2fc0 441d 33bd
00000390: f2de 28bf 31cd 22bb 9824 973c 5feb 123c
000003a0: 3b3b 55bb eeeb 9eba fe1a 11be 3805 27bd
000003b0: 8467 7bbd f676 093e b899 b03d 0fd3 9abe
000003c0: 3ea9 b23d c4f2 273d acae 5dbd ce1e 94be
000003d0: 0996 a43e cf4c 0b3e 9ef2 7b3c da26 98be
000003e0: 165f 80bc 1aa9 02bd db19 083e 6e39 ef3e
000003f0: 55a0 dfbc 090a 213e 2fb8 dd3d 0808 0d3e

encoder.2.bias f4 [32]
-0.072113305 -0.24874248 0.522809 0.87114596 0.93940836 0.024911126 -0.06782406 -0.6051
-0.14832442 -0.41762584 0.926897 0.3794583 -0.06535029 0.067070015 0.6005241 0.006631253
-0.15755795 0.045579016 0.6761462 0.29867285 -0.13682398 -0.09979715 0.22627835 -0.057539232
0.6929138 -0.229215 0.7619523 0.49692973 0.040358745 0.26570526 0.36569673 0.6445327
00000000: 24b0 93bd 59b6 7ebe d0d6 053f 6c03 5f3f
00000010: 117d 703f 6b12 cc3c 57e7 8abd d5e7 1abf
00000020: 5be2 17be 0ed3 d5be 1f49 6d3f 5c48 c23e
00000030: 5fd6 85bd 015c 893d f3bb 193f fb4a d93b
00000040: df56 21be 10b1 3a3d eb17 2d3f a6eb 983e
00000050: 961b 0cbe 7362 ccbd 83b5 673e 42ae 6bbd
00000060: cc62 313f 56b7 6abe 4e0f 433f 936d fe3e
00000070: 364f 253d 850a 883e 9a3c bb3e 1800 253f

decoder.0.weight f4 [64, 32]
-0.25332597 -0.28549564 -0.35932136 -0.27131575 -0.359268 -0.28860041 -0.11951034 -0.108307995
0.4116157 -0.03678999 -0.111734964 -0.45504734 -0.29092032 0.071672454 -0.43006125 -0.45314714
-0.074696206 -0.3527142 -0.21322165 -0.31787056 -0.20475367 -0.3743829 -0.3387012 -0.42526123
0.30233356 0.40753913 0.42798576 -0.35980025 0.23046753 -0.40301806 -0.21454713 0.1594169
-0.24499947 -0.19094636 -0.027830966 0.18444282 0.03331571 0.030221224 -0.19411728 0.023705382
0.24350126 0.009928013 0.033268843 0.16570981 0.067801446 -0.19648665 -0.11794261 -0.04910087
-0.027728865 0.025319014 -0.108289786 0.47236493 -0.20330475 -0.105646566 0.02367165 -0.14276047
0.11618824 0.008713598 0.08707711 -0.06260965 0.098909155 0.0963391 0.09299036 0.011281146
0.15373066 0.029868184 -0.017260866 -0.13508756 0.05241765 0.23090139 0.1401861 0.19410913
-0.18640287 -0.05850687 -0.065937415 -0.11658206 0.12698297 -0.003503821 -0.06590794 -0.09733409
-0.16355377 0.15400833 -0.083881095 0.059056167 -0.037626516 0.2075259 -0.34449315 0.22086537
0.07745662 0.0453275 0.59121513 -0.10420505 -0.14324018 -0.049600024 0.010840055 0.09691594
-0.09363444 0.0679863 -0.005676413 -0.23715936 -0.11689808 -0.13572305 -0.18309133 0.11879846
0.16964373 0.11248806 0.05022629 -0.11299179 -0.15836293 -0.15798268 -0.1049777 0.06719694
0.020694861 -0.09400526 -0.15894036 0.027302472 -0.051114943 -0.087510884 0.18260907 -0.22922651
0.052448217 -0.024431687 0.17914002 0.05566909 0.17162319 -0.23472852 -0.11138335 -0.038397253
-0.10446409 -0.26737055 -0.115944825 -0.14775164 -0.19620626 -0.082968615 -0.23436786 0.089650705
0.0264272 0.14055087 -0.024781235 -0.07927989 -0.15633406 -0.22287169 0.02854541 -0.21384896
0.080046095 -0.19381535 -0.2030204 -0.1379436 0.06898269 -0.17329106 -0.08447602 -0.054058015
-0.12838703 -0.061211165 0.06914118 0.2191481 0.22860976 -0.19964959 -0.10161564 -0.06451621
-0.081909016 -0.28202528 -0.2782209 -0.32314354 -0.3635541 -0.33854717 0.0060899 -0.16049293
0.26519322 0.10595644 -0.24346147 -0.2169187 -0.018721875 -0.008841025 0.035129644 -0.41916528
-0.016668689 -0.30129305 -0.23374504 -0.2957684 -0.43943757 -0.2913852 -0.2421946 -0.080914594
-0.19370264 0.2699366 -0.35530066 -0.3193209 0.24310564 -0.24634868 -0.4226256 0.12814583
0.08976597 -0.098552786 -0.12291904 -0.17940392 -0.9496839 -0.14061405 0.11395265 -0.14810704
0.030579494 0.10887654 -0.15380149 -0.020448985 -0.15915856 -0.35331452 0.13974781 0.13710207
-0.17786108 0.12036896 0.020920515 -0.044193745 -0.06012596 0.0066458555 0.0041848025 0.18422873
-0.04140803 0.06569756 -0.024694372 -0.050744645 -0.06249097 -0.15912017 0.5406385 -0.2757482
-0.23010595 -0.27128193 0.014290839 -0.035262864 -0.06424546 -0.019832766 -0.057256658 -0.2983542
0.12934296 0.10748158 0.08119576 -0.12481443 -0.20168848 -0.13323787 0.028451096 -0.29363343
0.24908577 -0.01259466 0.44779804 0.16539548 -0.039676983 -0.28226295 0.037623763 -0.13703524
-0.012666962 0.13926242 0.13951883 -0.01359067 -0.005541033 -0.046854045 -0.09325335 0.32941365
00000000: f1b3 81be 7c2c 92be f8f8 b7be e6e9 8abe
00000010: faf1 b7be 6fc3 93be d6c1 f4bd 95d0 ddbd
00000020: 4bbf d23e 1ab1 16bd 4dd5 e4bd f7fb e8be
00000030: 82f3 94be 02c9 923d fd30 dcbe e702 e8be
00000040: 53fa 98bd f596 b4be c756 5abe eebf a2be
00000050: f2aa 51be 1eaf bfbe 3e6a adbe d7bb d9be
00000060: 77cb 9a3e f8a8 d03e f320 db3e bd37 b8be
00000070: aeff 6b3e 6258 cebe 3eb2 5bbe 2f3e 233e
00000080: 24e1 7abe 7187 43be c4fd e3bc 94de 3c3e
00000090: 0e76 083d 8092 f73c aec6 46be ca31 c23c
000000a0: 6558 793e 1ba9 223c e944 083d d5af 293e
000000b0: 7cdb 8a3d cc33 49be e58b f1bd fe1d 49bd
000000c0: a527 e3bc d269 cf3c 09c7 ddbd d1d9 f13e
000000d0: 1f2f 50be 3a5d d8bd 0ceb c13c cd2f 12be
000000e0: 1af4 ed3d 7bc3 0e3c 7c55 b23d 7d39 80bd
000000f0: e290 ca3d 6f4d c53d bb71 be3d 8ed4 383c
00000100: 926b 1d3e 1fae f43c a966 8dbc 6554 0abe
00000110: e4b3 563d 6a71 6c3e f28c 0f3e 8bc4 463e
00000120: 65e0 3ebe e6a4 6fbd 320a 87bd 93c2 eebd
00000130: d307 023e 5da0 65bb befa 86bd 1857 c7bd
00000140: a47a 27be 5cb4 1d3e dac9 abbd e1e4 713d
00000150: 431e 1abd ab81 543e 6861 b0be 882a 623e
00000160: 94a1 9e3d 54a9 393d e059 173f 7569 d5bd
00000170: 8ead 12be 6529 4bbd 7c9a 313c dd7b c63d
00000180: 6ac3 bfbd 673c 8b3d 3401 babb e7d9 72be
00000190: 4368 efbd fcfa 0abe 4b7c 3bbe 9b4c f33d
000001a0: 16b7 2d3e 2460 e63d 15ba 4d3d 3d68 e7bd
000001b0: e429 22be 36c6 21be 8cfe d6bd 8d9e 893d
000001c0: 4588 a93c d485 c0bd 43c1 22be 6fa9 df3c
000001d0: e75d 51bd e838 b3bd dffd 3a3e 5bba 6abe
000001e0: f1d3 563d f624 c8bc 7b70 373e 4605 643d
000001f0: fdbd 2f3e ac5c 70be f41c e4bd 7046 1dbd
00000200: 45f1 d5bd cbe4 88be 7b74 edbd 354c 17be
00000210: 4bea 48be 73eb a9bd 21fe 6fbe ca9a b73d
00000220: db7d d83c 91ec 0f3e 0402 cbbc 7f5d a2bd
00000230: 0916 20be 7a38 64be 10d8 e93c 39fb 5abe
00000240: 35ef a33d 8877 46be 94e4 4fbe 1641 0dbe
00000250: cc46 8d3d 3673 31be c301 adbd f06b 5dbd
00000260: e477 03be 8fb8 7abd e499 8d3d 5c68 603e
00000270: ad18 6a3e f170 4cbe dc1b d0bd 1321 84bd
00000280: eabf a7bd 9e65 90be f872 8ebe 1273 a5be
00000290: c323 babe 0e56 adbe c98d c73b 4258 24be
000002a0: 68c7 873e b1ff d83d f74d 79be f01f 5ebe
000002b0: 9e5e 99bc f2d9 10bc 1ae4 0f3d d59c d6be
000002c0: c68c 88bc 1543 9abe dc5a 6fbe f56e 97be
000002d0: f6fd e0be 7130 95be dc01 78be 8db6 a5bd
000002e0: fc59 46be 2135 8a3e f8e9 b5be 077e a3be
000002f0: aff0 783e d442 7cbe 6262 d8be a938 033e
00000300: 39d7 b73d 0bd6 c9bd fabc fbbd a9b5 37be
00000310: 7c1e 73bf 21fd 0fbe 0260 e93d 5fa9 17be
00000320: d981 fa3c aafa de3d 237e 1dbe a184 a7bc
00000330: 76fa 22be a4e5 b4be 0d1a 0f3e 7c64 0c3e
00000340: 3721 36be 0084 f63d 8061 ab3c 8004 35bd
00000350: a346 76bd 7ac5 d93b ab20 893b 75a6 3c3e
00000360: 779b 29bd 718c 863d da4b cabc 9ed9 4fbd
00000370: 88f6 7fbd 66f0 22be 4967 0a3f de2e 8dbe
00000380: e5a0 6bbe 77e5 8abe 2024 6a3c cb6f 10bd
00000390: 2093 83bd 5378 a2bc f585 6abd e2c1 98be
000003a0: 7b72 043e 4d1f dc3d f649 a63d b59e ffbd
000003b0: 6d87 4ebe 826f 08be 4612 e93c 1f57 96be
000003c0: 5710 7f3e d559 4ebc c945 e53e 6f5d 293e
000003d0: 5584 22bd c584 90be 601b 1a3d f752 0cbe
000003e0: 1789 4fbc cf9a 0e3e 06de 0e3e 67ab 5ebc
000003f0: 8e91 b5bb 07ea 3fbd 9dfb bebd e8a8 a83e

decoder.0.bias f4 [64]
-0.22680783 -0.12657584 0.12802541 -0.115383044 0.0010334374 -0.21934322 0.13635196 -0.059382983
0.12813385 -0.15308724 0.009304814 -0.03450172 0.053955603 -0.1322014 -0.062422708 -0.21585536
-0.056609362 -0.004681658 -0.20174734 -0.04000695 0.0073998477 -0.065020405 0.13889502 -0.07548344
-0.46704724 -0.2089211 -0.18199062 -0.3672945 -0.15602544 0.2017123 0.0039266013 -0.25033006
-0.080846675 0.0525489 -0.10193637 0.20377487 0.16585724 -0.17945628 0.030594379 -0.09770136
-0.21733019 -0.028052412 0.01375547 0.092011 0.21683767 -0.10143412 0.056760907 0.21160583
-0.24073167 -0.1185788 0.10177446 -0.1097552 -0.18984024 0.059145425 -0.10117215 -0.012931239
-0.14826924 0.15192504 -0.025715493 -0.27152342 0.25563905 0.15399525 0.113035254 -0.0034721105
00000000: 5040 68be 199d 01be 1819 033e f24d ecbd
00000010: 6874 873a 829b 60be d99f 0b3e 923b 73bd
00000020: 8535 033e e7c2 1cbe 3873 183c ad51 0dbd
00000030: 8d00 5d3d ce5f 07be f4ae 7fbd 3009 5dbe
00000040: 38df 67bd 9868 99bb db96 4ebe 54de 23bd
00000050: 6c7a f23b 6b29 85bd 7f3a 0e3e 1097 9abd
00000060: d120 efbe 6aef 55be c05b 3abe 060e bcbe
00000070: 22c5 1fbe ab8d 4e3e b8aa 803b 432b 80be
00000080: f192 a5bd 843d 573d 04c4 d0bd 5caa 503e
00000090: 7bd6 293e 63c3 37be 10a1 fa3c a717 c8bd
000000a0: ce8b 5ebe 2cce e5bc 9f5e 613c 4370 bc3d
000000b0: b20a 5e3e b1bc cfbd 207e 683d 33af 583e
000000c0: 5d82 76be 71d9 f2bd 216f d03d 56c7 e0bd
000000d0: 7b65 42be 7942 723d 5833 cfbd 8cdd 53bc
000000e0: e4d3 17be 3d92 1b3e 4ca9 d2bc 1e05 8bbe
000000f0: 1fe3 823e eeb0 1d3e 077f e73d 598c 63bb

decoder.2.weight f4 [784, 64]
0.12048316 -0.0717008 0.027837768 -0.062499687 -0.07684393 -0.030415595 0.047044218 -0.06867351
0.0056370683 -0.06274237 -0.15475082 -0.07474625 -0.0066759516 0.016257344 0.03934961 -0.10634835
-0.0013786952 -0.11615877 -0.03132589 -0.109044604 -0.0473105 -0.13978434 -0.07455986 -0.10067224
0.054813445 -0.00950326 -0.15112796 0.07141726 0.007982358 -0.0192694 -0.083626375 -0.07751396
0.009218454 -0.03937456 -0.10164793 -0.13410006 -0.16498546 -0.010858607 -0.1497212 -0.13940343
-0.104273364 -0.12282791 -0.07463272 0.079362094 -0.043087788 -0.15795791 -0.00461708 0.025463864
-0.022422343 -0.097600915 -0.1876302 -0.05299131 -0.052092955 -0.039974824 0.02076085 0.108745545
-0.037552014 -0.018052224 0.034599796 -0.08145313 0.07595335 -0.04158198 -0.1659851 -0.07619755
0.06963125 0.013798496 -0.08253813 0.08249542 -0.1240173 -0.05948223 -0.044242874 -0.020878676
-0.18955301 0.010029424 -0.019258969 -0.043100152 -0.047876082 -0.20213841 -0.02722228 0.0002310127
-0.19234413 0.030146033 -0.03332615 -0.13915828 -0.06153421 -0.09045856 -0.051547658 -0.027213959
-0.06895034 -0.009820044 0.04732474 -0.07211088 0.03611304 -0.02210167 0.02630706 0.07919788
0.015676018 -0.0589682 -0.120148316 -0.016565124 -0.0019388472 -0.03247702 -0.08295485 -0.13830961
-0.07077688 0.041052707 -0.064343736 0.035126954 -0.038425043 0.011240777 0.086351946 -0.036531646
-0.0028067976 -0.037172746 -0.15171885 -0.04288378 0.0071991533 -0.1421318 -0.021944318 -0.17312847
-0.17162491 -0.05099017 0.0030074606 -0.034970794 0.012195326 -0.046325434 -0.05621815 -0.13431737
0.11051157 -0.2385791 -0.10635111 0.109441906 -0.060521185 -0.03290035 0.084145635 0.010903449
-0.16657157 -0.08980522 0.06665999 -0.020876363 -0.043720387 -0.07826002 -0.016367532 0.017387375
0.032955956 0.03990993 0.0040626973 -0.053980775 -0.08450088 -0.17164293 -0.063952744 -0.010881573
0.06490046 -0.024790928 -0.06415863 -0.0112737715 -0.07263322 -0.014957882 -0.13641208 -0.06460041
0.08234641 0.052402288 -0.043819502 -0.14662516 -0.12612726 -0.018353626 -0.1897217 0.07627307
0.058495402 -0.10917009 0.029716969 -0.09848307 -0.027909748 0.034296803 0.08962098 -0.0011446178
0.037411604 0.07445887 -0.13738248 -0.10880733 -0.050177634 0.08580437 0.018500894 -0.02618654
0.06233585 -0.15089442 -0.0921763 0.11249836 -0.06579987 -0.13480577 -0.17683318 -0.07444915
-0.02985464 -0.0023406446 -0.007692225 0.11698729 -0.12193701 0.093454555 0.052410677 -0.11589859
-0.17425944 -0.19145751 -0.048530042 -0.0033758874 -0.13737781 0.006216958 0.03705157 -0.082317784
-0.1050021 -0.101419464 -0.18839866 -0.026561994 0.06227015 0.04569039 -0.048983544 0.034139052
-0.010237038 -0.032420307 -0.13206741 0.09931527 0.08822484 -0.16294211 0.050396994 0.0052458346
0.123091355 -0.09545307 0.07420689 0.02398427 -0.08943607 0.059877038 -0.19350684 -0.12076093
0.047394574 -0.12177489 0.114171475 -0.1035409 -0.006540539 -0.06729182 -0.10640581 -0.07054442
0.067797646 -0.029592516 0.046253193 0.02882187 0.11999087 -0.0071295793 -0.07883259 -0.03365634
-0.13974003 -0.0751902 -0.16725169 -0.085347205 -0.11223027 -0.13738792 0.012352527 -0.061739996
00000000: e0bf f63d ded7 92bd 080c e43c acff 7fbd
00000010: 5a60 9dbd 202a f9bc 70b1 403d b2a4 8cbd
00000020: 28b7 b83b 127f 80bd 0077 1ebe 9014 99bd
00000030: f1c1 dabb 1f2e 853c 0f2d 213d 2acd d9bd
00000040: 56b5 b4ba a6e4 edbd 944f 00bd c752 dfbd
00000050: a8c8 41bd a023 0fbe d7b2 98bd 3f2d cebd
00000060: 1084 603d 90b3 1bbc 4ac1 1abe 3643 923d
00000070: 70c8 023c dcda 9dbc 4e44 abbd a4bf 9ebd
00000080: 0009 173c 3847 21bd ca2c d0bd 8751 09be
00000090: f3f1 28be 4ce8 31bc 8450 19be c6bf 0ebe
000000a0: 468d d5bd 338d fbbd 0ad9 98bd 9888 a23d
000000b0: d27c 30bd b8bf 21be e04a 97bb 9899 d03c
000000c0: 10af b7bc fde2 c7bd 2222 40be 6a0d 59bd
000000d0: 6c5f 55bd a4bc 23bd a812 aa3c fcb5 de3d
000000e0: 24d0 19bd 42e2 93bc 84b8 0d3d e6d0 a6bd
000000f0: 6e8d 9b3d de51 2abd 00f8 29be 760d 9cbd
00000100: d49a 8e3d 1613 623c c009 a9bd 5cf3 a83d
00000110: c8fc fdbd a4a3 73bd 0438 35bd c209 abbc
00000120: 2f1a 42be 7452 243c fcc4 9dbc c989 30bd
00000130: b619 44bd 5ffd 4ebe 4201 dfbc 003c 7239
00000140: dcf5 44be d0f4 f63c 0081 08bd 827f 0ebe
00000150: 4c0b 7cbd 5642 b9bd a323 53bd cfef debc
00000160: d635 8dbd 40e4 20bc 96d7 413d deae 93bd
00000170: 44eb 133d 900e b5bc e781 d73c 8032 a23d
00000180: fe6a 803c a488 71bd 5210 f6bd 95b3 87bc
00000190: eb20 feba a006 05bd 3be4 a9bd 09a1 0dbe
000001a0: 78f3 90bd e226 283d a6c6 83bd 48e1 0f3d
000001b0: 9463 1dbd 3c2b 383c 4ad9 b03d 35a2 15bd
000001c0: 40f2 37bb 7342 18bd 305c 1bbe e7a6 2fbd
000001d0: e0e6 eb3b 008b 11be 92c4 b3bc 9748 31be
000001e0: 71be 2fbe 12db 50bd d118 453b 893d 0fbd
000001f0: e8ce 473c bdbf 3dbd 0145 66bd 7e8a 09be
00000200: e453 e23d 144e 74be 9cce d9bd 1423 e03d
00000210: 10e5 77bd 84c2 06bd 8c54 ac3d 61a4 323c
00000220: bd91 2abe cdeb b7bd 0885 883d e804 abbc
00000230: 2614 33bd ca46 a0bd 3415 86bc f86f 8e3c
00000240: d3fc 063d 9878 233d 6020 853b f21a 5dbd
00000250: cc0e adbd 2ac3 2fbe a8f9 82bd a048 32bc
00000260: 88ea 843d 5816 cbbc 9a65 83bd a0b5 38bc
00000270: bac0 94bd e811 75bc 9caf 0bbe 384d 84bd
00000280: 3ca5 a83d c8a3 563d 147c 33bd e824 16be
00000290: 8127 01be 585a 96bc 6846 42be 0e35 9c3d
000002a0: e098 6f3d 9194 dfbd 0071 f33c 7eb1 c9bd
000002b0: fca2 e4bc ce7a 0c3d 348b b73d 0007 96ba
000002c0: e93c 193d e47d 983d fead 0cbe 61d6 debd
000002d0: 1087 4dbd 34ba af3d 308f 973c 2885 d6bc
000002e0: e053 7f3d 1184 1abe eec6 bcbd 8a65 e63d
000002f0: 15c2 86bd 860a 0abe c213 35be cc78 98bd
00000300: b891 f4bc 8065 19bb 0f0f fcbb 0897 ef3d
00000310: 1cba f9bd 1a65 bf3d 94ac 563d 3d5c edbd
00000320: 1171 32be 700d 44be 70c7 46bd fe3d 5dbb
00000330: c5ac 0cbe a0b7 cb3b 63c3 173d 3a96 a8bd
00000340: 570b d7bd 02b5 cfbd 94eb 40be 8a98 d9bc
00000350: fc0e 7f3d d925 3b3d f8a2 48bd 64d5 0b3d
00000360: 40b9 27bc 28cb 04bd ae3c 07be ce65 cb3d
00000370: 3aaf b43d 4cda 26be 146d 4e3d 40e5 ab3b
00000380: 5217 fc3d e67c c3bd c8f9 973d a97a c43c
00000390: 422a b7bd a041 753d a826 46be 8251 f7bd
000003a0: d020 423d 1d65 f9bd bcd2 e93d 400d d4bd
000003b0: 0552 d6bb 4bd0 89bd 4aeb d9bd 9879 90bd
000003c0: 7ed9 8a3d 016c f2bc fd73 3d3d d81b ec3c
000003d0: c6bd f53d 3f9f e9bb fb72 a1bd 3bdb 09bd
000003e0: 0318 0fbe 52fd 99bd 0744 2bbe 84ca aebd
000003f0: fcd8 e5bd 6baf 0cbe 4162 4a3c 14e3 7cbd

decoder.2.bias f4 [784]
0.011855737 -0.02195169 0.012772449 -0.09367339 -0.14370601 -0.041307822 -0.15596564 -0.017262034
-0.07656831 -0.1576951 -0.08345083 -0.13978066 -0.1690656 -0.032144 -0.18738067 -0.13549028
-0.18203627 0.027151972 0.021496177 -0.029690986 -0.03404975 -0.16093655 -0.038887188 -0.15335938
-0.16734417 0.029644417 -0.08899908 -0.17998672 -0.13639303 -0.05840985 -0.0029655679 -0.18987389
-0.03332428 -0.06717582 -0.0034258906 -0.07635556 -0.15054409 -0.059768658 -0.1786968 0.0065061185
-0.0076925196 0.0034932536 0.00669073 -0.0927776 -0.005420299 -0.15278605 -0.1617982 -0.06508751
-0.15987022 -0.04994403 -0.17472836 -0.015053894 -0.11164037 -0.0740883 0.024476828 0.030408204
-0.12133995 -0.081968375 -0.102149054 -0.054748405 -0.03689127 -0.09829281 -0.082289614 -0.23147497
-0.016909426 -0.11983773 0.0068383557 -0.105557874 -0.16085118 -0.18420361 -0.17651406 -0.20218393
-0.029843153 -0.086832836 -0.035162862 -0.096392736 -0.0563868 -0.03151715 0.011265168 -0.085920915
-0.13428368 -0.09371141 -0.01607948 -0.02275201 -0.0768482 -0.10891304 -0.044368673 -0.104504995
-0.012749006 -0.04381913 -0.19981156 -0.12507473 -0.12628561 -0.042908333 -0.09004199 -0.07593725
0.036921103 -0.20995468 -0.12961057 -0.078055486 -0.06300064 -0.04777048 -0.17119017 -0.23281956
-0.15026335 -0.15907873 -0.16941173 -0.06643449 0.04900623 -0.10686109 -0.06487879 -0.080157086
-0.15202872 -0.04216766 -0.014592967 -0.14026862 -0.03521233 0.055205323 -0.08125707 -0.050891187
-0.07871014 -0.16031654 -0.17963772 -0.13452926 -0.108861156 0.0096397055 -0.27326763 -0.43452913
-0.27486643 -0.22775581 -0.32081854 -0.40076786 -0.04998808 -0.16520628 -0.07010753 -0.111723214
0.00061382365 -0.17812674 -0.095001236 -0.08747482 -0.12535478 -0.12425152 -0.0154365 -0.11234021
-0.10148639 -0.17758076 0.01369489 -0.27409753 -0.15041964 0.017252807 0.01621141 0.1333319
0.1927746 0.1313152 -0.21223952 -0.30884624 -0.12138751 -0.32048073 -0.527499 -0.41947845
-0.35765007 -0.280595 -0.028562585 -0.029260542 -0.025356922 -0.039032944 -0.18473758 -0.106776804
0.04076078 -0.08819011 -0.0849025 -0.0894412 -0.10186033 -0.0672974 -0.14291684 -0.004172668
-0.17169984 0.09100011 0.29036427 0.29902008 0.34410435 0.3742444 -0.040223386 -0.123476334
-0.16539972 -0.18253608 -0.17782843 -0.14209251 -0.21007368 -0.0606475 -0.0011617638 -0.0858085
-0.018340113 -0.19927359 -0.10965857 -0.13833381 -0.12510853 -0.0061016157 0.00024741233 -0.1438059
-0.15067494 -0.1036706 -0.11174028 -0.05035887 0.074505255 0.3154067 0.37270764 0.4306856
0.5347999 0.33219048 0.07917991 -0.034483843 -0.039153714 0.099514045 0.13979281 0.0831731
0.11890898 0.09227398 0.068524115 0.121067956 -0.14319138 -0.003123228 -0.1412068 -0.1468005
-0.103065744 0.028449988 -0.1086985 -0.12622474 -0.012109446 -0.1636267 -0.14334686 -0.033311386
0.23957022 0.3365771 0.38837165 0.26271516 0.29504952 0.13476585 -0.026413785 -0.003966023
-0.001955177 0.14658736 0.2285695 0.15236169 0.14810666 0.12353951 -0.13869026 0.026597094
-0.1451032 -0.28559083 -0.16322689 0.03215631 0.010896842 -0.16847426 -0.106229626 -0.09264073
00000000: 913e 423c 08d4 b3bc 8943 513c d6d7 bfbd
00000010: ab27 13be 6432 29bd 75b5 1fbe 1c69 8dbc
00000020: d9cf 9cbd d37a 21be 45e8 aabd a922 0fbe
00000030: 881f 2dbe 6da9 03bd b8e0 3fbe f7bd 0abe
00000040: b767 3abe d06d de3c c018 b03c 833a f3bc
00000050: c077 0bbd 8dcc 24be 2c48 1fbd 3e0a 1dbe
00000060: 455c 2bbe d9d8 f23c 2645 b6bd 704e 38be
00000070: 9daa 0bbe 2b3f 6fbd f959 42bb 4d6e 42be
00000080: 0a7f 08bd 7a93 89bd e884 60bb 4e60 9cbd
00000090: 3b28 1abe fbcf 74bd 4bfc 36be 4731 d53b
000000a0: 8811 fcbb 12ef 643b e93d db3b 2f02 bebd
000000b0: c39c b1bb f273 1cbe 6dae 25be 9a4c 85bd
000000c0: 05b5 23be 1c92 4cbd feeb 32be 9ca4 76bc
000000d0: b5a3 e4bd 9bbb 97bd a183 c83c a01a f93c
000000e0: 1481 f8bd 09df a7bd 8633 d1bd dd3f 60bd
000000f0: 4d1b 17bd be4d c9bd 7587 a8bd c607 6dbe
00000100: a385 8abc 7c6d f5bd 4914 e03b ba2e d8bd
00000110: 2cb6 24be df9f 3cbe 1ac0 34be 4e09 4fbe
00000120: a179 f4bc 6ad5 b1bd ef06 10bd 8e69 c5bd
00000130: d8f5 66bd 2118 01bd 8a91 383c 4ef7 afbd
00000140: a981 09be c5eb bfbd 1db9 83bc 6c62 babc
00000150: 9762 9dbd cd0d dfbd edbb 35bd b706 d6bd
00000160: 35e1 50bc b07b 33bd 679b 4cbe 9713 00be
00000170: 0451 01be a6c0 2fbd ef67 b8bd fd84 9bbd
00000180: 953a 173d 5cfe 56be a2b8 04be 8edb 9fbd
00000190: 7b06 81bd fbaa 43bd 7a4c 2fbe 4068 6ebe
000001a0: a3de 19be 89e5 22be 457a 2dbe ce0e 88bd
000001b0: c2ba 483d fdd9 dabd 2cdf 84bd 6629 a4bd
000001c0: 6bad 1bbe ffb7 2cbd 5717 6fbc 94a2 0fbe
000001d0: ce3a 10bd fa1e 623d 1b6a a6bd 4773 50bd
000001e0: c832 a1bd 052a 24be f3f2 37be 0ac2 09be
000001f0: 99f2 debd dbef 1d3c bce9 8bbe 9a7a debe
00000200: 4bbb 8cbe d238 69be 5442 a4be 7231 cdbe
00000210: 4dc0 4cbd d62b 29be 8994 8fbd 24cf e4bd
00000220: 02e9 203a db66 36be 0290 c2bd 0026 b3bd
00000230: 015d 00be 9577 febd 60e9 7cbc a012 e6bd
00000240: 19d8 cfbd bbd7 35be 8860 603c 8356 8cbe
00000250: 9b07 1abe c255 8d3c cacd 843c 2888 083e
00000260: b466 453e 7e77 063e 5155 59be 1821 9ebe
00000270: 049a f8bd 0d16 a4be 2d0a 07bf e1c5 d6be
00000280: e91d b7be 26aa 8fbe 15fc e9bc ceb3 efbc
00000290: 52b9 cfbc 02e1 1fbd d92b 3dbe ccad dabd
000002a0: c7f4 263d 049d b4bd 5de1 adbd f32c b7bd
000002b0: 269c d0bd 38d3 89bd cb58 12be e0ba 88bb
000002c0: 15d2 2fbe 445e ba3d a0aa 943e 2919 993e
000002d0: 722e b03e f69c bf3e 47c1 24bd 29e1 fcbd
000002e0: 8b5e 29be bdea 3abe a818 36be b380 11be
000002f0: 8e1d 57be 8369 78bd 5346 98ba 5ebc afbd
00000300: 013e 96bc 600e 4cbe ac94 e0bd 61a7 0dbe
00000310: 731c 00be 10f0 c7bb 1fb7 8139 db41 13be
00000320: 884a 1abe 4051 d4bd 17d8 e4bd 1a45 4ebd
00000330: 3696 983d fd7c a13e 89d3 be3e d382 dc3e
00000340: a5e8 083f df14 aa3e 1429 a23d ee3e 0dbd
00000350: a55f 20bd 05ce cb3d d925 0f3e a956 aa3d
00000360: 8d86 f33d 24fa bc3d 5f56 8c3d 7af2 f73d
00000370: c3a0 12be 12af 4cbb 8498 10be df52 16be
00000380: 2214 d3bd f30f e93c 529d debd 0f41 01be
00000390: b366 46bc c28d 27be 85c9 12be 8571 08bd
000003a0: e551 753e d553 ac3e a6d8 c63e 9a82 863e
000003b0: bb10 973e 0f00 0a3e b961 d8bc 6af5 81bb
000003c0: 6d22 00bb ff1a 163e 1f0e 6a3e b404 1c3e
000003d0: 46a9 173e 4802 fd3d d204 0ebe 26e2 d93c
000003e0: ef95 14be f638 92be f324 27be 56b6 033d
000003f0: ab88 323c 8484 2cbe eb8e d9bd 6cba bdbd
