20220518140.pt (torch, 424079 bytes, 8 tensors)

encoder.0.weight f4 [64, 784]
000000 61 df 6d bc ac d2 f0 3c 90 ec 9a 3c be dd 97 3c
       -0.01451859 0.029397331 0.01891163 0.018538352
000010 d0 31 3a bd 0e 64 3d be 47 1b 84 bf d0 7b d3 bf
       -0.04545766 -0.18495199 -1.0320824 -1.652216
000020 22 7b ca bf e9 9c 12 c0 11 67 8f bf 19 5e 89 be
       -1.5818827 -2.290827 -1.1203328 -0.26829603
000030 09 9c c4 bf 84 80 51 bf a7 a0 04 c0 05 c1 03 c0
       -1.5360118 -0.81836724 -2.0723054 -2.058656
000040 f6 03 fe be a3 24 7e bf f8 3b a2 bf e9 1e 61 bf
       -0.49612397 -0.99274653 -1.2674551 -0.8793779
000050 af 62 83 bf 18 94 e8 bf c2 48 9a bf dc c7 2f be
       -1.0264491 -1.8170195 -1.2053454 -0.17166084
000060 23 0f c1 bc 4a 5d e0 bb 01 e4 f7 ba ac b7 c1 bc
       -0.023566788 -0.0068470584 -0.0018912555 -0.023647152
000070 e3 6c 8a bc 4a 3c f5 ba 60 10 93 3f 49 89 8f 3e
       -0.016897624 -0.0018709984 1.1489372 0.28034428
000080 3e 64 42 bd 18 17 8f 3d 45 4b 0f c0 c8 69 2f c0
       -0.04745888 0.06986827 -2.238969 -2.7408314
000090 a5 1a 59 c0 09 23 06 c0 d9 5b e4 be 1f 4a 9c 3e
       -3.3922513 -2.0958884 -0.44601324 0.305253
0000a0 ac 6d d6 3d f1 cf 05 c0 08 a7 7c bf e8 c9 f1 bd
       0.10470137 -2.0908167 -0.9869237 -0.11806089
0000b0 24 e5 9c bf a1 26 9b bf 76 1e d6 bf fb 70 72 bf
       -1.2257428 -1.2121164 -1.6728046 -0.94703645
0000c0 dc 56 53 bf d4 c6 02 c0 5b 4e 14 bf 11 11 39 c0
       -0.8255441 -2.0433855 -0.5793206 -2.8916667
0000d0 7e 37 94 be 8f 85 cb 3e 25 45 ca ba 43 f6 e1 bc
       -0.28948587 0.39750335 -0.0015431984 -0.027583247
0000e0 25 af 83 3c 25 1b 6d 3c 6f 8e 5c 3e 19 6a 9b be
       0.016074726 0.014471804 0.21538709 -0.30354384
0000f0 5e a6 18 3f db 7b 32 c0 05 1e cd bf 04 58 4f bf
       0.59628856 -2.7888095 -1.6024786 -0.80993676
000100 6c 4b e3 bf e1 e3 c1 be 74 b0 12 bf c7 42 99 be
       -1.7757392 -0.3786917 -0.57300496 -0.2993376
000110 31 26 99 3e 7c 93 19 bf 2f 0f 1b bf 7a d1 96 bc
       0.2991195 -0.5999067 -0.60570043 -0.018410433
000120 96 dc f2 bd 64 00 56 bf 70 7a 1b bf 10 f6 ce bd
       -0.1185848 -0.83594346 -0.607337 -0.101055264
000130 0e 72 3f bf f6 ae fb be b1 e6 3d bf 7e 5d 07 3f
       -0.7478341 -0.49156922 -0.7418013 0.5287703
000140 bb 46 14 bf 24 97 a7 3e 09 a2 32 3f c0 e6 8b bc
       -0.57920426 0.327325 0.69778496 -0.017077804
000150 d8 21 01 3d c8 84 f0 be ac 80 aa 3e ce 7f 59 bf
       0.031526417 -0.46976304 0.33301294 -0.8496064
000160 1e ca 62 bf 6b 57 c2 be fd 0a 48 bf 77 2d ed 3e
       -0.88589656 -0.3795732 -0.78141767 0.4632375
000170 f1 36 d3 3e 18 33 b4 3d a0 3c 8b be e1 ca 24 3e
       0.41252854 0.08798808 -0.2719469 0.16093017
000180 1a cd e3 3c 4e 47 57 3e 42 9e 18 3d 6c bb 0e 3e
       0.027807761 0.21023294 0.0372603 0.13938683
000190 66 e0 d4 3e 01 3b a4 bd a4 68 ec bd f3 32 23 3d
       0.41577452 -0.080190666 -0.11543396 0.03984351
0001a0 a3 b1 c8 3d 6f 32 d8 bd d7 a6 bc bd 3c b9 39 bf
       0.097995065 -0.105564944 -0.0921151 -0.7254827
0001b0 bc 34 18 be 88 b7 9c 3f 2e 67 c1 be c9 09 1b 3f
       -0.14863867 1.2243509 -0.37774032 0.60561806
0001c0 ee a9 86 bb 64 53 44 3f f4 b8 b1 bf 16 99 74 3d
       -0.0041096127 0.76689744 -1.3884568 0.059716307
0001d0 e1 30 95 bf 96 4a 44 3f 39 3c c0 be 97 f4 08 3d
       -1.1655542 0.7667631 -0.37545946 0.033436384
0001e0 dc 73 8f be 1d 76 25 3e 6d 76 2f 3d 9a e9 a8 3d
       -0.2801808 0.16158338 0.04283755 0.08247681
0001f0 59 95 a7 3d 0a 2f b1 bd 71 2f e5 3d 7d ca f3 3d
       0.08182783 -0.0865155 0.11190689 0.11903856
000200 62 58 37 3e 72 48 be 3c 6c 94 b2 bd 31 ab 03 3e
       0.17904809 0.023227904 -0.087197155 0.12858273
000210 d8 81 10 be 24 f0 77 3e c8 c0 82 bd 5b 63 bd bd
       -0.14112031 0.242127 -0.06384426 -0.09247466
000220 4e 67 26 3f 0e d5 09 c0 7d 52 d8 be cb 36 12 3e
       0.6500138 -2.1536288 -0.42250434 0.14278714
000230 ea 6f 60 bc 9a ff 55 be be 0c 6b bf 2a 75 b2 3c
       -0.013698557 -0.20898286 -0.9181632 0.021784384
000240 e1 b0 bc bd 59 fd 14 be 5f cb 19 3e ac 55 89 be
       -0.092134245 -0.1454977 0.15018986 -0.26823175
000250 93 c4 27 3e b2 15 23 bd 40 16 cd bd dc c5 94 3b
       0.16383581 -0.039815612 -0.100140095 0.0045401882
000260 23 a5 c0 3d d1 95 82 bd 75 99 bc 3c 44 43 33 3c
       0.09406497 -0.063762315 0.023022393 0.01094133
000270 4d 42 aa 3d 15 74 a5 3d 3b 85 43 3e 5d bb 41 3d
       0.08313427 0.080787815 0.19093792 0.047297824
000280 76 ec df bd f7 34 e7 bd 98 3f 54 bd ef d2 fc bd
       -0.10933773 -0.11289399 -0.05181846 -0.1234492
000290 49 5e ff 3e 80 32 94 bf db 3c 32 bf 29 07 90 3f
       0.4987662 -1.1577911 -0.6962411 1.1252185
0002a0 d0 62 51 be 33 20 1f c0 46 6c c4 3f b6 81 50 be
       -0.2044785 -2.4863403 1.5345542 -0.20361981
0002b0 fc d5 d1 3d 4c e8 cf bd 2b ee 28 3e 53 3e 67 3d
       0.102458924 -0.10151729 0.16497104 0.05645592
0002c0 7a 1b 9a 3d e1 34 03 be 93 21 20 3d 77 c9 07 bc
       0.07524772 -0.1281314 0.03909452 -0.008287779
0002d0 b6 3a 81 bd fa 75 09 3b fd b6 05 be 50 12 80 3c
       -0.06310026 0.002097486 -0.13058086 0.015633732
0002e0 9f 14 f7 3d cb 8c 12 3d 06 5f 9a 3d ed 55 8c 3e
       0.1206448 0.035778802 0.075376555 0.27409306
0002f0 10 90 64 3c 6f f9 c6 bc a7 cd 4b be 23 17 90 3d
       0.013950363 -0.024288861 -0.19902669 0.07035663
000300 6e f8 e5 bd ef 55 46 be eb e0 22 3e 0f 2f 09 3e
       -0.11229025 -0.19368719 0.15906112 0.13396858
000310 15 cc 12 3f 83 84 ae 3f 16 ed b2 be 23 f4 1c 3f
       0.57342654 1.3634189 -0.34946507 0.61310023
000320 ef 65 3c be 49 d9 0d be cb 97 75 bd 92 27 8c 3d
       -0.1839826 -0.13852419 -0.059959214 0.06843485
000330 5a 59 66 be 80 c9 f6 3c a9 dd 7e 3c 8a 4a 51 bd
       -0.22495022 0.03012538 0.015555778 -0.051096477
000340 b3 32 e5 bd 9b 73 02 bd a6 7d 03 3d 0d db 67 3d
       -0.11191311 -0.03184853 0.03210225 0.056605387
000350 c9 70 e3 bd d8 89 5e 3e f6 22 40 bd 7a 8a 9d bc
       -0.111054964 0.2173227 -0.04690834 -0.01923107
000360 a4 55 10 be b8 65 49 bd ed 43 9b be 91 da 2b be
       -0.1409517 -0.049169272 -0.3032526 -0.16782595
000370 af a9 ba 3d e9 9f c1 be 3c 7b a7 be 32 ba 90 3f
       0.09114396 -0.37817314 -0.32711208 1.1306822
000380 13 90 d7 3b c6 88 87 bd 46 df 15 bf 14 30 b2 3d
       0.0065784543 -0.06617884 -0.58543813 0.087005764
000390 fb 7c fb b9 93 1c 98 3d 7c b8 8c be 26 d8 6a bc
       -0.00047967568 0.07427325 -0.274845 -0.01433376
0003a0 09 0f a9 3d 57 9f 37 bc ba 06 98 3c 5f d4 df 3d
       0.08254821 -0.011207423 0.018557895 0.109291784
0003b0 53 3b 1a 3e 71 9c 8e bd 0e 50 87 3d ca 52 8d 3d
       0.15061693 -0.069634326 0.06607066 0.069005564
0003c0 db 5c e4 3d 79 e1 fb bc 3d ad 1c 3e f8 c1 f0 3d
       0.11150523 -0.030747162 0.1530046 0.117557466
0003d0 52 a6 27 3e b3 1b a2 bd fe 91 09 3e 30 94 ac be
       0.1637204 -0.079154395 0.13434598 -0.33706808
0003e0 80 be 8a bd 10 c3 3c bf 10 a8 ba bf 41 3c 56 40
       -0.06774616 -0.7373514 -1.4582539 3.3474276
0003f0 db 4b da 3e d1 71 9b 3e 20 af 69 3e 43 ab b1 3d
       0.42635998 0.30360273 0.22820711 0.08675244

encoder.0.bias f4 [64]
000000 31 45 0e 40 91 34 43 be 4c 81 12 bf aa de e4 3f
       2.222973 -0.19063021 -0.5722854 1.7880452
000010 d8 34 16 40 fb 3d 46 c0 81 85 08 40 b7 42 9d 3f
       2.3469753 -3.097533 2.1331484 1.2285985
000020 78 18 96 3f 37 0e 4b 3f e2 07 05 40 f4 df 00 40
       1.1726217 0.79318565 2.0786061 2.013669
000030 07 d2 f1 3f c3 5e 1a 40 55 59 05 40 7a 13 a6 3f
       1.889222 2.4120338 2.0835774 1.2974694
000040 cd 58 13 40 bc a1 c2 3f 28 15 05 40 5f 85 43 be
       2.302295 1.5205607 2.0794163 -0.19093846
000050 77 f0 20 40 8f 6f 0b 40 03 1d e9 3d b6 61 c9 3e
       2.5146768 2.178684 0.11382487 0.3933236
000060 c1 f6 ca 3f f9 39 ed 3f 1b 09 b8 3f d2 2d 1d 40
       1.5856553 1.8533317 1.4377779 2.4559216
000070 44 28 a1 be 81 40 b9 3f 3f f0 7d 3f 4b 62 1f 3f
       -0.31476033 1.447281 0.9919471 0.6225936
000080 9e b3 80 3e eb a5 b3 3f a1 f4 41 40 ef 7a 61 3f
       0.25137037 1.4035009 3.030556 0.88078207
000090 73 3a f7 3f 26 1b 09 40 86 5f dd 3f f3 55 e2 be
       1.9314712 2.142282 1.7294776 -0.442062
0000a0 6c 7b bc bd d7 3f 6a 3e 16 1a 30 3f 5a 6c 72 3f
       -0.09203228 0.22875915 0.68789804 0.9469658
0000b0 a8 53 2e 40 bb fb 04 40 44 f0 c4 3f ff d6 ca 3f
       2.723856 2.0778644 1.5385823 1.5846862
0000c0 08 51 d3 3d a9 28 71 3d c5 85 3b bf 41 38 1d 40
       0.1031819 0.058876667 -0.7325099 2.4565585
0000d0 cc b4 93 bd 5f ee 03 40 2d 35 f2 3f 09 14 15 40
       -0.07212219 2.061424 1.8922478 2.3293478
0000e0 32 3a 2b 3f 6e d5 2e bf f2 8e 36 3f cc 33 d0 3f
       0.66885674 -0.6829442 0.7131187 1.6265807
0000f0 ec e5 8a 3f f6 7c 25 40 9e c2 75 3f 25 28 bf 3f
       1.0851417 2.585752 0.9600009 1.4934126

encoder.2.weight f4 [32, 64]
000000 40 6b 00 be 01 99 e3 bd aa 24 68 bd d7 1e 00 be
       -0.12540913 -0.111131676 -0.05667559 -0.12511764
000010 19 c1 36 be 1b 2e b7 3c 04 c5 a2 bd 63 60 a3 3c
       -0.17847098 0.022360852 -0.07947734 0.019943422
000020 81 95 bc 3a b0 f7 2d be e2 43 45 bd 8d 26 d1 bc
       0.0014387817 -0.16989017 -0.04816044 -0.025531078
000030 da 8f 13 bd 62 9b 0e be f0 b7 f9 3a 97 1b 22 3c
       -0.03602586 -0.13926461 0.001905201 0.009894273
000040 66 6f 84 3d 97 c3 4f 3d a7 84 bb bd 14 03 84 3d
       0.0646656 0.05072364 -0.09156161 0.064458996
000050 f7 a4 1b be 6a 24 20 be e2 b1 d8 bc 4f 5f a3 bd
       -0.15199648 -0.15638891 -0.026452009 -0.07977163
000060 f8 3c 08 3d c9 e8 06 be 38 cc 0e be 98 ac 9a bd
       0.03326127 -0.13174738 -0.13945091 -0.07552451
000070 46 87 dc bd 93 b7 c8 bd c3 26 58 bd 01 c0 b0 bd
       -0.10767989 -0.09800639 -0.05277134 -0.08630372
000080 df 7c 3c bc 3d 66 32 be 3e 20 1f be d6 ab d1 bd
       -0.011504381 -0.17421813 -0.15539643 -0.10237853
000090 9f 3f 5f bd 48 74 14 be 87 c6 27 be cd b2 f5 bd
       -0.054504033 -0.14497483 -0.16384326 -0.11996994
0000a0 23 64 45 3d e6 1e 1c bd 55 a4 61 3d 1c f8 3f 3d
       0.0481912 -0.038115405 0.05508836 0.046867475
0000b0 1d 8a 0d bc be 52 18 3d 0b fd 21 be 6d a7 d8 bd
       -0.008638886 0.037188284 -0.15819184 -0.10578809
0000c0 48 9a 3b be 08 ac 1d 3d 07 4c 20 bd a1 c8 3c bd
       -0.18320572 0.03849414 -0.039135005 -0.046089772
0000d0 f2 bb 1f be 1b da a7 bd af 33 11 3d 54 bd 10 be
       -0.15599039 -0.08195897 0.03544968 -0.14134723
0000e0 9b 2a 0d bb 77 69 28 be 2d fd b1 3c 5d 75 b5 bc
       -0.0021540287 -0.16446482 0.021727169 -0.02215069
0000f0 de 5e 71 bd c6 3d ac 3c 25 64 3e bd cf 0e 38 be
       -0.058928363 0.02102555 -0.046482224 -0.17974399
000100 23 82 51 3d 1b 71 4e bb 51 c5 c0 be 9e 6d 4c bd
       0.0511495 -0.0031500522 -0.3765054 -0.049909227
000110 e7 9c f6 3c 01 16 0a bc 22 52 86 be 98 46 e1 bc
       0.030104114 -0.008428098 -0.26234537 -0.027499482
000120 90 d9 1f 3d cc aa bf bd 3a a4 54 3d 9f 1d c9 bd
       0.039025843 -0.09358749 0.05191443 -0.09820103
000130 8e 6d b6 bc 82 7c 32 be 70 d8 05 be 26 87 e0 3b
       -0.022269037 -0.17430308 -0.13070846 0.0068520484
000140 b3 e7 30 bd 65 71 37 bd e4 c6 96 bd c2 fb bf be
       -0.043189716 -0.044785876 -0.07362154 -0.37496763
000150 9b 84 be bd 20 9c 1f be ee 5a 7d 3d 20 d8 58 bc
       -0.09302636 -0.155869 0.061854295 -0.013235122
000160 e4 63 27 be 1f 64 e1 bd c0 f6 09 be d6 f5 be bd
       -0.16346699 -0.11005425 -0.13473034 -0.09324233
000170 2f 11 83 be 19 f3 bb bd cc 34 23 be fb 13 2d be
       -0.25599048 -0.091772266 -0.15938109 -0.16902153
000180 3e 88 9d be 9f a8 b5 bd f4 46 36 bc 10 d3 ae bd
       -0.30768007 -0.088700525 -0.011125315 -0.08536351
000190 fa 69 fe bd ee 8f 25 be 7d 6b 2e be 6b 32 8e be
       -0.12422557 -0.16168186 -0.17033191 -0.2777284
0001a0 65 19 c3 be ed 02 96 be 5f 35 05 3d 75 49 3c bd
       -0.38105312 -0.29299107 0.0325216 -0.04596849
0001b0 d3 a6 9a bd a0 78 2a be f8 59 8e be 5d 1c 3a be
       -0.075513504 -0.16647577 -0.27803016 -0.18174882
0001c0 e7 1a 8d be 9c 11 29 be a9 1a 97 bd 6e 73 63 bd
       -0.27559587 -0.16510624 -0.07378132 -0.055530004
0001d0 7f 27 2a be a2 d5 8a bc 10 36 39 be 5e 98 04 be
       -0.16616629 -0.016947571 -0.1808703 -0.12948748
0001e0 f0 19 c5 be b8 e0 93 be 7e 1e f7 3b 22 0c 01 be
       -0.3849635 -0.28882384 0.0075414767 -0.12602285
0001f0 ab 84 2f be 78 d0 cc bd 59 29 0f be 6a bc ad 3c
       -0.17140453 -0.100007 -0.13980617 0.021208007
000200 89 4a 0a 3f 8f 65 85 3d 65 08 21 3d 60 2b 5b 3c
       0.5401998 0.065135114 0.039314646 0.013377041
000210 e2 ad 97 be 39 ce 0a 3d e2 d5 e7 3d 49 29 1e be
       -0.2962485 0.033888076 0.11320092 -0.15445437
000220 4d d5 82 bb a0 5e c8 ba 2f 3e 9f be d6 89 21 3c
       -0.0039927126 -0.001528699 -0.3110213 0.009859523
000230 25 5a a5 bf 5d 6d a7 bb 53 77 fa bd a1 65 48 3f
       -1.2918135 -0.0051094727 -0.122297905 0.78280073
000240 08 60 22 3e 73 d5 bb be ee dc a8 3d 19 90 3a 3e
       0.15856946 -0.36686286 0.08245264 0.18219031
000250 af 48 18 bf 6a f4 93 3d 1a 7c d1 3d 7c 31 30 bd
       -0.59485906 0.07224353 0.102287486 -0.043015942
000260 e7 51 4c 3e 6d a3 6c 3b 2e ca cd bb c4 5c e2 ba
       0.19953118 0.0036108152 -0.006280205 -0.0017270078
000270 50 c2 cf 3b 71 f1 a3 bf 4c 58 37 be f2 41 03 3c
       0.0063403025 -1.2808057 -0.17904776 0.008011328
000280 83 41 16 3c 39 fc d8 bc 12 27 41 bf e6 9b 80 3d
       0.009170893 -0.026487457 -0.7545024 0.06279735
000290 5a 7e 11 bf da 96 84 be f4 4a 08 3e 84 22 18 3d
       -0.5683342 -0.2589634 0.13309842 0.03714229
0002a0 91 d6 a3 bd 2f 64 5a bc 60 0d 96 bd c6 c0 64 bd
       -0.0799991 -0.01332955 -0.0732677 -0.055847906
0002b0 21 2f fb bd ef 8c 92 bd 74 48 66 3e 5a ed d6 bd
       -0.122648485 -0.07155787 0.22488576 -0.1049449
0002c0 63 6f ca b9 fb 0d f8 bc 6b a7 1d bd 74 b3 8e be
       -0.00038611432 -0.030280104 -0.03848974 -0.27871287
0002d0 60 27 ae 3d 87 f7 c9 bb 40 4d ee 3d be 35 23 bd
       0.08503604 -0.0061635408 0.11635828 -0.039846174
0002e0 cc a2 c7 3c de 30 4b bc 82 3a 44 3c d1 e9 21 be
       0.02436962 -0.012401788 0.01197684 -0.1581185
0002f0 7f e3 02 3e 41 54 c2 bb 11 42 cb bc fb 54 da bd
       0.12782095 -0.005930454 -0.024811776 -0.1066074
000300 64 bb 7b 3d 56 ba f1 bd 19 a4 47 3d cb 60 fb 3d
       0.061458007 -0.11803119 0.04874048 0.12274321
000310 b1 15 b1 3e 22 f8 1d bd cb 76 4f 3e 31 01 4c 3e
       0.34586862 -0.038566716 0.2026016 0.1992233
000320 c7 ab d7 3c b1 94 72 bd 73 89 0a bd 86 f1 80 3e
       0.026327027 -0.059223834 -0.033822488 0.25184268
000330 d8 8e d8 bf 4f f4 78 3d 9f 3e 54 bd c6 8e 51 3e
       -1.6918592 0.060779866 -0.051817533 0.2046462
000340 55 45 94 3b 4f 45 88 be de 04 07 3c e4 3e 1d bd
       0.0045248666 -0.26615378 0.0082409065 -0.038390055
000350 fa 90 10 be a6 6f 30 be 66 b8 96 bd 9e 2a b6 bd
       -0.14117804 -0.1723009 -0.0735939 -0.08894847
000360 9c 80 92 3c 6b d4 3c 3d 34 e0 80 3d 15 a9 1a 3e
       0.017883591 0.046101015 0.06292763 0.15103562
000370 9d 3d 9d 3c 8e 13 03 c0 0e ad 8d 3d 76 ec 86 bc
       0.019194419 -2.0480685 0.06917773 -0.016470175
000380 cb c8 9b bd ed ec 3f 3d 8b b0 16 c0 6a 10 15 bd
       -0.076066576 0.04685681 -2.3545253 -0.036392607
000390 87 35 ba be 7e a9 a6 3c a7 64 8b bd e9 bf bc 3c
       -0.36368963 0.020344492 -0.06806307 0.023040729
0003a0 0f 51 6b bc 28 df 99 3c 13 2e 56 3d 4a 71 4b bd
       -0.014362588 0.018783167 0.052290034 -0.049668588
0003b0 8f 2c 44 bd 1f eb 0b 3e 12 bc ac 3d 9c e5 24 be
       -0.047894057 0.1366391 0.08434309 -0.16103214
0003c0 14 c1 b9 3d 6a 66 60 3d 85 c3 57 bd 10 aa ad be
       0.0907003 0.05478517 -0.052676696 -0.3391881
0003d0 1c 6c a8 3e a5 28 26 3e 05 c0 90 3c 35 63 3f 3a
       0.3289498 0.16226442 0.017669687 0.0007300855
0003e0 51 ab 1b bc f8 4b 44 bd 3e ec de 3d c3 18 a6 3c
       -0.009501294 -0.047924012 0.10884903 0.02027548
0003f0 82 dd f4 bc fb e4 3f 3e 63 72 e4 3d 67 0f 02 3e
       -0.02989078 0.18739693 0.1115463 0.12701188

encoder.2.bias f4 [32]
000000 24 b0 93 bd 59 b6 7e be 76 6e 09 3f 08 b0 53 3f
       -0.072113305 -0.24874248 0.53684175 0.8269048
000010 87 ab 68 3f 6b 12 cc 3c 57 e7 8a bd d5 e7 1a bf
       0.9088673 0.024911126 -0.06782406 -0.6051
000020 5b e2 17 be 0e d3 d5 be 5e 06 5f 3f 8c a8 c7 3e
       -0.14832442 -0.41762584 0.8711909 0.3899578
000030 5f d6 85 bd 42 f7 ec 3d 3c d2 07 3f fb 4a d9 3b
       -0.06535029 0.11570598 0.5305517 0.006631253
000040 df 56 21 be 10 b1 3a 3d 64 2f 2a 3f c4 96 96 3e
       -0.15755795 0.045579016 0.6647856 0.294119
000050 96 1b 0c be 73 62 cc bd 1b 38 49 3e 42 ae 6b bd
       -0.13682398 -0.09979715 0.19650309 -0.057539232
000060 20 7a 22 3f 56 b7 6a be f0 9d 36 3f 07 4f 00 3f
       0.634676 -0.229215 0.71334743 0.50120586
000070 36 4f 25 3d 14 30 8b 3e 86 32 b9 3e 43 83 16 3f
       0.040358745 0.27185118 0.3617136 0.5879404

decoder.0.weight f4 [64, 32]
000000 f1 b3 81 be 7c 2c 92 be f8 f8 b7 be e6 e9 8a be
       -0.25332597 -0.28549564 -0.35932136 -0.27131575
000010 fa f1 b7 be 6f c3 93 be d6 c1 f4 bd 95 d0 dd bd
       -0.359268 -0.28860041 -0.11951034 -0.108307995
000020 4b bf d2 3e 1a b1 16 bd 4d d5 e4 bd f7 fb e8 be
       0.4116157 -0.03678999 -0.111734964 -0.45504734
000030 82 f3 94 be 02 c9 92 3d fd 30 dc be e7 02 e8 be
       -0.29092032 0.071672454 -0.43006125 -0.45314714
000040 53 fa 98 bd f5 96 b4 be c7 56 5a be ee bf a2 be
       -0.074696206 -0.3527142 -0.21322165 -0.31787056
000050 f2 aa 51 be 1e af bf be 3e 6a ad be d7 bb d9 be
       -0.20475367 -0.3743829 -0.3387012 -0.42526123
000060 77 cb 9a 3e f8 a8 d0 3e f3 20 db 3e bd 37 b8 be
       0.30233356 0.40753913 0.42798576 -0.35980025
000070 ae ff 6b 3e 62 58 ce be 3e b2 5b be 2f 3e 23 3e
       0.23046753 -0.40301806 -0.21454713 0.1594169
000080 07 e5 66 be 6d 8b 2f be a3 87 e4 bc 3b 0e 3c 3e
       -0.22548304 -0.1714303 -0.027896708 0.18364803
000090 35 4a 8f 3c 74 bc 4b 3d 55 ca 32 be 27 07 31 3d
       0.01749144 0.04974027 -0.17459996 0.04321971
0000a0 f2 5b 65 3e 6b ef 1c bc 28 c0 04 3d 03 b1 19 3e
       0.22398356 -0.009578566 0.032409817 0.15008931
0000b0 fd d1 b2 3d bd 86 64 be 12 7f 0f be 2a 5a f2 bc
       0.08731458 -0.22317024 -0.14013317 -0.02958401
0000c0 0d 70 41 bd b2 a7 37 3d eb 24 09 be 1d 8f e9 3e
       -0.047226 0.04483766 -0.1339299 0.45617
0000d0 b6 32 3c be 6d 64 b0 bd f9 82 20 3d 54 65 fc bd
       -0.1837872 -0.08612905 0.039187405 -0.12324014
0000e0 5b b5 c3 3d 03 06 31 bc 99 a3 d2 3d 0c 31 7e bd
       0.09556075 -0.010804656 0.1028511 -0.062058493
0000f0 3d 99 a2 3d 2c 35 b6 3d 45 4b 99 3d 64 b9 a0 3c
       0.07939384 0.088968605 0.0748506 0.019619651
000100 de c8 19 3e 1b 5c d7 3c 08 66 ef bc 28 a4 fd bd
       0.15018031 0.026289036 -0.029223457 -0.12384826
000110 2c cc 6c 3d 6a cb 68 3e 9c e9 0b 3e 43 1f 43 3e
       0.0578119 0.22733846 0.13663334 0.19054894
000120 0a 3a 3b be 6e fd 60 bd 53 72 8f bd 79 5e 07 be
       -0.18283859 -0.05492919 -0.070042275 -0.13219632
000130 9c c3 fc 3d bf dd 53 bc c0 a7 70 bd 86 ae ce bd
       0.12341997 -0.012931286 -0.05875373 -0.100918815
000140 b5 d9 23 be 7b 0d 1a 3e 00 d9 90 bd e4 45 4e 3d
       -0.16001017 0.15044205 -0.070726395 0.05035962
000150 4b c1 28 bd 7c d9 50 3e 92 c8 c8 be 8c 89 5e 3e
       -0.041199964 0.20395464 -0.39215523 0.21732157
000160 83 2a c8 3d e2 39 48 3d c7 85 14 3f 8a db b1 bd
       0.097737335 0.048883326 0.5801663 -0.08684452
000170 b4 04 0f be fb cd 69 bc 03 25 a1 3b 89 2e eb 3d
       -0.13966638 -0.014270301 0.004917742 0.11483485
000180 6a c3 bf bd 67 3c 8b 3d 34 01 ba bb e7 d9 72 be
       -0.09363444 0.0679863 -0.005676413 -0.23715936
000190 43 68 ef bd fc fa 0a be 4b 7c 3b be 9b 4c f3 3d
       -0.11689808 -0.13572305 -0.18309133 0.11879846
0001a0 16 b7 2d 3e 24 60 e6 3d 15 ba 4d 3d 3d 68 e7 bd
       0.16964373 0.11248806 0.05022629 -0.11299179
0001b0 e4 29 22 be 36 c6 21 be 8c fe d6 bd 8d 9e 89 3d
       -0.15836293 -0.15798268 -0.1049777 0.06719694
0001c0 45 88 a9 3c d4 85 c0 bd 43 c1 22 be 6f a9 df 3c
       0.020694861 -0.09400526 -0.15894036 0.027302472
0001d0 e7 5d 51 bd e8 38 b3 bd df fd 3a 3e 5b ba 6a be
       -0.051114943 -0.087510884 0.18260907 -0.22922651
0001e0 f1 d3 56 3d f6 24 c8 bc 7b 70 37 3e 46 05 64 3d
       0.052448217 -0.024431687 0.17914002 0.05566909
0001f0 fd bd 2f 3e ac 5c 70 be f4 1c e4 bd 70 46 1d bd
       0.17162319 -0.23472852 -0.11138335 -0.038397253
000200 45 f1 d5 bd cb e4 88 be 7b 74 ed bd 35 4c 17 be
       -0.10446409 -0.26737055 -0.115944825 -0.14775164
000210 4b ea 48 be 73 eb a9 bd 21 fe 6f be ca 9a b7 3d
       -0.19620626 -0.082968615 -0.23436786 0.089650705
000220 db 7d d8 3c 91 ec 0f 3e 04 02 cb bc 7f 5d a2 bd
       0.0264272 0.14055087 -0.024781235 -0.07927989
000230 09 16 20 be 7a 38 64 be 10 d8 e9 3c 39 fb 5a be
       -0.15633406 -0.22287169 0.02854541 -0.21384896
000240 35 ef a3 3d 88 77 46 be 94 e4 4f be 16 41 0d be
       0.080046095 -0.19381535 -0.2030204 -0.1379436
000250 cc 46 8d 3d 36 73 31 be c3 01 ad bd f0 6b 5d bd
       0.06898269 -0.17329106 -0.08447602 -0.054058015
000260 e4 77 03 be 8f b8 7a bd e4 99 8d 3d 5c 68 60 3e
       -0.12838703 -0.061211165 0.06914118 0.2191481
000270 ad 18 6a 3e f1 70 4c be dc 1b d0 bd 13 21 84 bd
       0.22860976 -0.19964959 -0.10161564 -0.06451621
000280 ea bf a7 bd 9e 65 90 be f8 72 8e be 12 73 a5 be
       -0.081909016 -0.28202528 -0.2782209 -0.32314354
000290 c3 23 ba be 0e 56 ad be c9 8d c7 3b 42 58 24 be
       -0.3635541 -0.33854717 0.0060899 -0.16049293
0002a0 68 c7 87 3e b1 ff d8 3d f7 4d 79 be f0 1f 5e be
       0.26519322 0.10595644 -0.24346147 -0.2169187
0002b0 9e 5e 99 bc f2 d9 10 bc 1a e4 0f 3d d5 9c d6 be
       -0.018721875 -0.008841025 0.035129644 -0.41916528
0002c0 c6 8c 88 bc 15 43 9a be dc 5a 6f be f5 6e 97 be
       -0.016668689 -0.30129305 -0.23374504 -0.2957684
0002d0 f6 fd e0 be 71 30 95 be dc 01 78 be 8d b6 a5 bd
       -0.43943757 -0.2913852 -0.2421946 -0.080914594
0002e0 fc 59 46 be 21 35 8a 3e f8 e9 b5 be 07 7e a3 be
       -0.19370264 0.2699366 -0.35530066 -0.3193209
0002f0 af f0 78 3e d4 42 7c be 62 62 d8 be a9 38 03 3e
       0.24310564 -0.24634868 -0.4226256 0.12814583
000300 50 a8 b7 3d 16 10 ca bd ea 8c 02 be f1 5f 5f be
       0.0896765 -0.098663494 -0.12749067 -0.21813942
000310 a3 56 62 bf de 16 10 be 6f 30 e9 3d da c2 17 be
       -0.8841345 -0.14071223 0.11386191 -0.14820424
000320 39 52 fb 3c 15 35 df 3d d8 67 1d be bf 9b 76 bc
       0.030678855 0.108987965 -0.15371644 -0.015051781
000330 59 14 23 be 49 e2 a5 be ba 7e 03 3e 86 46 0c 3e
       -0.15925731 -0.32399204 0.12841311 0.13698778
000340 46 0a 36 be 2c 4f f6 3d 10 25 61 3c cd 26 38 bd
       -0.17777357 0.120268196 0.013741747 -0.04495888
000350 2a b6 76 bd ca 57 d6 3b 6c 1d 74 3c 74 90 3c 3e
       -0.06023232 0.006541227 0.014899593 0.1841448
000360 1d cb fa bc 1b bd 86 3d 48 3c e7 bc d8 1d 1f bd
       -0.03061443 0.06579038 -0.028226987 -0.03884682
000370 ac 86 7f bd 67 19 27 be 67 30 0c 3f 82 25 7b be
       -0.062384292 -0.16318284 0.54761356 -0.24526027
000380 a3 2e 62 be a3 2a 86 be aa 49 63 3c 2d c1 01 bd
       -0.22088103 -0.26204404 0.013872543 -0.031678367
000390 f4 de 85 bd dc b1 2d bc 74 bb 44 bd 2f 08 94 be
       -0.065366656 -0.010601487 -0.04803033 -0.28912494
0003a0 05 fd f5 3d 19 36 c9 3d 28 bb b6 3d 03 87 10 be
       0.1201115 0.098247714 0.08922416 -0.14114003
0003b0 08 14 45 be 26 59 18 be af e1 ef 3c f9 9b 91 be
       -0.19245923 -0.14877757 0.029282419 -0.2843931
0003c0 98 a0 75 3e 20 55 5c bb 32 39 e5 3e b1 90 2d 3e
       0.23987043 -0.0033620074 0.447702 0.16949727
0003d0 d6 5f f9 bc 66 ca 8b be fb 02 96 3c 46 e1 02 be
       -0.030441206 -0.27302855 0.018311968 -0.12781247
0003e0 e8 f7 05 bd c9 27 05 3e 6f 1c 13 3e 07 1d 82 bc
       -0.032707125 0.13003458 0.14366315 -0.015882982
0003f0 06 17 72 bc 62 b7 9f bd 01 cc ba bd 2c 4f a0 3e
       -0.014775997 -0.07798649 -0.09120942 0.31310403

decoder.0.bias f4 [64]
000000 50 40 68 be 33 58 db bd 45 fc fe 3d f2 4d ec bd
       -0.22680783 -0.10710182 0.1245046 -0.115383044
000010 68 74 87 3a 82 9b 60 be 89 94 0b 3e a2 82 4d bd
       0.0010334374 -0.21934322 0.1363088 -0.05017341
000020 cf 2f 12 3e 84 97 1d be 38 73 18 3c ea c5 02 bd
       0.1427605 -0.1538983 0.009304814 -0.031927027
000030 66 83 52 3d 88 72 0b be 84 4d 6a bd 30 09 5d be
       0.051394843 -0.13617909 -0.05720283 -0.21585536
000040 ce 2d 70 bd 98 68 99 bb db 96 4e be fd b7 35 bd
       -0.058637433 -0.004681658 -0.20174734 -0.044364918
000050 6c 7a f2 3b c9 34 95 bd 9e d0 e5 3d da 22 a1 bd
       0.0073998477 -0.072854586 0.11221431 -0.078679755
000060 37 d6 45 be 6a ef 55 be c0 5b 3a be 06 0e bc be
       -0.19319998 -0.2089211 -0.18199062 -0.3672945
000070 22 c5 1f be 95 dc 54 3e f5 3b bb 3b 43 2b 80 be
       -0.15602544 0.2078727 0.0057139345 -0.25033006
000080 fa 8c a0 bd 84 3d 57 3d 04 c4 d0 bd f9 69 35 3e
       -0.07839389 0.0525489 -0.10193637 0.17716207
000090 e5 6b 2b 3e 63 c3 37 be 1a 2c 1b 3d a7 17 c8 bd
       0.16740377 -0.17945628 0.037883855 -0.09770136
0000a0 ce 8b 5e be b0 09 46 bc 9f 5e 61 3c 43 70 bc 3d
       -0.21733019 -0.012087271 0.01375547 0.092011
0000b0 73 58 60 3e 7d 4d c3 bd 20 7e 68 3d 8c a7 48 3e
       0.2190874 -0.09536264 0.056760907 0.19595164
0000c0 5d 82 76 be 71 d9 f2 bd 75 2e d2 3d e2 0d e0 bd
       -0.24073167 -0.1185788 0.10262767 -0.10940148
0000d0 7b 65 42 be 54 c5 a7 3d 58 33 cf bd 22 5f 59 bc
       -0.18984024 0.08191934 -0.10117215 -0.01326731
0000e0 e4 d3 17 be ba d2 14 3e 5b 30 b7 bc 1e 05 8b be
       -0.14826924 0.14533511 -0.022361925 -0.27152342
0000f0 bc 38 7c 3e 85 00 22 3e 03 31 dd 3d 64 a8 ef 3b
       0.24631017 0.1582051 0.10800364 0.007313775

decoder.2.weight f4 [784, 64]
000000 e0 bf f6 3d de d7 92 bd 08 0c e4 3c ac ff 7f bd
       0.12048316 -0.0717008 0.027837768 -0.062499687
000010 5a 60 9d bd 20 2a f9 bc 70 b1 40 3d b2 a4 8c bd
       -0.07684393 -0.030415595 0.047044218 -0.06867351
000020 28 b7 b8 3b 12 7f 80 bd 00 77 1e be 90 14 99 bd
       0.0056370683 -0.06274237 -0.15475082 -0.07474625
000030 f1 c1 da bb 1f 2e 85 3c 0f 2d 21 3d 2a cd d9 bd
       -0.0066759516 0.016257344 0.03934961 -0.10634835
000040 56 b5 b4 ba a6 e4 ed bd 94 4f 00 bd c7 52 df bd
       -0.0013786952 -0.11615877 -0.03132589 -0.109044604
000050 a8 c8 41 bd a0 23 0f be d7 b2 98 bd 3f 2d ce bd
       -0.0473105 -0.13978434 -0.07455986 -0.10067224
000060 10 84 60 3d 90 b3 1b bc 4a c1 1a be 36 43 92 3d
       0.054813445 -0.00950326 -0.15112796 0.07141726
000070 70 c8 02 3c dc da 9d bc 4e 44 ab bd a4 bf 9e bd
       0.007982358 -0.0192694 -0.083626375 -0.07751396
000080 00 09 17 3c 38 47 21 bd ca 2c d0 bd 87 51 09 be
       0.009218454 -0.03937456 -0.10164793 -0.13410006
000090 f3 f1 28 be 4c e8 31 bc 84 50 19 be c6 bf 0e be
       -0.16498546 -0.010858607 -0.1497212 -0.13940343
0000a0 46 8d d5 bd 33 8d fb bd 0a d9 98 bd 98 88 a2 3d
       -0.104273364 -0.12282791 -0.07463272 0.079362094
0000b0 d2 7c 30 bd b8 bf 21 be e0 4a 97 bb 98 99 d0 3c
       -0.043087788 -0.15795791 -0.00461708 0.025463864
0000c0 10 af b7 bc fd e2 c7 bd 22 22 40 be 6a 0d 59 bd
       -0.022422343 -0.097600915 -0.1876302 -0.05299131
0000d0 6c 5f 55 bd a4 bc 23 bd a8 12 aa 3c fc b5 de 3d
       -0.052092955 -0.039974824 0.02076085 0.108745545
0000e0 24 d0 19 bd 42 e2 93 bc 84 b8 0d 3d e6 d0 a6 bd
       -0.037552014 -0.018052224 0.034599796 -0.08145313
0000f0 6e 8d 9b 3d de 51 2a bd 00 f8 29 be 76 0d 9c bd
       0.07595335 -0.04158198 -0.1659851 -0.07619755
000100 d4 9a 8e 3d 16 13 62 3c c0 09 a9 bd 5c f3 a8 3d
       0.06963125 0.013798496 -0.08253813 0.08249542
000110 c8 fc fd bd a4 a3 73 bd 04 38 35 bd c2 09 ab bc
       -0.1240173 -0.05948223 -0.044242874 -0.020878676
000120 2f 1a 42 be 74 52 24 3c fc c4 9d bc c9 89 30 bd
       -0.18955301 0.010029424 -0.019258969 -0.043100152
000130 b6 19 44 bd 5f fd 4e be 42 01 df bc 00 3c 72 39
       -0.047876082 -0.20213841 -0.02722228 0.0002310127
000140 dc f5 44 be d0 f4 f6 3c 00 81 08 bd 82 7f 0e be
       -0.19234413 0.030146033 -0.03332615 -0.13915828
000150 4c 0b 7c bd 56 42 b9 bd a3 23 53 bd cf ef de bc
       -0.06153421 -0.09045856 -0.051547658 -0.027213959
000160 d6 35 8d bd 40 e4 20 bc 96 d7 41 3d de ae 93 bd
       -0.06895034 -0.009820044 0.04732474 -0.07211088
000170 44 eb 13 3d 90 0e b5 bc e7 81 d7 3c 80 32 a2 3d
       0.03611304 -0.02210167 0.02630706 0.07919788
000180 fe 6a 80 3c a4 88 71 bd 52 10 f6 bd 95 b3 87 bc
       0.015676018 -0.0589682 -0.120148316 -0.016565124
000190 eb 20 fe ba a0 06 05 bd 3b e4 a9 bd 09 a1 0d be
       -0.0019388472 -0.03247702 -0.08295485 -0.13830961
0001a0 78 f3 90 bd e2 26 28 3d a6 c6 83 bd 48 e1 0f 3d
       -0.07077688 0.041052707 -0.064343736 0.035126954
0001b0 94 63 1d bd 3c 2b 38 3c 4a d9 b0 3d 35 a2 15 bd
       -0.038425043 0.011240777 0.086351946 -0.036531646
0001c0 40 f2 37 bb 73 42 18 bd 30 5c 1b be e7 a6 2f bd
       -0.0028067976 -0.037172746 -0.15171885 -0.04288378
0001d0 e0 e6 eb 3b 00 8b 11 be 92 c4 b3 bc 97 48 31 be
       0.0071991533 -0.1421318 -0.021944318 -0.17312847
0001e0 71 be 2f be 12 db 50 bd d1 18 45 3b 89 3d 0f bd
       -0.17162491 -0.05099017 0.0030074606 -0.034970794
0001f0 e8 ce 47 3c bd bf 3d bd 01 45 66 bd 7e 8a 09 be
       0.012195326 -0.046325434 -0.05621815 -0.13431737
000200 e4 53 e2 3d 14 4e 74 be 9c ce d9 bd 14 23 e0 3d
       0.11051157 -0.2385791 -0.10635111 0.109441906
000210 10 e5 77 bd 84 c2 06 bd 8c 54 ac 3d 61 a4 32 3c
       -0.060521185 -0.03290035 0.084145635 0.010903449
000220 bd 91 2a be cd eb b7 bd 08 85 88 3d e8 04 ab bc
       -0.16657157 -0.08980522 0.06665999 -0.020876363
000230 26 14 33 bd ca 46 a0 bd 34 15 86 bc f8 6f 8e 3c
       -0.043720387 -0.07826002 -0.016367532 0.017387375
000240 d3 fc 06 3d 98 78 23 3d 60 20 85 3b f2 1a 5d bd
       0.032955956 0.03990993 0.0040626973 -0.053980775
000250 cc 0e ad bd 2a c3 2f be a8 f9 82 bd a0 48 32 bc
       -0.08450088 -0.17164293 -0.063952744 -0.010881573
000260 88 ea 84 3d 58 16 cb bc 9a 65 83 bd a0 b5 38 bc
       0.06490046 -0.024790928 -0.06415863 -0.0112737715
000270 ba c0 94 bd e8 11 75 bc 9c af 0b be 38 4d 84 bd
       -0.07263322 -0.014957882 -0.13641208 -0.06460041
000280 3c a5 a8 3d c8 a3 56 3d 14 7c 33 bd e8 24 16 be
       0.08234641 0.052402288 -0.043819502 -0.14662516
000290 81 27 01 be 58 5a 96 bc 68 46 42 be 0e 35 9c 3d
       -0.12612726 -0.018353626 -0.1897217 0.07627307
0002a0 e0 98 6f 3d 91 94 df bd 00 71 f3 3c 7e b1 c9 bd
       0.058495402 -0.10917009 0.029716969 -0.09848307
0002b0 fc a2 e4 bc ce 7a 0c 3d 34 8b b7 3d 00 07 96 ba
       -0.027909748 0.034296803 0.08962098 -0.0011446178
0002c0 e9 3c 19 3d e4 7d 98 3d fe ad 0c be 61 d6 de bd
       0.037411604 0.07445887 -0.13738248 -0.10880733
0002d0 10 87 4d bd 34 ba af 3d 30 8f 97 3c 28 85 d6 bc
       -0.050177634 0.08580437 0.018500894 -0.02618654
0002e0 e0 53 7f 3d 11 84 1a be ee c6 bc bd 8a 65 e6 3d
       0.06233585 -0.15089442 -0.0921763 0.11249836
0002f0 15 c2 86 bd 86 0a 0a be c2 13 35 be cc 78 98 bd
       -0.06579987 -0.13480577 -0.17683318 -0.07444915
000300 b8 91 f4 bc 80 65 19 bb 0f 0f fc bb 08 97 ef 3d
       -0.02985464 -0.0023406446 -0.007692225 0.11698729
000310 1c ba f9 bd 1a 65 bf 3d 94 ac 56 3d 3d 5c ed bd
       -0.12193701 0.093454555 0.052410677 -0.11589859
000320 11 71 32 be 70 0d 44 be 70 c7 46 bd fe 3d 5d bb
       -0.17425944 -0.19145751 -0.048530042 -0.0033758874
000330 c5 ac 0c be a0 b7 cb 3b 63 c3 17 3d 3a 96 a8 bd
       -0.13737781 0.006216958 0.03705157 -0.082317784
000340 57 0b d7 bd 02 b5 cf bd 94 eb 40 be 8a 98 d9 bc
       -0.1050021 -0.101419464 -0.18839866 -0.026561994
000350 fc 0e 7f 3d d9 25 3b 3d f8 a2 48 bd 64 d5 0b 3d
       0.06227015 0.04569039 -0.048983544 0.034139052
000360 40 b9 27 bc 28 cb 04 bd ae 3c 07 be ce 65 cb 3d
       -0.010237038 -0.032420307 -0.13206741 0.09931527
000370 3a af b4 3d 4c da 26 be 14 6d 4e 3d 40 e5 ab 3b
       0.08822484 -0.16294211 0.050396994 0.0052458346
000380 52 17 fc 3d e6 7c c3 bd c8 f9 97 3d a9 7a c4 3c
       0.123091355 -0.09545307 0.07420689 0.02398427
000390 42 2a b7 bd a0 41 75 3d a8 26 46 be 82 51 f7 bd
       -0.08943607 0.059877038 -0.19350684 -0.12076093
0003a0 d0 20 42 3d 1d 65 f9 bd bc d2 e9 3d 40 0d d4 bd
       0.047394574 -0.12177489 0.114171475 -0.1035409
0003b0 05 52 d6 bb 4b d0 89 bd 4a eb d9 bd 98 79 90 bd
       -0.006540539 -0.06729182 -0.10640581 -0.07054442
0003c0 7e d9 8a 3d 01 6c f2 bc fd 73 3d 3d d8 1b ec 3c
       0.067797646 -0.029592516 0.046253193 0.02882187
0003d0 c6 bd f5 3d 3f 9f e9 bb fb 72 a1 bd 3b db 09 bd
       0.11999087 -0.0071295793 -0.07883259 -0.03365634
0003e0 03 18 0f be 52 fd 99 bd 07 44 2b be 84 ca ae bd
       -0.13974003 -0.0751902 -0.16725169 -0.085347205
0003f0 fc d8 e5 bd 6b af 0c be 41 62 4a 3c 14 e3 7c bd
       -0.11223027 -0.13738792 0.012352527 -0.061739996

decoder.2.bias f4 [784]
000000 91 3e 42 3c 08 d4 b3 bc 89 43 51 3c d6 d7 bf bd
       0.011855737 -0.02195169 0.012772449 -0.09367339
000010 ab 27 13 be 64 32 29 bd 75 b5 1f be 1c 69 8d bc
       -0.14370601 -0.041307822 -0.15596564 -0.017262034
000020 d9 cf 9c bd d3 7a 21 be 45 e8 aa bd a9 22 0f be
       -0.07656831 -0.1576951 -0.08345083 -0.13978066
000030 88 1f 2d be 6d a9 03 bd b8 e0 3f be f7 bd 0a be
       -0.1690656 -0.032144 -0.18738067 -0.13549028
000040 b7 67 3a be d0 6d de 3c c0 18 b0 3c 83 3a f3 bc
       -0.18203627 0.027151972 0.021496177 -0.029690986
000050 c0 77 0b bd 8d cc 24 be 2c 48 1f bd 3e 0a 1d be
       -0.03404975 -0.16093655 -0.038887188 -0.15335938
000060 45 5c 2b be d9 d8 f2 3c 26 45 b6 bd 70 4e 38 be
       -0.16734417 0.029644417 -0.08899908 -0.17998672
000070 9d aa 0b be 2b 3f 6f bd f9 59 42 bb 4d 6e 42 be
       -0.13639303 -0.05840985 -0.0029655679 -0.18987389
000080 0a 7f 08 bd 7a 93 89 bd e8 84 60 bb 4e 60 9c bd
       -0.03332428 -0.06717582 -0.0034258906 -0.07635556
000090 3b 28 1a be fb cf 74 bd 4b fc 36 be 47 31 d5 3b
       -0.15054409 -0.059768658 -0.1786968 0.0065061185
0000a0 88 11 fc bb 12 ef 64 3b e9 3d db 3b 2f 02 be bd
       -0.0076925196 0.0034932536 0.00669073 -0.0927776
0000b0 c3 9c b1 bb f2 73 1c be 6d ae 25 be 9a 4c 85 bd
       -0.005420299 -0.15278605 -0.1617982 -0.06508751
0000c0 05 b5 23 be 1c 92 4c bd fe eb 32 be 9c a4 76 bc
       -0.15987022 -0.04994403 -0.17472836 -0.015053894
0000d0 b5 a3 e4 bd 9b bb 97 bd a1 83 c8 3c a0 1a f9 3c
       -0.11164037 -0.0740883 0.024476828 0.030408204
0000e0 14 81 f8 bd 09 df a7 bd 86 33 d1 bd dd 3f 60 bd
       -0.12133995 -0.081968375 -0.102149054 -0.054748405
0000f0 4d 1b 17 bd be 4d c9 bd 75 87 a8 bd c6 07 6d be
       -0.03689127 -0.09829281 -0.082289614 -0.23147497
000100 a3 85 8a bc 7c 6d f5 bd 49 14 e0 3b ba 2e d8 bd
       -0.016909426 -0.11983773 0.0068383557 -0.105557874
000110 2c b6 24 be 46 27 12 be 1a c0 34 be ec 98 3b be
       -0.16085118 -0.14272794 -0.17651406 -0.18320054
000120 a1 79 f4 bc 6a d5 b1 bd ef 06 10 bd 8e 69 c5 bd
       -0.029843153 -0.086832836 -0.035162862 -0.096392736
000130 d8 f5 66 bd 21 18 01 bd 8a 91 38 3c 4e f7 af bd
       -0.0563868 -0.03151715 0.011265168 -0.085920915
000140 a9 81 09 be c5 eb bf bd 1d b9 83 bc 6c 62 ba bc
       -0.13428368 -0.09371141 -0.01607948 -0.02275201
000150 97 62 9d bd cd 0d df bd ed bb 35 bd b7 06 d6 bd
       -0.0768482 -0.10891304 -0.044368673 -0.104504995
000160 35 e1 50 bc b0 7b 33 bd 67 9b 4c be 97 13 00 be
       -0.012749006 -0.04381913 -0.19981156 -0.12507473
000170 04 51 01 be a6 c0 2f bd ef 67 b8 bd fd 84 9b bd
       -0.12628561 -0.042908333 -0.09004199 -0.07593725
000180 95 3a 17 3d 5c fe 56 be a2 b8 04 be ef 85 a9 bd
       0.036921103 -0.20995468 -0.12961057 -0.08277499
000190 7b 06 81 bd fb aa 43 bd cc ab 37 be 40 68 6e be
       -0.06300064 -0.04777048 -0.17936629 -0.23281956
0001a0 a3 de 19 be 89 e5 22 be 45 7a 2d be ce 0e 88 bd
       -0.15026335 -0.15907873 -0.16941173 -0.06643449
0001b0 c2 ba 48 3d fd d9 da bd 2c df 84 bd 66 29 a4 bd
       0.04900623 -0.10686109 -0.06487879 -0.080157086
0001c0 6b ad 1b be ff b7 2c bd 57 17 6f bc 94 a2 0f be
       -0.15202872 -0.04216766 -0.014592967 -0.14026862
0001d0 ce 3a 10 bd fa 1e 62 3d 1b 6a a6 bd 47 73 50 bd
       -0.03521233 0.055205323 -0.08125707 -0.050891187
0001e0 c8 32 a1 bd 05 2a 24 be f3 f2 37 be 0a c2 09 be
       -0.07871014 -0.16031654 -0.17963772 -0.13452926
0001f0 99 f2 de bd 96 92 45 3c 3d c3 7c be 88 ae cd be
       -0.108861156 0.012058875 -0.24683852 -0.4017222
000200 4c 69 88 be d9 b2 80 be fb 90 ae be 9c 7b d7 be
       -0.26642835 -0.2513645 -0.34094986 -0.42086494
000210 4d c0 4c bd d6 2b 29 be 89 94 8f bd 24 cf e4 bd
       -0.04998808 -0.16520628 -0.07010753 -0.111723214
000220 02 e9 20 3a db 66 36 be 02 90 c2 bd 00 26 b3 bd
       0.00061382365 -0.17812674 -0.095001236 -0.08747482
000230 01 5d 00 be 95 77 fe bd 60 e9 7c bc a0 12 e6 bd
       -0.12535478 -0.12425152 -0.0154365 -0.11234021
000240 19 d8 cf bd bb d7 35 be 88 60 60 3c d1 8f 80 be
       -0.10148639 -0.17758076 0.01369489 -0.25109723
000250 cd 4f 01 be 69 3f b1 3c 4e 86 1e 3c e1 ed fb 3d
       -0.12628098 0.021636682 0.009675575 0.12301231
000260 13 f8 3b 3e ff a0 fa 3d 9a 9e 35 be 18 21 9e be
       0.18356352 0.12237739 -0.17736283 -0.30884624
000270 04 9a f8 bd 7d 8c 9d be 8e fc 06 bf 7d 14 d8 be
       -0.12138751 -0.30771247 -0.5272912 -0.4220313
000280 ea 60 be be 65 19 9f be 15 fc e9 bc ce b3 ef bc
       -0.37183315 -0.31074062 -0.028562585 -0.029260542
000290 52 b9 cf bc 02 e1 1f bd d9 2b 3d be cc ad da bd
       -0.025356922 -0.039032944 -0.18473758 -0.106776804
0002a0 c7 f4 26 3d 04 9d b4 bd 5d e1 ad bd f3 2c b7 bd
       0.04076078 -0.08819011 -0.0849025 -0.0894412
0002b0 26 9c d0 bd 38 d3 89 bd cb 58 12 be e0 ba 88 bb
       -0.10186033 -0.0672974 -0.14291684 -0.004172668
0002c0 ad 06 2e be ca 0f 8d 3d a2 f9 85 3e c9 ca 86 3e
       -0.16994734 0.06887777 0.26167017 0.26326588
0002d0 2b 5d 9b 3e 91 fe a7 3e 8b 50 ea bc 25 46 c2 bd
       0.3034452 0.32811406 -0.028602859 -0.09486035
0002e0 e3 a7 20 be 88 06 30 be d4 26 37 be 88 88 24 be
       -0.15689044 -0.17189991 -0.17885906 -0.16067708
0002f0 67 05 7f be e6 ea d4 bd 53 46 98 ba 5e bc af bd
       -0.24904405 -0.10396366 -0.0011617638 -0.0858085
000300 01 3e 96 bc 60 0e 4c be ac 94 e0 bd 61 a7 0d be
       -0.018340113 -0.19927359 -0.10965857 -0.13833381
000310 73 1c 00 be 10 f0 c7 bb 1f b7 81 39 db 41 13 be
       -0.12510853 -0.0061016157 0.00024741233 -0.1438059
000320 88 4a 1a be 40 51 d4 bd a4 d1 c1 bd b6 ec 49 bd
       -0.15067494 -0.1036706 -0.09463814 -0.04929801
000330 fc c1 69 3d 4c 57 8a 3e c4 ba a5 3e 06 0c bf 3e
       0.057069764 0.27019727 0.32369053 0.3731386
000340 74 3c f4 3e ba 89 8a 3e 14 43 ad 3d 6f 24 cf bc
       0.47702372 0.27058202 0.0846006 -0.025285928
000350 f0 20 61 bd e1 41 b5 3d 80 8f e5 3d be 12 e3 3c
       -0.054963052 0.08850456 0.11209011 0.027718898
000360 eb 48 44 3d 71 be 11 3d 95 91 0f 3d 7d 92 cf 3d
       0.047921102 0.03558201 0.035050947 0.10135362
000370 c3 a0 12 be 12 af 4c bb 84 98 10 be df 52 16 be
       -0.14319138 -0.003123228 -0.1412068 -0.1468005
000380 22 14 d3 bd f3 0f e9 3c 52 9d de bd 0f 41 01 be
       -0.103065744 0.028449988 -0.1086985 -0.12622474
000390 b3 66 46 bc 27 90 0e be 09 28 ea bd a6 4c a8 bc
       -0.012109446 -0.13922177 -0.11433417 -0.020544361
0003a0 c7 8d 66 3e 42 7a 98 3e ba 2b b6 3e 6b 7c 73 3e
       0.22515021 0.29780775 0.35580236 0.2377793
0003b0 2f 81 8c 3e 16 6d 00 3e 5b 68 61 bc b9 e6 2c bb
       0.2744231 0.12541613 -0.01375779 -0.0026382639
0003c0 e1 15 37 bc b1 9f 07 3e 74 d0 52 3e 00 26 e5 3d
       -0.01117465 0.13244511 0.20587331 0.111888885
0003d0 a8 a7 bd 3d db 71 b2 3d d2 04 0e be 72 bd 09 3d
       0.092604935 0.087131225 -0.13869026 0.033627935
0003e0 ef 95 14 be 61 ca be bd f3 24 27 be 56 b6 03 3d
       -0.1451032 -0.093159445 -0.16322689 0.03215631
0003f0 ab 88 32 3c 84 84 2c be eb 8e d9 bd 89 09 7c bd
       0.010896842 -0.16847426 -0.106229626 -0.06153253
