20220518280.pt (torch, 424079 bytes, 8 tensors)

encoder.0.weight f4 [64, 784]
00000000: 61df 6dbc acd2 f03c 90ec 9a3c bedd 973c
00000010: dff8 6b3c a4ab 42be fbe1 01c0 847b 95bf
00000020: ffbe bebf 4e84 17c0 69f4 2fc0 e155 d8bf
00000030: 61ca 5dc0 e32a 02c0 24da eebf 27ba 69bf
00000040: 4997 3e3e 72ba 6dbf 4999 0ac0 6c43 ccbf
00000050: 7607 c9bf da49 54c0 cb41 05c0 afa4 e5bf
00000060: 230f c1bc 4a5d e0bb 01e4 f7ba acb7 c1bc
00000070: e36c 8abc 4a3c f5ba adb5 853f f257 e93d
00000080: 4bb9 f2bf 5b8d 81bf 410e 85be 9d88 47c0
00000090: 7145 0fc0 b4b0 adbf 2316 53c0 f77e 1bc0
000000a0: 9071 05c0 4d85 23c0 ea84 70bf 39a5 973e
000000b0: 7cad c6bf e433 bbbf 17ff b1bf 43de 8abf
000000c0: 8b7c 50bf fe84 f1bf 81ed 71c0 3381 8dc0
000000d0: 7ced 23bf 7d65 ee3f 2545 caba 43f6 e1bc
000000e0: 25af 833c 251b 6d3c 4326 f2bd fe88 8cbf
000000f0: 65ef 3a40 f47b 96c0 d32c bd3e 2f97 08bf
00000100: 627d cfbf e19c 87bf 2f99 78bf 08c6 8f3e
00000110: 6026 2bbf 3365 28bf 8650 33bf 5ed3 a63e
00000120: 5ef1 f8be c044 62bf b53d 64bf b1e0 14be
00000130: 365b 7cbf 684a d8be 5f80 24bf 7cbd 9dbe
00000140: 85f4 dcbf a4e4 d43e 52dd 0bbe c0e6 8bbc
00000150: d821 013d 72c9 5fbf 8790 2fbf b641 14bf
00000160: 4f9f 57bf ad27 9cbf 5be4 9abe 5b9f 6d3f
00000170: a6a4 0bbf aee0 173f de0e 0dbf 8a75 f43d
00000180: c50d 9c3d 787a 57bc 97ea 883d 467a b4bc
00000190: 5474 b03e 0ed1 883d d3e2 50be f276 9cbd
000001a0: ce4c 583d 2607 b5be ed0e aabd b463 c2bd
000001b0: 8203 223f 49cb 423f 1a99 c5bf c41b 673f
000001c0: eea9 86bb b4f6 b93f 48bf a7bf 3a83 013f
000001d0: 8739 3cbf ba79 9d3f 9971 3cbf 3fc9 183e
000001e0: 317e fdbd f361 723e 8145 b8bd 2eb8 a83e
000001f0: f533 543a 9cad 2c3d 7008 8d3e b279 a0bd
00000200: 9652 2a3e 353b 9abd a756 84bd 0b6d 443e
00000210: 8b3b 0bbe d5d4 2e3d 4925 713e 29e4 aebd
00000220: 4bbb 6b3f bbbc a4bf 0506 233f 2b3b 10bf
00000230: ea6f 60bc e53e d4be 5b6b 2bbf 4304 733f
00000240: e598 8dbe 5aab 0ebf 098d 5a3e 8109 4ebe
00000250: 85de 213e 36d8 11be 1312 d8bd b2ec 2e3c
00000260: 33c0 3a3d deb4 903d de68 55bd fea0 63bd
00000270: 37e5 ad3d f529 053e 3249 963d 26a5 d73d
00000280: dcb8 bcbd fa7d b4bd b80b 33be 1902 3abe
00000290: 1ef4 293f 8abe 863c a030 93bf d042 edbd
000002a0: d0be 8cbe 506b 28bf 331c 953f 9465 8abd
000002b0: cdaf 063f 3118 ccbd 74e9 a43d f557 5a3d
000002c0: 0606 643c 1e96 6bbb d96a aebd bb6b 2bbd
000002d0: fe16 05be b950 d43d b5b8 aebd 2fd3 e53d
000002e0: 3d96 893d 0270 403d df2f eb3d 59ba 573e
000002f0: 3a10 e1bd a0e5 b83d 2365 1bbe bf7b ba3d
00000300: cd54 3cbf 69d2 3b3f 614b c4bf 6e2b 2f40
00000310: 502a 1d3f 0a0b f43f 025d 9e3c e784 f13e
00000320: 19ba b7bd ff30 49be 5993 f2bd 8ac5 7b3d
00000330: b846 5abe f024 91bd 8f5f 5a3d 61ef 24ba
00000340: 0943 4dbe b0e1 13bd 5231 863c b573 ad3d
00000350: 5c81 d5bd 35a0 213e 8df5 9b3d a662 b8bd
00000360: 3bfc 01be c645 61bd 4f42 75be 3803 40be
00000370: 4fdb ac3e e0f6 10bf 7b00 31bf a7d0 8c3f
00000380: abe1 b73e d322 963e de98 84bf 236b 6c3e
00000390: 8528 62be dedc 853e 3f54 c6bc e16e f3bd
000003a0: 3a59 e13c ceda 00be 7d2d 6abd e695 323e
000003b0: 9c18 273d 2abc 4e3d 03f5 b23b 61cf 7b3d
000003c0: e06f db3d c6ec c83d cbcb 4b3d 4a51 d43c
000003d0: 34e5 153e e7d6 22be 6299 1c3e d5b7 89be
000003e0: a131 83bd 8c20 7cbe f60b f5bf b366 6a40
000003f0: 3edd 353f f61f 85bd 5a4f d33e 934f 8abe
-0.01451859 0.029397331 0.01891163 0.018538352 0.014402597 -0.19010788 -2.0294178 -1.1678319
-1.4902037 -2.3674502 -2.7492926 -1.6901208 -3.4654772 -2.0338676 -1.8660321 -0.9129967
0.18612398 -0.9286262 -2.1656058 -1.5958076 -1.5705402 -3.3170075 -2.0821407 -1.7940882
-0.023566788 -0.0068470584 -0.0018912555 -0.023647152 -0.016897624 -0.0018709984 1.0446068 0.11393727
-1.8962797 -1.0121263 -0.25987437 -3.1177132 -2.2386134 -1.356955 -3.298226 -2.4296243
-2.0850563 -2.555011 -0.9395281 0.29618242 -1.5521693 -1.4625211 -1.3905972 -1.0849079
-0.8144004 -1.8868711 -3.780121 -4.4220214 -0.6403425 1.8624722 -0.0015431984 -0.027583247
0.016074726 0.014471804 -0.11823704 -1.0979307 2.9208615 -4.702631 0.3694826 -0.5335569
-1.6210139 -1.0594751 -0.9710874 0.28080773 -0.6685543 -0.6577942 -0.70044744 0.32583135
-0.4862165 -0.88386154 -0.8915666 -0.14538838 -0.98576677 -0.42244267 -0.6425838 -0.30808628
-1.7262121 0.4158069 -0.13658646 -0.017077804 0.031526417 -0.87416756 -0.68579906 -0.57912767
-0.8422746 -1.2199608 -0.30252346 0.9282128 -0.5454811 0.5932721 -0.5510081 0.11936481
0.07619814 -0.013151757 0.066853695 -0.02203096 0.3446375 0.06680499 -0.20399027 -0.076398745
0.05280762 -0.35357016 -0.08303628 -0.09491673 0.632866 0.7609144 -1.5437348 0.9027674
-0.0041096127 1.4528413 -1.310525 0.5059086 -0.7352528 1.2302773 -0.73610836 0.1492052
-0.12377585 0.23670177 -0.08997632 0.32953018 0.00080949004 0.042157754 0.275455 -0.078357115
0.16633067 -0.07530824 -0.0646184 0.19182222 -0.13596933 0.04268344 0.2354938 -0.08539612
0.9208266 -1.2870096 0.6368106 -0.56340283 -0.013698557 -0.41454235 -0.66960686 0.9492838
-0.27655712 -0.5573021 0.21342863 -0.20120813 0.1580754 -0.14242634 -0.105503224 0.01067655
0.04559345 0.07065748 -0.052101962 -0.055573456 0.08490985 0.13004287 0.0733818 0.105295464
-0.09214947 -0.088130906 -0.17484939 -0.18164863 0.6638812 0.016448278 -1.1499214 -0.11585009
-0.27489328 -0.65788746 1.1649231 -0.06757656 0.52612 -0.09965552 0.0805234 0.05330654
0.013917452 -0.003594763 -0.08516473 -0.041850787 -0.12997052 0.10366959 -0.08531324 0.11221921
0.06718109 0.04698182 0.1148374 0.2106718 -0.10989423 0.090281725 -0.151753 0.09105634
-0.73566896 0.73367935 -1.5335504 2.7370257 0.6139269 1.9065869 0.019331459 0.4717171
-0.08971042 -0.19647597 -0.118445106 0.061467685 -0.2131604 -0.070871234 0.053313788 -0.0006291774
-0.20045103 -0.036103904 0.01638094 0.08469335 -0.10425064 0.1578377 0.076151945 -0.09003191
-0.12693875 -0.05499818 -0.23951076 -0.18751228 0.3376107 -0.566267 -0.6914136 1.1001176
0.35914358 0.29323444 -1.0359151 0.23087744 -0.2208577 0.2614507 -0.024210094 -0.11886383
0.027508367 -0.12583467 -0.057172287 0.17439994 0.040794954 0.050472416 0.0054613366 0.06147707
0.10714698 0.09810786 0.0497549 0.025917668 0.14638215 -0.15902291 0.15292886 -0.26898065
-0.0640595 -0.2462179 -1.9144275 3.6625183 0.71040714 -0.06500237 0.41271478 -0.27013835

encoder.0.bias f4 [64]
00000000: edc3 2c40 9595 133f 63ac aabf 1367 1140
00000010: f7b0 0640 5cd9 73c0 3ecd 0240 66b6 1540
00000020: 7967 ed3f 9d6e dd3f b9ab 2540 d6b2 1440
00000030: bfef b63f 9837 4340 a561 2440 2bfc 2140
00000040: 2ad8 5240 05ab 0940 fade 0140 358d 93be
00000050: b402 7340 11cd 3e40 0b26 233e fc63 6c3f
00000060: 8e6c 0940 4a0a 1a40 14fa bd3f 59be 2c40
00000070: c936 613c 6d39 933f 9faa a73f b351 c53f
00000080: 10ab d33d 3a05 e03f 0bc3 5140 a769 0340
00000090: e8bc 2540 a879 2c40 2bf7 1440 5ac1 703f
000000a0: 5820 7a3e 9615 db3e e994 1440 f6aa d83f
000000b0: 8ca0 3a40 e0dd 1a40 db05 cd3f 185d 0540
000000c0: ec83 98be 87ba d33d 3926 c6bf f37f 4e40
000000d0: 0574 013f c086 0140 aa21 f13f cfcf 3240
000000e0: a561 0f3f 361b 1abf 7efe 753f 4861 513f
000000f0: 9fe6 d03f 2ed8 6040 01d5 a73f 91b4 e03f
2.6994584 0.5765012 -1.3333858 2.2719162 2.104551 -3.8101416 2.043777 2.3392577
1.8547202 1.7299381 2.588606 2.3234153 1.4291915 3.0502682 2.5684597 2.531016
3.2944436 2.1510632 2.0292344 -0.2881867 3.79704 2.9812663 0.15932481 0.92340064
2.1472507 2.406878 1.4841943 2.699118 0.013745972 1.15019 1.3098944 1.5415558
0.10335362 1.7501595 3.2775295 2.0533235 2.589655 2.6949253 2.327586 0.9404503
0.244264 0.42789906 2.3215888 1.6927173 2.916049 2.4197922 1.6017412 2.083807
-0.29788148 0.10338312 -1.5480415 3.2265594 0.50567657 2.0238495 1.8838398 2.7939336
0.5600837 -0.6019777 0.9609145 0.81789064 1.632038 3.5131946 1.3111879 1.7555104

encoder.2.weight f4 [32, 64]
00000000: 4580 ccbe 0199 e3bd e26b 9ebe 31b5 b4be
00000010: 19c1 36be 1b2e b73c 04c5 a2bd 6360 a33c
00000020: 8195 bc3a b0f7 2dbe e243 45bd e41c aebe
00000030: da8f 13bd 629b 0ebe 2f4e 9ebe 971b 223c
00000040: 666f 843d 97c3 4f3d a784 bbbd 8f64 3ebe
00000050: f7a4 1bbe 6a24 20be e2b1 d8bc 4f5f a3bd
00000060: f83c 083d dc8e e5be 5c08 ddbe 0f56 babe
00000070: 1350 d5be 93b7 c8bd c326 58bd 86b0 cebe
00000080: d75e 86be 3d66 32be 3e20 1fbe 91b0 d6be
00000090: 9f3f 5fbd 4874 14be 87c6 27be 75c2 dfbe
000000a0: 0917 47be 0e28 94be 55a4 613d ad91 4cbe
000000b0: 1d8a 0dbc 88bf 8cbd df5b f3be 6da7 d8bd
000000c0: d421 e2be 18c9 8abe 56ec 93be a1c8 3cbd
000000d0: f2bb 1fbe 8921 ccbe 3d4d 90be 54bd 10be
000000e0: 9fca 80be a62b dbbe 2dfd b13c 5d75 b5bc
000000f0: 3b57 c0be c63d ac3c 2564 3ebd cf0e 38be
00000100: 2382 513d 1b71 4ebb 51c5 c0be 9e6d 4cbd
00000110: e79c f63c 0116 0abc 2252 86be 9846 e1bc
00000120: 90d9 1f3d ccaa bfbd 3aa4 543d 9f1d c9bd
00000130: 8e6d b6bc 827c 32be 70d8 05be 2687 e03b
00000140: b3e7 30bd 6571 37bd e4c6 96bd c2fb bfbe
00000150: 9b84 bebd 209c 1fbe ee5a 7d3d 20d8 58bc
00000160: e463 27be 1f64 e1bd c0f6 09be d6f5 bebd
00000170: 2f11 83be 19f3 bbbd cc34 23be fb13 2dbe
00000180: 3e88 9dbe 9fa8 b5bd f446 36bc 10d3 aebd
00000190: fa69 febd ee8f 25be 7d6b 2ebe 6b32 8ebe
000001a0: 6519 c3be ed02 96be 5f35 053d 7549 3cbd
000001b0: d3a6 9abd a078 2abe f859 8ebe 5d1c 3abe
000001c0: e71a 8dbe 9c11 29be a91a 97bd 6e73 63bd
000001d0: 7f27 2abe a2d5 8abc 1036 39be 5e98 04be
000001e0: f019 c5be b8e0 93be 7e1e f73b 220c 01be
000001f0: ab84 2fbe 78d0 ccbd 5929 0fbe 6abc ad3c
00000200: 3c12 3b3f a528 22be 9440 863c 71ef 79bc
00000210: d63a 23bf 9325 0c3c db87 7b3e b94c 233f
00000220: 72ec 633c 787b cb3d e6bc 73bf d9ee f8bc
00000230: c8dd 1fc0 f5c2 cfba cd81 c9bc 85cc 703e
00000240: 3fdd 493e 2979 023d 45d1 953c 5966 8c3c
00000250: ec52 adbf 988c 253d c37d 9f3c c2c4 e53c
00000260: 6745 f6be fc2d 42bc 9623 d13a aae7 55bc
00000270: 003c 573d 7f3a 95bf c074 8a3e cbf8 273c
00000280: 4fc6 243c 982d 38bc ef24 febf 6741 f73d
00000290: 41da 9fbf 05be e2be c32b 73be f752 a0bb
000002a0: 5b79 74bc 448e fcbd ae3a 99bc b27d 9fbd
000002b0: 559b a5bb 984c 10bd 4388 863e 34b4 a0bd
000002c0: 214e 16bd 8ec7 86bb bb5f 4abc 4d58 1a3f
000002d0: be2c 5f3e f011 a9bc 6486 d53c b005 8ebd
000002e0: 1bf2 bc3c bb47 223c 72bb 343d fb3b bc3d
000002f0: f316 c63c b403 833d 4022 a63c c076 9d3d
00000300: 0c07 6e3d 3b0a f23d 9f69 f33c d522 63bd
00000310: cff0 e43c ebd1 cbbd ee63 5d3e 966f 433f
00000320: ae9e 8dbc acc0 093d 78e0 a5be 4dc8 1f3e
00000330: 5c89 3fc0 c2fe 093d 8e45 70bd d7e4 34bd
00000340: b6e4 17bc f01e 593f 3801 7ebc 2cbd dbbd
00000350: 3470 ab3d 45a5 85be f591 3d3c 9254 5fbd
00000360: aa93 6cbc 059b fa3c d533 173d cb8e c53d
00000370: fc24 bcbb 268e 2fc0 50e0 e83e 6993 98bc
00000380: ac28 79bd e7ad 2d3e f283 38c0 2296 2dbd
00000390: 2bbe 4abf 2a03 fb3e 1043 f8bd 0450 8b3c
000003a0: 286f a23b 2c72 bcbc b942 83bd 6385 91bc
000003b0: ec0f 8cbd f57b 6d3e 632c 0c3d 263f f6bd
000003c0: a7c5 043d 075f 303d d57d 31bd d762 b9be
000003d0: 2987 833e 4319 843c a6a2 0a3b e9e0 a4be
000003e0: 6e94 a2bc f515 b43c ebfd da3d 732d 0d3d
000003f0: 4366 23bd 6659 353e c6a9 d13d 4076 83bb
-0.39941612 -0.111131676 -0.30941683 -0.35294488 -0.17847098 0.022360852 -0.07947734 0.019943422
0.0014387817 -0.16989017 -0.04816044 -0.34006417 -0.03602586 -0.13926461 -0.30919024 0.009894273
0.0646656 0.05072364 -0.09156161 -0.18593048 -0.15199648 -0.15638891 -0.026452009 -0.07977163
0.03326127 -0.44835556 -0.4317044 -0.36393782 -0.41662654 -0.09800639 -0.05277134 -0.40369052
-0.26244232 -0.17421813 -0.15539643 -0.41931584 -0.054504033 -0.14497483 -0.16384326 -0.43703046
-0.19442381 -0.2893681 0.05508836 -0.19977446 -0.008638886 -0.06872469 -0.4753103 -0.10578809
-0.44166434 -0.27106547 -0.28891248 -0.046089772 -0.15599039 -0.39869335 -0.28183928 -0.14134723
-0.25154588 -0.4280674 0.021727169 -0.02215069 -0.37566552 0.02102555 -0.046482224 -0.17974399
0.0511495 -0.0031500522 -0.3765054 -0.049909227 0.030104114 -0.008428098 -0.26234537 -0.027499482
0.039025843 -0.09358749 0.05191443 -0.09820103 -0.022269037 -0.17430308 -0.13070846 0.0068520484
-0.043189716 -0.044785876 -0.07362154 -0.37496763 -0.09302636 -0.155869 0.061854295 -0.013235122
-0.16346699 -0.11005425 -0.13473034 -0.09324233 -0.25599048 -0.091772266 -0.15938109 -0.16902153
-0.30768007 -0.088700525 -0.011125315 -0.08536351 -0.12422557 -0.16168186 -0.17033191 -0.2777284
-0.38105312 -0.29299107 0.0325216 -0.04596849 -0.075513504 -0.16647577 -0.27803016 -0.18174882
-0.27559587 -0.16510624 -0.07378132 -0.055530004 -0.16616629 -0.016947571 -0.1808703 -0.12948748
-0.3849635 -0.28882384 0.0075414767 -0.12602285 -0.17140453 -0.100007 -0.13980617 0.021208007
0.730747 -0.15835817 0.016388215 -0.015254841 -0.6376165 0.00855388 0.24563543 0.63788944
0.013911353 0.09935659 -0.9521011 -0.030387329 -2.4979115 -0.0015850948 -0.024598027 0.23515518
0.19713305 0.03185383 0.018288264 0.017138647 -1.3540931 0.040417284 0.019469148 0.028047923
-0.48099825 -0.011851784 0.001595604 -0.013055721 0.052547455 -1.1658477 0.27042198 0.010252188
0.010057046 -0.011241339 -1.9855021 0.120730214 -1.2488481 -0.44285598 -0.23747163 -0.0048927027
-0.0149215115 -0.123318225 -0.018704738 -0.07787646 -0.0050539174 -0.035229295 0.26275834 -0.07846871
-0.036695603 -0.0041131442 -0.0123519255 0.60290986 0.21794412 -0.020638436 0.026065059 -0.069346786
0.023064664 0.009904797 0.044124074 0.09191128 0.024180865 0.06397191 0.020280004 0.076886654
0.05811219 0.118183576 0.02971345 -0.05545314 0.027946858 -0.09952148 0.21620151 0.7634214
-0.017287578 0.03363101 -0.3239782 0.15603752 -2.9927588 0.03369022 -0.058660083 -0.04416355
-0.0092708375 0.8481283 -0.01550322 -0.10729441 0.083710104 -0.26102653 0.011570443 -0.054524012
-0.014439503 0.030591497 0.036914665 0.09646376 -0.0057417136 -2.743051 0.45483637 -0.018624978
-0.060829803 0.1696087 -2.8830533 -0.042379506 -0.79196423 0.4902585 -0.12122166 0.017005928
0.0049570985 -0.02300366 -0.06409211 -0.017763799 -0.06838974 0.23191817 0.034222018 -0.12023763
0.03241506 0.043059375 -0.043332893 -0.3620822 0.25689057 0.016125327 0.0021154075 -0.32202843
-0.019846167 0.021983126 0.10692962 0.034467172 -0.039892446 0.17709884 0.1023746 -0.0040118992

encoder.2.bias f4 [32]
00000000: 6f95 a5be 59b6 7ebe fb6e 543f bb3c 873f
00000010: b374 8a3f 6b12 cc3c 57e7 8abd d5e7 1abf
00000020: ed69 d2be 0ed3 d5be bd21 843f e31a ea3e
00000030: 5fd6 85bd 6a04 22be 1b4a 653f fb4a d93b
00000040: df56 21be 10b1 3a3d 6a5c 553f d958 cd3e
00000050: 961b 0cbe 7362 ccbd bac0 163f 42ae 6bbd
00000060: aa57 8b3f 56b7 6abe 288f 803f 584c 0b3f
00000070: 364f 253d 4edc 3f3e 4774 563f 7584 633f
-0.3234057 -0.24874248 0.8298184 1.0565408 1.0816864 0.024911126 -0.06782406 -0.6051
-0.4109644 -0.41762584 1.0322796 0.45723638 -0.06535029 -0.15821996 0.895662 0.006631253
-0.15755795 0.045579016 0.8334414 0.40106848 -0.13682398 -0.09979715 0.5888783 -0.057539232
1.0886128 -0.229215 1.0043688 0.54413366 0.040358745 0.18736383 0.83771175 0.8887399

decoder.0.weight f4 [64, 32]
00000000: f1b3 81be 7c2c 92be f8f8 b7be e6e9 8abe
00000010: faf1 b7be 6fc3 93be d6c1 f4bd 95d0 ddbd
00000020: 4bbf d23e 1ab1 16bd 4dd5 e4bd f7fb e8be
00000030: 82f3 94be 02c9 923d fd30 dcbe e702 e8be
00000040: 53fa 98bd f596 b4be c756 5abe eebf a2be
00000050: f2aa 51be 1eaf bfbe 3e6a adbe d7bb d9be
00000060: 77cb 9a3e f8a8 d03e f320 db3e bd37 b8be
00000070: aeff 6b3e 6258 cebe 3eb2 5bbe 2f3e 233e
00000080: dedc 9bbe 2596 80be 3fe2 85bc ceed 923e
00000090: 5433 863d 0be6 f5bc c33c 82be 0697 15bd
000000a0: f582 9b3e 0d8f 8f3d 0dd8 18bb 023f d13d
000000b0: 727b f83b 98c2 29bc fb3b f4bd b3d4 dfbd
000000c0: f8fe 043d a0ff 0ebd 5e76 78bc 7af9 dd3e
000000d0: 05ec 86be 50d8 29be 2452 023b d9e8 4fbe
000000e0: 67a5 923d b53b 8d3d c464 0b3d 915f 7fbd
000000f0: 41ef 223e 9f95 123e 51b9 3b3e 95dd 3cbc
00000100: fa1d 053e 43d2 1d3c bae2 2bbc c07a 5abd
00000110: 5dce 5fbc bbc8 573e 62de f53d f91e 323e
00000120: 7a36 2abe 7fcb 1cbd e83d 34bd 05ce 5cbd
00000130: a4c0 da3d d7d7 03bc c33b ccbd 95d3 f0bd
00000140: 33e8 12be 5f08 093e 4880 96bd ead0 d73c
00000150: c9ea 6cbd 1dd1 3f3e 0595 90bd ba94 4d3e
00000160: 66b4 ebba 2a17 863d ad5f 143f 71ca 81be
00000170: 33f5 fbbd 93a7 d6bd 185f f63b 596f ca3c
00000180: 6ac3 bfbd 673c 8b3d 3401 babb e7d9 72be
00000190: 4368 efbd fcfa 0abe 4b7c 3bbe 9b4c f33d
000001a0: 16b7 2d3e 2460 e63d 15ba 4d3d 3d68 e7bd
000001b0: e429 22be 36c6 21be 8cfe d6bd 8d9e 893d
000001c0: 4588 a93c d485 c0bd 43c1 22be 6fa9 df3c
000001d0: e75d 51bd e838 b3bd dffd 3a3e 5bba 6abe
000001e0: f1d3 563d f624 c8bc 7b70 373e 4605 643d
000001f0: fdbd 2f3e ac5c 70be f41c e4bd 7046 1dbd
00000200: 45f1 d5bd cbe4 88be 7b74 edbd 354c 17be
00000210: 4bea 48be 73eb a9bd 21fe 6fbe ca9a b73d
00000220: db7d d83c 91ec 0f3e 0402 cbbc 7f5d a2bd
00000230: 0916 20be 7a38 64be 10d8 e93c 39fb 5abe
00000240: 35ef a33d 8877 46be 94e4 4fbe 1641 0dbe
00000250: cc46 8d3d 3673 31be c301 adbd f06b 5dbd
00000260: e477 03be 8fb8 7abd e499 8d3d 5c68 603e
00000270: ad18 6a3e f170 4cbe dc1b d0bd 1321 84bd
00000280: eabf a7bd 9e65 90be f872 8ebe 1273 a5be
00000290: c323 babe 0e56 adbe c98d c73b 4258 24be
000002a0: 68c7 873e b1ff d83d f74d 79be f01f 5ebe
000002b0: 9e5e 99bc f2d9 10bc 1ae4 0f3d d59c d6be
000002c0: c68c 88bc 1543 9abe dc5a 6fbe f56e 97be
000002d0: f6fd e0be 7130 95be dc01 78be 8db6 a5bd
000002e0: fc59 46be 2135 8a3e f8e9 b5be 077e a3be
000002f0: aff0 783e d442 7cbe 6262 d8be a938 033e
00000300: bfe5 8e3d 0964 f0bd fc61 13be c750 713c
00000310: 3f3e 8fbf 663e 23be e8e6 c23d 4de8 2abe
00000320: 0e46 4a3d 0ac1 023e 2f28 61be 9b2c 8cbc
00000330: 9139 36be c8c2 a6be a635 373e 0236 f23d
00000340: 28ee 22be 50ff cf3d a654 de3c d852 dc3c
00000350: 9aad a1bd 965e 47bc a399 873c 7c6c 293e
00000360: aff3 673c d008 ad3d 53c3 c2bd 46a0 fcbc
00000370: cee4 32bd 2c69 09be b79b 063f fb20 67bd
00000380: 12a1 96be 73f2 aabe 8e6f 203d af7f 35bd
00000390: 968a 65bc 82ca a8bd d666 f5bd 1ccb b8be
000003a0: 5d88 443e 7e23 2e3e e990 7e3d ff9e 5dbd
000003b0: e54c 87be 1ab1 23bd 49bc 4ebb 9e65 b6be
000003c0: fe88 9f3e 8df9 99bd a36c e23e bc06 343e
000003d0: ed74 d1bd c290 b0be fd80 5e3d 7363 4cbe
000003e0: 349c 2e3d 20ae 4e3e 3bdc 7d3d a268 d43b
000003f0: f5ac 693d 60d5 103d 5955 04bb 595d 983e
-0.25332597 -0.28549564 -0.35932136 -0.27131575 -0.359268 -0.28860041 -0.11951034 -0.108307995
0.4116157 -0.03678999 -0.111734964 -0.45504734 -0.29092032 0.071672454 -0.43006125 -0.45314714
-0.074696206 -0.3527142 -0.21322165 -0.31787056 -0.20475367 -0.3743829 -0.3387012 -0.42526123
0.30233356 0.40753913 0.42798576 -0.35980025 0.23046753 -0.40301806 -0.21454713 0.1594169
-0.30441946 -0.2511455 -0.016343234 0.28697056 0.06552759 -0.03001692 -0.25436983 -0.03652098
0.3037335 0.07009707 -0.0023322136 0.10217096 0.007583075 -0.010361336 -0.11925503 -0.10929241
0.03246972 -0.03491175 -0.01516494 0.43354398 -0.26351944 -0.16586423 0.0019885385 -0.20303668
0.07160454 0.06896154 0.034031644 -0.062347 0.1591158 0.14314888 0.18332411 -0.011527439
0.12999716 0.00963265 -0.010491068 -0.05333972 -0.013660041 0.21072666 0.12005307 0.17394628
-0.16622344 -0.038280006 -0.04400435 -0.053907413 0.106812745 -0.008047066 -0.09972336 -0.11759106
-0.1434639 0.133821 -0.073486865 0.026344735 -0.057841096 0.18732114 -0.07059673 0.20076266
-0.001798284 0.06547387 0.5795849 -0.25349763 -0.123026274 -0.10481181 0.0075186603 0.024711298
-0.09363444 0.0679863 -0.005676413 -0.23715936 -0.11689808 -0.13572305 -0.18309133 0.11879846
0.16964373 0.11248806 0.05022629 -0.11299179 -0.15836293 -0.15798268 -0.1049777 0.06719694
0.020694861 -0.09400526 -0.15894036 0.027302472 -0.051114943 -0.087510884 0.18260907 -0.22922651
0.052448217 -0.024431687 0.17914002 0.05566909 0.17162319 -0.23472852 -0.11138335 -0.038397253
-0.10446409 -0.26737055 -0.115944825 -0.14775164 -0.19620626 -0.082968615 -0.23436786 0.089650705
0.0264272 0.14055087 -0.024781235 -0.07927989 -0.15633406 -0.22287169 0.02854541 -0.21384896
0.080046095 -0.19381535 -0.2030204 -0.1379436 0.06898269 -0.17329106 -0.08447602 -0.054058015
-0.12838703 -0.061211165 0.06914118 0.2191481 0.22860976 -0.19964959 -0.10161564 -0.06451621
-0.081909016 -0.28202528 -0.2782209 -0.32314354 -0.3635541 -0.33854717 0.0060899 -0.16049293
0.26519322 0.10595644 -0.24346147 -0.2169187 -0.018721875 -0.008841025 0.035129644 -0.41916528
-0.016668689 -0.30129305 -0.23374504 -0.2957684 -0.43943757 -0.2913852 -0.2421946 -0.080914594
-0.19370264 0.2699366 -0.35530066 -0.3193209 0.24310564 -0.24634868 -0.4226256 0.12814583
0.06977414 -0.1173783 -0.14392847 0.0147287315 -1.1190871 -0.15941772 0.09516698 -0.16690178
0.049383216 0.12768951 -0.21987985 -0.017111113 -0.17795397 -0.3257048 0.17891559 0.118267074
-0.15911162 0.10156119 0.027139973 0.026894972 -0.0789444 -0.012168547 0.016552752 0.1654529
0.01415722 0.084489465 -0.095099114 -0.030838143 -0.043675236 -0.13419026 0.5258135 -0.056427937
-0.29419762 -0.333881 0.039168887 -0.04431122 -0.014010092 -0.0824175 -0.11982505 -0.3609246
0.19192643 0.17005727 0.062149916 -0.05410671 -0.26425853 -0.03996382 -0.0031545332 -0.35624403
0.31159204 -0.07518301 0.44223508 0.17580694 -0.1022738 -0.3448544 0.05432223 -0.19959812
0.042629436 0.20183611 0.061977606 0.0064821998 0.05704971 0.03535974 -0.0020192473 0.2975872

decoder.0.bias f4 [64]
00000000: 5040 68be ad56 3fbe 1ff3 dc3d f24d ecbd
00000010: 6874 873a 829b 60be f9d4 f03d c5a7 f9bd
00000020: 9da2 d03d 88be 16be 3873 183c 8d45 75bd
00000030: e246 2b3d c197 fbbd d207 8bbd 3009 5dbe
00000040: de1c a4bc 9868 99bb db96 4ebe 3546 49bd
00000050: 6c7a f23b 8f78 d2bc b2fe 3e3e 614d d0bd
00000060: d120 efbe 6aef 55be c05b 3abe 060e bcbe
00000070: e2fc e1be 8e81 223e 4c8f 62bd 432b 80be
00000080: a281 dabd 843d 573d 04c4 d0bd 094a ae3e
00000090: d0e7 083e 63c3 37be 3a50 f6bc a717 c8bd
000000a0: ce8b 5ebe 51e0 20be 9f5e 613c 4370 bc3d
000000b0: a2a7 4a3e 24a4 9dbd 207e 683d 1aa4 813e
000000c0: 5d82 76be 71d9 f2bd 6ec3 dc3d 54a9 82bd
000000d0: 7b65 42be a66e 38bd 5d5e ccbe 21e5 233c
000000e0: e4d3 17be 8646 463e 6324 02bd 1e05 8bbe
000000f0: 1c73 963e 3d56 f43d 5488 e73d f948 34bb
-0.22680783 -0.18685408 0.10788559 -0.115383044 0.0010334374 -0.21934322 0.11759371 -0.121902026
0.10187266 -0.1472112 0.009304814 -0.059880782 0.041815646 -0.12284804 -0.06788601 -0.21585536
-0.020033296 -0.004681658 -0.20174734 -0.04913922 0.0073998477 -0.025692252 0.18651846 -0.10171009
-0.46704724 -0.2089211 -0.18199062 -0.3672945 -0.44138247 0.15869734 -0.05531244 -0.25033006
-0.10669257 0.0525489 -0.10193637 0.3404086 0.1336968 -0.17945628 -0.030067552 -0.09770136
-0.21733019 -0.1571057 0.01375547 0.092011 0.1979051 -0.07697323 0.056760907 0.25320512
-0.24073167 -0.1185788 0.10779463 -0.06379953 -0.18984024 -0.045027398 -0.39915743 0.010003359
-0.14826924 0.1936284 -0.031772982 -0.27152342 0.29384696 0.11930511 0.113052994 -0.0027509315

decoder.2.weight f4 [784, 64]
00000000: e0bf f63d ded7 92bd 080c e43c acff 7fbd
00000010: 5a60 9dbd 202a f9bc 70b1 403d b2a4 8cbd
00000020: 28b7 b83b 127f 80bd 0077 1ebe 9014 99bd
00000030: f1c1 dabb 1f2e 853c 0f2d 213d 2acd d9bd
00000040: 56b5 b4ba a6e4 edbd 944f 00bd c752 dfbd
00000050: a8c8 41bd a023 0fbe d7b2 98bd 3f2d cebd
00000060: 1084 603d 90b3 1bbc 4ac1 1abe 3643 923d
00000070: 70c8 023c dcda 9dbc 4e44 abbd a4bf 9ebd
00000080: 0009 173c 3847 21bd ca2c d0bd 8751 09be
00000090: f3f1 28be 4ce8 31bc 8450 19be c6bf 0ebe
000000a0: 468d d5bd 338d fbbd 0ad9 98bd 9888 a23d
000000b0: d27c 30bd b8bf 21be e04a 97bb 9899 d03c
000000c0: 10af b7bc fde2 c7bd 2222 40be 6a0d 59bd
000000d0: 6c5f 55bd a4bc 23bd a812 aa3c fcb5 de3d
000000e0: 24d0 19bd 42e2 93bc 84b8 0d3d e6d0 a6bd
000000f0: 6e8d 9b3d de51 2abd 00f8 29be 760d 9cbd
00000100: d49a 8e3d 1613 623c c009 a9bd 5cf3 a83d
00000110: c8fc fdbd a4a3 73bd 0438 35bd c209 abbc
00000120: 2f1a 42be 7452 243c fcc4 9dbc c989 30bd
00000130: b619 44bd 5ffd 4ebe 4201 dfbc 003c 7239
00000140: dcf5 44be d0f4 f63c 0081 08bd 827f 0ebe
00000150: 4c0b 7cbd 5642 b9bd a323 53bd cfef debc
00000160: d635 8dbd 40e4 20bc 96d7 413d deae 93bd
00000170: 44eb 133d 900e b5bc e781 d73c 8032 a23d
00000180: fe6a 803c a488 71bd 5210 f6bd 95b3 87bc
00000190: eb20 feba a006 05bd 3be4 a9bd 09a1 0dbe
000001a0: 78f3 90bd e226 283d a6c6 83bd 48e1 0f3d
000001b0: 9463 1dbd 3c2b 383c 4ad9 b03d 35a2 15bd
000001c0: 40f2 37bb 7342 18bd 305c 1bbe e7a6 2fbd
000001d0: e0e6 eb3b 008b 11be 92c4 b3bc 9748 31be
000001e0: 71be 2fbe 12db 50bd d118 453b 893d 0fbd
000001f0: e8ce 473c bdbf 3dbd 0145 66bd 7e8a 09be
00000200: e453 e23d 144e 74be 9cce d9bd 1423 e03d
00000210: 10e5 77bd 84c2 06bd 8c54 ac3d 61a4 323c
00000220: bd91 2abe cdeb b7bd 0885 883d e804 abbc
00000230: 2614 33bd ca46 a0bd 3415 86bc f86f 8e3c
00000240: d3fc 063d 9878 233d 6020 853b f21a 5dbd
00000250: cc0e adbd 2ac3 2fbe a8f9 82bd a048 32bc
00000260: 88ea 843d 5816 cbbc 9a65 83bd a0b5 38bc
00000270: bac0 94bd e811 75bc 9caf 0bbe 384d 84bd
00000280: 3ca5 a83d c8a3 563d 147c 33bd e824 16be
00000290: 8127 01be 585a 96bc 6846 42be 0e35 9c3d
000002a0: e098 6f3d 9194 dfbd 0071 f33c 7eb1 c9bd
000002b0: fca2 e4bc ce7a 0c3d 348b b73d 0007 96ba
000002c0: e93c 193d e47d 983d fead 0cbe 61d6 debd
000002d0: 1087 4dbd 34ba af3d 308f 973c 2885 d6bc
000002e0: e053 7f3d 1184 1abe eec6 bcbd 8a65 e63d
000002f0: 15c2 86bd 860a 0abe c213 35be cc78 98bd
00000300: b891 f4bc 8065 19bb 0f0f fcbb 0897 ef3d
00000310: 1cba f9bd 1a65 bf3d 94ac 563d 3d5c edbd
00000320: 1171 32be 700d 44be 70c7 46bd fe3d 5dbb
00000330: c5ac 0cbe a0b7 cb3b 63c3 173d 3a96 a8bd
00000340: 570b d7bd 02b5 cfbd 94eb 40be 8a98 d9bc
00000350: fc0e 7f3d d925 3b3d f8a2 48bd 64d5 0b3d
00000360: 40b9 27bc 28cb 04bd ae3c 07be ce65 cb3d
00000370: 3aaf b43d 4cda 26be 146d 4e3d 40e5 ab3b
00000380: 5217 fc3d e67c c3bd c8f9 973d a97a c43c
00000390: 422a b7bd a041 753d a826 46be 8251 f7bd
000003a0: d020 423d 1d65 f9bd bcd2 e93d 400d d4bd
000003b0: 0552 d6bb 4bd0 89bd 4aeb d9bd 9879 90bd
000003c0: 7ed9 8a3d 016c f2bc fd73 3d3d d81b ec3c
000003d0: c6bd f53d 3f9f e9bb fb72 a1bd 3bdb 09bd
000003e0: 0318 0fbe 52fd 99bd 0744 2bbe 84ca aebd
000003f0: fcd8 e5bd 6baf 0cbe 4162 4a3c 14e3 7cbd
0.12048316 -0.0717008 0.027837768 -0.062499687 -0.07684393 -0.030415595 0.047044218 -0.06867351
0.0056370683 -0.06274237 -0.15475082 -0.07474625 -0.0066759516 0.016257344 0.03934961 -0.10634835
-0.0013786952 -0.11615877 -0.03132589 -0.109044604 -0.0473105 -0.13978434 -0.07455986 -0.10067224
0.054813445 -0.00950326 -0.15112796 0.07141726 0.007982358 -0.0192694 -0.083626375 -0.07751396
0.009218454 -0.03937456 -0.10164793 -0.13410006 -0.16498546 -0.010858607 -0.1497212 -0.13940343
-0.104273364 -0.12282791 -0.07463272 0.079362094 -0.043087788 -0.15795791 -0.00461708 0.025463864
-0.022422343 -0.097600915 -0.1876302 -0.05299131 -0.052092955 -0.039974824 0.02076085 0.108745545
-0.037552014 -0.018052224 0.034599796 -0.08145313 0.07595335 -0.04158198 -0.1659851 -0.07619755
0.06963125 0.013798496 -0.08253813 0.08249542 -0.1240173 -0.05948223 -0.044242874 -0.020878676
-0.18955301 0.010029424 -0.019258969 -0.043100152 -0.047876082 -0.20213841 -0.02722228 0.0002310127
-0.19234413 0.030146033 -0.03332615 -0.13915828 -0.06153421 -0.09045856 -0.051547658 -0.027213959
-0.06895034 -0.009820044 0.04732474 -0.07211088 0.03611304 -0.02210167 0.02630706 0.07919788
0.015676018 -0.0589682 -0.120148316 -0.016565124 -0.0019388472 -0.03247702 -0.08295485 -0.13830961
-0.07077688 0.041052707 -0.064343736 0.035126954 -0.038425043 0.011240777 0.086351946 -0.036531646
-0.0028067976 -0.037172746 -0.15171885 -0.04288378 0.0071991533 -0.1421318 -0.021944318 -0.17312847
-0.17162491 -0.05099017 0.0030074606 -0.034970794 0.012195326 -0.046325434 -0.05621815 -0.13431737
0.11051157 -0.2385791 -0.10635111 0.109441906 -0.060521185 -0.03290035 0.084145635 0.010903449
-0.16657157 -0.08980522 0.06665999 -0.020876363 -0.043720387 -0.07826002 -0.016367532 0.017387375
0.032955956 0.03990993 0.0040626973 -0.053980775 -0.08450088 -0.17164293 -0.063952744 -0.010881573
0.06490046 -0.024790928 -0.06415863 -0.0112737715 -0.07263322 -0.014957882 -0.13641208 -0.06460041
0.08234641 0.052402288 -0.043819502 -0.14662516 -0.12612726 -0.018353626 -0.1897217 0.07627307
0.058495402 -0.10917009 0.029716969 -0.09848307 -0.027909748 0.034296803 0.08962098 -0.0011446178
0.037411604 0.07445887 -0.13738248 -0.10880733 -0.050177634 0.08580437 0.018500894 -0.02618654
0.06233585 -0.15089442 -0.0921763 0.11249836 -0.06579987 -0.13480577 -0.17683318 -0.07444915
-0.02985464 -0.0023406446 -0.007692225 0.11698729 -0.12193701 0.093454555 0.052410677 -0.11589859
-0.17425944 -0.19145751 -0.048530042 -0.0033758874 -0.13737781 0.006216958 0.03705157 -0.082317784
-0.1050021 -0.101419464 -0.18839866 -0.026561994 0.06227015 0.04569039 -0.048983544 0.034139052
-0.010237038 -0.032420307 -0.13206741 0.09931527 0.08822484 -0.16294211 0.050396994 0.0052458346
0.123091355 -0.09545307 0.07420689 0.02398427 -0.08943607 0.059877038 -0.19350684 -0.12076093
0.047394574 -0.12177489 0.114171475 -0.1035409 -0.006540539 -0.06729182 -0.10640581 -0.07054442
0.067797646 -0.029592516 0.046253193 0.02882187 0.11999087 -0.0071295793 -0.07883259 -0.03365634
-0.13974003 -0.0751902 -0.16725169 -0.085347205 -0.11223027 -0.13738792 0.012352527 -0.061739996

decoder.2.bias f4 [784]
00000000: 913e 423c 08d4 b3bc 8943 513c d6d7 bfbd
00000010: ab27 13be 6432 29bd 75b5 1fbe 1c69 8dbc
00000020: d9cf 9cbd d37a 21be 45e8 aabd a922 0fbe
00000030: 881f 2dbe 6da9 03bd b8e0 3fbe f7bd 0abe
00000040: b767 3abe d06d de3c c018 b03c 833a f3bc
00000050: c077 0bbd 8dcc 24be 2c48 1fbd 3e0a 1dbe
00000060: 455c 2bbe d9d8 f23c 2645 b6bd 704e 38be
00000070: 9daa 0bbe 2b3f 6fbd f959 42bb 4d6e 42be
00000080: 0a7f 08bd 7a93 89bd e884 60bb 4e60 9cbd
00000090: 3b28 1abe 7ab6 b3bd 4bfc 36be 4731 d53b
000000a0: 8811 fcbb 17d2 79bd e93d db3b 2f02 bebd
000000b0: f729 06bd f273 1cbe 6dae 25be 9a4c 85bd
000000c0: 05b5 23be 1c92 4cbd feeb 32be 9ca4 76bc
000000d0: b5a3 e4bd 9bbb 97bd a183 c83c a01a f93c
000000e0: 1481 f8bd 09df a7bd 8633 d1bd dd3f 60bd
000000f0: 4d1b 17bd be4d c9bd 7587 a8bd c607 6dbe
00000100: a385 8abc 7c6d f5bd 4914 e03b ba2e d8bd
00000110: 2cb6 24be 5a83 9fbe 1ac0 34be 2a61 afbe
00000120: a179 f4bc 6ad5 b1bd ef06 10bd 8e69 c5bd
00000130: d8f5 66bd 2118 01bd 8a91 383c 4ef7 afbd
00000140: a981 09be c5eb bfbd 1db9 83bc 1962 6abd
00000150: 9762 9dbd cd0d dfbd edbb 35bd b706 d6bd
00000160: 35e1 50bc b07b 33bd 679b 4cbe 9713 00be
00000170: 0451 01be a6c0 2fbd ef67 b8bd fd84 9bbd
00000180: 953a 173d 5cfe 56be a2b8 04be 6f74 0ebe
00000190: 07bc 06be fbaa 43bd 34dd d0bd 4068 6ebe
000001a0: a3de 19be 89e5 22be 457a 2dbe ce0e 88bd
000001b0: c2ba 483d fdd9 dabd dc1b d2bd 6629 a4bd
000001c0: 6bad 1bbe ffb7 2cbd a4d0 edbc 94a2 0fbe
000001d0: ce3a 10bd fa1e 623d 9143 afbd 4773 50bd
000001e0: c832 a1bd 052a 24be f3f2 37be 0ac2 09be
000001f0: fc3b f2bd f5c3 903d 31c4 92be aa28 01bf
00000200: 2d07 9ebe 40ac eabd dcc5 1ebe 1825 73be
00000210: 4dc0 4cbd d62b 29be 8994 8fbd 63ff 06be
00000220: 02e9 203a db66 36be 0290 c2bd 0026 b3bd
00000230: 015d 00be e10f 49be 60e9 7cbc a012 e6bd
00000240: 19d8 cfbd bbd7 35be 8860 603c 4861 a8be
00000250: a2f9 6ebe 3878 483d dea1 da3d d7d1 893e
00000260: 49a6 b13e d34a 8e3e 8793 45be 1821 9ebe
00000270: 049a f8bd db4c 8dbe d47b c3be f1d8 85be
00000280: dfdd 40be e63a d5bd 15fc e9bc 7495 bbbe
00000290: 52b9 cfbc 02e1 1fbd d92b 3dbe ccad dabd
000002a0: c7f4 263d 2b2a b8bd 5de1 adbd f32c b7bd
000002b0: 269c d0bd 38d3 89bd cb58 12be e0ba 88bb
000002c0: 4a69 56be 6877 6f3e 54db 0e3f eb2a 213f
000002d0: 76ce 2c3f 1d1c 263f 2c0c 393d 48d7 45be
000002e0: 3dc7 61be 38ce 0dbe d4ed 263a 751d cd3d
000002f0: aa5e 643d 0e9b 163e 5346 98ba 5ebc afbd
00000300: 013e 96bc 600e 4cbe ac94 e0bd 61a7 0dbe
00000310: 77f8 38be 10f0 c7bb 1fb7 8139 db41 13be
00000320: 884a 1abe 4051 d4bd 1e94 92bd efb7 9e3c
00000330: 6265 553e 446d 173f f8a1 3a3f 3463 4f3f
00000340: 6a27 593f c5be 153f e1cd c93d 1f7f 00be
00000350: ccb7 9cbd 20c9 2c3e f29d cf3e efc9 f03e
00000360: b314 e43e 720e ac3e e49b 543e a0ac 4b3e
00000370: c3a0 12be 12af 4cbb 8498 10be df52 16be
00000380: 2214 d3bd f30f e93c 529d debd 0f41 01be
00000390: b366 46bc 7925 99be 10d4 58be 4754 f1bc
000003a0: 964d a93e de06 143f 9899 1b3f 230a e13e
000003b0: effc cf3e 42da 373e 3e3a e2bd 6cce 21be
000003c0: ae0c cdbd 0e6b 673e f4db fa3e 7622 043f
000003d0: f2e8 df3e e2e2 a03e d204 0ebe 7a7c 293d
000003e0: ef95 14be f638 92be 5006 2bbe 56b6 033d
000003f0: 8d18 d8bc 8484 2cbe eb8e d9bd 0b7d b8be
0.011855737 -0.02195169 0.012772449 -0.09367339 -0.14370601 -0.041307822 -0.15596564 -0.017262034
-0.07656831 -0.1576951 -0.08345083 -0.13978066 -0.1690656 -0.032144 -0.18738067 -0.13549028
-0.18203627 0.027151972 0.021496177 -0.029690986 -0.03404975 -0.16093655 -0.038887188 -0.15335938
-0.16734417 0.029644417 -0.08899908 -0.17998672 -0.13639303 -0.05840985 -0.0029655679 -0.18987389
-0.03332428 -0.06717582 -0.0034258906 -0.07635556 -0.15054409 -0.08775039 -0.1786968 0.0065061185
-0.0076925196 -0.060991373 0.00669073 -0.0927776 -0.032754865 -0.15278605 -0.1617982 -0.06508751
-0.15987022 -0.04994403 -0.17472836 -0.015053894 -0.11164037 -0.0740883 0.024476828 0.030408204
-0.12133995 -0.081968375 -0.102149054 -0.054748405 -0.03689127 -0.09829281 -0.082289614 -0.23147497
-0.016909426 -0.11983773 0.0068383557 -0.105557874 -0.16085118 -0.311549 -0.17651406 -0.34253818
-0.029843153 -0.086832836 -0.035162862 -0.096392736 -0.0563868 -0.03151715 0.011265168 -0.085920915
-0.13428368 -0.09371141 -0.01607948 -0.05722246 -0.0768482 -0.10891304 -0.044368673 -0.104504995
-0.012749006 -0.04381913 -0.19981156 -0.12507473 -0.12628561 -0.042908333 -0.09004199 -0.07593725
0.036921103 -0.20995468 -0.12961057 -0.13911603 -0.13157664 -0.04777048 -0.10198441 -0.23281956
-0.15026335 -0.15907873 -0.16941173 -0.06643449 0.04900623 -0.10686109 -0.1025922 -0.080157086
-0.15202872 -0.04216766 -0.029030152 -0.14026862 -0.03521233 0.055205323 -0.08557809 -0.050891187
-0.07871014 -0.16031654 -0.17963772 -0.13452926 -0.11827847 0.07068626 -0.28665307 -0.50452673
-0.3086485 -0.11458635 -0.15505165 -0.23744619 -0.04998808 -0.16520628 -0.07010753 -0.1318336
0.00061382365 -0.17812674 -0.095001236 -0.08747482 -0.12535478 -0.19634964 -0.0154365 -0.11234021
-0.10148639 -0.17758076 0.01369489 -0.3288672 -0.23337415 0.048942775 0.10675405 0.26917908
0.34697178 0.2779146 -0.19294558 -0.30884624 -0.12138751 -0.275977 -0.3818041 -0.26142076
-0.18834637 -0.104116246 -0.028562585 -0.3663746 -0.025356922 -0.039032944 -0.18473758 -0.106776804
0.04076078 -0.08992418 -0.0849025 -0.0894412 -0.10186033 -0.0672974 -0.14291684 -0.004172668
-0.20938602 0.23385394 0.5580342 0.6295611 0.67502534 0.6488665 0.045177624 -0.19320405
-0.2204866 -0.13848197 0.00063678366 0.10015384 0.05575434 0.14707586 -0.0011617638 -0.0858085
-0.018340113 -0.19927359 -0.10965857 -0.13833381 -0.18063532 -0.0061016157 0.00024741233 -0.1438059
-0.15067494 -0.1036706 -0.07157157 0.019374816 0.20839456 0.591511 0.72903395 0.81010747
0.84825766 0.58494216 0.098537214 -0.12548493 -0.07652244 0.16873598 0.4055019 0.47029063
0.44547042 0.3360477 0.20762593 0.1989007 -0.14319138 -0.003123228 -0.1412068 -0.1468005
-0.103065744 0.028449988 -0.1086985 -0.12622474 -0.012109446 -0.29911402 -0.21174645 -0.029459132
0.33067006 0.5782298 0.6078124 0.43953046 0.4062266 0.17954352 -0.11046265 -0.158014
-0.10012184 0.22599432 0.48995936 0.51615083 0.4373241 0.31423098 -0.13869026 0.041378476
-0.1451032 -0.28559083 -0.16701627 0.03215631 -0.026378894 -0.16847426 -0.106229626 -0.360329
