2022051880.pt (torch, 424079 bytes, 8 tensors)

encoder.0.weight f4 [64, 784]
000000 61 df 6d bc ac d2 f0 3c 90 ec 9a 3c be dd 97 3c
       -0.01451859 0.029397331 0.01891163 0.018538352
000010 a0 56 2c bd b0 c0 03 be b4 65 92 bf 66 de ac bf
       -0.0420748 -0.12866473 -1.1437287 -1.3505371
000020 34 d6 bf be 22 cc 06 be be 35 37 3e ae 05 1b 3c
       -0.37468112 -0.13163808 0.17891595 0.009461803
000030 4b 5e 13 bf 54 a7 6f be 8e 4b 61 bf c8 7f 55 bf
       -0.57565755 -0.23403674 -0.8800591 -0.83398104
000040 a4 4a 07 bf 1d 2b 7d be 4c ac 98 3d c0 d6 7b be
       -0.5284827 -0.24723478 0.07454738 -0.2459364
000050 05 a0 65 bf 93 55 33 bf 55 9b 5b bf 1b c9 ed bd
       -0.89697295 -0.7005245 -0.8578389 -0.116106234
000060 23 0f c1 bc 4a 5d e0 bb 01 e4 f7 ba ac b7 c1 bc
       -0.023566788 -0.0068470584 -0.0018912555 -0.023647152
000070 e3 6c 8a bc 4a 3c f5 ba 41 e6 5b 3f 1e 89 8d bd
       -0.016897624 -0.0018709984 0.85898215 -0.06910919
000080 6a 65 32 3e 02 60 b4 be 60 d0 80 bf f2 e2 b9 bf
       0.17421499 -0.35229498 -1.0063591 -1.4522383
000090 d4 71 0d c0 26 8c 0b bf d3 66 e3 3e 3e 1e 1b 3f
       -2.2100725 -0.54510725 0.44414386 0.6059302
0000a0 02 36 c6 3d 27 f2 92 bf c2 ee a4 be 3f b6 88 be
       0.0967827 -1.1480149 -0.32213408 -0.26701543
0000b0 37 97 67 bf 2c cf 66 bf 87 dc 99 bf e3 de 04 bf
       -0.9046511 -0.9015987 -1.2020425 -0.519026
0000c0 a2 61 3a be e9 64 3a bf 06 a4 8e be 3e 2a f9 bf
       -0.18201306 -0.72810227 -0.27859515 -1.9466016
0000d0 df e6 c4 be d6 44 97 bd 25 45 ca ba 43 f6 e1 bc
       -0.3845739 -0.07386176 -0.0015431984 -0.027583247
0000e0 25 af 83 3c 25 1b 6d 3c 12 79 9d 3e f7 b7 2f bf
       0.016074726 0.014471804 0.30756432 -0.68640083
0000f0 c8 88 9a 3d b5 6b 18 c0 f9 d9 cc bf 3b 9c 82 bf
       0.0754562 -2.381574 -1.600402 -1.0203928
000100 cb da a7 bf 73 da 93 be bb f8 90 3e 3d 52 36 be
       -1.3113645 -0.288776 0.28314766 -0.17804809
000110 ad 7b a1 3e a1 23 af be 59 fe 01 bf 95 5f 99 be
       0.3153967 -0.3420687 -0.5077873 -0.29955736
000120 5e 23 97 be 76 ce d3 be 29 b9 c6 be 6f 93 75 3e
       -0.2951917 -0.41368455 -0.3881314 0.23982023
000130 88 39 09 bf f8 10 53 bd 5e 6d b3 3d b8 8e 85 3e
       -0.5360341 -0.051529855 0.087610945 0.26085448
000140 12 ee 67 be 83 3b 1e be f0 9a 27 3e c0 e6 8b bc
       -0.2264941 -0.1545239 0.16367698 -0.017077804
000150 d8 21 01 3d 0a 26 7a be ea 47 b2 3c 43 06 12 bd
       0.031526417 -0.24428573 0.021762807 -0.035650503
000160 e6 57 70 bf cc a7 1c be 05 8d 2c bc 8d ef 5e bf
       -0.9388412 -0.15298384 -0.010531669 -0.87084275
000170 0a b4 a7 be 31 a0 00 3e 07 0b 09 be 6a dd 00 3e
       -0.32754546 0.12561108 -0.13383113 0.12584463
000180 a2 22 85 3c 24 f6 55 3e 12 ae 8e 3c 90 a8 ce 3d
       0.016251866 0.20894676 0.017416988 0.100907445
000190 87 67 6e 3e 31 f0 32 be 7f 66 35 be 20 3e 6d 3e
       0.2328168 -0.17474438 -0.1771488 0.2316823
0001a0 f4 b5 be be ba ee 44 3d 4e 3f e0 bd 8d f1 8e 3c
       -0.37248194 0.04807923 -0.109495744 0.017449165
0001b0 c5 ad 3f bf 9b b6 b9 3e c1 9a 3d be be 8e 2d 3f
       -0.74874526 0.3627213 -0.18516065 0.6779593
0001c0 ee a9 86 bb d6 c7 c0 3e 8b fb 39 bf 39 e5 72 be
       -0.0041096127 0.37652463 -0.7264945 -0.23720254
0001d0 fb cb 8b be e7 5b 09 3f 96 20 58 bd 2e 35 04 be
       -0.27304062 0.53655857 -0.05276545 -0.12910911
0001e0 05 81 9a be be c9 2c 3e bb 13 17 bc d6 92 a1 3d
       -0.3017656 0.16873834 -0.009221013 0.07889335
0001f0 f7 1d 54 bd d4 76 c4 3c 57 5f 52 3d 13 c0 07 3e
       -0.05178639 0.023982443 0.051360454 0.13256864
000200 dd db 39 3e eb 91 1b 3d 06 d4 7f bd 9e b7 77 3d
       0.18150277 0.037980955 -0.06245806 0.060477845
000210 c5 c9 04 be ec ce 84 3e b2 5d 22 bd 8c 79 0d bd
       -0.12967594 0.2593912 -0.039640136 -0.034539744
000220 d9 33 77 3e 5b c5 b5 bf a6 47 44 3e 6c ed cf be
       0.24140872 -1.4200853 0.19167957 -0.40610826
000230 ea 6f 60 bc b7 2e a1 bd ed 49 61 be e9 84 03 bf
       -0.013698557 -0.07870238 -0.22000857 -0.5137468
000240 06 75 d8 3d 9a 1e 98 be 5c 29 ea 3b a8 7c 28 3d
       0.105691954 -0.29710847 0.0071460437 0.041134506
000250 97 59 9a 3c d1 2e f5 bc 1c 47 c0 bd 55 02 c1 3d
       0.018841548 -0.02992955 -0.09388563 0.09424273
000260 f0 c4 ad 3d 7f 05 ff bc 14 d6 05 3d 6f 3b 04 bd
       0.084848285 -0.03113055 0.032674864 -0.032283243
000270 76 b6 3d 3d 03 01 a5 3d 44 93 ed 3d 31 d0 c0 3d
       0.046316586 0.080568336 0.11600354 0.09414709
000280 a6 ed d5 bc 29 e1 2f be 00 3c 22 3c 4f c7 55 bd
       -0.026114296 -0.17175736 0.009902 -0.05219203
000290 60 71 c2 3e 9f a2 53 bf 12 7b 9d be db 3d 39 3e
       0.37977123 -0.82670015 -0.30757958 0.18090002
0002a0 57 13 14 be 16 c9 1a c0 88 c9 32 3f e6 2c a4 be
       -0.14460503 -2.4185233 0.6983876 -0.32065505
0002b0 b4 74 14 3f 97 90 fa bd 99 18 a6 3b 55 9e f1 bd
       0.57990575 -0.122346096 0.0050688502 -0.117977776
0002c0 d8 70 78 3c ac 67 82 bc dc 3a 8e bd 5c 4e 14 bd
       0.015163623 -0.015918575 -0.0694482 -0.03620754
0002d0 25 af c5 bd 57 2b 41 bd 21 9d f6 bd 3e 1b 24 3d
       -0.09652547 -0.047160473 -0.12041689 0.040065043
0002e0 38 6f 10 3d d5 2e 0d bd c0 47 e2 3d f1 43 21 3e
       0.035262316 -0.03446849 0.110488415 0.15748574
0002f0 59 56 1a be 64 f6 c8 bc 56 6f 02 be 2f 45 ee 3d
       -0.15072002 -0.02453155 -0.12737784 0.116342895
000300 2f f0 70 bd 8b 7d 21 bf 8b 49 ab 3e 35 84 5a bf
       -0.058822807 -0.6308219 0.33454546 -0.8535798
000310 06 02 dc 3e c0 ee c8 3f ab c7 a6 bd 85 67 7d 3e
       0.42970294 1.5697861 -0.081435524 0.24746521
000320 db b3 ac be 11 3f 89 3d 85 07 97 bd f4 de d4 3d
       -0.3373097 0.06701482 -0.07374481 0.103940874
000330 22 90 f3 bd 11 f8 ce 3d 69 69 1f be 39 eb 77 3d
       -0.118927255 0.10105909 -0.15567555 0.06052706
000340 07 76 aa bd 5f 0c cf bd 18 0b 99 3d e6 f8 0c bd
       -0.08323293 -0.101097815 0.07472819 -0.034417056
000350 1b fe fa bc a3 c1 12 3e b8 74 a8 bd 23 6b 36 bd
       -0.030638745 0.14331679 -0.08225387 -0.044535767
000360 b0 9c 2a be 42 6d d8 bd a0 7d c7 bd 74 f1 84 be
       -0.16661334 -0.10567714 -0.09740758 -0.25965464
000370 30 33 3e 3e 76 56 36 bf e5 d2 55 3b d0 3a c9 3e
       0.18574214 -0.7122568 0.0032626924 0.39302683
000380 91 2c b9 be 53 ed 4a bf b7 af 26 be 09 39 8c ba
       -0.36166814 -0.7926838 -0.16277967 -0.001069815
000390 89 f1 7f 3e 53 d5 dc bd c2 f5 10 bc ab 22 83 bd
       0.24994482 -0.10782876 -0.008847656 -0.06403097
0003a0 8e 9c 11 be 0b 1a 56 3d 27 b7 3e bd 2b 43 b2 3d
       -0.14219877 0.05227093 -0.046561386 0.087042175
0003b0 76 7b a3 3c 08 9d 30 bd 8b 5a 95 3d a0 b0 1e 3d
       0.019956332 -0.043118507 0.0729266 0.03874266
0003c0 3c 0b 15 3e fa b5 31 3d 48 b4 f0 3c c8 b5 6d 3d
       0.14555067 0.043386437 0.02938284 0.05803469
0003d0 65 65 5f bd 85 7f b0 bd 5f 63 7d 3c 29 7c 98 be
       -0.054540057 -0.086180724 0.015465586 -0.29782227
0003e0 9c b7 20 bc 14 57 64 bf 1b 4f 5b bf ac 09 b0 3f
       -0.009809401 -0.8919537 -0.8566758 1.3752952
0003f0 03 21 a9 3d 9e e6 2c 3f 33 f7 12 3e 90 38 cf 3d
       0.082582496 0.67539394 0.14352112 0.1011821

encoder.0.bias f4 [64]
000000 7a dc e5 3f 7c 27 27 bf 06 7e 82 be 4b 80 a7 3f
       1.7957909 -0.65294623 -0.25486773 1.3086027
000010 fe d6 fe 3f 48 eb bc bf 44 30 01 40 ef 40 6f 3e
       1.990936 -1.4759302 2.018571 0.23364614
000020 d7 23 8b 3f 10 bc 5c 3e d6 02 d6 3f 15 8e d9 3f
       1.0870312 0.21556115 1.6719615 1.6996485
000030 79 f4 ec 3f c9 50 e0 3f 86 ad db 3f 0e 85 b6 3f
       1.8512107 1.7524654 1.716233 1.4259355
000040 e3 14 dc 3f 9f c4 b8 3f a1 a4 fc 3f 2a 1a 18 be
       1.7193874 1.4435004 1.9737741 -0.14853731
000050 9d 07 02 40 fa 75 c6 3f cd 5e 86 3e b1 f3 13 3e
       2.0317147 1.5504754 0.26244202 0.1444843
000060 07 f5 98 3f 92 60 6b 3f 8d 98 b7 3f 63 66 ed 3f
       1.1949776 0.9194423 1.434343 1.8546871
000070 67 93 1b bd 70 10 a5 3f 7c c5 4d 3f 57 9a db 3e
       -0.03798237 1.2895641 0.8037946 0.4289119
000080 c5 7c 13 3e 01 b7 7b 3f 03 e5 22 40 59 7a 98 3e
       0.14403065 0.98326117 2.5452278 0.29780844
000090 7f 34 bf 3f bb 7d d8 3f 77 19 b1 3f 40 32 93 be
       1.4937896 1.691337 1.3835896 -0.28749275
0000a0 18 58 c0 bd ff 98 95 3e 8a 9c ee 3e 8e fd 41 3f
       -0.093918025 0.2921829 0.46603805 0.7577752
0000b0 68 02 f7 3f 0e d9 f6 3f 88 80 a5 3f 82 ad 8d 3f
       1.9297609 1.928499 1.292985 1.1068575
0000c0 f0 89 ff 3e b2 67 05 3f d0 ae f0 bd 85 ff f6 3f
       0.49909925 0.5211135 -0.11752093 1.9296728
0000d0 87 76 d1 bc 53 b0 ee 3f 14 12 da 3f bc ba dd 3f
       -0.025569214 1.864756 1.7036767 1.7322612
0000e0 1e ce 38 3f a9 08 ed be 30 0c 9a 3e 59 a4 b2 3f
       0.7218951 -0.4629567 0.30087423 1.3956405
0000f0 29 39 3d 3e 41 fa a7 3f 93 d4 4f 3f c7 37 6c 3f
       0.18478836 1.3123246 0.8118374 0.9227261

encoder.2.weight f4 [32, 64]
000000 40 6b 00 be 01 99 e3 bd aa 24 68 bd d7 1e 00 be
       -0.12540913 -0.111131676 -0.05667559 -0.12511764
000010 19 c1 36 be 1b 2e b7 3c 04 c5 a2 bd 63 60 a3 3c
       -0.17847098 0.022360852 -0.07947734 0.019943422
000020 81 95 bc 3a b0 f7 2d be e2 43 45 bd 8d 26 d1 bc
       0.0014387817 -0.16989017 -0.04816044 -0.025531078
000030 da 8f 13 bd 62 9b 0e be f0 b7 f9 3a 97 1b 22 3c
       -0.03602586 -0.13926461 0.001905201 0.009894273
000040 66 6f 84 3d 97 c3 4f 3d a7 84 bb bd 14 03 84 3d
       0.0646656 0.05072364 -0.09156161 0.064458996
000050 f7 a4 1b be 6a 24 20 be e2 b1 d8 bc 4f 5f a3 bd
       -0.15199648 -0.15638891 -0.026452009 -0.07977163
000060 f8 3c 08 3d c9 e8 06 be 38 cc 0e be 98 ac 9a bd
       0.03326127 -0.13174738 -0.13945091 -0.07552451
000070 46 87 dc bd 93 b7 c8 bd c3 26 58 bd 01 c0 b0 bd
       -0.10767989 -0.09800639 -0.05277134 -0.08630372
000080 df 7c 3c bc 3d 66 32 be 3e 20 1f be d6 ab d1 bd
       -0.011504381 -0.17421813 -0.15539643 -0.10237853
000090 9f 3f 5f bd 48 74 14 be 87 c6 27 be cd b2 f5 bd
       -0.054504033 -0.14497483 -0.16384326 -0.11996994
0000a0 23 64 45 3d e6 1e 1c bd 55 a4 61 3d 1c f8 3f 3d
       0.0481912 -0.038115405 0.05508836 0.046867475
0000b0 1d 8a 0d bc be 52 18 3d 0b fd 21 be 6d a7 d8 bd
       -0.008638886 0.037188284 -0.15819184 -0.10578809
0000c0 48 9a 3b be 08 ac 1d 3d 07 4c 20 bd a1 c8 3c bd
       -0.18320572 0.03849414 -0.039135005 -0.046089772
0000d0 f2 bb 1f be 1b da a7 bd af 33 11 3d 54 bd 10 be
       -0.15599039 -0.08195897 0.03544968 -0.14134723
0000e0 9b 2a 0d bb 77 69 28 be 2d fd b1 3c 5d 75 b5 bc
       -0.0021540287 -0.16446482 0.021727169 -0.02215069
0000f0 de 5e 71 bd c6 3d ac 3c 25 64 3e bd cf 0e 38 be
       -0.058928363 0.02102555 -0.046482224 -0.17974399
000100 23 82 51 3d 1b 71 4e bb 69 be bb bd 9e 6d 4c bd
       0.0511495 -0.0031500522 -0.09167177 -0.049909227
000110 e7 9c f6 3c 01 16 0a bc 4f c9 30 3d 98 46 e1 bc
       0.030104114 -0.008428098 0.043160733 -0.027499482
000120 90 d9 1f 3d cc aa bf bd 3a a4 54 3d 9f 1d c9 bd
       0.039025843 -0.09358749 0.05191443 -0.09820103
000130 8e 6d b6 bc 82 7c 32 be 70 d8 05 be 26 87 e0 3b
       -0.022269037 -0.17430308 -0.13070846 0.0068520484
000140 b3 e7 30 bd 65 71 37 bd e4 c6 96 bd 79 7a a7 bd
       -0.043189716 -0.044785876 -0.07362154 -0.08177657
000150 9b 84 be bd 20 9c 1f be ee 5a 7d 3d 20 d8 58 bc
       -0.09302636 -0.155869 0.061854295 -0.013235122
000160 e4 63 27 be 1f 64 e1 bd c0 f6 09 be d6 f5 be bd
       -0.16346699 -0.11005425 -0.13473034 -0.09324233
000170 78 af 36 3d 19 f3 bb bd cc 34 23 be eb 2b 35 bd
       0.044600934 -0.091772266 -0.15938109 -0.044231337
000180 0b e2 49 3b 9f a8 b5 bd f4 46 36 bc 10 d3 ae bd
       0.0030804898 -0.088700525 -0.011125315 -0.08536351
000190 fa 69 fe bd ee 8f 25 be 7d 6b 2e be 72 2a 37 3b
       -0.12422557 -0.16168186 -0.17033191 0.0027948883
0001a0 86 25 02 be 5c b0 78 3b 5f 35 05 3d 75 49 3c bd
       -0.12709627 0.0037946915 0.0325216 -0.04596849
0001b0 d3 a6 9a bd a0 78 2a be 44 73 a8 bd 5d 1c 3a be
       -0.075513504 -0.16647577 -0.0822511 -0.18174882
0001c0 32 cd 0c 3d 9c 11 29 be a9 1a 97 bd 6e 73 63 bd
       0.034375377 -0.16510624 -0.07378132 -0.055530004
0001d0 7f 27 2a be a2 d5 8a bc 10 36 39 be 5e 98 04 be
       -0.16616629 -0.016947571 -0.1808703 -0.12948748
0001e0 a8 95 b6 bd f1 87 9d 3c 7e 1e f7 3b 22 0c 01 be
       -0.089152634 0.019229861 0.0075414767 -0.12602285
0001f0 ab 84 2f be 78 d0 cc bd 59 29 0f be 6a bc ad 3c
       -0.17140453 -0.100007 -0.13980617 0.021208007
000200 25 15 9e 3e 93 c6 17 be c5 f6 91 ba 22 85 83 bc
       0.30875507 -0.14821844 -0.0011136165 -0.016054694
000210 3f d3 2c be 0c 11 00 3d 0a 6f e4 3d 86 63 67 bd
       -0.16877459 0.031266257 0.111539915 -0.056491397
000220 4c 15 3c bc b2 f5 55 3c 62 85 97 3d db 28 8c bc
       -0.011479687 0.013059067 0.07398488 -0.017109325
000230 56 06 a5 be be 7f 8a bc fa f8 ff bd a9 64 8f be
       -0.32231396 -0.016906615 -0.124986604 -0.28006485
000240 5c 2e cc 3d 47 51 36 be 86 5c 09 3e b1 a9 15 3e
       0.0996978 -0.17804442 0.13414201 0.14615513
000250 dc 66 82 bd 7a 3b 9e bd d2 3c 0e be 92 36 ab bc
       -0.06367275 -0.07726188 -0.13890389 -0.020900045
000260 d6 3c 5a 3d f6 08 8b 3c 10 0e 33 bc 71 3d 78 bc
       0.053280674 0.016972046 -0.010928646 -0.0151513675
000270 0f db e2 3d 08 56 e4 be 60 24 5b be 09 16 06 3d
       0.11076938 -0.44596887 -0.21400595 0.032735858
000280 18 ea b3 3c 8f 88 8a 3a c4 11 be be fe 3f c4 3c
       0.02196221 0.0010569262 -0.3712293 0.023956295
000290 8d 8d 91 be 0e d3 8d bd 29 ed 87 bd 22 99 ac 3c
       -0.28428307 -0.06925021 -0.066370316 0.021069113
0002a0 ed 83 07 be b8 f4 41 3d ae 64 17 bf 03 ae 5f bd
       -0.1323392 0.047352523 -0.59138 -0.05460931
0002b0 3e 44 e0 bd aa 82 4a bd cf a4 2b 3e f7 cb b6 be
       -0.10950516 -0.049441017 0.16762088 -0.35702488
0002c0 37 d4 83 3b c9 d9 50 bd 39 03 57 bb 28 02 62 3b
       0.0040231007 -0.050988946 -0.0032808317 0.0034486149
0002d0 ec cc ae 3d cf ed 2d bd 06 9c 3a 3e 0b 4e fa bc
       0.085351795 -0.04246312 0.1822358 -0.030554792
0002e0 48 f9 47 3c 8f b3 1d bc b8 2c ea bb ff 3a 0b be
       0.012205429 -0.00962533 -0.007146444 -0.13596724
0002f0 07 21 e8 3d 7a 58 a4 3c 30 40 3c be a3 04 50 be
       0.113344245 0.02006172 -0.1838386 -0.20314269
000300 78 05 cd b9 f2 c1 98 bd 3a 95 14 3d 70 1a 0d 3e
       -0.00039104722 -0.07458867 0.036275126 0.13779616
000310 54 b3 15 be aa 9b 65 bd c3 18 72 3e a5 d2 41 3d
       -0.1461919 -0.056056656 0.23642258 0.047320027
000320 ad 07 6d 3d b5 7f ac bd 5b d8 fd 3d d8 92 6a 3e
       0.05786865 -0.08422796 0.12394782 0.22907579
000330 39 cb 7b bf 45 8f 4f 3d bf ca 22 bd 1b 1a 91 be
       -0.9835697 0.05067374 -0.039744135 -0.2834023
000340 a8 24 a1 3a 5d 6b e6 be 0c 20 bf 3b 03 7b 1b bd
       0.001229425 -0.45003787 0.0058326777 -0.03795911
000350 8a 32 d1 bd 29 48 43 bd 72 89 3d 3d c5 2e 37 bb
       -0.10214718 -0.04767624 0.046273656 -0.002795146
000360 af ce c2 bd cf ef dd 3c c5 9c 22 3d 6b 3b 15 3e
       -0.09512078 0.027091889 0.03970029 0.14573447
000370 ee 15 fb 3c 2a c4 9a bf 2b b1 f7 bc 75 ac ff 3b
       0.030650105 -1.2091115 -0.030235847 0.007802541
000380 0e 2e 9b bd d1 11 aa 3c 80 45 b0 bf 3a 59 e8 bc
       -0.075771436 0.020760449 -1.377121 -0.028362859
000390 b6 3b 40 be fe bb c6 bc 78 a6 92 3c 83 dc 0e 3d
       -0.18772778 -0.024259564 0.017901644 0.034878265
0003a0 70 4c 25 bd 24 42 a9 3d 23 de ff bb 5a e8 90 bd
       -0.0403561 0.082645684 -0.007808463 -0.070755675
0003b0 6a 1f a7 bd 14 d9 0d 3e 13 75 da 3d 24 61 ef be
       -0.08160289 0.1385234 0.106668614 -0.467538
0003c0 93 5c c6 3d 7b e6 c2 3d cf 4d db bc 38 6c 7f bd
       0.09685626 0.09516617 -0.0267705 -0.062359065
0003d0 0c 37 a2 3e e8 6b 53 3e a2 a1 f9 3b d4 fb a4 bd
       0.31682622 0.20646632 0.007618145 -0.08055845
0003e0 b0 db 06 3d db a3 93 bd 7a 85 43 bd fe 87 a4 3d
       0.032924354 -0.07208987 -0.047734715 0.08033751
0003f0 77 07 b8 bc df 77 7c 3e 02 20 83 be 32 98 2d 3e
       -0.022464497 0.24655102 -0.25610358 0.16952589

encoder.2.bias f4 [32]
000000 24 b0 93 bd 64 a2 cd 39 a6 13 fa 3e cb 9f 2d 3f
       -0.072113305 0.00039221637 0.48843116 0.6782195
000010 f7 bc 3b 3f 6b 12 cc 3c 57 e7 8a bd 6a 47 a8 be
       0.7333521 0.024911126 -0.06782406 -0.32866985
000020 5b e2 17 be 0e d3 d5 be ac 98 14 3f f2 85 ce 3e
       -0.14832442 -0.41762584 0.5804546 0.40336567
000030 5f d6 85 bd da 63 5c 3e cc 6d a4 3e fb 4a d9 3b
       -0.06535029 0.21522465 0.32115018 0.006631253
000040 df 56 21 be 10 b1 3a 3d ea c2 10 3f d3 1f 92 3e
       -0.15755795 0.045579016 0.56547415 0.28539905
000050 96 1b 0c be 73 62 cc bd d0 93 0c 3e 42 ae 6b bd
       -0.13682398 -0.09979715 0.13728261 -0.057539232
000060 ed bc 05 3f 56 b7 6a be f6 62 12 3f 34 b6 0b 3f
       0.522414 -0.229215 0.5718225 0.54574895
000070 36 4f 25 3d 65 0e 84 3e 11 d9 b6 3e 3f 28 ce 3e
       0.040358745 0.25792232 0.35712484 0.4026508

decoder.0.weight f4 [64, 32]
000000 f1 b3 81 be 7c 2c 92 be f8 f8 b7 be e6 e9 8a be
       -0.25332597 -0.28549564 -0.35932136 -0.27131575
000010 fa f1 b7 be 6f c3 93 be d6 c1 f4 bd 95 d0 dd bd
       -0.359268 -0.28860041 -0.11951034 -0.108307995
000020 4b bf d2 3e 1a b1 16 bd 4d d5 e4 bd f7 fb e8 be
       0.4116157 -0.03678999 -0.111734964 -0.45504734
000030 82 f3 94 be 02 c9 92 3d fd 30 dc be e7 02 e8 be
       -0.29092032 0.071672454 -0.43006125 -0.45314714
000040 53 fa 98 bd f5 96 b4 be c7 56 5a be ee bf a2 be
       -0.074696206 -0.3527142 -0.21322165 -0.31787056
000050 f2 aa 51 be 1e af bf be 3e 6a ad be d7 bb d9 be
       -0.20475367 -0.3743829 -0.3387012 -0.42526123
000060 77 cb 9a 3e f8 a8 d0 3e f3 20 db 3e bd 37 b8 be
       0.30233356 0.40753913 0.42798576 -0.35980025
000070 ae ff 6b 3e 62 58 ce be 3e b2 5b be 2f 3e 23 3e
       0.23046753 -0.40301806 -0.21454713 0.1594169
000080 c9 de 1f be 83 f8 d0 bd 96 10 d2 3c b1 1b 28 3e
       -0.1561233 -0.1020365 0.025642674 0.16416813
000090 a4 02 b2 bb 20 f7 f3 3d aa 84 d7 bd 27 92 e6 3d
       -0.0054324437 0.1191237 -0.105233505 0.11258345
0000a0 2f 50 1e 3e 1d a9 a1 bd 88 ef 81 3d 55 c5 cc 3d
       0.15460275 -0.07893584 0.06344515 0.099985756
0000b0 02 70 20 3e 7c 1d b1 be 91 8d 57 be b1 18 23 3d
       0.15667728 -0.34592807 -0.21050097 0.03981847
0000c0 ad 9b ee bd 3c ee e9 3d b6 ed 4f be 44 e0 cb 3e
       -0.116507865 0.11422393 -0.20305523 0.3981954
0000d0 1a 48 ea bd bc 24 89 bc 1f b6 20 3d 36 ac 5c bd
       -0.114395335 -0.01674115 0.039236184 -0.05387517
0000e0 47 7f a6 bb f4 33 a4 bd be 95 00 3e 17 46 e5 bd
       -0.0050810906 -0.08017722 0.12557122 -0.11195009
0000f0 91 02 24 3c a4 e6 9c 3d d5 de 33 3c 73 80 83 3c
       0.0100103775 0.07661179 0.01097842 0.01605246
000100 cd c4 06 3e 94 5d f8 3b 28 b1 2c bd 5b c8 ba bd
       0.13161011 0.0075795148 -0.042161137 -0.09120246
000110 7d 68 b5 3d d7 b9 55 3e 8a c6 f1 3d b4 10 30 3e
       0.0885782 0.20871674 0.118054464 0.17193872
000120 1d 27 28 be ca 79 14 bd b6 27 6d bd 28 69 30 be
       -0.1642117 -0.03624896 -0.0578992 -0.17227614
000130 c7 a1 d6 3d a4 8d 9f bd b5 05 9d bc c6 00 f5 bd
       0.10480075 -0.07790688 -0.01916776 -0.11963038
000140 d8 de 10 be 5d f8 06 3e 77 e8 3d 3c 32 7d 04 3d
       -0.14147508 0.1318068 0.0115910685 0.032345958
000150 55 35 75 bd d8 be 3d 3e 94 73 cc be 47 8c 4b 3e
       -0.059865315 0.18529832 -0.3993193 0.1987773
000160 5a 61 04 3e a8 30 8a 3d 59 bd 12 3f f2 f4 cf bd
       0.12927762 0.06747562 0.5732017 -0.101541415
000170 a3 cf f7 bd 4f b7 c8 3d fa ec 2d bd 1d 6b d8 3d
       -0.121001504 0.09800588 -0.042462327 0.10567305
000180 6a c3 bf bd 67 3c 8b 3d 34 01 ba bb e7 d9 72 be
       -0.09363444 0.0679863 -0.005676413 -0.23715936
000190 43 68 ef bd fc fa 0a be 4b 7c 3b be 9b 4c f3 3d
       -0.11689808 -0.13572305 -0.18309133 0.11879846
0001a0 16 b7 2d 3e 24 60 e6 3d 15 ba 4d 3d 3d 68 e7 bd
       0.16964373 0.11248806 0.05022629 -0.11299179
0001b0 e4 29 22 be 36 c6 21 be 8c fe d6 bd 8d 9e 89 3d
       -0.15836293 -0.15798268 -0.1049777 0.06719694
0001c0 45 88 a9 3c d4 85 c0 bd 43 c1 22 be 6f a9 df 3c
       0.020694861 -0.09400526 -0.15894036 0.027302472
0001d0 e7 5d 51 bd e8 38 b3 bd df fd 3a 3e 5b ba 6a be
       -0.051114943 -0.087510884 0.18260907 -0.22922651
0001e0 f1 d3 56 3d f6 24 c8 bc 7b 70 37 3e 46 05 64 3d
       0.052448217 -0.024431687 0.17914002 0.05566909
0001f0 fd bd 2f 3e ac 5c 70 be f4 1c e4 bd 70 46 1d bd
       0.17162319 -0.23472852 -0.11138335 -0.038397253
000200 45 f1 d5 bd cb e4 88 be 7b 74 ed bd 35 4c 17 be
       -0.10446409 -0.26737055 -0.115944825 -0.14775164
000210 4b ea 48 be 73 eb a9 bd 21 fe 6f be ca 9a b7 3d
       -0.19620626 -0.082968615 -0.23436786 0.089650705
000220 db 7d d8 3c 91 ec 0f 3e 04 02 cb bc 7f 5d a2 bd
       0.0264272 0.14055087 -0.024781235 -0.07927989
000230 09 16 20 be 7a 38 64 be 10 d8 e9 3c 39 fb 5a be
       -0.15633406 -0.22287169 0.02854541 -0.21384896
000240 35 ef a3 3d 88 77 46 be 94 e4 4f be 16 41 0d be
       0.080046095 -0.19381535 -0.2030204 -0.1379436
000250 cc 46 8d 3d 36 73 31 be c3 01 ad bd f0 6b 5d bd
       0.06898269 -0.17329106 -0.08447602 -0.054058015
000260 e4 77 03 be 8f b8 7a bd e4 99 8d 3d 5c 68 60 3e
       -0.12838703 -0.061211165 0.06914118 0.2191481
000270 ad 18 6a 3e f1 70 4c be dc 1b d0 bd 13 21 84 bd
       0.22860976 -0.19964959 -0.10161564 -0.06451621
000280 01 39 a5 ba d3 55 f6 bd a5 11 5d bb 10 a4 99 bc
       -0.001260549 -0.120280884 -0.003373244 -0.018754989
000290 9b 4e ba bd e8 4a 4f bd a2 65 f9 3d b6 eb bb bd
       -0.09097024 -0.050608546 0.12177588 -0.09175818
0002a0 c2 4b c8 3d d1 4d 91 3d dc 1a 82 3d 82 17 83 3d
       0.09780075 0.070949204 0.06352779 0.06400968
0002b0 ad 3e 27 3d f1 57 b6 bd 1b 01 16 be d4 6e 11 be
       0.040831257 -0.08903492 -0.14648859 -0.14202434
0002c0 3b 68 0b bd 51 0b 02 bd 34 fd 84 3d 42 87 97 bc
       -0.03403495 -0.031749073 0.06493607 -0.018497113
0002d0 b3 9e 2d be 88 9c d3 bd f6 01 0c 3d 54 0f 0d 3e
       -0.1695507 -0.1033259 0.034181558 0.13775378
0002e0 e4 84 c4 3d 3a 6c f1 3d 8b 8a f3 bd 25 54 a4 bd
       0.095956594 0.11788221 -0.11891659 -0.08023862
0002f0 51 b8 0c 3e b4 19 23 bd 13 28 26 be d2 dd ff bd
       0.13742186 -0.039819434 -0.16226225 -0.12493481
000300 ca a5 14 3d d3 cb 1b be a0 4b 2b bd 4e 21 8d be
       0.03629092 -0.15214472 -0.04182017 -0.27564472
000310 b9 a1 1f bf b1 c6 46 be cc ae 77 3d b0 6d 4e be
       -0.62356144 -0.19411732 0.060469434 -0.2015903
000320 87 32 ac 3d 41 41 26 3e f8 91 f4 bd c4 af f4 3c
       0.08408075 0.1623583 -0.11941904 0.029868968
000330 cf be 59 be 21 fb 79 be a7 b4 0a 3d 6c 28 ab 3d
       -0.21264194 -0.24412204 0.03386369 0.08357319
000340 d7 e7 fe bd ec ee 88 3d f2 bb 83 3d c9 fb 8f 3c
       -0.12446564 0.06686196 0.06432332 0.017576115
000350 01 bd e8 bd 0d f5 3f bd d8 0a 33 bd 40 e3 05 3e
       -0.11364175 -0.046864558 -0.043711513 0.1307497
000360 3f d1 0a 3d c8 18 f4 3d fe ff 0a bd 1a c4 27 bb
       0.03389096 0.11918789 -0.03393554 -0.0025599063
000370 6a 32 13 bc 9b 58 c7 bd 28 c3 fb 3e 32 d0 22 be
       -0.008984188 -0.09733697 0.4917233 -0.15899733
000380 ff e7 3d be c5 20 68 be 81 2c 35 3d 2a 31 29 bd
       -0.1854553 -0.2266875 0.044231895 -0.041306652
000390 1e e8 de bd f2 2b cb 3c b1 87 4e bc 67 e8 81 be
       -0.108841166 0.024801228 -0.012605594 -0.2537262
0003a0 f4 7e ad 3d 0c d8 80 3d 9c d9 f7 3d fe 31 6f be
       0.0847148 0.06291208 0.121020526 -0.23358914
0003b0 f6 d6 20 be 82 7c 6b be b5 2e 12 3c 8e 06 7f be
       -0.15707001 -0.22996715 0.008922269 -0.24904844
0003c0 f8 61 51 3e a3 33 03 3d 6a e7 e3 3e fa ca 0f 3e
       0.20447528 0.032031666 0.44512492 0.14042273
0003d0 bc a8 a1 3b 37 5a 73 be da 01 28 bd d9 27 bd bd
       0.004933445 -0.23764883 -0.04101739 -0.09236116
0003e0 3f e6 6f bd 68 c6 c1 3d 9e 63 19 3e 73 a6 be 3c
       -0.05856919 0.09461671 0.14979407 0.023272729
0003f0 b0 63 4d bd 84 40 26 be 9f 04 94 bd 72 fc 82 3e
       -0.050143898 -0.16235548 -0.07227444 0.25583225

decoder.0.bias f4 [64]
000000 50 40 68 be 36 90 1a bd e0 cb d8 3d f2 4d ec bd
       -0.22680783 -0.037735187 0.10585761 -0.115383044
000010 68 74 87 3a a9 f3 be 3c 62 b4 a9 3d 4c 21 73 bc
       0.0010334374 0.023309546 0.082863584 -0.014839482
000020 2b ec 2b 3e e7 4a 13 be 38 73 18 3c 0c c0 85 bc
       0.1678931 -0.14384042 0.009304814 -0.016326927
000030 36 a7 99 3c f7 f9 0f be 97 63 1d bd 30 09 5d be
       0.01875649 -0.14060198 -0.038425054 -0.21585536
000040 d9 cd 93 bd 98 68 99 bb db 96 4e be d6 b4 3d bd
       -0.07216997 -0.004681658 -0.20174734 -0.046315037
000050 6c 7a f2 3b b7 11 70 bd 4f 6a 7c 3d 9a c2 b2 bd
       0.0073998477 -0.058610644 0.06162482 -0.087285236
000060 37 d6 45 be 6a ef 55 be c0 5b 3a be 06 0e bc be
       -0.19319998 -0.2089211 -0.18199062 -0.3672945
000070 22 c5 1f be 7c 2d 60 3e 71 32 87 bb 43 2b 80 be
       -0.15602544 0.21892351 -0.004125886 -0.25033006
000080 f9 90 b6 bd 84 3d 57 3d 04 c4 d0 bd 60 7a ee 3d
       -0.0891437 0.0525489 -0.10193637 0.11644435
000090 6f 36 17 3e 63 c3 37 be ad fe 49 3d a7 17 c8 bd
       0.14766859 -0.17945628 0.049315143 -0.09770136
0000a0 ce 8b 5e be 52 3b 6a 3d 9f 5e 61 3c 43 70 bc 3d
       -0.21733019 0.05718548 0.01375547 0.092011
0000b0 e2 12 64 3e 4f 76 83 bd 20 7e 68 3d c3 26 b4 3d
       0.22272828 -0.0641905 0.056760907 0.08796456
0000c0 5d 82 76 be 71 d9 f2 bd bd 11 d1 3d f3 02 a4 bd
       -0.24073167 -0.1185788 0.102084614 -0.08008375
0000d0 7b 65 42 be 64 b2 cd 3d 58 33 cf bd 69 aa f1 bb
       -0.18984024 0.10043791 -0.10117215 -0.007375051
0000e0 e4 d3 17 be ac c7 03 3e 4f 30 83 bc 0a 40 52 be
       -0.14826924 0.12869138 -0.016014246 -0.20532241
0000f0 cd e5 60 3e 04 8a 34 3e f1 40 cd 3d 0d cb 26 3d
       0.21962662 0.17630774 0.10022152 0.040720988

decoder.2.weight f4 [784, 64]
000000 e0 bf f6 3d de d7 92 bd 08 0c e4 3c ac ff 7f bd
       0.12048316 -0.0717008 0.027837768 -0.062499687
000010 5a 60 9d bd 20 2a f9 bc 70 b1 40 3d b2 a4 8c bd
       -0.07684393 -0.030415595 0.047044218 -0.06867351
000020 28 b7 b8 3b 12 7f 80 bd 00 77 1e be 90 14 99 bd
       0.0056370683 -0.06274237 -0.15475082 -0.07474625
000030 f1 c1 da bb 1f 2e 85 3c 0f 2d 21 3d 2a cd d9 bd
       -0.0066759516 0.016257344 0.03934961 -0.10634835
000040 56 b5 b4 ba a6 e4 ed bd 94 4f 00 bd c7 52 df bd
       -0.0013786952 -0.11615877 -0.03132589 -0.109044604
000050 a8 c8 41 bd a0 23 0f be d7 b2 98 bd 3f 2d ce bd
       -0.0473105 -0.13978434 -0.07455986 -0.10067224
000060 10 84 60 3d 90 b3 1b bc 4a c1 1a be 36 43 92 3d
       0.054813445 -0.00950326 -0.15112796 0.07141726
000070 70 c8 02 3c dc da 9d bc 4e 44 ab bd a4 bf 9e bd
       0.007982358 -0.0192694 -0.083626375 -0.07751396
000080 00 09 17 3c 38 47 21 bd ca 2c d0 bd 87 51 09 be
       0.009218454 -0.03937456 -0.10164793 -0.13410006
000090 f3 f1 28 be 4c e8 31 bc 84 50 19 be c6 bf 0e be
       -0.16498546 -0.010858607 -0.1497212 -0.13940343
0000a0 46 8d d5 bd 33 8d fb bd 0a d9 98 bd 98 88 a2 3d
       -0.104273364 -0.12282791 -0.07463272 0.079362094
0000b0 d2 7c 30 bd b8 bf 21 be e0 4a 97 bb 98 99 d0 3c
       -0.043087788 -0.15795791 -0.00461708 0.025463864
0000c0 10 af b7 bc fd e2 c7 bd 22 22 40 be 6a 0d 59 bd
       -0.022422343 -0.097600915 -0.1876302 -0.05299131
0000d0 6c 5f 55 bd a4 bc 23 bd a8 12 aa 3c fc b5 de 3d
       -0.052092955 -0.039974824 0.02076085 0.108745545
0000e0 24 d0 19 bd 42 e2 93 bc 84 b8 0d 3d e6 d0 a6 bd
       -0.037552014 -0.018052224 0.034599796 -0.08145313
0000f0 6e 8d 9b 3d de 51 2a bd 00 f8 29 be 76 0d 9c bd
       0.07595335 -0.04158198 -0.1659851 -0.07619755
000100 d4 9a 8e 3d 16 13 62 3c c0 09 a9 bd 5c f3 a8 3d
       0.06963125 0.013798496 -0.08253813 0.08249542
000110 c8 fc fd bd a4 a3 73 bd 04 38 35 bd c2 09 ab bc
       -0.1240173 -0.05948223 -0.044242874 -0.020878676
000120 2f 1a 42 be 74 52 24 3c fc c4 9d bc c9 89 30 bd
       -0.18955301 0.010029424 -0.019258969 -0.043100152
000130 b6 19 44 bd 5f fd 4e be 42 01 df bc 00 3c 72 39
       -0.047876082 -0.20213841 -0.02722228 0.0002310127
000140 dc f5 44 be d0 f4 f6 3c 00 81 08 bd 82 7f 0e be
       -0.19234413 0.030146033 -0.03332615 -0.13915828
000150 4c 0b 7c bd 56 42 b9 bd a3 23 53 bd cf ef de bc
       -0.06153421 -0.09045856 -0.051547658 -0.027213959
000160 d6 35 8d bd 40 e4 20 bc 96 d7 41 3d de ae 93 bd
       -0.06895034 -0.009820044 0.04732474 -0.07211088
000170 44 eb 13 3d 90 0e b5 bc e7 81 d7 3c 80 32 a2 3d
       0.03611304 -0.02210167 0.02630706 0.07919788
000180 fe 6a 80 3c a4 88 71 bd 52 10 f6 bd 95 b3 87 bc
       0.015676018 -0.0589682 -0.120148316 -0.016565124
000190 eb 20 fe ba a0 06 05 bd 3b e4 a9 bd 09 a1 0d be
       -0.0019388472 -0.03247702 -0.08295485 -0.13830961
0001a0 78 f3 90 bd e2 26 28 3d a6 c6 83 bd 48 e1 0f 3d
       -0.07077688 0.041052707 -0.064343736 0.035126954
0001b0 94 63 1d bd 3c 2b 38 3c 4a d9 b0 3d 35 a2 15 bd
       -0.038425043 0.011240777 0.086351946 -0.036531646
0001c0 40 f2 37 bb 73 42 18 bd 30 5c 1b be e7 a6 2f bd
       -0.0028067976 -0.037172746 -0.15171885 -0.04288378
0001d0 e0 e6 eb 3b 00 8b 11 be 92 c4 b3 bc 97 48 31 be
       0.0071991533 -0.1421318 -0.021944318 -0.17312847
0001e0 71 be 2f be 12 db 50 bd d1 18 45 3b 89 3d 0f bd
       -0.17162491 -0.05099017 0.0030074606 -0.034970794
0001f0 e8 ce 47 3c bd bf 3d bd 01 45 66 bd 7e 8a 09 be
       0.012195326 -0.046325434 -0.05621815 -0.13431737
000200 e4 53 e2 3d 14 4e 74 be 9c ce d9 bd 14 23 e0 3d
       0.11051157 -0.2385791 -0.10635111 0.109441906
000210 10 e5 77 bd 84 c2 06 bd 8c 54 ac 3d 61 a4 32 3c
       -0.060521185 -0.03290035 0.084145635 0.010903449
000220 bd 91 2a be cd eb b7 bd 08 85 88 3d e8 04 ab bc
       -0.16657157 -0.08980522 0.06665999 -0.020876363
000230 26 14 33 bd ca 46 a0 bd 34 15 86 bc f8 6f 8e 3c
       -0.043720387 -0.07826002 -0.016367532 0.017387375
000240 d3 fc 06 3d 98 78 23 3d 60 20 85 3b f2 1a 5d bd
       0.032955956 0.03990993 0.0040626973 -0.053980775
000250 cc 0e ad bd 2a c3 2f be a8 f9 82 bd a0 48 32 bc
       -0.08450088 -0.17164293 -0.063952744 -0.010881573
000260 88 ea 84 3d 58 16 cb bc 9a 65 83 bd a0 b5 38 bc
       0.06490046 -0.024790928 -0.06415863 -0.0112737715
000270 ba c0 94 bd e8 11 75 bc 9c af 0b be 38 4d 84 bd
       -0.07263322 -0.014957882 -0.13641208 -0.06460041
000280 3c a5 a8 3d c8 a3 56 3d 14 7c 33 bd e8 24 16 be
       0.08234641 0.052402288 -0.043819502 -0.14662516
000290 81 27 01 be 58 5a 96 bc 68 46 42 be 0e 35 9c 3d
       -0.12612726 -0.018353626 -0.1897217 0.07627307
0002a0 e0 98 6f 3d 91 94 df bd 00 71 f3 3c 7e b1 c9 bd
       0.058495402 -0.10917009 0.029716969 -0.09848307
0002b0 fc a2 e4 bc ce 7a 0c 3d 34 8b b7 3d 00 07 96 ba
       -0.027909748 0.034296803 0.08962098 -0.0011446178
0002c0 e9 3c 19 3d e4 7d 98 3d fe ad 0c be 61 d6 de bd
       0.037411604 0.07445887 -0.13738248 -0.10880733
0002d0 10 87 4d bd 34 ba af 3d 30 8f 97 3c 28 85 d6 bc
       -0.050177634 0.08580437 0.018500894 -0.02618654
0002e0 e0 53 7f 3d 11 84 1a be ee c6 bc bd 8a 65 e6 3d
       0.06233585 -0.15089442 -0.0921763 0.11249836
0002f0 15 c2 86 bd 86 0a 0a be c2 13 35 be cc 78 98 bd
       -0.06579987 -0.13480577 -0.17683318 -0.07444915
000300 b8 91 f4 bc 80 65 19 bb 0f 0f fc bb 08 97 ef 3d
       -0.02985464 -0.0023406446 -0.007692225 0.11698729
000310 1c ba f9 bd 1a 65 bf 3d 94 ac 56 3d 3d 5c ed bd
       -0.12193701 0.093454555 0.052410677 -0.11589859
000320 11 71 32 be 70 0d 44 be 70 c7 46 bd fe 3d 5d bb
       -0.17425944 -0.19145751 -0.048530042 -0.0033758874
000330 c5 ac 0c be a0 b7 cb 3b 63 c3 17 3d 3a 96 a8 bd
       -0.13737781 0.006216958 0.03705157 -0.082317784
000340 57 0b d7 bd 02 b5 cf bd 94 eb 40 be 8a 98 d9 bc
       -0.1050021 -0.101419464 -0.18839866 -0.026561994
000350 fc 0e 7f 3d d9 25 3b 3d f8 a2 48 bd 64 d5 0b 3d
       0.06227015 0.04569039 -0.048983544 0.034139052
000360 40 b9 27 bc 28 cb 04 bd ae 3c 07 be ce 65 cb 3d
       -0.010237038 -0.032420307 -0.13206741 0.09931527
000370 3a af b4 3d 4c da 26 be 14 6d 4e 3d 40 e5 ab 3b
       0.08822484 -0.16294211 0.050396994 0.0052458346
000380 52 17 fc 3d e6 7c c3 bd c8 f9 97 3d a9 7a c4 3c
       0.123091355 -0.09545307 0.07420689 0.02398427
000390 42 2a b7 bd a0 41 75 3d a8 26 46 be 82 51 f7 bd
       -0.08943607 0.059877038 -0.19350684 -0.12076093
0003a0 d0 20 42 3d 1d 65 f9 bd bc d2 e9 3d 40 0d d4 bd
       0.047394574 -0.12177489 0.114171475 -0.1035409
0003b0 05 52 d6 bb 4b d0 89 bd 4a eb d9 bd 98 79 90 bd
       -0.006540539 -0.06729182 -0.10640581 -0.07054442
0003c0 7e d9 8a 3d 01 6c f2 bc fd 73 3d 3d d8 1b ec 3c
       0.067797646 -0.029592516 0.046253193 0.02882187
0003d0 c6 bd f5 3d 3f 9f e9 bb fb 72 a1 bd 3b db 09 bd
       0.11999087 -0.0071295793 -0.07883259 -0.03365634
0003e0 03 18 0f be 52 fd 99 bd 07 44 2b be 84 ca ae bd
       -0.13974003 -0.0751902 -0.16725169 -0.085347205
0003f0 fc d8 e5 bd 6b af 0c be 41 62 4a 3c 14 e3 7c bd
       -0.11223027 -0.13738792 0.012352527 -0.061739996

decoder.2.bias f4 [784]
000000 91 3e 42 3c 08 d4 b3 bc 89 43 51 3c d6 d7 bf bd
       0.011855737 -0.02195169 0.012772449 -0.09367339
000010 ab 27 13 be 64 32 29 bd 75 b5 1f be 1c 69 8d bc
       -0.14370601 -0.041307822 -0.15596564 -0.017262034
000020 d9 cf 9c bd d3 7a 21 be 45 e8 aa bd a9 22 0f be
       -0.07656831 -0.1576951 -0.08345083 -0.13978066
000030 88 1f 2d be 6d a9 03 bd b8 e0 3f be f7 bd 0a be
       -0.1690656 -0.032144 -0.18738067 -0.13549028
000040 b7 67 3a be d0 6d de 3c c0 18 b0 3c 4d f2 e3 bc
       -0.18203627 0.027151972 0.021496177 -0.027825499
000050 c0 77 0b bd 8d cc 24 be 2c 48 1f bd 3e 0a 1d be
       -0.03404975 -0.16093655 -0.038887188 -0.15335938
000060 45 5c 2b be d9 d8 f2 3c 26 45 b6 bd 70 4e 38 be
       -0.16734417 0.029644417 -0.08899908 -0.17998672
000070 9d aa 0b be 2b 3f 6f bd f9 59 42 bb 4d 6e 42 be
       -0.13639303 -0.05840985 -0.0029655679 -0.18987389
000080 0a 7f 08 bd 7a 93 89 bd e8 84 60 bb 4e 60 9c bd
       -0.03332428 -0.06717582 -0.0034258906 -0.07635556
000090 3b 28 1a be fb cf 74 bd 4b fc 36 be 47 31 d5 3b
       -0.15054409 -0.059768658 -0.1786968 0.0065061185
0000a0 88 11 fc bb 12 ef 64 3b 4c f3 ca 3c 2f 02 be bd
       -0.0076925196 0.0034932536 0.024774216 -0.0927776
0000b0 c3 9c b1 bb f2 73 1c be 6d ae 25 be 9a 4c 85 bd
       -0.005420299 -0.15278605 -0.1617982 -0.06508751
0000c0 05 b5 23 be 1c 92 4c bd fe eb 32 be 9c a4 76 bc
       -0.15987022 -0.04994403 -0.17472836 -0.015053894
0000d0 b5 a3 e4 bd 9b bb 97 bd a1 83 c8 3c a0 1a f9 3c
       -0.11164037 -0.0740883 0.024476828 0.030408204
0000e0 14 81 f8 bd 09 df a7 bd 86 33 d1 bd dd 3f 60 bd
       -0.12133995 -0.081968375 -0.102149054 -0.054748405
0000f0 4d 1b 17 bd be 4d c9 bd 75 87 a8 bd c6 07 6d be
       -0.03689127 -0.09829281 -0.082289614 -0.23147497
000100 a3 85 8a bc 7c 6d f5 bd 49 14 e0 3b ba 2e d8 bd
       -0.016909426 -0.11983773 0.0068383557 -0.105557874
000110 2c b6 24 be 07 0f 1c bd 1a c0 34 be 07 9a a6 bd
       -0.16085118 -0.03810027 -0.17651406 -0.08134847
000120 a1 79 f4 bc 6a d5 b1 bd ef 06 10 bd 8e 69 c5 bd
       -0.029843153 -0.086832836 -0.035162862 -0.096392736
000130 d8 f5 66 bd 21 18 01 bd 8a 91 38 3c 4e f7 af bd
       -0.0563868 -0.03151715 0.011265168 -0.085920915
000140 a9 81 09 be c5 eb bf bd 1d b9 83 bc 6c 62 ba bc
       -0.13428368 -0.09371141 -0.01607948 -0.02275201
000150 97 62 9d bd cd 0d df bd ed bb 35 bd b7 06 d6 bd
       -0.0768482 -0.10891304 -0.044368673 -0.104504995
000160 35 e1 50 bc b0 7b 33 bd 67 9b 4c be 97 13 00 be
       -0.012749006 -0.04381913 -0.19981156 -0.12507473
000170 04 51 01 be a6 c0 2f bd ef 67 b8 bd fd 84 9b bd
       -0.12628561 -0.042908333 -0.09004199 -0.07593725
000180 95 3a 17 3d 5c fe 56 be a2 b8 04 be 9d 95 d5 bd
       0.036921103 -0.20995468 -0.12961057 -0.10428927
000190 7b 06 81 bd fb aa 43 bd 91 e2 38 be 40 68 6e be
       -0.06300064 -0.04777048 -0.18055178 -0.23281956
0001a0 a3 de 19 be 89 e5 22 be 45 7a 2d be ce 0e 88 bd
       -0.15026335 -0.15907873 -0.16941173 -0.06643449
0001b0 c2 ba 48 3d fd d9 da bd 2c df 84 bd 66 29 a4 bd
       0.04900623 -0.10686109 -0.06487879 -0.080157086
0001c0 6b ad 1b be ff b7 2c bd 57 17 6f bc 94 a2 0f be
       -0.15202872 -0.04216766 -0.014592967 -0.14026862
0001d0 ce 3a 10 bd fa 1e 62 3d 1b 6a a6 bd 47 73 50 bd
       -0.03521233 0.055205323 -0.08125707 -0.050891187
0001e0 c8 32 a1 bd 05 2a 24 be f3 f2 37 be 0a c2 09 be
       -0.07871014 -0.16031654 -0.17963772 -0.13452926
0001f0 99 f2 de bd 80 2f d9 3c 64 2e 1c be 6c d4 8e be
       -0.108861156 0.026511908 -0.15252072 -0.2789644
000200 6b 46 60 be c5 4d 89 be d6 b4 b5 be ec d8 d4 be
       -0.21901862 -0.26817146 -0.3548953 -0.41571748
000210 4d c0 4c bd d6 2b 29 be 89 94 8f bd 24 cf e4 bd
       -0.04998808 -0.16520628 -0.07010753 -0.111723214
000220 02 e9 20 3a db 66 36 be 02 90 c2 bd 00 26 b3 bd
       0.00061382365 -0.17812674 -0.095001236 -0.08747482
000230 01 5d 00 be 95 77 fe bd 65 d9 d0 bb a0 12 e6 bd
       -0.12535478 -0.12425152 -0.0063735717 -0.11234021
000240 19 d8 cf bd bb d7 35 be 88 60 60 3c c8 35 1e be
       -0.10148639 -0.17758076 0.01369489 -0.15450203
000250 e4 5c 84 bd 12 9f e8 3c 81 b4 71 3c b3 01 00 3e
       -0.0646303 0.028396163 0.014752508 0.12500648
000260 0c c5 49 3e df 35 06 3e 27 5b 48 bd 18 21 9e be
       0.19704074 0.13106488 -0.048915055 -0.30884624
000270 04 9a f8 bd 07 47 6f be 1c 11 ef be 3b a6 be be
       -0.12138751 -0.23366939 -0.4669274 -0.372362
000280 cf 09 ac be 77 89 a2 be 15 fc e9 bc ce b3 ef bc
       -0.33601233 -0.31745502 -0.028562585 -0.029260542
000290 52 b9 cf bc 02 e1 1f bd d9 2b 3d be cc ad da bd
       -0.025356922 -0.039032944 -0.18473758 -0.106776804
0002a0 c7 f4 26 3d 04 9d b4 bd 5d e1 ad bd f3 2c b7 bd
       0.04076078 -0.08819011 -0.0849025 -0.0894412
0002b0 26 9c d0 bd 38 d3 89 bd cb 58 12 be e0 ba 88 bb
       -0.10186033 -0.0672974 -0.14291684 -0.004172668
0002c0 b2 de 06 be 39 4a 1c 3d 26 2b 5b 3e 31 6a 47 3e
       -0.13170889 0.03815672 0.21403179 0.19474103
0002d0 71 3d 6b 3e bc 4f 76 3e f7 70 16 3d 01 f4 0c 3d
       0.22972657 0.24053854 0.036728825 0.034412388
0002e0 7d 8c c0 bd 29 7b e5 bd 50 8f 1e be cd e1 3b be
       -0.09401796 -0.112051316 -0.15484357 -0.18347855
0002f0 f4 ff 9e be 82 f7 33 be 53 46 98 ba 5e bc af bd
       -0.31054652 -0.17574885 -0.0011617638 -0.0858085
000300 01 3e 96 bc 60 0e 4c be ac 94 e0 bd 61 a7 0d be
       -0.018340113 -0.19927359 -0.10965857 -0.13833381
000310 73 1c 00 be 10 f0 c7 bb 1f b7 81 39 5b eb 04 be
       -0.12510853 -0.0061016157 0.00024741233 -0.12980406
000320 88 4a 1a be 40 51 d4 bd a6 89 b9 bc fe 10 25 bc
       -0.15067494 -0.1036706 -0.022648644 -0.010074852
000330 74 74 15 3d 8c fd 31 3e 1d 56 57 3e 4b d7 79 3e
       0.03648801 0.17381877 0.21028943 0.24398534
000340 ac 4f b7 3e b0 49 2b 3e dd 4e 09 3e 61 33 d9 bb
       0.35802972 0.16727328 0.1340899 -0.0066284393
000350 f5 d2 d9 bd bf c5 70 3d dd 9f 1c 3d 28 9f 04 be
       -0.1063594 0.058782335 0.038238395 -0.12951338
000360 36 de d2 bd cc 65 d0 bd 60 0d 8d bd 07 93 4a 3c
       -0.102962896 -0.10175666 -0.06887317 0.012364156
000370 c3 a0 12 be 12 af 4c bb 84 98 10 be df 52 16 be
       -0.14319138 -0.003123228 -0.1412068 -0.1468005
000380 22 14 d3 bd f3 0f e9 3c 52 9d de bd 0f 41 01 be
       -0.103065744 0.028449988 -0.1086985 -0.12622474
000390 b3 66 46 bc c7 0c 92 bd 04 e3 2e bd 3c 7b b7 bb
       -0.012109446 -0.07131343 -0.042696968 -0.0055994075
0003a0 aa 37 34 3e 47 89 49 3e 84 bf 88 3e 4b 30 25 3e
       0.17599359 0.19681273 0.26708615 0.16131704
0003b0 55 32 66 3e 4c 7b e6 3d 06 5b f4 3b 7e 8a 1e bd
       0.22480138 0.11253986 0.00745714 -0.038706295
0003c0 55 fd 77 bd d5 9e c9 3d 9e 75 fd 3d 7c e2 4f bd
       -0.06054433 0.09844748 0.12375949 -0.0507531
0003d0 52 37 6f bc 26 55 f1 bc d2 04 0e be 03 99 fd bc
       -0.014600592 -0.029459547 -0.13869026 -0.03095675
0003e0 ef 95 14 be 61 ca be bd f3 24 27 be 56 b6 03 3d
       -0.1451032 -0.093159445 -0.16322689 0.03215631
0003f0 ab 88 32 3c 84 84 2c be eb 8e d9 bd 05 f1 0c bd
       0.010896842 -0.16847426 -0.106229626 -0.03440954
