20220518220.pt (torch, 424079 bytes, 8 tensors)

encoder.0.weight f4 [64, 784]
00000000: 61df 6dbc acd2 f03c 90ec 9a3c bedd 973c
00000010: 336b 11bd 62a0 84be acbd f1bf 7bf6 1ebf
00000020: a69a 86bf 7c9f 27c0 322d 6dc0 246b 10c0
00000030: 459e 4cc0 9103 0ac0 0da3 8ac0 449d 1bc0
00000040: af62 1d3d 027d 70bf f94e cfbf fff8 bdbf
00000050: fdce e2bf dcca 03c0 3b57 8cbf b4eb b2bf
00000060: 230f c1bc 4a5d e0bb 01e4 f7ba acb7 c1bc
00000070: e36c 8abc 4a3c f5ba f8ce 8c3f 884d c33e
00000080: 4bb4 c5bf e302 45bf 177d 8fbf 7ed7 86c0
00000090: 8b1a 72c0 0dda 7bc0 a461 62c0 10cf 5cc0
000000a0: d3a9 29c0 be71 4cc0 3eb0 d5bf 3425 25bf
000000b0: 5c47 e2bf e90b a6bf 8fc4 c7bf b7bd 93bf
000000c0: 4061 84bf 1e57 1ac0 129a 63c0 84b4 5ec0
000000d0: a408 2ebf 928f b03f 2545 caba 43f6 e1bc
000000e0: 25af 833c 251b 6d3c dbef 993e fdab 12bf
000000f0: 5953 2040 608d 43c0 6664 bdbe 3e72 dabd
00000100: eb44 2cc0 af40 1dc0 163f 8fbf d6be 113c
00000110: 0d09 a3be 866d 6dbf 85b4 8abf ea65 cb3d
00000120: 8406 31bf 5050 7dbf b7b6 10bf 77a9 543b
00000130: 0834 aebe 4afd fabe 8a09 81be 225b 6abe
00000140: 13ee b6bf 0a97 4c3f 98a9 7f3e c0e6 8bbc
00000150: d821 013d dcac 56bf 2b98 e1be d004 3abf
00000160: 6d8a 95be 8ea9 83bf 1cca f2be a981 373f
00000170: 44a2 23be 3832 ec3e 79c3 cabe 533f b13d
00000180: 3b82 24bd c569 1b3e c190 723d 8a50 2cbe
00000190: 6bd1 993e cdff 51bb 5311 97be 44be 5abd
000001a0: 57e4 bb3c bd14 a93d cb43 e63d 40f1 42bf
000001b0: 7597 85be 9514 c13e ae7c cebf 6659 793f
000001c0: eea9 86bb 3fb2 b23f 55a0 96bf 1059 f5bd
000001d0: 62c8 c9bf 558e b33f b3b3 e6be b09f 513e
000001e0: 2021 acbe 3ea0 2e3e d427 933c 6454 f93d
000001f0: 59df 5f3d ac87 7cbc 2eb3 7f3e ea6e 3dbc
00000200: c61f f33d 5143 dabc 51a1 79bd 562b 8f3e
00000210: fd76 9ebd e6d6 803e 3413 dfbb 4940 f13d
00000220: b2d0 e23e f5f3 c4bf 7007 193e 7054 b4be
00000230: ea6f 60bc 5847 04bf d025 c0bf 1309 733f
00000240: 4e86 4ebe b972 ecbe b59e 0d3e 1593 34be
00000250: 7906 a83e b751 fcbd 1690 f0bd 55a1 4abc
00000260: a882 7f3d 485c b23d b139 51bc 53b4 113d
00000270: d20b fb3c 15dd 033e b58d 5b3e a660 ce3c
00000280: 0396 ddbd c601 c73d 851c 99bb 054b 99bd
00000290: ea02 053f af56 23bf 2901 0ebf a194 4e3f
000002a0: 84a2 c0be a83b d1bf 258a e53f d933 71be
000002b0: eb84 0d3f 2496 c3bd 1fff 7bbd 233b 71bd
000002c0: 39b3 e83d 9f63 eabd 7166 903d 59ec 87bd
000002d0: abeb 45be 157b a93d db8c 10be 7bf8 863d
000002e0: 5bd4 473d b52b ff3d ff3f bf3d 7120 953e
000002f0: e278 a9bd 4f8d b43d d965 90be a6dd 393d
00000300: 83b6 c8be e7d4 873e 52f7 3fbf 5a89 a63f
00000310: 9594 1a3f a37c b33f e7da dfbe d19b 2a3f
00000320: 5767 b1be e612 053d f524 583d 219d 1b3e
00000330: 2a91 3bbe 57f9 6d3d fa01 d13d 265a 8cbd
00000340: 3cbf cdbd 902b 23bd 78c4 773d 84d0 5a3d
00000350: 322c 12be a9b4 313e d8e3 7a3d 1403 18be
00000360: 20ed cabd e084 623c 8f4a 91be e61e a4bd
00000370: 6fa5 8d3e f7cf 1dbe 5ab6 8abf 0d15 633f
00000380: 4e78 e43d 18f4 ca3d a3f7 3cbf 45ee 373f
00000390: 53fc 83be 173c a53e dab8 56be 82a5 4fbc
000003a0: 0bd2 c63d 416d 92bd 56b8 8dbd ebeb 1f3e
000003b0: f0f1 a73d b85d 06bb 56ba ab3d 82fb 8d3d
000003c0: ac74 003e 5e1e cdbb d6db 5b3d c3b7 a33c
000003d0: 51d8 243e 38e3 7bbd d1bd a13d cd8e b1be
000003e0: d224 89be f800 f7be 232b 12c0 4e49 8e40
000003f0: 80b0 493f 7a6d 68be 8861 8a3e 5723 e4bd
-0.01451859 0.029397331 0.01891163 0.018538352 -0.035502624 -0.25903612 -1.8886008 -0.6209485
-1.0515945 -2.6191092 -3.7058835 -2.2565393 -3.19716 -2.1564677 -4.3324037 -2.4314737
0.03842419 -0.93940747 -1.6195976 -1.4841613 -1.7719418 -2.0592566 -1.0964121 -1.3978181
-0.023566788 -0.0068470584 -0.0018912555 -0.023647152 -0.016897624 -0.0018709984 1.1000662 0.3814509
-1.5445646 -0.7695753 -1.1210049 -4.213805 -3.78287 -3.9351838 -3.5372095 -3.450138
-2.6509902 -3.1944423 -1.669441 -0.6450989 -1.7678027 -1.2972385 -1.560686 -1.1542271
-1.0342178 -2.4115672 -3.5562787 -3.4797678 -0.67981935 1.3793814 -0.0015431984 -0.027583247
0.016074726 0.014471804 0.30065808 -0.57293683 2.5050871 -3.0555038 -0.3699066 -0.10666321
-2.6917064 -2.457073 -1.1191127 0.0088955965 -0.31842843 -0.92745245 -1.083634 0.09931548
-0.6915057 -0.9895067 -0.565288 0.0032449642 -0.34024072 -0.4902137 -0.2520259 -0.22886327
-1.4291404 0.7991797 0.24967039 -0.017077804 0.031526417 -0.8385751 -0.44061407 -0.72663593
-0.29207173 -1.0286119 -0.47419822 0.7168222 -0.15979868 0.46132064 -0.3960226 0.08654656
-0.04016326 0.15177067 0.05922008 -0.16827598 0.30042586 -0.0032043338 -0.29505405 -0.053404108
0.02293603 0.08255909 0.11243399 -0.7614937 -0.26092115 0.37711015 -1.6131799 0.97402036
-0.0041096127 1.3960646 -1.176768 -0.11979878 -1.5764277 1.4027811 -0.45058975 0.20471072
-0.33619022 0.17053315 0.017963327 0.12174299 0.05465636 -0.015413206 0.24970695 -0.0115620885
0.11871295 -0.026643427 -0.06094486 0.2796275 -0.07737539 0.25163954 -0.006807709 0.117798395
0.44299847 -1.538695 0.14944243 -0.3522067 -0.013698557 -0.5167136 -1.501154 0.9493572
-0.2016842 -0.46181276 0.13830073 -0.17634232 0.32817438 -0.12320273 -0.11746232 -0.012367566
0.062380463 0.087090075 -0.012770102 0.03557236 0.030645285 0.12877305 0.21440776 0.02519257
-0.10819628 0.09717135 -0.0046725892 -0.07485012 0.5195757 -0.63804144 -0.5547052 0.8069554
-0.3762399 -1.6346331 1.7932783 -0.23554935 0.5528094 -0.095501214 -0.0615226 -0.058894288
0.11362309 -0.114447825 0.07050789 -0.066368766 -0.19328181 0.08275429 -0.14116232 0.06590363
0.048786502 0.12459508 0.09338378 0.29126313 -0.0827501 0.08816015 -0.28202704 0.045377396
-0.39201745 0.2652962 -0.74986756 1.3010666 0.6038297 1.4022411 -0.43721697 0.66644007
-0.34649155 0.032488726 0.05276962 0.15196659 -0.18317094 0.058099117 0.10205455 -0.06853132
-0.10046241 -0.039836466 0.0604901 0.053421512 -0.14274672 0.17354073 0.061252445 -0.14844924
-0.09908509 0.013825625 -0.28377196 -0.08013706 0.27665278 -0.15411364 -1.0836899 0.88703996
0.11155759 0.099098384 -0.73815364 0.71847945 -0.25778446 0.32272407 -0.20968953 -0.0126737375
0.09708031 -0.07149745 -0.06919925 0.1561734 0.08200443 -0.0020502638 0.0838515 0.06932737
0.12544507 -0.0062597236 0.05367645 0.019985085 0.16098143 -0.06149599 0.07897533 -0.3467926
-0.26785904 -0.48242927 -2.2838829 4.4464483 0.7878494 -0.22698012 0.27027535 -0.11139553

encoder.0.bias f4 [64]
00000000: a2f6 1a40 af2b 203f 7352 6cbf 92d6 0840
00000010: 4bdc 2440 24b9 75c0 f9cc 0440 b3b0 e83f
00000020: 3ae6 c43f 0a51 b83f 56e9 1440 fb7c 0d40
00000030: 095c d33f 9bcb 3040 32ef 1540 f2aa e23f
00000040: 6dc5 3740 6038 ee3f 3aa2 ff3f 379e 7bbe
00000050: 19e5 5040 dcd0 2e40 b5a1 933e a9cf 273f
00000060: 3d82 fd3f 6ef2 0f40 7d88 bd3f c39d 2740
00000070: 4faa 62be 4b20 963f efae 863f 16a8 af3f
00000080: fe4f e53d 0d5c c83f c154 4a40 fe8c d43f
00000090: fa63 1840 e900 1c40 809f 0c40 794a 963e
000000a0: 2171 613e 94f8 7a3d 7a5d 0240 25d8 a23f
000000b0: 3dc3 3f40 eddf 0d40 9926 c93f df5d fa3f
000000c0: 9cf9 04bf fe27 36be 887f a5bf 8a9c 3640
000000d0: c8d9 293e 33b6 0240 8af1 f03f 609b 3c40
000000e0: 27be fa3e 6dc4 3fbf f0aa 633f c9b4 be3f
000000f0: 261e c73f 9422 4640 dc53 983f 4d43 e13f
2.4213033 0.62566656 -0.9231331 2.1380963 2.5759456 -3.839425 2.0750105 1.8178924
1.538276 1.4399731 2.3267417 2.2107532 1.6512462 2.762427 2.3427243 1.7708418
2.871425 1.8610954 1.9971383 -0.24572073 3.263983 2.7314978 0.2883431 0.6555124
1.980537 2.2491717 1.4807278 2.619004 -0.2213528 1.1728605 1.0522135 1.3723171
0.11196898 1.5653092 3.161423 1.6605527 2.381102 2.4375556 2.197235 0.29353693
0.22015812 0.06127222 2.0369554 1.2722212 2.9962914 2.2167923 1.5714904 1.9559897
-0.51943374 -0.17788693 -1.2929544 2.8533044 0.16586983 2.0423706 1.8823712 2.9469833
0.489732 -0.74909097 0.88932705 1.4898921 1.5556076 3.0958605 1.1900592 1.7598664

encoder.2.weight f4 [32, 64]
00000000: 4580 ccbe 0199 e3bd e26b 9ebe 31b5 b4be
00000010: 19c1 36be 1b2e b73c 04c5 a2bd 6360 a33c
00000020: 8195 bc3a b0f7 2dbe e243 45bd e41c aebe
00000030: da8f 13bd 629b 0ebe 2f4e 9ebe 971b 223c
00000040: 666f 843d 97c3 4f3d a784 bbbd 8f64 3ebe
00000050: f7a4 1bbe 6a24 20be e2b1 d8bc 4f5f a3bd
00000060: f83c 083d dc8e e5be 5c08 ddbe 0f56 babe
00000070: 1350 d5be 93b7 c8bd c326 58bd 86b0 cebe
00000080: d75e 86be 3d66 32be 3e20 1fbe 91b0 d6be
00000090: 9f3f 5fbd 4874 14be 87c6 27be 75c2 dfbe
000000a0: 0917 47be 0e28 94be 55a4 613d ad91 4cbe
000000b0: 1d8a 0dbc 88bf 8cbd df5b f3be 6da7 d8bd
000000c0: d421 e2be 18c9 8abe 56ec 93be a1c8 3cbd
000000d0: f2bb 1fbe 8921 ccbe 3d4d 90be 54bd 10be
000000e0: 9fca 80be a62b dbbe 2dfd b13c 5d75 b5bc
000000f0: 3b57 c0be c63d ac3c 2564 3ebd cf0e 38be
00000100: 2382 513d 1b71 4ebb 51c5 c0be 9e6d 4cbd
00000110: e79c f63c 0116 0abc 2252 86be 9846 e1bc
00000120: 90d9 1f3d ccaa bfbd 3aa4 543d 9f1d c9bd
00000130: 8e6d b6bc 827c 32be 70d8 05be 2687 e03b
00000140: b3e7 30bd 6571 37bd e4c6 96bd c2fb bfbe
00000150: 9b84 bebd 209c 1fbe ee5a 7d3d 20d8 58bc
00000160: e463 27be 1f64 e1bd c0f6 09be d6f5 bebd
00000170: 2f11 83be 19f3 bbbd cc34 23be fb13 2dbe
00000180: 3e88 9dbe 9fa8 b5bd f446 36bc 10d3 aebd
00000190: fa69 febd ee8f 25be 7d6b 2ebe 6b32 8ebe
000001a0: 6519 c3be ed02 96be 5f35 053d 7549 3cbd
000001b0: d3a6 9abd a078 2abe f859 8ebe 5d1c 3abe
000001c0: e71a 8dbe 9c11 29be a91a 97bd 6e73 63bd
000001d0: 7f27 2abe a2d5 8abc 1036 39be 5e98 04be
000001e0: f019 c5be b8e0 93be 7e1e f73b 220c 01be
000001f0: ab84 2fbe 78d0 ccbd 5929 0fbe 6abc ad3c
00000200: 2a51 263f 8d89 823d ea0c 843c 6060 a2b9
00000210: 567d d9be 5428 d23c eb8e 3f3e 9b53 813e
00000220: 258b ec3b b3c8 713c 430a 32bf 6af3 84bb
00000230: d8fd 07c0 316c 2ebb 9e0a 13bd d473 093f
00000240: f536 4d3e eecf 8abe f8f5 263d ed0c 993d
00000250: dcf3 a9bf 4d2a 013d 10ea 28bd 6caa 933c
00000260: 7fa3 443e 6afe 86bb 0652 d6ba b3a7 a13a
00000270: fe14 763d 79e9 cfbf 1ef8 a7bd e698 443c
00000280: 69ee 453b 0a66 07bd 0006 cdbf c1ad bc3d
00000290: fc2b 67bf d641 05bf 1fa3 b53d 54db 72ba
000002a0: 369d 05bd 0078 00be 6a44 9fbd 65d8 7abd
000002b0: 9c09 4a3d 13af c2bd f67d 863e 585a 97bd
000002c0: db78 593b 7c2b bcbc 7179 303c d722 7dbd
000002d0: da0f 563e 9adc afbc 34ea 343d 419a 8ebe
000002e0: 5ce5 a43c 09c5 8a3c 4170 143c 4c43 8dbc
000002f0: da19 853d 995c b93c a73a 163c b320 85bd
00000300: 9e2b d03d ac94 99bb b16a 0a3d d8b4 933b
00000310: 6c54 3b3e 85d3 52bd 825d 613e 6711 1d3f
00000320: e084 08bc 1ef4 89bd 5003 6ebe 8c86 5b3e
00000330: 5c89 3fc0 ce11 783d 9aea 8bbd 14e8 c73e
00000340: e034 e33c 4d35 c33e fc58 f9bb b350 a8bd
00000350: f33f cf3d e619 27be 5fc3 233c 2b6b 31bd
00000360: 816b 233d 5851 553d 773d 823d d3c8 083e
00000370: 77f1 203a 49cb 27c0 8f79 303e 6cec a3bc
00000380: dfea 9abd d3e4 a63d 6c0e 47c0 b039 3bbd
00000390: 1000 89bf 7e25 9c3d 86f1 b3bd e8dc 5c3b
000003a0: aae1 25b9 4add f0bc 5dcc 29be 2202 05bd
000003b0: ccd8 31be 3205 323e cfad 983d a3b3 8fbd
000003c0: 84a6 683d 2a55 213d cf00 4bbd 049c d5be
000003d0: 7809 a53e 0d4c 8f3d 638a 883c f62c 43bd
000003e0: bf0a debc a265 103c 4d58 d53d 5f3d 293e
000003f0: 9029 bebc 24f2 223e 4885 a43d 1eec 513c
-0.39941612 -0.111131676 -0.30941683 -0.35294488 -0.17847098 0.022360852 -0.07947734 0.019943422
0.0014387817 -0.16989017 -0.04816044 -0.34006417 -0.03602586 -0.13926461 -0.30919024 0.009894273
0.0646656 0.05072364 -0.09156161 -0.18593048 -0.15199648 -0.15638891 -0.026452009 -0.07977163
0.03326127 -0.44835556 -0.4317044 -0.36393782 -0.41662654 -0.09800639 -0.05277134 -0.40369052
-0.26244232 -0.17421813 -0.15539643 -0.41931584 -0.054504033 -0.14497483 -0.16384326 -0.43703046
-0.19442381 -0.2893681 0.05508836 -0.19977446 -0.008638886 -0.06872469 -0.4753103 -0.10578809
-0.44166434 -0.27106547 -0.28891248 -0.046089772 -0.15599039 -0.39869335 -0.28183928 -0.14134723
-0.25154588 -0.4280674 0.021727169 -0.02215069 -0.37566552 0.02102555 -0.046482224 -0.17974399
0.0511495 -0.0031500522 -0.3765054 -0.049909227 0.030104114 -0.008428098 -0.26234537 -0.027499482
0.039025843 -0.09358749 0.05191443 -0.09820103 -0.022269037 -0.17430308 -0.13070846 0.0068520484
-0.043189716 -0.044785876 -0.07362154 -0.37496763 -0.09302636 -0.155869 0.061854295 -0.013235122
-0.16346699 -0.11005425 -0.13473034 -0.09324233 -0.25599048 -0.091772266 -0.15938109 -0.16902153
-0.30768007 -0.088700525 -0.011125315 -0.08536351 -0.12422557 -0.16168186 -0.17033191 -0.2777284
-0.38105312 -0.29299107 0.0325216 -0.04596849 -0.075513504 -0.16647577 -0.27803016 -0.18174882
-0.27559587 -0.16510624 -0.07378132 -0.055530004 -0.16616629 -0.016947571 -0.1808703 -0.12948748
-0.3849635 -0.28882384 0.0075414767 -0.12602285 -0.17140453 -0.100007 -0.13980617 0.021208007
0.64967597 0.06373892 0.01611944 -0.00030970853 -0.42478436 0.025653996 0.18706863 0.25259098
0.0072187358 0.014757323 -0.6954691 -0.0040573375 -2.1248684 -0.002661478 -0.035898797 0.53692365
0.20040496 -0.27111763 0.040761918 0.074731685 -1.3277545 0.03153448 -0.041238844 0.0180256
0.19202994 -0.004119684 -0.0016351349 0.0012333303 0.060078613 -1.6243125 -0.082016215 0.011999344
0.0030201918 -0.033056296 -1.6017456 0.092128284 -0.9030149 -0.5205358 0.088690035 -0.000926425
-0.03262063 -0.12545776 -0.07776721 -0.061241526 0.04932557 -0.09506049 0.26267976 -0.073902786
0.0033183608 -0.022969954 0.010771141 -0.061800804 0.20904484 -0.021467496 0.044168666 -0.2785206
0.020128898 0.016939657 0.009059967 -0.017244004 0.064990714 0.022627162 0.009169257 -0.065003775
0.10164569 -0.0046869125 0.033793155 0.0045076422 0.18293923 -0.051471252 0.22008327 0.6135468
-0.008332461 -0.06736015 -0.23243451 0.21438044 -2.9927588 0.060563855 -0.06831856 0.3904425
0.027735174 0.38126603 -0.0076094847 -0.08218517 0.10119619 -0.16318473 0.009995311 -0.043315094
0.039897446 0.05207953 0.0635938 0.13357858 0.00061394967 -2.6217825 0.17233871 -0.020010196
-0.07564329 0.081491135 -3.1102552 -0.045709312 -1.0703144 0.076243386 -0.08786301 0.0033701006
-0.00015819693 -0.029402394 -0.16581865 -0.032472737 -0.17367858 0.17384794 0.07455026 -0.07016685
0.056799427 0.03938786 -0.049561318 -0.41720593 0.32233787 0.069969274 0.01666755 -0.0476503
-0.027104734 0.008813294 0.10417233 0.16527317 -0.023213178 0.15912682 0.08033234 0.012812642

encoder.2.bias f4 [32]
00000000: 6f95 a5be 59b6 7ebe 0836 203f 8e9f 823f
00000010: 9c6c 803f 6b12 cc3c 57e7 8abd d5e7 1abf
00000020: ed69 d2be 0ed3 d5be 59d0 803f f7e7 cb3e
00000030: 5fd6 85bd dee1 dabd 8e33 4b3f fb4a d93b
00000040: df56 21be 10b1 3a3d 4a2e 3b3f 627f b63e
00000050: 961b 0cbe 7362 ccbd cd01 af3e 42ae 6bbd
00000060: a444 683f 56b7 6abe f0d4 653f 0843 003f
00000070: 364f 253d cee2 553e 15c6 073f 7130 453f
-0.3234057 -0.24874248 0.62582445 1.0204942 1.0033145 0.024911126 -0.06782406 -0.6051
-0.4109644 -0.41762584 1.0063583 0.39825413 -0.06535029 -0.10687612 0.7937554 0.006631253
-0.15755795 0.045579016 0.73117507 0.3564406 -0.13682398 -0.09979715 0.3418106 -0.057539232
0.9072974 -0.229215 0.8977804 0.5010228 0.040358745 0.208873 0.53036624 0.7702704

decoder.0.weight f4 [64, 32]
00000000: f1b3 81be 7c2c 92be f8f8 b7be e6e9 8abe
00000010: faf1 b7be 6fc3 93be d6c1 f4bd 95d0 ddbd
00000020: 4bbf d23e 1ab1 16bd 4dd5 e4bd f7fb e8be
00000030: 82f3 94be 02c9 923d fd30 dcbe e702 e8be
00000040: 53fa 98bd f596 b4be c756 5abe eebf a2be
00000050: f2aa 51be 1eaf bfbe 3e6a adbe d7bb d9be
00000060: 77cb 9a3e f8a8 d03e f320 db3e bd37 b8be
00000070: aeff 6b3e 6258 cebe 3eb2 5bbe 2f3e 233e
00000080: faec 92be 214f 6fbe 2e3d 4bbd cdb5 463e
00000090: 6107 333d 0dd5 4dbc 5899 72be 393a 9cbc
000000a0: 5b93 923e d8b1 573d 2893 443c e66d 2b3e
000000b0: 190f cd3c 90fd b7bd 2152 bebd d21a bcbd
000000c0: 903d 763c e206 8fbc 93f8 56bd 14dd f83e
000000d0: d0f9 7bbe 0afa 17be 0a91 be3b 7707 3ebe
000000e0: c7ef 073e f5f7 523d 8b23 413d 1035 6bbd
000000f0: a311 113e 5aca e43d 66b0 273e 9e82 0ebc
00000100: a99b 093e b58c 663c 126d 2e3b b94f e1bd
00000110: 4ab7 31b9 5a4c 5c3e 5edb fe3d a8a1 363e
00000120: cfba 2ebe 86f9 2ebd c592 90bd 9a80 45bd
00000130: ddc7 e33d 240b abbc 88bb b0bd fdb6 e7bd
00000140: 3863 17be a58d 0d3e bfb6 a6bd db88 5f3d
00000150: 7ac7 5abd bb58 443e e5cd 31be 2d0f 523e
00000160: ebd7 ec3c f42d 7a3d 5011 1b3f 8a4e 2abe
00000170: 8283 02be a80c 05be daeb 373c 3283 7c3d
00000180: 6ac3 bfbd 673c 8b3d 3401 babb e7d9 72be
00000190: 4368 efbd fcfa 0abe 4b7c 3bbe 9b4c f33d
000001a0: 16b7 2d3e 2460 e63d 15ba 4d3d 3d68 e7bd
000001b0: e429 22be 36c6 21be 8cfe d6bd 8d9e 893d
000001c0: 4588 a93c d485 c0bd 43c1 22be 6fa9 df3c
000001d0: e75d 51bd e838 b3bd dffd 3a3e 5bba 6abe
000001e0: f1d3 563d f624 c8bc 7b70 373e 4605 643d
000001f0: fdbd 2f3e ac5c 70be f41c e4bd 7046 1dbd
00000200: 45f1 d5bd cbe4 88be 7b74 edbd 354c 17be
00000210: 4bea 48be 73eb a9bd 21fe 6fbe ca9a b73d
00000220: db7d d83c 91ec 0f3e 0402 cbbc 7f5d a2bd
00000230: 0916 20be 7a38 64be 10d8 e93c 39fb 5abe
00000240: 35ef a33d 8877 46be 94e4 4fbe 1641 0dbe
00000250: cc46 8d3d 3673 31be c301 adbd f06b 5dbd
00000260: e477 03be 8fb8 7abd e499 8d3d 5c68 603e
00000270: ad18 6a3e f170 4cbe dc1b d0bd 1321 84bd
00000280: eabf a7bd 9e65 90be f872 8ebe 1273 a5be
00000290: c323 babe 0e56 adbe c98d c73b 4258 24be
000002a0: 68c7 873e b1ff d83d f74d 79be f01f 5ebe
000002b0: 9e5e 99bc f2d9 10bc 1ae4 0f3d d59c d6be
000002c0: c68c 88bc 1543 9abe dc5a 6fbe f56e 97be
000002d0: f6fd e0be 7130 95be dc01 78be 8db6 a5bd
000002e0: fc59 46be 2135 8a3e f8e9 b5be 077e a3be
000002f0: aff0 783e d442 7cbe 6262 d8be a938 033e
00000300: 4b4d a73d 6ef0 d7bd c76f 2cbe a922 58bd
00000310: 1b3d 8dbf 7207 17be dc4f db3d a4b2 1ebe
00000320: 416a 193d ba12 ed3d 7f4e 2fbe d3d6 05bd
00000330: 0b04 2abe 160a babe 3d31 203e 2556 053e
00000340: c41c 2fbe 4d6e e83d 355a 283d a3ec 37bb
00000350: 8c3b 89bd b70e 76b9 2d09 8e3b d29f 353e
00000360: 359f a5bc 239e 943d 9ec0 8dbd 5b56 82bd
00000370: abc6 63bd e0b2 09be 086c 013f 9509 2ebe
00000380: 0d02 8dbe 6956 a1be fc4d d33c 6452 25bd
00000390: ca83 01bd b051 82bd 56ea cebd 492d afbe
000003a0: 8e4c 313e 4ded 1a3e 1e87 853d 0211 a0bd
000003b0: 035f 7bbe da21 c3bd 4649 813c e5c9 acbe
000003c0: abeb 953e a504 67bd ca79 e93e 178e 363e
000003d0: 0c01 abbd c5f3 a6be 7298 623d d222 39be
000003e0: d925 8a3c 8270 3b3e 445a c03d 45f3 dcbb
000003f0: 0dc8 1c3d 7858 c53c b364 4dbd edb3 9c3e
-0.25332597 -0.28549564 -0.35932136 -0.27131575 -0.359268 -0.28860041 -0.11951034 -0.108307995
0.4116157 -0.03678999 -0.111734964 -0.45504734 -0.29092032 0.071672454 -0.43006125 -0.45314714
-0.074696206 -0.3527142 -0.21322165 -0.31787056 -0.20475367 -0.3743829 -0.3387012 -0.42526123
0.30233356 0.40753913 0.42798576 -0.35980025 0.23046753 -0.40301806 -0.21454713 0.1594169
-0.28696424 -0.23370029 -0.049618892 0.19405289 0.04370821 -0.012563002 -0.23691308 -0.019070731
0.28628048 0.05265984 0.011997975 0.16741142 0.025031613 -0.0898391 -0.092930086 -0.09184803
0.015029326 -0.017459337 -0.052483153 0.4860617 -0.24607015 -0.14841476 0.00581563 -0.18557535
0.13275062 0.051506 0.047153037 -0.05742365 0.14166884 0.11171408 0.16375884 -0.008698134
0.13438286 0.014071633 0.0026615304 -0.11001534 -0.00016948316 0.21513501 0.12444185 0.17835104
-0.1706345 -0.042718433 -0.07059244 -0.048218347 0.11122105 -0.020879336 -0.08629519 -0.11314199
-0.14783943 0.13823564 -0.08140325 0.054573875 -0.053412892 0.19174473 -0.17363699 0.20513602
0.028911551 0.06107898 0.6057329 -0.16631523 -0.12745479 -0.12993109 0.011225665 0.061648555
-0.09363444 0.0679863 -0.005676413 -0.23715936 -0.11689808 -0.13572305 -0.18309133 0.11879846
0.16964373 0.11248806 0.05022629 -0.11299179 -0.15836293 -0.15798268 -0.1049777 0.06719694
0.020694861 -0.09400526 -0.15894036 0.027302472 -0.051114943 -0.087510884 0.18260907 -0.22922651
0.052448217 -0.024431687 0.17914002 0.05566909 0.17162319 -0.23472852 -0.11138335 -0.038397253
-0.10446409 -0.26737055 -0.115944825 -0.14775164 -0.19620626 -0.082968615 -0.23436786 0.089650705
0.0264272 0.14055087 -0.024781235 -0.07927989 -0.15633406 -0.22287169 0.02854541 -0.21384896
0.080046095 -0.19381535 -0.2030204 -0.1379436 0.06898269 -0.17329106 -0.08447602 -0.054058015
-0.12838703 -0.061211165 0.06914118 0.2191481 0.22860976 -0.19964959 -0.10161564 -0.06451621
-0.081909016 -0.28202528 -0.2782209 -0.32314354 -0.3635541 -0.33854717 0.0060899 -0.16049293
0.26519322 0.10595644 -0.24346147 -0.2169187 -0.018721875 -0.008841025 0.035129644 -0.41916528
-0.016668689 -0.30129305 -0.23374504 -0.2957684 -0.43943757 -0.2913852 -0.2421946 -0.080914594
-0.19370264 0.2699366 -0.35530066 -0.3193209 0.24310564 -0.24634868 -0.4226256 0.12814583
0.08169039 -0.10543905 -0.16839515 -0.05276743 -1.1034273 -0.14748934 0.10708591 -0.15497833
0.037454847 0.115758374 -0.17119788 -0.032675575 -0.16603105 -0.3633582 0.15643783 0.13021143
-0.17100817 0.11349163 0.041101653 -0.002806463 -0.06700811 -0.0002346587 0.00433459 0.17736748
-0.020217517 0.07256725 -0.069215044 -0.06364127 -0.055609386 -0.13447142 0.5055547 -0.16995843
-0.27540627 -0.31511238 0.025794022 -0.040361777 -0.031619824 -0.06363237 -0.1010329 -0.34214237
0.1731436 0.15129586 0.06519912 -0.07815744 -0.24547963 -0.09527941 0.01578201 -0.33747783
0.29281363 -0.056400914 0.4560073 0.1782764 -0.08349809 -0.32607856 0.055321164 -0.18079689
0.01686375 0.18304637 0.09392217 -0.006742867 0.03827672 0.024090037 -0.050144862 0.30606022

decoder.0.bias f4 [64]
00000000: 5040 68be 7c77 2dbe 92ed e53d f24d ecbd
00000010: 6874 873a 829b 60be 5fae 043e be56 d3bd
00000020: b889 c53d c2ae 1bbe 3873 183c 7ec8 53bd
00000030: 6136 403d a8b5 05be 9603 90bd 3009 5dbe
00000040: 2ad8 43bd 9868 99bb db96 4ebe a6d1 24bd
00000050: 6c7a f23b 0dd1 3fbd 123d 4a3e 2099 b1bd
00000060: d120 efbe 6aef 55be c05b 3abe 060e bcbe
00000070: e2fc e1be 82cf 373e a742 55bc 432b 80be
00000080: ddbf c6bd 843d 573d 04c4 d0bd 9646 8f3e
00000090: 0c75 1b3e 63c3 37be 3abd bf3b a717 c8bd
000000a0: ce8b 5ebe e560 c1bd 9f5e 613c 4370 bc3d
000000b0: ee93 603e 1c6d 93bd 207e 683d 2489 753e
000000c0: 5d82 76be 71d9 f2bd c66d d13d 2cae abbd
000000d0: 7b65 42be 269f b3ba 5d5e ccbe 8735 abbb
000000e0: e4d3 17be 3e7a 363e 946f edbc 1e05 8bbe
000000f0: 2c28 8a3e b6f8 0e3e 44d3 f03d c93b 2dbc
-0.22680783 -0.16940111 0.112269536 -0.115383044 0.0010334374 -0.21934322 0.12957142 -0.10319279
0.096454084 -0.15203384 0.009304814 -0.051704876 0.04692686 -0.13057578 -0.07031934 -0.21585536
-0.047813572 -0.004681658 -0.20174734 -0.040239 0.0073998477 -0.046830226 0.19749859 -0.086717844
-0.46704724 -0.2089211 -0.18199062 -0.3672945 -0.44138247 0.17950252 -0.013016379 -0.25033006
-0.09704564 0.0525489 -0.10193637 0.2798354 0.15181369 -0.17945628 0.005851415 -0.09770136
-0.21733019 -0.09442309 0.01375547 0.092011 0.2193143 -0.07198545 0.056760907 0.23978096
-0.24073167 -0.1185788 0.10226016 -0.0838283 -0.18984024 -0.0013704046 -0.39915743 -0.005224887
-0.14826924 0.17820069 -0.028983869 -0.27152342 0.26983774 0.13962063 0.11759046 -0.010573336

decoder.2.weight f4 [784, 64]
00000000: e0bf f63d ded7 92bd 080c e43c acff 7fbd
00000010: 5a60 9dbd 202a f9bc 70b1 403d b2a4 8cbd
00000020: 28b7 b83b 127f 80bd 0077 1ebe 9014 99bd
00000030: f1c1 dabb 1f2e 853c 0f2d 213d 2acd d9bd
00000040: 56b5 b4ba a6e4 edbd 944f 00bd c752 dfbd
00000050: a8c8 41bd a023 0fbe d7b2 98bd 3f2d cebd
00000060: 1084 603d 90b3 1bbc 4ac1 1abe 3643 923d
00000070: 70c8 023c dcda 9dbc 4e44 abbd a4bf 9ebd
00000080: 0009 173c 3847 21bd ca2c d0bd 8751 09be
00000090: f3f1 28be 4ce8 31bc 8450 19be c6bf 0ebe
000000a0: 468d d5bd 338d fbbd 0ad9 98bd 9888 a23d
000000b0: d27c 30bd b8bf 21be e04a 97bb 9899 d03c
000000c0: 10af b7bc fde2 c7bd 2222 40be 6a0d 59bd
000000d0: 6c5f 55bd a4bc 23bd a812 aa3c fcb5 de3d
000000e0: 24d0 19bd 42e2 93bc 84b8 0d3d e6d0 a6bd
000000f0: 6e8d 9b3d de51 2abd 00f8 29be 760d 9cbd
00000100: d49a 8e3d 1613 623c c009 a9bd 5cf3 a83d
00000110: c8fc fdbd a4a3 73bd 0438 35bd c209 abbc
00000120: 2f1a 42be 7452 243c fcc4 9dbc c989 30bd
00000130: b619 44bd 5ffd 4ebe 4201 dfbc 003c 7239
00000140: dcf5 44be d0f4 f63c 0081 08bd 827f 0ebe
00000150: 4c0b 7cbd 5642 b9bd a323 53bd cfef debc
00000160: d635 8dbd 40e4 20bc 96d7 413d deae 93bd
00000170: 44eb 133d 900e b5bc e781 d73c 8032 a23d
00000180: fe6a 803c a488 71bd 5210 f6bd 95b3 87bc
00000190: eb20 feba a006 05bd 3be4 a9bd 09a1 0dbe
000001a0: 78f3 90bd e226 283d a6c6 83bd 48e1 0f3d
000001b0: 9463 1dbd 3c2b 383c 4ad9 b03d 35a2 15bd
000001c0: 40f2 37bb 7342 18bd 305c 1bbe e7a6 2fbd
000001d0: e0e6 eb3b 008b 11be 92c4 b3bc 9748 31be
000001e0: 71be 2fbe 12db 50bd d118 453b 893d 0fbd
000001f0: e8ce 473c bdbf 3dbd 0145 66bd 7e8a 09be
00000200: e453 e23d 144e 74be 9cce d9bd 1423 e03d
00000210: 10e5 77bd 84c2 06bd 8c54 ac3d 61a4 323c
00000220: bd91 2abe cdeb b7bd 0885 883d e804 abbc
00000230: 2614 33bd ca46 a0bd 3415 86bc f86f 8e3c
00000240: d3fc 063d 9878 233d 6020 853b f21a 5dbd
00000250: cc0e adbd 2ac3 2fbe a8f9 82bd a048 32bc
00000260: 88ea 843d 5816 cbbc 9a65 83bd a0b5 38bc
00000270: bac0 94bd e811 75bc 9caf 0bbe 384d 84bd
00000280: 3ca5 a83d c8a3 563d 147c 33bd e824 16be
00000290: 8127 01be 585a 96bc 6846 42be 0e35 9c3d
000002a0: e098 6f3d 9194 dfbd 0071 f33c 7eb1 c9bd
000002b0: fca2 e4bc ce7a 0c3d 348b b73d 0007 96ba
000002c0: e93c 193d e47d 983d fead 0cbe 61d6 debd
000002d0: 1087 4dbd 34ba af3d 308f 973c 2885 d6bc
000002e0: e053 7f3d 1184 1abe eec6 bcbd 8a65 e63d
000002f0: 15c2 86bd 860a 0abe c213 35be cc78 98bd
00000300: b891 f4bc 8065 19bb 0f0f fcbb 0897 ef3d
00000310: 1cba f9bd 1a65 bf3d 94ac 563d 3d5c edbd
00000320: 1171 32be 700d 44be 70c7 46bd fe3d 5dbb
00000330: c5ac 0cbe a0b7 cb3b 63c3 173d 3a96 a8bd
00000340: 570b d7bd 02b5 cfbd 94eb 40be 8a98 d9bc
00000350: fc0e 7f3d d925 3b3d f8a2 48bd 64d5 0b3d
00000360: 40b9 27bc 28cb 04bd ae3c 07be ce65 cb3d
00000370: 3aaf b43d 4cda 26be 146d 4e3d 40e5 ab3b
00000380: 5217 fc3d e67c c3bd c8f9 973d a97a c43c
00000390: 422a b7bd a041 753d a826 46be 8251 f7bd
000003a0: d020 423d 1d65 f9bd bcd2 e93d 400d d4bd
000003b0: 0552 d6bb 4bd0 89bd 4aeb d9bd 9879 90bd
000003c0: 7ed9 8a3d 016c f2bc fd73 3d3d d81b ec3c
000003d0: c6bd f53d 3f9f e9bb fb72 a1bd 3bdb 09bd
000003e0: 0318 0fbe 52fd 99bd 0744 2bbe 84ca aebd
000003f0: fcd8 e5bd 6baf 0cbe 4162 4a3c 14e3 7cbd
0.12048316 -0.0717008 0.027837768 -0.062499687 -0.07684393 -0.030415595 0.047044218 -0.06867351
0.0056370683 -0.06274237 -0.15475082 -0.07474625 -0.0066759516 0.016257344 0.03934961 -0.10634835
-0.0013786952 -0.11615877 -0.03132589 -0.109044604 -0.0473105 -0.13978434 -0.07455986 -0.10067224
0.054813445 -0.00950326 -0.15112796 0.07141726 0.007982358 -0.0192694 -0.083626375 -0.07751396
0.009218454 -0.03937456 -0.10164793 -0.13410006 -0.16498546 -0.010858607 -0.1497212 -0.13940343
-0.104273364 -0.12282791 -0.07463272 0.079362094 -0.043087788 -0.15795791 -0.00461708 0.025463864
-0.022422343 -0.097600915 -0.1876302 -0.05299131 -0.052092955 -0.039974824 0.02076085 0.108745545
-0.037552014 -0.018052224 0.034599796 -0.08145313 0.07595335 -0.04158198 -0.1659851 -0.07619755
0.06963125 0.013798496 -0.08253813 0.08249542 -0.1240173 -0.05948223 -0.044242874 -0.020878676
-0.18955301 0.010029424 -0.019258969 -0.043100152 -0.047876082 -0.20213841 -0.02722228 0.0002310127
-0.19234413 0.030146033 -0.03332615 -0.13915828 -0.06153421 -0.09045856 -0.051547658 -0.027213959
-0.06895034 -0.009820044 0.04732474 -0.07211088 0.03611304 -0.02210167 0.02630706 0.07919788
0.015676018 -0.0589682 -0.120148316 -0.016565124 -0.0019388472 -0.03247702 -0.08295485 -0.13830961
-0.07077688 0.041052707 -0.064343736 0.035126954 -0.038425043 0.011240777 0.086351946 -0.036531646
-0.0028067976 -0.037172746 -0.15171885 -0.04288378 0.0071991533 -0.1421318 -0.021944318 -0.17312847
-0.17162491 -0.05099017 0.0030074606 -0.034970794 0.012195326 -0.046325434 -0.05621815 -0.13431737
0.11051157 -0.2385791 -0.10635111 0.109441906 -0.060521185 -0.03290035 0.084145635 0.010903449
-0.16657157 -0.08980522 0.06665999 -0.020876363 -0.043720387 -0.07826002 -0.016367532 0.017387375
0.032955956 0.03990993 0.0040626973 -0.053980775 -0.08450088 -0.17164293 -0.063952744 -0.010881573
0.06490046 -0.024790928 -0.06415863 -0.0112737715 -0.07263322 -0.014957882 -0.13641208 -0.06460041
0.08234641 0.052402288 -0.043819502 -0.14662516 -0.12612726 -0.018353626 -0.1897217 0.07627307
0.058495402 -0.10917009 0.029716969 -0.09848307 -0.027909748 0.034296803 0.08962098 -0.0011446178
0.037411604 0.07445887 -0.13738248 -0.10880733 -0.050177634 0.08580437 0.018500894 -0.02618654
0.06233585 -0.15089442 -0.0921763 0.11249836 -0.06579987 -0.13480577 -0.17683318 -0.07444915
-0.02985464 -0.0023406446 -0.007692225 0.11698729 -0.12193701 0.093454555 0.052410677 -0.11589859
-0.17425944 -0.19145751 -0.048530042 -0.0033758874 -0.13737781 0.006216958 0.03705157 -0.082317784
-0.1050021 -0.101419464 -0.18839866 -0.026561994 0.06227015 0.04569039 -0.048983544 0.034139052
-0.010237038 -0.032420307 -0.13206741 0.09931527 0.08822484 -0.16294211 0.050396994 0.0052458346
0.123091355 -0.09545307 0.07420689 0.02398427 -0.08943607 0.059877038 -0.19350684 -0.12076093
0.047394574 -0.12177489 0.114171475 -0.1035409 -0.006540539 -0.06729182 -0.10640581 -0.07054442
0.067797646 -0.029592516 0.046253193 0.02882187 0.11999087 -0.0071295793 -0.07883259 -0.03365634
-0.13974003 -0.0751902 -0.16725169 -0.085347205 -0.11223027 -0.13738792 0.012352527 -0.061739996

decoder.2.bias f4 [784]
00000000: 913e 423c 08d4 b3bc 8943 513c d6d7 bfbd
00000010: ab27 13be 6432 29bd 75b5 1fbe 1c69 8dbc
00000020: d9cf 9cbd d37a 21be 45e8 aabd a922 0fbe
00000030: 881f 2dbe 6da9 03bd b8e0 3fbe f7bd 0abe
00000040: b767 3abe d06d de3c c018 b03c 833a f3bc
00000050: c077 0bbd 8dcc 24be 2c48 1fbd 3e0a 1dbe
00000060: 455c 2bbe d9d8 f23c 2645 b6bd 704e 38be
00000070: 9daa 0bbe 2b3f 6fbd f959 42bb 4d6e 42be
00000080: 0a7f 08bd 7a93 89bd e884 60bb 4e60 9cbd
00000090: 3b28 1abe fbcf 74bd 4bfc 36be 4731 d53b
000000a0: 8811 fcbb 17d2 79bd e93d db3b 2f02 bebd
000000b0: f729 06bd f273 1cbe 6dae 25be 9a4c 85bd
000000c0: 05b5 23be 1c92 4cbd feeb 32be 9ca4 76bc
000000d0: b5a3 e4bd 9bbb 97bd a183 c83c a01a f93c
000000e0: 1481 f8bd 09df a7bd 8633 d1bd dd3f 60bd
000000f0: 4d1b 17bd be4d c9bd 7587 a8bd c607 6dbe
00000100: a385 8abc 7c6d f5bd 4914 e03b ba2e d8bd
00000110: 2cb6 24be 7b73 91be 1ac0 34be c321 8ebe
00000120: a179 f4bc 6ad5 b1bd ef06 10bd 8e69 c5bd
00000130: d8f5 66bd 2118 01bd 8a91 383c 4ef7 afbd
00000140: a981 09be c5eb bfbd 1db9 83bc 1962 6abd
00000150: 9762 9dbd cd0d dfbd edbb 35bd b706 d6bd
00000160: 35e1 50bc b07b 33bd 679b 4cbe 9713 00be
00000170: 0451 01be a6c0 2fbd ef67 b8bd fd84 9bbd
00000180: 953a 173d 5cfe 56be a2b8 04be 05aa d6bd
00000190: 7b06 81bd fbaa 43bd bf14 fbbd 4068 6ebe
000001a0: a3de 19be 89e5 22be 457a 2dbe ce0e 88bd
000001b0: c2ba 483d fdd9 dabd 2cdf 84bd 6629 a4bd
000001c0: 6bad 1bbe ffb7 2cbd 5717 6fbc 94a2 0fbe
000001d0: ce3a 10bd fa1e 623d 9143 afbd 4773 50bd
000001e0: c832 a1bd 052a 24be f3f2 37be 0ac2 09be
000001f0: 99f2 debd a8f1 333d cde7 98be da6b 00bf
00000200: 3f65 9ebe 6cce 15be d7d9 5cbe df98 9cbe
00000210: 4dc0 4cbd d62b 29be 8994 8fbd 24cf e4bd
00000220: 02e9 203a db66 36be 0290 c2bd 0026 b3bd
00000230: 015d 00be 9577 febd 60e9 7cbc a012 e6bd
00000240: 19d8 cfbd bbd7 35be 8860 603c e9ac a7be
00000250: 340b 50be f6ca bb3c 68aa 343d 2685 353e
00000260: b7ef 703e cb2d 3f3e ecc1 7bbe 1821 9ebe
00000270: 049a f8bd 0551 9cbe 5b12 f1be 4cab b8be
00000280: 33b4 96be 9aee 4fbe 15fc e9bc 7495 bbbe
00000290: 52b9 cfbc 02e1 1fbd d92b 3dbe ccad dabd
000002a0: c7f4 263d 2b2a b8bd 5de1 adbd f32c b7bd
000002b0: 269c d0bd 38d3 89bd cb58 12be e0ba 88bb
000002c0: 7062 38be d9f3 323e 3db1 d63e 6dde eb3e
000002d0: a087 043f 2bca 0a3f b1d1 cdbc e477 50be
000002e0: 9544 57be 9325 4cbe 3524 00be 6cb2 2fbd
000002f0: a912 9ebd 00bf 703d 5346 98ba 5ebc afbd
00000300: 013e 96bc 600e 4cbe ac94 e0bd 61a7 0dbe
00000310: 77f8 38be 10f0 c7bb 1fb7 8139 db41 13be
00000320: 884a 1abe 4051 d4bd 3c57 12be 9a9b d7bc
00000330: 413e 203e d78a f63e 1766 113f 988a 213f
00000340: 6966 363f 59ae f93e d2e1 7d3d 2211 d9bd
00000350: 03e0 77bd 21a0 033e dcf2 8f3e f1a4 9d3e
00000360: 695d a13e 8c7e 7a3e 8626 3a3e 85af 563e
00000370: c3a0 12be 12af 4cbb 8498 10be df52 16be
00000380: 2214 d3bd f30f e93c 529d debd 0f41 01be
00000390: b366 46bc 8b34 7abe c328 46be 2e46 70bc
000003a0: 8b7b ab3e 0614 013f ac06 ff3e a036 a23e
000003b0: a413 ad3e 2b1f 153e c78c a7bd 76a4 89bd
000003c0: d87d 80bc 3176 5a3e 97a4 c03e c040 b43e
000003d0: 2835 9f3e b7ca 703e d204 0ebe 20b7 573d
000003e0: ef95 14be f638 92be 5006 2bbe 56b6 033d
000003f0: ab88 323c 8484 2cbe eb8e d9bd 1151 50be
0.011855737 -0.02195169 0.012772449 -0.09367339 -0.14370601 -0.041307822 -0.15596564 -0.017262034
-0.07656831 -0.1576951 -0.08345083 -0.13978066 -0.1690656 -0.032144 -0.18738067 -0.13549028
-0.18203627 0.027151972 0.021496177 -0.029690986 -0.03404975 -0.16093655 -0.038887188 -0.15335938
-0.16734417 0.029644417 -0.08899908 -0.17998672 -0.13639303 -0.05840985 -0.0029655679 -0.18987389
-0.03332428 -0.06717582 -0.0034258906 -0.07635556 -0.15054409 -0.059768658 -0.1786968 0.0065061185
-0.0076925196 -0.060991373 0.00669073 -0.0927776 -0.032754865 -0.15278605 -0.1617982 -0.06508751
-0.15987022 -0.04994403 -0.17472836 -0.015053894 -0.11164037 -0.0740883 0.024476828 0.030408204
-0.12133995 -0.081968375 -0.102149054 -0.054748405 -0.03689127 -0.09829281 -0.082289614 -0.23147497
-0.016909426 -0.11983773 0.0068383557 -0.105557874 -0.16085118 -0.28408417 -0.17651406 -0.27760133
-0.029843153 -0.086832836 -0.035162862 -0.096392736 -0.0563868 -0.03151715 0.011265168 -0.085920915
-0.13428368 -0.09371141 -0.01607948 -0.05722246 -0.0768482 -0.10891304 -0.044368673 -0.104504995
-0.012749006 -0.04381913 -0.19981156 -0.12507473 -0.12628561 -0.042908333 -0.09004199 -0.07593725
0.036921103 -0.20995468 -0.12961057 -0.104816474 -0.06300064 -0.04777048 -0.122598164 -0.23281956
-0.15026335 -0.15907873 -0.16941173 -0.06643449 0.04900623 -0.10686109 -0.06487879 -0.080157086
-0.15202872 -0.04216766 -0.014592967 -0.14026862 -0.03521233 0.055205323 -0.08557809 -0.050891187
-0.07871014 -0.16031654 -0.17963772 -0.13452926 -0.108861156 0.043931633 -0.2986435 -0.5016457
-0.3093662 -0.14629525 -0.21567474 -0.3058538 -0.04998808 -0.16520628 -0.07010753 -0.111723214
0.00061382365 -0.17812674 -0.095001236 -0.08747482 -0.12535478 -0.12425152 -0.0154365 -0.11234021
-0.10148639 -0.17758076 0.01369489 -0.32749107 -0.20316774 0.022923928 0.044107825 0.17726573
0.23528944 0.18669812 -0.24585694 -0.30884624 -0.12138751 -0.30530563 -0.47084317 -0.3606819
-0.29434356 -0.20305863 -0.028562585 -0.3663746 -0.025356922 -0.039032944 -0.18473758 -0.106776804
0.04076078 -0.08992418 -0.0849025 -0.0894412 -0.10186033 -0.0672974 -0.14291684 -0.004172668
-0.18006301 0.17475833 0.41932097 0.46068135 0.5176945 0.54214734 -0.025124403 -0.20358235
-0.21022256 -0.19936208 -0.12513812 -0.042894766 -0.07718403 0.0587759 -0.0011617638 -0.0858085
-0.018340113 -0.19927359 -0.10965857 -0.13833381 -0.18063532 -0.0061016157 0.00024741233 -0.1438059
-0.15067494 -0.1036706 -0.1429109 -0.026319314 0.15648748 0.481528 0.567964 0.631021
0.71250015 0.4876583 0.061982937 -0.10598971 -0.06051637 0.12854053 0.28114974 0.30789903
0.3151658 0.24462336 0.18178758 0.20965393 -0.14319138 -0.003123228 -0.1412068 -0.1468005
-0.103065744 0.028449988 -0.1086985 -0.12622474 -0.012109446 -0.24434106 -0.19351487 -0.01466517
0.33492693 0.5042118 0.49809778 0.316823 0.33804047 0.14562671 -0.08181148 -0.067208216
-0.015685007 0.21334149 0.37625572 0.3520565 0.31095243 0.2351483 -0.13869026 0.052664876
-0.1451032 -0.28559083 -0.16701627 0.03215631 0.010896842 -0.16847426 -0.106229626 -0.20343424
