2022051890.pt (torch, 424079 bytes, 8 tensors)

encoder.0.weight f4 [64, 784]
000000 61 df 6d bc ac d2 f0 3c 90 ec 9a 3c be dd 97 3c
       -0.01451859 0.029397331 0.01891163 0.018538352
000010 90 ba c5 bc fd 2b bc bd ab 22 80 bf f7 0e b5 bf
       -0.024136811 -0.091880776 -1.001058 -1.4145192
000020 dc 8a 22 bf 71 27 df be dc 5d 19 3e c5 93 5b 3c
       -0.6349313 -0.4358478 0.14977211 0.01340193
000030 26 7d 2a bf 94 79 45 be a0 de 70 bf b3 4c 44 bf
       -0.6659721 -0.1928466 -0.940897 -0.76679534
000040 0c 09 1e bf 21 63 fd be 99 cf 2e be 64 a8 b6 be
       -0.61732554 -0.49489692 -0.1707138 -0.35675347
000050 a6 c8 86 bf dd 24 56 bf 8f 9f 6b bf 7d 0b e1 bd
       -1.0529983 -0.8365 -0.9204034 -0.10988519
000060 23 0f c1 bc 4a 5d e0 bb 01 e4 f7 ba ac b7 c1 bc
       -0.023566788 -0.0068470584 -0.0018912555 -0.023647152
000070 e3 6c 8a bc 4a 3c f5 ba db 25 78 3f 70 78 2f bd
       -0.016897624 -0.0018709984 0.9693276 -0.042839468
000080 3c 74 c5 bc 36 fc 79 be 51 8d a8 bf a0 2f e6 bf
       -0.024103276 -0.24412617 -1.3168126 -1.7983284
000090 6c 82 1d c0 38 1f ed be 9b 01 b4 3e 6e cb 17 3f
       -2.4610853 -0.4631288 0.35157475 0.59294784
0000a0 4a 22 0d 3e 6b 8a 9b bf c5 b6 c0 be f2 05 81 be
       0.13782611 -1.2151617 -0.37639442 -0.25199848
0000b0 88 31 6a bf 54 12 74 bf f5 3a a8 bf 09 76 f6 be
       -0.9148183 -0.95340466 -1.3142992 -0.4813693
0000c0 b5 6e 52 be 83 4e 7e bf 48 66 17 bf e0 2d 11 c0
       -0.20550044 -0.9933855 -0.59140444 -2.268425
0000d0 cf 7b bb be 66 3c 59 3c 25 45 ca ba 43 f6 e1 bc
       -0.36617896 0.013259029 -0.0015431984 -0.027583247
0000e0 25 af 83 3c 25 1b 6d 3c 1e 59 a8 3e 06 c0 24 bf
       0.016074726 0.014471804 0.3288049 -0.64355505
0000f0 eb 00 0d 3f 7a e3 1a c0 04 b9 dc bf 9e bf 56 bf
       0.55079526 -2.420134 -1.7243962 -0.83886135
000100 04 72 b5 bf 7c 30 f0 be 89 e2 18 3e 81 1f 94 be
       -1.417542 -0.4691199 0.14930166 -0.28930286
000110 e7 77 94 3e 97 e2 dc be f1 b3 cd be f9 3e 88 be
       0.28997728 -0.43141624 -0.40176347 -0.26610544
000120 69 94 b6 be 6f aa 09 bf 1b d7 e2 be e5 4b 3c 3e
       -0.35660103 -0.53775686 -0.44304737 0.18388326
000130 1d 5f 2d bf cc 9e 16 be a2 50 e3 bc a2 10 eb 3e
       -0.67723256 -0.14709014 -0.02774841 0.45911127
000140 98 2f 78 be 4c 5e 56 be 7b ba 17 3c c0 e6 8b bc
       -0.24236906 -0.20934409 0.009260769 -0.017077804
000150 d8 21 01 3d 02 d0 86 be 83 55 5e 3e e3 1d 76 bd
       0.031526417 -0.26330572 0.21712308 -0.060087096
000160 91 72 bb bf c7 f2 70 be be 80 fb 3c 64 3f 0c bf
       -1.4644338 -0.23530112 0.030701037 -0.54784226
000170 ca 21 eb bd 82 05 4d 3e 11 f7 2b be c2 94 df 3d
       -0.11481054 0.20021632 -0.16793467 0.10917045
000180 2e fa 3e bd 70 c3 3a 3e 34 83 00 bd 9b ca cf 3d
       -0.04662531 0.18238616 -0.031375125 0.10146066
000190 b2 42 6b 3e 70 72 2f be 07 b6 16 be 3d 71 22 3e
       0.22974661 -0.17133498 -0.14717875 0.1586351
0001a0 01 f5 a5 be ca 12 df 3d 21 62 fe bd be d8 aa be
       -0.32413486 0.108922556 -0.1242106 -0.33368486
0001b0 e8 68 5a bf 08 8c 02 3f ae f7 ea bd 42 d4 1f 3f
       -0.85316324 0.5099492 -0.114730224 0.62433255
0001c0 ee a9 86 bb 6e cb cf 3e 3a c2 71 bf f0 56 66 3e
       -0.0041096127 0.40584892 -0.9443699 0.22494102
0001d0 01 ee 46 be 3c 62 04 3f e8 70 16 be f8 5b a3 bd
       -0.19426729 0.51712394 -0.14691508 -0.07976526
0001e0 38 89 a0 be a0 3d 89 3e 63 45 c9 3a 45 63 d8 3d
       -0.3135469 0.2680483 0.0015355762 0.10565809
0001f0 9f 0e a9 bc a2 66 22 bc 7a 8b 74 3d 76 9a e3 3d
       -0.020636855 -0.009912165 0.059703328 0.111134455
000200 95 e8 13 3e 66 f6 44 3d d8 60 cd bc 0e 9c 8a 3d
       0.14444192 0.048086546 -0.025070593 0.06768046
000210 bd d1 03 be 57 d1 7a 3e 13 51 29 be 5c a9 8b 3d
       -0.12872978 0.2449392 -0.16534834 0.06819412
000220 4c 7d 8e 3e c0 cb db bf de 29 ae bd df 25 b3 be
       0.2782997 -1.7171555 -0.08504079 -0.3498983
000230 ea 6f 60 bc 94 4e 89 bd e3 51 8a be 85 d4 8c be
       -0.013698557 -0.06704441 -0.270156 -0.2750589
000240 29 40 b9 bc 92 fd a4 be 60 93 ed 3d c6 89 e1 3c
       -0.022613602 -0.3222471 0.11600375 0.027531516
000250 a0 d7 83 bc d8 25 22 bd a6 1c 12 be 76 2c 14 3d
       -0.016094029 -0.03958687 -0.14268741 0.036175214
000260 67 c7 aa 3d 4c e5 6f bd 66 0f c1 ba f8 a6 12 bd
       0.08338814 -0.058568284 -0.001472932 -0.035803765
000270 b5 c7 9e 3d ae 96 c3 3d 87 ac 42 3e a2 3a d9 3d
       0.07752935 0.09550224 0.19011126 0.106068864
000280 b7 1f 5c bb 35 8e 18 be c8 47 1e 3d a7 13 41 bd
       -0.003358824 -0.14897998 0.038642675 -0.047137883
000290 81 60 a5 3e 83 ed 53 bf 6c 56 12 be 59 1b 82 3e
       0.3230019 -0.8278429 -0.1429078 0.2541149
0002a0 b7 22 63 be 36 f0 27 c0 e1 25 3f 3f 71 23 8d be
       -0.22181211 -2.6240363 0.74667174 -0.27566102
0002b0 32 cb f5 3e 76 97 15 be 3c 60 4b 3d 59 1a 9f bd
       0.48006588 -0.14608559 0.049652323 -0.07768697
0002c0 12 9b 92 3d e6 ed 0e 3b 54 f9 70 bc d1 53 ae 3b
       0.071584836 0.002180928 -0.014707882 0.0053200503
0002d0 4b 06 97 bd cf 17 44 3c 7e ac fd bd ce 8f a5 3c
       -0.07374247 0.011968567 -0.12386416 0.020210173
0002e0 8c f4 35 3d 0e 48 56 bc 71 c1 c4 3d 75 03 49 3e
       0.04442267 -0.013078703 0.096072085 0.19630225
0002f0 b7 72 20 be 1d 01 5c bd 86 9a 3f be 27 a3 88 3d
       -0.1566876 -0.053712 -0.1871129 0.06671744
000300 be de a6 3c fa b0 28 bf e1 36 5f 3e e2 a2 62 bf
       0.020369884 -0.65895045 0.21798278 -0.8852979
000310 52 f0 0e 3f 0e 7c cd 3f ed 2a 16 be ee 99 5c 3e
       0.5583545 1.6053483 -0.14664812 0.21543095
000320 f9 20 8f be 4d 13 5a 3d 57 47 b5 bc fd 12 0b 3e
       -0.27954844 0.053241063 -0.022128744 0.13581462
000330 ef 3e 03 be 8f 6e c9 3d 8b ed fa bd 55 b0 be 3d
       -0.12816976 0.098355405 -0.12252339 0.093109764
000340 1c 28 ac bd d0 89 da bd ae 25 13 3d d5 c2 62 bc
       -0.08406088 -0.10670817 0.035924606 -0.013840397
000350 80 a8 79 bd 81 e6 08 3e d0 f7 c2 bd 38 93 ab bd
       -0.06095171 0.1336918 -0.09519923 -0.08377689
000360 46 28 07 be 61 5a d8 bd 6d c1 00 be 98 5c 34 be
       -0.13198957 -0.105641134 -0.12573786 -0.17613447
000370 b6 6f c4 3d d8 70 3d bf 5f 62 2d be 7d a5 e8 3e
       0.0959162 -0.7400031 -0.16932057 0.45438758
000380 b3 f8 8c bd 3e 43 12 bf 58 b6 31 be 7e 57 a7 bd
       -0.06883373 -0.57133853 -0.17354715 -0.08170985
000390 20 53 84 3e c0 22 b7 bc 9f 60 b6 bc 04 72 d1 bd
       0.2584467 -0.022355437 -0.02226287 -0.10226825
0003a0 6e fb 20 be f5 b8 72 3d d9 c0 93 bb eb fd b9 3d
       -0.15720913 0.05925842 -0.004509073 0.09081634
0003b0 80 e0 62 3d 3f ce 2b bd ac 76 96 3d d9 f9 b9 3c
       0.05538988 -0.04194474 0.073468536 0.022702144
0003c0 82 92 18 3e 63 af 66 3c cb 09 17 3d 21 f4 56 3d
       0.14899638 0.014079901 0.036874574 0.052478913
0003d0 46 32 ac bc 75 16 62 bd b3 82 8d 3c 8b cd aa be
       -0.021020066 -0.055197198 0.017274236 -0.33359942
0003e0 49 39 7e 3d 9a 32 79 bf c5 36 4a bf c8 e2 dd 3f
       0.06206635 -0.97342837 -0.7898982 1.7334833
0003f0 e9 1a c1 bc 87 c3 a6 3e 1d e8 a0 3e 7b c0 d4 3d
       -0.023572402 0.3257105 0.31427088 0.10388275

encoder.0.bias f4 [64]
000000 3b 1d f2 3f cf 4a 27 bf 60 08 9c be 60 8c b4 3f
       1.891517 -0.65348524 -0.3047514 1.4105339
000010 98 34 07 40 76 54 e8 bf 4e 2e 09 40 65 09 eb 3e
       2.112585 -1.8150775 2.1434512 0.45905605
000020 26 d5 8e 3f cc 77 b2 3e 18 8f e4 3f 4b 54 e4 3f
       1.1158798 0.34857023 1.7856169 1.7838224
000030 8c ab f0 3f a9 f1 f5 3f 59 2b e7 3f 1b 8e b8 3f
       1.8802352 1.9214374 1.8060104 1.4418367
000040 6f 1a ed 3f d3 e6 c6 3f 43 77 02 40 2b 1a e1 bd
       1.8523692 1.5539192 2.0385292 -0.10991319
000050 14 d1 05 40 fd 91 d6 3f 69 3f 3c 3e c5 74 2c 3e
       2.090886 1.6763302 0.18383564 0.16841419
000060 c5 d0 a0 3f a6 3b 94 3f 67 14 b6 3f 7a 29 00 40
       1.2563711 1.1580703 1.4224976 2.0025315
000070 8d 44 6e bd 3e c0 ac 3f d2 ef 5e 3f ff 41 c8 3e
       -0.058170844 1.3496168 0.87084687 0.3911285
000080 55 e3 28 3e 97 35 89 3f 01 d0 2b 40 31 4c a6 3e
       0.1649297 1.0719479 2.6845706 0.32480004
000090 f6 65 c6 3f c6 f2 e6 3f e8 e2 b7 3f 9e 42 9f be
       1.5499866 1.8042839 1.4366121 -0.31105512
0000a0 11 f9 d5 bd 9b 9c 93 3e dd 09 d9 3e 08 46 3d 3f
       -0.10447896 0.28830418 0.42390338 0.73934984
0000b0 a1 18 08 40 53 7d fe 3f f7 bb ab 3f f3 d4 99 3f
       2.1265032 1.9881996 1.3416737 1.2018112
0000c0 c8 f7 e1 3e cc da f5 3e ed 67 3e be 26 77 02 40
       0.44134355 0.4801849 -0.18594332 2.0385222
0000d0 4d a2 26 bd 20 92 f7 3f a4 de df 3f 79 83 ee 3f
       -0.040682126 1.9341469 1.748982 1.8633872
0000e0 49 9f 44 3f 77 66 00 bf f8 f5 b4 3e 9d f4 b8 3f
       0.7680555 -0.5015635 0.3534391 1.444965
0000f0 bf c0 da 3e 74 88 c9 3f 1c 0b 55 3f 31 ba 81 3f
       0.4272518 1.5744767 0.83220077 1.0134946

encoder.2.weight f4 [32, 64]
000000 40 6b 00 be 01 99 e3 bd aa 24 68 bd d7 1e 00 be
       -0.12540913 -0.111131676 -0.05667559 -0.12511764
000010 19 c1 36 be 1b 2e b7 3c 04 c5 a2 bd 63 60 a3 3c
       -0.17847098 0.022360852 -0.07947734 0.019943422
000020 81 95 bc 3a b0 f7 2d be e2 43 45 bd 8d 26 d1 bc
       0.0014387817 -0.16989017 -0.04816044 -0.025531078
000030 da 8f 13 bd 62 9b 0e be f0 b7 f9 3a 97 1b 22 3c
       -0.03602586 -0.13926461 0.001905201 0.009894273
000040 66 6f 84 3d 97 c3 4f 3d a7 84 bb bd 14 03 84 3d
       0.0646656 0.05072364 -0.09156161 0.064458996
000050 f7 a4 1b be 6a 24 20 be e2 b1 d8 bc 4f 5f a3 bd
       -0.15199648 -0.15638891 -0.026452009 -0.07977163
000060 f8 3c 08 3d c9 e8 06 be 38 cc 0e be 98 ac 9a bd
       0.03326127 -0.13174738 -0.13945091 -0.07552451
000070 46 87 dc bd 93 b7 c8 bd c3 26 58 bd 01 c0 b0 bd
       -0.10767989 -0.09800639 -0.05277134 -0.08630372
000080 df 7c 3c bc 3d 66 32 be 3e 20 1f be d6 ab d1 bd
       -0.011504381 -0.17421813 -0.15539643 -0.10237853
000090 9f 3f 5f bd 48 74 14 be 87 c6 27 be cd b2 f5 bd
       -0.054504033 -0.14497483 -0.16384326 -0.11996994
0000a0 23 64 45 3d e6 1e 1c bd 55 a4 61 3d 1c f8 3f 3d
       0.0481912 -0.038115405 0.05508836 0.046867475
0000b0 1d 8a 0d bc be 52 18 3d 0b fd 21 be 6d a7 d8 bd
       -0.008638886 0.037188284 -0.15819184 -0.10578809
0000c0 48 9a 3b be 08 ac 1d 3d 07 4c 20 bd a1 c8 3c bd
       -0.18320572 0.03849414 -0.039135005 -0.046089772
0000d0 f2 bb 1f be 1b da a7 bd af 33 11 3d 54 bd 10 be
       -0.15599039 -0.08195897 0.03544968 -0.14134723
0000e0 9b 2a 0d bb 77 69 28 be 2d fd b1 3c 5d 75 b5 bc
       -0.0021540287 -0.16446482 0.021727169 -0.02215069
0000f0 de 5e 71 bd c6 3d ac 3c 25 64 3e bd cf 0e 38 be
       -0.058928363 0.02102555 -0.046482224 -0.17974399
000100 23 82 51 3d 1b 71 4e bb 69 be bb bd 9e 6d 4c bd
       0.0511495 -0.0031500522 -0.09167177 -0.049909227
000110 e7 9c f6 3c 01 16 0a bc 4f c9 30 3d 98 46 e1 bc
       0.030104114 -0.008428098 0.043160733 -0.027499482
000120 90 d9 1f 3d cc aa bf bd 3a a4 54 3d 9f 1d c9 bd
       0.039025843 -0.09358749 0.05191443 -0.09820103
000130 8e 6d b6 bc 82 7c 32 be 70 d8 05 be 26 87 e0 3b
       -0.022269037 -0.17430308 -0.13070846 0.0068520484
000140 b3 e7 30 bd 65 71 37 bd e4 c6 96 bd 79 7a a7 bd
       -0.043189716 -0.044785876 -0.07362154 -0.08177657
000150 9b 84 be bd 20 9c 1f be ee 5a 7d 3d 20 d8 58 bc
       -0.09302636 -0.155869 0.061854295 -0.013235122
000160 e4 63 27 be 1f 64 e1 bd c0 f6 09 be d6 f5 be bd
       -0.16346699 -0.11005425 -0.13473034 -0.09324233
000170 78 af 36 3d 19 f3 bb bd cc 34 23 be eb 2b 35 bd
       0.044600934 -0.091772266 -0.15938109 -0.044231337
000180 0b e2 49 3b 9f a8 b5 bd f4 46 36 bc 10 d3 ae bd
       0.0030804898 -0.088700525 -0.011125315 -0.08536351
000190 fa 69 fe bd ee 8f 25 be 7d 6b 2e be 72 2a 37 3b
       -0.12422557 -0.16168186 -0.17033191 0.0027948883
0001a0 86 25 02 be 5c b0 78 3b 5f 35 05 3d 75 49 3c bd
       -0.12709627 0.0037946915 0.0325216 -0.04596849
0001b0 d3 a6 9a bd a0 78 2a be 44 73 a8 bd 5d 1c 3a be
       -0.075513504 -0.16647577 -0.0822511 -0.18174882
0001c0 32 cd 0c 3d 9c 11 29 be a9 1a 97 bd 6e 73 63 bd
       0.034375377 -0.16510624 -0.07378132 -0.055530004
0001d0 7f 27 2a be a2 d5 8a bc 10 36 39 be 5e 98 04 be
       -0.16616629 -0.016947571 -0.1808703 -0.12948748
0001e0 a8 95 b6 bd f1 87 9d 3c 7e 1e f7 3b 22 0c 01 be
       -0.089152634 0.019229861 0.0075414767 -0.12602285
0001f0 ab 84 2f be 78 d0 cc bd 59 29 0f be 6a bc ad 3c
       -0.17140453 -0.100007 -0.13980617 0.021208007
000200 b9 c5 ad 3e aa 7d 2d be 3c 63 2f 3c e4 d7 7a bc
       0.33939913 -0.16942468 0.010704812 -0.015310261
000210 8c 33 4f be 11 c6 ea 3c 66 2d dc 3d 4b f8 02 be
       -0.20234507 0.028658899 0.107508466 -0.12790029
000220 ee 69 06 bd 82 13 09 3d f7 6c 4d 3d 54 46 45 bc
       -0.032815866 0.03346587 0.050152745 -0.012040693
000230 d6 af d1 be ab 77 c3 bb e8 93 0a be 18 54 a7 be
       -0.40954465 -0.0059651933 -0.13532984 -0.32681346
000240 af 97 eb 3d b1 13 8b be f7 45 e1 3d 78 30 24 3e
       0.11503541 -0.2716346 0.10999673 0.16034114
000250 30 ea 00 bc 5d c4 a9 bd bd 8f 46 be 36 01 10 bd
       -0.007868335 -0.082894064 -0.1939077 -0.035157405
000260 b5 58 79 3d e0 f0 8a 3c 97 e1 22 bc c9 36 42 bc
       0.060875613 0.016960561 -0.00994148 -0.011853882
000270 de fa ba 3d 25 84 19 bf 34 79 8f be 33 03 d4 3c
       0.0912988 -0.5996726 -0.28022158 0.025880432
000280 9b 2c 6e 3c d1 34 c0 bb 9a c8 fe be c7 b0 c1 3c
       0.014537002 -0.005865671 -0.49762422 0.023643864
000290 e3 0d 8d be 32 d2 2b bd 9f f7 66 bd 29 2f ec 3c
       -0.27549657 -0.041948505 -0.056388494 0.028831081
0002a0 38 e5 fe bd 34 b8 18 3d 3a 1c 16 bf 50 31 79 bd
       -0.12446064 0.037285045 -0.5863682 -0.060838044
0002b0 13 c5 ef bd 18 7b 61 bd 1b e9 2c 3e b0 1d 97 be
       -0.11707511 -0.055049032 0.16885798 -0.29514837
0002c0 a7 a4 5f bb a2 64 31 bd 56 e0 0b bc cc 12 f1 3b
       -0.003412524 -0.04330886 -0.008537373 0.007356977
0002d0 56 aa 98 3d 2f 4f 0f bd 1e be 2a 3e 44 b0 b0 bd
       0.07454364 -0.034987625 0.16674086 -0.0862737
0002e0 9d bf 21 3c fb 55 f5 bb da a9 8b 3c 94 04 a7 bd
       0.009872344 -0.0074870563 0.017048765 -0.0815517
0002f0 03 31 de 3d 1f c7 82 bb a1 ff 2b be 1f 72 5b be
       0.10849192 -0.0039910222 -0.16796733 -0.21430252
000300 e1 e5 3d 3b 1e b8 c1 3a de a8 1b 3d c3 6c 0b 3e
       0.002897613 0.0014779603 0.03800284 0.13615708
000310 35 e1 e2 bd 8b 0e 22 bd e3 78 72 3e 18 48 81 3c
       -0.11078111 -0.03956465 0.23678927 0.015781447
000320 a3 23 60 3d 64 95 97 bd 90 a4 be 3d 83 13 73 3e
       0.054721486 -0.07401541 0.093087316 0.23737912
000330 c3 0b a1 bf 31 b7 9d 3d 0b 0a 38 bd e3 42 76 be
       -1.2581714 0.077009566 -0.044931453 -0.24048953
000340 d7 ee dc bb 62 a1 c7 be c7 5e a8 3b a0 1f 01 bd
       -0.006742339 -0.38990313 0.0051382515 -0.0315243
000350 9d a3 62 be eb c4 37 be 60 df 51 3b 4b 03 5e bd
       -0.22132726 -0.17946212 0.003202401 -0.05420236
000360 3f 34 63 bd c6 0b 0c 3d 25 94 66 3d 43 60 14 3e
       -0.055469748 0.034190916 0.056293625 0.14489846
000370 a4 e1 b0 3c 74 fd 97 bf f6 6e 21 3c 64 0e 95 39
       0.021591969 -1.1874223 0.009853115 0.00028430216
000380 e0 e9 9d bd 01 d0 c9 3c f6 57 a6 bf be 8c cc bc
       -0.07710624 0.024635317 -1.2995594 -0.024969455
000390 9a 95 2b be 47 a6 9f 3d 5a e3 06 3c 60 aa 02 3d
       -0.16756287 0.07795387 0.008232916 0.031900764
0003a0 80 ae 35 bd 9c 2f 94 3d ad a6 cd 3d 82 5f 85 bd
       -0.04435587 0.07235643 0.100415565 -0.06512357
0003b0 25 f9 18 bd 72 54 08 3e f7 cb bf 3d 84 65 91 be
       -0.037346978 0.13313463 0.09365075 -0.28397763
0003c0 5b 59 bc 3d 31 0b b9 3d 9f b7 fe bc 9b 76 75 bd
       0.09196731 0.09035338 -0.031093417 -0.059927564
0003d0 fa a0 a9 3e 96 2d 4d 3e cc 85 2d 3c 76 14 f5 bd
       0.33130628 0.20036921 0.010590982 -0.11966793
0003e0 f4 df ab 3c a3 f6 86 bd 81 19 e8 bc 36 da d2 3c
       0.020980813 -0.06590011 -0.028332474 0.025738817
0003f0 e0 96 b0 bc 12 37 74 3e ae eb 18 be ad 63 7e 3e
       -0.021556318 0.23849133 -0.14933655 0.24842711

encoder.2.bias f4 [32]
000000 24 b0 93 bd 64 a2 cd 39 6a de 04 3f 1f ab 36 3f
       -0.072113305 0.00039221637 0.51901877 0.7135486
000010 6c 7f 48 3f 6b 12 cc 3c 57 e7 8a bd 6a 47 a8 be
       0.7831943 0.024911126 -0.06782406 -0.32866985
000020 5b e2 17 be 0e d3 d5 be af dc 22 3f c3 c3 cd 3e
       -0.14832442 -0.41762584 0.63617986 0.40188417
000030 5f d6 85 bd 3d c2 4f 3e 79 5a b5 3e fb 4a d9 3b
       -0.06535029 0.2028894 0.35420588 0.006631253
000040 df 56 21 be 10 b1 3a 3d 1d 1d 14 3f 87 dd 91 3e
       -0.15755795 0.045579016 0.57856923 0.28489324
000050 96 1b 0c be 73 62 cc bd 60 09 12 3e 42 ae 6b bd
       -0.13682398 -0.09979715 0.14261389 -0.057539232
000060 ed 69 0b 3f 56 b7 6a be 98 ae 1c 3f 7f 70 0a 3f
       0.54458505 -0.229215 0.6120391 0.54077905
000070 36 4f 25 3d a1 ff 82 3e 8d 07 b7 3e 2a 65 db 3e
       0.040358745 0.25585654 0.35747948 0.4285062

decoder.0.weight f4 [64, 32]
000000 f1 b3 81 be 7c 2c 92 be f8 f8 b7 be e6 e9 8a be
       -0.25332597 -0.28549564 -0.35932136 -0.27131575
000010 fa f1 b7 be 6f c3 93 be d6 c1 f4 bd 95 d0 dd bd
       -0.359268 -0.28860041 -0.11951034 -0.108307995
000020 4b bf d2 3e 1a b1 16 bd 4d d5 e4 bd f7 fb e8 be
       0.4116157 -0.03678999 -0.111734964 -0.45504734
000030 82 f3 94 be 02 c9 92 3d fd 30 dc be e7 02 e8 be
       -0.29092032 0.071672454 -0.43006125 -0.45314714
000040 53 fa 98 bd f5 96 b4 be c7 56 5a be ee bf a2 be
       -0.074696206 -0.3527142 -0.21322165 -0.31787056
000050 f2 aa 51 be 1e af bf be 3e 6a ad be d7 bb d9 be
       -0.20475367 -0.3743829 -0.3387012 -0.42526123
000060 77 cb 9a 3e f8 a8 d0 3e f3 20 db 3e bd 37 b8 be
       0.30233356 0.40753913 0.42798576 -0.35980025
000070 ae ff 6b 3e 62 58 ce be 3e b2 5b be 2f 3e 23 3e
       0.23046753 -0.40301806 -0.21454713 0.1594169
000080 62 b9 2a be 6a af e6 bd 3f 97 57 3c e8 11 2e 3e
       -0.1667228 -0.11263926 0.0131586185 0.16999018
000090 2f 1d 33 bc 78 40 de 3d 22 3a ed bd 2d dd d0 3d
       -0.010932251 0.1085214 -0.115833536 0.10198436
0000a0 60 2b 29 3e 30 f5 8b bd 42 28 8a 3d 49 28 f4 3d
       0.16520452 -0.06833875 0.0674596 0.11921746
0000b0 78 95 15 3e 26 59 9c be 8a 99 47 be 9c 53 ef 3c
       0.14607799 -0.30536765 -0.19492164 0.029214673
0000c0 f3 ec d8 bd 79 37 d4 3d fb 8d 46 be 93 63 d0 3e
       -0.105920695 0.10362143 -0.19390099 0.4070097
0000d0 26 ff ff bd 8b ff df bc 6d 19 34 3d d7 0b 84 bd
       -0.124998376 -0.027343532 0.04396956 -0.06447571
0000e0 17 e3 a6 3c 05 7e 8e bd 8a 87 e9 3d b8 33 cd bd
       0.020371957 -0.0695763 0.11402805 -0.1001963
0000f0 4c da a8 3c b1 5a 88 3d 79 9d ad 3c 03 cc 36 3c
       0.020611905 0.06657923 0.021193253 0.011157039
000100 28 6b 0b 3e dd 87 46 3c c8 4b 4b bd 84 cd c8 bd
       0.13615096 0.012117353 -0.049632818 -0.09804824
000110 b3 75 c3 3d 12 60 5a 3e 5e 13 fb 3d 97 b6 34 3e
       0.09543934 0.2132571 0.122595534 0.17647777
000120 36 cd 2c be ce 0c 27 bd 91 0c 5e bd f7 31 1f be
       -0.16875157 -0.040783696 -0.054211203 -0.15546404
000130 47 ed df 3d 0d 9d 85 bd 68 55 09 bd d3 b5 eb bd
       0.10933929 -0.06524096 -0.033528715 -0.115092896
000140 a5 83 15 be 6a 9e 0b 3e 0c 5e 93 bb 3f 12 03 3d
       -0.14601 0.13634649 -0.0044972952 0.031999823
000150 ce 9d 62 bd d5 64 42 3e 41 b1 ce be 18 33 50 3e
       -0.055326276 0.18983777 -0.4036961 0.2033199
000160 a8 41 09 3e f5 e3 80 3d 22 3a 13 3f 24 bb be bd
       0.13403952 0.06293479 0.5751058 -0.09313038
000170 72 8d 00 be 69 96 a2 3d cc 41 22 bd 5e ab f1 3d
       -0.12553957 0.07938845 -0.03961353 0.11800264
000180 6a c3 bf bd 67 3c 8b 3d 34 01 ba bb e7 d9 72 be
       -0.09363444 0.0679863 -0.005676413 -0.23715936
000190 43 68 ef bd fc fa 0a be 4b 7c 3b be 9b 4c f3 3d
       -0.11689808 -0.13572305 -0.18309133 0.11879846
0001a0 16 b7 2d 3e 24 60 e6 3d 15 ba 4d 3d 3d 68 e7 bd
       0.16964373 0.11248806 0.05022629 -0.11299179
0001b0 e4 29 22 be 36 c6 21 be 8c fe d6 bd 8d 9e 89 3d
       -0.15836293 -0.15798268 -0.1049777 0.06719694
0001c0 45 88 a9 3c d4 85 c0 bd 43 c1 22 be 6f a9 df 3c
       0.020694861 -0.09400526 -0.15894036 0.027302472
0001d0 e7 5d 51 bd e8 38 b3 bd df fd 3a 3e 5b ba 6a be
       -0.051114943 -0.087510884 0.18260907 -0.22922651
0001e0 f1 d3 56 3d f6 24 c8 bc 7b 70 37 3e 46 05 64 3d
       0.052448217 -0.024431687 0.17914002 0.05566909
0001f0 fd bd 2f 3e ac 5c 70 be f4 1c e4 bd 70 46 1d bd
       0.17162319 -0.23472852 -0.11138335 -0.038397253
000200 45 f1 d5 bd cb e4 88 be 7b 74 ed bd 35 4c 17 be
       -0.10446409 -0.26737055 -0.115944825 -0.14775164
000210 4b ea 48 be 73 eb a9 bd 21 fe 6f be ca 9a b7 3d
       -0.19620626 -0.082968615 -0.23436786 0.089650705
000220 db 7d d8 3c 91 ec 0f 3e 04 02 cb bc 7f 5d a2 bd
       0.0264272 0.14055087 -0.024781235 -0.07927989
000230 09 16 20 be 7a 38 64 be 10 d8 e9 3c 39 fb 5a be
       -0.15633406 -0.22287169 0.02854541 -0.21384896
000240 35 ef a3 3d 88 77 46 be 94 e4 4f be 16 41 0d be
       0.080046095 -0.19381535 -0.2030204 -0.1379436
000250 cc 46 8d 3d 36 73 31 be c3 01 ad bd f0 6b 5d bd
       0.06898269 -0.17329106 -0.08447602 -0.054058015
000260 e4 77 03 be 8f b8 7a bd e4 99 8d 3d 5c 68 60 3e
       -0.12838703 -0.061211165 0.06914118 0.2191481
000270 ad 18 6a 3e f1 70 4c be dc 1b d0 bd 13 21 84 bd
       0.22860976 -0.19964959 -0.10161564 -0.06451621
000280 01 39 a5 ba d3 55 f6 bd a5 11 5d bb 10 a4 99 bc
       -0.001260549 -0.120280884 -0.003373244 -0.018754989
000290 9b 4e ba bd e8 4a 4f bd a2 65 f9 3d b6 eb bb bd
       -0.09097024 -0.050608546 0.12177588 -0.09175818
0002a0 c2 4b c8 3d d1 4d 91 3d dc 1a 82 3d 82 17 83 3d
       0.09780075 0.070949204 0.06352779 0.06400968
0002b0 ad 3e 27 3d f1 57 b6 bd 1b 01 16 be d4 6e 11 be
       0.040831257 -0.08903492 -0.14648859 -0.14202434
0002c0 3b 68 0b bd 51 0b 02 bd 34 fd 84 3d 42 87 97 bc
       -0.03403495 -0.031749073 0.06493607 -0.018497113
0002d0 b3 9e 2d be 88 9c d3 bd f6 01 0c 3d 54 0f 0d 3e
       -0.1695507 -0.1033259 0.034181558 0.13775378
0002e0 e4 84 c4 3d 3a 6c f1 3d 8b 8a f3 bd 25 54 a4 bd
       0.095956594 0.11788221 -0.11891659 -0.08023862
0002f0 51 b8 0c 3e b4 19 23 bd 13 28 26 be d2 dd ff bd
       0.13742186 -0.039819434 -0.16226225 -0.12493481
000300 18 2a 5e 3d 1f 6e 09 be 46 52 9a bd 36 e4 8e be
       0.054239362 -0.13420914 -0.07535224 -0.27908486
000310 13 dd 2a bf fd 65 34 be 30 9a a0 3d 85 0e 3c be
       -0.6674358 -0.1761703 0.07841909 -0.18364914
000320 53 72 87 3d 1b e7 13 3e 53 72 13 be ba 2e a3 3c
       0.066136025 0.14443628 -0.1439908 0.019919742
000330 55 60 47 be 0d 74 7c be f7 af 74 3d 0f e3 cf 3d
       -0.19470342 -0.24653645 0.059738126 0.1015073
000340 65 ce 11 be 36 af ad 3d 85 cd 36 3d b0 66 86 3b
       -0.1423889 0.084806845 0.044629592 0.004101597
000350 e9 fe c3 bd 41 f1 ec bc 14 c2 04 bd 92 46 18 3e
       -0.09570105 -0.028923633 -0.03241165 0.1487067
000360 74 1f 3d bb 44 56 cf 3d 87 c2 07 bd 8c 33 f8 bb
       -0.002885786 0.10123876 -0.0331445 -0.0075745042
000370 84 89 dc bc 8a 45 cd bd 3a 08 05 3f 5a 28 1b be
       -0.026921041 -0.10023029 0.5196568 -0.15152112
000380 d6 ce 4d be 75 04 78 be 93 e2 19 3d 8e a3 23 bd
       -0.20098433 -0.2422045 0.037569594 -0.0399509
000390 c2 f0 b3 bd 33 f5 17 3c cb 7b e6 bc 09 db 89 be
       -0.08786155 0.009274769 -0.028135201 -0.26924923
0003a0 74 4a cd 3d 90 9a a0 3d 8f 26 f1 3d 4b 6c 5b be
       0.100239664 0.078419805 0.117749326 -0.21428029
0003b0 ae bb 30 be 8f f0 63 be 69 6e 83 3b eb 74 87 be
       -0.17259094 -0.22259735 0.0040109647 -0.2645639
0003c0 8f 44 61 3e c8 39 87 3c c1 37 f0 3e be a6 05 3e
       0.2199881 0.016507044 0.46917537 0.13051888
0003d0 7d 77 2d bc 8b 9f 81 be 27 e4 04 bd fc f8 dc bd
       -0.01058757 -0.25317034 -0.032444146 -0.107896775
0003e0 d7 5b 4e bd e7 93 e1 3d 0d 5a 2c 3e 4b 03 55 3c
       -0.050380554 0.11014538 0.16831227 0.013001273
0003f0 7e d3 0d bd 44 37 1e be 37 c0 8b bd 2b c2 77 3e
       -0.034625523 -0.1545077 -0.068237714 0.24195163

decoder.0.bias f4 [64]
000000 50 40 68 be 83 02 46 bd 20 10 e2 3d f2 4d ec bd
       -0.22680783 -0.04834224 0.11038232 -0.115383044
000010 68 74 87 3a a9 f3 be 3c ab 73 ce 3d 3f 45 f8 bc
       0.0010334374 0.023309546 0.10080656 -0.030306457
000020 a0 cc 28 3e 62 1a 17 be 38 73 18 3c 68 4c ab bc
       0.16484308 -0.14756158 0.009304814 -0.020910457
000030 fc 62 ec 3c 82 87 11 be f2 02 2d bd 30 09 5d be
       0.028855793 -0.14211848 -0.042239137 -0.21585536
000040 d2 7b 91 bd 98 68 99 bb db 96 4e be 49 b0 42 bd
       -0.07103695 -0.004681658 -0.20174734 -0.0475314
000050 6c 7a f2 3b 70 14 91 bd 0a 4a 6d 3d 8b eb b7 bd
       0.0073998477 -0.07083976 0.057931937 -0.08980473
000060 37 d6 45 be 6a ef 55 be c0 5b 3a be 06 0e bc be
       -0.19319998 -0.2089211 -0.18199062 -0.3672945
000070 22 c5 1f be a8 b2 62 3e 1a 4b 24 bb 43 2b 80 be
       -0.15602544 0.22138464 -0.0025069178 -0.25033006
000080 fa e5 b3 bd 84 3d 57 3d 04 c4 d0 bd f3 d6 00 3e
       -0.08784099 0.0525489 -0.10193637 0.12581997
000090 e0 44 1c 3e 63 c3 37 be 26 cd 4d 3d a7 17 c8 bd
       0.15260649 -0.17945628 0.050244473 -0.09770136
0000a0 ce 8b 5e be 51 36 28 3d 9f 5e 61 3c 43 70 bc 3d
       -0.21733019 0.041067425 0.01375547 0.092011
0000b0 29 85 66 3e e4 fd 80 bd 20 7e 68 3d ca f2 d2 3d
       0.22511734 -0.06298426 0.056760907 0.103002146
0000c0 5d 82 76 be 71 d9 f2 bd 27 8f d4 3d ac 1b ad bd
       -0.24073167 -0.1185788 0.10378867 -0.084525436
0000d0 7b 65 42 be 3e 93 c6 3d 58 33 cf bd 40 b1 cf bb
       -0.18984024 0.09696053 -0.10117215 -0.0063382685
0000e0 e4 d3 17 be 65 af 03 3e a8 51 72 bc 0a 40 52 be
       -0.14826924 0.12859876 -0.014789976 -0.20532241
0000f0 e8 47 67 3e 7a 2e 32 3e 6f d6 c4 3d 88 17 13 3d
       0.22586024 0.17400542 0.096112125 0.035911113

decoder.2.weight f4 [784, 64]
000000 e0 bf f6 3d de d7 92 bd 08 0c e4 3c ac ff 7f bd
       0.12048316 -0.0717008 0.027837768 -0.062499687
000010 5a 60 9d bd 20 2a f9 bc 70 b1 40 3d b2 a4 8c bd
       -0.07684393 -0.030415595 0.047044218 -0.06867351
000020 28 b7 b8 3b 12 7f 80 bd 00 77 1e be 90 14 99 bd
       0.0056370683 -0.06274237 -0.15475082 -0.07474625
000030 f1 c1 da bb 1f 2e 85 3c 0f 2d 21 3d 2a cd d9 bd
       -0.0066759516 0.016257344 0.03934961 -0.10634835
000040 56 b5 b4 ba a6 e4 ed bd 94 4f 00 bd c7 52 df bd
       -0.0013786952 -0.11615877 -0.03132589 -0.109044604
000050 a8 c8 41 bd a0 23 0f be d7 b2 98 bd 3f 2d ce bd
       -0.0473105 -0.13978434 -0.07455986 -0.10067224
000060 10 84 60 3d 90 b3 1b bc 4a c1 1a be 36 43 92 3d
       0.054813445 -0.00950326 -0.15112796 0.07141726
000070 70 c8 02 3c dc da 9d bc 4e 44 ab bd a4 bf 9e bd
       0.007982358 -0.0192694 -0.083626375 -0.07751396
000080 00 09 17 3c 38 47 21 bd ca 2c d0 bd 87 51 09 be
       0.009218454 -0.03937456 -0.10164793 -0.13410006
000090 f3 f1 28 be 4c e8 31 bc 84 50 19 be c6 bf 0e be
       -0.16498546 -0.010858607 -0.1497212 -0.13940343
0000a0 46 8d d5 bd 33 8d fb bd 0a d9 98 bd 98 88 a2 3d
       -0.104273364 -0.12282791 -0.07463272 0.079362094
0000b0 d2 7c 30 bd b8 bf 21 be e0 4a 97 bb 98 99 d0 3c
       -0.043087788 -0.15795791 -0.00461708 0.025463864
0000c0 10 af b7 bc fd e2 c7 bd 22 22 40 be 6a 0d 59 bd
       -0.022422343 -0.097600915 -0.1876302 -0.05299131
0000d0 6c 5f 55 bd a4 bc 23 bd a8 12 aa 3c fc b5 de 3d
       -0.052092955 -0.039974824 0.02076085 0.108745545
0000e0 24 d0 19 bd 42 e2 93 bc 84 b8 0d 3d e6 d0 a6 bd
       -0.037552014 -0.018052224 0.034599796 -0.08145313
0000f0 6e 8d 9b 3d de 51 2a bd 00 f8 29 be 76 0d 9c bd
       0.07595335 -0.04158198 -0.1659851 -0.07619755
000100 d4 9a 8e 3d 16 13 62 3c c0 09 a9 bd 5c f3 a8 3d
       0.06963125 0.013798496 -0.08253813 0.08249542
000110 c8 fc fd bd a4 a3 73 bd 04 38 35 bd c2 09 ab bc
       -0.1240173 -0.05948223 -0.044242874 -0.020878676
000120 2f 1a 42 be 74 52 24 3c fc c4 9d bc c9 89 30 bd
       -0.18955301 0.010029424 -0.019258969 -0.043100152
000130 b6 19 44 bd 5f fd 4e be 42 01 df bc 00 3c 72 39
       -0.047876082 -0.20213841 -0.02722228 0.0002310127
000140 dc f5 44 be d0 f4 f6 3c 00 81 08 bd 82 7f 0e be
       -0.19234413 0.030146033 -0.03332615 -0.13915828
000150 4c 0b 7c bd 56 42 b9 bd a3 23 53 bd cf ef de bc
       -0.06153421 -0.09045856 -0.051547658 -0.027213959
000160 d6 35 8d bd 40 e4 20 bc 96 d7 41 3d de ae 93 bd
       -0.06895034 -0.009820044 0.04732474 -0.07211088
000170 44 eb 13 3d 90 0e b5 bc e7 81 d7 3c 80 32 a2 3d
       0.03611304 -0.02210167 0.02630706 0.07919788
000180 fe 6a 80 3c a4 88 71 bd 52 10 f6 bd 95 b3 87 bc
       0.015676018 -0.0589682 -0.120148316 -0.016565124
000190 eb 20 fe ba a0 06 05 bd 3b e4 a9 bd 09 a1 0d be
       -0.0019388472 -0.03247702 -0.08295485 -0.13830961
0001a0 78 f3 90 bd e2 26 28 3d a6 c6 83 bd 48 e1 0f 3d
       -0.07077688 0.041052707 -0.064343736 0.035126954
0001b0 94 63 1d bd 3c 2b 38 3c 4a d9 b0 3d 35 a2 15 bd
       -0.038425043 0.011240777 0.086351946 -0.036531646
0001c0 40 f2 37 bb 73 42 18 bd 30 5c 1b be e7 a6 2f bd
       -0.0028067976 -0.037172746 -0.15171885 -0.04288378
0001d0 e0 e6 eb 3b 00 8b 11 be 92 c4 b3 bc 97 48 31 be
       0.0071991533 -0.1421318 -0.021944318 -0.17312847
0001e0 71 be 2f be 12 db 50 bd d1 18 45 3b 89 3d 0f bd
       -0.17162491 -0.05099017 0.0030074606 -0.034970794
0001f0 e8 ce 47 3c bd bf 3d bd 01 45 66 bd 7e 8a 09 be
       0.012195326 -0.046325434 -0.05621815 -0.13431737
000200 e4 53 e2 3d 14 4e 74 be 9c ce d9 bd 14 23 e0 3d
       0.11051157 -0.2385791 -0.10635111 0.109441906
000210 10 e5 77 bd 84 c2 06 bd 8c 54 ac 3d 61 a4 32 3c
       -0.060521185 -0.03290035 0.084145635 0.010903449
000220 bd 91 2a be cd eb b7 bd 08 85 88 3d e8 04 ab bc
       -0.16657157 -0.08980522 0.06665999 -0.020876363
000230 26 14 33 bd ca 46 a0 bd 34 15 86 bc f8 6f 8e 3c
       -0.043720387 -0.07826002 -0.016367532 0.017387375
000240 d3 fc 06 3d 98 78 23 3d 60 20 85 3b f2 1a 5d bd
       0.032955956 0.03990993 0.0040626973 -0.053980775
000250 cc 0e ad bd 2a c3 2f be a8 f9 82 bd a0 48 32 bc
       -0.08450088 -0.17164293 -0.063952744 -0.010881573
000260 88 ea 84 3d 58 16 cb bc 9a 65 83 bd a0 b5 38 bc
       0.06490046 -0.024790928 -0.06415863 -0.0112737715
000270 ba c0 94 bd e8 11 75 bc 9c af 0b be 38 4d 84 bd
       -0.07263322 -0.014957882 -0.13641208 -0.06460041
000280 3c a5 a8 3d c8 a3 56 3d 14 7c 33 bd e8 24 16 be
       0.08234641 0.052402288 -0.043819502 -0.14662516
000290 81 27 01 be 58 5a 96 bc 68 46 42 be 0e 35 9c 3d
       -0.12612726 -0.018353626 -0.1897217 0.07627307
0002a0 e0 98 6f 3d 91 94 df bd 00 71 f3 3c 7e b1 c9 bd
       0.058495402 -0.10917009 0.029716969 -0.09848307
0002b0 fc a2 e4 bc ce 7a 0c 3d 34 8b b7 3d 00 07 96 ba
       -0.027909748 0.034296803 0.08962098 -0.0011446178
0002c0 e9 3c 19 3d e4 7d 98 3d fe ad 0c be 61 d6 de bd
       0.037411604 0.07445887 -0.13738248 -0.10880733
0002d0 10 87 4d bd 34 ba af 3d 30 8f 97 3c 28 85 d6 bc
       -0.050177634 0.08580437 0.018500894 -0.02618654
0002e0 e0 53 7f 3d 11 84 1a be ee c6 bc bd 8a 65 e6 3d
       0.06233585 -0.15089442 -0.0921763 0.11249836
0002f0 15 c2 86 bd 86 0a 0a be c2 13 35 be cc 78 98 bd
       -0.06579987 -0.13480577 -0.17683318 -0.07444915
000300 b8 91 f4 bc 80 65 19 bb 0f 0f fc bb 08 97 ef 3d
       -0.02985464 -0.0023406446 -0.007692225 0.11698729
000310 1c ba f9 bd 1a 65 bf 3d 94 ac 56 3d 3d 5c ed bd
       -0.12193701 0.093454555 0.052410677 -0.11589859
000320 11 71 32 be 70 0d 44 be 70 c7 46 bd fe 3d 5d bb
       -0.17425944 -0.19145751 -0.048530042 -0.0033758874
000330 c5 ac 0c be a0 b7 cb 3b 63 c3 17 3d 3a 96 a8 bd
       -0.13737781 0.006216958 0.03705157 -0.082317784
000340 57 0b d7 bd 02 b5 cf bd 94 eb 40 be 8a 98 d9 bc
       -0.1050021 -0.101419464 -0.18839866 -0.026561994
000350 fc 0e 7f 3d d9 25 3b 3d f8 a2 48 bd 64 d5 0b 3d
       0.06227015 0.04569039 -0.048983544 0.034139052
000360 40 b9 27 bc 28 cb 04 bd ae 3c 07 be ce 65 cb 3d
       -0.010237038 -0.032420307 -0.13206741 0.09931527
000370 3a af b4 3d 4c da 26 be 14 6d 4e 3d 40 e5 ab 3b
       0.08822484 -0.16294211 0.050396994 0.0052458346
000380 52 17 fc 3d e6 7c c3 bd c8 f9 97 3d a9 7a c4 3c
       0.123091355 -0.09545307 0.07420689 0.02398427
000390 42 2a b7 bd a0 41 75 3d a8 26 46 be 82 51 f7 bd
       -0.08943607 0.059877038 -0.19350684 -0.12076093
0003a0 d0 20 42 3d 1d 65 f9 bd bc d2 e9 3d 40 0d d4 bd
       0.047394574 -0.12177489 0.114171475 -0.1035409
0003b0 05 52 d6 bb 4b d0 89 bd 4a eb d9 bd 98 79 90 bd
       -0.006540539 -0.06729182 -0.10640581 -0.07054442
0003c0 7e d9 8a 3d 01 6c f2 bc fd 73 3d 3d d8 1b ec 3c
       0.067797646 -0.029592516 0.046253193 0.02882187
0003d0 c6 bd f5 3d 3f 9f e9 bb fb 72 a1 bd 3b db 09 bd
       0.11999087 -0.0071295793 -0.07883259 -0.03365634
0003e0 03 18 0f be 52 fd 99 bd 07 44 2b be 84 ca ae bd
       -0.13974003 -0.0751902 -0.16725169 -0.085347205
0003f0 fc d8 e5 bd 6b af 0c be 41 62 4a 3c 14 e3 7c bd
       -0.11223027 -0.13738792 0.012352527 -0.061739996

decoder.2.bias f4 [784]
000000 91 3e 42 3c 08 d4 b3 bc 89 43 51 3c d6 d7 bf bd
       0.011855737 -0.02195169 0.012772449 -0.09367339
000010 ab 27 13 be 64 32 29 bd 75 b5 1f be 1c 69 8d bc
       -0.14370601 -0.041307822 -0.15596564 -0.017262034
000020 d9 cf 9c bd d3 7a 21 be 45 e8 aa bd a9 22 0f be
       -0.07656831 -0.1576951 -0.08345083 -0.13978066
000030 88 1f 2d be 6d a9 03 bd b8 e0 3f be f7 bd 0a be
       -0.1690656 -0.032144 -0.18738067 -0.13549028
000040 b7 67 3a be d0 6d de 3c c0 18 b0 3c 4d f2 e3 bc
       -0.18203627 0.027151972 0.021496177 -0.027825499
000050 c0 77 0b bd 8d cc 24 be 2c 48 1f bd 3e 0a 1d be
       -0.03404975 -0.16093655 -0.038887188 -0.15335938
000060 45 5c 2b be d9 d8 f2 3c 26 45 b6 bd 70 4e 38 be
       -0.16734417 0.029644417 -0.08899908 -0.17998672
000070 9d aa 0b be 2b 3f 6f bd f9 59 42 bb 4d 6e 42 be
       -0.13639303 -0.05840985 -0.0029655679 -0.18987389
000080 0a 7f 08 bd 7a 93 89 bd e8 84 60 bb 4e 60 9c bd
       -0.03332428 -0.06717582 -0.0034258906 -0.07635556
000090 3b 28 1a be fb cf 74 bd 4b fc 36 be 47 31 d5 3b
       -0.15054409 -0.059768658 -0.1786968 0.0065061185
0000a0 88 11 fc bb 12 ef 64 3b 4c f3 ca 3c 2f 02 be bd
       -0.0076925196 0.0034932536 0.024774216 -0.0927776
0000b0 c3 9c b1 bb f2 73 1c be 6d ae 25 be 9a 4c 85 bd
       -0.005420299 -0.15278605 -0.1617982 -0.06508751
0000c0 05 b5 23 be 1c 92 4c bd fe eb 32 be 9c a4 76 bc
       -0.15987022 -0.04994403 -0.17472836 -0.015053894
0000d0 b5 a3 e4 bd 9b bb 97 bd a1 83 c8 3c a0 1a f9 3c
       -0.11164037 -0.0740883 0.024476828 0.030408204
0000e0 14 81 f8 bd 09 df a7 bd 86 33 d1 bd dd 3f 60 bd
       -0.12133995 -0.081968375 -0.102149054 -0.054748405
0000f0 4d 1b 17 bd be 4d c9 bd 75 87 a8 bd c6 07 6d be
       -0.03689127 -0.09829281 -0.082289614 -0.23147497
000100 a3 85 8a bc 7c 6d f5 bd 49 14 e0 3b ba 2e d8 bd
       -0.016909426 -0.11983773 0.0068383557 -0.105557874
000110 2c b6 24 be fb 94 1c bd 1a c0 34 be 03 ac fe bd
       -0.16085118 -0.038228016 -0.17651406 -0.124351524
000120 a1 79 f4 bc 6a d5 b1 bd ef 06 10 bd 8e 69 c5 bd
       -0.029843153 -0.086832836 -0.035162862 -0.096392736
000130 d8 f5 66 bd 21 18 01 bd 8a 91 38 3c 4e f7 af bd
       -0.0563868 -0.03151715 0.011265168 -0.085920915
000140 a9 81 09 be c5 eb bf bd 1d b9 83 bc 6c 62 ba bc
       -0.13428368 -0.09371141 -0.01607948 -0.02275201
000150 97 62 9d bd cd 0d df bd ed bb 35 bd b7 06 d6 bd
       -0.0768482 -0.10891304 -0.044368673 -0.104504995
000160 35 e1 50 bc b0 7b 33 bd 67 9b 4c be 97 13 00 be
       -0.012749006 -0.04381913 -0.19981156 -0.12507473
000170 04 51 01 be a6 c0 2f bd ef 67 b8 bd fd 84 9b bd
       -0.12628561 -0.042908333 -0.09004199 -0.07593725
000180 95 3a 17 3d 5c fe 56 be a2 b8 04 be e3 ee ce bd
       0.036921103 -0.20995468 -0.12961057 -0.10104158
000190 7b 06 81 bd fb aa 43 bd 11 62 51 be 40 68 6e be
       -0.06300064 -0.04777048 -0.20447566 -0.23281956
0001a0 a3 de 19 be 89 e5 22 be 45 7a 2d be ce 0e 88 bd
       -0.15026335 -0.15907873 -0.16941173 -0.06643449
0001b0 c2 ba 48 3d fd d9 da bd 2c df 84 bd 66 29 a4 bd
       0.04900623 -0.10686109 -0.06487879 -0.080157086
0001c0 6b ad 1b be ff b7 2c bd 57 17 6f bc 94 a2 0f be
       -0.15202872 -0.04216766 -0.014592967 -0.14026862
0001d0 ce 3a 10 bd fa 1e 62 3d 1b 6a a6 bd 47 73 50 bd
       -0.03521233 0.055205323 -0.08125707 -0.050891187
0001e0 c8 32 a1 bd 05 2a 24 be f3 f2 37 be 0a c2 09 be
       -0.07871014 -0.16031654 -0.17963772 -0.13452926
0001f0 99 f2 de bd d6 9a a9 3c 55 97 2d be 7f 51 9a be
       -0.108861156 0.020703714 -0.1695226 -0.30140302
000200 39 33 68 be d5 37 8a be ca eb b5 be 3e d7 d6 be
       -0.2267579 -0.2699572 -0.35531455 -0.41961092
000210 4d c0 4c bd d6 2b 29 be 89 94 8f bd 24 cf e4 bd
       -0.04998808 -0.16520628 -0.07010753 -0.111723214
000220 02 e9 20 3a db 66 36 be 02 90 c2 bd 00 26 b3 bd
       0.00061382365 -0.17812674 -0.095001236 -0.08747482
000230 01 5d 00 be 95 77 fe bd 60 e9 7c bc a0 12 e6 bd
       -0.12535478 -0.12425152 -0.0154365 -0.11234021
000240 19 d8 cf bd bb d7 35 be 88 60 60 3c f0 85 32 be
       -0.10148639 -0.17758076 0.01369489 -0.17433906
000250 c9 04 9b bd 16 2d ea 3c a4 da 03 3c d9 00 f8 3d
       -0.07569272 0.028585952 0.008047733 0.12109537
000260 ec 18 42 3e f8 6a fe 3d cf cb 98 bd 18 21 9e be
       0.1895482 0.124227464 -0.074607484 -0.30884624
000270 04 9a f8 bd c1 ea 7f be e5 c0 f3 be 80 78 c2 be
       -0.12138751 -0.24991895 -0.47608104 -0.3798256
000280 0a e5 af be f0 79 a5 be 15 fc e9 bc ce b3 ef bc
       -0.3435443 -0.32319593 -0.028562585 -0.029260542
000290 52 b9 cf bc 02 e1 1f bd d9 2b 3d be cc ad da bd
       -0.025356922 -0.039032944 -0.18473758 -0.106776804
0002a0 c7 f4 26 3d 04 9d b4 bd 5d e1 ad bd f3 2c b7 bd
       0.04076078 -0.08819011 -0.0849025 -0.0894412
0002b0 26 9c d0 bd 38 d3 89 bd cb 58 12 be e0 ba 88 bb
       -0.10186033 -0.0672974 -0.14291684 -0.004172668
0002c0 dd a5 09 be bc ff 25 3d 30 bb 5e 3e 1b eb 4f 3e
       -0.13442178 0.04052709 0.21751094 0.2030453
0002d0 9c ce 71 3e 31 00 7c 3e 2c 43 c0 3c e2 47 39 3c
       0.23613971 0.24609448 0.02346953 0.011308642
0002e0 1b bd da bd 65 5a fc bd 97 5b 1c be 3f 86 34 be
       -0.106806 -0.12321929 -0.15269314 -0.17629336
0002f0 85 8b 9b be 7f da 2d be 53 46 98 ba 5e bc af bd
       -0.30379882 -0.16977881 -0.0011617638 -0.0858085
000300 01 3e 96 bc 60 0e 4c be ac 94 e0 bd 61 a7 0d be
       -0.018340113 -0.19927359 -0.10965857 -0.13833381
000310 73 1c 00 be 10 f0 c7 bb 1f b7 81 39 5b eb 04 be
       -0.12510853 -0.0061016157 0.00024741233 -0.12980406
000320 88 4a 1a be 40 51 d4 bd 25 2a 08 bd 83 19 4f bc
       -0.15067494 -0.1036706 -0.033243317 -0.01264036
000330 64 68 32 3d 21 f0 3e 3e b2 03 64 3e 45 47 86 3e
       0.043556586 0.1864629 0.22267035 0.2622625
000340 0d 4e c0 3e b8 7b 37 3e 60 e0 02 3e 8a c4 ce bb
       0.37559548 0.17918289 0.12780905 -0.0063100504
000350 1a c9 c5 bd 98 6c 8e 3d a5 7c 73 3d cb 9d d3 bd
       -0.09657498 0.06954306 0.059445042 -0.10332831
000360 58 52 ab bd b7 84 a5 bd 41 74 54 bd 8a b6 b7 3c
       -0.08365315 -0.08081954 -0.05186868 0.022425909
000370 c3 a0 12 be 12 af 4c bb 84 98 10 be df 52 16 be
       -0.14319138 -0.003123228 -0.1412068 -0.1468005
000380 22 14 d3 bd f3 0f e9 3c 52 9d de bd 0f 41 01 be
       -0.103065744 0.028449988 -0.1086985 -0.12622474
000390 b3 66 46 bc 3f c7 a3 bd 50 fe 6b bd fd 67 de bb
       -0.012109446 -0.079969876 -0.05761558 -0.0067872987
0003a0 d7 be 3b 3e c2 fc 5a 3e af e4 8f 3e 50 be 32 3e
       0.18334518 0.21385482 0.2810416 0.17455411
0003b0 91 6d 6c 3e fa d0 e7 3d 61 2a 04 3c 47 c7 e6 bc
       0.23088671 0.11319156 0.008066745 -0.028171195
0003c0 1c bf 43 bd 3c 3e e8 3d 17 16 1d 3e 68 e2 d6 bc
       -0.047789678 0.11339995 0.15340458 -0.026231006
0003d0 92 c9 2d 3c b2 c6 1f ba d2 04 0e be f5 b1 4e bc
       0.01060714 -0.00060949766 -0.13869026 -0.01261567
0003e0 ef 95 14 be 61 ca be bd f3 24 27 be 56 b6 03 3d
       -0.1451032 -0.093159445 -0.16322689 0.03215631
0003f0 ab 88 32 3c 84 84 2c be eb 8e d9 bd e2 9c 3f bd
       0.010896842 -0.16847426 -0.106229626 -0.046780474
