2022051840.pt (torch, 424079 bytes, 8 tensors)

encoder.0.weight f4 [64, 784]
00000000: 61df 6dbc acd2 f03c 90ec 9a3c bedd 973c
00000010: 37bd b1bb 40c8 0dbd e01c 64bf 62e9 18bf
00000020: dd28 df3c ade9 723e 49bc b23e 69c3 933e
00000030: baeb 32be 916a c4be 5753 3dbf 9f56 37be
00000040: af3f 9b3e a297 e43e 3390 083f e806 963e
00000050: 0ae2 34bd 3a45 58bd 5cba 13bf c3d7 c0bc
00000060: 230f c1bc 4a5d e0bb 01e4 f7ba acb7 c1bc
00000070: e36c 8abc 4a3c f5ba 191a e03e 6bf1 dabd
00000080: 8cec 3b3e 394f 6bbf 7611 3cbe 165d f2be
00000090: d1cc 9bbe b051 3e3e 2b51 403f 8e83 bd3e
000000a0: 95bc 663d 53d9 64bf 27b0 a7be 2ba9 8cbd
000000b0: 222e febe c3c2 ebbe a42e f6be 9657 aebe
000000c0: c2db 23be 6feb 3bbf 78a9 89be bf83 51bf
000000d0: e589 2fbe 1f59 84be 2545 caba 43f6 e1bc
000000e0: 25af 833c 251b 6d3c b97b a83d a45d 32bf
000000f0: 1185 c83d 19bc 5dbf 041b 6cbf ff87 94be
00000100: fad5 2abd 7a26 ab3e 6a8e 283f 2f73 8e3d
00000110: ccee c23c e3b1 f43d 215e 0bbe cea1 98be
00000120: 985a d1be b8d5 803d eeae c7bd df12 8bbe
00000130: cf65 e0be 3f6d 9d3e d7f6 c73e 871e 6e3e
00000140: 1b38 d73e 26e3 cf3b 197f a73e c0e6 8bbc
00000150: d821 013d 3522 f53d 6289 25be e256 813e
00000160: 8acd d5bb 409a 133e 0fca b0be d63e 06bf
00000170: aa7e febd 3e7f 933e 39b4 1e3d faf0 8f3d
00000180: 1adb 423e ddcb 233e 1aea 033e dbd3 143e
00000190: afe7 423e 1dbe a9bd e95a b2be d2da 923d
000001a0: 5c62 91bd 118a d03d 656e 273e d63a 583e
000001b0: c596 99be 93e1 743e b5d7 54be 0518 373f
000001c0: eea9 86bb b5b9 4dbe bc62 bcbe 0524 26bf
000001d0: 4b11 e8be ef4f 273f 6477 a23d 3646 bdbe
000001e0: ce60 68be 6457 1f3d abc9 513c eca0 433d
000001f0: f965 9b3d 3e3d 293e 901a 683d a339 cd3d
00000200: 11de 223e 8c7b 85bd 7d67 8a3b c4de 133d
00000210: 8670 74bd b6fe a63e b05e 4ebb 8307 143e
00000220: 403c 4e3d 905b babe d6a8 4dbe 40e7 e83d
00000230: ea6f 60bc 79d7 4a3e af27 8c3e 70a0 c6be
00000240: da4d 443d 87b4 a5bd 3be1 9cbd 9dea a73d
00000250: 084b 803d f4f0 57bd 1d0e 87bd 5134 953d
00000260: 931f 133e bfd1 353d a28d 4a3d 05a2 973d
00000270: b014 8e3d 5be0 7f3c ef7b 093e 7206 053e
00000280: 428a 66bc 0c21 95bd 94a7 95bc 743e 253e
00000290: 194c 253d 7569 34be 49ba 09be 8ef0 f63b
000002a0: f7a0 10bd 59bb b1bf 5608 cc3e 65b7 6cbe
000002b0: c830 ba3e 1531 c7bd 0849 673e b177 803d
000002c0: 8d6d 943d 7297 a03b 66d1 3cbd 04aa 373d
000002d0: 01c8 ff3b b5ca e0bd 917b 123e 1b5e 033e
000002e0: 52c7 8b3c 35a8 363c 66ec a13d 709d e03d
000002f0: 58f9 c9bd 113e 8abe 8de9 ccbd f49a bc3d
00000300: 7e92 113d 38c4 e8bd bb0c e2bc d1a8 4abf
00000310: 44bc 9c3e e420 0a40 e49a 993e d34e 3abe
00000320: 1ba5 2b3e 5961 25be 4bcf 673d 2eb8 c83c
00000330: 2894 8dbd 6137 bb3d a40c 07be 55d7 d3bb
00000340: d445 b4bd 5722 25bd b676 ed3d 5ee2 873b
00000350: 1d96 5c3d 8592 b63d d782 91bd 6b93 c23d
00000360: 133b d4bd c14d 0ebe 3733 73bd d92c babe
00000370: 0838 77bd 05b4 5e3c 78c5 833e 3797 973e
00000380: 603d c3be 0d8a 1abe 66f8 8ebe ec35 38be
00000390: c5b6 cd3d f307 aebc 8976 99bd 5636 02be
000003a0: e1cc 6abd 5813 453c 77d1 48bd 1d71 d33d
000003b0: 48ae 49bd 0147 b0bd 5283 db3d 70eb 823e
000003c0: 4c1f fa3d 66eb 223e 1460 6fbc 08cc 343d
000003d0: 1fe4 ea3c c157 4abe 26d3 13be 00fd cdbe
000003e0: 8b7d 1dbe 3603 ec3d 3d6f d3be 903c e63e
000003f0: f270 15be 082d b03e 3cb8 c1be 54e9 d93e
-0.01451859 0.029397331 0.01891163 0.018538352 -0.0054241675 -0.0346148 -0.8910656 -0.59731114
0.027241165 0.23721953 0.34909275 0.28860024 -0.17472735 -0.38362554 -0.7395529 -0.17904137
0.30322024 0.44646937 0.5334503 0.29302144 -0.04416088 -0.052800395 -0.57706237 -0.023540383
-0.023566788 -0.0068470584 -0.0018912555 -0.023647152 -0.016897624 -0.0018709984 0.4376991 -0.10690578
0.18351954 -0.9191776 -0.18366036 -0.47336644 -0.304297 0.18585849 0.7512385 0.3701443
0.05633219 -0.8939411 -0.3275158 -0.06868204 -0.49644572 -0.4604703 -0.4808246 -0.34051198
-0.160018 -0.7340612 -0.26887107 -0.81841654 -0.17142446 -0.25849244 -0.0015431984 -0.027583247
0.016074726 0.014471804 0.08226723 -0.69674134 0.097910054 -0.8661514 -0.9222872 -0.29010007
-0.04170797 0.33427793 0.65842307 0.06955563 0.023795508 0.11947992 -0.13610126 -0.29810947
-0.4088943 0.062907636 -0.09750162 -0.27162835 -0.43827674 0.3074741 0.3905551 0.23253833
0.42034993 0.006344217 0.32714155 -0.017077804 0.031526417 0.11969415 -0.16165689 0.252616
-0.0065247463 0.1441431 -0.34529158 -0.5243963 -0.12426503 0.28808016 0.038746092 0.070283845
0.19028893 0.15995736 0.12882271 0.14533941 0.19033693 -0.08288214 -0.34834984 0.07170643
-0.07098839 0.10182584 0.16350706 0.21116194 -0.2999784 0.23914175 -0.2078541 0.71521026
-0.0041096127 -0.20090373 -0.36794078 -0.6489871 -0.45325693 0.65356344 0.07932928 -0.3696763
-0.22693178 0.0389017 0.012804429 0.04776089 0.07587809 0.16527268 0.056665957 0.10020759
0.15905024 -0.06517705 0.0042237625 0.036101118 -0.059677623 0.32616204 -0.0031489544 0.1445599
0.050350428 -0.36397982 -0.20083937 0.113722324 -0.013698557 0.19808759 0.27374026 -0.3879428
0.047925808 -0.080910735 -0.07660147 0.08199046 0.06264311 -0.052720025 -0.06594489 0.07285369
0.14367513 0.044389483 0.049451478 0.0740395 0.069375396 0.015617455 0.13426183 0.1299074
-0.014071049 -0.07281694 -0.018268384 0.16137105 0.040355776 -0.17618354 -0.13449968 0.0075360006
-0.035309758 -1.3885299 0.3985011 -0.23116834 0.36365342 -0.097261585 0.22586453 0.06272829
0.07247458 0.004900866 -0.046098135 0.044839874 0.0078058247 -0.10976163 0.1430495 0.12828867
0.017062817 0.011148502 0.079064175 0.10967529 -0.09862012 -0.27000478 -0.10005484 0.092092425
0.035540096 -0.11365551 -0.027593961 -0.79163843 0.30612385 2.1582575 0.30000985 -0.18194132
0.16762201 -0.16150416 0.056594174 0.024501886 -0.06913024 0.09141422 -0.13188416 -0.0064648786
-0.08802381 -0.040315952 0.11594908 0.004146858 0.053854097 0.08914665 -0.07105034 0.09500774
-0.1036283 -0.13896848 -0.059375014 -0.3636234 -0.06035617 0.013592725 0.25736594 0.29607555
-0.38132763 -0.15091725 -0.27923888 -0.1798932 0.10044626 -0.021244025 -0.07493312 -0.1271604
-0.057324294 0.012028538 -0.049027886 0.10324309 -0.049238473 -0.08607293 0.10718407 0.2557025
0.12213001 0.1591011 -0.014610309 0.044139892 0.02867323 -0.19760038 -0.14436015 -0.40232086
-0.15379922 0.1152405 -0.41295806 0.4496808 -0.14593866 0.34409356 -0.37835872 0.42560828

encoder.0.bias f4 [64]
00000000: 4c12 5d3f 79cb 31bf 9a26 c7ba 2dd3 cd3e
00000010: e2ce a43f af83 71bf a441 7c3f 97e0 03be
00000020: dadf 5c3f eaf8 993d de06 933f c0ca ab3f
00000030: 1c52 ae3f 64fe 6c3f 0e87 373f 6e7a 743f
00000040: a42f 323f 48fb 573f f945 b73f ccd6 58be
00000050: 72ef d73f 9fa1 693f 527d 403f 4848 14be
00000060: 2d6c 563f b46d 8e3e 6829 4b3f 4b73 8e3f
00000070: 5dba f1bb f4d1 8c3f a64b e03e 41ac 183f
00000080: 066a fc3d 8288 0c3f 48b6 df3f 6ff2 923e
00000090: 3b13 ac3f 1226 7f3f 0e1e 713f fb46 02be
000000a0: 13c2 13be 576b 8f3e 5fd7 4a3f 0ca3 df3e
000000b0: 6c1c 813f 1abd ae3f 6dd2 143f 6352 4d3f
000000c0: 6229 133f 96fc 243f 540c c03d 9d5a a43f
000000d0: c407 a03d b1d5 a83f 434a 803f ef42 933f
000000e0: 9419 f73e 0287 98be c36e ce3e e3dd 763f
000000f0: 305b 74be d661 223f fe20 283f 2faa ba3e
0.86356044 -0.694511 -0.0015193999 0.40200177 1.2875636 -0.9434156 0.9853766 -0.12878643
0.8627907 0.0751818 1.1486471 1.3421249 1.3618808 0.9257567 0.7169045 0.9549931
0.69603944 0.843678 1.4318229 -0.21175689 1.6869948 0.9126224 0.75191224 -0.14480698
0.83758813 0.27818072 0.79360056 1.1128935 -0.0073769526 1.1001573 0.43807715 0.5963784
0.1232491 0.54895794 1.7477503 0.28700587 1.3443369 0.99667466 0.94186485 -0.1272239
-0.14429502 0.2801158 0.7923488 0.43679082 1.0086799 1.3651459 0.58133584 0.8020384
0.5748502 0.64447916 0.093773514 1.2840153 0.07813981 1.3190213 1.0022663 1.1504802
0.48261702 -0.29790503 0.4031888 0.9643232 -0.2386291 0.63430536 0.6567534 0.36457965

encoder.2.weight f4 [32, 64]
00000000: 406b 00be 0199 e3bd aa24 68bd d71e 00be
00000010: 19c1 36be 1b2e b73c 04c5 a2bd 6360 a33c
00000020: 8195 bc3a b0f7 2dbe e243 45bd 8d26 d1bc
00000030: da8f 13bd 629b 0ebe f0b7 f93a 971b 223c
00000040: 666f 843d 97c3 4f3d a784 bbbd 1403 843d
00000050: f7a4 1bbe 6a24 20be e2b1 d8bc 4f5f a3bd
00000060: f83c 083d c9e8 06be 38cc 0ebe 98ac 9abd
00000070: 4687 dcbd 93b7 c8bd c326 58bd 01c0 b0bd
00000080: df7c 3cbc 3d66 32be 3e20 1fbe d6ab d1bd
00000090: 9f3f 5fbd 4874 14be 87c6 27be cdb2 f5bd
000000a0: 2364 453d e61e 1cbd 55a4 613d 1cf8 3f3d
000000b0: 1d8a 0dbc be52 183d 0bfd 21be 6da7 d8bd
000000c0: 489a 3bbe 08ac 1d3d 074c 20bd a1c8 3cbd
000000d0: f2bb 1fbe 1bda a7bd af33 113d 54bd 10be
000000e0: 9b2a 0dbb 7769 28be 2dfd b13c 5d75 b5bc
000000f0: de5e 71bd c63d ac3c 2564 3ebd cf0e 38be
00000100: 2382 513d 1b71 4ebb 69be bbbd 9e6d 4cbd
00000110: e79c f63c 0116 0abc 4fc9 303d 9846 e1bc
00000120: 90d9 1f3d ccaa bfbd 3aa4 543d 9f1d c9bd
00000130: 8e6d b6bc 827c 32be 70d8 05be 2687 e03b
00000140: b3e7 30bd 6571 37bd e4c6 96bd 797a a7bd
00000150: 9b84 bebd 209c 1fbe ee5a 7d3d 20d8 58bc
00000160: e463 27be 1f64 e1bd c0f6 09be d6f5 bebd
00000170: 78af 363d 19f3 bbbd cc34 23be eb2b 35bd
00000180: 0be2 493b 9fa8 b5bd f446 36bc 10d3 aebd
00000190: fa69 febd ee8f 25be 7d6b 2ebe 722a 373b
000001a0: 8625 02be 5cb0 783b 5f35 053d 7549 3cbd
000001b0: d3a6 9abd a078 2abe 4473 a8bd 5d1c 3abe
000001c0: 32cd 0c3d 9c11 29be a91a 97bd 6e73 63bd
000001d0: 7f27 2abe a2d5 8abc 1036 39be 5e98 04be
000001e0: a895 b6bd f187 9d3c 7e1e f73b 220c 01be
000001f0: ab84 2fbe 78d0 ccbd 5929 0fbe 6abc ad3c
00000200: f8d0 f63d 23f7 c43d fb36 4abd 5307 39bc
00000210: ce5d f0bd a5a4 813c e1f9 963d 18f0 de3d
00000220: e07f cb3d 1401 8c3b 93de 363d c2f3 a3bd
00000230: 0196 e0ba b8cd 20bd a1a9 e6bd f750 c3bd
00000240: d221 773d 56c1 81bc 4a86 743e c8df 2e3e
00000250: 8b21 09be e341 19bb 13b7 1dbe 06ea 68bc
00000260: 7d62 afbd 48a0 cf3b 9ea0 49bc fcc6 14bd
00000270: b328 c53d 1d00 c6bd 1be6 3bbd 97bb 9c3d
00000280: b4ba 1b3d 4cb6 d03c 30ff efbd cd19 253d
00000290: 504e 1bbc 17e3 e2bd a0b8 59bc 279d 0b3d
000002a0: 170a 3ebe 6376 a63d 0a11 8abe a225 f7bc
000002b0: bcee 093d 91b7 36bd b9a5 103e ff0f dcbd
000002c0: 9464 a63d 1281 ddbd c607 e7bb de6a 773d
000002d0: 2aef 373d 3e68 aabd 4a55 5d3e 603d bcbd
000002e0: d58b 6d3d 4b4b 0ebd d46d bfbd e367 b1bd
000002f0: 418c 033d 2875 9f3d a966 c7bd 43df 073d
00000300: ea54 3cbd a819 84bc 4bb8 4b3d e584 0f3e
00000310: eeac f43b a438 b6bc 38b4 323e f97a 01bd
00000320: 3b0e 043e e734 01bd 3021 023c 1da0 643e
00000330: ce33 02bf 699f be3d 13c1 26bd 3368 19be
00000340: eb6c 51bc 2f6d dbbd dfab 2a3d 7616 cebd
00000350: d7a5 14be 234d 6dbd b2e7 013c c67e 2e3d
00000360: e810 b2bd 650a 07bc dffd b2bb a23b ba3d
00000370: 47eb 973d ad54 c1bf f960 003d b2a4 ba3d
00000380: 15d6 7cbd 02f8 be3c 8eb0 a6bf ea66 32bb
00000390: 260e 893d 43f6 a9bc 9ffe 403d 1857 803d
000003a0: 77fe 73bd 3bd8 a03d 6ac9 9bbe 5522 cbbc
000003b0: 57f4 01be be4e 1f3e 000c a93d c02d b1bd
000003c0: 4930 e83d c310 8f3d 5163 b6bc e82d b43c
000003d0: e40b 633e 5cf8 4d3e 2d2f a83c 0c4f 4fbd
000003e0: 9726 073e 0735 84bd 43db dfbe b0dd c73a
000003f0: 3406 cabc 2b00 393e 10b5 3cbf f20b 7cbd
-0.12540913 -0.111131676 -0.05667559 -0.12511764 -0.17847098 0.022360852 -0.07947734 0.019943422
0.0014387817 -0.16989017 -0.04816044 -0.025531078 -0.03602586 -0.13926461 0.001905201 0.009894273
0.0646656 0.05072364 -0.09156161 0.064458996 -0.15199648 -0.15638891 -0.026452009 -0.07977163
0.03326127 -0.13174738 -0.13945091 -0.07552451 -0.10767989 -0.09800639 -0.05277134 -0.08630372
-0.011504381 -0.17421813 -0.15539643 -0.10237853 -0.054504033 -0.14497483 -0.16384326 -0.11996994
0.0481912 -0.038115405 0.05508836 0.046867475 -0.008638886 0.037188284 -0.15819184 -0.10578809
-0.18320572 0.03849414 -0.039135005 -0.046089772 -0.15599039 -0.08195897 0.03544968 -0.14134723
-0.0021540287 -0.16446482 0.021727169 -0.02215069 -0.058928363 0.02102555 -0.046482224 -0.17974399
0.0511495 -0.0031500522 -0.09167177 -0.049909227 0.030104114 -0.008428098 0.043160733 -0.027499482
0.039025843 -0.09358749 0.05191443 -0.09820103 -0.022269037 -0.17430308 -0.13070846 0.0068520484
-0.043189716 -0.044785876 -0.07362154 -0.08177657 -0.09302636 -0.155869 0.061854295 -0.013235122
-0.16346699 -0.11005425 -0.13473034 -0.09324233 0.044600934 -0.091772266 -0.15938109 -0.044231337
0.0030804898 -0.088700525 -0.011125315 -0.08536351 -0.12422557 -0.16168186 -0.17033191 0.0027948883
-0.12709627 0.0037946915 0.0325216 -0.04596849 -0.075513504 -0.16647577 -0.0822511 -0.18174882
0.034375377 -0.16510624 -0.07378132 -0.055530004 -0.16616629 -0.016947571 -0.1808703 -0.12948748
-0.089152634 0.019229861 0.0075414767 -0.12602285 -0.17140453 -0.100007 -0.13980617 0.021208007
0.120515764 0.0961745 -0.04936884 -0.01129325 -0.11736642 0.015825579 0.07371879 0.10885638
0.099364996 0.0042725895 0.044645857 -0.080054775 -0.0017134548 -0.03925869 -0.11262823 -0.09536927
0.060334988 -0.01583926 0.23879352 0.17077553 -0.13391702 -0.0023385219 -0.15401869 -0.014215952
-0.08563707 0.0063362457 -0.0123063605 -0.03632258 0.096269034 -0.0966799 -0.045873743 0.076529674
0.03801985 0.02547755 -0.11718595 0.04030781 -0.00947912 -0.1107847 -0.013288647 0.03408542
-0.18558536 0.08128049 -0.26966125 -0.030169312 0.03367494 -0.044608656 0.14125718 -0.107452385
0.081246525 -0.10815634 -0.007050487 0.06040465 0.04490582 -0.08320664 0.21614566 -0.09191394
0.057994682 -0.034739774 -0.0934712 -0.08662393 0.03211618 0.07786018 -0.09736378 0.033171903
-0.045979418 -0.016125515 0.049736302 0.14015539 0.007466904 -0.022243805 0.1745156 -0.031611416
0.12896053 -0.031544592 0.007942483 0.22326703 -0.508603 0.09307749 -0.040711474 -0.14981155
-0.012782316 -0.107141845 0.041667815 -0.10062878 -0.14516388 -0.05793489 0.007928776 0.04260137
-0.08694631 -0.008242224 -0.0054623927 0.09093405 0.074179225 -1.5103966 0.03134248 0.091134444
-0.061727602 0.023311619 -1.302263 -0.0027221986 0.06692152 -0.02074731 0.047117826 0.06266612
-0.05956885 0.07853743 -0.30427104 -0.024796644 -0.12690865 0.15557382 0.08254242 -0.08651304
0.11337335 0.06985619 -0.022264155 0.021994546 0.22172505 0.20114273 0.020530308 -0.050612494
0.13198315 -0.06455427 -0.4372197 0.0015248563 -0.024661161 0.1806647 -0.7371378 -0.06153483

encoder.2.bias f4 [32]
00000000: 24b0 93bd 64a2 cd39 7acb 9f3e 2499 f03e
00000010: cde0 d73e 6b12 cc3c 57e7 8abd 6e91 15be
00000020: 7e78 a7bd 6b45 c9be d957 ad3e 6357 ba3e
00000030: 5fd6 85bd 4a5a 523e 1dd7 4e3e fb4a d93b
00000040: df56 21be 10b1 3a3d 8547 e23e 87a8 8e3e
00000050: ad64 453a 7362 ccbd 2c5a fc3d 42ae 6bbd
00000060: 2940 af3e 56b7 6abe bade d43e 89d9 fd3e
00000070: 364f 253d c876 503e 9f3a 883e 4ec7 953e
-0.072113305 0.00039221637 0.31209928 0.46991837 0.42163697 0.024911126 -0.06782406 -0.14606258
-0.08177279 -0.39310774 0.33856085 0.36394796 -0.06535029 0.20542255 0.20199247 0.006631253
-0.15755795 0.045579016 0.4419519 0.2786295 0.00075299555 -0.09979715 0.123218864 -0.057539232
0.34228638 -0.229215 0.41576177 0.4958003 0.040358745 0.20357811 0.26607224 0.2925362

decoder.0.weight f4 [64, 32]
00000000: f1b3 81be 7c2c 92be f8f8 b7be e6e9 8abe
00000010: faf1 b7be 6fc3 93be d6c1 f4bd 95d0 ddbd
00000020: 4bbf d23e 1ab1 16bd 4dd5 e4bd f7fb e8be
00000030: 82f3 94be 02c9 923d fd30 dcbe e702 e8be
00000040: 53fa 98bd f596 b4be c756 5abe eebf a2be
00000050: f2aa 51be 1eaf bfbe 3e6a adbe d7bb d9be
00000060: 77cb 9a3e f8a8 d03e f320 db3e bd37 b8be
00000070: aeff 6b3e 6258 cebe 3eb2 5bbe 2f3e 233e
00000080: 2875 03be bd08 98bd ca9a d73c 4e69 7d3e
00000090: 3df9 323d 046c 163e 99ae 9ebd e790 103e
000000a0: 62df 013e f177 dabd f15d 91bc 5718 893d
000000b0: bdde 3c3e 4125 efbe 0c46 74be c181 8a3d
000000c0: 46ae 13be 0d69 113e b8d9 2abe 51ea 993e
000000d0: 6b5d b1bd 8af9 343c ca32 abbd f31b d6bc
000000e0: adba 21be b10d ddbd 1a66 c23d ef2f 33be
000000f0: a0a4 91bc ef26 1e3d 2c69 a3bc 520c aa3c
00000100: 9918 e53d 9e79 46bc e2b4 e63c f60a 82bd
00000110: d148 903d 1986 413e 4456 c93d 1561 1c3e
00000120: e261 14be cd89 89bc 45d5 a0bd 7078 6cbe
00000130: 683f ae3d 2b69 2dbe 4ec5 11bd 79a8 0ebe
00000140: db57 f9bd c78c e53d af30 a63d 51ea d3bc
00000150: c8f6 a2bd 0490 293e 8b7d d4be cc4e 373e
00000160: 1cbb 0f3e 569e b23d d91b 073f 026b 3bbb
00000170: fd75 cfbd 8866 f63d 92c6 80bd 9737 c23d
00000180: 6ac3 bfbd 673c 8b3d 3401 babb e7d9 72be
00000190: 4368 efbd fcfa 0abe 4b7c 3bbe 9b4c f33d
000001a0: 16b7 2d3e 2460 e63d 15ba 4d3d 3d68 e7bd
000001b0: e429 22be 36c6 21be 8cfe d6bd 8d9e 893d
000001c0: 4588 a93c d485 c0bd 43c1 22be 6fa9 df3c
000001d0: e75d 51bd e838 b3bd dffd 3a3e 5bba 6abe
000001e0: f1d3 563d f624 c8bc 7b70 373e 4605 643d
000001f0: fdbd 2f3e ac5c 70be f41c e4bd 7046 1dbd
00000200: 45f1 d5bd cbe4 88be 7b74 edbd 354c 17be
00000210: 4bea 48be 73eb a9bd 21fe 6fbe ca9a b73d
00000220: db7d d83c 91ec 0f3e 0402 cbbc 7f5d a2bd
00000230: 0916 20be 7a38 64be 10d8 e93c 39fb 5abe
00000240: 35ef a33d 8877 46be 94e4 4fbe 1641 0dbe
00000250: cc46 8d3d 3673 31be c301 adbd f06b 5dbd
00000260: e477 03be 8fb8 7abd e499 8d3d 5c68 603e
00000270: ad18 6a3e f170 4cbe dc1b d0bd 1321 84bd
00000280: 0139 a5ba d355 f6bd a511 5dbb 10a4 99bc
00000290: 9b4e babd e84a 4fbd a265 f93d b6eb bbbd
000002a0: c24b c83d d14d 913d dc1a 823d 8217 833d
000002b0: ad3e 273d f157 b6bd 1b01 16be d46e 11be
000002c0: 3b68 0bbd 510b 02bd 34fd 843d 4287 97bc
000002d0: b39e 2dbe 889c d3bd f601 0c3d 540f 0d3e
000002e0: e484 c43d 3a6c f13d 8b8a f3bd 2554 a4bd
000002f0: 51b8 0c3e b419 23bd 1328 26be d2dd ffbd
00000300: 63ab ee3c 7921 23be d492 013d 506c 9dbe
00000310: 963f c3be da1b 4ebe 485d 5a3d 4a14 54be
00000320: 67dc ba3d 363b 2e3e 6bb1 88bd be3c d53c
00000330: 2013 61be 3934 68be bfd2 21bd 837c 9c3d
00000340: 8345 f0bd 1589 743d 2726 cf3d 568e 733e
00000350: 0968 f7bd 2d4a 5dbd b51f 43bd 181e fd3d
00000360: c155 183e f760 013e 8c76 70bd 011c 1bbc
00000370: be07 efba a486 dabd cb5e c43e 674e 2cbe
00000380: 8918 cbbd 7cba 0fbe c99a 7a3d 4ed6 05be
00000390: 92ae 21be 6693 e33d ebeb 963d bf4d 2bbe
000003a0: 4cde d1ba 334d bfbc 2439 473e 6fb9 77be
000003b0: ccf5 90bd 1ef5 86be 69d4 ca3d 5c9d 26be
000003c0: 7245 f23d 7e63 f23d b58d a03e b071 c23d
000003d0: f9e7 ba3d 0ff5 1abe 60dc abbd 7194 c6bb
000003e0: 37df e1bd 9a26 083c 41a2 633d e753 963d
000003f0: 9bbc 0bbe 81ef 2cbe ed3d abbd 814b ac3e
-0.25332597 -0.28549564 -0.35932136 -0.27131575 -0.359268 -0.28860041 -0.11951034 -0.108307995
0.4116157 -0.03678999 -0.111734964 -0.45504734 -0.29092032 0.071672454 -0.43006125 -0.45314714
-0.074696206 -0.3527142 -0.21322165 -0.31787056 -0.20475367 -0.3743829 -0.3387012 -0.42526123
0.30233356 0.40753913 0.42798576 -0.35980025 0.23046753 -0.40301806 -0.21454713 0.1594169
-0.1283766 -0.07423542 0.026318926 0.24747202 0.043694723 0.14689642 -0.077481456 0.14117776
0.1268287 -0.10667408 -0.01774499 0.066940956 0.18444343 -0.4670811 -0.23854846 0.0676303
-0.14421949 0.1420023 -0.16684616 0.30061582 -0.08660396 0.011045823 -0.083592966 -0.026136374
-0.15793867 -0.10793627 0.094921306 -0.17498754 -0.017778695 0.03861135 -0.01994761 0.020757828
0.11186332 -0.012113957 0.028162424 -0.06349747 0.070451386 0.1889881 0.09830907 0.15271409
-0.14490464 -0.016789341 -0.07853178 -0.23092818 0.085081875 -0.1693465 -0.035588555 -0.13931455
-0.1217496 0.11208492 0.081147544 -0.025868567 -0.07957226 0.16558844 -0.41502032 0.17901152
0.1403622 0.087216064 0.5277687 -0.0028597717 -0.10129926 0.12031275 -0.06287874 0.09483259
-0.09363444 0.0679863 -0.005676413 -0.23715936 -0.11689808 -0.13572305 -0.18309133 0.11879846
0.16964373 0.11248806 0.05022629 -0.11299179 -0.15836293 -0.15798268 -0.1049777 0.06719694
0.020694861 -0.09400526 -0.15894036 0.027302472 -0.051114943 -0.087510884 0.18260907 -0.22922651
0.052448217 -0.024431687 0.17914002 0.05566909 0.17162319 -0.23472852 -0.11138335 -0.038397253
-0.10446409 -0.26737055 -0.115944825 -0.14775164 -0.19620626 -0.082968615 -0.23436786 0.089650705
0.0264272 0.14055087 -0.024781235 -0.07927989 -0.15633406 -0.22287169 0.02854541 -0.21384896
0.080046095 -0.19381535 -0.2030204 -0.1379436 0.06898269 -0.17329106 -0.08447602 -0.054058015
-0.12838703 -0.061211165 0.06914118 0.2191481 0.22860976 -0.19964959 -0.10161564 -0.06451621
-0.001260549 -0.120280884 -0.003373244 -0.018754989 -0.09097024 -0.050608546 0.12177588 -0.09175818
0.09780075 0.070949204 0.06352779 0.06400968 0.040831257 -0.08903492 -0.14648859 -0.14202434
-0.03403495 -0.031749073 0.06493607 -0.018497113 -0.1695507 -0.1033259 0.034181558 0.13775378
0.095956594 0.11788221 -0.11891659 -0.08023862 0.13742186 -0.039819434 -0.16226225 -0.12493481
0.029134458 -0.15930738 0.031634167 -0.30746698 -0.3813445 -0.20127812 0.053311616 -0.20710865
0.0912407 0.17014775 -0.06674465 0.02602994 -0.21979952 -0.22676171 -0.039507624 0.07640936
-0.11732008 0.059701044 0.10114699 0.23784766 -0.1208039 -0.054025818 -0.04763766 0.123592556
0.14876463 0.12634645 -0.058706805 -0.009467126 -0.001823656 -0.10670212 0.3835357 -0.16826783
-0.09916789 -0.14035982 0.06118277 -0.13070032 -0.1578925 0.111120984 0.073692165 -0.16728877
-0.0016011684 -0.023352241 0.19455391 -0.24191831 -0.07078132 -0.26358885 0.09903795 -0.16270965
0.11829652 0.11835383 0.31358114 0.094943404 0.091262765 -0.15132545 -0.083916426 -0.006060176
-0.11028903 0.008309985 0.05557466 0.07340222 -0.13646166 -0.16888238 -0.08361421 0.33651355

decoder.0.bias f4 [64]
00000000: 5040 68be 3735 24bc 9358 b03d f24d ecbd
00000010: 6874 873a a9f3 be3c 6d27 9b3d c365 923d
00000020: 79ad 3a3e e2fd 0dbe 3873 183c b6ee 29bc
00000030: 516a 81bc 98a7 1cbe 4ca9 cabc 3009 5dbe
00000040: dc00 b8bd 9868 99bb db96 4ebe ad6f 75bd
00000050: 6c7a f23b cb08 3a3c 35e0 053e 1725 bebd
00000060: 37d6 45be 6aef 55be 26d7 2cbe 060e bcbe
00000070: 22c5 1fbe f571 493e 0d24 58bc 432b 80be
00000080: c638 c6bd 843d 573d 04c4 d0bd b5c6 f23d
00000090: 2b0d d73d 63c3 37be 4fa0 813d a717 c8bd
000000a0: ce8b 5ebe 43cb b73d 9f5e 613c 4370 bc3d
000000b0: 0881 4f3e 3472 06be 207e 683d 951d ba3d
000000c0: 5d82 76be 71d9 f2bd 2bf6 c83d 0a0e 7fbd
000000d0: 7b65 42be 77e5 de3d e17f c9bd b984 8e3c
000000e0: e4d3 17be c9fe 0a3e 976b debc 0a40 52be
000000f0: 6bc4 533e 8664 3b3e 77a8 f23d d17d cc3d
-0.22680783 -0.010022453 0.08610644 -0.115383044 0.0010334374 0.023309546 0.07575879 0.07148316
0.18230237 -0.1386638 0.009304814 -0.0103718545 -0.015797766 -0.15298307 -0.02473893 -0.21585536
-0.08984539 -0.004681658 -0.20174734 -0.059920955 0.0073998477 0.0113546355 0.1307381 -0.09284418
-0.19319998 -0.2089211 -0.16878948 -0.3672945 -0.15602544 0.19672377 -0.013192189 -0.25033006
-0.096787974 0.0525489 -0.10193637 0.118543066 0.105005585 -0.17945628 0.063294046 -0.09770136
-0.21733019 0.08974316 0.01375547 0.092011 0.20264065 -0.13129503 0.056760907 0.090876736
-0.24073167 -0.1185788 0.09812578 -0.062269248 -0.18984024 0.10883611 -0.09838844 0.017397271
-0.14826924 0.13573755 -0.027150912 -0.20532241 0.20680396 0.18300065 0.11848538 0.09984935

decoder.2.weight f4 [784, 64]
00000000: e0bf f63d ded7 92bd 080c e43c acff 7fbd
00000010: 5a60 9dbd 202a f9bc 70b1 403d b2a4 8cbd
00000020: 28b7 b83b 127f 80bd 0077 1ebe 9014 99bd
00000030: f1c1 dabb 1f2e 853c 0f2d 213d 2acd d9bd
00000040: 56b5 b4ba a6e4 edbd 944f 00bd c752 dfbd
00000050: a8c8 41bd a023 0fbe d7b2 98bd 3f2d cebd
00000060: 1084 603d 90b3 1bbc 4ac1 1abe 3643 923d
00000070: 70c8 023c dcda 9dbc 4e44 abbd a4bf 9ebd
00000080: 0009 173c 3847 21bd ca2c d0bd 8751 09be
00000090: f3f1 28be 4ce8 31bc 8450 19be c6bf 0ebe
000000a0: 468d d5bd 338d fbbd 0ad9 98bd 9888 a23d
000000b0: d27c 30bd b8bf 21be e04a 97bb 9899 d03c
000000c0: 10af b7bc fde2 c7bd 2222 40be 6a0d 59bd
000000d0: 6c5f 55bd a4bc 23bd a812 aa3c fcb5 de3d
000000e0: 24d0 19bd 42e2 93bc 84b8 0d3d e6d0 a6bd
000000f0: 6e8d 9b3d de51 2abd 00f8 29be 760d 9cbd
00000100: d49a 8e3d 1613 623c c009 a9bd 5cf3 a83d
00000110: c8fc fdbd a4a3 73bd 0438 35bd c209 abbc
00000120: 2f1a 42be 7452 243c fcc4 9dbc c989 30bd
00000130: b619 44bd 5ffd 4ebe 4201 dfbc 003c 7239
00000140: dcf5 44be d0f4 f63c 0081 08bd 827f 0ebe
00000150: 4c0b 7cbd 5642 b9bd a323 53bd cfef debc
00000160: d635 8dbd 40e4 20bc 96d7 413d deae 93bd
00000170: 44eb 133d 900e b5bc e781 d73c 8032 a23d
00000180: fe6a 803c a488 71bd 5210 f6bd 95b3 87bc
00000190: eb20 feba a006 05bd 3be4 a9bd 09a1 0dbe
000001a0: 78f3 90bd e226 283d a6c6 83bd 48e1 0f3d
000001b0: 9463 1dbd 3c2b 383c 4ad9 b03d 35a2 15bd
000001c0: 40f2 37bb 7342 18bd 305c 1bbe e7a6 2fbd
000001d0: e0e6 eb3b 008b 11be 92c4 b3bc 9748 31be
000001e0: 71be 2fbe 12db 50bd d118 453b 893d 0fbd
000001f0: e8ce 473c bdbf 3dbd 0145 66bd 7e8a 09be
00000200: e453 e23d 144e 74be 9cce d9bd 1423 e03d
00000210: 10e5 77bd 84c2 06bd 8c54 ac3d 61a4 323c
00000220: bd91 2abe cdeb b7bd 0885 883d e804 abbc
00000230: 2614 33bd ca46 a0bd 3415 86bc f86f 8e3c
00000240: d3fc 063d 9878 233d 6020 853b f21a 5dbd
00000250: cc0e adbd 2ac3 2fbe a8f9 82bd a048 32bc
00000260: 88ea 843d 5816 cbbc 9a65 83bd a0b5 38bc
00000270: bac0 94bd e811 75bc 9caf 0bbe 384d 84bd
00000280: 3ca5 a83d c8a3 563d 147c 33bd e824 16be
00000290: 8127 01be 585a 96bc 6846 42be 0e35 9c3d
000002a0: e098 6f3d 9194 dfbd 0071 f33c 7eb1 c9bd
000002b0: fca2 e4bc ce7a 0c3d 348b b73d 0007 96ba
000002c0: e93c 193d e47d 983d fead 0cbe 61d6 debd
000002d0: 1087 4dbd 34ba af3d 308f 973c 2885 d6bc
000002e0: e053 7f3d 1184 1abe eec6 bcbd 8a65 e63d
000002f0: 15c2 86bd 860a 0abe c213 35be cc78 98bd
00000300: b891 f4bc 8065 19bb 0f0f fcbb 0897 ef3d
00000310: 1cba f9bd 1a65 bf3d 94ac 563d 3d5c edbd
00000320: 1171 32be 700d 44be 70c7 46bd fe3d 5dbb
00000330: c5ac 0cbe a0b7 cb3b 63c3 173d 3a96 a8bd
00000340: 570b d7bd 02b5 cfbd 94eb 40be 8a98 d9bc
00000350: fc0e 7f3d d925 3b3d f8a2 48bd 64d5 0b3d
00000360: 40b9 27bc 28cb 04bd ae3c 07be ce65 cb3d
00000370: 3aaf b43d 4cda 26be 146d 4e3d 40e5 ab3b
00000380: 5217 fc3d e67c c3bd c8f9 973d a97a c43c
00000390: 422a b7bd a041 753d a826 46be 8251 f7bd
000003a0: d020 423d 1d65 f9bd bcd2 e93d 400d d4bd
000003b0: 0552 d6bb 4bd0 89bd 4aeb d9bd 9879 90bd
000003c0: 7ed9 8a3d 016c f2bc fd73 3d3d d81b ec3c
000003d0: c6bd f53d 3f9f e9bb fb72 a1bd 3bdb 09bd
000003e0: 0318 0fbe 52fd 99bd 0744 2bbe 84ca aebd
000003f0: fcd8 e5bd 6baf 0cbe 4162 4a3c 14e3 7cbd
0.12048316 -0.0717008 0.027837768 -0.062499687 -0.07684393 -0.030415595 0.047044218 -0.06867351
0.0056370683 -0.06274237 -0.15475082 -0.07474625 -0.0066759516 0.016257344 0.03934961 -0.10634835
-0.0013786952 -0.11615877 -0.03132589 -0.109044604 -0.0473105 -0.13978434 -0.07455986 -0.10067224
0.054813445 -0.00950326 -0.15112796 0.07141726 0.007982358 -0.0192694 -0.083626375 -0.07751396
0.009218454 -0.03937456 -0.10164793 -0.13410006 -0.16498546 -0.010858607 -0.1497212 -0.13940343
-0.104273364 -0.12282791 -0.07463272 0.079362094 -0.043087788 -0.15795791 -0.00461708 0.025463864
-0.022422343 -0.097600915 -0.1876302 -0.05299131 -0.052092955 -0.039974824 0.02076085 0.108745545
-0.037552014 -0.018052224 0.034599796 -0.08145313 0.07595335 -0.04158198 -0.1659851 -0.07619755
0.06963125 0.013798496 -0.08253813 0.08249542 -0.1240173 -0.05948223 -0.044242874 -0.020878676
-0.18955301 0.010029424 -0.019258969 -0.043100152 -0.047876082 -0.20213841 -0.02722228 0.0002310127
-0.19234413 0.030146033 -0.03332615 -0.13915828 -0.06153421 -0.09045856 -0.051547658 -0.027213959
-0.06895034 -0.009820044 0.04732474 -0.07211088 0.03611304 -0.02210167 0.02630706 0.07919788
0.015676018 -0.0589682 -0.120148316 -0.016565124 -0.0019388472 -0.03247702 -0.08295485 -0.13830961
-0.07077688 0.041052707 -0.064343736 0.035126954 -0.038425043 0.011240777 0.086351946 -0.036531646
-0.0028067976 -0.037172746 -0.15171885 -0.04288378 0.0071991533 -0.1421318 -0.021944318 -0.17312847
-0.17162491 -0.05099017 0.0030074606 -0.034970794 0.012195326 -0.046325434 -0.05621815 -0.13431737
0.11051157 -0.2385791 -0.10635111 0.109441906 -0.060521185 -0.03290035 0.084145635 0.010903449
-0.16657157 -0.08980522 0.06665999 -0.020876363 -0.043720387 -0.07826002 -0.016367532 0.017387375
0.032955956 0.03990993 0.0040626973 -0.053980775 -0.08450088 -0.17164293 -0.063952744 -0.010881573
0.06490046 -0.024790928 -0.06415863 -0.0112737715 -0.07263322 -0.014957882 -0.13641208 -0.06460041
0.08234641 0.052402288 -0.043819502 -0.14662516 -0.12612726 -0.018353626 -0.1897217 0.07627307
0.058495402 -0.10917009 0.029716969 -0.09848307 -0.027909748 0.034296803 0.08962098 -0.0011446178
0.037411604 0.07445887 -0.13738248 -0.10880733 -0.050177634 0.08580437 0.018500894 -0.02618654
0.06233585 -0.15089442 -0.0921763 0.11249836 -0.06579987 -0.13480577 -0.17683318 -0.07444915
-0.02985464 -0.0023406446 -0.007692225 0.11698729 -0.12193701 0.093454555 0.052410677 -0.11589859
-0.17425944 -0.19145751 -0.048530042 -0.0033758874 -0.13737781 0.006216958 0.03705157 -0.082317784
-0.1050021 -0.101419464 -0.18839866 -0.026561994 0.06227015 0.04569039 -0.048983544 0.034139052
-0.010237038 -0.032420307 -0.13206741 0.09931527 0.08822484 -0.16294211 0.050396994 0.0052458346
0.123091355 -0.09545307 0.07420689 0.02398427 -0.08943607 0.059877038 -0.19350684 -0.12076093
0.047394574 -0.12177489 0.114171475 -0.1035409 -0.006540539 -0.06729182 -0.10640581 -0.07054442
0.067797646 -0.029592516 0.046253193 0.02882187 0.11999087 -0.0071295793 -0.07883259 -0.03365634
-0.13974003 -0.0751902 -0.16725169 -0.085347205 -0.11223027 -0.13738792 0.012352527 -0.061739996

decoder.2.bias f4 [784]
00000000: 913e 423c 08d4 b3bc 8943 513c d6d7 bfbd
00000010: ab27 13be 6432 29bd 75b5 1fbe 1c69 8dbc
00000020: d9cf 9cbd d37a 21be 45e8 aabd a922 0fbe
00000030: 881f 2dbe 6da9 03bd b8e0 3fbe f7bd 0abe
00000040: b767 3abe d06d de3c c018 b03c 4df2 e3bc
00000050: c077 0bbd 8dcc 24be 2c48 1fbd 3e0a 1dbe
00000060: 455c 2bbe d9d8 f23c 2645 b6bd 704e 38be
00000070: 9daa 0bbe 2b3f 6fbd f959 42bb 4d6e 42be
00000080: 0a7f 08bd 7a93 89bd e884 60bb 4e60 9cbd
00000090: 3b28 1abe fbcf 74bd 4bfc 36be 4731 d53b
000000a0: 8811 fcbb 12ef 643b 4cf3 ca3c 2f02 bebd
000000b0: c39c b1bb b60c e8bd 6dae 25be 9a4c 85bd
000000c0: 05b5 23be 1c92 4cbd feeb 32be 9ca4 76bc
000000d0: b5a3 e4bd 9bbb 97bd a183 c83c a01a f93c
000000e0: 1481 f8bd 09df a7bd 8633 d1bd dd3f 60bd
000000f0: 4d1b 17bd be4d c9bd 7587 a8bd c607 6dbe
00000100: a385 8abc 7c6d f5bd 020e 973c ba2e d8bd
00000110: 2cb6 24be 36fe e8bc 1ac0 34be 93f4 a13c
00000120: a179 f4bc 6ad5 b1bd ef06 10bd 8e69 c5bd
00000130: d8f5 66bd 2118 01bd 8a91 383c 4ef7 afbd
00000140: a981 09be c5eb bfbd 1db9 83bc 6c62 babc
00000150: 9762 9dbd cd0d dfbd edbb 35bd b706 d6bd
00000160: 35e1 50bc b07b 33bd 679b 4cbe a118 d4bd
00000170: 0451 01be a6c0 2fbd ef67 b8bd fd84 9bbd
00000180: 953a 173d e860 2ebe a2b8 04be 4a96 babc
00000190: 7b06 81bd fbaa 43bd 2f95 c3bd 4068 6ebe
000001a0: a3de 19be 89e5 22be 457a 2dbe ce0e 88bd
000001b0: c2ba 483d fdd9 dabd 2cdf 84bd 6629 a4bd
000001c0: 6bad 1bbe ffb7 2cbd 5717 6fbc 94a2 0fbe
000001d0: ce3a 10bd fa1e 623d 1b6a a6bd 4773 50bd
000001e0: c832 a1bd 052a 24be f3f2 37be 0ac2 09be
000001f0: 99f2 debd 2acd 823d 9a56 99bd 12e9 36be
00000200: 16f8 0dbe 48be 58be 4fe9 97be ed7f acbe
00000210: 4dc0 4cbd d62b 29be 8994 8fbd 24cf e4bd
00000220: 02e9 203a db66 36be 0290 c2bd 0026 b3bd
00000230: 015d 00be 9577 febd 65d9 d0bb a012 e6bd
00000240: 19d8 cfbd bbd7 35be 8860 603c 6336 05be
00000250: 14e3 c9bc 9fbd 5b3d 6abd 6d3d a1b4 483e
00000260: 807c 6f3e 9366 233e 4002 2e3c 1821 9ebe
00000270: 049a f8bd 03e3 22be fc63 cfbe 6a95 a1be
00000280: d2e9 94be 53ab 8fbe 15fc e9bc ceb3 efbc
00000290: 52b9 cfbc 02e1 1fbd d92b 3dbe ccad dabd
000002a0: c7f4 263d 049d b4bd 5de1 adbd f32c b7bd
000002b0: 269c d0bd 38d3 89bd cb58 12be e0ba 88bb
000002c0: 01aa 04be 0970 bb3b 8f09 533e f550 383e
000002d0: 480b 413e 2050 4c3e 54a7 1a3d 51e1 9e3d
000002e0: 8768 36bd 9317 8ebd ab85 14be c8d4 32be
000002f0: dd28 a8be 3cca 41be 5346 98ba 5ebc afbd
00000300: 013e 96bc 600e 4cbe ac94 e0bd 61a7 0dbe
00000310: 731c 00be 10f0 c7bb 1fb7 8139 5beb 04be
00000320: 884a 1abe 4051 d4bd 667b b7bb c084 b0bc
00000330: 5d27 1dbc bc99 ce3d f041 f83d 5672 183e
00000340: 954b 8a3e bca0 bb3d 4386 c43d 3925 a9bc
00000350: f2bc 00be a64d 023d 2669 06bd da77 49be
00000360: 138b 33be c267 37be 4bb5 05be 273c 48bd
00000370: c3a0 12be 12af 4cbb 8498 10be df52 16be
00000380: 2214 d3bd f30f e93c 529d debd 0f41 01be
00000390: b366 46bc 2673 46bd f4c6 1ebd a540 b2bc
000003a0: 331e f63d 4310 013e f03e 383e 2bd1 813d
000003b0: 072b 1a3e e981 773d f475 e7bc a6c4 4cbd
000003c0: 3f16 90bd 72ec 123d 3a1d d53c 266d ebbd
000003d0: 3301 e4bd c145 09be d204 0ebe ec8c 81bd
000003e0: ef95 14be 61ca bebd f324 27be 56b6 033d
000003f0: ab88 323c 8484 2cbe eb8e d9bd ff74 25bc
0.011855737 -0.02195169 0.012772449 -0.09367339 -0.14370601 -0.041307822 -0.15596564 -0.017262034
-0.07656831 -0.1576951 -0.08345083 -0.13978066 -0.1690656 -0.032144 -0.18738067 -0.13549028
-0.18203627 0.027151972 0.021496177 -0.027825499 -0.03404975 -0.16093655 -0.038887188 -0.15335938
-0.16734417 0.029644417 -0.08899908 -0.17998672 -0.13639303 -0.05840985 -0.0029655679 -0.18987389
-0.03332428 -0.06717582 -0.0034258906 -0.07635556 -0.15054409 -0.059768658 -0.1786968 0.0065061185
-0.0076925196 0.0034932536 0.024774216 -0.0927776 -0.005420299 -0.113305494 -0.1617982 -0.06508751
-0.15987022 -0.04994403 -0.17472836 -0.015053894 -0.11164037 -0.0740883 0.024476828 0.030408204
-0.12133995 -0.081968375 -0.102149054 -0.054748405 -0.03689127 -0.09829281 -0.082289614 -0.23147497
-0.016909426 -0.11983773 0.018439297 -0.105557874 -0.16085118 -0.02844153 -0.17651406 0.019769942
-0.029843153 -0.086832836 -0.035162862 -0.096392736 -0.0563868 -0.03151715 0.011265168 -0.085920915
-0.13428368 -0.09371141 -0.01607948 -0.02275201 -0.0768482 -0.10891304 -0.044368673 -0.104504995
-0.012749006 -0.04381913 -0.19981156 -0.1035626 -0.12628561 -0.042908333 -0.09004199 -0.07593725
0.036921103 -0.17029154 -0.12961057 -0.022776742 -0.06300064 -0.04777048 -0.09549939 -0.23281956
-0.15026335 -0.15907873 -0.16941173 -0.06643449 0.04900623 -0.10686109 -0.06487879 -0.080157086
-0.15202872 -0.04216766 -0.014592967 -0.14026862 -0.03521233 0.055205323 -0.08125707 -0.050891187
-0.07871014 -0.16031654 -0.17963772 -0.13452926 -0.108861156 0.06386788 -0.07487221 -0.17862347
-0.13864169 -0.21166337 -0.29670188 -0.3369135 -0.04998808 -0.16520628 -0.07010753 -0.111723214
0.00061382365 -0.17812674 -0.095001236 -0.08747482 -0.12535478 -0.12425152 -0.0063735717 -0.11234021
-0.10148639 -0.17758076 0.01369489 -0.13009028 -0.024644412 0.053647634 0.058041967 0.19600154
0.23387337 0.15957098 0.010620654 -0.30884624 -0.12138751 -0.1590691 -0.4050597 -0.31559306
-0.2908464 -0.28060398 -0.028562585 -0.029260542 -0.025356922 -0.039032944 -0.18473758 -0.106776804
0.04076078 -0.08819011 -0.0849025 -0.0894412 -0.10186033 -0.0672974 -0.14291684 -0.004172668
-0.12955476 0.0057201427 0.20609115 0.17999633 0.1885196 0.1995244 0.037757233 0.077578194
-0.04453328 -0.0693809 -0.14504115 -0.17463982 -0.32843676 -0.18924803 -0.0011617638 -0.0858085
-0.018340113 -0.19927359 -0.10965857 -0.13833381 -0.12510853 -0.0061016157 0.00024741233 -0.12980406
-0.15067494 -0.1036706 -0.005599427 -0.021547675 -0.0095919045 0.10087916 0.121219516 0.14887366
0.2701079 0.09161517 0.09595921 -0.020647632 -0.12572077 0.031812333 -0.03281512 -0.19674626
-0.17533521 -0.17910674 -0.13057439 -0.04888549 -0.14319138 -0.003123228 -0.1412068 -0.1468005
-0.103065744 0.028449988 -0.1086985 -0.12622474 -0.012109446 -0.048449658 -0.038763955 -0.02175934
0.12017479 0.1260386 0.17992759 0.06338724 0.15055476 0.060426626 -0.028254487 -0.049992226
-0.07035493 0.035870023 0.026014913 -0.11495428 -0.11133041 -0.13405515 -0.13869026 -0.06325707
-0.1451032 -0.093159445 -0.16322689 0.03215631 0.010896842 -0.16847426 -0.106229626 -0.010098695
