2022051870.pt (torch, 424079 bytes, 8 tensors)

encoder.0.weight f4 [64, 784]
0	0xbc6ddf61	-0.01451859
1	0x3cf0d2ac	0.029397331
2	0x3c9aec90	0.01891163
3	0x3c97ddbe	0.018538352
4	0xbd58ec1e	-0.052959554
5	0xbe17c426	-0.14820918
6	0xbf93c37b	-1.1544031
7	0xbf977837	-1.1833562
8	0xbe8a7007	-0.27038595
9	0xbd25dac6	-0.04049184
10	0x3e989efb	0.29808792
11	0x3e38f8e9	0.18063702
12	0xbed42820	-0.41436863
13	0xbe840be3	-0.2579032
14	0xbf36703d	-0.7126501
15	0xbf25cbfa	-0.6476437
16	0xbeb1d05e	-0.34729284
17	0xbded16ec	-0.115766376
18	0x3e06f882	0.13180736
19	0xbdab6fec	-0.08370957
20	0xbf223540	-0.63362503
21	0xbed4c6fa	-0.41558057
22	0xbf4e8496	-0.8067106
23	0xb9d4dc8e	-0.00040600117
24	0xbcc10f23	-0.023566788
25	0xbbe05d4a	-0.0068470584
26	0xbaf7e401	-0.0018912555
27	0xbcc1b7ac	-0.023647152
28	0xbc8a6ce3	-0.016897624
29	0xbaf53c4a	-0.0018709984
30	0x3f2d7e68	0.67771006
31	0xbcd04584	-0.025423773
32	0x3d9e5c47	0.07732444
33	0xbf367c75	-0.71283656
34	0xbf4a2c31	-0.7897368
35	0xbfbf49f3	-1.4944443
36	0xbfe7c2c9	-1.8106319
37	0xbed5e5da	-0.41776925
38	0x3ef568e8	0.479316
39	0x3f18a305	0.5962375
40	0x3e0a622e	0.13514015
41	0xbf87e4d5	-1.0616709
42	0xbe9552ff	-0.29164883
43	0xbe90afec	-0.28259218
44	0xbf62644e	-0.884343
45	0xbf48938a	-0.78350127
46	0xbf7a3405	-0.97735626
47	0xbef56041	-0.47924998
48	0xbe5da4df	-0.21644925
49	0xbf37d6d8	-0.718122
50	0xbe611bd9	-0.2198328
51	0xbfc77e0a	-1.5585339
52	0xbe98e6e8	-0.29863667
53	0xbe18466c	-0.14870614
54	0xbaca4525	-0.0015431984
55	0xbce1f643	-0.027583247
56	0x3c83af25	0.016074726
57	0x3c6d1b25	0.014471804
58	0x3e8cc1fa	0.27491742
59	0xbf030a95	-0.5118802
60	0x3e9beff8	0.3045652
61	0xc018426b	-2.3790538
62	0xbfbc12d3	-1.4693245
63	0xbf78d2d5	-0.97196704
64	0xbf938c10	-1.1527119
65	0x3cfc773e	0.030818578
66	0x3f10ce2c	0.56564593
67	0xbdf9724f	-0.12180006
68	0x3e969d15	0.2941672
69	0xbdecead0	-0.115682244
70	0xbec7e35f	-0.39040658
71	0xbea5d4d2	-0.32388932
72	0xbec01a95	-0.3752028
73	0xbeb6c9d6	-0.35700864
74	0xbea2dfa0	-0.31811237
75	0x3e3dcb0c	0.18534487
76	0xbef8fc73	-0.48630103
77	0xbd791adc	-0.06081663
78	0x3e51bafd	0.20481487
79	0x3e247c79	0.16063108
80	0xbd2ed3c3	-0.04268242
81	0xbe66c970	-0.2253778
82	0x3e3042eb	0.17213027
83	0xbc8be6c0	-0.017077804
84	0x3d0121d8	0.031526417
85	0xbe007c64	-0.12547451
86	0x3bae4584	0.0053183455
87	0xbdb3be5c	-0.087765425
88	0xbf1fe2fb	-0.6245572
89	0x3d179b09	0.037013087
90	0x3c779c47	0.015112943
91	0xbf384baa	-0.71990454
92	0xbe98681c	-0.2976693
93	0x3e0033b1	0.12519719
94	0x3d2bb213	0.04191787
95	0x3e101cbe	0.14073464
96	0x3cb96829	0.022632675
97	0x3e0e1541	0.13875295
98	0x3dafd60f	0.0858575
99	0x3db12dfb	0.08651348
100	0x3e0a5904	0.1351052
101	0xbe3177af	-0.17330812
102	0xbe61543c	-0.22004789
103	0x3e2cbac6	0.16868123
104	0xbed2b005	-0.41149917
105	0x3e7885b4	0.24269754
106	0x3c85a4b2	0.016313884
107	0xbcf7e188	-0.030258909
108	0xbf5b7fe2	-0.8574201
109	0x3ec61d40	0.3869419
110	0xbe9d5884	-0.30731595
111	0x3f23e79a	0.6402527
112	0xbb86a9ee	-0.0041096127
113	0x3e3c501e	0.18389937
114	0xbf275aca	-0.6537291
115	0xbebf8bcb	-0.3741134
116	0xbf1d7b36	-0.6151613
117	0x3f26ec35	0.65204173
118	0x3d25fa46	0.040521882
119	0xbe5357fd	-0.20639034
120	0xbebf5948	-0.37372804
121	0x3def09dc	0.116718024
122	0x3cf4a0a6	0.02986176
123	0x3de8b8e8	0.11363393
124	0xbcb1791e	-0.021664198
125	0x3d42e955	0.047585804
126	0x3cf47efd	0.029845709
127	0x3de4569a	0.111493304
128	0x3e343697	0.1759895
129	0x3c3ad422	0.0114031155
130	0xbda6e2c5	-0.081487216
131	0x3d7877b2	0.060661025
132	0xbd9e40ac	-0.07727179
133	0x3e8d6155	0.2761332
134	0x3dbafef8	0.09130663
135	0xbd846a3f	-0.06465577
136	0x3dbee09b	0.09320184
137	0xbf98286b	-1.1887335
138	0x3e9e0b1d	0.30867854
139	0xbeba70ef	-0.36414286
140	0xbc606fea	-0.013698557
141	0x3bbd9aa1	0.0057862555
142	0xbc8c6d46	-0.01714195
143	0xbf10ff22	-0.566393
144	0x3d89f921	0.06736971
145	0xbeab63cf	-0.33474585
146	0x3d2b01a5	0.041749615
147	0x3cc98123	0.02459771
148	0x3d8a2bf5	0.067466654
149	0xbdc95bf1	-0.098319896
150	0xbded9a94	-0.11601749
151	0x3c46790a	0.012113819
152	0x3d649092	0.055801935
153	0x3d326411	0.043552462
154	0x3d5cb7e8	0.053886324
155	0xbb943cf4	-0.0045238677
156	0x3d89a826	0.06721525
157	0x3e04465f	0.1291747
158	0x3e17ff61	0.14843513
159	0x3dfabcd3	0.122430466
160	0xbc0c174f	-0.008550479
161	0xbde5f285	-0.112278976
162	0xbdc41d3e	-0.0957589
163	0xbd252d21	-0.04032624
164	0x3eecad35	0.46225896
165	0xbf4f2dd3	-0.809293
166	0xbeef6cd8	-0.4676273
167	0x3cd75b6e	0.026288714
168	0xbd10a0f7	-0.035309758
169	0xc0031b63	-2.0485466
170	0x3eb7749e	0.3583116
171	0xbeca7f1e	-0.39550108
172	0x3f1ec472	0.620185
173	0xbdd88fa0	-0.10574269
174	0x3b8dd74a	0.004328643
175	0xbd81ca06	-0.06337361
176	0x3d7e6911	0.062111918
177	0x3cf14ece	0.029456522
178	0xbd6697d9	-0.056297157
179	0xbd0692f3	-0.032854985
180	0xbd76e0c4	-0.060272947
181	0xbd5d5935	-0.054040153
182	0xbdb6affc	-0.08920285
183	0x3d953143	0.072847866
184	0x3c9d921b	0.019234708
185	0xbd0ee9d2	-0.034890957
186	0x3e08e6b8	0.13369262
187	0x3e288af5	0.16459258
188	0xbe3ef937	-0.18649755
189	0xbdca3c09	-0.09874732
190	0xbdbaa8b7	-0.09114211
191	0x3e1ce1a1	0.15320446
192	0xbe0f3aed	-0.13987322
193	0xbf0ee3f7	-0.55816597
194	0x3eb15db0	0.3464179
195	0xbf7cbe13	-0.9872753
196	0x3e9b3b56	0.30318707
197	0x3feaac29	1.8333789
198	0x3ddf4471	0.10901726
199	0x3e7d3640	0.24727726
200	0xbeb8ef80	-0.36120224
201	0xbb393bf6	-0.00282645
202	0xbdb79d2b	-0.08965524
203	0x3d16fc8d	0.036861945
204	0xbe2f29a6	-0.17105731
205	0x3de14962	0.11000325
206	0xbe2a537f	-0.16633414
207	0x3dd53a85	0.10411552
208	0xbda65c12	-0.0812303
209	0xbdbd4db6	-0.09243338
210	0x3d8dedb3	0.06930103
211	0xbd76f98b	-0.060296576
212	0xbd15c6f4	-0.03656669
213	0x3dbcd482	0.0922022
214	0xbdc504b5	-0.096200384
215	0x3b6a39a6	0.0035739928
216	0xbe0aa6bb	-0.13540165
217	0xbdb88306	-0.09009366
218	0xbd6b091b	-0.05738173
219	0xbecaadbf	-0.39585683
220	0x3e58106f	0.21100019
221	0xbed96753	-0.42461643
222	0x3dd8354d	0.10557041
223	0x3e14e17b	0.14539139
224	0xbf20dd82	-0.62837994
225	0xbf3a6478	-0.72809553
226	0xbd7131c7	-0.058885362
227	0x38d341a6	0.00010073492
228	0x3e6b1284	0.22956282
229	0xbe1505e2	-0.14553025
230	0xbb4a9c91	-0.0030916075
231	0xbd956aac	-0.07295737
232	0xbdeddbb1	-0.116141684
233	0x3bdb2ba4	0.006688552
234	0xbcee03d7	-0.029054565
235	0x3dbc422f	0.09192311
236	0x3ca32ccd	0.019918824
237	0xbd0cab9f	-0.034343358
238	0x3dbc434f	0.091925256
239	0x3d40e0c1	0.047089342
240	0x3dfcd694	0.12345615
241	0x3cba1f90	0.022720128
242	0xbc2a8de0	-0.010409802
243	0x3db44f9d	0.088042475
244	0xbd78d6cc	-0.06075172
245	0xbd942485	-0.07233528
246	0x3da00ab1	0.07814539
247	0xbec59a45	-0.3859426
248	0xbda2a445	-0.07941488
249	0xbf1a4659	-0.6026359
250	0xbf7329a5	-0.9498542
251	0x3f9ebd60	1.2401543
252	0x3dc5dccd	0.09661255
253	0x3f3659e9	0.7123094
254	0xbd9d18db	-0.076707564
255	0x3dd87349	0.10568864

encoder.0.bias f4 [64]
0	0x3fd191fa	1.6372674
1	0xbf470139	-0.7773624
2	0xbe43b101	-0.1911049
3	0x3f928927	1.1448106
4	0x3fec69eb	1.8469824
5	0xbf9ebac5	-1.2400748
6	0x3fe418c8	1.7820063
7	0x3d7017d3	0.05861647
8	0x3f85080b	1.039308
9	0x3dcb7efd	0.099363305
10	0x3fc6ded6	1.5536754
11	0x3fce3ed3	1.6112922
12	0x3fe58080	1.792984
13	0x3fc6067e	1.5470731
14	0x3fcc597b	1.5964807
15	0x3fa95641	1.3229448
16	0x3fc23b81	1.5174409
17	0x3fa9f061	1.3276483
18	0x3ff21dc9	1.891534
19	0xbe455743	-0.19271569
20	0x3ffd055e	1.9767263
21	0x3fb53cfb	1.4159235
22	0x3edfbb54	0.43697608
23	0x3df519fc	0.11967847
24	0x3f8b10b2	1.086447
25	0x3f2970db	0.6618783
26	0x3fb9001c	1.4453158
27	0x3fd9de4a	1.7020962
28	0xbd1ea419	-0.038730714
29	0x3f9e0c1e	1.2347448
30	0x3f3c2c7b	0.7350537
31	0x3eebbdd9	0.4604328
32	0x3df34ac0	0.11879492
33	0x3f6859e2	0.9076215
34	0x40185432	2.3801389
35	0x3e961189	0.29310253
36	0x3fbb00fa	1.4609673
37	0x3fc79299	1.5591613
38	0x3faa3f12	1.3300498
39	0xbe806a33	-0.25081024
40	0xbdd0af41	-0.10189677
41	0x3e95e86d	0.2927889
42	0x3f0723ce	0.5278901
43	0x3f487efc	0.7831876
44	0x3fd9d982	1.7019503
45	0x3fec9e1a	1.8485749
46	0x3f9da8b9	1.2317115
47	0x3f86ac55	1.0521342
48	0x3f094e0b	0.5363471
49	0x3f198448	0.5996747
50	0xbd637b35	-0.05553742
51	0x3fe292d2	1.7701056
52	0x3cd3140b	0.025766393
53	0x3fe561ae	1.7920434
54	0x3fd0724d	1.6284882
55	0x3fcaa059	1.5830184
56	0x3f24b3a4	0.6433661
57	0xbedee7d0	-0.43536234
58	0x3e86b350	0.2630868
59	0x3faa28d6	1.3293712
60	0xbca71860	-0.020397365
61	0x3f8a571d	1.0807835
62	0x3f4c0143	0.79689425
63	0x3f4f4eff	0.80979913

encoder.2.weight f4 [32, 64]
0	0xbe006b40	-0.12540913
1	0xbde39901	-0.111131676
2	0xbd6824aa	-0.05667559
3	0xbe001ed7	-0.12511764
4	0xbe36c119	-0.17847098
5	0x3cb72e1b	0.022360852
6	0xbda2c504	-0.07947734
7	0x3ca36063	0.019943422
8	0x3abc9581	0.0014387817
9	0xbe2df7b0	-0.16989017
10	0xbd4543e2	-0.04816044
11	0xbcd1268d	-0.025531078
12	0xbd138fda	-0.03602586
13	0xbe0e9b62	-0.13926461
14	0x3af9b7f0	0.001905201
15	0x3c221b97	0.009894273
16	0x3d846f66	0.0646656
17	0x3d4fc397	0.05072364
18	0xbdbb84a7	-0.09156161
19	0x3d840314	0.064458996
20	0xbe1ba4f7	-0.15199648
21	0xbe20246a	-0.15638891
22	0xbcd8b1e2	-0.026452009
23	0xbda35f4f	-0.07977163
24	0x3d083cf8	0.03326127
25	0xbe06e8c9	-0.13174738
26	0xbe0ecc38	-0.13945091
27	0xbd9aac98	-0.07552451
28	0xbddc8746	-0.10767989
29	0xbdc8b793	-0.09800639
30	0xbd5826c3	-0.05277134
31	0xbdb0c001	-0.08630372
32	0xbc3c7cdf	-0.011504381
33	0xbe32663d	-0.17421813
34	0xbe1f203e	-0.15539643
35	0xbdd1abd6	-0.10237853
36	0xbd5f3f9f	-0.054504033
37	0xbe147448	-0.14497483
38	0xbe27c687	-0.16384326
39	0xbdf5b2cd	-0.11996994
40	0x3d456423	0.0481912
41	0xbd1c1ee6	-0.038115405
42	0x3d61a455	0.05508836
43	0x3d3ff81c	0.046867475
44	0xbc0d8a1d	-0.008638886
45	0x3d1852be	0.037188284
46	0xbe21fd0b	-0.15819184
47	0xbdd8a76d	-0.10578809
48	0xbe3b9a48	-0.18320572
49	0x3d1dac08	0.03849414
50	0xbd204c07	-0.039135005
51	0xbd3cc8a1	-0.046089772
52	0xbe1fbbf2	-0.15599039
53	0xbda7da1b	-0.08195897
54	0x3d1133af	0.03544968
55	0xbe10bd54	-0.14134723
56	0xbb0d2a9b	-0.0021540287
57	0xbe286977	-0.16446482
58	0x3cb1fd2d	0.021727169
59	0xbcb5755d	-0.02215069
60	0xbd715ede	-0.058928363
61	0x3cac3dc6	0.02102555
62	0xbd3e6425	-0.046482224
63	0xbe380ecf	-0.17974399
64	0x3d518223	0.0511495
65	0xbb4e711b	-0.0031500522
66	0xbdbbbe69	-0.09167177
67	0xbd4c6d9e	-0.049909227
68	0x3cf69ce7	0.030104114
69	0xbc0a1601	-0.008428098
70	0x3d30c94f	0.043160733
71	0xbce14698	-0.027499482
72	0x3d1fd990	0.039025843
73	0xbdbfaacc	-0.09358749
74	0x3d54a43a	0.05191443
75	0xbdc91d9f	-0.09820103
76	0xbcb66d8e	-0.022269037
77	0xbe327c82	-0.17430308
78	0xbe05d870	-0.13070846
79	0x3be08726	0.0068520484
80	0xbd30e7b3	-0.043189716
81	0xbd377165	-0.044785876
82	0xbd96c6e4	-0.07362154
83	0xbda77a79	-0.08177657
84	0xbdbe849b	-0.09302636
85	0xbe1f9c20	-0.155869
86	0x3d7d5aee	0.061854295
87	0xbc58d820	-0.013235122
88	0xbe2763e4	-0.16346699
89	0xbde1641f	-0.11005425
90	0xbe09f6c0	-0.13473034
91	0xbdbef5d6	-0.09324233
92	0x3d36af78	0.044600934
93	0xbdbbf319	-0.091772266
94	0xbe2334cc	-0.15938109
95	0xbd352beb	-0.044231337
96	0x3b49e20b	0.0030804898
97	0xbdb5a89f	-0.088700525
98	0xbc3646f4	-0.011125315
99	0xbdaed310	-0.08536351
100	0xbdfe69fa	-0.12422557
101	0xbe258fee	-0.16168186
102	0xbe2e6b7d	-0.17033191
103	0x3b372a72	0.0027948883
104	0xbe022586	-0.12709627
105	0x3b78b05c	0.0037946915
106	0x3d05355f	0.0325216
107	0xbd3c4975	-0.04596849
108	0xbd9aa6d3	-0.075513504
109	0xbe2a78a0	-0.16647577
110	0xbda87344	-0.0822511
111	0xbe3a1c5d	-0.18174882
112	0x3d0ccd32	0.034375377
113	0xbe29119c	-0.16510624
114	0xbd971aa9	-0.07378132
115	0xbd63736e	-0.055530004
116	0xbe2a277f	-0.16616629
117	0xbc8ad5a2	-0.016947571
118	0xbe393610	-0.1808703
119	0xbe04985e	-0.12948748
120	0xbdb695a8	-0.089152634
121	0x3c9d87f1	0.019229861
122	0x3bf71e7e	0.0075414767
123	0xbe010c22	-0.12602285
124	0xbe2f84ab	-0.17140453
125	0xbdccd078	-0.100007
126	0xbe0f2959	-0.13980617
127	0x3cadbc6a	0.021208007
128	0x3e8a8d2c	0.2706083
129	0xbdcf5ac3	-0.10124733
130	0xbc6139e9	-0.013746717
131	0xbc56d49a	-0.013112212
132	0xbe260109	-0.16211332
133	0x3c96b58c	0.018397115
134	0x3dc1d021	0.094635256
135	0xbca48760	-0.020084083
136	0x3baf5834	0.005351091
137	0x3c37bf3b	0.0112150265
138	0x3dcc6d57	0.099817924
139	0xbcf101c1	-0.029419782
140	0xbe2a92c1	-0.16657545
141	0xbc35c144	-0.011093441
142	0xbe0398f5	-0.12851317
143	0xbe6f33e7	-0.23359643
144	0x3de4e53d	0.11176536
145	0xbe032cc8	-0.12810051
146	0x3e1c3383	0.15254025
147	0x3e1126cd	0.14174958
148	0xbddc89a1	-0.10768438
149	0xbdae8445	-0.08521322
150	0xbe4540bd	-0.19262977
151	0xbce88ae0	-0.028386533
152	0x3c514786	0.0127734
153	0x3c9a3b92	0.018827233
154	0xbc223320	-0.009899884
155	0xbcba2968	-0.022724822
156	0x3def8afe	0.116964325
157	0xbeb776d2	-0.3583284
158	0xbe563cb7	-0.20921598
159	0x3d2400d6	0.04003986
160	0x3cfd3900	0.030910969
161	0x3bbe85f7	0.0058143097
162	0xbe9e3a5d	-0.30903903
163	0x3d10e498	0.035374254
164	0xbe634053	-0.22192506
165	0xbda3a0ff	-0.07989692
166	0xbd3092ad	-0.04310863
167	0x3cbc5219	0.022988366
168	0xbe11c24b	-0.14234273
169	0x3d743d69	0.059628878
170	0xbf0c6aec	-0.5485065
171	0xbd811145	-0.06302122
172	0xbd8881b8	-0.06665367
173	0xbd43217e	-0.047639363
174	0x3e339a73	0.17539386
175	0xbe9c4ba9	-0.30526474
176	0x3c720d03	0.01477361
177	0xbd648004	-0.055786148
178	0xb73dcd7a	-1.1313119e-05
179	0x3b0e0946	0.0021673008
180	0x3d8f03cd	0.06983147
181	0xbd449363	-0.04799212
182	0x3e503293	0.20331793
183	0x3a122765	0.0005575328
184	0x3c82c7bf	0.015964387
185	0xbc78fc4e	-0.015196873
186	0xbdd3ce54	-0.10342088
187	0xbe41dc90	-0.18931794
188	0x3dd4af61	0.10385013
189	0x3d1baf25	0.038008828
190	0xbe09738a	-0.13422981
191	0xbe24e8a7	-0.16104375
192	0xbb4d0342	-0.003128246
193	0xbd032131	-0.032014076
194	0x3d19115b	0.037370067
195	0x3e12abda	0.14323369
196	0xbe01eadb	-0.12687247
197	0xbcfb75b0	-0.030695766
198	0x3e6a4ef7	0.22881685
199	0xbd9acfe2	-0.07559182
200	0x3d74cda5	0.05976643
201	0xbd94acbd	-0.0725951
202	0x3df0e600	0.11762619
203	0x3e5bf771	0.2148111
204	0xbf59e62c	-0.8511684
205	0x3d89f685	0.06736473
206	0xbd435dce	-0.04769688
207	0xbe4dae63	-0.20086055
208	0xbbbbb928	-0.0057288595
209	0xbe92cb92	-0.28670937
210	0x3ca67bee	0.020322766
211	0xbd514119	-0.051087473
212	0xbe99454e	-0.29935688
213	0xbda2b404	-0.079444915
214	0x3de21842	0.11039783
215	0x3c9bab1d	0.019002492
216	0xbd1bb16a	-0.038010992
217	0x3caaf044	0.02086652
218	0x3d223b03	0.03960706
219	0x3e02f106	0.12787256
220	0x3d3163a8	0.04330793
221	0xbf68926a	-0.9084841
222	0xbc364cf6	-0.011126747
223	0x3c9ffa18	0.019528434
224	0xbd9323ac	-0.07184538
225	0x3c848c11	0.01618007
226	0xbf9232a8	-1.1421709
227	0xbcdf5b9d	-0.027265364
228	0xbe28e9d5	-0.1649545
229	0x3a895559	0.0010477706
230	0xbd8d4fbc	-0.06899974
231	0x3d19dd6f	0.03756469
232	0xbd1fbef1	-0.039000455
233	0x3db96a29	0.090534516
234	0xbd4fde47	-0.05074909
235	0xbd962e52	-0.07333054
236	0xbd1c425c	-0.038149223
237	0x3e135042	0.14386085
238	0x3de3e706	0.111280486
239	0xbea0c259	-0.31398275
240	0x3dd6bb4d	0.104849435
241	0x3db17770	0.08665359
242	0xbcb0c070	-0.021576136
243	0xbd2504aa	-0.04028765
244	0x3e9b8d7b	0.3038138
245	0x3e554413	0.2082675
246	0x3c4ac210	0.01237537
247	0xbd40afaf	-0.047042545
248	0x3d104a1f	0.035226937
249	0xbda16166	-0.078799054
250	0xbe9ea696	-0.3098647
251	0x3d3b90ca	0.04579238
252	0xbc961bd5	-0.018323818
253	0x3e6d47bd	0.23171897
254	0xbeb64984	-0.35602963
255	0x3c70c90f	0.014696374

encoder.2.bias f4 [32]
0	0xbd93b024	-0.072113305
1	0x39cda264	0.00039221637
2	0x3ee4cbf1	0.44686845
3	0x3f235784	0.63805413
4	0x3f2bf553	0.6717121
5	0x3ccc126b	0.024911126
6	0xbd8ae757	-0.06782406
7	0xbe15916e	-0.14606258
8	0xbe17e25b	-0.14832442
9	0xbed5d30e	-0.41762584
10	0x3f04eb97	0.5192198
11	0x3ed12cb8	0.4085443
12	0xbd85d65f	-0.06535029
13	0x3e65ab88	0.22428715
14	0x3e929418	0.28628612
15	0x3bd94afb	0.006631253
16	0xbe2156df	-0.15755795
17	0x3d3ab110	0.045579016
18	0x3f0b4caf	0.54413885
19	0x3e9387b4	0.2881447
20	0x3a4564ad	0.00075299555
21	0xbdcc6273	-0.09979715
22	0x3dff43d4	0.12464109
23	0xbd6bae42	-0.057539232
24	0x3efac1fe	0.4897613
25	0xbe6ab756	-0.229215
26	0x3f076d86	0.52901495
27	0x3f0d91e4	0.55300736
28	0x3d254f36	0.040358745
29	0x3e81c53e	0.25345796
30	0x3eb36db4	0.35044634
31	0x3ebc60b6	0.36792535

decoder.0.weight f4 [64, 32]
0	0xbe81b3f1	-0.25332597
1	0xbe922c7c	-0.28549564
2	0xbeb7f8f8	-0.35932136
3	0xbe8ae9e6	-0.27131575
4	0xbeb7f1fa	-0.359268
5	0xbe93c36f	-0.28860041
6	0xbdf4c1d6	-0.11951034
7	0xbdddd095	-0.108307995
8	0x3ed2bf4b	0.4116157
9	0xbd16b11a	-0.03678999
10	0xbde4d54d	-0.111734964
11	0xbee8fbf7	-0.45504734
12	0xbe94f382	-0.29092032
13	0x3d92c902	0.071672454
14	0xbedc30fd	-0.43006125
15	0xbee802e7	-0.45314714
16	0xbd98fa53	-0.074696206
17	0xbeb496f5	-0.3527142
18	0xbe5a56c7	-0.21322165
19	0xbea2bfee	-0.31787056
20	0xbe51aaf2	-0.20475367
21	0xbebfaf1e	-0.3743829
22	0xbead6a3e	-0.3387012
23	0xbed9bbd7	-0.42526123
24	0x3e9acb77	0.30233356
25	0x3ed0a8f8	0.40753913
26	0x3edb20f3	0.42798576
27	0xbeb837bd	-0.35980025
28	0x3e6bffae	0.23046753
29	0xbece5862	-0.40301806
30	0xbe5bb23e	-0.21454713
31	0x3e233e2f	0.1594169
32	0xbe101828	-0.14071715
33	0xbdb15e1d	-0.08660529
34	0x3d14543d	0.03621315
35	0x3e1f51a9	0.15558495
36	0x3af989a8	0.0019038217
37	0x3e09c56e	0.1345422
38	0xbdb7f604	-0.08982471
39	0x3e03eb9b	0.12882845
40	0x3e0e8626	0.13918361
41	0xbdc13f56	-0.094359085
42	0x3d841d09	0.064508505
43	0x3da2f9f7	0.07957833
44	0x3e3038d2	0.17209175
45	0xbec882da	-0.39162332
46	0xbe56e300	-0.20985031
47	0x3d6252da	0.055254795
48	0xbe070f67	-0.1318947
49	0x3e04c1a9	0.129645
50	0xbe522266	-0.20520934
51	0x3ebf33a8	0.37344098
52	0xbdcaafdc	-0.09896824
53	0xbaac887b	-0.0013163233
54	0x3c6a8cab	0.014315764
55	0xbd1d9513	-0.038472246
56	0xbd13dca4	-0.03609909
57	0xbdc3c44d	-0.09558926
58	0x3dd87f54	0.10571161
59	0xbdfcad61	-0.12337757
60	0xbbb1718f	-0.0054151486
61	0x3dae674b	0.08515795
62	0x3bfc905e	0.0077076396
63	0x3cbb7d08	0.022886768
64	0x3e03ccae	0.12871048
65	0x3b99e366	0.0046962975
66	0xbd140ea0	-0.03614676
67	0xbdb216ec	-0.08695778
68	0x3dbd2ec8	0.092374384
69	0x3e52c340	0.20582294
70	0x3debd6b4	0.11515561
71	0x3e2d9d54	0.16954547
72	0xbe2530e8	-0.16131938
73	0xbd08ad12	-0.033368178
74	0xbd4d9f74	-0.050200894
75	0xbe3bc423	-0.18336539
76	0x3dd0b5b5	0.10190908
77	0xbdb6c330	-0.08923948
78	0xbcb5d2fd	-0.022195334
79	0xbdfae6dc	-0.12251064
80	0xbe0de750	-0.1385777
81	0x3e04025e	0.12891528
82	0x3d01481a	0.031562902
83	0x3cb6db25	0.022321293
84	0xbd808446	-0.06275229
85	0x3e3ac9b3	0.18241005
86	0xbecd39b8	-0.40083098
87	0x3e4892d6	0.19587263
88	0x3e0bd1eb	0.13654296
89	0x3d901fad	0.07037292
90	0x3f132dd4	0.57491803
91	0xbdc5803b	-0.09643599
92	0xbdf1e684	-0.118115455
93	0x3dedc8ea	0.11610587
94	0xbd331b09	-0.043726955
95	0x3dd19cc1	0.102349766
96	0xbdbfc36a	-0.09363444
97	0x3d8b3c67	0.0679863
98	0xbbba0134	-0.005676413
99	0xbe72d9e7	-0.23715936
100	0xbdef6843	-0.11689808
101	0xbe0afafc	-0.13572305
102	0xbe3b7c4b	-0.18309133
103	0x3df34c9b	0.11879846
104	0x3e2db716	0.16964373
105	0x3de66024	0.11248806
106	0x3d4dba15	0.05022629
107	0xbde7683d	-0.11299179
108	0xbe2229e4	-0.15836293
109	0xbe21c636	-0.15798268
110	0xbdd6fe8c	-0.1049777
111	0x3d899e8d	0.06719694
112	0x3ca98845	0.020694861
113	0xbdc085d4	-0.09400526
114	0xbe22c143	-0.15894036
115	0x3cdfa96f	0.027302472
116	0xbd515de7	-0.051114943
117	0xbdb338e8	-0.087510884
118	0x3e3afddf	0.18260907
119	0xbe6aba5b	-0.22922651
120	0x3d56d3f1	0.052448217
121	0xbcc824f6	-0.024431687
122	0x3e37707b	0.17914002
123	0x3d640546	0.05566909
124	0x3e2fbdfd	0.17162319
125	0xbe705cac	-0.23472852
126	0xbde41cf4	-0.11138335
127	0xbd1d4670	-0.038397253
128	0xbdd5f145	-0.10446409
129	0xbe88e4cb	-0.26737055
130	0xbded747b	-0.115944825
131	0xbe174c35	-0.14775164
132	0xbe48ea4b	-0.19620626
133	0xbda9eb73	-0.082968615
134	0xbe6ffe21	-0.23436786
135	0x3db79aca	0.089650705
136	0x3cd87ddb	0.0264272
137	0x3e0fec91	0.14055087
138	0xbccb0204	-0.024781235
139	0xbda25d7f	-0.07927989
140	0xbe201609	-0.15633406
141	0xbe64387a	-0.22287169
142	0x3ce9d810	0.02854541
143	0xbe5afb39	-0.21384896
144	0x3da3ef35	0.080046095
145	0xbe467788	-0.19381535
146	0xbe4fe494	-0.2030204
147	0xbe0d4116	-0.1379436
148	0x3d8d46cc	0.06898269
149	0xbe317336	-0.17329106
150	0xbdad01c3	-0.08447602
151	0xbd5d6bf0	-0.054058015
152	0xbe0377e4	-0.12838703
153	0xbd7ab88f	-0.061211165
154	0x3d8d99e4	0.06914118
155	0x3e60685c	0.2191481
156	0x3e6a18ad	0.22860976
157	0xbe4c70f1	-0.19964959
158	0xbdd01bdc	-0.10161564
159	0xbd842113	-0.06451621
160	0xbaa53901	-0.001260549
161	0xbdf655d3	-0.120280884
162	0xbb5d11a5	-0.003373244
163	0xbc99a410	-0.018754989
164	0xbdba4e9b	-0.09097024
165	0xbd4f4ae8	-0.050608546
166	0x3df965a2	0.12177588
167	0xbdbbebb6	-0.09175818
168	0x3dc84bc2	0.09780075
169	0x3d914dd1	0.070949204
170	0x3d821adc	0.06352779
171	0x3d831782	0.06400968
172	0x3d273ead	0.040831257
173	0xbdb657f1	-0.08903492
174	0xbe16011b	-0.14648859
175	0xbe116ed4	-0.14202434
176	0xbd0b683b	-0.03403495
177	0xbd020b51	-0.031749073
178	0x3d84fd34	0.06493607
179	0xbc978742	-0.018497113
180	0xbe2d9eb3	-0.1695507
181	0xbdd39c88	-0.1033259
182	0x3d0c01f6	0.034181558
183	0x3e0d0f54	0.13775378
184	0x3dc484e4	0.095956594
185	0x3df16c3a	0.11788221
186	0xbdf38a8b	-0.11891659
187	0xbda45425	-0.08023862
188	0x3e0cb851	0.13742186
189	0xbd2319b4	-0.039819434
190	0xbe262813	-0.16226225
191	0xbdffddd2	-0.12493481
192	0x3cbf1a21	0.023327889
193	0xbe29104b	-0.16510122
194	0xbc932710	-0.017962962
195	0xbe9302cd	-0.28713074
196	0xbf0d4508	-0.5518346
197	0xbe540cf3	-0.20708065
198	0x3d4294e6	0.047505282
199	0xbe5a0512	-0.21290997
200	0x3dc6be23	0.097042345
201	0x3e338306	0.1753045
202	0xbdc3a693	-0.09553256
203	0x3d1fb531	0.038991157
204	0xbe670367	-0.22559892
205	0xbe6fb12b	-0.23407428
206	0x3c17d24a	0.009266445
207	0x3d909fed	0.070617534
208	0xbde46584	-0.11152175
209	0x3d5cc64a	0.05390004
210	0x3db1affe	0.08676146
211	0x3d681dd2	0.056669064
212	0xbe01a3d1	-0.12660147
213	0xbd750a09	-0.059824023
214	0xbd25ca2e	-0.040476017
215	0x3df1370b	0.11778077
216	0x3d648662	0.05579222
217	0x3e0752ce	0.13215181
218	0xbcc5ffb9	-0.02416979
219	0xba5a68ec	-0.00083316746
220	0x3b822c13	0.003972539
221	0xbd9cf92f	-0.076647155
222	0x3eed0436	0.46292275
223	0xbde3a813	-0.11116042
224	0xbe2ac3c8	-0.16676247
225	0xbe5505b2	-0.20802954
226	0x3d641c4d	0.055691052
227	0xbd838e6e	-0.06423651
228	0xbdfee131	-0.124452956
229	0x3d321b23	0.04348291
230	0x3bc7733c	0.006086735
231	0xbe708a77	-0.2349032
232	0x3d873e09	0.06603629
233	0x3d355067	0.04426613
234	0x3e04dade	0.12974116
235	0xbe7aed9f	-0.24504708
236	0xbe0db7c1	-0.13839628
237	0xbe6fd37f	-0.23420523
238	0x3c6ae334	0.014336396
239	0xbe6beced	-0.23039599
240	0x3e3e429a	0.18580094
241	0x3d4fb3e6	0.050708674
242	0x3ed7af11	0.42125753
243	0x3df8f59c	0.12156221
244	0x3cc15697	0.02360086
245	0xbe603c24	-0.21897942
246	0xbd57bc92	-0.05267007
247	0xbd96d85c	-0.07365486
248	0xbda648ac	-0.0811933
249	0x3d9b7fe9	0.07592756
250	0x3e04854f	0.12941478
251	0x3ca7fdd3	0.020506775
252	0xbd8ceaef	-0.068807475
253	0xbe1ddfb3	-0.15417366
254	0xbd8399f9	-0.06425852
255	0x3e8b9aff	0.2726669

decoder.0.bias f4 [64]
0	0xbe684050	-0.22680783
1	0xbcb70c5c	-0.02234476
2	0x3dd2dad6	0.10295646
3	0xbdec4df2	-0.115383044
4	0x3a877468	0.0010334374
5	0x3cbef3a9	0.023309546
6	0x3d8f3826	0.06993131
7	0x3b7b1f73	0.0038318306
8	0x3e338960	0.17532873
9	0xbe14c363	-0.14527659
10	0x3c187338	0.009304814
11	0xbc79c1b8	-0.01524394
12	0x3c2002a5	0.0097662555
13	0xbe0f8648	-0.14016068
14	0xbd164b04	-0.036692634
15	0xbe5d0930	-0.21585536
16	0xbd9a0e01	-0.07522202
17	0xbb996898	-0.004681658
18	0xbe4e96db	-0.20174734
19	0xbd471ae8	-0.048609644
20	0x3bf27a6c	0.0073998477
21	0xbd33e05f	-0.04391515
22	0x3d8b00d0	0.06787264
23	0xbdc14d2b	-0.09438547
24	0xbe45d637	-0.19319998
25	0xbe55ef6a	-0.2089211
26	0xbe3a5bc0	-0.18199062
27	0xbebc0e06	-0.3672945
28	0xbe1fc522	-0.15602544
29	0x3e5d2ad9	0.21598376
30	0xbba63821	-0.005072609
31	0xbe802b43	-0.25033006
32	0xbdb96046	-0.09051566
33	0x3d573d84	0.0525489
34	0xbdd0c404	-0.10193637
35	0x3debfd2e	0.115228996
36	0x3e0f71e1	0.14008285
37	0xbe37c363	-0.17945628
38	0x3d4efb7e	0.05053281
39	0xbdc817a7	-0.09770136
40	0xbe5e8bce	-0.21733019
41	0x3d92d75e	0.07169984
42	0x3c615e9f	0.01375547
43	0x3dbc7043	0.092011
44	0x3e6090de	0.21930262
45	0xbd987a97	-0.07445257
46	0x3d687e20	0.056760907
47	0x3da30043	0.07959034
48	0xbe76825d	-0.24073167
49	0xbdf2d971	-0.1185788
50	0x3dd2f72d	0.10301051
51	0xbd9cd837	-0.07658427
52	0xbe42657b	-0.18984024
53	0x3dcf9408	0.101356566
54	0xbdcf3358	-0.10117215
55	0xbb9220fa	-0.0044594975
56	0xbe17d3e4	-0.14826924
57	0x3e01e95b	0.12686674
58	0xbc81d0c8	-0.015846625
59	0xbe52400a	-0.20532241
60	0x3e5c053d	0.21486373
61	0x3e35367c	0.17696565
62	0x3dd41cca	0.103570536
63	0x3d59edc1	0.053205255

decoder.2.weight f4 [784, 64]
0	0x3df6bfe0	0.12048316
1	0xbd92d7de	-0.0717008
2	0x3ce40c08	0.027837768
3	0xbd7fffac	-0.062499687
4	0xbd9d605a	-0.07684393
5	0xbcf92a20	-0.030415595
6	0x3d40b170	0.047044218
7	0xbd8ca4b2	-0.06867351
8	0x3bb8b728	0.0056370683
9	0xbd807f12	-0.06274237
10	0xbe1e7700	-0.15475082
11	0xbd991490	-0.07474625
12	0xbbdac1f1	-0.0066759516
13	0x3c852e1f	0.016257344
14	0x3d212d0f	0.03934961
15	0xbdd9cd2a	-0.10634835
16	0xbab4b556	-0.0013786952
17	0xbdede4a6	-0.11615877
18	0xbd004f94	-0.03132589
19	0xbddf52c7	-0.109044604
20	0xbd41c8a8	-0.0473105
21	0xbe0f23a0	-0.13978434
22	0xbd98b2d7	-0.07455986
23	0xbdce2d3f	-0.10067224
24	0x3d608410	0.054813445
25	0xbc1bb390	-0.00950326
26	0xbe1ac14a	-0.15112796
27	0x3d924336	0.07141726
28	0x3c02c870	0.007982358
29	0xbc9ddadc	-0.0192694
30	0xbdab444e	-0.083626375
31	0xbd9ebfa4	-0.07751396
32	0x3c170900	0.009218454
33	0xbd214738	-0.03937456
34	0xbdd02cca	-0.10164793
35	0xbe095187	-0.13410006
36	0xbe28f1f3	-0.16498546
37	0xbc31e84c	-0.010858607
38	0xbe195084	-0.1497212
39	0xbe0ebfc6	-0.13940343
40	0xbdd58d46	-0.104273364
41	0xbdfb8d33	-0.12282791
42	0xbd98d90a	-0.07463272
43	0x3da28898	0.079362094
44	0xbd307cd2	-0.043087788
45	0xbe21bfb8	-0.15795791
46	0xbb974ae0	-0.00461708
47	0x3cd09998	0.025463864
48	0xbcb7af10	-0.022422343
49	0xbdc7e2fd	-0.097600915
50	0xbe402222	-0.1876302
51	0xbd590d6a	-0.05299131
52	0xbd555f6c	-0.052092955
53	0xbd23bca4	-0.039974824
54	0x3caa12a8	0.02076085
55	0x3ddeb5fc	0.108745545
56	0xbd19d024	-0.037552014
57	0xbc93e242	-0.018052224
58	0x3d0db884	0.034599796
59	0xbda6d0e6	-0.08145313
60	0x3d9b8d6e	0.07595335
61	0xbd2a51de	-0.04158198
62	0xbe29f800	-0.1659851
63	0xbd9c0d76	-0.07619755
64	0x3d8e9ad4	0.06963125
65	0x3c621316	0.013798496
66	0xbda909c0	-0.08253813
67	0x3da8f35c	0.08249542
68	0xbdfdfcc8	-0.1240173
69	0xbd73a3a4	-0.05948223
70	0xbd353804	-0.044242874
71	0xbcab09c2	-0.020878676
72	0xbe421a2f	-0.18955301
73	0x3c245274	0.010029424
74	0xbc9dc4fc	-0.019258969
75	0xbd3089c9	-0.043100152
76	0xbd4419b6	-0.047876082
77	0xbe4efd5f	-0.20213841
78	0xbcdf0142	-0.02722228
79	0x39723c00	0.0002310127
80	0xbe44f5dc	-0.19234413
81	0x3cf6f4d0	0.030146033
82	0xbd088100	-0.03332615
83	0xbe0e7f82	-0.13915828
84	0xbd7c0b4c	-0.06153421
85	0xbdb94256	-0.09045856
86	0xbd5323a3	-0.051547658
87	0xbcdeefcf	-0.027213959
88	0xbd8d35d6	-0.06895034
89	0xbc20e440	-0.009820044
90	0x3d41d796	0.04732474
91	0xbd93aede	-0.07211088
92	0x3d13eb44	0.03611304
93	0xbcb50e90	-0.02210167
94	0x3cd781e7	0.02630706
95	0x3da23280	0.07919788
96	0x3c806afe	0.015676018
97	0xbd7188a4	-0.0589682
98	0xbdf61052	-0.120148316
99	0xbc87b395	-0.016565124
100	0xbafe20eb	-0.0019388472
101	0xbd0506a0	-0.03247702
102	0xbda9e43b	-0.08295485
103	0xbe0da109	-0.13830961
104	0xbd90f378	-0.07077688
105	0x3d2826e2	0.041052707
106	0xbd83c6a6	-0.064343736
107	0x3d0fe148	0.035126954
108	0xbd1d6394	-0.038425043
109	0x3c382b3c	0.011240777
110	0x3db0d94a	0.086351946
111	0xbd15a235	-0.036531646
112	0xbb37f240	-0.0028067976
113	0xbd184273	-0.037172746
114	0xbe1b5c30	-0.15171885
115	0xbd2fa6e7	-0.04288378
116	0x3bebe6e0	0.0071991533
117	0xbe118b00	-0.1421318
118	0xbcb3c492	-0.021944318
119	0xbe314897	-0.17312847
120	0xbe2fbe71	-0.17162491
121	0xbd50db12	-0.05099017
122	0x3b4518d1	0.0030074606
123	0xbd0f3d89	-0.034970794
124	0x3c47cee8	0.012195326
125	0xbd3dbfbd	-0.046325434
126	0xbd664501	-0.05621815
127	0xbe098a7e	-0.13431737
128	0x3de253e4	0.11051157
129	0xbe744e14	-0.2385791
130	0xbdd9ce9c	-0.10635111
131	0x3de02314	0.109441906
132	0xbd77e510	-0.060521185
133	0xbd06c284	-0.03290035
134	0x3dac548c	0.084145635
135	0x3c32a461	0.010903449
136	0xbe2a91bd	-0.16657157
137	0xbdb7ebcd	-0.08980522
138	0x3d888508	0.06665999
139	0xbcab04e8	-0.020876363
140	0xbd331426	-0.043720387
141	0xbda046ca	-0.07826002
142	0xbc861534	-0.016367532
143	0x3c8e6ff8	0.017387375
144	0x3d06fcd3	0.032955956
145	0x3d237898	0.03990993
146	0x3b852060	0.0040626973
147	0xbd5d1af2	-0.053980775
148	0xbdad0ecc	-0.08450088
149	0xbe2fc32a	-0.17164293
150	0xbd82f9a8	-0.063952744
151	0xbc3248a0	-0.010881573
152	0x3d84ea88	0.06490046
153	0xbccb1658	-0.024790928
154	0xbd83659a	-0.06415863
155	0xbc38b5a0	-0.0112737715
156	0xbd94c0ba	-0.07263322
157	0xbc7511e8	-0.014957882
158	0xbe0baf9c	-0.13641208
159	0xbd844d38	-0.06460041
160	0x3da8a53c	0.08234641
161	0x3d56a3c8	0.052402288
162	0xbd337c14	-0.043819502
163	0xbe1624e8	-0.14662516
164	0xbe012781	-0.12612726
165	0xbc965a58	-0.018353626
166	0xbe424668	-0.1897217
167	0x3d9c350e	0.07627307
168	0x3d6f98e0	0.058495402
169	0xbddf9491	-0.10917009
170	0x3cf37100	0.029716969
171	0xbdc9b17e	-0.09848307
172	0xbce4a2fc	-0.027909748
173	0x3d0c7ace	0.034296803
174	0x3db78b34	0.08962098
175	0xba960700	-0.0011446178
176	0x3d193ce9	0.037411604
177	0x3d987de4	0.07445887
178	0xbe0cadfe	-0.13738248
179	0xbdded661	-0.10880733
180	0xbd4d8710	-0.050177634
181	0x3dafba34	0.08580437
182	0x3c978f30	0.018500894
183	0xbcd68528	-0.02618654
184	0x3d7f53e0	0.06233585
185	0xbe1a8411	-0.15089442
186	0xbdbcc6ee	-0.0921763
187	0x3de6658a	0.11249836
188	0xbd86c215	-0.06579987
189	0xbe0a0a86	-0.13480577
190	0xbe3513c2	-0.17683318
191	0xbd9878cc	-0.07444915
192	0xbcf491b8	-0.02985464
193	0xbb196580	-0.0023406446
194	0xbbfc0f0f	-0.007692225
195	0x3def9708	0.11698729
196	0xbdf9ba1c	-0.12193701
197	0x3dbf651a	0.093454555
198	0x3d56ac94	0.052410677
199	0xbded5c3d	-0.11589859
200	0xbe327111	-0.17425944
201	0xbe440d70	-0.19145751
202	0xbd46c770	-0.048530042
203	0xbb5d3dfe	-0.0033758874
204	0xbe0cacc5	-0.13737781
205	0x3bcbb7a0	0.006216958
206	0x3d17c363	0.03705157
207	0xbda8963a	-0.082317784
208	0xbdd70b57	-0.1050021
209	0xbdcfb502	-0.101419464
210	0xbe40eb94	-0.18839866
211	0xbcd9988a	-0.026561994
212	0x3d7f0efc	0.06227015
213	0x3d3b25d9	0.04569039
214	0xbd48a2f8	-0.048983544
215	0x3d0bd564	0.034139052
216	0xbc27b940	-0.010237038
217	0xbd04cb28	-0.032420307
218	0xbe073cae	-0.13206741
219	0x3dcb65ce	0.09931527
220	0x3db4af3a	0.08822484
221	0xbe26da4c	-0.16294211
222	0x3d4e6d14	0.050396994
223	0x3babe540	0.0052458346
224	0x3dfc1752	0.123091355
225	0xbdc37ce6	-0.09545307
226	0x3d97f9c8	0.07420689
227	0x3cc47aa9	0.02398427
228	0xbdb72a42	-0.08943607
229	0x3d7541a0	0.059877038
230	0xbe4626a8	-0.19350684
231	0xbdf75182	-0.12076093
232	0x3d4220d0	0.047394574
233	0xbdf9651d	-0.12177489
234	0x3de9d2bc	0.114171475
235	0xbdd40d40	-0.1035409
236	0xbbd65205	-0.006540539
237	0xbd89d04b	-0.06729182
238	0xbdd9eb4a	-0.10640581
239	0xbd907998	-0.07054442
240	0x3d8ad97e	0.067797646
241	0xbcf26c01	-0.029592516
242	0x3d3d73fd	0.046253193
243	0x3cec1bd8	0.02882187
244	0x3df5bdc6	0.11999087
245	0xbbe99f3f	-0.0071295793
246	0xbda172fb	-0.07883259
247	0xbd09db3b	-0.03365634
248	0xbe0f1803	-0.13974003
249	0xbd99fd52	-0.0751902
250	0xbe2b4407	-0.16725169
251	0xbdaeca84	-0.085347205
252	0xbde5d8fc	-0.11223027
253	0xbe0caf6b	-0.13738792
254	0x3c4a6241	0.012352527
255	0xbd7ce314	-0.061739996

decoder.2.bias f4 [784]
0	0x3c423e91	0.011855737
1	0xbcb3d408	-0.02195169
2	0x3c514389	0.012772449
3	0xbdbfd7d6	-0.09367339
4	0xbe1327ab	-0.14370601
5	0xbd293264	-0.041307822
6	0xbe1fb575	-0.15596564
7	0xbc8d691c	-0.017262034
8	0xbd9ccfd9	-0.07656831
9	0xbe217ad3	-0.1576951
10	0xbdaae845	-0.08345083
11	0xbe0f22a9	-0.13978066
12	0xbe2d1f88	-0.1690656
13	0xbd03a96d	-0.032144
14	0xbe3fe0b8	-0.18738067
15	0xbe0abdf7	-0.13549028
16	0xbe3a67b7	-0.18203627
17	0x3cde6dd0	0.027151972
18	0x3cb018c0	0.021496177
19	0xbce3f24d	-0.027825499
20	0xbd0b77c0	-0.03404975
21	0xbe24cc8d	-0.16093655
22	0xbd1f482c	-0.038887188
23	0xbe1d0a3e	-0.15335938
24	0xbe2b5c45	-0.16734417
25	0x3cf2d8d9	0.029644417
26	0xbdb64526	-0.08899908
27	0xbe384e70	-0.17998672
28	0xbe0baa9d	-0.13639303
29	0xbd6f3f2b	-0.05840985
30	0xbb4259f9	-0.0029655679
31	0xbe426e4d	-0.18987389
32	0xbd087f0a	-0.03332428
33	0xbd89937a	-0.06717582
34	0xbb6084e8	-0.0034258906
35	0xbd9c604e	-0.07635556
36	0xbe1a283b	-0.15054409
37	0xbd74cffb	-0.059768658
38	0xbe36fc4b	-0.1786968
39	0x3bd53147	0.0065061185
40	0xbbfc1188	-0.0076925196
41	0x3b64ef12	0.0034932536
42	0x3ccaf34c	0.024774216
43	0xbdbe022f	-0.0927776
44	0xbbb19cc3	-0.005420299
45	0xbe1c73f2	-0.15278605
46	0xbe25ae6d	-0.1617982
47	0xbd854c9a	-0.06508751
48	0xbe23b505	-0.15987022
49	0xbd4c921c	-0.04994403
50	0xbe32ebfe	-0.17472836
51	0xbc76a49c	-0.015053894
52	0xbde4a3b5	-0.11164037
53	0xbd97bb9b	-0.0740883
54	0x3cc883a1	0.024476828
55	0x3cf91aa0	0.030408204
56	0xbdf88114	-0.12133995
57	0xbda7df09	-0.081968375
58	0xbdd13386	-0.102149054
59	0xbd603fdd	-0.054748405
60	0xbd171b4d	-0.03689127
61	0xbdc94dbe	-0.09829281
62	0xbda88775	-0.082289614
63	0xbe6d07c6	-0.23147497
64	0xbc8a85a3	-0.016909426
65	0xbdf56d7c	-0.11983773
66	0x3be01449	0.0068383557
67	0xbdd82eba	-0.105557874
68	0xbe24b62c	-0.16085118
69	0xbccf2230	-0.025284857
70	0xbe34c01a	-0.17651406
71	0xbd65375d	-0.055961
72	0xbcf479a1	-0.029843153
73	0xbdb1d56a	-0.086832836
74	0xbd1006ef	-0.035162862
75	0xbdc5698e	-0.096392736
76	0xbd66f5d8	-0.0563868
77	0xbd011821	-0.03151715
78	0x3c38918a	0.011265168
79	0xbdaff74e	-0.085920915
80	0xbe0981a9	-0.13428368
81	0xbdbfebc5	-0.09371141
82	0xbc83b91d	-0.01607948
83	0xbcba626c	-0.02275201
84	0xbd9d6297	-0.0768482
85	0xbddf0dcd	-0.10891304
86	0xbd35bbed	-0.044368673
87	0xbdd606b7	-0.104504995
88	0xbc50e135	-0.012749006
89	0xbd337bb0	-0.04381913
90	0xbe4c9b67	-0.19981156
91	0xbe001397	-0.12507473
92	0xbe015104	-0.12628561
93	0xbd2fc0a6	-0.042908333
94	0xbdb867ef	-0.09004199
95	0xbd9b84fd	-0.07593725
96	0x3d173a95	0.036921103
97	0xbe56fe5c	-0.20995468
98	0xbe04b8a2	-0.12961057
99	0xbdbf9e15	-0.09356324
100	0xbd81067b	-0.06300064
101	0xbd43aafb	-0.04777048
102	0xbe26e2f7	-0.16297518
103	0xbe6e6840	-0.23281956
104	0xbe19dea3	-0.15026335
105	0xbe22e589	-0.15907873
106	0xbe2d7a45	-0.16941173
107	0xbd880ece	-0.06643449
108	0x3d48bac2	0.04900623
109	0xbddad9fd	-0.10686109
110	0xbd84df2c	-0.06487879
111	0xbda42966	-0.080157086
112	0xbe1bad6b	-0.15202872
113	0xbd2cb7ff	-0.04216766
114	0xbc6f1757	-0.014592967
115	0xbe0fa294	-0.14026862
116	0xbd103ace	-0.03521233
117	0x3d621efa	0.055205323
118	0xbda66a1b	-0.08125707
119	0xbd507347	-0.050891187
120	0xbda132c8	-0.07871014
121	0xbe242a05	-0.16031654
122	0xbe37f2f3	-0.17963772
123	0xbe09c20a	-0.13452926
124	0xbddef299	-0.108861156
125	0x3cf6a5c8	0.030108348
126	0xbe095dd1	-0.13414694
127	0xbe82290c	-0.2542194
128	0xbe54df22	-0.20788243
129	0xbe8b98a4	-0.27264893
130	0xbeb6157c	-0.35563266
131	0xbed0d234	-0.40785372
132	0xbd4cc04d	-0.04998808
133	0xbe292bd6	-0.16520628
134	0xbd8f9489	-0.07010753
135	0xbde4cf24	-0.111723214
136	0x3a20e902	0.00061382365
137	0xbe3666db	-0.17812674
138	0xbdc29002	-0.095001236
139	0xbdb32600	-0.08747482
140	0xbe005d01	-0.12535478
141	0xbdfe7795	-0.12425152
142	0xbbd0d965	-0.0063735717
143	0xbde612a0	-0.11234021
144	0xbdcfd819	-0.10148639
145	0xbe35d7bb	-0.17758076
146	0x3c606088	0.01369489
147	0xbe0cbac3	-0.13743119
148	0xbd6abcef	-0.057309087
149	0x3cee2caf	0.029074041
150	0x3c525fd2	0.012840228
151	0x3e0539f5	0.1301039
152	0x3e4f2f3e	0.20232865
153	0x3e0b392d	0.1359603
154	0xbcfce5f8	-0.030871376
155	0xbe9e2118	-0.30884624
156	0xbdf89a04	-0.12138751
157	0xbe600ac8	-0.21879113
158	0xbee9ad19	-0.45639876
159	0xbebaf687	-0.3651621
160	0xbea94e37	-0.33067486
161	0xbe9ecb14	-0.3101431
162	0xbce9fc15	-0.028562585
163	0xbcefb3ce	-0.029260542
164	0xbccfb952	-0.025356922
165	0xbd1fe102	-0.039032944
166	0xbe3d2bd9	-0.18473758
167	0xbddaadcc	-0.106776804
168	0x3d26f4c7	0.04076078
169	0xbdb49d04	-0.08819011
170	0xbdade15d	-0.0849025
171	0xbdb72cf3	-0.0894412
172	0xbdd09c26	-0.10186033
173	0xbd89d338	-0.0672974
174	0xbe1258cb	-0.14291684
175	0xbb88bae0	-0.004172668
176	0xbe01b2eb	-0.12665908
177	0x3ce07201	0.027398111
178	0x3e56be18	0.20970953
179	0x3e41c122	0.1892133
180	0x3e627562	0.2211509
181	0x3e6d7544	0.23189265
182	0x3d2ae03e	0.04171776
183	0x3d45d3f7	0.04829785
184	0xbda26226	-0.079288766
185	0xbdcb950f	-0.0994054
186	0xbe1f10a1	-0.15533687
187	0xbe41ca3f	-0.18924807
188	0xbea1c432	-0.31594998
189	0xbe39ae16	-0.18132815
190	0xba984653	-0.0011617638
191	0xbdafbc5e	-0.0858085
192	0xbc963e01	-0.018340113
193	0xbe4c0e60	-0.19927359
194	0xbde094ac	-0.10965857
195	0xbe0da761	-0.13833381
196	0xbe001c73	-0.12510853
197	0xbbc7f010	-0.0061016157
198	0x3981b71f	0.00024741233
199	0xbe04eb5b	-0.12980406
200	0xbe1a4a88	-0.15067494
201	0xbdd45140	-0.1036706
202	0xbc35235f	-0.011055796
203	0xbbb9a696	-0.0056656105
204	0x3cf0c1b1	0.029389234
205	0x3e223402	0.15840152
206	0x3e42f817	0.19039951
207	0x3e62a89f	0.22134636
208	0x3eadc856	0.33941907
209	0x3e1e51b7	0.15460859
210	0x3e07ed12	0.13274029
211	0xbbb93fe0	-0.0056533664
212	0xbdde65db	-0.10859271
213	0x3d62ce1d	0.055372346
214	0x3c9f1a1d	0.019421631
215	0xbe1cee55	-0.15325291
216	0xbdf3b722	-0.11900164
217	0xbdf79f0f	-0.12090885
218	0xbdb110a7	-0.08645754
219	0xbbbbd1d7	-0.005731802
220	0xbe12a0c3	-0.14319138
221	0xbb4caf12	-0.003123228
222	0xbe109884	-0.1412068
223	0xbe1652df	-0.1468005
224	0xbdd31422	-0.103065744
225	0x3ce90ff3	0.028449988
226	0xbdde9d52	-0.1086985
227	0xbe01410f	-0.12622474
228	0xbc4666b3	-0.012109446
229	0xbd7e464c	-0.06207876
230	0xbd397df9	-0.045286153
231	0xbc479a56	-0.012182793
232	0x3e263fe3	0.16235308
233	0x3e3bd91a	0.18344536
234	0x3e816e8e	0.2527966
235	0x3e17b2c0	0.14814281
236	0x3e5fa88b	0.21841638
237	0x3ddfa243	0.10919621
238	0x3b9ec33e	0.004845052
239	0xbd37734c	-0.04478769
240	0xbd86021e	-0.065433726
241	0x3dac1cbb	0.084039174
242	0x3dc86bfa	0.0978622
243	0xbd88419c	-0.06653139
244	0xbd170ad1	-0.03687555
245	0xbd54d88f	-0.05196434
246	0xbe0e04d2	-0.13869026
247	0xbd37cc81	-0.044872764
248	0xbe1495ef	-0.1451032
249	0xbdbeca61	-0.093159445
250	0xbe2724f3	-0.16322689
251	0x3d03b656	0.03215631
252	0x3c3288ab	0.010896842
253	0xbe2c8484	-0.16847426
254	0xbdd98eeb	-0.106229626
255	0xbcde34c9	-0.02712478
