20220518170.pt (torch, 424079 bytes, 8 tensors)

encoder.0.weight f4 [64, 784]
0	0xbc6ddf61	-0.01451859
1	0x3cf0d2ac	0.029397331
2	0x3c9aec90	0.01891163
3	0x3c97ddbe	0.018538352
4	0xbd116b33	-0.035502624
5	0xbe48348f	-0.195513
6	0xbf9bca75	-1.217116
7	0xbf80a889	-1.0051433
8	0xbfe5b93a	-1.7947152
9	0xc030272e	-2.7523913
10	0xc038bdae	-2.8865771
11	0xbfd9f65c	-1.7028308
12	0xc03eb242	-2.97963
13	0xc01c1881	-2.4389956
14	0xc061d81f	-3.528816
15	0xc0459215	-3.0870411
16	0xbf4e5e9f	-0.8061313
17	0xbfbe5107	-1.4868478
18	0xbfd34341	-1.6504899
19	0xbf6d9717	-0.9280867
20	0xbf8e083b	-1.1096262
21	0xbff29634	-1.8952088
22	0xbf923687	-1.142289
23	0xbf015955	-0.50526935
24	0xbcc10f23	-0.023566788
25	0xbbe05d4a	-0.0068470584
26	0xbaf7e401	-0.0018912555
27	0xbcc1b7ac	-0.023647152
28	0xbc8a6ce3	-0.016897624
29	0xbaf53c4a	-0.0018709984
30	0x3f8d3a02	1.1033328
31	0x3ebc496d	0.3677477
32	0xbf21ef93	-0.63256186
33	0xbeea8b96	-0.4580962
34	0xc00cb728	-2.198679
35	0xc074e175	-3.8262608
36	0xc058cd4d	-3.3875306
37	0xc05b018b	-3.4219692
38	0xc0239ea9	-2.5565588
39	0xbff35c88	-1.9012613
40	0xbff97871	-1.9489881
41	0xc0478695	-3.1175892
42	0xbfe811a8	-1.8130388
43	0xbf2b50db	-0.6692025
44	0xbfd3e314	-1.6553674
45	0xbfa92a59	-1.3216048
46	0xbfd457c4	-1.6589284
47	0xbf949859	-1.1608993
48	0xbf90eb95	-1.1321894
49	0xc02bc397	-2.6838129
50	0xbfa38776	-1.2775714
51	0xc047343c	-3.1125631
52	0xbefe2249	-0.49635532
53	0x3f5353f3	0.8254997
54	0xbaca4525	-0.0015431984
55	0xbce1f643	-0.027583247
56	0x3c83af25	0.016074726
57	0x3c6d1b25	0.014471804
58	0x3ea7dce8	0.32785726
59	0xbee5914d	-0.44837418
60	0x3f997c27	1.1991013
61	0xc02ab786	-2.6674514
62	0xbf9fa8d2	-1.2473395
63	0xbd309448	-0.043110162
64	0xc0348f0f	-2.8212316
65	0xbfd138d2	-1.6345465
66	0xbfb0d2b0	-1.3814297
67	0xbcb56167	-0.022141172
68	0xbd43fb53	-0.047847103
69	0xbf366f09	-0.71263176
70	0xbf4f217d	-0.80910474
71	0xbe1184aa	-0.14210764
72	0xbe62cbf9	-0.22148122
73	0xbf477e4a	-0.77927077
74	0xbeee1be9	-0.4650567
75	0x3d44866f	0.04797977
76	0xbecb3fee	-0.39697212
77	0xbecc7ef5	-0.3994061
78	0xbf2147ac	-0.6299999
79	0x3d3e5de8	0.046476275
80	0xbf6a18f6	-0.9144434
81	0x3f059e65	0.52194816
82	0x3ef0cea8	0.47032666
83	0xbc8be6c0	-0.017077804
84	0x3d0121d8	0.031526417
85	0xbf122883	-0.57093066
86	0x3e66bb6f	0.22532438
87	0xbf59ff57	-0.8515524
88	0xbe01c81a	-0.12673989
89	0xbf06202b	-0.52392834
90	0xbf13c6dc	-0.5772531
91	0x3f101a18	0.56289816
92	0x3c9782ef	0.018495051
93	0x3eb8f79a	0.36126405
94	0xbebe8715	-0.37212434
95	0xbbe08849	-0.006852184
96	0x3b9af49c	0.0047288667
97	0x3ccb81a7	0.024842096
98	0x3ced869b	0.028994849
99	0xbc8ecf4a	-0.017432828
100	0x3eae6ecb	0.34068903
101	0xbcfb6bc9	-0.030691044
102	0xbe779899	-0.24179305
103	0x3c2e06c4	0.01062173
104	0x3d420e06	0.047376655
105	0xbd2c2b9d	-0.04203378
106	0x3dee3083	0.116303466
107	0xbf530264	-0.8242552
108	0xbf1ab772	-0.60436165
109	0x3f34ff7b	0.7070233
110	0xbf741fb2	-0.95360863
111	0x3f59fe7b	0.8515393
112	0xbb86a9ee	-0.0041096127
113	0x3f70c14c	0.9404495
114	0xbfbf06a1	-1.4923898
115	0x3ed278c6	0.41107768
116	0xbfd9126a	-1.6958745
117	0x3f9660d3	1.1748298
118	0xbe830636	-0.25590676
119	0x3db661e5	0.08905391
120	0xbe9eeb97	-0.31039116
121	0x3e99be04	0.30027783
122	0xbb235c93	-0.0024927005
123	0x3de4bbee	0.11168657
124	0x3de88f09	0.11355407
125	0xbd2dce4b	-0.042433064
126	0x3e5dd944	0.21664912
127	0x3db02a4b	0.08601817
128	0x3e4eb6d9	0.20186938
129	0xbba55c43	-0.005046399
130	0xbdafc67e	-0.08582781
131	0x3e6013a6	0.21882495
132	0xbdc8dedb	-0.09808131
133	0x3e65be96	0.22435984
134	0xbcba7b81	-0.02276397
135	0x3e293902	0.16525653
136	0x3eb835a6	0.3597843
137	0xbff31630	-1.8991146
138	0xbf136d08	-0.57588243
139	0x3e854d60	0.26035595
140	0xbc606fea	-0.013698557
141	0xbea241bc	-0.31690776
142	0xbf9897cd	-1.1921326
143	0x3f306dce	0.6891755
144	0xbe4813cf	-0.19538806
145	0xbec8af2b	-0.39196143
146	0x3d03a8db	0.032143455
147	0xbe865da9	-0.26243332
148	0x3e9164d6	0.28397244
149	0xbdc44af7	-0.09584611
150	0xbcb84b1c	-0.022496752
151	0xba013d13	-0.000493006
152	0x3dc69329	0.09696037
153	0x3c4cc5f3	0.012498367
154	0x3c38a848	0.01127059
155	0x3ca49554	0.020090736
156	0x3d33e575	0.04392
157	0x3dabfddd	0.0839803
158	0x3e4c3720	0.19942904
159	0x3c5a5f54	0.013328392
160	0xbe19801c	-0.14990276
161	0xbd39ee88	-0.045393497
162	0xbdfaa061	-0.12237621
163	0xbd364151	-0.044495884
164	0x3f443c88	0.76654863
165	0xbf3ea8de	-0.7447642
166	0xbf209e48	-0.6274152
167	0x3f991d78	1.1962118
168	0xbe733ee2	-0.23754457
169	0xbffa5d42	-1.955971
170	0x3f565f83	0.8373949
171	0x3d133e06	0.035947822
172	0x3ea6694a	0.32502204
173	0x3de6e3ea	0.1127394
174	0x3d10d2f8	0.035357445
175	0xbd37336c	-0.044726774
176	0xbcaefe7b	-0.02136158
177	0xbe1e2128	-0.15442336
178	0x3dc74c67	0.097313695
179	0xbd815764	-0.063154966
180	0xbda8928d	-0.08231077
181	0x3d070a5a	0.032968856
182	0xbe0608ba	-0.13089266
183	0x3c4e0c43	0.012576166
184	0x3d81f7c0	0.06346083
185	0x3dd41142	0.10354854
186	0x3d986f29	0.07443077
187	0x3e5cd301	0.21564867
188	0x3c893b12	0.0167518
189	0x3d67c8d4	0.05658801
190	0xbe7ba630	-0.24575114
191	0x3d74b85d	0.059746135
192	0xbe8297dc	-0.25506485
193	0xbd7ff9a8	-0.06249395
194	0xbe24f273	-0.16108112
195	0x3f6f1d84	0.9340441
196	0x3f341e33	0.7035858
197	0x3f417bcf	0.7557954
198	0xbf2f4260	-0.68460655
199	0x3f10b039	0.56518894
200	0xbe877ad4	-0.26460898
201	0xbd8f68e0	-0.07002425
202	0xbd90802e	-0.07055698
203	0x3de40b68	0.11134988
204	0xbe28ff0f	-0.16503547
205	0xbb7ad86b	-0.0038275968
206	0x3d15bda6	0.036557816
207	0xbd8d7025	-0.069061555
208	0xbd4d9f70	-0.05020088
209	0xbda30895	-0.07960621
210	0x3cc099a5	0.023510763
211	0x3da6decd	0.081479646
212	0xbdeb8d1d	-0.115015246
213	0x3e603319	0.21894492
214	0xbca2671f	-0.019824563
215	0xbda55d0e	-0.080743894
216	0xbdfb81b3	-0.122805975
217	0xbdb3640e	-0.08759318
218	0xbeafc4e2	-0.34329897
219	0xbe0fa150	-0.1402638
220	0x3e2bd820	0.16781664
221	0xbeacc185	-0.33741394
222	0xbf1f6c8e	-0.62275016
223	0x3ed933d9	0.4242237
224	0xbb80babf	-0.003928512
225	0x3e97cf34	0.2965027
226	0xbf3e4437	-0.7432284
227	0x3ee1ed89	0.44126537
228	0xbdd52752	-0.104078904
229	0x3e0fe7e4	0.14053303
230	0xbecc0514	-0.39847624
231	0x3b6eddd2	0.0036448133
232	0x3dd635b6	0.10459463
233	0xbd562eba	-0.052290656
234	0xbcec936e	-0.028878894
235	0x3db9e5c3	0.09077027
236	0x3e19d7b3	0.15023689
237	0xbd085358	-0.033282608
238	0x3e08fc68	0.13377535
239	0x3d3ba5ef	0.045812543
240	0x3e0b43f2	0.13600138
241	0xbc8876f7	-0.01665829
242	0x3e1e52a8	0.15461218
243	0x3d800c3e	0.06252335
244	0x3e31a631	0.17348553
245	0xbda868aa	-0.08223088
246	0x3e4a5e93	0.1976264
247	0xbec01b68	-0.3752091
248	0xbe35e5db	-0.17763464
249	0xbf17353c	-0.59065604
250	0xc004b89d	-2.073768
251	0x40883bde	4.257308
252	0x3f49193b	0.78554124
253	0x3ea41d59	0.3205364
254	0x3e65f26e	0.22455761
255	0x3d396a16	0.045267187

encoder.0.bias f4 [64]
0	0x4011d069	2.2783453
1	0x3e232b99	0.159346
2	0xbf2480f8	-0.6425929
3	0x3ff4b3c3	1.9117359
4	0x401d43c9	2.4572623
5	0xc05cc761	-3.4496691
6	0x4006a5a0	2.103859
7	0x3fbfe5e3	1.4992031
8	0x3f9e69d3	1.2376045
9	0x3f8df96c	1.1091743
10	0x4008c641	2.1371005
11	0x40077c54	2.1169634
12	0x3fea5773	1.8307937
13	0x4020c630	2.5120964
14	0x400b39f3	2.175412
15	0x3fb104b0	1.3829556
16	0x402009d8	2.5006008
17	0x3fc79a4a	1.559396
18	0x40020f0a	2.032168
19	0xbe959753	-0.29217014
20	0x4035bd22	2.8396688
21	0x401d560f	2.4583776
22	0x3dff890c	0.124773115
23	0x3f036e78	0.51340437
24	0x3fddc414	1.7325463
25	0x40033689	2.0502036
26	0x3fb856cf	1.4401492
27	0x4023e7f4	2.5610323
28	0xbeb4fb30	-0.3534789
29	0x3fb0e240	1.3819046
30	0x3f82670f	1.0187701
31	0x3f792a00	0.9732971
32	0x3e41dc43	0.1893168
33	0x3fbe3522	1.4859965
34	0x40462f89	3.0966513
35	0x3f9e2e8a	1.2357953
36	0x4008f4f0	2.1399498
37	0x40160216	2.3438773
38	0x3ff50fbf	1.914543
39	0xbe90e623	-0.2830058
40	0x3db84796	0.08998029
41	0x3e02f4d3	0.12788706
42	0x3fb575e4	1.4176602
43	0x3f890eec	1.0707679
44	0x4037e5a8	2.873392
45	0x4006ed8a	2.1082482
46	0x3fc6dfbb	1.5537027
47	0x3fda2ed3	1.704554
48	0xbe81a609	-0.25321987
49	0xbdbe7cac	-0.09301123
50	0xbf774af3	-0.9659874
51	0x402a8367	2.6642702
52	0xbadd1b3b	-0.0016869077
53	0x40032c9d	2.049598
54	0x3ff8f8b9	1.9450904
55	0x402442fd	2.5665886
56	0x3f1f96e6	0.6233963
57	0xbf45bff4	-0.7724602
58	0x3f41e6b4	0.7574265
59	0x3fd4cbcf	1.6624697
60	0x3fa6bcc4	1.3026357
61	0x403044bc	2.7541952
62	0x3f87730f	1.0581988
63	0x3fd59c0c	1.6688247

encoder.2.weight f4 [32, 64]
0	0xbe006b40	-0.12540913
1	0xbde39901	-0.111131676
2	0xbd6824aa	-0.05667559
3	0xbe001ed7	-0.12511764
4	0xbe36c119	-0.17847098
5	0x3cb72e1b	0.022360852
6	0xbda2c504	-0.07947734
7	0x3ca36063	0.019943422
8	0x3abc9581	0.0014387817
9	0xbe2df7b0	-0.16989017
10	0xbd4543e2	-0.04816044
11	0xbcd1268d	-0.025531078
12	0xbd138fda	-0.03602586
13	0xbe0e9b62	-0.13926461
14	0x3af9b7f0	0.001905201
15	0x3c221b97	0.009894273
16	0x3d846f66	0.0646656
17	0x3d4fc397	0.05072364
18	0xbdbb84a7	-0.09156161
19	0x3d840314	0.064458996
20	0xbe1ba4f7	-0.15199648
21	0xbe20246a	-0.15638891
22	0xbcd8b1e2	-0.026452009
23	0xbda35f4f	-0.07977163
24	0x3d083cf8	0.03326127
25	0xbe06e8c9	-0.13174738
26	0xbe0ecc38	-0.13945091
27	0xbd9aac98	-0.07552451
28	0xbddc8746	-0.10767989
29	0xbdc8b793	-0.09800639
30	0xbd5826c3	-0.05277134
31	0xbdb0c001	-0.08630372
32	0xbc3c7cdf	-0.011504381
33	0xbe32663d	-0.17421813
34	0xbe1f203e	-0.15539643
35	0xbdd1abd6	-0.10237853
36	0xbd5f3f9f	-0.054504033
37	0xbe147448	-0.14497483
38	0xbe27c687	-0.16384326
39	0xbdf5b2cd	-0.11996994
40	0x3d456423	0.0481912
41	0xbd1c1ee6	-0.038115405
42	0x3d61a455	0.05508836
43	0x3d3ff81c	0.046867475
44	0xbc0d8a1d	-0.008638886
45	0x3d1852be	0.037188284
46	0xbe21fd0b	-0.15819184
47	0xbdd8a76d	-0.10578809
48	0xbe3b9a48	-0.18320572
49	0x3d1dac08	0.03849414
50	0xbd204c07	-0.039135005
51	0xbd3cc8a1	-0.046089772
52	0xbe1fbbf2	-0.15599039
53	0xbda7da1b	-0.08195897
54	0x3d1133af	0.03544968
55	0xbe10bd54	-0.14134723
56	0xbb0d2a9b	-0.0021540287
57	0xbe286977	-0.16446482
58	0x3cb1fd2d	0.021727169
59	0xbcb5755d	-0.02215069
60	0xbd715ede	-0.058928363
61	0x3cac3dc6	0.02102555
62	0xbd3e6425	-0.046482224
63	0xbe380ecf	-0.17974399
64	0x3d518223	0.0511495
65	0xbb4e711b	-0.0031500522
66	0xbec0c551	-0.3765054
67	0xbd4c6d9e	-0.049909227
68	0x3cf69ce7	0.030104114
69	0xbc0a1601	-0.008428098
70	0xbe865222	-0.26234537
71	0xbce14698	-0.027499482
72	0x3d1fd990	0.039025843
73	0xbdbfaacc	-0.09358749
74	0x3d54a43a	0.05191443
75	0xbdc91d9f	-0.09820103
76	0xbcb66d8e	-0.022269037
77	0xbe327c82	-0.17430308
78	0xbe05d870	-0.13070846
79	0x3be08726	0.0068520484
80	0xbd30e7b3	-0.043189716
81	0xbd377165	-0.044785876
82	0xbd96c6e4	-0.07362154
83	0xbebffbc2	-0.37496763
84	0xbdbe849b	-0.09302636
85	0xbe1f9c20	-0.155869
86	0x3d7d5aee	0.061854295
87	0xbc58d820	-0.013235122
88	0xbe2763e4	-0.16346699
89	0xbde1641f	-0.11005425
90	0xbe09f6c0	-0.13473034
91	0xbdbef5d6	-0.09324233
92	0xbe83112f	-0.25599048
93	0xbdbbf319	-0.091772266
94	0xbe2334cc	-0.15938109
95	0xbe2d13fb	-0.16902153
96	0xbe9d883e	-0.30768007
97	0xbdb5a89f	-0.088700525
98	0xbc3646f4	-0.011125315
99	0xbdaed310	-0.08536351
100	0xbdfe69fa	-0.12422557
101	0xbe258fee	-0.16168186
102	0xbe2e6b7d	-0.17033191
103	0xbe8e326b	-0.2777284
104	0xbec31965	-0.38105312
105	0xbe9602ed	-0.29299107
106	0x3d05355f	0.0325216
107	0xbd3c4975	-0.04596849
108	0xbd9aa6d3	-0.075513504
109	0xbe2a78a0	-0.16647577
110	0xbe8e59f8	-0.27803016
111	0xbe3a1c5d	-0.18174882
112	0xbe8d1ae7	-0.27559587
113	0xbe29119c	-0.16510624
114	0xbd971aa9	-0.07378132
115	0xbd63736e	-0.055530004
116	0xbe2a277f	-0.16616629
117	0xbc8ad5a2	-0.016947571
118	0xbe393610	-0.1808703
119	0xbe04985e	-0.12948748
120	0xbec519f0	-0.3849635
121	0xbe93e0b8	-0.28882384
122	0x3bf71e7e	0.0075414767
123	0xbe010c22	-0.12602285
124	0xbe2f84ab	-0.17140453
125	0xbdccd078	-0.100007
126	0xbe0f2959	-0.13980617
127	0x3cadbc6a	0.021208007
128	0x3f182761	0.5943509
129	0xbea4f82d	-0.32220593
130	0x3ceeefda	0.029167105
131	0x3b5cbf21	0.0033683258
132	0xbeca8458	-0.39554095
133	0x3d2200a0	0.039551377
134	0x3dec70c0	0.11544943
135	0x3d9ad53a	0.07560201
136	0x3bebd215	0.0071966746
137	0x3cfd81d3	0.030945694
138	0xbf584168	-0.844748
139	0x3bb61818	0.0055570714
140	0xbfe93441	-1.8219072
141	0xbbc1abfc	-0.0059103947
142	0xbdc1096c	-0.09425625
143	0x3f13642d	0.5757473
144	0x3e384311	0.17994334
145	0xbecbb435	-0.39785925
146	0x3d736992	0.05942685
147	0x3e258fd6	0.1616815
148	0xbf8d0e8c	-1.1020064
149	0xbcd0ff0d	-0.025512243
150	0x3db19112	0.08670248
151	0xbcd9b0cb	-0.02657356
152	0xbda0ba4b	-0.078480326
153	0xbb27e847	-0.0025620626
154	0xbbe3f676	-0.0069568707
155	0x3952c97c	0.0002010222
156	0x3c41640c	0.011803638
157	0xbfb756e5	-1.4323393
158	0xbe38055c	-0.17970794
159	0x3bb4694f	0.005505718
160	0x3ab3bdf3	0.0013713225
161	0xbcfbb991	-0.030728133
162	0xbfa53d69	-1.2909366
163	0x3daff9fd	0.08592603
164	0xbf350f1d	-0.70726186
165	0xbcab8935	-0.020939449
166	0x3da730bf	0.081635945
167	0x3c877805	0.016536722
168	0xbd70de83	-0.058805954
169	0xbdb72b2f	-0.089437835
170	0xbe22d3d2	-0.15901116
171	0xbd4837c3	-0.048881304
172	0xbe17ea35	-0.14835437
173	0xbda4f1b8	-0.08053917
174	0x3e72991c	0.23691219
175	0xbc6c4e53	-0.014422971
176	0x3cc4e00b	0.024032613
177	0xbce26437	-0.027635677
178	0xbc8d1fd0	-0.017227083
179	0xbeca28dd	-0.394843
180	0x3dd8e28b	0.10590085
181	0xbc3468e1	-0.011011333
182	0x3dade21b	0.08490392
183	0xbe88bb5e	-0.2670545
184	0x3cde3581	0.027125122
185	0xbb675a76	-0.0035301722
186	0xbc07f983	-0.008299234
187	0xbe08ac5c	-0.13347
188	0x3deac509	0.11463363
189	0x3b60fb21	0.0034329372
190	0xbcfd7549	-0.030939715
191	0xbd55eff3	-0.052230787
192	0x3dadfccb	0.08495482
193	0xbdd9d298	-0.10635871
194	0x3d2add21	0.04171479
195	0x3da16bc3	0.07881882
196	0x3e9e2c78	0.30893302
197	0xbd2e1698	-0.042502016
198	0x3e5836de	0.2111468
199	0x3ef00e92	0.46886116
200	0x3c105eb5	0.008811642
201	0xbdb8cb6f	-0.09023177
202	0xbe8f6a88	-0.28010964
203	0x3e761981	0.24033166
204	0xc0053a36	-2.081678
205	0x3d85237a	0.06500907
206	0xbd8130c0	-0.063081264
207	0x3eae2a59	0.34016684
208	0x3c800764	0.015628524
209	0xbe12299d	-0.14273687
210	0xbb9b15a6	-0.0047328053
211	0xbd4121c2	-0.047151335
212	0xbe951de2	-0.2912436
213	0x3c80351f	0.01565033
214	0x3ce73adb	0.028226307
215	0xbd8235f0	-0.06357944
216	0x3c4fc87a	0.012682075
217	0x3d5b527f	0.05354547
218	0x3d8d960d	0.069133855
219	0x3e0db25a	0.13837567
220	0x3c670ec6	0.014102643
221	0xbfffad22	-1.9974711
222	0x3dc05bf3	0.09392538
223	0xbcade1d4	-0.021225847
224	0xbd974b38	-0.07387394
225	0x3d74e93f	0.059792753
226	0xc02a7acb	-2.6637447
227	0xbd3ce789	-0.046119247
228	0xbf24a1c4	-0.64309335
229	0x3e79c87c	0.24392885
230	0xbcfbdcb3	-0.030744886
231	0x3b90541d	0.0044045583
232	0xb9326e16	-0.00017016413
233	0xbc287fbe	-0.010284362
234	0xbe045b98	-0.12925565
235	0xbd14a5c0	-0.036290884
236	0xbd915ab6	-0.0709738
237	0x3e0e7ce2	0.13914827
238	0x3dac4382	0.084113136
239	0xbe62319b	-0.22089235
240	0x3db14314	0.08655372
241	0x3d3b1297	0.045672026
242	0xbd59c053	-0.05316193
243	0xbe9f0b9d	-0.31063548
244	0x3eab65e5	0.33476177
245	0x3dfd7f35	0.123777784
246	0x3c596398	0.013268374
247	0xbe3c003d	-0.18359466
248	0xbc9ca2a4	-0.019120522
249	0xbcbf5785	-0.023357162
250	0x3e0408ce	0.12893984
251	0x3e574100	0.2102089
252	0xbced4a42	-0.028966073
253	0x3e31d87b	0.17367737
254	0x3dd9b3e2	0.10630013
255	0x3e0e8933	0.13919525

encoder.2.bias f4 [32]
0	0xbd93b024	-0.072113305
1	0xbe7eb659	-0.24874248
2	0x3f05a1d2	0.52200043
3	0x3f652dcc	0.89523005
4	0x3f7383d3	0.9512302
5	0x3ccc126b	0.024911126
6	0xbd8ae757	-0.06782406
7	0xbf1ae7d5	-0.6051
8	0xbe17e25b	-0.14832442
9	0xbed5d30e	-0.41762584
10	0x3f72cfb6	0.9484819
11	0x3ec0074b	0.37505564
12	0xbd85d65f	-0.06535029
13	0x3d25938f	0.040423926
14	0x3f22c09b	0.6357514
15	0x3bd94afb	0.006631253
16	0xbe2156df	-0.15755795
17	0x3d3ab110	0.045579016
18	0x3f2e0333	0.6797363
19	0x3e9d6cbe	0.30747026
20	0xbe0c1b96	-0.13682398
21	0xbdcc6273	-0.09979715
22	0x3e72ec4a	0.2372295
23	0xbd6bae42	-0.057539232
24	0x3f3959ad	0.7240246
25	0xbe6ab756	-0.229215
26	0x3f49147b	0.78546876
27	0x3efd4483	0.49466333
28	0x3d254f36	0.040358745
29	0x3e8326cd	0.2561554
30	0x3ec24f64	0.37951195
31	0x3f2ab67a	0.6668469

decoder.0.weight f4 [64, 32]
0	0xbe81b3f1	-0.25332597
1	0xbe922c7c	-0.28549564
2	0xbeb7f8f8	-0.35932136
3	0xbe8ae9e6	-0.27131575
4	0xbeb7f1fa	-0.359268
5	0xbe93c36f	-0.28860041
6	0xbdf4c1d6	-0.11951034
7	0xbdddd095	-0.108307995
8	0x3ed2bf4b	0.4116157
9	0xbd16b11a	-0.03678999
10	0xbde4d54d	-0.111734964
11	0xbee8fbf7	-0.45504734
12	0xbe94f382	-0.29092032
13	0x3d92c902	0.071672454
14	0xbedc30fd	-0.43006125
15	0xbee802e7	-0.45314714
16	0xbd98fa53	-0.074696206
17	0xbeb496f5	-0.3527142
18	0xbe5a56c7	-0.21322165
19	0xbea2bfee	-0.31787056
20	0xbe51aaf2	-0.20475367
21	0xbebfaf1e	-0.3743829
22	0xbead6a3e	-0.3387012
23	0xbed9bbd7	-0.42526123
24	0x3e9acb77	0.30233356
25	0x3ed0a8f8	0.40753913
26	0x3edb20f3	0.42798576
27	0xbeb837bd	-0.35980025
28	0x3e6bffae	0.23046753
29	0xbece5862	-0.40301806
30	0xbe5bb23e	-0.21454713
31	0x3e233e2f	0.1594169
32	0xbe8138a2	-0.2523852
33	0xbe4b15aa	-0.19832483
34	0xbcf62e7e	-0.030051466
35	0x3e3b1f6f	0.1827371
36	0x3ccdffdf	0.025146423
37	0x3cbb15f0	0.022837609
38	0xbe4e56b5	-0.20150264
39	0x3c85b829	0.016323166
40	0x3e8073e0	0.25088406
41	0x3c8dbdf9	0.0173025
42	0x3cdd892d	0.02704295
43	0x3e3125d5	0.17299588
44	0x3d777b54	0.06042035
45	0xbe3402b9	-0.17579164
46	0xbdf17ed8	-0.11791772
47	0xbd675582	-0.05647803
48	0xbca6b47e	-0.020349737
49	0x3c92ef66	0.01793642
50	0xbdbeb595	-0.09311978
51	0x3ef43f95	0.4770476
52	0xbe57bde5	-0.21068533
53	0xbde77ae7	-0.11302739
54	0x3cb958d1	0.022625359
55	0xbe19c0b9	-0.15014924
56	0x3df19e58	0.1179778
57	0x3c83e140	0.016098619
58	0x3dad73f3	0.08469381
59	0xbd584cc6	-0.05280759
60	0x3dd9add5	0.10628859
61	0x3dd67897	0.104722194
62	0x3ddb7103	0.10714915
63	0xbb802e44	-0.0039117653
64	0x3e1d9ebf	0.15392588
65	0x3cf651f0	0.030068368
66	0xbc816791	-0.015796455
67	0xbe030424	-0.12794548
68	0x3d2148b5	0.03937598
69	0x3e6ca517	0.23109852
70	0x3e0fc03d	0.14038177
71	0x3e46f834	0.1943062
72	0xbe3f142d	-0.1866004
73	0xbd7076ce	-0.05870705
74	0xbd9580cf	-0.07299959
75	0xbde0d905	-0.10978893
76	0x3e023ba0	0.12718058
77	0xbc10b1ed	-0.008831483
78	0xbd71b751	-0.059012715
79	0xbdc6ed94	-0.09713283
80	0xbe27adaa	-0.16374841
81	0x3e1de834	0.1542061
82	0xbdadf17c	-0.08493325
83	0x3d63df77	0.055633035
84	0xbd194d7d	-0.037427414
85	0x3e54b5db	0.20772497
86	0xbeaaf9ae	-0.33393615
87	0x3e625d7e	0.22105977
88	0x3d876875	0.066117205
89	0x3d38dbab	0.045131367
90	0x3f18da82	0.59708416
91	0xbdeb9d61	-0.11504627
92	0xbe12e1c8	-0.14343941
93	0xbd9aefcf	-0.07565271
94	0x3c6bdaaf	0.0143954
95	0x3db105cb	0.08643683
96	0xbdbfc36a	-0.09363444
97	0x3d8b3c67	0.0679863
98	0xbbba0134	-0.005676413
99	0xbe72d9e7	-0.23715936
100	0xbdef6843	-0.11689808
101	0xbe0afafc	-0.13572305
102	0xbe3b7c4b	-0.18309133
103	0x3df34c9b	0.11879846
104	0x3e2db716	0.16964373
105	0x3de66024	0.11248806
106	0x3d4dba15	0.05022629
107	0xbde7683d	-0.11299179
108	0xbe2229e4	-0.15836293
109	0xbe21c636	-0.15798268
110	0xbdd6fe8c	-0.1049777
111	0x3d899e8d	0.06719694
112	0x3ca98845	0.020694861
113	0xbdc085d4	-0.09400526
114	0xbe22c143	-0.15894036
115	0x3cdfa96f	0.027302472
116	0xbd515de7	-0.051114943
117	0xbdb338e8	-0.087510884
118	0x3e3afddf	0.18260907
119	0xbe6aba5b	-0.22922651
120	0x3d56d3f1	0.052448217
121	0xbcc824f6	-0.024431687
122	0x3e37707b	0.17914002
123	0x3d640546	0.05566909
124	0x3e2fbdfd	0.17162319
125	0xbe705cac	-0.23472852
126	0xbde41cf4	-0.11138335
127	0xbd1d4670	-0.038397253
128	0xbdd5f145	-0.10446409
129	0xbe88e4cb	-0.26737055
130	0xbded747b	-0.115944825
131	0xbe174c35	-0.14775164
132	0xbe48ea4b	-0.19620626
133	0xbda9eb73	-0.082968615
134	0xbe6ffe21	-0.23436786
135	0x3db79aca	0.089650705
136	0x3cd87ddb	0.0264272
137	0x3e0fec91	0.14055087
138	0xbccb0204	-0.024781235
139	0xbda25d7f	-0.07927989
140	0xbe201609	-0.15633406
141	0xbe64387a	-0.22287169
142	0x3ce9d810	0.02854541
143	0xbe5afb39	-0.21384896
144	0x3da3ef35	0.080046095
145	0xbe467788	-0.19381535
146	0xbe4fe494	-0.2030204
147	0xbe0d4116	-0.1379436
148	0x3d8d46cc	0.06898269
149	0xbe317336	-0.17329106
150	0xbdad01c3	-0.08447602
151	0xbd5d6bf0	-0.054058015
152	0xbe0377e4	-0.12838703
153	0xbd7ab88f	-0.061211165
154	0x3d8d99e4	0.06914118
155	0x3e60685c	0.2191481
156	0x3e6a18ad	0.22860976
157	0xbe4c70f1	-0.19964959
158	0xbdd01bdc	-0.10161564
159	0xbd842113	-0.06451621
160	0xbda7bfea	-0.081909016
161	0xbe90659e	-0.28202528
162	0xbe8e72f8	-0.2782209
163	0xbea57312	-0.32314354
164	0xbeba23c3	-0.3635541
165	0xbead560e	-0.33854717
166	0x3bc78dc9	0.0060899
167	0xbe245842	-0.16049293
168	0x3e87c768	0.26519322
169	0x3dd8ffb1	0.10595644
170	0xbe794df7	-0.24346147
171	0xbe5e1ff0	-0.2169187
172	0xbc995e9e	-0.018721875
173	0xbc10d9f2	-0.008841025
174	0x3d0fe41a	0.035129644
175	0xbed69cd5	-0.41916528
176	0xbc888cc6	-0.016668689
177	0xbe9a4315	-0.30129305
178	0xbe6f5adc	-0.23374504
179	0xbe976ef5	-0.2957684
180	0xbee0fdf6	-0.43943757
181	0xbe953071	-0.2913852
182	0xbe7801dc	-0.2421946
183	0xbda5b68d	-0.080914594
184	0xbe4659fc	-0.19370264
185	0x3e8a3521	0.2699366
186	0xbeb5e9f8	-0.35530066
187	0xbea37e07	-0.3193209
188	0x3e78f0af	0.24310564
189	0xbe7c42d4	-0.24634868
190	0xbed86262	-0.4226256
191	0x3e0338a9	0.12814583
192	0x3db695bc	0.08915278
193	0xbdcb210e	-0.09918414
194	0xbdff27f1	-0.1245879
195	0xbe21a2f9	-0.15784825
196	0xbf794de8	-0.973845
197	0xbe109fdd	-0.14123483
198	0x3de81e0c	0.11333856
199	0xbe184bc4	-0.14872652
200	0x3cff997d	0.031201119
201	0x3de045df	0.10950827
202	0xbe258b15	-0.16166337
203	0xbcb03597	-0.021509929
204	0xbe239d49	-0.15977968
205	0xbeb527fe	-0.35382074
206	0x3df19e18	0.11797732
207	0x3e0bbdf8	0.13646686
208	0xbe35811f	-0.17725037
209	0x3df53d6c	0.11974606
210	0x3cc0c7ee	0.023532834
211	0xbcf5d1cb	-0.030007264
212	0xbd78d8be	-0.060753576
213	0x3bc5405c	0.006019635
214	0x3c1593b4	0.009129453
215	0x3e3c06e6	0.18362007
216	0xbd77d7e2	-0.060508616
217	0x3d87cf8f	0.066313855
218	0xbd14747a	-0.036243893
219	0xbd66cdf1	-0.056348745
220	0xbd7d641a	-0.061863042
221	0xbe18b63f	-0.14913271
222	0x3f088a6e	0.53336227
223	0xbe76e870	-0.24112105
224	0xbe70a24c	-0.23499411
225	0xbe8d68c0	-0.2761898
226	0x3c8b8208	0.017029777
227	0xbcf3f3df	-0.029779373
228	0xbd6ebba2	-0.05828441
229	0xbcca965e	-0.024729904
230	0xbd7e8d71	-0.062146608
231	0xbe9b437b	-0.3032492
232	0x3e097674	0.13424093
233	0x3de62bea	0.11238845
234	0x3da48311	0.080328114
235	0xbdfe7c52	-0.12426056
236	0xbe538b24	-0.20658547
237	0xbdff28f7	-0.12458985
238	0x3cd81a99	0.02637987
239	0xbe98daf6	-0.29854554
240	0x3e820829	0.2539685
241	0xbc8f4fd6	-0.017494123
242	0x3ee64bea	0.44979793
243	0x3e269e7f	0.16271399
244	0xbd369b25	-0.04458155
245	0xbe93076d	-0.28716603
246	0x3d261467	0.0405468
247	0xbe115364	-0.14191967
248	0xbc22e1b1	-0.009941504
249	0x3e139d5b	0.14415495
250	0x3df7debf	0.12103032
251	0xbc465f6a	-0.012107709
252	0xba26dd6f	-0.00063653936
253	0xbcf2c311	-0.02963403
254	0xbdbb0162	-0.09131123
255	0x3ea58139	0.32325152

decoder.0.bias f4 [64]
0	0xbe684050	-0.22680783
1	0xbe092c4b	-0.13395803
2	0x3e034773	0.12820224
3	0xbdec4df2	-0.115383044
4	0x3a877468	0.0010334374
5	0xbe609b82	-0.21934322
6	0x3e0afc5a	0.13572827
7	0xbd83a2e9	-0.06427557
8	0x3dfb6beb	0.12276443
9	0xbe1e3bc9	-0.15452494
10	0x3c187338	0.009304814
11	0xbd165034	-0.03669758
12	0x3d5eb8c1	0.054375414
13	0xbe059254	-0.13044101
14	0xbd81f443	-0.06345417
15	0xbe5d0930	-0.21585536
16	0xbd655dd2	-0.055997677
17	0xbb996898	-0.004681658
18	0xbe4e96db	-0.20174734
19	0xbd21238b	-0.039340537
20	0x3bf27a6c	0.0073998477
21	0xbd7a854a	-0.06116227
22	0x3e1a14b9	0.15046968
23	0xbd9fb3b7	-0.0779795
24	0xbeef20d1	-0.46704724
25	0xbe55ef6a	-0.2089211
26	0xbe3a5bc0	-0.18199062
27	0xbebc0e06	-0.3672945
28	0xbe1fc522	-0.15602544
29	0x3e4a0698	0.19729078
30	0x3aebb7bd	0.0017983835
31	0xbe802b43	-0.25033006
32	0xbda811b6	-0.08206503
33	0x3d573d84	0.0525489
34	0xbdd0c404	-0.10193637
35	0x3e5baebb	0.21453373
36	0x3e275edb	0.16344778
37	0xbe37c363	-0.17945628
38	0x3cea44e7	0.028597308
39	0xbdc817a7	-0.09770136
40	0xbe5e8bce	-0.21733019
41	0xbd16e93a	-0.036843516
42	0x3c615e9f	0.01375547
43	0x3dbc7043	0.092011
44	0x3e5eefa0	0.21771097
45	0xbdccccdc	-0.10000011
46	0x3d687e20	0.056760907
47	0x3e63509f	0.22198723
48	0xbe76825d	-0.24073167
49	0xbdf2d971	-0.1185788
50	0x3dd21ab2	0.10258998
51	0xbde00aa1	-0.10939527
52	0xbe42657b	-0.18984024
53	0x3d46861b	0.048467737
54	0xbdcf3358	-0.10117215
55	0xbc76901d	-0.015049008
56	0xbe17d3e4	-0.14826924
57	0x3e1f0c0b	0.15531938
58	0xbcd457bf	-0.025920747
59	0xbe8b051e	-0.27152342
60	0x3e86071a	0.26177293
61	0x3e1d4326	0.15357646
62	0x3de8b7fb	0.113632165
63	0xbb5d6f64	-0.0033788318

decoder.2.weight f4 [784, 64]
0	0x3df6bfe0	0.12048316
1	0xbd92d7de	-0.0717008
2	0x3ce40c08	0.027837768
3	0xbd7fffac	-0.062499687
4	0xbd9d605a	-0.07684393
5	0xbcf92a20	-0.030415595
6	0x3d40b170	0.047044218
7	0xbd8ca4b2	-0.06867351
8	0x3bb8b728	0.0056370683
9	0xbd807f12	-0.06274237
10	0xbe1e7700	-0.15475082
11	0xbd991490	-0.07474625
12	0xbbdac1f1	-0.0066759516
13	0x3c852e1f	0.016257344
14	0x3d212d0f	0.03934961
15	0xbdd9cd2a	-0.10634835
16	0xbab4b556	-0.0013786952
17	0xbdede4a6	-0.11615877
18	0xbd004f94	-0.03132589
19	0xbddf52c7	-0.109044604
20	0xbd41c8a8	-0.0473105
21	0xbe0f23a0	-0.13978434
22	0xbd98b2d7	-0.07455986
23	0xbdce2d3f	-0.10067224
24	0x3d608410	0.054813445
25	0xbc1bb390	-0.00950326
26	0xbe1ac14a	-0.15112796
27	0x3d924336	0.07141726
28	0x3c02c870	0.007982358
29	0xbc9ddadc	-0.0192694
30	0xbdab444e	-0.083626375
31	0xbd9ebfa4	-0.07751396
32	0x3c170900	0.009218454
33	0xbd214738	-0.03937456
34	0xbdd02cca	-0.10164793
35	0xbe095187	-0.13410006
36	0xbe28f1f3	-0.16498546
37	0xbc31e84c	-0.010858607
38	0xbe195084	-0.1497212
39	0xbe0ebfc6	-0.13940343
40	0xbdd58d46	-0.104273364
41	0xbdfb8d33	-0.12282791
42	0xbd98d90a	-0.07463272
43	0x3da28898	0.079362094
44	0xbd307cd2	-0.043087788
45	0xbe21bfb8	-0.15795791
46	0xbb974ae0	-0.00461708
47	0x3cd09998	0.025463864
48	0xbcb7af10	-0.022422343
49	0xbdc7e2fd	-0.097600915
50	0xbe402222	-0.1876302
51	0xbd590d6a	-0.05299131
52	0xbd555f6c	-0.052092955
53	0xbd23bca4	-0.039974824
54	0x3caa12a8	0.02076085
55	0x3ddeb5fc	0.108745545
56	0xbd19d024	-0.037552014
57	0xbc93e242	-0.018052224
58	0x3d0db884	0.034599796
59	0xbda6d0e6	-0.08145313
60	0x3d9b8d6e	0.07595335
61	0xbd2a51de	-0.04158198
62	0xbe29f800	-0.1659851
63	0xbd9c0d76	-0.07619755
64	0x3d8e9ad4	0.06963125
65	0x3c621316	0.013798496
66	0xbda909c0	-0.08253813
67	0x3da8f35c	0.08249542
68	0xbdfdfcc8	-0.1240173
69	0xbd73a3a4	-0.05948223
70	0xbd353804	-0.044242874
71	0xbcab09c2	-0.020878676
72	0xbe421a2f	-0.18955301
73	0x3c245274	0.010029424
74	0xbc9dc4fc	-0.019258969
75	0xbd3089c9	-0.043100152
76	0xbd4419b6	-0.047876082
77	0xbe4efd5f	-0.20213841
78	0xbcdf0142	-0.02722228
79	0x39723c00	0.0002310127
80	0xbe44f5dc	-0.19234413
81	0x3cf6f4d0	0.030146033
82	0xbd088100	-0.03332615
83	0xbe0e7f82	-0.13915828
84	0xbd7c0b4c	-0.06153421
85	0xbdb94256	-0.09045856
86	0xbd5323a3	-0.051547658
87	0xbcdeefcf	-0.027213959
88	0xbd8d35d6	-0.06895034
89	0xbc20e440	-0.009820044
90	0x3d41d796	0.04732474
91	0xbd93aede	-0.07211088
92	0x3d13eb44	0.03611304
93	0xbcb50e90	-0.02210167
94	0x3cd781e7	0.02630706
95	0x3da23280	0.07919788
96	0x3c806afe	0.015676018
97	0xbd7188a4	-0.0589682
98	0xbdf61052	-0.120148316
99	0xbc87b395	-0.016565124
100	0xbafe20eb	-0.0019388472
101	0xbd0506a0	-0.03247702
102	0xbda9e43b	-0.08295485
103	0xbe0da109	-0.13830961
104	0xbd90f378	-0.07077688
105	0x3d2826e2	0.041052707
106	0xbd83c6a6	-0.064343736
107	0x3d0fe148	0.035126954
108	0xbd1d6394	-0.038425043
109	0x3c382b3c	0.011240777
110	0x3db0d94a	0.086351946
111	0xbd15a235	-0.036531646
112	0xbb37f240	-0.0028067976
113	0xbd184273	-0.037172746
114	0xbe1b5c30	-0.15171885
115	0xbd2fa6e7	-0.04288378
116	0x3bebe6e0	0.0071991533
117	0xbe118b00	-0.1421318
118	0xbcb3c492	-0.021944318
119	0xbe314897	-0.17312847
120	0xbe2fbe71	-0.17162491
121	0xbd50db12	-0.05099017
122	0x3b4518d1	0.0030074606
123	0xbd0f3d89	-0.034970794
124	0x3c47cee8	0.012195326
125	0xbd3dbfbd	-0.046325434
126	0xbd664501	-0.05621815
127	0xbe098a7e	-0.13431737
128	0x3de253e4	0.11051157
129	0xbe744e14	-0.2385791
130	0xbdd9ce9c	-0.10635111
131	0x3de02314	0.109441906
132	0xbd77e510	-0.060521185
133	0xbd06c284	-0.03290035
134	0x3dac548c	0.084145635
135	0x3c32a461	0.010903449
136	0xbe2a91bd	-0.16657157
137	0xbdb7ebcd	-0.08980522
138	0x3d888508	0.06665999
139	0xbcab04e8	-0.020876363
140	0xbd331426	-0.043720387
141	0xbda046ca	-0.07826002
142	0xbc861534	-0.016367532
143	0x3c8e6ff8	0.017387375
144	0x3d06fcd3	0.032955956
145	0x3d237898	0.03990993
146	0x3b852060	0.0040626973
147	0xbd5d1af2	-0.053980775
148	0xbdad0ecc	-0.08450088
149	0xbe2fc32a	-0.17164293
150	0xbd82f9a8	-0.063952744
151	0xbc3248a0	-0.010881573
152	0x3d84ea88	0.06490046
153	0xbccb1658	-0.024790928
154	0xbd83659a	-0.06415863
155	0xbc38b5a0	-0.0112737715
156	0xbd94c0ba	-0.07263322
157	0xbc7511e8	-0.014957882
158	0xbe0baf9c	-0.13641208
159	0xbd844d38	-0.06460041
160	0x3da8a53c	0.08234641
161	0x3d56a3c8	0.052402288
162	0xbd337c14	-0.043819502
163	0xbe1624e8	-0.14662516
164	0xbe012781	-0.12612726
165	0xbc965a58	-0.018353626
166	0xbe424668	-0.1897217
167	0x3d9c350e	0.07627307
168	0x3d6f98e0	0.058495402
169	0xbddf9491	-0.10917009
170	0x3cf37100	0.029716969
171	0xbdc9b17e	-0.09848307
172	0xbce4a2fc	-0.027909748
173	0x3d0c7ace	0.034296803
174	0x3db78b34	0.08962098
175	0xba960700	-0.0011446178
176	0x3d193ce9	0.037411604
177	0x3d987de4	0.07445887
178	0xbe0cadfe	-0.13738248
179	0xbdded661	-0.10880733
180	0xbd4d8710	-0.050177634
181	0x3dafba34	0.08580437
182	0x3c978f30	0.018500894
183	0xbcd68528	-0.02618654
184	0x3d7f53e0	0.06233585
185	0xbe1a8411	-0.15089442
186	0xbdbcc6ee	-0.0921763
187	0x3de6658a	0.11249836
188	0xbd86c215	-0.06579987
189	0xbe0a0a86	-0.13480577
190	0xbe3513c2	-0.17683318
191	0xbd9878cc	-0.07444915
192	0xbcf491b8	-0.02985464
193	0xbb196580	-0.0023406446
194	0xbbfc0f0f	-0.007692225
195	0x3def9708	0.11698729
196	0xbdf9ba1c	-0.12193701
197	0x3dbf651a	0.093454555
198	0x3d56ac94	0.052410677
199	0xbded5c3d	-0.11589859
200	0xbe327111	-0.17425944
201	0xbe440d70	-0.19145751
202	0xbd46c770	-0.048530042
203	0xbb5d3dfe	-0.0033758874
204	0xbe0cacc5	-0.13737781
205	0x3bcbb7a0	0.006216958
206	0x3d17c363	0.03705157
207	0xbda8963a	-0.082317784
208	0xbdd70b57	-0.1050021
209	0xbdcfb502	-0.101419464
210	0xbe40eb94	-0.18839866
211	0xbcd9988a	-0.026561994
212	0x3d7f0efc	0.06227015
213	0x3d3b25d9	0.04569039
214	0xbd48a2f8	-0.048983544
215	0x3d0bd564	0.034139052
216	0xbc27b940	-0.010237038
217	0xbd04cb28	-0.032420307
218	0xbe073cae	-0.13206741
219	0x3dcb65ce	0.09931527
220	0x3db4af3a	0.08822484
221	0xbe26da4c	-0.16294211
222	0x3d4e6d14	0.050396994
223	0x3babe540	0.0052458346
224	0x3dfc1752	0.123091355
225	0xbdc37ce6	-0.09545307
226	0x3d97f9c8	0.07420689
227	0x3cc47aa9	0.02398427
228	0xbdb72a42	-0.08943607
229	0x3d7541a0	0.059877038
230	0xbe4626a8	-0.19350684
231	0xbdf75182	-0.12076093
232	0x3d4220d0	0.047394574
233	0xbdf9651d	-0.12177489
234	0x3de9d2bc	0.114171475
235	0xbdd40d40	-0.1035409
236	0xbbd65205	-0.006540539
237	0xbd89d04b	-0.06729182
238	0xbdd9eb4a	-0.10640581
239	0xbd907998	-0.07054442
240	0x3d8ad97e	0.067797646
241	0xbcf26c01	-0.029592516
242	0x3d3d73fd	0.046253193
243	0x3cec1bd8	0.02882187
244	0x3df5bdc6	0.11999087
245	0xbbe99f3f	-0.0071295793
246	0xbda172fb	-0.07883259
247	0xbd09db3b	-0.03365634
248	0xbe0f1803	-0.13974003
249	0xbd99fd52	-0.0751902
250	0xbe2b4407	-0.16725169
251	0xbdaeca84	-0.085347205
252	0xbde5d8fc	-0.11223027
253	0xbe0caf6b	-0.13738792
254	0x3c4a6241	0.012352527
255	0xbd7ce314	-0.061739996

decoder.2.bias f4 [784]
0	0x3c423e91	0.011855737
1	0xbcb3d408	-0.02195169
2	0x3c514389	0.012772449
3	0xbdbfd7d6	-0.09367339
4	0xbe1327ab	-0.14370601
5	0xbd293264	-0.041307822
6	0xbe1fb575	-0.15596564
7	0xbc8d691c	-0.017262034
8	0xbd9ccfd9	-0.07656831
9	0xbe217ad3	-0.1576951
10	0xbdaae845	-0.08345083
11	0xbe0f22a9	-0.13978066
12	0xbe2d1f88	-0.1690656
13	0xbd03a96d	-0.032144
14	0xbe3fe0b8	-0.18738067
15	0xbe0abdf7	-0.13549028
16	0xbe3a67b7	-0.18203627
17	0x3cde6dd0	0.027151972
18	0x3cb018c0	0.021496177
19	0xbcf33a83	-0.029690986
20	0xbd0b77c0	-0.03404975
21	0xbe24cc8d	-0.16093655
22	0xbd1f482c	-0.038887188
23	0xbe1d0a3e	-0.15335938
24	0xbe2b5c45	-0.16734417
25	0x3cf2d8d9	0.029644417
26	0xbdb64526	-0.08899908
27	0xbe384e70	-0.17998672
28	0xbe0baa9d	-0.13639303
29	0xbd6f3f2b	-0.05840985
30	0xbb4259f9	-0.0029655679
31	0xbe426e4d	-0.18987389
32	0xbd087f0a	-0.03332428
33	0xbd89937a	-0.06717582
34	0xbb6084e8	-0.0034258906
35	0xbd9c604e	-0.07635556
36	0xbe1a283b	-0.15054409
37	0xbd74cffb	-0.059768658
38	0xbe36fc4b	-0.1786968
39	0x3bd53147	0.0065061185
40	0xbbfc1188	-0.0076925196
41	0x3b64ef12	0.0034932536
42	0x3bdb3de9	0.00669073
43	0xbdbe022f	-0.0927776
44	0xbbb19cc3	-0.005420299
45	0xbe1c73f2	-0.15278605
46	0xbe25ae6d	-0.1617982
47	0xbd854c9a	-0.06508751
48	0xbe23b505	-0.15987022
49	0xbd4c921c	-0.04994403
50	0xbe32ebfe	-0.17472836
51	0xbc76a49c	-0.015053894
52	0xbde4a3b5	-0.11164037
53	0xbd97bb9b	-0.0740883
54	0x3cc883a1	0.024476828
55	0x3cf91aa0	0.030408204
56	0xbdf88114	-0.12133995
57	0xbda7df09	-0.081968375
58	0xbdd13386	-0.102149054
59	0xbd603fdd	-0.054748405
60	0xbd171b4d	-0.03689127
61	0xbdc94dbe	-0.09829281
62	0xbda88775	-0.082289614
63	0xbe6d07c6	-0.23147497
64	0xbc8a85a3	-0.016909426
65	0xbdf56d7c	-0.11983773
66	0x3be01449	0.0068383557
67	0xbdd82eba	-0.105557874
68	0xbe24b62c	-0.16085118
69	0xbe48ae41	-0.19597723
70	0xbe34c01a	-0.17651406
71	0xbe54200f	-0.20715354
72	0xbcf479a1	-0.029843153
73	0xbdb1d56a	-0.086832836
74	0xbd1006ef	-0.035162862
75	0xbdc5698e	-0.096392736
76	0xbd66f5d8	-0.0563868
77	0xbd011821	-0.03151715
78	0x3c38918a	0.011265168
79	0xbdaff74e	-0.085920915
80	0xbe0981a9	-0.13428368
81	0xbdbfebc5	-0.09371141
82	0xbc83b91d	-0.01607948
83	0xbcba626c	-0.02275201
84	0xbd9d6297	-0.0768482
85	0xbddf0dcd	-0.10891304
86	0xbd35bbed	-0.044368673
87	0xbdd606b7	-0.104504995
88	0xbc50e135	-0.012749006
89	0xbd337bb0	-0.04381913
90	0xbe4c9b67	-0.19981156
91	0xbe001397	-0.12507473
92	0xbe015104	-0.12628561
93	0xbd2fc0a6	-0.042908333
94	0xbdb867ef	-0.09004199
95	0xbd9b84fd	-0.07593725
96	0x3d173a95	0.036921103
97	0xbe56fe5c	-0.20995468
98	0xbe04b8a2	-0.12961057
99	0xbd927011	-0.07150281
100	0xbd81067b	-0.06300064
101	0xbd43aafb	-0.04777048
102	0xbe219eeb	-0.15783279
103	0xbe6e6840	-0.23281956
104	0xbe19dea3	-0.15026335
105	0xbe22e589	-0.15907873
106	0xbe2d7a45	-0.16941173
107	0xbd880ece	-0.06643449
108	0x3d48bac2	0.04900623
109	0xbddad9fd	-0.10686109
110	0xbd84df2c	-0.06487879
111	0xbda42966	-0.080157086
112	0xbe1bad6b	-0.15202872
113	0xbd2cb7ff	-0.04216766
114	0xbc6f1757	-0.014592967
115	0xbe0fa294	-0.14026862
116	0xbd103ace	-0.03521233
117	0x3d621efa	0.055205323
118	0xbda66a1b	-0.08125707
119	0xbd507347	-0.050891187
120	0xbda132c8	-0.07871014
121	0xbe242a05	-0.16031654
122	0xbe37f2f3	-0.17963772
123	0xbe09c20a	-0.13452926
124	0xbddef299	-0.108861156
125	0x3c3ffa9b	0.011717464
126	0xbe90d084	-0.28284085
127	0xbee8faad	-0.4550375
128	0xbe9295d9	-0.2862995
129	0xbe5f3399	-0.21797027
130	0xbe9cd595	-0.306317
131	0xbec6b4b5	-0.38809744
132	0xbd4cc04d	-0.04998808
133	0xbe292bd6	-0.16520628
134	0xbd8f9489	-0.07010753
135	0xbde4cf24	-0.111723214
136	0x3a20e902	0.00061382365
137	0xbe3666db	-0.17812674
138	0xbdc29002	-0.095001236
139	0xbdb32600	-0.08747482
140	0xbe005d01	-0.12535478
141	0xbdfe7795	-0.12425152
142	0xbc7ce960	-0.0154365
143	0xbde612a0	-0.11234021
144	0xbdcfd819	-0.10148639
145	0xbe35d7bb	-0.17758076
146	0x3c606088	0.01369489
147	0xbe90679e	-0.28204054
148	0xbe2ae0fb	-0.16687386
149	0x3c638e99	0.013888978
150	0x3c7f9320	0.015599042
151	0x3e0c918a	0.13727394
152	0x3e482cfd	0.19548412
153	0x3e0c212e	0.13684532
154	0xbe641089	-0.22271933
155	0xbe9e2118	-0.30884624
156	0xbdf89a04	-0.12138751
157	0xbea2ec22	-0.3182078
158	0xbf05c617	-0.52255386
159	0xbed4136e	-0.41421074
160	0xbeb45350	-0.35219812
161	0xbe8cbd9c	-0.2748841
162	0xbce9fc15	-0.028562585
163	0xbebb9574	-0.3663746
164	0xbccfb952	-0.025356922
165	0xbd1fe102	-0.039032944
166	0xbe3d2bd9	-0.18473758
167	0xbddaadcc	-0.106776804
168	0x3d26f4c7	0.04076078
169	0xbdb49d04	-0.08819011
170	0xbdade15d	-0.0849025
171	0xbdb72cf3	-0.0894412
172	0xbdd09c26	-0.10186033
173	0xbd89d338	-0.0672974
174	0xbe1258cb	-0.14291684
175	0xbb88bae0	-0.004172668
176	0xbe33401a	-0.17504922
177	0x3dcfb7d8	0.10142487
178	0x3e9ccc0a	0.3062442
179	0x3ea36468	0.3191254
180	0x3ebb6572	0.36600834
181	0x3eceb87a	0.4037512
182	0xbd2a3b8e	-0.041560702
183	0xbe0e3cf6	-0.13890442
184	0xbe2ffc84	-0.17186171
185	0xbe42a825	-0.19009455
186	0xbe333ef1	-0.17504479
187	0xbe040457	-0.1289228
188	0xbe4244e6	-0.18971595
189	0xbd19b447	-0.03752544
190	0xba984653	-0.0011617638
191	0xbdafbc5e	-0.0858085
192	0xbc963e01	-0.018340113
193	0xbe4c0e60	-0.19927359
194	0xbde094ac	-0.10965857
195	0xbe0da761	-0.13833381
196	0xbe001c73	-0.12510853
197	0xbbc7f010	-0.0061016157
198	0x3981b71f	0.00024741233
199	0xbe1341db	-0.1438059
200	0xbe1a4a88	-0.15067494
201	0xbdd45140	-0.1036706
202	0xbdfaac33	-0.12239876
203	0xbd7413ff	-0.059589382
204	0x3dadcdde	0.08486532
205	0x3eaef66e	0.34172386
206	0x3ecddf24	0.40209305
207	0x3eeaec2a	0.45883304
208	0x3f103b41	0.56340414
209	0x3eb7c870	0.3589511
210	0x3d98fb59	0.07469816
211	0xbd1d9712	-0.03847415
212	0xbd09a942	-0.033608682
213	0x3dda8789	0.106703825
214	0x3e21bd9c	0.15794986
215	0x3ded00ac	0.11572394
216	0x3e1b4d4a	0.15166202
217	0x3df82f94	0.1211845
218	0x3dbd2a6e	0.092366084
219	0x3e0c4eb8	0.13701904
220	0xbe12a0c3	-0.14319138
221	0xbb4caf12	-0.003123228
222	0xbe109884	-0.1412068
223	0xbe1652df	-0.1468005
224	0xbdd31422	-0.103065744
225	0x3ce90ff3	0.028449988
226	0xbdde9d52	-0.1086985
227	0xbe01410f	-0.12622474
228	0xbc4666b3	-0.012109446
229	0xbe34b205	-0.17646034
230	0xbe1b8ec7	-0.15191184
231	0xbd17e231	-0.037080947
232	0x3e80a587	0.25126287
233	0x3eb9da58	0.36299396
234	0x3ed19483	0.40933618
235	0x3e8cb557	0.274821
236	0x3e9cdea9	0.30638626
237	0x3e0c30c5	0.13690479
238	0xbd02d651	-0.03194267
239	0xbb0affb1	-0.0021209533
240	0x3b342d2c	0.0027492745
241	0x3e201c54	0.15635806
242	0x3e7ba771	0.24575593
243	0x3e36886e	0.17825481
244	0x3e34bada	0.17649403
245	0x3e13060e	0.14357778
246	0xbe0e04d2	-0.13869026
247	0x3d023307	0.031786945
248	0xbe1495ef	-0.1451032
249	0xbe9238f6	-0.28559083
250	0xbe2b0650	-0.16701627
251	0x3d03b656	0.03215631
252	0x3c3288ab	0.010896842
253	0xbe2c8484	-0.16847426
254	0xbdd98eeb	-0.106229626
255	0xbdc1f434	-0.09470406
