2022051860.pt (torch, 424079 bytes, 8 tensors)

encoder.0.weight f4 [64, 784]
00000000: 61df 6dbc acd2 f03c 90ec 9a3c bedd 973c
00000010: 5611 22bd 9cda fbbd c32f 9cbf 843e 89bf
00000020: cb95 92bd ace8 563e e0a2 d53e 0138 643e
00000030: 5dc3 babe 9c93 97be aaf8 2ebf 4b83 15bf
00000040: fc30 80bd 83ab c13d 1677 693e b434 173d
00000050: 02d6 00bf df9b bdbe 41f5 5cbf 1e45 713d
00000060: 230f c1bc 4a5d e0bb 01e4 f7ba acb7 c1bc
00000070: e36c 8abc 4a3c f5ba 1fc5 f73e c7ef e3bc
00000080: 919a 863e b0d7 59bf cc0c 00bf cf79 a6bf
00000090: d5ef bcbf bb93 85be 3f9f 0b3f ed7c 273f
000000a0: 8b4b 213e 89a2 88bf d851 95be e7d5 7bbe
000000b0: dd0e 4abf b730 36bf 54f2 52bf b8ff dabe
000000c0: c709 33be 14a4 50bf f3f2 69be 4201 b8bf
000000d0: 7377 93be 29ad 1abe 2545 caba 43f6 e1bc
000000e0: 25af 833c 251b 6d3c bb45 5f3e 7db5 e0be
000000f0: b57f 363e 4ea2 ecbf 9959 a2bf 5ccb f4be
00000100: 9613 3bbf 5e38 c93d 2180 2b3f 0851 f6bd
00000110: 3257 8d3e e9d5 d93c d511 b1be 344c abbe
00000120: 7c10 d5be a614 4fbe 9b62 5cbe 0cc0 6a3d
00000130: 0db0 11bf 7ed6 09bd dd6b a53e 0f3e 123e
00000140: 7adc a23d 4bd6 8dbe 0b75 893e c0e6 8bbc
00000150: d821 013d 1125 b0bc 5710 963d 1075 66bd
00000160: 092c b8be d36c 073e baf2 35be 72f6 63bf
00000170: a83a b2be aede 313d 653b 553d 41b8 033e
00000180: 5c3b c53d 216e 173e 8c20 6d3d 4acb b43c
00000190: 9b9b 213e 0180 e8bd 0444 54be 53ad b23d
000001a0: a5df ddbe 6eab 253e 0a0c 653b 8b5d 8c3d
000001b0: 7a59 32bf 3b40 b33e 2fb3 97be e5a0 363f
000001c0: eea9 86bb ed27 913c 249c 0dbf 504c edbe
000001d0: 7b5d 28bf 38c8 3d3f c4c9 043e 8b18 a1be
000001e0: 41fd 7bbe 2b28 293e f7a5 683d c53c e43c
000001f0: 406d b23d ba8c d43d 73b2 b53c ac0a d93d
00000200: dcfc 343e a229 c13c edef 2cbc 3b9e b73d
00000210: 58e0 fcbd 70a9 9a3e 611d 8c3d d82a cbbd
00000220: 2cb8 8f3c dc18 85bf 4d61 713e f597 34be
00000230: ea6f 60bc 8a92 a83d a722 cebd 9da6 e4be
00000240: babd cf3d 297b d9be 221c c23c 186b 0a3e
00000250: de5d a33d e094 9fbd e9a2 30be d497 6b3c
00000260: a50e cf3c d371 7f3d aca0 593d 5925 7fbb
00000270: 2825 2b3d 7fbe c63d ae34 033e 8b5f 113e
00000280: 2b0d 23bd 62e3 b7bd a9a4 01be 5c02 4abd
00000290: fd22 bd3e 9342 10bf 4d91 b0be 3cc2 4c3d
000002a0: f7a0 10bd b058 f3bf f4e2 a03d 254c 34be
000002b0: 8c5a 313f de2e ffbd b9aa fe3c 0e15 5c3d
000002c0: 20cc b13c 44c0 ba3d 4319 70bd eebe d53c
000002d0: a0ea d5bc da4f f1bd a099 d0bc 0d62 dd3d
000002e0: df7c f93b 9764 77bb 6b1b 0b3e 6839 eb3d
000002f0: 164a 2ebe 8408 2cbe 71c3 09be eaef 0e3e
00000300: fb39 2cbe 1e84 e9be 8f8c 9c3d b3d4 8abf
00000310: 539c 803d 4465 d53f 6cf6 863e d87f 3f3e
00000320: 660e 56be 20d1 573c a966 9abd 9d27 74bc
00000330: b7e0 42be 7ff8 bf3d 6456 31be 4eba 8b3d
00000340: 7774 d9bd 4d2d 9abd ee64 573d 8bbb 98bd
00000350: 1537 cf3b 2baf d63d 547d f6bd f2f9 013d
00000360: 1a3e ffbd 0a1d cbbd 260c 7cbd 9e95 d8be
00000370: 06b2 873d fd27 9cbe 423f e63c 3142 9e3e
00000380: 6212 6abf 4a09 3fbf 3431 23bd c483 b3bd
00000390: 28f8 7f3e 054d 90bd 95b4 043b f795 b9bd
000003a0: 7d92 99bd edee 4e3d 2aa7 5bbd 6817 ab3d
000003b0: 0dee ee3c af5b 10bd 4395 e13d 97a9 af3d
000003c0: 533b 1f3e c320 bb3d 8d23 e6bc 6ae1 883d
000003d0: 2513 37bd c0dd d2bd 4cdf 213d f8e7 d1be
000003e0: c5b9 f1bd e8c9 bebd bc42 6bbf 175f 863f
000003f0: 31e8 423c e68a 243f 5f82 53be 4382 993d
-0.01451859 0.029397331 0.01891163 0.018538352 -0.039567314 -0.12297556 -1.2202076 -1.0722203
-0.07157477 0.20987195 0.41725826 0.22286989 -0.36477175 -0.29604805 -0.6834818 -0.5840346
-0.06259343 0.094565414 0.22799334 0.036915496 -0.5032655 -0.37032983 -0.8631173 0.058903806
-0.023566788 -0.0068470584 -0.0018912555 -0.023647152 -0.016897624 -0.0018709984 0.4839258 -0.027824296
0.262898 -0.8509474 -0.50019526 -1.3005923 -1.4760691 -0.26089272 0.54539865 0.65424997
0.15751474 -1.0674602 -0.29164004 -0.24593316 -0.7892893 -0.7116808 -0.82401013 -0.42773223
-0.17484199 -0.81500363 -0.22846584 -1.4375384 -0.2880207 -0.15105118 -0.0015431984 -0.027583247
0.016074726 0.014471804 0.21803944 -0.43888465 0.17822154 -1.8487031 -1.2683593 -0.478114
-0.7307676 0.09825204 0.66992384 -0.12027174 0.27605587 0.026591258 -0.34583917 -0.33456576
-0.4161414 -0.2022272 -0.2152199 0.057312056 -0.5690926 -0.03365182 0.32308856 0.14281486
0.07952209 -0.27702555 0.2684711 -0.017077804 0.031526417 -0.02150205 0.07327335 -0.056263983
-0.35971096 0.13225107 -0.17768374 -0.8904792 -0.34810376 0.043425255 0.052058596 0.12863256
0.096304625 0.14788105 0.057892367 0.022069592 0.15782015 -0.1135254 -0.20729071 0.08724465
-0.4333469 0.16178676 0.0034949803 0.068537794 -0.6966778 0.3500994 -0.29628894 0.71339256
-0.0041096127 0.017719233 -0.55316377 -0.46347284 -0.6576764 0.74133635 0.12967592 -0.31464037
-0.24608327 0.16519229 0.0567989 0.027861008 0.08712244 0.10378404 0.022179818 0.105977386
0.17674583 0.023579422 -0.01055525 0.08965727 -0.12347478 0.30207396 0.06841541 -0.09920281
0.017543875 -1.0398211 0.23572274 -0.17636092 -0.013698557 0.08231075 -0.10065203 -0.44658366
0.10143609 -0.42476776 0.023695055 0.13517416 0.07976888 -0.077920675 -0.17249645 0.01437946
0.025275538 0.06236441 0.053131744 -0.0038932173 0.04178348 0.09704303 0.12813064 0.14196603
-0.03980748 -0.08978917 -0.12660469 -0.049318656 0.36940756 -0.56351584 -0.34485856 0.049989924
-0.035309758 -1.901144 0.07855788 -0.17607172 0.6927879 -0.12460111 0.031087266 0.053731017
0.02170378 0.09118703 -0.05861784 0.026092019 -0.026112854 -0.117828086 -0.02546388 0.10809717
0.0076137627 -0.0037749165 0.13584678 0.11485559 -0.17020449 -0.16800123 -0.13453461 0.13958707
-0.16818993 -0.4560861 0.07643997 -1.0846161 0.062798165 1.6671529 0.2635988 0.18701112
-0.2090393 0.013172418 -0.07539112 -0.014902023 -0.19031034 0.09373569 -0.17318112 0.06822644
-0.10617917 -0.07528172 0.05258649 -0.07457646 0.006323705 0.104826294 -0.12035623 0.031732507
-0.12463017 -0.09917648 -0.061535023 -0.4230165 0.06625752 -0.3049926 0.028106336 0.30909875
-0.914343 -0.7462355 -0.039841846 -0.08765367 0.24997008 -0.0704594 0.0020249237 -0.09061807
-0.074986435 0.050520826 -0.053626217 0.08354074 0.029166246 -0.035243686 0.110147975 0.085772686
0.15549974 0.09137108 -0.028093124 0.06683619 -0.044695992 -0.10296202 0.039519593 -0.4099729
-0.11803011 -0.09315854 -0.91898704 1.0497769 0.011896179 0.6427444 -0.20655201 0.074955486

encoder.0.bias f4 [64]
00000000: ba89 b13f bc9e 44bf a41c 11be 7a09 663f
00000010: 3018 d33f dcec 91bf bb5a b53f c601 acbd
00000020: cf4e 7e3f 309c 4e3c f94b b13f 3641 c13f
00000030: 1ad4 d73f 0ede a43f 838a b03f 8918 983f
00000040: bb9c a13f b9aa 933f 07f9 e33f 667d 66be
00000050: 0d45 f13f 5d68 a53f 946c 173f 94b2 703d
00000060: cd7d 813f cb66 b83e 62dd ad3f c0c3 c13f
00000070: d20f 28bd 00ec 963f 3db2 243f 0328 ff3e
00000080: 3ee7 b43d ff0c 493f 6222 0b40 54ed 7d3e
00000090: 54cc b63f 06f5 ae3f dcf1 a23f 091b 40be
000000a0: ecac 00be 040a 953e 604b 1b3f ce9f 353f
000000b0: 33c6 b83f 563f dd3f ef4b 8b3f f1a0 783f
000000c0: c32f 073f a892 273f 0e99 0a3c cb6f d13f
000000d0: 22c8 c03c 7747 d63f 62f6 be3f 5b1e b23f
000000e0: 676f 093f 0134 d9be 446d 873e 45a9 9e3f
000000f0: 3988 20be 3893 693f 7776 3a3f 5bf9 1e3f
1.3870156 -0.7680471 -0.14171082 0.8985821 1.6491756 -1.1400409 1.4168314 -0.08398776
0.99339 0.01261048 1.385131 1.5098026 1.6861603 1.2880266 1.379227 1.1882488
1.2625955 1.1536475 1.7810372 -0.22508773 1.8849198 1.2922474 0.5915005 0.058764055
1.0116516 0.36015925 1.3583186 1.5137863 -0.041030712 1.1790771 0.6433447 0.49835214
0.088331684 0.78535455 2.1739736 0.24797565 1.4281106 1.3668525 1.273006 -0.18760313
-0.12565964 0.29109204 0.6066189 0.7094697 1.4435486 1.7284954 1.0882548 0.9712058
0.52807254 0.65458155 0.008459343 1.6362242 0.02353293 1.6740559 1.491894 1.3915514
0.5368561 -0.42422488 0.2645055 1.2395407 -0.15676965 0.91240263 0.72837013 0.62099236

encoder.2.weight f4 [32, 64]
00000000: 406b 00be 0199 e3bd aa24 68bd d71e 00be
00000010: 19c1 36be 1b2e b73c 04c5 a2bd 6360 a33c
00000020: 8195 bc3a b0f7 2dbe e243 45bd 8d26 d1bc
00000030: da8f 13bd 629b 0ebe f0b7 f93a 971b 223c
00000040: 666f 843d 97c3 4f3d a784 bbbd 1403 843d
00000050: f7a4 1bbe 6a24 20be e2b1 d8bc 4f5f a3bd
00000060: f83c 083d c9e8 06be 38cc 0ebe 98ac 9abd
00000070: 4687 dcbd 93b7 c8bd c326 58bd 01c0 b0bd
00000080: df7c 3cbc 3d66 32be 3e20 1fbe d6ab d1bd
00000090: 9f3f 5fbd 4874 14be 87c6 27be cdb2 f5bd
000000a0: 2364 453d e61e 1cbd 55a4 613d 1cf8 3f3d
000000b0: 1d8a 0dbc be52 183d 0bfd 21be 6da7 d8bd
000000c0: 489a 3bbe 08ac 1d3d 074c 20bd a1c8 3cbd
000000d0: f2bb 1fbe 1bda a7bd af33 113d 54bd 10be
000000e0: 9b2a 0dbb 7769 28be 2dfd b13c 5d75 b5bc
000000f0: de5e 71bd c63d ac3c 2564 3ebd cf0e 38be
00000100: 2382 513d 1b71 4ebb 69be bbbd 9e6d 4cbd
00000110: e79c f63c 0116 0abc 4fc9 303d 9846 e1bc
00000120: 90d9 1f3d ccaa bfbd 3aa4 543d 9f1d c9bd
00000130: 8e6d b6bc 827c 32be 70d8 05be 2687 e03b
00000140: b3e7 30bd 6571 37bd e4c6 96bd 797a a7bd
00000150: 9b84 bebd 209c 1fbe ee5a 7d3d 20d8 58bc
00000160: e463 27be 1f64 e1bd c0f6 09be d6f5 bebd
00000170: 78af 363d 19f3 bbbd cc34 23be eb2b 35bd
00000180: 0be2 493b 9fa8 b5bd f446 36bc 10d3 aebd
00000190: fa69 febd ee8f 25be 7d6b 2ebe 722a 373b
000001a0: 8625 02be 5cb0 783b 5f35 053d 7549 3cbd
000001b0: d3a6 9abd a078 2abe 4473 a8bd 5d1c 3abe
000001c0: 32cd 0c3d 9c11 29be a91a 97bd 6e73 63bd
000001d0: 7f27 2abe a2d5 8abc 1036 39be 5e98 04be
000001e0: a895 b6bd f187 9d3c 7e1e f73b 220c 01be
000001f0: ab84 2fbe 78d0 ccbd 5929 0fbe 6abc ad3c
00000200: b014 703e e0b3 f83b d7f4 95bc cef2 9ebc
00000210: 2be4 1ebe 84d3 9b3c 1dcb b53d 7a42 aa3b
00000220: 338a 873c efa2 243d 0f63 3d3d f64c 45bd
00000230: 8581 90bd cd9c 24bd 9932 00be e5fe 38be
00000240: b18e e13d d21d 8dbd 204a 2f3e 7bd3 153e
00000250: 78a6 4bbe 087f 12be 4029 4abe 61e0 cbbb
00000260: 83d8 42bd f474 c43c c29b 2ebc ce44 d9bc
00000270: 53a2 e03d ca13 82be b94b eebd f0e9 493d
00000280: c39e 043d aac5 803c 51b8 6bbe b115 473d
00000290: 4568 22be e518 c0bd 7594 78bd c4d1 aa3c
000002a0: cb15 25be f75a 713d a838 eebe 671a 86bd
000002b0: be36 0ebd 9c2a 2bbd 9971 353e adad 5dbe
000002c0: 0631 ed3c acc5 87bd 9309 13bb 1873 e03b
000002d0: 99e1 8c3d ef50 89bd 163c 603e 4395 64bb
000002e0: ab6a cf3c b035 c7bc 007e 4fbe a4d4 49be
000002f0: 4803 553d 272f 373d e31c 9ebd 6fbe 95bd
00000300: 607b 36bc f9a6 e93c 957e 3a3d eaaf 183e
00000310: 3947 86bd a179 08bd 21a8 5b3e da70 1f3e
00000320: 0868 933d 17cb 71bd 307b b93d 9b30 573e
00000330: 8b9d 6bbf dc45 ed3d f79b 3fbd c048 12be
00000340: d5ec 7ebc 7d8c 2abe 7d81 a73c 0997 93bd
00000350: 98fb 72be e5ee 573b 7294 b33d 64fd 5e3d
00000360: 77e7 a9bd 84e1 e03b e60e ce3c 7ef8 e43d
00000370: 8932 743d 057a 92bf 4f8c 51bd fac7 333d
00000380: 5de3 8cbd 929e aa3c 072d aabf 0b92 06bd
00000390: e384 acbd 8a05 243d ae5e a2bd 3857 363d
000003a0: 0c81 3abd de3a c43d 88af b2be 3840 82bd
000003b0: 9b8e d839 c1a1 1f3e b1cc f23d 04c9 dbbe
000003c0: b938 d33d 0a22 a23d e95a 52bc b8fc 63bd
000003d0: d4e0 7a3e aeef 433e 7591 a33c 970c 86bd
000003e0: cee6 7e3d 85cb a4bd 13e3 a4be 7c37 953c
000003f0: bde8 86bc feee 3f3e ce5e 0fbf bbeb b2bc
-0.12540913 -0.111131676 -0.05667559 -0.12511764 -0.17847098 0.022360852 -0.07947734 0.019943422
0.0014387817 -0.16989017 -0.04816044 -0.025531078 -0.03602586 -0.13926461 0.001905201 0.009894273
0.0646656 0.05072364 -0.09156161 0.064458996 -0.15199648 -0.15638891 -0.026452009 -0.07977163
0.03326127 -0.13174738 -0.13945091 -0.07552451 -0.10767989 -0.09800639 -0.05277134 -0.08630372
-0.011504381 -0.17421813 -0.15539643 -0.10237853 -0.054504033 -0.14497483 -0.16384326 -0.11996994
0.0481912 -0.038115405 0.05508836 0.046867475 -0.008638886 0.037188284 -0.15819184 -0.10578809
-0.18320572 0.03849414 -0.039135005 -0.046089772 -0.15599039 -0.08195897 0.03544968 -0.14134723
-0.0021540287 -0.16446482 0.021727169 -0.02215069 -0.058928363 0.02102555 -0.046482224 -0.17974399
0.0511495 -0.0031500522 -0.09167177 -0.049909227 0.030104114 -0.008428098 0.043160733 -0.027499482
0.039025843 -0.09358749 0.05191443 -0.09820103 -0.022269037 -0.17430308 -0.13070846 0.0068520484
-0.043189716 -0.044785876 -0.07362154 -0.08177657 -0.09302636 -0.155869 0.061854295 -0.013235122
-0.16346699 -0.11005425 -0.13473034 -0.09324233 0.044600934 -0.091772266 -0.15938109 -0.044231337
0.0030804898 -0.088700525 -0.011125315 -0.08536351 -0.12422557 -0.16168186 -0.17033191 0.0027948883
-0.12709627 0.0037946915 0.0325216 -0.04596849 -0.075513504 -0.16647577 -0.0822511 -0.18174882
0.034375377 -0.16510624 -0.07378132 -0.055530004 -0.16616629 -0.016947571 -0.1808703 -0.12948748
-0.089152634 0.019229861 0.0075414767 -0.12602285 -0.17140453 -0.100007 -0.13980617 0.021208007
0.23445392 0.007589802 -0.018305225 -0.019402888 -0.15516727 0.019021757 0.088766314 0.005195913
0.01654539 0.040194448 0.046237048 -0.0481691 -0.07055954 -0.0401886 -0.12519301 -0.18065985
0.11013544 -0.068904534 0.1711812 0.14631455 -0.19887722 -0.14306271 -0.19742298 -0.0062218164
-0.047569763 0.023981549 -0.010657253 -0.026522066 0.10968461 -0.25405723 -0.11635537 0.049295366
0.03237797 0.015719254 -0.2301953 0.04860467 -0.15860088 -0.09379748 -0.060688455 0.020851977
-0.16121595 0.05892464 -0.465276 -0.065480046 -0.034720175 -0.041788682 0.17719115 -0.21648283
0.02895404 -0.066295 -0.0022436127 0.0068496577 0.06878967 -0.0670489 0.21897921 -0.0034879006
0.025319418 -0.024317592 -0.20262909 -0.19710022 0.052005082 0.044722702 -0.077203535 -0.07311713
-0.011137813 0.028522002 0.045530874 0.14910856 -0.065565534 -0.03331912 0.21450855 0.15570393
0.07197577 -0.059031572 0.09056699 0.21014635 -0.92037266 0.1158559 -0.0467796 -0.14285564
-0.015559395 -0.16655155 0.020447487 -0.07206542 -0.23728788 0.0032948789 0.08768548 0.05444087
-0.082961015 0.006862821 0.025153589 0.111802086 0.059618507 -1.1443487 -0.0511592 0.043891884
-0.068793036 0.020827565 -1.3294991 -0.03285412 -0.08423784 0.040044345 -0.07928215 0.044516772
-0.045533225 0.095815405 -0.34899545 -0.06359905 0.0004130498 0.15589048 0.11855448 -0.429268
0.10313553 0.07916649 -0.0128390575 -0.055660933 0.24499828 0.191344 0.01996682 -0.0654537
0.06223183 -0.08046631 -0.32204494 0.018214934 -0.0164684 0.18743512 -0.56004035 -0.02184092

encoder.2.bias f4 [32]
00000000: 24b0 93bd 64a2 cd39 a069 cb3e d989 173f
00000010: 0df7 153f 6b12 cc3c 57e7 8abd 6e91 15be
00000020: 5be2 17be 0ed3 d5be 8424 e73e 69f5 ce3e
00000030: 5fd6 85bd bdc7 6c3e 823f 803e fb4a d93b
00000040: df56 21be 10b1 3a3d ad1e 053f 7abf 953e
00000050: ad64 453a 7362 ccbd 48bd ee3d 42ae 6bbd
00000060: 84ed e43e 56b7 6abe c618 fc3e c9c4 0c3f
00000070: 364f 253d 78e8 773e c324 aa3e 3f61 aa3e
-0.072113305 0.00039221637 0.39729023 0.59194714 0.58580095 0.024911126 -0.06782406 -0.14606258
-0.14832442 -0.41762584 0.45145047 0.40421608 -0.06535029 0.23123069 0.25048453 0.006631253
-0.15755795 0.045579016 0.5199993 0.29247648 0.00075299555 -0.09979715 0.11657196 -0.057539232
0.4471246 -0.229215 0.4923765 0.5498777 0.040358745 0.24209774 0.33231172 0.33277318

decoder.0.weight f4 [64, 32]
00000000: f1b3 81be 7c2c 92be f8f8 b7be e6e9 8abe
00000010: faf1 b7be 6fc3 93be d6c1 f4bd 95d0 ddbd
00000020: 4bbf d23e 1ab1 16bd 4dd5 e4bd f7fb e8be
00000030: 82f3 94be 02c9 923d fd30 dcbe e702 e8be
00000040: 53fa 98bd f596 b4be c756 5abe eebf a2be
00000050: f2aa 51be 1eaf bfbe 3e6a adbe d7bb d9be
00000060: 77cb 9a3e f8a8 d03e f320 db3e bd37 b8be
00000070: aeff 6b3e 6258 cebe 3eb2 5bbe 2f3e 233e
00000080: 5c71 08be e00a a2bd 8c0f 3f3d 8e23 373e
00000090: 5e89 c33c b16d 113e c4a7 a8bd 1893 0b3e
000000a0: e4dd 063e 8590 d0bd 4a00 5b3d 33f4 7d3d
000000b0: 8fe0 373e e2db dbbe 642e 5bbe e17d 803d
000000c0: d1b3 0ebe 316a 0c3e 97e5 4cbe 528a b43e
000000d0: 825d bbbd 09fc c93b f5f1 bfbc d7f5 fdbc
000000e0: f10b afbd 5e13 d3bd 608f df3d 0252 10be
000000f0: 7548 53bc f8ea a03d bfd2 0ebc ca11 703c
00000100: 53a6 ee3d e06b f4bb 093c 97bc f8e3 94bd
00000110: 618a a33d 174c 463e f2e3 d23d bf26 213e
00000120: 4aba 18be 2ed9 adbc 3f79 86bd dca2 52be
00000130: 60ca b73d 5006 c9bd 3eff c1bc bbe4 09be
00000140: 5b71 01be 0d18 ef3d 5fed 4f3d bd79 2b3c
00000150: f96c 99bd 0055 2e3e 239b d1be 9d16 3c3e
00000160: cc56 0f3e 3f11 a93d b043 113f 86f7 bebd
00000170: 4bff d8bd e3ff 033e 7c99 33bd 00ba c33d
00000180: 6ac3 bfbd 673c 8b3d 3401 babb e7d9 72be
00000190: 4368 efbd fcfa 0abe 4b7c 3bbe 9b4c f33d
000001a0: 16b7 2d3e 2460 e63d 15ba 4d3d 3d68 e7bd
000001b0: e429 22be 36c6 21be 8cfe d6bd 8d9e 893d
000001c0: 4588 a93c d485 c0bd 43c1 22be 6fa9 df3c
000001d0: e75d 51bd e838 b3bd dffd 3a3e 5bba 6abe
000001e0: f1d3 563d f624 c8bc 7b70 373e 4605 643d
000001f0: fdbd 2f3e ac5c 70be f41c e4bd 7046 1dbd
00000200: 45f1 d5bd cbe4 88be 7b74 edbd 354c 17be
00000210: 4bea 48be 73eb a9bd 21fe 6fbe ca9a b73d
00000220: db7d d83c 91ec 0f3e 0402 cbbc 7f5d a2bd
00000230: 0916 20be 7a38 64be 10d8 e93c 39fb 5abe
00000240: 35ef a33d 8877 46be 94e4 4fbe 1641 0dbe
00000250: cc46 8d3d 3673 31be c301 adbd f06b 5dbd
00000260: e477 03be 8fb8 7abd e499 8d3d 5c68 603e
00000270: ad18 6a3e f170 4cbe dc1b d0bd 1321 84bd
00000280: 0139 a5ba d355 f6bd a511 5dbb 10a4 99bc
00000290: 9b4e babd e84a 4fbd a265 f93d b6eb bbbd
000002a0: c24b c83d d14d 913d dc1a 823d 8217 833d
000002b0: ad3e 273d f157 b6bd 1b01 16be d46e 11be
000002c0: 3b68 0bbd 510b 02bd 34fd 843d 4287 97bc
000002d0: b39e 2dbe 889c d3bd f601 0c3d 540f 0d3e
000002e0: e484 c43d 3a6c f13d 8b8a f3bd 2554 a4bd
000002f0: 51b8 0c3e b419 23bd 1328 26be d2dd ffbd
00000300: b5ef 9d3c 902b 2dbe 6c4c 103c 1ef9 96be
00000310: 5dae 01bf 742e 58be a201 323d 9126 5ebe
00000320: b9ff ce3d 299d 373e f70e 8abd eaba 1d3d
00000330: f823 6bbe a390 64be 171d 07bc fa6c 883d
00000340: 791c dcbd 4845 4c3d c27d c33d 6658 cc3d
00000350: 6bc1 05be 96c1 82bd 72e3 19bd 98e6 e83d
00000360: c500 b83d 9e76 0b3e 5c92 48bd 384a b63b
00000370: d9e7 023c b430 a0bd 254a db3e 0f6c 0bbe
00000380: d494 16be acce 40be b867 793d 10dc afbd
00000390: faf9 0ebe e873 813d 5d5c d33c 2759 5cbe
000003a0: 31af 3d3d b4ff c83c e89a 223e 01aa 83be
000003b0: 420c f3bd a887 6bbe d69b 123d 33b4 57be
000003c0: 8c1a 2a3e f241 903d 2201 cb3e 8c0f ee3d
000003d0: c482 313d 0907 4cbe 9e60 7ebd 8ef7 5cbd
000003e0: ece1 bebd 953b 663d 3536 a83d 8982 2c3d
000003f0: 6f55 b5bd 2661 1dbe 68c4 90bd 9b58 943e
-0.25332597 -0.28549564 -0.35932136 -0.27131575 -0.359268 -0.28860041 -0.11951034 -0.108307995
0.4116157 -0.03678999 -0.111734964 -0.45504734 -0.29092032 0.071672454 -0.43006125 -0.45314714
-0.074696206 -0.3527142 -0.21322165 -0.31787056 -0.20475367 -0.3743829 -0.3387012 -0.42526123
0.30233356 0.40753913 0.42798576 -0.35980025 0.23046753 -0.40301806 -0.21454713 0.1594169
-0.13324493 -0.079122305 0.046645686 0.17884657 0.023869213 0.14202 -0.08235124 0.1363033
0.13170582 -0.10183815 0.053467073 0.062000465 0.17956756 -0.42941195 -0.21404415 0.062740095
-0.13935782 0.13712384 -0.20009457 0.3526178 -0.091486946 0.006164078 -0.023430804 -0.031001015
-0.085471995 -0.103064284 0.109160185 -0.14093783 -0.012895693 0.07857317 -0.008717238 0.014652679
0.116528176 -0.0074591488 -0.018461244 -0.07270044 0.07985378 0.19364963 0.10297383 0.15737437
-0.14914814 -0.021221723 -0.065660946 -0.20569938 0.08974147 -0.09815657 -0.02368128 -0.1346616
-0.12640898 0.11674509 0.050763484 0.010466036 -0.07491488 0.17024612 -0.40938672 0.18368001
0.13997954 0.082552426 0.5674391 -0.09324555 -0.10595568 0.12890582 -0.043847546 0.09556961
-0.09363444 0.0679863 -0.005676413 -0.23715936 -0.11689808 -0.13572305 -0.18309133 0.11879846
0.16964373 0.11248806 0.05022629 -0.11299179 -0.15836293 -0.15798268 -0.1049777 0.06719694
0.020694861 -0.09400526 -0.15894036 0.027302472 -0.051114943 -0.087510884 0.18260907 -0.22922651
0.052448217 -0.024431687 0.17914002 0.05566909 0.17162319 -0.23472852 -0.11138335 -0.038397253
-0.10446409 -0.26737055 -0.115944825 -0.14775164 -0.19620626 -0.082968615 -0.23436786 0.089650705
0.0264272 0.14055087 -0.024781235 -0.07927989 -0.15633406 -0.22287169 0.02854541 -0.21384896
0.080046095 -0.19381535 -0.2030204 -0.1379436 0.06898269 -0.17329106 -0.08447602 -0.054058015
-0.12838703 -0.061211165 0.06914118 0.2191481 0.22860976 -0.19964959 -0.10161564 -0.06451621
-0.001260549 -0.120280884 -0.003373244 -0.018754989 -0.09097024 -0.050608546 0.12177588 -0.09175818
0.09780075 0.070949204 0.06352779 0.06400968 0.040831257 -0.08903492 -0.14648859 -0.14202434
-0.03403495 -0.031749073 0.06493607 -0.018497113 -0.1695507 -0.1033259 0.034181558 0.13775378
0.095956594 0.11788221 -0.11891659 -0.08023862 0.13742186 -0.039819434 -0.16226225 -0.12493481
0.01927934 -0.16911149 0.008807283 -0.29486936 -0.5065668 -0.2111147 0.04345859 -0.216944
0.10107369 0.17931046 -0.067411356 0.038508333 -0.2296294 -0.223208 -0.008246682 0.06661411
-0.10747618 0.04987076 0.09545471 0.09977798 -0.13062064 -0.0638458 -0.037570424 0.11372107
0.08984522 0.13619468 -0.048967704 0.005563047 0.007989847 -0.078217894 0.42830005 -0.1361544
-0.14705211 -0.18828839 0.06088993 -0.085868955 -0.13962546 0.063209355 0.025800878 -0.21518384
0.046309654 0.024535991 0.15879405 -0.2571564 -0.11867572 -0.23000968 0.035793148 -0.21064834
0.1661169 0.07043828 0.39649302 0.11624059 0.0433376 -0.19924559 -0.06210386 -0.053947024
-0.09320435 0.056209166 0.08213464 0.042116676 -0.08854186 -0.1536909 -0.070687115 0.2897385

decoder.0.bias f4 [64]
00000000: 5040 68be 9f92 73bc 5ef5 b93d f24d ecbd
00000010: 6874 873a a9f3 be3c 96f2 863d 1711 c13c
00000020: 0dc4 3b3e 366e 14be 3873 183c 1e3a 33bc
00000030: cf67 ed3a ce4f 0fbe 63aa 10bd 3009 5dbe
00000040: 8d50 a4bd 9868 99bb db96 4ebe c32c 55bd
00000050: 6c7a f23b a1a5 b5bc 25eb 9e3d 27b1 b8bd
00000060: 37d6 45be 6aef 55be 26d7 2cbe 060e bcbe
00000070: 22c5 1fbe 89cc 543e d1cf d9bb 432b 80be
00000080: 39dc bcbd 843d 573d 04c4 d0bd 1000 da3d
00000090: 4112 053e 63c3 37be c183 5e3d a717 c8bd
000000a0: ce8b 5ebe bce9 a43d 9f5e 613c 4370 bc3d
000000b0: d169 583e 8c43 bcbd 207e 683d ee26 a63d
000000c0: 5d82 76be 71d9 f2bd b9d1 d73d 214f 98bd
000000d0: 7b65 42be 7f18 db3d 5833 cfbd aa85 4c39
000000e0: e4d3 17be 5e77 013e 18df 9dbc 0a40 52be
000000f0: 49de 563e 9c0f 353e e6e3 e03d 39ab 863d
-0.22680783 -0.0148665 0.09080003 -0.115383044 0.0010334374 0.023309546 0.06589238 0.02356772
0.18336506 -0.14495167 0.009304814 -0.010939149 0.0018112602 -0.13995287 -0.035318743 -0.21585536
-0.08023176 -0.004681658 -0.20174734 -0.05204464 0.0073998477 -0.022173705 0.07759694 -0.09018164
-0.19319998 -0.2089211 -0.16878948 -0.3672945 -0.15602544 0.20781149 -0.006647088 -0.25033006
-0.09221692 0.0525489 -0.10193637 0.10644543 0.12995245 -0.17945628 0.05432487 -0.09770136
-0.21733019 0.08052394 0.01375547 0.092011 0.21134116 -0.09192571 0.056760907 0.08112894
-0.24073167 -0.1185788 0.10538048 -0.07436968 -0.18984024 0.10698032 -0.10117215 0.0001950475
-0.14826924 0.12643191 -0.019271418 -0.20532241 0.20983233 0.17681736 0.10980968 0.06575627

decoder.2.weight f4 [784, 64]
00000000: e0bf f63d ded7 92bd 080c e43c acff 7fbd
00000010: 5a60 9dbd 202a f9bc 70b1 403d b2a4 8cbd
00000020: 28b7 b83b 127f 80bd 0077 1ebe 9014 99bd
00000030: f1c1 dabb 1f2e 853c 0f2d 213d 2acd d9bd
00000040: 56b5 b4ba a6e4 edbd 944f 00bd c752 dfbd
00000050: a8c8 41bd a023 0fbe d7b2 98bd 3f2d cebd
00000060: 1084 603d 90b3 1bbc 4ac1 1abe 3643 923d
00000070: 70c8 023c dcda 9dbc 4e44 abbd a4bf 9ebd
00000080: 0009 173c 3847 21bd ca2c d0bd 8751 09be
00000090: f3f1 28be 4ce8 31bc 8450 19be c6bf 0ebe
000000a0: 468d d5bd 338d fbbd 0ad9 98bd 9888 a23d
000000b0: d27c 30bd b8bf 21be e04a 97bb 9899 d03c
000000c0: 10af b7bc fde2 c7bd 2222 40be 6a0d 59bd
000000d0: 6c5f 55bd a4bc 23bd a812 aa3c fcb5 de3d
000000e0: 24d0 19bd 42e2 93bc 84b8 0d3d e6d0 a6bd
000000f0: 6e8d 9b3d de51 2abd 00f8 29be 760d 9cbd
00000100: d49a 8e3d 1613 623c c009 a9bd 5cf3 a83d
00000110: c8fc fdbd a4a3 73bd 0438 35bd c209 abbc
00000120: 2f1a 42be 7452 243c fcc4 9dbc c989 30bd
00000130: b619 44bd 5ffd 4ebe 4201 dfbc 003c 7239
00000140: dcf5 44be d0f4 f63c 0081 08bd 827f 0ebe
00000150: 4c0b 7cbd 5642 b9bd a323 53bd cfef debc
00000160: d635 8dbd 40e4 20bc 96d7 413d deae 93bd
00000170: 44eb 133d 900e b5bc e781 d73c 8032 a23d
00000180: fe6a 803c a488 71bd 5210 f6bd 95b3 87bc
00000190: eb20 feba a006 05bd 3be4 a9bd 09a1 0dbe
000001a0: 78f3 90bd e226 283d a6c6 83bd 48e1 0f3d
000001b0: 9463 1dbd 3c2b 383c 4ad9 b03d 35a2 15bd
000001c0: 40f2 37bb 7342 18bd 305c 1bbe e7a6 2fbd
000001d0: e0e6 eb3b 008b 11be 92c4 b3bc 9748 31be
000001e0: 71be 2fbe 12db 50bd d118 453b 893d 0fbd
000001f0: e8ce 473c bdbf 3dbd 0145 66bd 7e8a 09be
00000200: e453 e23d 144e 74be 9cce d9bd 1423 e03d
00000210: 10e5 77bd 84c2 06bd 8c54 ac3d 61a4 323c
00000220: bd91 2abe cdeb b7bd 0885 883d e804 abbc
00000230: 2614 33bd ca46 a0bd 3415 86bc f86f 8e3c
00000240: d3fc 063d 9878 233d 6020 853b f21a 5dbd
00000250: cc0e adbd 2ac3 2fbe a8f9 82bd a048 32bc
00000260: 88ea 843d 5816 cbbc 9a65 83bd a0b5 38bc
00000270: bac0 94bd e811 75bc 9caf 0bbe 384d 84bd
00000280: 3ca5 a83d c8a3 563d 147c 33bd e824 16be
00000290: 8127 01be 585a 96bc 6846 42be 0e35 9c3d
000002a0: e098 6f3d 9194 dfbd 0071 f33c 7eb1 c9bd
000002b0: fca2 e4bc ce7a 0c3d 348b b73d 0007 96ba
000002c0: e93c 193d e47d 983d fead 0cbe 61d6 debd
000002d0: 1087 4dbd 34ba af3d 308f 973c 2885 d6bc
000002e0: e053 7f3d 1184 1abe eec6 bcbd 8a65 e63d
000002f0: 15c2 86bd 860a 0abe c213 35be cc78 98bd
00000300: b891 f4bc 8065 19bb 0f0f fcbb 0897 ef3d
00000310: 1cba f9bd 1a65 bf3d 94ac 563d 3d5c edbd
00000320: 1171 32be 700d 44be 70c7 46bd fe3d 5dbb
00000330: c5ac 0cbe a0b7 cb3b 63c3 173d 3a96 a8bd
00000340: 570b d7bd 02b5 cfbd 94eb 40be 8a98 d9bc
00000350: fc0e 7f3d d925 3b3d f8a2 48bd 64d5 0b3d
00000360: 40b9 27bc 28cb 04bd ae3c 07be ce65 cb3d
00000370: 3aaf b43d 4cda 26be 146d 4e3d 40e5 ab3b
00000380: 5217 fc3d e67c c3bd c8f9 973d a97a c43c
00000390: 422a b7bd a041 753d a826 46be 8251 f7bd
000003a0: d020 423d 1d65 f9bd bcd2 e93d 400d d4bd
000003b0: 0552 d6bb 4bd0 89bd 4aeb d9bd 9879 90bd
000003c0: 7ed9 8a3d 016c f2bc fd73 3d3d d81b ec3c
000003d0: c6bd f53d 3f9f e9bb fb72 a1bd 3bdb 09bd
000003e0: 0318 0fbe 52fd 99bd 0744 2bbe 84ca aebd
000003f0: fcd8 e5bd 6baf 0cbe 4162 4a3c 14e3 7cbd
0.12048316 -0.0717008 0.027837768 -0.062499687 -0.07684393 -0.030415595 0.047044218 -0.06867351
0.0056370683 -0.06274237 -0.15475082 -0.07474625 -0.0066759516 0.016257344 0.03934961 -0.10634835
-0.0013786952 -0.11615877 -0.03132589 -0.109044604 -0.0473105 -0.13978434 -0.07455986 -0.10067224
0.054813445 -0.00950326 -0.15112796 0.07141726 0.007982358 -0.0192694 -0.083626375 -0.07751396
0.009218454 -0.03937456 -0.10164793 -0.13410006 -0.16498546 -0.010858607 -0.1497212 -0.13940343
-0.104273364 -0.12282791 -0.07463272 0.079362094 -0.043087788 -0.15795791 -0.00461708 0.025463864
-0.022422343 -0.097600915 -0.1876302 -0.05299131 -0.052092955 -0.039974824 0.02076085 0.108745545
-0.037552014 -0.018052224 0.034599796 -0.08145313 0.07595335 -0.04158198 -0.1659851 -0.07619755
0.06963125 0.013798496 -0.08253813 0.08249542 -0.1240173 -0.05948223 -0.044242874 -0.020878676
-0.18955301 0.010029424 -0.019258969 -0.043100152 -0.047876082 -0.20213841 -0.02722228 0.0002310127
-0.19234413 0.030146033 -0.03332615 -0.13915828 -0.06153421 -0.09045856 -0.051547658 -0.027213959
-0.06895034 -0.009820044 0.04732474 -0.07211088 0.03611304 -0.02210167 0.02630706 0.07919788
0.015676018 -0.0589682 -0.120148316 -0.016565124 -0.0019388472 -0.03247702 -0.08295485 -0.13830961
-0.07077688 0.041052707 -0.064343736 0.035126954 -0.038425043 0.011240777 0.086351946 -0.036531646
-0.0028067976 -0.037172746 -0.15171885 -0.04288378 0.0071991533 -0.1421318 -0.021944318 -0.17312847
-0.17162491 -0.05099017 0.0030074606 -0.034970794 0.012195326 -0.046325434 -0.05621815 -0.13431737
0.11051157 -0.2385791 -0.10635111 0.109441906 -0.060521185 -0.03290035 0.084145635 0.010903449
-0.16657157 -0.08980522 0.06665999 -0.020876363 -0.043720387 -0.07826002 -0.016367532 0.017387375
0.032955956 0.03990993 0.0040626973 -0.053980775 -0.08450088 -0.17164293 -0.063952744 -0.010881573
0.06490046 -0.024790928 -0.06415863 -0.0112737715 -0.07263322 -0.014957882 -0.13641208 -0.06460041
0.08234641 0.052402288 -0.043819502 -0.14662516 -0.12612726 -0.018353626 -0.1897217 0.07627307
0.058495402 -0.10917009 0.029716969 -0.09848307 -0.027909748 0.034296803 0.08962098 -0.0011446178
0.037411604 0.07445887 -0.13738248 -0.10880733 -0.050177634 0.08580437 0.018500894 -0.02618654
0.06233585 -0.15089442 -0.0921763 0.11249836 -0.06579987 -0.13480577 -0.17683318 -0.07444915
-0.02985464 -0.0023406446 -0.007692225 0.11698729 -0.12193701 0.093454555 0.052410677 -0.11589859
-0.17425944 -0.19145751 -0.048530042 -0.0033758874 -0.13737781 0.006216958 0.03705157 -0.082317784
-0.1050021 -0.101419464 -0.18839866 -0.026561994 0.06227015 0.04569039 -0.048983544 0.034139052
-0.010237038 -0.032420307 -0.13206741 0.09931527 0.08822484 -0.16294211 0.050396994 0.0052458346
0.123091355 -0.09545307 0.07420689 0.02398427 -0.08943607 0.059877038 -0.19350684 -0.12076093
0.047394574 -0.12177489 0.114171475 -0.1035409 -0.006540539 -0.06729182 -0.10640581 -0.07054442
0.067797646 -0.029592516 0.046253193 0.02882187 0.11999087 -0.0071295793 -0.07883259 -0.03365634
-0.13974003 -0.0751902 -0.16725169 -0.085347205 -0.11223027 -0.13738792 0.012352527 -0.061739996

decoder.2.bias f4 [784]
00000000: 913e 423c 08d4 b3bc 8943 513c d6d7 bfbd
00000010: ab27 13be 6432 29bd 75b5 1fbe 1c69 8dbc
00000020: d9cf 9cbd d37a 21be 45e8 aabd a922 0fbe
00000030: 881f 2dbe 6da9 03bd b8e0 3fbe f7bd 0abe
00000040: b767 3abe d06d de3c c018 b03c 4df2 e3bc
00000050: c077 0bbd 8dcc 24be 2c48 1fbd 3e0a 1dbe
00000060: 455c 2bbe d9d8 f23c 2645 b6bd 704e 38be
00000070: 9daa 0bbe 2b3f 6fbd f959 42bb 4d6e 42be
00000080: 0a7f 08bd 7a93 89bd e884 60bb 4e60 9cbd
00000090: 3b28 1abe fbcf 74bd 4bfc 36be 4731 d53b
000000a0: 8811 fcbb 12ef 643b 4cf3 ca3c 2f02 bebd
000000b0: c39c b1bb f273 1cbe 6dae 25be 9a4c 85bd
000000c0: 05b5 23be 1c92 4cbd feeb 32be 9ca4 76bc
000000d0: b5a3 e4bd 9bbb 97bd a183 c83c a01a f93c
000000e0: 1481 f8bd 09df a7bd 8633 d1bd dd3f 60bd
000000f0: 4d1b 17bd be4d c9bd 7587 a8bd c607 6dbe
00000100: a385 8abc 7c6d f5bd 4914 e03b ba2e d8bd
00000110: 2cb6 24be 1879 03bd 1ac0 34be ccd5 11bd
00000120: a179 f4bc 6ad5 b1bd ef06 10bd 8e69 c5bd
00000130: d8f5 66bd 2118 01bd 8a91 383c 4ef7 afbd
00000140: a981 09be c5eb bfbd 1db9 83bc 6c62 babc
00000150: 9762 9dbd cd0d dfbd edbb 35bd b706 d6bd
00000160: 35e1 50bc b07b 33bd 679b 4cbe cd3e fcbd
00000170: 0451 01be a6c0 2fbd ef67 b8bd fd84 9bbd
00000180: 953a 173d 5cfe 56be a2b8 04be b2c4 99bd
00000190: 7b06 81bd fbaa 43bd abfc 12be 4068 6ebe
000001a0: a3de 19be 89e5 22be 457a 2dbe ce0e 88bd
000001b0: c2ba 483d fdd9 dabd 2cdf 84bd 6629 a4bd
000001c0: 6bad 1bbe ffb7 2cbd 5717 6fbc 94a2 0fbe
000001d0: ce3a 10bd fa1e 623d 1b6a a6bd 4773 50bd
000001e0: c832 a1bd 052a 24be f3f2 37be 0ac2 09be
000001f0: 99f2 debd 9faa 193d 8b03 fabd 1a89 75be
00000200: b555 4bbe a1c1 89be 2022 b6be e805 cfbe
00000210: 4dc0 4cbd d62b 29be 8994 8fbd 24cf e4bd
00000220: 02e9 203a db66 36be 0290 c2bd 0026 b3bd
00000230: 015d 00be 9577 febd 65d9 d0bb a012 e6bd
00000240: 19d8 cfbd bbd7 35be 8860 603c 0045 fbbd
00000250: ce20 2fbd 5f89 1f3d 8698 053d 3550 173e
00000260: 55a8 573e 57d8 123e d1e6 91bc 1821 9ebe
00000270: 049a f8bd 8638 51be 395b e4be a57d b8be
00000280: ca9d a8be f27f 9dbe 15fc e9bc ceb3 efbc
00000290: 52b9 cfbc 02e1 1fbd d92b 3dbe ccad dabd
000002a0: c7f4 263d 049d b4bd 5de1 adbd f32c b7bd
000002b0: 269c d0bd 38d3 89bd cb58 12be e0ba 88bb
000002c0: 5033 04be 17f2 cf3c 8b4c 583e b7d3 3c3e
000002d0: 049e 593e 6b2e 653e 8ce4 383d c966 753d
000002e0: 4f50 84bd bf39 b1bd 709a 1bbe d416 41be
000002f0: 2311 a5be 101e 3fbe 5346 98ba 5ebc afbd
00000300: 013e 96bc 600e 4cbe ac94 e0bd 61a7 0dbe
00000310: 731c 00be 10f0 c7bb 1fb7 8139 5beb 04be
00000320: 884a 1abe 4051 d4bd 1fed 2ebb fa06 36bc
00000330: 2076 973c 2366 153e d650 323e b157 4f3e
00000340: 28e6 a53e cba2 0f3e 64e1 fe3d d3bd 4ebc
00000350: 66f3 e2bd c730 543d 4518 cc3b ca97 2dbe
00000360: 79f9 09be 4437 0fbe b5d7 d3bd 58c5 d7bc
00000370: c3a0 12be 12af 4cbb 8498 10be df52 16be
00000380: 2214 d3bd f30f e93c 529d debd 0f41 01be
00000390: b366 46bc 0fcd 75bd c15e 23bd de2a 75bc
000003a0: b724 173e d66b 2e3e 52e3 6f3e e8b4 063e
000003b0: b1ee 533e b433 c93d f1b2 a9bb 2092 54bd
000003c0: 41b6 85bd 82e8 933d e271 9c3d 7b37 a3bd
000003d0: 464e 7cbd 1048 9fbd d204 0ebe 25da 65bd
000003e0: ef95 14be 61ca bebd f324 27be 56b6 033d
000003f0: ab88 323c 8484 2cbe eb8e d9bd f865 acbc
0.011855737 -0.02195169 0.012772449 -0.09367339 -0.14370601 -0.041307822 -0.15596564 -0.017262034
-0.07656831 -0.1576951 -0.08345083 -0.13978066 -0.1690656 -0.032144 -0.18738067 -0.13549028
-0.18203627 0.027151972 0.021496177 -0.027825499 -0.03404975 -0.16093655 -0.038887188 -0.15335938
-0.16734417 0.029644417 -0.08899908 -0.17998672 -0.13639303 -0.05840985 -0.0029655679 -0.18987389
-0.03332428 -0.06717582 -0.0034258906 -0.07635556 -0.15054409 -0.059768658 -0.1786968 0.0065061185
-0.0076925196 0.0034932536 0.024774216 -0.0927776 -0.005420299 -0.15278605 -0.1617982 -0.06508751
-0.15987022 -0.04994403 -0.17472836 -0.015053894 -0.11164037 -0.0740883 0.024476828 0.030408204
-0.12133995 -0.081968375 -0.102149054 -0.054748405 -0.03689127 -0.09829281 -0.082289614 -0.23147497
-0.016909426 -0.11983773 0.0068383557 -0.105557874 -0.16085118 -0.032097906 -0.17651406 -0.035604283
-0.029843153 -0.086832836 -0.035162862 -0.096392736 -0.0563868 -0.03151715 0.011265168 -0.085920915
-0.13428368 -0.09371141 -0.01607948 -0.02275201 -0.0768482 -0.10891304 -0.044368673 -0.104504995
-0.012749006 -0.04381913 -0.19981156 -0.12316666 -0.12628561 -0.042908333 -0.09004199 -0.07593725
0.036921103 -0.20995468 -0.12961057 -0.0750822 -0.06300064 -0.04777048 -0.14354198 -0.23281956
-0.15026335 -0.15907873 -0.16941173 -0.06643449 0.04900623 -0.10686109 -0.06487879 -0.080157086
-0.15202872 -0.04216766 -0.014592967 -0.14026862 -0.03521233 0.055205323 -0.08125707 -0.050891187
-0.07871014 -0.16031654 -0.17963772 -0.13452926 -0.108861156 0.037516233 -0.12207707 -0.23978081
-0.19856913 -0.2690554 -0.3557291 -0.40434194 -0.04998808 -0.16520628 -0.07010753 -0.111723214
0.00061382365 -0.17812674 -0.095001236 -0.08747482 -0.12535478 -0.12425152 -0.0063735717 -0.11234021
-0.10148639 -0.17758076 0.01369489 -0.1226902 -0.042755894 0.038949367 0.03261616 0.1477669
0.21060307 0.1434034 -0.017810257 -0.30884624 -0.12138751 -0.20431718 -0.44600847 -0.3603336
-0.32932884 -0.30761677 -0.028562585 -0.029260542 -0.025356922 -0.039032944 -0.18473758 -0.106776804
0.04076078 -0.08819011 -0.0849025 -0.0894412 -0.10186033 -0.0672974 -0.14291684 -0.004172668
-0.12910199 0.025383992 0.21122949 0.18440138 0.21251684 0.22380988 0.045139834 0.059912477
-0.0646063 -0.08653592 -0.15195632 -0.18856364 -0.32239637 -0.18663812 -0.0011617638 -0.0858085
-0.018340113 -0.19927359 -0.10965857 -0.13833381 -0.12510853 -0.0061016157 0.00024741233 -0.12980406
-0.15067494 -0.1036706 -0.0026691628 -0.011110062 0.018488944 0.14589743 0.17413649 0.20248295
0.32402158 0.14026944 0.124453336 -0.0126185 -0.11081581 0.05180433 0.006228479 -0.16952434
-0.13474073 -0.13985926 -0.10343877 -0.026339218 -0.14319138 -0.003123228 -0.1412068 -0.1468005
-0.103065744 0.028449988 -0.1086985 -0.12622474 -0.012109446 -0.060010012 -0.039885286 -0.014963834
0.147601 0.17033324 0.2342656 0.13154948 0.20696522 0.09824315 -0.005178802 -0.05189717
-0.06528903 0.07222082 0.07638909 -0.079695664 -0.061598085 -0.07777417 -0.13869026 -0.056116242
-0.1451032 -0.093159445 -0.16322689 0.03215631 0.010896842 -0.16847426 -0.106229626 -0.021044716
