20220518200.pt (torch, 424079 bytes, 8 tensors)

encoder.0.weight f4 [64, 784]
0	0xbc6ddf61	-0.01451859
1	0x3cf0d2ac	0.029397331
2	0x3c9aec90	0.01891163
3	0x3c97ddbe	0.018538352
4	0xbd116b33	-0.035502624
5	0xbe62b8d6	-0.22140822
6	0xbfd34818	-1.6506376
7	0xbf2675e3	-0.6502363
8	0xbfd0c66e	-1.6310556
9	0xc03080fc	-2.7578726
10	0xc0649775	-3.5717442
11	0xc02797cc	-2.61864
12	0xc05b638a	-3.4279504
13	0xc005d2a3	-2.0909812
14	0xc08918c0	-4.2842712
15	0xc03ae269	-2.920069
16	0xbee41c69	-0.44552925
17	0xbf90dbce	-1.1317079
18	0xbfc4197f	-1.5320281
19	0xbf8c7b3d	-1.0975109
20	0xbfa508c2	-1.2893298
21	0xbfec7ff8	-1.8476553
22	0xbf8e21a0	-1.1104012
23	0xbf8a8b1e	-1.0823705
24	0xbcc10f23	-0.023566788
25	0xbbe05d4a	-0.0068470584
26	0xbaf7e401	-0.0018912555
27	0xbcc1b7ac	-0.023647152
28	0xbc8a6ce3	-0.016897624
29	0xbaf53c4a	-0.0018709984
30	0x3f8d3a02	1.1033328
31	0x3edbc376	0.42922562
32	0xbf9d1fba	-1.2275307
33	0xbf31add4	-0.69405866
34	0xbfebb533	-1.8414673
35	0xc08a47d3	-4.3212676
36	0xc061d171	-3.5284083
37	0xc072f01d	-3.7959054
38	0xc04dd48e	-3.2160983
39	0xc054829c	-3.3204718
40	0xc03a82ab	-2.9142253
41	0xc04e3661	-3.222069
42	0xbff43336	-1.9078128
43	0xbf608b2b	-0.87712353
44	0xbfdc2264	-1.7197995
45	0xbfa3009c	-1.2734561
46	0xbfc408f3	-1.5315231
47	0xbf87025e	-1.0547597
48	0xbf58308e	-0.8444909
49	0xc02409c3	-2.5630958
50	0xc02d0ea6	-2.704019
51	0xc04de010	-3.2168007
52	0xbf3989f9	-0.72476155
53	0x3f8bee80	1.093216
54	0xbaca4525	-0.0015431984
55	0xbce1f643	-0.027583247
56	0x3c83af25	0.016074726
57	0x3c6d1b25	0.014471804
58	0x3ebe55e7	0.37174913
59	0xbebcb332	-0.36855465
60	0x4002393f	2.034744
61	0xc0285403	-2.6301277
62	0xbf0497f7	-0.5179438
63	0xbe3c8f53	-0.18414049
64	0xc0287e15	-2.6326954
65	0xc00566dd	-2.0844033
66	0xbfae99b4	-1.3640656
67	0xbd25fc9a	-0.040524103
68	0xbe677f04	-0.22607046
69	0xbf6ab94c	-0.9168899
70	0xbf877a72	-1.0584242
71	0x3d401f9a	0.046905138
72	0xbed10616	-0.40824956
73	0xbf5e5f29	-0.8686395
74	0xbf18f0f3	-0.5974266
75	0xbb53fff6	-0.003234861
76	0xbe42794c	-0.18991584
77	0xbea2d489	-0.31802776
78	0xbed07c68	-0.40719914
79	0xbe478d76	-0.19487557
80	0xbf78f158	-0.9724326
81	0x3f878a46	1.0589073
82	0x3eb62c2f	0.35580584
83	0xbc8be6c0	-0.017077804
84	0x3d0121d8	0.031526417
85	0xbf22b9ea	-0.6356493
86	0xbe12926c	-0.14313668
87	0xbf1a71f2	-0.60330117
88	0x3dafb079	0.08578581
89	0xbf89163b	-1.0709909
90	0xbf057f6e	-0.5214757
91	0x3f2fc7b4	0.686641
92	0xbe246e88	-0.1605779
93	0x3ebff7d7	0.37493774
94	0xbed92892	-0.42413765
95	0x3d2f4d8b	0.04279856
96	0x3d149372	0.036273427
97	0x3dd6a76d	0.10481153
98	0xbc6fbeec	-0.014632922
99	0xbdd6fb90	-0.104972005
100	0x3eb960dc	0.3620671
101	0xbd1a9ff2	-0.037750192
102	0xbe913f9b	-0.2836884
103	0xbdb33c1a	-0.08751698
104	0x3dc0ef4a	0.09420641
105	0xbe295939	-0.16537942
106	0x3e6632b2	0.22480276
107	0xbf2efa76	-0.68350923
108	0xbece0ca9	-0.40244034
109	0x3f0eb7f8	0.55749464
110	0xbfb6e14e	-1.4287508
111	0x3f9c1731	1.2194577
112	0xbb86a9ee	-0.0041096127
113	0x3f8671b7	1.0503453
114	0xbfb23456	-1.3922222
115	0x3ec9d894	0.39423048
116	0xbfe06ec5	-1.7533804
117	0x3fa39e5a	1.27827
118	0xbee0dd92	-0.43919045
119	0x3dcf706a	0.10128863
120	0xbeece699	-0.46269682
121	0x3e5a9767	0.21346818
122	0x3c61840c	0.013764393
123	0x3e167b48	0.14695466
124	0x3d0e34e2	0.0347184
125	0xbd17ea08	-0.037088424
126	0x3e8c7e00	0.2743988
127	0x3c440d62	0.011966081
128	0x3e00833c	0.12550062
129	0x3c4be33b	0.012444313
130	0xbd457c37	-0.048214164
131	0x3e5f5840	0.21811008
132	0xbe088351	-0.13331343
133	0x3e30ed2a	0.17277971
134	0x3d90ccc8	0.07070309
135	0x3e7d283c	0.2472238
136	0x3edc1d05	0.4299089
137	0xbfbe3bd9	-1.4862014
138	0xbea78525	-0.3271877
139	0xbeb5eb8c	-0.3553127
140	0xbc606fea	-0.013698557
141	0xbeb67321	-0.3563471
142	0xbfa9dfe0	-1.3271446
143	0x3f7ae0fd	0.97999555
144	0xbe511e57	-0.2042173
145	0xbeacd90d	-0.33759347
146	0x3dd8273b	0.105543576
147	0xbe533b5f	-0.20628117
148	0x3eb324ef	0.34989116
149	0xbde78e8d	-0.11306486
150	0xbdfeae62	-0.12435605
151	0xbce03486	-0.027368795
152	0x3de786d7	0.113050155
153	0x3d34300f	0.043991145
154	0xbc4fe461	-0.012688727
155	0x3ce10089	0.027466075
156	0x3d125f62	0.035735495
157	0x3de75fcc	0.11297569
158	0x3e4312e9	0.19050182
159	0x3c671559	0.014104211
160	0xbe2bfef0	-0.1679647
161	0xbca5fac9	-0.020261185
162	0xbd53c2c0	-0.0516994
163	0xbd012d66	-0.031537436
164	0x3ef0aa9a	0.4700516
165	0xbf349586	-0.70540655
166	0xbf0c55eb	-0.548186
167	0x3f1e9a80	0.619545
168	0xbebd037a	-0.36916715
169	0xbfcb9f2f	-1.5907954
170	0x3fc234c6	1.5172355
171	0xbb34d975	-0.0027595435
172	0x3f083890	0.5321131
173	0x3c1dce04	0.0096316375
174	0xbbf33537	-0.007422115
175	0xbc90958f	-0.01764944
176	0xbbd09f46	-0.006366643
177	0xbe08613c	-0.13318342
178	0x3dee5115	0.11636559
179	0xbdb9c44c	-0.09070644
180	0xbe1dbe71	-0.15404679
181	0x3d205f3d	0.039153326
182	0xbe0b28a9	-0.1358973
183	0x3d0608a3	0.03272308
184	0x3d29f309	0.041491542
185	0x3e0ec04e	0.13940546
186	0x3d998ed6	0.07497947
187	0x3e69612d	0.22790976
188	0xbda933d6	-0.0826184
189	0x3ca8f989	0.0206268
190	0xbea767ef	-0.32696483
191	0x3d91b103	0.071138404
192	0xbedd6c9a	-0.4324692
193	0x3c4107f8	0.011781685
194	0xbeef87ca	-0.46783286
195	0x3f596d8d	0.84932786
196	0x3f12141d	0.5706194
197	0x3fd25c2f	1.6434382
198	0xbeeb17d9	-0.45916632
199	0x3f16e5a6	0.58944166
200	0xbe9c57a3	-0.30535612
201	0xbb390210	-0.002822999
202	0xbd0f59ff	-0.034997936
203	0x3d5c3525	0.05376162
204	0xbe2824c7	-0.1642028
205	0xbcf6ac09	-0.03011133
206	0x3d8abb3b	0.06773993
207	0xbdb05c6d	-0.08611379
208	0xbd57c4ac	-0.052677795
209	0xbca69aa6	-0.020337414
210	0x3d497114	0.049180105
211	0x3da4500c	0.0802308
212	0xbe292a5b	-0.16520064
213	0x3e1da8bc	0.15396398
214	0x3d53c3f1	0.051700536
215	0xbdcd18d8	-0.10014504
216	0xbe047bc9	-0.12937845
217	0xbcbac314	-0.022798099
218	0xbe900bd0	-0.28134012
219	0xbc1c9099	-0.009555959
220	0x3eb1d9d7	0.3473651
221	0xbe03b136	-0.1286057
222	0xbf63eda8	-0.8903451
223	0x3f202782	0.62560284
224	0x3de73e67	0.11291199
225	0x3ea1977b	0.31560883
226	0xbf26b6b5	-0.6512254
227	0x3f1fd1e2	0.6242963
228	0xbe5e22f5	-0.21693023
229	0x3e1d23f1	0.15345742
230	0xbe8ae7c7	-0.27129957
231	0x3b8579cc	0.004073357
232	0x3df97eb1	0.121823676
233	0xbd75d8a3	-0.060021054
234	0xbd6c143a	-0.057636477
235	0x3dea38fb	0.114366494
236	0x3db51429	0.08841736
237	0xbc403bdc	-0.011733022
238	0x3dde54c2	0.1085601
239	0x3d8010ba	0.0625319
240	0x3df8a2c4	0.1214042
241	0x3c3a893e	0.01138526
242	0x3dd0d5be	0.10197018
243	0x3d1bd83d	0.038048018
244	0x3e32c0ad	0.17456312
245	0xbda40757	-0.080092125
246	0x3ddb1f0d	0.10699282
247	0xbebbe2b4	-0.36696398
248	0xbea23df8	-0.31687903
249	0xbf19c1e1	-0.6006146
250	0xc00f90f0	-2.2432213
251	0x408daf25	4.42763
252	0x3f16c3be	0.5889243
253	0xbe3c0d06	-0.18364343
254	0x3de7890f	0.11305439
255	0xbd82525d	-0.06363366

encoder.0.bias f4 [64]
0	0x40173827	2.3628023
1	0x3f05248c	0.5200889
2	0xbf46c407	-0.77642864
3	0x40044c51	2.067158
4	0x4026bd57	2.6053064
5	0xc06d3cbe	-3.7068324
6	0x40051000	2.0791016
7	0x3fd7103c	1.6801829
8	0x3fb51fa6	1.4150283
9	0x3faae48e	1.3350999
10	0x401286a5	2.289468
11	0x400bdad5	2.1852314
12	0x3fdcf4f1	1.726225
13	0x402693d8	2.6027737
14	0x40121449	2.282488
15	0x3fca4c19	1.5804473
16	0x403056ee	2.7553058
17	0x3fe0bf1c	1.7558322
18	0x3ffeb0e4	1.9897733
19	0xbe990af4	-0.2989117
20	0x40433765	3.050256
21	0x40297070	2.6474876
22	0x3e428e39	0.18999566
23	0x3f18cd52	0.59688294
24	0x3ff03b59	1.8768111
25	0x400b2118	2.173895
26	0x3fbba462	1.4659541
27	0x4027281c	2.611823
28	0xbe9b8701	-0.30376437
29	0x3fa3ebde	1.2806356
30	0x3f82d50b	1.0221266
31	0x3fa0ffdc	1.2578082
32	0x3df0bf98	0.117552936
33	0x3fc08aae	1.5042322
34	0x40468b58	3.1022549
35	0x3fc0cf4e	1.5063264
36	0x4012bb9d	2.292701
37	0x401af01b	2.4209049
38	0x40063b86	2.097383
39	0x3d5ee761	0.05441988
40	0x3e3b7837	0.18307577
41	0x3d07ddad	0.03317039
42	0x3fe76843	1.8078693
43	0x3f8cd40c	1.1002212
44	0x403f87c5	2.9926617
45	0x400a28ab	2.1587322
46	0x3fc90ca0	1.5706978
47	0x3fef2729	1.8683826
48	0xbef10cde	-0.4708013
49	0xbe2ec46b	-0.17067115
50	0xbf982a9a	-1.1888001
51	0x403213b8	2.7824535
52	0x3df4c94e	0.11952458
53	0x4003805e	2.05471
54	0x3ff3ca35	1.9046084
55	0x403709b9	2.8599684
56	0x3f019c25	0.5062888
57	0xbf4f9a11	-0.8109446
58	0x3f57557f	0.8411483
59	0x3fc7b4dc	1.5602069
60	0x3fbd72d8	1.4800673
61	0x403d3a67	2.9566896
62	0x3f92bef0	1.146452
63	0x3fe14cd1	1.7601568

encoder.2.weight f4 [32, 64]
0	0xbecc8045	-0.39941612
1	0xbde39901	-0.111131676
2	0xbe9e6be2	-0.30941683
3	0xbeb4b531	-0.35294488
4	0xbe36c119	-0.17847098
5	0x3cb72e1b	0.022360852
6	0xbda2c504	-0.07947734
7	0x3ca36063	0.019943422
8	0x3abc9581	0.0014387817
9	0xbe2df7b0	-0.16989017
10	0xbd4543e2	-0.04816044
11	0xbeae1ce4	-0.34006417
12	0xbd138fda	-0.03602586
13	0xbe0e9b62	-0.13926461
14	0xbe9e4e2f	-0.30919024
15	0x3c221b97	0.009894273
16	0x3d846f66	0.0646656
17	0x3d4fc397	0.05072364
18	0xbdbb84a7	-0.09156161
19	0xbe3e648f	-0.18593048
20	0xbe1ba4f7	-0.15199648
21	0xbe20246a	-0.15638891
22	0xbcd8b1e2	-0.026452009
23	0xbda35f4f	-0.07977163
24	0x3d083cf8	0.03326127
25	0xbee58edc	-0.44835556
26	0xbedd085c	-0.4317044
27	0xbeba560f	-0.36393782
28	0xbed55013	-0.41662654
29	0xbdc8b793	-0.09800639
30	0xbd5826c3	-0.05277134
31	0xbeceb086	-0.40369052
32	0xbe865ed7	-0.26244232
33	0xbe32663d	-0.17421813
34	0xbe1f203e	-0.15539643
35	0xbed6b091	-0.41931584
36	0xbd5f3f9f	-0.054504033
37	0xbe147448	-0.14497483
38	0xbe27c687	-0.16384326
39	0xbedfc275	-0.43703046
40	0xbe471709	-0.19442381
41	0xbe94280e	-0.2893681
42	0x3d61a455	0.05508836
43	0xbe4c91ad	-0.19977446
44	0xbc0d8a1d	-0.008638886
45	0xbd8cbf88	-0.06872469
46	0xbef35bdf	-0.4753103
47	0xbdd8a76d	-0.10578809
48	0xbee221d4	-0.44166434
49	0xbe8ac918	-0.27106547
50	0xbe93ec56	-0.28891248
51	0xbd3cc8a1	-0.046089772
52	0xbe1fbbf2	-0.15599039
53	0xbecc2189	-0.39869335
54	0xbe904d3d	-0.28183928
55	0xbe10bd54	-0.14134723
56	0xbe80ca9f	-0.25154588
57	0xbedb2ba6	-0.4280674
58	0x3cb1fd2d	0.021727169
59	0xbcb5755d	-0.02215069
60	0xbec0573b	-0.37566552
61	0x3cac3dc6	0.02102555
62	0xbd3e6425	-0.046482224
63	0xbe380ecf	-0.17974399
64	0x3d518223	0.0511495
65	0xbb4e711b	-0.0031500522
66	0xbec0c551	-0.3765054
67	0xbd4c6d9e	-0.049909227
68	0x3cf69ce7	0.030104114
69	0xbc0a1601	-0.008428098
70	0xbe865222	-0.26234537
71	0xbce14698	-0.027499482
72	0x3d1fd990	0.039025843
73	0xbdbfaacc	-0.09358749
74	0x3d54a43a	0.05191443
75	0xbdc91d9f	-0.09820103
76	0xbcb66d8e	-0.022269037
77	0xbe327c82	-0.17430308
78	0xbe05d870	-0.13070846
79	0x3be08726	0.0068520484
80	0xbd30e7b3	-0.043189716
81	0xbd377165	-0.044785876
82	0xbd96c6e4	-0.07362154
83	0xbebffbc2	-0.37496763
84	0xbdbe849b	-0.09302636
85	0xbe1f9c20	-0.155869
86	0x3d7d5aee	0.061854295
87	0xbc58d820	-0.013235122
88	0xbe2763e4	-0.16346699
89	0xbde1641f	-0.11005425
90	0xbe09f6c0	-0.13473034
91	0xbdbef5d6	-0.09324233
92	0xbe83112f	-0.25599048
93	0xbdbbf319	-0.091772266
94	0xbe2334cc	-0.15938109
95	0xbe2d13fb	-0.16902153
96	0xbe9d883e	-0.30768007
97	0xbdb5a89f	-0.088700525
98	0xbc3646f4	-0.011125315
99	0xbdaed310	-0.08536351
100	0xbdfe69fa	-0.12422557
101	0xbe258fee	-0.16168186
102	0xbe2e6b7d	-0.17033191
103	0xbe8e326b	-0.2777284
104	0xbec31965	-0.38105312
105	0xbe9602ed	-0.29299107
106	0x3d05355f	0.0325216
107	0xbd3c4975	-0.04596849
108	0xbd9aa6d3	-0.075513504
109	0xbe2a78a0	-0.16647577
110	0xbe8e59f8	-0.27803016
111	0xbe3a1c5d	-0.18174882
112	0xbe8d1ae7	-0.27559587
113	0xbe29119c	-0.16510624
114	0xbd971aa9	-0.07378132
115	0xbd63736e	-0.055530004
116	0xbe2a277f	-0.16616629
117	0xbc8ad5a2	-0.016947571
118	0xbe393610	-0.1808703
119	0xbe04985e	-0.12948748
120	0xbec519f0	-0.3849635
121	0xbe93e0b8	-0.28882384
122	0x3bf71e7e	0.0075414767
123	0xbe010c22	-0.12602285
124	0xbe2f84ab	-0.17140453
125	0xbdccd078	-0.100007
126	0xbe0f2959	-0.13980617
127	0x3cadbc6a	0.021208007
128	0x3f1ff5d0	0.62484455
129	0xbd577417	-0.052600946
130	0x3ca01196	0.019539636
131	0x3b39006a	0.0028229007
132	0xbe1827b8	-0.14858902
133	0x3d05ad02	0.032635696
134	0x3e1a2e29	0.15056671
135	0x3e8f7cb0	0.28024817
136	0x3bcbcdf4	0.00621962
137	0x3d64386b	0.055717867
138	0xbf1f50b2	-0.62232506
139	0xb96adac1	-0.00022397471
140	0xbfe93909	-1.8220531
141	0xbbe3b908	-0.0069495477
142	0xbd6ab685	-0.05730297
143	0x3f11996a	0.56874716
144	0x3e5f9b21	0.2183652
145	0xbe208c51	-0.15678526
146	0x3d1a597b	0.03768299
147	0x3dede48c	0.116158575
148	0xbf945c75	-1.1590716
149	0x3cd4c83a	0.025974382
150	0x3d9fc29a	0.07800789
151	0x3af50ab8	0.0018695211
152	0x3ea1bbec	0.31588686
153	0xbaedeb5d	-0.0018151809
154	0xbb9a3316	-0.004705797
155	0x3a94a888	0.001134173
156	0x3d1d4190	0.038392603
157	0xbfb251a9	-1.3931171
158	0xbd05f81b	-0.032707315
159	0x3c1b748e	0.009488238
160	0x3a9c2de7	0.0011915535
161	0xbcfb46e9	-0.030673461
162	0xbfa5343f	-1.2906569
163	0x3da832d1	0.082128175
164	0xbf244cad	-0.641795
165	0xbe66771e	-0.22506377
166	0x3dfe2bfd	0.12410734
167	0x3b4a524b	0.0030871804
168	0xbd1ae93e	-0.037820093
169	0xbdf584ed	-0.11988244
170	0xbe102708	-0.14077389
171	0xbd75a682	-0.059973247
172	0x3daef023	0.08541896
173	0xbda9a0a3	-0.08282592
174	0x3e795d06	0.24351892
175	0x3e06772d	0.131314
176	0x3c7a0bd4	0.015261609
177	0xbcfae4a6	-0.030626606
178	0x3c0610ba	0.008182699
179	0x3cede6f8	0.029040799
180	0x3e34f582	0.17671779
181	0xbcbb06cd	-0.022830391
182	0x3d56b29b	0.052416425
183	0xbe20b27b	-0.15693085
184	0x3c9e1b7c	0.019300215
185	0x3c409a1f	0.011755495
186	0xbb6649b8	-0.0035139155
187	0xbe19dd35	-0.1502579
188	0x3daaf88a	0.08348186
189	0x3ce898e5	0.028393218
190	0xbc3a9191	-0.011387245
191	0xbd61a5f0	-0.05508989
192	0x3dc4be0a	0.096065596
193	0x3dff192a	0.124559715
194	0x3d0cbedc	0.034361705
195	0x3d2ce252	0.042208023
196	0x3e2928af	0.16519426
197	0xbd46ec16	-0.048564993
198	0x3e5651cd	0.20929642
199	0x3f2a6bd2	0.6657077
200	0x3b107c1d	0.0022046634
201	0xbdd45176	-0.103671
202	0xbe80c899	-0.25153044
203	0x3e6f098c	0.23343486
204	0xc02931e5	-2.6436703
205	0x3d6ee211	0.058321062
206	0xbd6372e4	-0.05552949
207	0x3e939627	0.28825495
208	0x3cb89e00	0.022536278
209	0x3e4bb68c	0.19893855
210	0xbc2aba96	-0.010420462
211	0xbd890b38	-0.06691593
212	0xbdfa5e8b	-0.12225064
213	0xbdcd29a3	-0.10017707
214	0x3d93908e	0.07205306
215	0xbd449f5c	-0.04800354
216	0x3deca1d0	0.11554301
217	0x3d6dfb23	0.05810083
218	0x3d83b803	0.06431582
219	0x3e0be7fb	0.13662712
220	0x38862daa	6.3981235e-05
221	0xc014ecc6	-2.3269515
222	0x3e9b1f0f	0.30297133
223	0xbca361ae	-0.019944038
224	0xbd9d4682	-0.07679464
225	0x3d8910e0	0.06692672
226	0xc035264b	-2.8304622
227	0xbd32eafb	-0.043681126
228	0xbf488bb6	-0.7833818
229	0x3e7f64b9	0.24940766
230	0xbd85bbc1	-0.06529952
231	0x3bc8e5d8	0.006130915
232	0xbb15c951	-0.002285559
233	0xbcb515ac	-0.02210506
234	0xbe00c972	-0.12576845
235	0xbd13b22a	-0.036058582
236	0xbdd39d14	-0.10332695
237	0x3e1a957f	0.1509609
238	0x3d9ac1bf	0.075564854
239	0xbc47e5ef	-0.012200817
240	0x3d987f5f	0.07446169
241	0x3d21fe16	0.039548956
242	0xbd48bbfe	-0.04900741
243	0xbe949f90	-0.29027987
244	0x3ea48de7	0.32139513
245	0x3dc6174b	0.096724115
246	0x3c9c3a69	0.01907082
247	0xbe126413	-0.14295988
248	0xbce42949	-0.027851718
249	0x39239e04	0.00015603757
250	0x3de9cbeb	0.114158474
251	0x3e9ccac4	0.30623448
252	0xbccdcf34	-0.025123216
253	0x3e2367c2	0.15957549
254	0x3da7ecb1	0.08199442
255	0x3da82de3	0.08211877

encoder.2.bias f4 [32]
0	0xbea5956f	-0.3234057
1	0xbe7eb659	-0.24874248
2	0x3f11f39c	0.57012343
3	0x3f799c76	0.97504365
4	0x3f7b7d10	0.98237705
5	0x3ccc126b	0.024911126
6	0xbd8ae757	-0.06782406
7	0xbf1ae7d5	-0.6051
8	0xbed269ed	-0.4109644
9	0xbed5d30e	-0.41762584
10	0x3f7df9de	0.9920939
11	0x3ebf59cf	0.37373206
12	0xbd85d65f	-0.06535029
13	0xbd3f8447	-0.04675701
14	0x3f3b48f8	0.73158216
15	0x3bd94afb	0.006631253
16	0xbe2156df	-0.15755795
17	0x3d3ab110	0.045579016
18	0x3f345945	0.70448714
19	0x3eb16c06	0.34652728
20	0xbe0c1b96	-0.13682398
21	0xbdcc6273	-0.09979715
22	0x3e940829	0.28912476
23	0xbd6bae42	-0.057539232
24	0x3f53f49d	0.82795125
25	0xbe6ab756	-0.229215
26	0x3f5c6f99	0.86107785
27	0x3efb8d21	0.4913111
28	0x3d254f36	0.040358745
29	0x3e6b3804	0.22970587
30	0x3ee6f140	0.45105934
31	0x3f3ac2fc	0.7295377

decoder.0.weight f4 [64, 32]
0	0xbe81b3f1	-0.25332597
1	0xbe922c7c	-0.28549564
2	0xbeb7f8f8	-0.35932136
3	0xbe8ae9e6	-0.27131575
4	0xbeb7f1fa	-0.359268
5	0xbe93c36f	-0.28860041
6	0xbdf4c1d6	-0.11951034
7	0xbdddd095	-0.108307995
8	0x3ed2bf4b	0.4116157
9	0xbd16b11a	-0.03678999
10	0xbde4d54d	-0.111734964
11	0xbee8fbf7	-0.45504734
12	0xbe94f382	-0.29092032
13	0x3d92c902	0.071672454
14	0xbedc30fd	-0.43006125
15	0xbee802e7	-0.45314714
16	0xbd98fa53	-0.074696206
17	0xbeb496f5	-0.3527142
18	0xbe5a56c7	-0.21322165
19	0xbea2bfee	-0.31787056
20	0xbe51aaf2	-0.20475367
21	0xbebfaf1e	-0.3743829
22	0xbead6a3e	-0.3387012
23	0xbed9bbd7	-0.42526123
24	0x3e9acb77	0.30233356
25	0x3ed0a8f8	0.40753913
26	0x3edb20f3	0.42798576
27	0xbeb837bd	-0.35980025
28	0x3e6bffae	0.23046753
29	0xbece5862	-0.40301806
30	0xbe5bb23e	-0.21454713
31	0x3e233e2f	0.1594169
32	0xbe8ebb64	-0.27877343
33	0xbe66e6ec	-0.22549027
34	0xbd2795db	-0.040914398
35	0x3e36d53c	0.1785478
36	0x3d02bf79	0.031920884
37	0xbb8efdea	-0.004363765
38	0xbe6a35e9	-0.22872128
39	0xbc3229a4	-0.010874186
40	0x3e8e60a7	0.27808115
41	0x3d36144c	0.04445295
42	0x3c859003	0.016304022
43	0x3e3862bc	0.18006414
44	0x3d081ba2	0.033229478
45	0xbe0633f1	-0.13105752
46	0xbdbd1d3d	-0.092340924
47	0xbdab4892	-0.08363451
48	0x3be06789	0.00684828
49	0xbc17aeb0	-0.009257957
50	0xbd985ff0	-0.074401736
51	0x3efffd80	0.49998093
52	0xbe7392ae	-0.23786423
53	0xbe0f9348	-0.14021027
54	0x3c8695d9	0.016428875
55	0xbe35a557	-0.17738853
56	0x3e012c5d	0.1261458
57	0x3d31679a	0.043311693
58	0x3d688237	0.056764808
59	0xbd6e9615	-0.058248598
60	0x3e08aa93	0.13346319
61	0x3ddca86e	0.10774313
62	0x3e0d63b4	0.13807565
63	0x3b511681	0.0031904283
64	0x3e0ff071	0.14056565
65	0x3ca61ad1	0.020276459
66	0xb85f3c86	-5.322371e-05
67	0xbdeff6b6	-0.11716978
68	0x3ca435db	0.020045212
69	0x3e62a3d8	0.22132814
70	0x3e05c2e7	0.1306263
71	0x3e3cf846	0.18454084
72	0xbe351276	-0.17682824
73	0xbd48605f	-0.04892003
74	0xbd6d6a26	-0.05796256
75	0xbd997c5a	-0.07494421
76	0x3df075f6	0.11741249
77	0xbc055a98	-0.008139275
78	0xbda19911	-0.07890523
79	0xbddaff98	-0.10693282
80	0xbe1db573	-0.15401249
81	0x3e13e5c6	0.1444312
82	0xbd9ed5d4	-0.07755628
83	0x3d5c03ac	0.05371444
84	0xbd416175	-0.047212083
85	0x3e4ab1ac	0.19794339
86	0xbe68e923	-0.22745185
87	0x3e5862e3	0.21131472
88	0x3d617c56	0.055050217
89	0x3d60d627	0.05489173
90	0x3f1df23e	0.6169776
91	0xbe0b35cf	-0.13594745
92	0xbe08dcec	-0.13365525
93	0xbe02df02	-0.12780383
94	0x3c724b49	0.014788457
95	0x3dbacdbf	0.09121274
96	0xbdbfc36a	-0.09363444
97	0x3d8b3c67	0.0679863
98	0xbbba0134	-0.005676413
99	0xbe72d9e7	-0.23715936
100	0xbdef6843	-0.11689808
101	0xbe0afafc	-0.13572305
102	0xbe3b7c4b	-0.18309133
103	0x3df34c9b	0.11879846
104	0x3e2db716	0.16964373
105	0x3de66024	0.11248806
106	0x3d4dba15	0.05022629
107	0xbde7683d	-0.11299179
108	0xbe2229e4	-0.15836293
109	0xbe21c636	-0.15798268
110	0xbdd6fe8c	-0.1049777
111	0x3d899e8d	0.06719694
112	0x3ca98845	0.020694861
113	0xbdc085d4	-0.09400526
114	0xbe22c143	-0.15894036
115	0x3cdfa96f	0.027302472
116	0xbd515de7	-0.051114943
117	0xbdb338e8	-0.087510884
118	0x3e3afddf	0.18260907
119	0xbe6aba5b	-0.22922651
120	0x3d56d3f1	0.052448217
121	0xbcc824f6	-0.024431687
122	0x3e37707b	0.17914002
123	0x3d640546	0.05566909
124	0x3e2fbdfd	0.17162319
125	0xbe705cac	-0.23472852
126	0xbde41cf4	-0.11138335
127	0xbd1d4670	-0.038397253
128	0xbdd5f145	-0.10446409
129	0xbe88e4cb	-0.26737055
130	0xbded747b	-0.115944825
131	0xbe174c35	-0.14775164
132	0xbe48ea4b	-0.19620626
133	0xbda9eb73	-0.082968615
134	0xbe6ffe21	-0.23436786
135	0x3db79aca	0.089650705
136	0x3cd87ddb	0.0264272
137	0x3e0fec91	0.14055087
138	0xbccb0204	-0.024781235
139	0xbda25d7f	-0.07927989
140	0xbe201609	-0.15633406
141	0xbe64387a	-0.22287169
142	0x3ce9d810	0.02854541
143	0xbe5afb39	-0.21384896
144	0x3da3ef35	0.080046095
145	0xbe467788	-0.19381535
146	0xbe4fe494	-0.2030204
147	0xbe0d4116	-0.1379436
148	0x3d8d46cc	0.06898269
149	0xbe317336	-0.17329106
150	0xbdad01c3	-0.08447602
151	0xbd5d6bf0	-0.054058015
152	0xbe0377e4	-0.12838703
153	0xbd7ab88f	-0.061211165
154	0x3d8d99e4	0.06914118
155	0x3e60685c	0.2191481
156	0x3e6a18ad	0.22860976
157	0xbe4c70f1	-0.19964959
158	0xbdd01bdc	-0.10161564
159	0xbd842113	-0.06451621
160	0xbda7bfea	-0.081909016
161	0xbe90659e	-0.28202528
162	0xbe8e72f8	-0.2782209
163	0xbea57312	-0.32314354
164	0xbeba23c3	-0.3635541
165	0xbead560e	-0.33854717
166	0x3bc78dc9	0.0060899
167	0xbe245842	-0.16049293
168	0x3e87c768	0.26519322
169	0x3dd8ffb1	0.10595644
170	0xbe794df7	-0.24346147
171	0xbe5e1ff0	-0.2169187
172	0xbc995e9e	-0.018721875
173	0xbc10d9f2	-0.008841025
174	0x3d0fe41a	0.035129644
175	0xbed69cd5	-0.41916528
176	0xbc888cc6	-0.016668689
177	0xbe9a4315	-0.30129305
178	0xbe6f5adc	-0.23374504
179	0xbe976ef5	-0.2957684
180	0xbee0fdf6	-0.43943757
181	0xbe953071	-0.2913852
182	0xbe7801dc	-0.2421946
183	0xbda5b68d	-0.080914594
184	0xbe4659fc	-0.19370264
185	0x3e8a3521	0.2699366
186	0xbeb5e9f8	-0.35530066
187	0xbea37e07	-0.3193209
188	0x3e78f0af	0.24310564
189	0xbe7c42d4	-0.24634868
190	0xbed86262	-0.4226256
191	0x3e0338a9	0.12814583
192	0x3dafefb6	0.08590643
193	0xbdcf5d77	-0.10125249
194	0xbe140643	-0.14455514
195	0xbdb38f0f	-0.08767521
196	0xbf85edba	-1.0463173
197	0xbe12b92f	-0.14328454
198	0x3de3f182	0.11130048
199	0xbe1a6467	-0.15077363
200	0x3d083337	0.033251967
201	0x3de481f7	0.11157601
202	0xbe264f70	-0.1624124
203	0xbcf27715	-0.029597798
204	0xbe25b69b	-0.1618294
205	0xbebc0a97	-0.3672683
206	0x3e124925	0.14285715
207	0x3e099e4c	0.13439292
208	0xbe336d00	-0.17522049
209	0x3df108e4	0.11769274
210	0x3d193088	0.0373998
211	0xbc6ca63d	-0.014443931
212	0xbd80a508	-0.06281477
213	0x3b81c92e	0.00396075
214	0x3b1e2440	0.0024130493
215	0x3e39f34a	0.18159214
216	0xbc763c6e	-0.015029056
217	0x3d8bfdf7	0.06835549
218	0xbd863671	-0.065533526
219	0xbd8b8e55	-0.06814257
220	0xbd74f207	-0.059801128
221	0xbe0c9ae0	-0.13730955
222	0x3f040687	0.5157246
223	0xbe648bb2	-0.22318915
224	0xbe842603	-0.2581025
225	0xbe987b2f	-0.29781482
226	0x3c8c6e88	0.01714255
227	0xbd0546ca	-0.032538213
228	0xbd4363d0	-0.04770261
229	0xbd3dc373	-0.046328973
230	0xbdab79b8	-0.083728254
231	0xbea651ab	-0.32484183
232	0x3e1f94ed	0.15584154
233	0x3e0938ce	0.13400576
234	0x3d94d4ed	0.07267175
235	0xbdc38c8b	-0.09548291
236	0xbe69a83e	-0.22818086
237	0xbdd68675	-0.104748644
238	0x3cd65093	0.026161468
239	0xbea3eeb7	-0.32018062
240	0x3e8d116d	0.27552357
241	0xbd2025d4	-0.039098576
242	0x3ee78c92	0.45224434
243	0x3e340208	0.175789
244	0xbd8792ba	-0.06619783
245	0xbe9e1829	-0.30877808
246	0x3d22ff86	0.039794467
247	0xbe27699b	-0.16348879
248	0x3bd570d0	0.0065136924
249	0x3e29b852	0.16574219
250	0x3deabbf6	0.11461632
251	0xbc16082f	-0.009157225
252	0x3cabdb38	0.020978555
253	0x3c102b41	0.008799375
254	0xbd8cdceb	-0.06878074
255	0x3ea30211	0.31837514

decoder.0.bias f4 [64]
0	0xbe684050	-0.22680783
1	0xbe250bdb	-0.16117804
2	0x3df29192	0.118441716
3	0xbdec4df2	-0.115383044
4	0x3a877468	0.0010334374
5	0xbe609b82	-0.21934322
6	0x3e08f75b	0.13375609
7	0xbdafcf42	-0.08584453
8	0x3dcaffc8	0.09912068
9	0xbe1c39c9	-0.15256418
10	0x3c187338	0.009304814
11	0xbd369dde	-0.044584148
12	0x3d535987	0.05159905
13	0xbe02b3af	-0.12763856
14	0xbd89bdb6	-0.067256376
15	0xbe5d0930	-0.21585536
16	0xbd55bee3	-0.052183997
17	0xbb996898	-0.004681658
18	0xbe4e96db	-0.20174734
19	0xbd1d52a5	-0.038408894
20	0x3bf27a6c	0.0073998477
21	0xbd52fdeb	-0.051511686
22	0x3e3a11cb	0.1817085
23	0xbda75c91	-0.081719525
24	0xbeef20d1	-0.46704724
25	0xbe55ef6a	-0.2089211
26	0xbe3a5bc0	-0.18199062
27	0xbebc0e06	-0.3672945
28	0xbee1cf85	-0.44103637
29	0x3e3ef1fc	0.18646997
30	0xbb94d567	-0.004542041
31	0xbe802b43	-0.25033006
32	0xbdb95044	-0.090485126
33	0x3d573d84	0.0525489
34	0xbdd0c404	-0.10193637
35	0x3e81f990	0.25385714
36	0x3e22c946	0.15897092
37	0xbe37c363	-0.17945628
38	0x3c8977e0	0.016780794
39	0xbdc817a7	-0.09770136
40	0xbe5e8bce	-0.21733019
41	0xbd92df1a	-0.071714595
42	0x3c615e9f	0.01375547
43	0x3dbc7043	0.092011
44	0x3e6089d4	0.21927577
45	0xbdbb5500	-0.09147072
46	0x3d687e20	0.056760907
47	0x3e73bb55	0.2380193
48	0xbe76825d	-0.24073167
49	0xbdf2d971	-0.1185788
50	0x3dcc4397	0.09973829
51	0xbdb7b59b	-0.08970185
52	0xbe42657b	-0.18984024
53	0x3c6d618a	0.014488587
54	0xbecc5e5d	-0.39915743
55	0xbc14c024	-0.009079013
56	0xbe17d3e4	-0.14826924
57	0x3e2db883	0.16964917
58	0xbcd7bc82	-0.026335005
59	0xbe8b051e	-0.27152342
60	0x3e8ae979	0.2713125
61	0x3e15dadb	0.14634268
62	0x3dee50ff	0.116365425
63	0xbc164d4b	-0.0091737015

decoder.2.weight f4 [784, 64]
0	0x3df6bfe0	0.12048316
1	0xbd92d7de	-0.0717008
2	0x3ce40c08	0.027837768
3	0xbd7fffac	-0.062499687
4	0xbd9d605a	-0.07684393
5	0xbcf92a20	-0.030415595
6	0x3d40b170	0.047044218
7	0xbd8ca4b2	-0.06867351
8	0x3bb8b728	0.0056370683
9	0xbd807f12	-0.06274237
10	0xbe1e7700	-0.15475082
11	0xbd991490	-0.07474625
12	0xbbdac1f1	-0.0066759516
13	0x3c852e1f	0.016257344
14	0x3d212d0f	0.03934961
15	0xbdd9cd2a	-0.10634835
16	0xbab4b556	-0.0013786952
17	0xbdede4a6	-0.11615877
18	0xbd004f94	-0.03132589
19	0xbddf52c7	-0.109044604
20	0xbd41c8a8	-0.0473105
21	0xbe0f23a0	-0.13978434
22	0xbd98b2d7	-0.07455986
23	0xbdce2d3f	-0.10067224
24	0x3d608410	0.054813445
25	0xbc1bb390	-0.00950326
26	0xbe1ac14a	-0.15112796
27	0x3d924336	0.07141726
28	0x3c02c870	0.007982358
29	0xbc9ddadc	-0.0192694
30	0xbdab444e	-0.083626375
31	0xbd9ebfa4	-0.07751396
32	0x3c170900	0.009218454
33	0xbd214738	-0.03937456
34	0xbdd02cca	-0.10164793
35	0xbe095187	-0.13410006
36	0xbe28f1f3	-0.16498546
37	0xbc31e84c	-0.010858607
38	0xbe195084	-0.1497212
39	0xbe0ebfc6	-0.13940343
40	0xbdd58d46	-0.104273364
41	0xbdfb8d33	-0.12282791
42	0xbd98d90a	-0.07463272
43	0x3da28898	0.079362094
44	0xbd307cd2	-0.043087788
45	0xbe21bfb8	-0.15795791
46	0xbb974ae0	-0.00461708
47	0x3cd09998	0.025463864
48	0xbcb7af10	-0.022422343
49	0xbdc7e2fd	-0.097600915
50	0xbe402222	-0.1876302
51	0xbd590d6a	-0.05299131
52	0xbd555f6c	-0.052092955
53	0xbd23bca4	-0.039974824
54	0x3caa12a8	0.02076085
55	0x3ddeb5fc	0.108745545
56	0xbd19d024	-0.037552014
57	0xbc93e242	-0.018052224
58	0x3d0db884	0.034599796
59	0xbda6d0e6	-0.08145313
60	0x3d9b8d6e	0.07595335
61	0xbd2a51de	-0.04158198
62	0xbe29f800	-0.1659851
63	0xbd9c0d76	-0.07619755
64	0x3d8e9ad4	0.06963125
65	0x3c621316	0.013798496
66	0xbda909c0	-0.08253813
67	0x3da8f35c	0.08249542
68	0xbdfdfcc8	-0.1240173
69	0xbd73a3a4	-0.05948223
70	0xbd353804	-0.044242874
71	0xbcab09c2	-0.020878676
72	0xbe421a2f	-0.18955301
73	0x3c245274	0.010029424
74	0xbc9dc4fc	-0.019258969
75	0xbd3089c9	-0.043100152
76	0xbd4419b6	-0.047876082
77	0xbe4efd5f	-0.20213841
78	0xbcdf0142	-0.02722228
79	0x39723c00	0.0002310127
80	0xbe44f5dc	-0.19234413
81	0x3cf6f4d0	0.030146033
82	0xbd088100	-0.03332615
83	0xbe0e7f82	-0.13915828
84	0xbd7c0b4c	-0.06153421
85	0xbdb94256	-0.09045856
86	0xbd5323a3	-0.051547658
87	0xbcdeefcf	-0.027213959
88	0xbd8d35d6	-0.06895034
89	0xbc20e440	-0.009820044
90	0x3d41d796	0.04732474
91	0xbd93aede	-0.07211088
92	0x3d13eb44	0.03611304
93	0xbcb50e90	-0.02210167
94	0x3cd781e7	0.02630706
95	0x3da23280	0.07919788
96	0x3c806afe	0.015676018
97	0xbd7188a4	-0.0589682
98	0xbdf61052	-0.120148316
99	0xbc87b395	-0.016565124
100	0xbafe20eb	-0.0019388472
101	0xbd0506a0	-0.03247702
102	0xbda9e43b	-0.08295485
103	0xbe0da109	-0.13830961
104	0xbd90f378	-0.07077688
105	0x3d2826e2	0.041052707
106	0xbd83c6a6	-0.064343736
107	0x3d0fe148	0.035126954
108	0xbd1d6394	-0.038425043
109	0x3c382b3c	0.011240777
110	0x3db0d94a	0.086351946
111	0xbd15a235	-0.036531646
112	0xbb37f240	-0.0028067976
113	0xbd184273	-0.037172746
114	0xbe1b5c30	-0.15171885
115	0xbd2fa6e7	-0.04288378
116	0x3bebe6e0	0.0071991533
117	0xbe118b00	-0.1421318
118	0xbcb3c492	-0.021944318
119	0xbe314897	-0.17312847
120	0xbe2fbe71	-0.17162491
121	0xbd50db12	-0.05099017
122	0x3b4518d1	0.0030074606
123	0xbd0f3d89	-0.034970794
124	0x3c47cee8	0.012195326
125	0xbd3dbfbd	-0.046325434
126	0xbd664501	-0.05621815
127	0xbe098a7e	-0.13431737
128	0x3de253e4	0.11051157
129	0xbe744e14	-0.2385791
130	0xbdd9ce9c	-0.10635111
131	0x3de02314	0.109441906
132	0xbd77e510	-0.060521185
133	0xbd06c284	-0.03290035
134	0x3dac548c	0.084145635
135	0x3c32a461	0.010903449
136	0xbe2a91bd	-0.16657157
137	0xbdb7ebcd	-0.08980522
138	0x3d888508	0.06665999
139	0xbcab04e8	-0.020876363
140	0xbd331426	-0.043720387
141	0xbda046ca	-0.07826002
142	0xbc861534	-0.016367532
143	0x3c8e6ff8	0.017387375
144	0x3d06fcd3	0.032955956
145	0x3d237898	0.03990993
146	0x3b852060	0.0040626973
147	0xbd5d1af2	-0.053980775
148	0xbdad0ecc	-0.08450088
149	0xbe2fc32a	-0.17164293
150	0xbd82f9a8	-0.063952744
151	0xbc3248a0	-0.010881573
152	0x3d84ea88	0.06490046
153	0xbccb1658	-0.024790928
154	0xbd83659a	-0.06415863
155	0xbc38b5a0	-0.0112737715
156	0xbd94c0ba	-0.07263322
157	0xbc7511e8	-0.014957882
158	0xbe0baf9c	-0.13641208
159	0xbd844d38	-0.06460041
160	0x3da8a53c	0.08234641
161	0x3d56a3c8	0.052402288
162	0xbd337c14	-0.043819502
163	0xbe1624e8	-0.14662516
164	0xbe012781	-0.12612726
165	0xbc965a58	-0.018353626
166	0xbe424668	-0.1897217
167	0x3d9c350e	0.07627307
168	0x3d6f98e0	0.058495402
169	0xbddf9491	-0.10917009
170	0x3cf37100	0.029716969
171	0xbdc9b17e	-0.09848307
172	0xbce4a2fc	-0.027909748
173	0x3d0c7ace	0.034296803
174	0x3db78b34	0.08962098
175	0xba960700	-0.0011446178
176	0x3d193ce9	0.037411604
177	0x3d987de4	0.07445887
178	0xbe0cadfe	-0.13738248
179	0xbdded661	-0.10880733
180	0xbd4d8710	-0.050177634
181	0x3dafba34	0.08580437
182	0x3c978f30	0.018500894
183	0xbcd68528	-0.02618654
184	0x3d7f53e0	0.06233585
185	0xbe1a8411	-0.15089442
186	0xbdbcc6ee	-0.0921763
187	0x3de6658a	0.11249836
188	0xbd86c215	-0.06579987
189	0xbe0a0a86	-0.13480577
190	0xbe3513c2	-0.17683318
191	0xbd9878cc	-0.07444915
192	0xbcf491b8	-0.02985464
193	0xbb196580	-0.0023406446
194	0xbbfc0f0f	-0.007692225
195	0x3def9708	0.11698729
196	0xbdf9ba1c	-0.12193701
197	0x3dbf651a	0.093454555
198	0x3d56ac94	0.052410677
199	0xbded5c3d	-0.11589859
200	0xbe327111	-0.17425944
201	0xbe440d70	-0.19145751
202	0xbd46c770	-0.048530042
203	0xbb5d3dfe	-0.0033758874
204	0xbe0cacc5	-0.13737781
205	0x3bcbb7a0	0.006216958
206	0x3d17c363	0.03705157
207	0xbda8963a	-0.082317784
208	0xbdd70b57	-0.1050021
209	0xbdcfb502	-0.101419464
210	0xbe40eb94	-0.18839866
211	0xbcd9988a	-0.026561994
212	0x3d7f0efc	0.06227015
213	0x3d3b25d9	0.04569039
214	0xbd48a2f8	-0.048983544
215	0x3d0bd564	0.034139052
216	0xbc27b940	-0.010237038
217	0xbd04cb28	-0.032420307
218	0xbe073cae	-0.13206741
219	0x3dcb65ce	0.09931527
220	0x3db4af3a	0.08822484
221	0xbe26da4c	-0.16294211
222	0x3d4e6d14	0.050396994
223	0x3babe540	0.0052458346
224	0x3dfc1752	0.123091355
225	0xbdc37ce6	-0.09545307
226	0x3d97f9c8	0.07420689
227	0x3cc47aa9	0.02398427
228	0xbdb72a42	-0.08943607
229	0x3d7541a0	0.059877038
230	0xbe4626a8	-0.19350684
231	0xbdf75182	-0.12076093
232	0x3d4220d0	0.047394574
233	0xbdf9651d	-0.12177489
234	0x3de9d2bc	0.114171475
235	0xbdd40d40	-0.1035409
236	0xbbd65205	-0.006540539
237	0xbd89d04b	-0.06729182
238	0xbdd9eb4a	-0.10640581
239	0xbd907998	-0.07054442
240	0x3d8ad97e	0.067797646
241	0xbcf26c01	-0.029592516
242	0x3d3d73fd	0.046253193
243	0x3cec1bd8	0.02882187
244	0x3df5bdc6	0.11999087
245	0xbbe99f3f	-0.0071295793
246	0xbda172fb	-0.07883259
247	0xbd09db3b	-0.03365634
248	0xbe0f1803	-0.13974003
249	0xbd99fd52	-0.0751902
250	0xbe2b4407	-0.16725169
251	0xbdaeca84	-0.085347205
252	0xbde5d8fc	-0.11223027
253	0xbe0caf6b	-0.13738792
254	0x3c4a6241	0.012352527
255	0xbd7ce314	-0.061739996

decoder.2.bias f4 [784]
0	0x3c423e91	0.011855737
1	0xbcb3d408	-0.02195169
2	0x3c514389	0.012772449
3	0xbdbfd7d6	-0.09367339
4	0xbe1327ab	-0.14370601
5	0xbd293264	-0.041307822
6	0xbe1fb575	-0.15596564
7	0xbc8d691c	-0.017262034
8	0xbd9ccfd9	-0.07656831
9	0xbe217ad3	-0.1576951
10	0xbdaae845	-0.08345083
11	0xbe0f22a9	-0.13978066
12	0xbe2d1f88	-0.1690656
13	0xbd03a96d	-0.032144
14	0xbe3fe0b8	-0.18738067
15	0xbe0abdf7	-0.13549028
16	0xbe3a67b7	-0.18203627
17	0x3cde6dd0	0.027151972
18	0x3cb018c0	0.021496177
19	0xbcf33a83	-0.029690986
20	0xbd0b77c0	-0.03404975
21	0xbe24cc8d	-0.16093655
22	0xbd1f482c	-0.038887188
23	0xbe1d0a3e	-0.15335938
24	0xbe2b5c45	-0.16734417
25	0x3cf2d8d9	0.029644417
26	0xbdb64526	-0.08899908
27	0xbe384e70	-0.17998672
28	0xbe0baa9d	-0.13639303
29	0xbd6f3f2b	-0.05840985
30	0xbb4259f9	-0.0029655679
31	0xbe426e4d	-0.18987389
32	0xbd087f0a	-0.03332428
33	0xbd89937a	-0.06717582
34	0xbb6084e8	-0.0034258906
35	0xbd9c604e	-0.07635556
36	0xbe1a283b	-0.15054409
37	0xbd74cffb	-0.059768658
38	0xbe36fc4b	-0.1786968
39	0x3bd53147	0.0065061185
40	0xbbfc1188	-0.0076925196
41	0xbd79d217	-0.060991373
42	0x3bdb3de9	0.00669073
43	0xbdbe022f	-0.0927776
44	0xbd0629f7	-0.032754865
45	0xbe1c73f2	-0.15278605
46	0xbe25ae6d	-0.1617982
47	0xbd854c9a	-0.06508751
48	0xbe23b505	-0.15987022
49	0xbd4c921c	-0.04994403
50	0xbe32ebfe	-0.17472836
51	0xbc76a49c	-0.015053894
52	0xbde4a3b5	-0.11164037
53	0xbd97bb9b	-0.0740883
54	0x3cc883a1	0.024476828
55	0x3cf91aa0	0.030408204
56	0xbdf88114	-0.12133995
57	0xbda7df09	-0.081968375
58	0xbdd13386	-0.102149054
59	0xbd603fdd	-0.054748405
60	0xbd171b4d	-0.03689127
61	0xbdc94dbe	-0.09829281
62	0xbda88775	-0.082289614
63	0xbe6d07c6	-0.23147497
64	0xbc8a85a3	-0.016909426
65	0xbdf56d7c	-0.11983773
66	0x3be01449	0.0068383557
67	0xbdd82eba	-0.105557874
68	0xbe24b62c	-0.16085118
69	0xbe7549a0	-0.23953867
70	0xbe34c01a	-0.17651406
71	0xbe6bf682	-0.23043254
72	0xbcf479a1	-0.029843153
73	0xbdb1d56a	-0.086832836
74	0xbd1006ef	-0.035162862
75	0xbdc5698e	-0.096392736
76	0xbd66f5d8	-0.0563868
77	0xbd011821	-0.03151715
78	0x3c38918a	0.011265168
79	0xbdaff74e	-0.085920915
80	0xbe0981a9	-0.13428368
81	0xbdbfebc5	-0.09371141
82	0xbc83b91d	-0.01607948
83	0xbd6a6219	-0.05722246
84	0xbd9d6297	-0.0768482
85	0xbddf0dcd	-0.10891304
86	0xbd35bbed	-0.044368673
87	0xbdd606b7	-0.104504995
88	0xbc50e135	-0.012749006
89	0xbd337bb0	-0.04381913
90	0xbe4c9b67	-0.19981156
91	0xbe001397	-0.12507473
92	0xbe015104	-0.12628561
93	0xbd2fc0a6	-0.042908333
94	0xbdb867ef	-0.09004199
95	0xbd9b84fd	-0.07593725
96	0x3d173a95	0.036921103
97	0xbe56fe5c	-0.20995468
98	0xbe04b8a2	-0.12961057
99	0xbd8ccf42	-0.06875469
100	0xbd81067b	-0.06300064
101	0xbd43aafb	-0.04777048
102	0xbe007805	-0.12545784
103	0xbe6e6840	-0.23281956
104	0xbe19dea3	-0.15026335
105	0xbe22e589	-0.15907873
106	0xbe2d7a45	-0.16941173
107	0xbd880ece	-0.06643449
108	0x3d48bac2	0.04900623
109	0xbddad9fd	-0.10686109
110	0xbd84df2c	-0.06487879
111	0xbda42966	-0.080157086
112	0xbe1bad6b	-0.15202872
113	0xbd2cb7ff	-0.04216766
114	0xbc6f1757	-0.014592967
115	0xbe0fa294	-0.14026862
116	0xbd103ace	-0.03521233
117	0x3d621efa	0.055205323
118	0xbdaf4391	-0.08557809
119	0xbd507347	-0.050891187
120	0xbda132c8	-0.07871014
121	0xbe242a05	-0.16031654
122	0xbe37f2f3	-0.17963772
123	0xbe09c20a	-0.13452926
124	0xbddef299	-0.108861156
125	0x3d0288d9	0.03186879
126	0xbe9547d8	-0.29156375
127	0xbef7fd12	-0.48435265
128	0xbe9a37d1	-0.3012071
129	0xbe2ea013	-0.17053251
130	0xbe793ae8	-0.24338877
131	0xbeacd498	-0.33755946
132	0xbd4cc04d	-0.04998808
133	0xbe292bd6	-0.16520628
134	0xbd8f9489	-0.07010753
135	0xbde4cf24	-0.111723214
136	0x3a20e902	0.00061382365
137	0xbe3666db	-0.17812674
138	0xbdc29002	-0.095001236
139	0xbdb32600	-0.08747482
140	0xbe005d01	-0.12535478
141	0xbdfe7795	-0.12425152
142	0xbc7ce960	-0.0154365
143	0xbde612a0	-0.11234021
144	0xbdcfd819	-0.10148639
145	0xbe35d7bb	-0.17758076
146	0x3c606088	0.01369489
147	0xbea552cf	-0.3228974
148	0xbe44a312	-0.19202831
149	0x3c834092	0.016022
150	0x3ce9edb8	0.028555736
151	0x3e216482	0.15760997
152	0x3e5d693d	0.21622176
153	0x3e28bd5c	0.16478485
154	0xbe7d603f	-0.24743746
155	0xbe9e2118	-0.30884624
156	0xbdf89a04	-0.12138751
157	0xbea14c50	-0.31503534
158	0xbeff2cff	-0.49839017
159	0xbec7a5c3	-0.38993654
160	0xbea56dd8	-0.32310367
161	0xbe727e53	-0.23681001
162	0xbce9fc15	-0.028562585
163	0xbebb9574	-0.3663746
164	0xbccfb952	-0.025356922
165	0xbd1fe102	-0.039032944
166	0xbe3d2bd9	-0.18473758
167	0xbddaadcc	-0.106776804
168	0x3d26f4c7	0.04076078
169	0xbdb82a2b	-0.08992418
170	0xbdade15d	-0.0849025
171	0xbdb72cf3	-0.0894412
172	0xbdd09c26	-0.10186033
173	0xbd89d338	-0.0672974
174	0xbe1258cb	-0.14291684
175	0xbb88bae0	-0.004172668
176	0xbe3decc2	-0.18547347
177	0x3e0d4c9d	0.13798757
178	0x3eba5ee6	0.36400527
179	0x3ec799c1	0.38984492
180	0x3ee2766a	0.44230968
181	0x3ef7b3b8	0.48379302
182	0xbd1b0ac3	-0.03785206
183	0xbe3840be	-0.17993447
184	0xbe42742e	-0.18989632
185	0xbe4caab7	-0.19986998
186	0xbe1f5264	-0.15558773
187	0xbdb18846	-0.0866857
188	0xbe02e16d	-0.12781306
189	0x3c822281	0.015885593
190	0xba984653	-0.0011617638
191	0xbdafbc5e	-0.0858085
192	0xbc963e01	-0.018340113
193	0xbe4c0e60	-0.19927359
194	0xbde094ac	-0.10965857
195	0xbe0da761	-0.13833381
196	0xbe38f877	-0.18063532
197	0xbbc7f010	-0.0061016157
198	0x3981b71f	0.00024741233
199	0xbe1341db	-0.1438059
200	0xbe1a4a88	-0.15067494
201	0xbdd45140	-0.1036706
202	0xbe21c3f2	-0.15797403
203	0xbd8574ae	-0.065163955
204	0x3ddaf6ec	0.10691628
205	0x3ed2ae6d	0.411487
206	0x3efc24d1	0.4924684
207	0x3f0d5021	0.5520039
208	0x3f2695e3	0.6507246
209	0x3ee28025	0.44238392
210	0x3d8a4325	0.06751088
211	0xbd98934e	-0.07449971
212	0xbd2680ca	-0.040650167
213	0x3df795c5	0.12089113
214	0x3e61b9c3	0.22043519
215	0x3e65477d	0.22390552
216	0x3e82c980	0.25544357
217	0x3e49691a	0.19669
218	0x3e0e8f4a	0.13921848
219	0x3e2abe28	0.16674101
220	0xbe12a0c3	-0.14319138
221	0xbb4caf12	-0.003123228
222	0xbe109884	-0.1412068
223	0xbe1652df	-0.1468005
224	0xbdd31422	-0.103065744
225	0x3ce90ff3	0.028449988
226	0xbdde9d52	-0.1086985
227	0xbe01410f	-0.12622474
228	0xbc4666b3	-0.012109446
229	0xbe61f6f0	-0.22066855
230	0xbe49fabd	-0.19724555
231	0xbd5161d6	-0.051118694
232	0x3e908535	0.2822663
233	0x3ee1c2da	0.44093972
234	0x3eed22cf	0.4631562
235	0x3e988c0c	0.29794347
236	0x3ea860a2	0.32886225
237	0x3e0f823a	0.14014521
238	0xbd8071ad	-0.06271682
239	0xbd093689	-0.033499274
240	0xbb453bb2	-0.0030095396
241	0x3e3d8a6e	0.18509838
242	0x3e9c13e0	0.30483913
243	0x3e89dcac	0.26926172
244	0x3e84768e	0.258717
245	0x3e4bc9ed	0.19901247
246	0xbe0e04d2	-0.13869026
247	0x3d218664	0.039434806
248	0xbe1495ef	-0.1451032
249	0xbe9238f6	-0.28559083
250	0xbe2b0650	-0.16701627
251	0x3d03b656	0.03215631
252	0x3c3288ab	0.010896842
253	0xbe2c8484	-0.16847426
254	0xbdd98eeb	-0.106229626
255	0xbe16ab77	-0.14713846
