20220518180.pt (torch, 424079 bytes, 8 tensors)

encoder.0.weight f4 [64, 784]
000000 61 df 6d bc ac d2 f0 3c 90 ec 9a 3c be dd 97 3c
       -0.01451859 0.029397331 0.01891163 0.018538352
000010 33 6b 11 bd 1b 42 4b be 1c 64 c1 bf 3c 3b 61 bf
       -0.035502624 -0.19849436 -1.5108676 -0.8798101
000020 1d 3d d4 bf 78 72 37 c0 c4 99 51 c0 38 20 07 c0
       -1.658115 -2.8663616 -3.27501 -2.1113415
000030 d6 91 48 c0 d6 33 1c c0 e7 e2 71 c0 83 01 53 c0
       -3.1339011 -2.4406638 -3.779474 -3.2969673
000040 23 71 51 bf 22 b7 b4 bf 25 d1 ca bf d3 a6 6c bf
       -0.8181326 -1.4118388 -1.5845076 -0.92442054
000050 5f 61 92 bf de 10 e0 bf 4e b4 87 bf ff f8 34 bf
       -1.1435965 -1.7505147 -1.06019 -0.7069244
000060 23 0f c1 bc 4a 5d e0 bb 01 e4 f7 ba ac b7 c1 bc
       -0.023566788 -0.0068470584 -0.0018912555 -0.023647152
000070 e3 6c 8a bc 4a 3c f5 ba 02 3a 8d 3f f4 4e d9 3e
       -0.016897624 -0.0018709984 1.1033328 0.4244305
000080 1e ad 82 bf 1c d0 07 bf ec e4 00 c0 ee 32 7c c0
       -1.0209081 -0.53051925 -2.0139723 -3.9406085
000090 59 00 5a c0 ee 33 5f c0 dc 46 41 c0 a0 4f 2a c0
       -3.4062712 -3.4875445 -3.01995 -2.66111
0000a0 e3 93 26 c0 85 fb 50 c0 bf 63 f7 bf ae 64 4d bf
       -2.6027763 -3.2653515 -1.9327315 -0.8023175
0000b0 85 a3 e1 bf 09 59 ac bf f0 f3 cb bf cd 6b 69 bf
       -1.7628027 -1.3464671 -1.5933819 -0.91180116
0000c0 6b 71 73 bf 00 48 2f c0 63 21 ef bf ae 9c 56 c0
       -0.9509494 -2.7387695 -1.8682064 -3.353313
0000d0 ff fe 5f bf a7 2f 3c 3f 25 45 ca ba 43 f6 e1 bc
       -0.8749847 0.7351021 -0.0015431984 -0.027583247
0000e0 25 af 83 3c 25 1b 6d 3c 47 c9 aa 3e f8 fd af be
       0.016074726 0.014471804 0.33356687 -0.3437345
0000f0 d9 6c e3 3f 29 49 1d c0 84 11 82 bf ee f3 28 be
       1.7767593 -2.4575903 -1.0161595 -0.16499302
000100 52 bb 2e c0 86 ff f6 bf 18 35 bb bf 4f 01 00 be
       -2.7301831 -1.929673 -1.4625578 -0.12500499
000110 cf bb 96 be ce da 6c bf 19 2a 4d bf e1 b0 a2 bd
       -0.29440162 -0.9252137 -0.8014236 -0.07943893
000120 a6 c1 85 be 98 fa 34 bf 50 39 ed be cb 82 bf bc
       -0.26124305 -0.70694876 -0.46332788 -0.023377797
000130 21 55 db be 5f e6 db be 26 b2 1a bf 14 ae 88 bd
       -0.42838386 -0.42949197 -0.6042808 -0.06673828
000140 48 5c 56 bf 0d 7e 4c 3f 39 47 de 3e c0 e6 8b bc
       -0.8373456 0.7987984 0.43413714 -0.017077804
000150 d8 21 01 3d 83 ab 1b bf 19 1b 1e 3e 63 4c 4b bf
       0.031526417 -0.6080858 0.15440024 -0.7941343
000160 05 73 85 bd c6 76 6f bf 9d 2d 2f bf 12 01 0b 3f
       -0.06516079 -0.9354061 -0.68428975 0.5429851
000170 7d bb e6 bd 17 34 d6 3e 31 dd ce be e5 d9 aa bb
       -0.11266229 0.41836616 -0.4040313 -0.0052139633
000180 99 93 fc 3c 57 39 9c 3d 66 eb e7 bc 86 8f 7d bd
       0.030832099 0.07628124 -0.028310489 -0.061904453
000190 64 ce de 3e 39 87 13 3d 67 73 51 be 85 5a 0a 3d
       0.4351684 0.03601763 -0.20454179 0.033777732
0001a0 4f c6 f1 3d 99 32 01 be 3c 05 e3 3d d0 63 56 bf
       0.118054025 -0.12616958 0.11084983 -0.8374605
0001b0 ce 00 0e bf 3f 4b 0f 3f 59 42 aa bf de 3c 81 3f
       -0.5546998 0.5597419 -1.3301498 1.00967
0001c0 ee a9 86 bb 8a 5d 80 3f bf ee c0 bf a9 86 c8 3e
       -0.0041096127 1.0028546 -1.507286 0.39165238
0001d0 9a 37 e0 bf 1c 6c 9e 3f 0a aa 8c be 34 71 03 3e
       -1.7516968 1.2376742 -0.2747348 0.12836152
0001e0 82 26 00 bf f9 c6 63 3e d4 d2 1a 3b 0d a3 1d 3e
       -0.5005876 0.22243871 0.0023624199 0.1539423
0001f0 8c a6 ac 3d ba e5 96 bc 77 db 4b 3e 70 7a 2d 3d
       0.08430204 -0.018420089 0.19907938 0.042353094
000200 df 66 35 3e 0a c3 87 3c f7 23 29 bd 82 e0 61 3e
       0.17715023 0.016572494 -0.041294064 0.22058299
000210 38 da 1e be 5c bc 3a 3e 55 5d 9e bc cd 4e 2a 3e
       -0.15512931 0.18235916 -0.019331614 0.16631623
000220 33 2b c3 3e 61 79 d7 bf ec 38 0f bf 51 ae f3 3d
       0.38118896 -1.6833917 -0.5594623 0.118984826
000230 ea 6f 60 bc e5 44 b1 be 23 49 9c bf aa 26 36 3f
       -0.013698557 -0.34622875 -1.220982 0.71152747
000240 8a f6 91 be de 30 cb be c4 e2 84 3d 67 c2 3a be
       -0.28508407 -0.3968572 0.064885646 -0.18238221
000250 13 a1 96 3e d3 3b c3 bd 3f 9b db bd 1a 7e dc bc
       0.29419765 -0.09532895 -0.1072297 -0.026915599
000260 6c 0f 02 3e b8 9b fc 3c 9b 7d 2e ba 59 bf de 3c
       0.12701195 0.030835971 -0.000665629 0.027190851
000270 0f e7 9f 3c c2 90 bb 3d 73 cd 6b 3e 11 a0 04 3d
       0.019519357 0.0915847 0.23027591 0.032379214
000280 7c a0 32 be 9e c9 02 bd fe 16 e9 bd ce ed 36 3d
       -0.17444032 -0.03193056 -0.113813385 0.044660382
000290 55 fa 2e 3f 7b 40 3c bf a9 eb 22 bf b0 ec 69 3f
       0.68350726 -0.7353589 -0.6364084 0.9137678
0002a0 d2 9b 99 be ec 39 f4 bf 66 a9 44 3f 13 59 85 3d
       -0.30001694 -1.9080176 0.7682098 0.0651113
0002b0 9a 23 8e 3e ab bf f3 3d 6c 14 8d 3d db 59 c8 bc
       0.27761537 0.11901792 0.06888661 -0.024456909
0002c0 f6 0f bb bc 16 a6 25 be 32 1a 0e 3e e9 60 3c bd
       -0.02283476 -0.16176638 0.1387718 -0.04599086
0002d0 a5 d9 f8 bd 81 af ed 3c db b7 d8 bd c0 45 4c 3d
       -0.121508874 0.02901435 -0.10581943 0.049871206
0002e0 6b 9a 62 3d 36 c9 e3 3d b6 29 8d 3d d7 60 67 3e
       0.055323046 0.11122362 0.06892721 0.22595535
0002f0 a5 93 ca 3c 73 a8 15 3d 1c d0 77 be da c4 1d 3d
       0.024728606 0.0365376 -0.24200481 0.03851781
000300 6b e9 9d be 8d e9 8e bc 90 a9 af be 04 5b 83 3f
       -0.30842146 -0.01744535 -0.34309053 1.0262151
000310 bd f0 27 3f 82 36 8b 3f 21 3b 3b bf 40 78 25 3f
       0.6560171 1.087601 -0.731371 0.6463661
000320 9e c5 ae be 66 94 b4 bc 80 b5 8e bb 48 72 a7 3d
       -0.34135145 -0.022043418 -0.0043551326 0.08176094
000330 80 83 55 be 28 ed 09 bd dd a7 f7 3c c1 e9 96 bd
       -0.20850945 -0.033673435 0.03023141 -0.07368804
000340 2a 79 94 bd bf de 81 bd 7f ee 98 3c c2 2a 9b 3d
       -0.07249673 -0.063413136 0.018668411 0.07576515
000350 fb a9 ff bd 0d b5 45 3e de 7b 3a 3b 30 e1 9e bd
       -0.12483593 0.19307347 0.0028455178 -0.07757795
000360 4a dc d1 bd a6 1b 6f bd c9 19 82 be 06 e9 c3 bd
       -0.10247095 -0.058375977 -0.25410298 -0.0956593
000370 56 b9 89 3e b6 99 8b be 5b cb 31 bf 9a 43 f6 3e
       0.26899213 -0.2726571 -0.6945092 0.4809845
000380 4c 38 48 3d 46 70 af 3e 6b 58 2b bf f1 28 06 3f
       0.048881814 0.34265345 -0.6693179 0.5240622
000390 65 cd 3b be d2 45 5b 3e 81 41 6d be c8 76 ad 3c
       -0.1834007 0.21413353 -0.23169519 0.021174803
0003a0 8a 64 ed 3d d7 ab 49 bd e9 61 1b bd 27 be d8 3d
       0.11591442 -0.049236145 -0.03793517 0.10583144
0003b0 78 18 11 3e a5 4e a8 bc aa 6a 01 3e fa 1d 90 3d
       0.1416949 -0.020545313 0.12638345 0.070369676
0003c0 7c 59 02 3e 63 bc e7 ba 7f 1e 2e 3e 99 b1 e0 3c
       0.12729448 -0.0017680045 0.17003821 0.027428435
0003d0 87 e0 3d 3e df 48 b7 bd 3d 59 2b 3e c0 ec b9 be
       0.18542682 -0.08949446 0.1673326 -0.36313438
0003e0 2a 0a 34 be ec df 33 bf bf ab 0e c0 ec aa 87 40
       -0.17582002 -0.7026355 -2.2292325 4.2396145
0003f0 5a 35 7d 3f e2 68 3e 3e c9 98 0b 3e 00 8d 5e bd
       0.98909533 0.18594697 0.13632502 -0.054333687

encoder.0.bias f4 [64]
000000 77 3a 13 40 61 08 8d 3e 8a 97 2c bf f9 94 fa 3f
       2.3004434 0.27545455 -0.6741873 1.9576713
000010 fb 3f 1f 40 d0 bb 62 c0 c3 bd 04 40 63 81 c8 3f
       2.48828 -3.5427132 2.0740821 1.5664486
000020 d7 d5 a2 3f 60 34 9b 3f f2 7e 09 40 25 b5 08 40
       1.2721509 1.2125359 2.1483731 2.1360562
000030 9d f0 e5 3f 3a a9 22 40 05 92 0d 40 ce bf bb 3f
       1.7964054 2.5415788 2.2120373 1.4667909
000040 b4 cc 25 40 39 c4 cf 3f c2 1d 01 40 c2 2d 9f be
       2.590619 1.6231757 2.0174413 -0.31089598
000050 75 6c 39 40 f8 67 21 40 53 ec 18 3e e9 e5 0a 3f
       2.8972447 2.5219707 0.149339 0.54257065
000060 1e cb e0 3f 44 bf 05 40 93 41 b9 3f 94 2e 25 40
       1.7561986 2.089799 1.4473137 2.580968
000070 b5 c5 b2 be c1 61 ad 3f b6 84 7e 3f cb 23 8a 3f
       -0.34916463 1.3545457 0.9942125 1.0792173
000080 88 6b 1a 3e a8 85 be 3f 7b d7 46 40 e6 9a aa 3f
       0.15080082 1.4884539 3.106902 1.3328521
000090 7b be 0c 40 7a aa 17 40 46 4d fd 3f c3 cd 33 be
       2.199126 2.36978 1.9789207 -0.1755896
0000a0 3d 6f 05 3e df 61 a1 3d f1 dc c9 3f 2b 09 8a 3f
       0.13030715 0.078799956 1.5770551 1.0784048
0000b0 79 c4 39 40 4e 49 07 40 21 7c c7 3f 11 43 e4 3f
       2.9026167 2.1138492 1.5584756 1.7832967
0000c0 64 28 af be 4c 0a 0f be 0a 09 85 bf 59 15 2d 40
       -0.34210503 -0.13968772 -1.0393384 2.704428
0000d0 0f 5e b5 3d ce 22 03 40 24 4f f7 3f 03 5f 2b 40
       0.08855831 2.0489993 1.9321027 2.677674
0000e0 2a 67 15 3f cc d4 4e bf fe 92 47 3f 67 d9 d2 3f
       0.5836054 -0.8079345 0.7795867 1.6472596
0000f0 31 23 af 3f 2e 76 32 40 41 f4 8a 3f 47 46 da 3f
       1.3682615 2.788463 1.085579 1.7052697

encoder.2.weight f4 [32, 64]
000000 40 6b 00 be 01 99 e3 bd aa 24 68 bd d7 1e 00 be
       -0.12540913 -0.111131676 -0.05667559 -0.12511764
000010 19 c1 36 be 1b 2e b7 3c 04 c5 a2 bd 63 60 a3 3c
       -0.17847098 0.022360852 -0.07947734 0.019943422
000020 81 95 bc 3a b0 f7 2d be e2 43 45 bd 8d 26 d1 bc
       0.0014387817 -0.16989017 -0.04816044 -0.025531078
000030 da 8f 13 bd 62 9b 0e be f0 b7 f9 3a 97 1b 22 3c
       -0.03602586 -0.13926461 0.001905201 0.009894273
000040 66 6f 84 3d 97 c3 4f 3d a7 84 bb bd 14 03 84 3d
       0.0646656 0.05072364 -0.09156161 0.064458996
000050 f7 a4 1b be 6a 24 20 be e2 b1 d8 bc 4f 5f a3 bd
       -0.15199648 -0.15638891 -0.026452009 -0.07977163
000060 f8 3c 08 3d c9 e8 06 be 38 cc 0e be 98 ac 9a bd
       0.03326127 -0.13174738 -0.13945091 -0.07552451
000070 46 87 dc bd 93 b7 c8 bd c3 26 58 bd 01 c0 b0 bd
       -0.10767989 -0.09800639 -0.05277134 -0.08630372
000080 df 7c 3c bc 3d 66 32 be 3e 20 1f be d6 ab d1 bd
       -0.011504381 -0.17421813 -0.15539643 -0.10237853
000090 9f 3f 5f bd 48 74 14 be 87 c6 27 be cd b2 f5 bd
       -0.054504033 -0.14497483 -0.16384326 -0.11996994
0000a0 23 64 45 3d e6 1e 1c bd 55 a4 61 3d 1c f8 3f 3d
       0.0481912 -0.038115405 0.05508836 0.046867475
0000b0 1d 8a 0d bc be 52 18 3d 0b fd 21 be 6d a7 d8 bd
       -0.008638886 0.037188284 -0.15819184 -0.10578809
0000c0 48 9a 3b be 08 ac 1d 3d 07 4c 20 bd a1 c8 3c bd
       -0.18320572 0.03849414 -0.039135005 -0.046089772
0000d0 f2 bb 1f be 1b da a7 bd af 33 11 3d 54 bd 10 be
       -0.15599039 -0.08195897 0.03544968 -0.14134723
0000e0 9b 2a 0d bb 77 69 28 be 2d fd b1 3c 5d 75 b5 bc
       -0.0021540287 -0.16446482 0.021727169 -0.02215069
0000f0 de 5e 71 bd c6 3d ac 3c 25 64 3e bd cf 0e 38 be
       -0.058928363 0.02102555 -0.046482224 -0.17974399
000100 23 82 51 3d 1b 71 4e bb 51 c5 c0 be 9e 6d 4c bd
       0.0511495 -0.0031500522 -0.3765054 -0.049909227
000110 e7 9c f6 3c 01 16 0a bc 22 52 86 be 98 46 e1 bc
       0.030104114 -0.008428098 -0.26234537 -0.027499482
000120 90 d9 1f 3d cc aa bf bd 3a a4 54 3d 9f 1d c9 bd
       0.039025843 -0.09358749 0.05191443 -0.09820103
000130 8e 6d b6 bc 82 7c 32 be 70 d8 05 be 26 87 e0 3b
       -0.022269037 -0.17430308 -0.13070846 0.0068520484
000140 b3 e7 30 bd 65 71 37 bd e4 c6 96 bd c2 fb bf be
       -0.043189716 -0.044785876 -0.07362154 -0.37496763
000150 9b 84 be bd 20 9c 1f be ee 5a 7d 3d 20 d8 58 bc
       -0.09302636 -0.155869 0.061854295 -0.013235122
000160 e4 63 27 be 1f 64 e1 bd c0 f6 09 be d6 f5 be bd
       -0.16346699 -0.11005425 -0.13473034 -0.09324233
000170 2f 11 83 be 19 f3 bb bd cc 34 23 be fb 13 2d be
       -0.25599048 -0.091772266 -0.15938109 -0.16902153
000180 3e 88 9d be 9f a8 b5 bd f4 46 36 bc 10 d3 ae bd
       -0.30768007 -0.088700525 -0.011125315 -0.08536351
000190 fa 69 fe bd ee 8f 25 be 7d 6b 2e be 6b 32 8e be
       -0.12422557 -0.16168186 -0.17033191 -0.2777284
0001a0 65 19 c3 be ed 02 96 be 5f 35 05 3d 75 49 3c bd
       -0.38105312 -0.29299107 0.0325216 -0.04596849
0001b0 d3 a6 9a bd a0 78 2a be f8 59 8e be 5d 1c 3a be
       -0.075513504 -0.16647577 -0.27803016 -0.18174882
0001c0 e7 1a 8d be 9c 11 29 be a9 1a 97 bd 6e 73 63 bd
       -0.27559587 -0.16510624 -0.07378132 -0.055530004
0001d0 7f 27 2a be a2 d5 8a bc 10 36 39 be 5e 98 04 be
       -0.16616629 -0.016947571 -0.1808703 -0.12948748
0001e0 f0 19 c5 be b8 e0 93 be 7e 1e f7 3b 22 0c 01 be
       -0.3849635 -0.28882384 0.0075414767 -0.12602285
0001f0 ab 84 2f be 78 d0 cc bd 59 29 0f be 6a bc ad 3c
       -0.17140453 -0.100007 -0.13980617 0.021208007
000200 ad fb 1a 3f 29 ba 6a bd ba 5f c2 3c 84 95 05 3b
       0.60540277 -0.057306442 0.023727287 0.0020383308
000210 b1 0b a3 be ef 60 e7 3c 35 7c 0a 3e d7 37 11 3e
       -0.31844857 0.028244464 0.13523944 0.14181457
000220 94 83 a6 ba c4 8b 63 bb be e9 3e bf b1 85 1a 3b
       -0.0012704008 -0.0034720758 -0.7457541 0.0023578221
000230 09 39 e9 bf bb ee d2 bb 03 87 a7 bd da 46 2e 3f
       -1.8220531 -0.0064371503 -0.08180048 0.6807686
000240 6d 13 32 3e 22 4b b2 be 9c 73 4c 3d f5 f8 1a 3e
       0.17390223 -0.34822947 0.04991494 0.15134032
000250 33 81 95 bf 64 3c be 3c aa c6 ab bb 4d 98 90 bc
       -1.1680053 0.023222156 -0.0052421885 -0.017650748
000260 2f 95 85 3e e0 ad 07 3a 00 39 6c bb ec 85 59 3b
       0.2609038 0.00051757507 -0.0036044717 0.0033191396
000270 0f 85 ed 3c ea 59 b7 bf a3 fd f6 bd 22 45 a7 3b
       0.028994111 -1.4324315 -0.12060096 0.005104677
000280 87 3b 9d 3b bb 6a 00 bd 4d 42 a5 bf 9f 80 a4 3d
       0.004798356 -0.031351786 -1.2910858 0.08032345
000290 06 ed 28 bf 28 30 05 be 18 17 9f 3d 48 55 35 3c
       -0.6598667 -0.13006651 0.07768077 0.011067696
0002a0 1b d9 38 bd 23 08 d1 bd fe e9 67 be b9 16 7d bd
       -0.045128923 -0.1020663 -0.22647855 -0.06178925
0002b0 ad 1c 4f 3c 73 72 a7 bd 65 5c 75 3e 9e ca 11 be
       0.012641114 -0.08176126 0.23961027 -0.14237449
0002c0 8b 44 d8 3c c5 1f dd bc b9 89 cd bb 35 ab 81 be
       0.026399871 -0.026992688 -0.0062725213 -0.25325933
0002d0 b3 c3 08 3e 55 0d 87 bc 29 bb 96 3d 71 03 0c be
       0.13355903 -0.01648585 0.07359917 -0.13673188
0002e0 6f 2a e6 3c 82 64 59 3b 46 9a a8 bb 1f ca 47 be
       0.028096406 0.003317148 -0.005145344 -0.19510697
0002f0 38 c3 cb 3d 19 60 b1 3c 0f f5 a0 bc 98 71 8b bd
       0.099493444 0.021652268 -0.019648103 -0.06808776
000300 a9 5c b2 3d 8b 0f 4d bd 08 62 19 3d 57 b2 89 3d
       0.0870908 -0.05006365 0.037447006 0.06723469
000310 ef 15 93 3e 7f 18 21 bd f4 78 55 3e ef b7 0d 3f
       0.28727672 -0.039330002 0.20846921 0.55358785
000320 08 72 55 3c 7a a7 47 bd 1b f1 6d be 9d 7d 6e 3e
       0.013027675 -0.048743702 -0.23236506 0.23290105
000330 87 37 15 c0 5a 23 8b 3d d8 f5 72 bd 44 78 37 3e
       -2.3315141 0.06793852 -0.059316486 0.17916971
000340 9b be d3 3c 7c f8 e9 bd c5 4f 6d bb f4 00 56 bd
       0.025847724 -0.11424348 -0.0036210876 -0.052247003
000350 0f e1 80 be 95 3d 42 b9 24 77 36 3d 60 db 55 bd
       -0.25171706 -0.00018524223 0.044547215 -0.052211165
000360 38 cc 4e 3d d5 45 69 3d 7a 40 97 3d 52 51 0f 3e
       0.050487727 0.056951363 0.07385345 0.13995865
000370 2e b7 67 3c b7 81 0c c0 0c 9e a7 3d cb 31 a9 bc
       0.014142795 -2.1954172 0.08184442 -0.020653626
000380 09 1f 99 bd a8 b6 75 3d 46 62 2d c0 76 88 36 bd
       -0.074766226 0.059988648 -2.7091231 -0.044563733
000390 a0 61 34 bf ce 57 62 3e 19 1f ae bd 77 c0 00 3c
       -0.70461464 0.22103807 -0.08502025 0.007858387
0003a0 29 98 00 ba 85 10 77 bc bd 10 5d be 91 26 11 bd
       -0.0004905486 -0.015079622 -0.21588416 -0.03543717
0003b0 cd fc 8e bc 1d 76 12 3e 92 42 a7 3d 07 30 32 be
       -0.01745453 0.14302869 0.08166994 -0.17401133
0003c0 ed 98 ab 3d 74 10 11 3d 86 9d 5c bd 3a 60 a3 be
       0.08378778 0.03541608 -0.053861164 -0.31909353
0003d0 e1 00 ac 3e 1b bf ee 3d aa de 71 3c 19 01 1e be
       0.3359442 0.11657544 0.01476256 -0.15430106
0003e0 85 94 ae bc 23 4d 8d bc 7c 84 f5 3d 2a 79 3a 3e
       -0.021311054 -0.017248696 0.1198816 0.18210283
0003f0 2e 00 a3 bc 36 06 29 3e 2f c0 d9 3d 17 85 df 3d
       -0.019897547 0.16506276 0.10632359 0.10914057

encoder.2.bias f4 [32]
000000 24 b0 93 bd 59 b6 7e be d1 32 08 3f 6e da 6c 3f
       -0.072113305 -0.24874248 0.5320254 0.925208
000010 54 a5 76 3f 6b 12 cc 3c 57 e7 8a bd d5 e7 1a bf
       0.9634602 0.024911126 -0.06782406 -0.6051
000020 5b e2 17 be 0e d3 d5 be f8 a5 77 3f 7c df bd 3e
       -0.14832442 -0.41762584 0.96737623 0.37084568
000030 5f d6 85 bd dc 97 4e 3c c2 e7 2a 3f fb 4a d9 3b
       -0.06535029 0.012609448 0.66759884 0.006631253
000040 df 56 21 be 10 b1 3a 3d de 31 30 3f f9 ec a5 3e
       -0.15755795 0.045579016 0.6882609 0.32407358
000050 96 1b 0c be 73 62 cc bd 19 59 80 3e 42 ae 6b bd
       -0.13682398 -0.09979715 0.25067976 -0.057539232
000060 60 2a 42 3f 56 b7 6a be 5f ca 4f 3f 76 22 fd 3e
       0.7584591 -0.229215 0.8116817 0.49440354
000070 36 4f 25 3d 1c cd 7b 3e e8 ca c9 3e 59 2d 30 3f
       0.040358745 0.24589962 0.39412618 0.68819195

decoder.0.weight f4 [64, 32]
000000 f1 b3 81 be 7c 2c 92 be f8 f8 b7 be e6 e9 8a be
       -0.25332597 -0.28549564 -0.35932136 -0.27131575
000010 fa f1 b7 be 6f c3 93 be d6 c1 f4 bd 95 d0 dd bd
       -0.359268 -0.28860041 -0.11951034 -0.108307995
000020 4b bf d2 3e 1a b1 16 bd 4d d5 e4 bd f7 fb e8 be
       0.4116157 -0.03678999 -0.111734964 -0.45504734
000030 82 f3 94 be 02 c9 92 3d fd 30 dc be e7 02 e8 be
       -0.29092032 0.071672454 -0.43006125 -0.45314714
000040 53 fa 98 bd f5 96 b4 be c7 56 5a be ee bf a2 be
       -0.074696206 -0.3527142 -0.21322165 -0.31787056
000050 f2 aa 51 be 1e af bf be 3e 6a ad be d7 bb d9 be
       -0.20475367 -0.3743829 -0.3387012 -0.42526123
000060 77 cb 9a 3e f8 a8 d0 3e f3 20 db 3e bd 37 b8 be
       0.30233356 0.40753913 0.42798576 -0.35980025
000070 ae ff 6b 3e 62 58 ce be 3e b2 5b be 2f 3e 23 3e
       0.23046753 -0.40301806 -0.21454713 0.1594169
000080 56 08 87 be 33 af 56 be a4 ae 30 bd dd 47 3a 3e
       -0.26373547 -0.2096527 -0.0431353 0.18191476
000090 ff 3e 05 3d 14 56 3c 3c e8 f5 59 be 3c 43 a3 3b
       0.03253078 0.011495132 -0.21285212 0.00498238
0000a0 42 42 86 3e 31 7d ea 3c 91 1c 9e 3c b2 df 30 3e
       0.26222426 0.028624149 0.01930073 0.17272833
0000b0 70 0a 49 3d df 63 2f be 76 b0 e6 bd e6 db 8a bd
       0.04908222 -0.17127942 -0.11264126 -0.067802235
0000c0 3f 9a 13 bc 10 2a d8 3b 1c 69 b8 bd 85 31 fb 3e
       -0.009008943 0.006596811 -0.09004423 0.49061218
0000d0 ca 58 63 be a8 b1 fe bd 88 46 3a 3c 25 62 25 be
       -0.22201839 -0.12436229 0.011369355 -0.1615072
0000e0 ea 61 eb 3d 1b d6 e0 3c b6 7d 9b 3d 0b 55 65 bd
       0.11493285 0.027445843 0.07592337 -0.055989306
0000f0 c3 e2 f0 3d 12 9f d8 3d 0c 47 e0 3d ab 06 5c bc
       0.11762001 0.10577215 0.10951051 -0.013429324
000100 df af 1b 3e ac a9 e6 3c 54 60 0f bc cd 73 02 be
       0.15203808 0.028157078 -0.008750994 -0.12739487
000110 e5 71 0b 3d 98 b3 6a 3e f4 d0 0d 3e 26 07 45 3e
       0.034044165 0.22920072 0.1384924 0.19241008
000120 72 22 3d be 04 a3 68 bd 79 c8 71 bd b0 70 cd bd
       -0.18470171 -0.05679609 -0.059029076 -0.10031259
000130 1e 4a 00 3e 76 2e e6 ba 50 51 8b bd 0d da ca bd
       0.12528273 -0.0017561454 -0.068026185 -0.09904871
000140 02 c0 25 be fa f5 1b 3e 21 a6 a8 bd 6e 84 5f 3d
       -0.16186526 0.15230551 -0.082348116 0.054569654
000150 a9 1c 21 bd 78 c2 52 3e 70 de 99 be 1a 70 60 3e
       -0.039333973 0.20581996 -0.3005252 0.21917763
000160 c4 15 85 3d 9c 9b 40 3d 38 e0 1d 3f 4e 1b f5 bd
       0.06498292 0.0470234 0.61670256 -0.119680986
000170 e1 ed 10 be 1c aa c3 bd 12 fe 92 3c cd 3b d2 3d
       -0.14153244 -0.0955393 0.017943416 0.10265312
000180 6a c3 bf bd 67 3c 8b 3d 34 01 ba bb e7 d9 72 be
       -0.09363444 0.0679863 -0.005676413 -0.23715936
000190 43 68 ef bd fc fa 0a be 4b 7c 3b be 9b 4c f3 3d
       -0.11689808 -0.13572305 -0.18309133 0.11879846
0001a0 16 b7 2d 3e 24 60 e6 3d 15 ba 4d 3d 3d 68 e7 bd
       0.16964373 0.11248806 0.05022629 -0.11299179
0001b0 e4 29 22 be 36 c6 21 be 8c fe d6 bd 8d 9e 89 3d
       -0.15836293 -0.15798268 -0.1049777 0.06719694
0001c0 45 88 a9 3c d4 85 c0 bd 43 c1 22 be 6f a9 df 3c
       0.020694861 -0.09400526 -0.15894036 0.027302472
0001d0 e7 5d 51 bd e8 38 b3 bd df fd 3a 3e 5b ba 6a be
       -0.051114943 -0.087510884 0.18260907 -0.22922651
0001e0 f1 d3 56 3d f6 24 c8 bc 7b 70 37 3e 46 05 64 3d
       0.052448217 -0.024431687 0.17914002 0.05566909
0001f0 fd bd 2f 3e ac 5c 70 be f4 1c e4 bd 70 46 1d bd
       0.17162319 -0.23472852 -0.11138335 -0.038397253
000200 45 f1 d5 bd cb e4 88 be 7b 74 ed bd 35 4c 17 be
       -0.10446409 -0.26737055 -0.115944825 -0.14775164
000210 4b ea 48 be 73 eb a9 bd 21 fe 6f be ca 9a b7 3d
       -0.19620626 -0.082968615 -0.23436786 0.089650705
000220 db 7d d8 3c 91 ec 0f 3e 04 02 cb bc 7f 5d a2 bd
       0.0264272 0.14055087 -0.024781235 -0.07927989
000230 09 16 20 be 7a 38 64 be 10 d8 e9 3c 39 fb 5a be
       -0.15633406 -0.22287169 0.02854541 -0.21384896
000240 35 ef a3 3d 88 77 46 be 94 e4 4f be 16 41 0d be
       0.080046095 -0.19381535 -0.2030204 -0.1379436
000250 cc 46 8d 3d 36 73 31 be c3 01 ad bd f0 6b 5d bd
       0.06898269 -0.17329106 -0.08447602 -0.054058015
000260 e4 77 03 be 8f b8 7a bd e4 99 8d 3d 5c 68 60 3e
       -0.12838703 -0.061211165 0.06914118 0.2191481
000270 ad 18 6a 3e f1 70 4c be dc 1b d0 bd 13 21 84 bd
       0.22860976 -0.19964959 -0.10161564 -0.06451621
000280 ea bf a7 bd 9e 65 90 be f8 72 8e be 12 73 a5 be
       -0.081909016 -0.28202528 -0.2782209 -0.32314354
000290 c3 23 ba be 0e 56 ad be c9 8d c7 3b 42 58 24 be
       -0.3635541 -0.33854717 0.0060899 -0.16049293
0002a0 68 c7 87 3e b1 ff d8 3d f7 4d 79 be f0 1f 5e be
       0.26519322 0.10595644 -0.24346147 -0.2169187
0002b0 9e 5e 99 bc f2 d9 10 bc 1a e4 0f 3d d5 9c d6 be
       -0.018721875 -0.008841025 0.035129644 -0.41916528
0002c0 c6 8c 88 bc 15 43 9a be dc 5a 6f be f5 6e 97 be
       -0.016668689 -0.30129305 -0.23374504 -0.2957684
0002d0 f6 fd e0 be 71 30 95 be dc 01 78 be 8d b6 a5 bd
       -0.43943757 -0.2913852 -0.2421946 -0.080914594
0002e0 fc 59 46 be 21 35 8a 3e f8 e9 b5 be 07 7e a3 be
       -0.19370264 0.2699366 -0.35530066 -0.3193209
0002f0 af f0 78 3e d4 42 7c be 62 62 d8 be a9 38 03 3e
       0.24310564 -0.24634868 -0.4226256 0.12814583
000300 7e b7 b4 3d f3 0a cd bd d1 85 08 be 31 d0 07 be
       0.08824061 -0.10011854 -0.13332297 -0.13263012
000310 2d f0 83 bf 74 91 11 be 03 3f e6 3d ed 3c 19 be
       -1.0307671 -0.14215642 0.11242487 -0.14964648
000320 00 94 03 3d df 2f e2 3d 0d f8 22 be 76 4d c4 bc
       0.032123566 0.11044287 -0.15914936 -0.023962718
000330 fd 8e 24 be c9 d9 bd be ce d9 05 3e e7 c7 0a 3e
       -0.1607017 -0.3708022 0.13071367 0.13552819
000340 e9 92 34 be fb 58 f3 3d f3 e6 eb 3c 52 17 db bc
       -0.17634167 0.11882206 0.028796649 -0.026744518
000350 9a a7 7c bd 47 d7 a6 3b a9 67 d7 3b 4b 19 3b 3e
       -0.061683275 0.005091581 0.0065736366 0.18271367
000360 ef 92 ff bc da af 89 3d 5e 16 23 bd e5 d0 87 bd
       -0.031197993 0.06722994 -0.039816253 -0.0663164
000370 b6 94 79 bd f8 e1 15 be aa 80 06 3f 0a 13 74 be
       -0.060932837 -0.14636981 0.52540076 -0.23835388
000380 eb 9b 77 be be ea 90 be ca 18 6b 3c f7 45 1f bd
       -0.24180572 -0.28304094 0.014349172 -0.038885083
000390 d8 1b 82 bd 66 43 01 bd 97 3b 8d bd 17 c2 9e be
       -0.06352967 -0.031558417 -0.068961315 -0.31007454
0003a0 04 75 10 3e 0f 33 f4 3d 6c 12 9d 3d ee d4 ea bd
       0.14107138 0.11923801 0.07669529 -0.11466394
0003b0 36 89 5a be e8 a4 eb bd c2 e2 ca 3c ed 5d 9c be
       -0.21341404 -0.11506063 0.02476633 -0.3054041
0003c0 d0 83 85 3e 13 4a c7 bc d0 5e e6 3e 73 b0 26 3e
       0.26077127 -0.024327314 0.4499421 0.16278248
0003d0 cf a2 52 bd 01 88 96 be dd 24 36 3d d1 4a 18 be
       -0.051424798 -0.29400638 0.04446875 -0.1487229
0003e0 e3 6f 45 bb f3 98 1a 3e bf 41 00 3e 09 b6 7a bc
       -0.0030126504 0.15097408 0.1252508 -0.01530219
0003f0 43 63 cb 3b 3c bb 32 bc e8 a2 b5 bd 4b 87 a7 3e
       0.0062069013 -0.010908898 -0.088689625 0.32720408

decoder.0.bias f4 [64]
000000 50 40 68 be e8 cb 14 be 9f 54 01 3e f2 4d ec bd
       -0.22680783 -0.14530909 0.12629937 -0.115383044
000010 68 74 87 3a 82 9b 60 be 32 08 0a 3e a5 9b 91 bd
       0.0010334374 -0.21934322 0.13479689 -0.07109765
000020 18 90 e4 3d e1 e1 1c be 38 73 18 3c 91 7d 20 bd
       0.11160296 -0.15320541 0.009304814 -0.03918225
000030 f4 8e 62 3d 05 ca 03 be 04 12 85 bd 30 09 5d be
       0.055312112 -0.12870033 -0.06497577 -0.21585536
000040 68 b1 5d bd 98 68 99 bb db 96 4e be 9e a0 1e bd
       -0.054124266 -0.004681658 -0.20174734 -0.038727395
000050 6c 7a f2 3b 09 4f 67 bd 94 e3 23 3e 02 b3 a4 bd
       0.0073998477 -0.05647186 0.16004783 -0.080419555
000060 d1 20 ef be 6a ef 55 be c0 5b 3a be 06 0e bc be
       -0.46704724 -0.2089211 -0.18199062 -0.3672945
000070 22 c5 1f be 3b 7c 47 3e 5d 4a 7c 38 43 2b 80 be
       -0.15602544 0.19480984 6.0150738e-05 -0.25033006
000080 c9 2e a9 bd 84 3d 57 3d 04 c4 d0 bd c7 cd 6a 3e
       -0.08260877 0.0525489 -0.10193637 0.2293006
000090 23 f1 26 3e 63 c3 37 be e3 51 d1 3c a7 17 c8 bd
       0.16302924 -0.17945628 0.025551742 -0.09770136
0000a0 ce 8b 5e be 14 f0 46 bd 9f 5e 61 3c 43 70 bc 3d
       -0.21733019 -0.0485688 0.01375547 0.092011
0000b0 78 81 5f 3e 35 6d cb bd 20 7e 68 3d 72 35 69 3e
       0.21826732 -0.09932939 0.056760907 0.22774294
0000c0 5d 82 76 be 71 d9 f2 bd 6c be cd 3d cf 17 da bd
       -0.24073167 -0.1185788 0.10046086 -0.106490724
0000d0 7b 65 42 be 40 c1 1f 3d 58 33 cf bd a2 d3 30 bc
       -0.18984024 0.039002657 -0.10117215 -0.010792645
0000e0 e4 d3 17 be d5 da 23 3e 83 31 d3 bc 1e 05 8b be
       -0.14826924 0.16001447 -0.025780445 -0.27152342
0000f0 f3 f4 87 3e db eb 1b 3e d1 8b eb 3d 4e 49 ad bb
       0.2655407 0.1522669 0.11501277 -0.0052882796

decoder.2.weight f4 [784, 64]
000000 e0 bf f6 3d de d7 92 bd 08 0c e4 3c ac ff 7f bd
       0.12048316 -0.0717008 0.027837768 -0.062499687
000010 5a 60 9d bd 20 2a f9 bc 70 b1 40 3d b2 a4 8c bd
       -0.07684393 -0.030415595 0.047044218 -0.06867351
000020 28 b7 b8 3b 12 7f 80 bd 00 77 1e be 90 14 99 bd
       0.0056370683 -0.06274237 -0.15475082 -0.07474625
000030 f1 c1 da bb 1f 2e 85 3c 0f 2d 21 3d 2a cd d9 bd
       -0.0066759516 0.016257344 0.03934961 -0.10634835
000040 56 b5 b4 ba a6 e4 ed bd 94 4f 00 bd c7 52 df bd
       -0.0013786952 -0.11615877 -0.03132589 -0.109044604
000050 a8 c8 41 bd a0 23 0f be d7 b2 98 bd 3f 2d ce bd
       -0.0473105 -0.13978434 -0.07455986 -0.10067224
000060 10 84 60 3d 90 b3 1b bc 4a c1 1a be 36 43 92 3d
       0.054813445 -0.00950326 -0.15112796 0.07141726
000070 70 c8 02 3c dc da 9d bc 4e 44 ab bd a4 bf 9e bd
       0.007982358 -0.0192694 -0.083626375 -0.07751396
000080 00 09 17 3c 38 47 21 bd ca 2c d0 bd 87 51 09 be
       0.009218454 -0.03937456 -0.10164793 -0.13410006
000090 f3 f1 28 be 4c e8 31 bc 84 50 19 be c6 bf 0e be
       -0.16498546 -0.010858607 -0.1497212 -0.13940343
0000a0 46 8d d5 bd 33 8d fb bd 0a d9 98 bd 98 88 a2 3d
       -0.104273364 -0.12282791 -0.07463272 0.079362094
0000b0 d2 7c 30 bd b8 bf 21 be e0 4a 97 bb 98 99 d0 3c
       -0.043087788 -0.15795791 -0.00461708 0.025463864
0000c0 10 af b7 bc fd e2 c7 bd 22 22 40 be 6a 0d 59 bd
       -0.022422343 -0.097600915 -0.1876302 -0.05299131
0000d0 6c 5f 55 bd a4 bc 23 bd a8 12 aa 3c fc b5 de 3d
       -0.052092955 -0.039974824 0.02076085 0.108745545
0000e0 24 d0 19 bd 42 e2 93 bc 84 b8 0d 3d e6 d0 a6 bd
       -0.037552014 -0.018052224 0.034599796 -0.08145313
0000f0 6e 8d 9b 3d de 51 2a bd 00 f8 29 be 76 0d 9c bd
       0.07595335 -0.04158198 -0.1659851 -0.07619755
000100 d4 9a 8e 3d 16 13 62 3c c0 09 a9 bd 5c f3 a8 3d
       0.06963125 0.013798496 -0.08253813 0.08249542
000110 c8 fc fd bd a4 a3 73 bd 04 38 35 bd c2 09 ab bc
       -0.1240173 -0.05948223 -0.044242874 -0.020878676
000120 2f 1a 42 be 74 52 24 3c fc c4 9d bc c9 89 30 bd
       -0.18955301 0.010029424 -0.019258969 -0.043100152
000130 b6 19 44 bd 5f fd 4e be 42 01 df bc 00 3c 72 39
       -0.047876082 -0.20213841 -0.02722228 0.0002310127
000140 dc f5 44 be d0 f4 f6 3c 00 81 08 bd 82 7f 0e be
       -0.19234413 0.030146033 -0.03332615 -0.13915828
000150 4c 0b 7c bd 56 42 b9 bd a3 23 53 bd cf ef de bc
       -0.06153421 -0.09045856 -0.051547658 -0.027213959
000160 d6 35 8d bd 40 e4 20 bc 96 d7 41 3d de ae 93 bd
       -0.06895034 -0.009820044 0.04732474 -0.07211088
000170 44 eb 13 3d 90 0e b5 bc e7 81 d7 3c 80 32 a2 3d
       0.03611304 -0.02210167 0.02630706 0.07919788
000180 fe 6a 80 3c a4 88 71 bd 52 10 f6 bd 95 b3 87 bc
       0.015676018 -0.0589682 -0.120148316 -0.016565124
000190 eb 20 fe ba a0 06 05 bd 3b e4 a9 bd 09 a1 0d be
       -0.0019388472 -0.03247702 -0.08295485 -0.13830961
0001a0 78 f3 90 bd e2 26 28 3d a6 c6 83 bd 48 e1 0f 3d
       -0.07077688 0.041052707 -0.064343736 0.035126954
0001b0 94 63 1d bd 3c 2b 38 3c 4a d9 b0 3d 35 a2 15 bd
       -0.038425043 0.011240777 0.086351946 -0.036531646
0001c0 40 f2 37 bb 73 42 18 bd 30 5c 1b be e7 a6 2f bd
       -0.0028067976 -0.037172746 -0.15171885 -0.04288378
0001d0 e0 e6 eb 3b 00 8b 11 be 92 c4 b3 bc 97 48 31 be
       0.0071991533 -0.1421318 -0.021944318 -0.17312847
0001e0 71 be 2f be 12 db 50 bd d1 18 45 3b 89 3d 0f bd
       -0.17162491 -0.05099017 0.0030074606 -0.034970794
0001f0 e8 ce 47 3c bd bf 3d bd 01 45 66 bd 7e 8a 09 be
       0.012195326 -0.046325434 -0.05621815 -0.13431737
000200 e4 53 e2 3d 14 4e 74 be 9c ce d9 bd 14 23 e0 3d
       0.11051157 -0.2385791 -0.10635111 0.109441906
000210 10 e5 77 bd 84 c2 06 bd 8c 54 ac 3d 61 a4 32 3c
       -0.060521185 -0.03290035 0.084145635 0.010903449
000220 bd 91 2a be cd eb b7 bd 08 85 88 3d e8 04 ab bc
       -0.16657157 -0.08980522 0.06665999 -0.020876363
000230 26 14 33 bd ca 46 a0 bd 34 15 86 bc f8 6f 8e 3c
       -0.043720387 -0.07826002 -0.016367532 0.017387375
000240 d3 fc 06 3d 98 78 23 3d 60 20 85 3b f2 1a 5d bd
       0.032955956 0.03990993 0.0040626973 -0.053980775
000250 cc 0e ad bd 2a c3 2f be a8 f9 82 bd a0 48 32 bc
       -0.08450088 -0.17164293 -0.063952744 -0.010881573
000260 88 ea 84 3d 58 16 cb bc 9a 65 83 bd a0 b5 38 bc
       0.06490046 -0.024790928 -0.06415863 -0.0112737715
000270 ba c0 94 bd e8 11 75 bc 9c af 0b be 38 4d 84 bd
       -0.07263322 -0.014957882 -0.13641208 -0.06460041
000280 3c a5 a8 3d c8 a3 56 3d 14 7c 33 bd e8 24 16 be
       0.08234641 0.052402288 -0.043819502 -0.14662516
000290 81 27 01 be 58 5a 96 bc 68 46 42 be 0e 35 9c 3d
       -0.12612726 -0.018353626 -0.1897217 0.07627307
0002a0 e0 98 6f 3d 91 94 df bd 00 71 f3 3c 7e b1 c9 bd
       0.058495402 -0.10917009 0.029716969 -0.09848307
0002b0 fc a2 e4 bc ce 7a 0c 3d 34 8b b7 3d 00 07 96 ba
       -0.027909748 0.034296803 0.08962098 -0.0011446178
0002c0 e9 3c 19 3d e4 7d 98 3d fe ad 0c be 61 d6 de bd
       0.037411604 0.07445887 -0.13738248 -0.10880733
0002d0 10 87 4d bd 34 ba af 3d 30 8f 97 3c 28 85 d6 bc
       -0.050177634 0.08580437 0.018500894 -0.02618654
0002e0 e0 53 7f 3d 11 84 1a be ee c6 bc bd 8a 65 e6 3d
       0.06233585 -0.15089442 -0.0921763 0.11249836
0002f0 15 c2 86 bd 86 0a 0a be c2 13 35 be cc 78 98 bd
       -0.06579987 -0.13480577 -0.17683318 -0.07444915
000300 b8 91 f4 bc 80 65 19 bb 0f 0f fc bb 08 97 ef 3d
       -0.02985464 -0.0023406446 -0.007692225 0.11698729
000310 1c ba f9 bd 1a 65 bf 3d 94 ac 56 3d 3d 5c ed bd
       -0.12193701 0.093454555 0.052410677 -0.11589859
000320 11 71 32 be 70 0d 44 be 70 c7 46 bd fe 3d 5d bb
       -0.17425944 -0.19145751 -0.048530042 -0.0033758874
000330 c5 ac 0c be a0 b7 cb 3b 63 c3 17 3d 3a 96 a8 bd
       -0.13737781 0.006216958 0.03705157 -0.082317784
000340 57 0b d7 bd 02 b5 cf bd 94 eb 40 be 8a 98 d9 bc
       -0.1050021 -0.101419464 -0.18839866 -0.026561994
000350 fc 0e 7f 3d d9 25 3b 3d f8 a2 48 bd 64 d5 0b 3d
       0.06227015 0.04569039 -0.048983544 0.034139052
000360 40 b9 27 bc 28 cb 04 bd ae 3c 07 be ce 65 cb 3d
       -0.010237038 -0.032420307 -0.13206741 0.09931527
000370 3a af b4 3d 4c da 26 be 14 6d 4e 3d 40 e5 ab 3b
       0.08822484 -0.16294211 0.050396994 0.0052458346
000380 52 17 fc 3d e6 7c c3 bd c8 f9 97 3d a9 7a c4 3c
       0.123091355 -0.09545307 0.07420689 0.02398427
000390 42 2a b7 bd a0 41 75 3d a8 26 46 be 82 51 f7 bd
       -0.08943607 0.059877038 -0.19350684 -0.12076093
0003a0 d0 20 42 3d 1d 65 f9 bd bc d2 e9 3d 40 0d d4 bd
       0.047394574 -0.12177489 0.114171475 -0.1035409
0003b0 05 52 d6 bb 4b d0 89 bd 4a eb d9 bd 98 79 90 bd
       -0.006540539 -0.06729182 -0.10640581 -0.07054442
0003c0 7e d9 8a 3d 01 6c f2 bc fd 73 3d 3d d8 1b ec 3c
       0.067797646 -0.029592516 0.046253193 0.02882187
0003d0 c6 bd f5 3d 3f 9f e9 bb fb 72 a1 bd 3b db 09 bd
       0.11999087 -0.0071295793 -0.07883259 -0.03365634
0003e0 03 18 0f be 52 fd 99 bd 07 44 2b be 84 ca ae bd
       -0.13974003 -0.0751902 -0.16725169 -0.085347205
0003f0 fc d8 e5 bd 6b af 0c be 41 62 4a 3c 14 e3 7c bd
       -0.11223027 -0.13738792 0.012352527 -0.061739996

decoder.2.bias f4 [784]
000000 91 3e 42 3c 08 d4 b3 bc 89 43 51 3c d6 d7 bf bd
       0.011855737 -0.02195169 0.012772449 -0.09367339
000010 ab 27 13 be 64 32 29 bd 75 b5 1f be 1c 69 8d bc
       -0.14370601 -0.041307822 -0.15596564 -0.017262034
000020 d9 cf 9c bd d3 7a 21 be 45 e8 aa bd a9 22 0f be
       -0.07656831 -0.1576951 -0.08345083 -0.13978066
000030 88 1f 2d be 6d a9 03 bd b8 e0 3f be f7 bd 0a be
       -0.1690656 -0.032144 -0.18738067 -0.13549028
000040 b7 67 3a be d0 6d de 3c c0 18 b0 3c 83 3a f3 bc
       -0.18203627 0.027151972 0.021496177 -0.029690986
000050 c0 77 0b bd 8d cc 24 be 2c 48 1f bd 3e 0a 1d be
       -0.03404975 -0.16093655 -0.038887188 -0.15335938
000060 45 5c 2b be d9 d8 f2 3c 26 45 b6 bd 70 4e 38 be
       -0.16734417 0.029644417 -0.08899908 -0.17998672
000070 9d aa 0b be 2b 3f 6f bd f9 59 42 bb 4d 6e 42 be
       -0.13639303 -0.05840985 -0.0029655679 -0.18987389
000080 0a 7f 08 bd 7a 93 89 bd e8 84 60 bb 4e 60 9c bd
       -0.03332428 -0.06717582 -0.0034258906 -0.07635556
000090 3b 28 1a be fb cf 74 bd 4b fc 36 be 47 31 d5 3b
       -0.15054409 -0.059768658 -0.1786968 0.0065061185
0000a0 88 11 fc bb 12 ef 64 3b e9 3d db 3b 2f 02 be bd
       -0.0076925196 0.0034932536 0.00669073 -0.0927776
0000b0 3b 82 c3 bb f2 73 1c be 6d ae 25 be 9a 4c 85 bd
       -0.0059664524 -0.15278605 -0.1617982 -0.06508751
0000c0 05 b5 23 be 1c 92 4c bd fe eb 32 be 9c a4 76 bc
       -0.15987022 -0.04994403 -0.17472836 -0.015053894
0000d0 b5 a3 e4 bd 9b bb 97 bd a1 83 c8 3c a0 1a f9 3c
       -0.11164037 -0.0740883 0.024476828 0.030408204
0000e0 14 81 f8 bd 09 df a7 bd 86 33 d1 bd dd 3f 60 bd
       -0.12133995 -0.081968375 -0.102149054 -0.054748405
0000f0 4d 1b 17 bd be 4d c9 bd 75 87 a8 bd c6 07 6d be
       -0.03689127 -0.09829281 -0.082289614 -0.23147497
000100 a3 85 8a bc 7c 6d f5 bd 49 14 e0 3b ba 2e d8 bd
       -0.016909426 -0.11983773 0.0068383557 -0.105557874
000110 2c b6 24 be c0 73 59 be 1a c0 34 be 0b e9 5e be
       -0.16085118 -0.21235561 -0.17651406 -0.21768586
000120 a1 79 f4 bc 6a d5 b1 bd ef 06 10 bd 8e 69 c5 bd
       -0.029843153 -0.086832836 -0.035162862 -0.096392736
000130 d8 f5 66 bd 21 18 01 bd 8a 91 38 3c 4e f7 af bd
       -0.0563868 -0.03151715 0.011265168 -0.085920915
000140 a9 81 09 be c5 eb bf bd 1d b9 83 bc 6c 62 ba bc
       -0.13428368 -0.09371141 -0.01607948 -0.02275201
000150 97 62 9d bd cd 0d df bd ed bb 35 bd b7 06 d6 bd
       -0.0768482 -0.10891304 -0.044368673 -0.104504995
000160 35 e1 50 bc b0 7b 33 bd 67 9b 4c be 97 13 00 be
       -0.012749006 -0.04381913 -0.19981156 -0.12507473
000170 04 51 01 be a6 c0 2f bd ef 67 b8 bd fd 84 9b bd
       -0.12628561 -0.042908333 -0.09004199 -0.07593725
000180 95 3a 17 3d 5c fe 56 be a2 b8 04 be ee fb a1 bd
       0.036921103 -0.20995468 -0.12961057 -0.0790938
000190 7b 06 81 bd fb aa 43 bd 79 de 17 be 40 68 6e be
       -0.06300064 -0.04777048 -0.1483096 -0.23281956
0001a0 a3 de 19 be 89 e5 22 be 45 7a 2d be ce 0e 88 bd
       -0.15026335 -0.15907873 -0.16941173 -0.06643449
0001b0 c2 ba 48 3d fd d9 da bd 2c df 84 bd 66 29 a4 bd
       0.04900623 -0.10686109 -0.06487879 -0.080157086
0001c0 6b ad 1b be ff b7 2c bd 57 17 6f bc 94 a2 0f be
       -0.15202872 -0.04216766 -0.014592967 -0.14026862
0001d0 ce 3a 10 bd fa 1e 62 3d 1b 6a a6 bd 47 73 50 bd
       -0.03521233 0.055205323 -0.08125707 -0.050891187
0001e0 c8 32 a1 bd 05 2a 24 be f3 f2 37 be 0a c2 09 be
       -0.07871014 -0.16031654 -0.17963772 -0.13452926
0001f0 99 f2 de bd b4 46 97 3c 6e 63 92 be 71 3e ef be
       -0.108861156 0.018466331 -0.28591484 -0.46727327
000200 32 97 95 be 0f 87 50 be 42 b2 93 be 13 42 bf be
       -0.29216915 -0.20364021 -0.28846937 -0.37355098
000210 4d c0 4c bd d6 2b 29 be 89 94 8f bd 24 cf e4 bd
       -0.04998808 -0.16520628 -0.07010753 -0.111723214
000220 02 e9 20 3a db 66 36 be 02 90 c2 bd 00 26 b3 bd
       0.00061382365 -0.17812674 -0.095001236 -0.08747482
000230 01 5d 00 be 95 77 fe bd 60 e9 7c bc a0 12 e6 bd
       -0.12535478 -0.12425152 -0.0154365 -0.11234021
000240 19 d8 cf bd bb d7 35 be 88 60 60 3c 91 8b 95 be
       -0.10148639 -0.17758076 0.01369489 -0.29208043
000250 0b e2 2b be d1 05 8e 3c 7d c0 b3 3c f0 89 13 3e
       -0.16785447 0.017336758 0.021942372 0.14408088
000260 43 16 4c 3e b2 1a 14 3e c8 b5 6e be 18 21 9e be
       0.19930367 0.14463308 -0.23311532 -0.30884624
000270 04 9a f8 bd fa 7a a4 be 1b 73 04 bf 37 a9 d1 be
       -0.12138751 -0.32125074 -0.51738137 -0.40949413
000280 94 ba b2 be 0a 3a 88 be 15 fc e9 bc 74 95 bb be
       -0.34907973 -0.2660678 -0.028562585 -0.3663746
000290 52 b9 cf bc 02 e1 1f bd d9 2b 3d be cc ad da bd
       -0.025356922 -0.039032944 -0.18473758 -0.106776804
0002a0 c7 f4 26 3d 2b 2a b8 bd 5d e1 ad bd f3 2c b7 bd
       0.04076078 -0.08992418 -0.0849025 -0.0894412
0002b0 26 9c d0 bd 38 d3 89 bd cb 58 12 be e0 ba 88 bb
       -0.10186033 -0.0672974 -0.14291684 -0.004172668
0002c0 25 1d 38 be e0 ea ea 3d 50 e3 a6 3e cc 3f ae 3e
       -0.17979868 0.1147058 0.325953 0.34033048
0002d0 73 f0 c6 3e 7d db da 3e 0c d0 31 bd fe 7f 1f be
       0.38855323 0.4274558 -0.0434113 -0.15576169
0002e0 36 df 37 be df 13 47 be ee 34 2e be fd 0e f0 bd
       -0.17956242 -0.19441174 -0.17012379 -0.11721609
0002f0 af fb 30 be bb 59 b1 bc 53 46 98 ba 5e bc af bd
       -0.1728351 -0.021649232 -0.0011617638 -0.0858085
000300 01 3e 96 bc 60 0e 4c be ac 94 e0 bd 61 a7 0d be
       -0.018340113 -0.19927359 -0.10965857 -0.13833381
000310 73 1c 00 be 10 f0 c7 bb 1f b7 81 39 db 41 13 be
       -0.12510853 -0.0061016157 0.00024741233 -0.1438059
000320 88 4a 1a be 40 51 d4 bd 5f 05 09 be 30 7c 81 bd
       -0.15067494 -0.1036706 -0.13380955 -0.06322515
000330 17 09 ba 3d 38 43 ba 3e 54 9b db 3e 6f 1b f9 3e
       0.09083765 0.3637941 0.42891943 0.48653743
000340 15 f7 16 3f fc b0 c6 3e c7 8e 97 3d aa a7 47 bd
       0.5897077 0.38806903 0.074002795 -0.04874388
000350 c3 eb 06 bd c3 51 e7 3d 8d 33 35 3e 4c 36 1b 3e
       -0.032939684 0.11294892 0.17695446 0.15157431
000360 7d 29 41 3e 6d 83 14 3e 28 bb d0 3d 70 35 0e 3e
       0.18863483 0.1450326 0.10191947 0.13887572
000370 c3 a0 12 be 12 af 4c bb 84 98 10 be df 52 16 be
       -0.14319138 -0.003123228 -0.1412068 -0.1468005
000380 22 14 d3 bd f3 0f e9 3c 52 9d de bd 0f 41 01 be
       -0.103065744 0.028449988 -0.1086985 -0.12622474
000390 b3 66 46 bc e0 39 3e be dc a0 27 be 71 eb 34 bd
       -0.012109446 -0.18576765 -0.16369957 -0.044169847
0003a0 85 2a 85 3e 1f 2b c6 3e 7a 3a db 3e a5 7a 90 3e
       0.26009002 0.38704774 0.42818052 0.2821857
0003b0 31 46 a1 3e 6d 03 12 3e 08 44 25 bd 5e ee 24 bc
       0.31498864 0.1425912 -0.040348083 -0.010066597
0003c0 f3 84 94 3b 24 dc 29 3e 8b d5 86 3e 2a b0 53 3e
       0.0045324503 0.16587883 0.26334795 0.2067267
0003d0 86 05 52 3e f4 65 27 3e d2 04 0e be 77 1b e5 3c
       0.2050992 0.16347486 -0.13869026 0.027967198
0003e0 ef 95 14 be f6 38 92 be 50 06 2b be 56 b6 03 3d
       -0.1451032 -0.28559083 -0.16701627 0.03215631
0003f0 ab 88 32 3c 84 84 2c be eb 8e d9 bd 18 90 dd bd
       0.010896842 -0.16847426 -0.106229626 -0.10818499
