202205180.pt (torch, 424079 bytes, 8 tensors)

encoder.0.weight f4 [64, 784]
0	0xbc6ddf61	-0.01451859
1	0x3cf0d2ac	0.029397331
2	0x3c9aec90	0.01891163
3	0x3c97ddbe	0.018538352
4	0x3c01054a	0.007874796
5	0x3d092248	0.03347996
6	0x3c805f3d	0.015670413
7	0x3dee8552	0.116465226
8	0x3e29ddd8	0.16588533
9	0x3d8657dc	0.065597266
10	0xbd8257da	-0.063644126
11	0xbe2f5ac9	-0.17124476
12	0xbdcdb00b	-0.10043343
13	0xbc4b9503	-0.012425664
14	0x3bbaaff1	0.0056972434
15	0xbcffa8eb	-0.031208476
16	0x3b062f4e	0.0020474973
17	0xbced4a5a	-0.028966118
18	0x3cdfa38c	0.027299665
19	0xbd84a9ab	-0.06477674
20	0xbbbcd4b2	-0.00576266
21	0x3df276d2	0.118390694
22	0x3d1b4e67	0.037916567
23	0xbcd976f4	-0.02654598
24	0xbcc10f23	-0.023566788
25	0xbbe05d4a	-0.0068470584
26	0xbaf7e401	-0.0018912555
27	0xbcc1b7ac	-0.023647152
28	0xbc8a6ce3	-0.016897624
29	0xbaf53c4a	-0.0018709984
30	0xbad30801	-0.0016100408
31	0x3ca41520	0.020029604
32	0xbd1e9812	-0.038719244
33	0xbc63a6fe	-0.0138947945
34	0x3d89f414	0.06736007
35	0x3d753d0b	0.05987267
36	0xbd924b35	-0.07143251
37	0xbd931003	-0.07180788
38	0xbcee24c7	-0.029070271
39	0xbbc804c2	-0.006104083
40	0x3bb42bd9	0.005498391
41	0xbd8b14e0	-0.06791091
42	0xbe278bb6	-0.16361889
43	0xbde95e24	-0.11394909
44	0xbdd355d1	-0.103191026
45	0xbdfe53d6	-0.12418334
46	0xbe10a0f2	-0.14123896
47	0xbe593137	-0.2121018
48	0xbe599b97	-0.21250759
49	0xbe883909	-0.26606014
50	0xbe56409c	-0.20923084
51	0xbde101ae	-0.109866485
52	0x3c46535e	0.012104837
53	0x3ceb315d	0.028710062
54	0xbaca4525	-0.0015431984
55	0xbce1f643	-0.027583247
56	0x3c83af25	0.016074726
57	0x3c6d1b25	0.014471804
58	0x3d0e00ed	0.03466885
59	0xbc4a6b52	-0.012354689
60	0xbdadaaea	-0.08479865
61	0x3dadae7e	0.08480547
62	0xbcb65fd3	-0.02226249
63	0xbe3e4d35	-0.1858414
64	0xbe292bdd	-0.16520639
65	0xbe26f10f	-0.16302894
66	0xbe1f2c3e	-0.15544221
67	0xbe23bf6d	-0.15990992
68	0xbe18fa86	-0.14939317
69	0xbe012d7d	-0.12615009
70	0xbc8b3518	-0.01699309
71	0xbd0d286e	-0.034462385
72	0xbde7d5a9	-0.11320049
73	0xbde7493c	-0.11293265
74	0xbd523e8d	-0.051329184
75	0xbbe69cd8	-0.00703774
76	0xbcdf8e32	-0.027289484
77	0x3d28669a	0.041113473
78	0xbdc914f6	-0.09818451
79	0xbd71c214	-0.059022978
80	0xbd9d3dea	-0.07677825
81	0xbc670066	-0.014099216
82	0xbb77bbca	-0.003780114
83	0xbc8be6c0	-0.017077804
84	0x3d0121d8	0.031526417
85	0xbced299c	-0.028950505
86	0xbcc4e28a	-0.024033803
87	0x3c323fef	0.010879501
88	0xbdb2fa09	-0.08739097
89	0xbdb7b5a4	-0.08970192
90	0xbe1a8cdf	-0.150928
91	0xbe0bc140	-0.13647938
92	0xbe318eb4	-0.17339593
93	0xbe136af6	-0.14396271
94	0xbdf77f31	-0.12084807
95	0xbdf30f1a	-0.11868115
96	0xbddab270	-0.106785655
97	0xbd99e446	-0.07514243
98	0xbd20f6ae	-0.039297752
99	0xbd1d3e27	-0.03838935
100	0xbd0f130d	-0.034930278
101	0xbc580306	-0.013184315
102	0x3d4502e7	0.04809847
103	0x3dba4e6a	0.090969875
104	0x3dce1393	0.10062327
105	0x3d64e1a0	0.055879235
106	0x3d6d2637	0.057897773
107	0xbd917bc6	-0.07103686
108	0xbdbdc99f	-0.09266972
109	0xbc1b670a	-0.009485016
110	0x3d548dc4	0.05189301
111	0xbd4ad97d	-0.04952382
112	0xbb86a9ee	-0.0041096127
113	0x3c92128c	0.01783111
114	0xbd62a96c	-0.055337355
115	0xbcc9b7cb	-0.024623772
116	0x3bed9ad5	0.0072511234
117	0xbdefa02c	-0.11700472
118	0xbe0c7b76	-0.13718972
119	0xbd426d14	-0.047467306
120	0xbde340fd	-0.1109638
121	0xbde4544e	-0.11148892
122	0xbdc8bc24	-0.0980151
123	0xbd1bd06a	-0.038040556
124	0x3c0b605b	0.00850686
125	0xbd80ef03	-0.06295588
126	0xbe303a64	-0.17209774
127	0xbe619d45	-0.2203265
128	0xbe4db254	-0.20087558
129	0xbe336c01	-0.17521669
130	0xbc4f00a5	-0.012634431
131	0x3cfe5ee2	0.031051103
132	0x3d7edeb0	0.06222409
133	0xbd443b0e	-0.04790788
134	0xbdd3bbfc	-0.103385895
135	0x3d8162cd	0.06317673
136	0x3da48598	0.080332935
137	0x3d0a6777	0.033790078
138	0xbe11acf6	-0.14226136
139	0x3c8fc932	0.017551992
140	0xbc606fea	-0.013698557
141	0x3cd837b0	0.026393741
142	0xbd33e8f8	-0.04392335
143	0xbe16bc0c	-0.14720172
144	0x3cc74990	0.02432707
145	0xbca65221	-0.020302834
146	0xbda4c589	-0.08045489
147	0xbdc442f6	-0.09583084
148	0xbd4ea73b	-0.050452452
149	0xbd8edb04	-0.06975368
150	0xbd70f831	-0.058830444
151	0x3c6bc5d2	0.014390426
152	0x3d717c65	0.058956522
153	0xbc187301	-0.009304763
154	0xbd30b6b7	-0.043143
155	0xbdfe9e2b	-0.12432512
156	0xbe0d6cca	-0.13811031
157	0xbdd12c32	-0.10213508
158	0xbdb04ac6	-0.08608012
159	0xbd3cf8c0	-0.046135664
160	0xbdbed81c	-0.09318563
161	0xbd1485e1	-0.03626049
162	0x3d1f3ba6	0.038875245
163	0x3cde4ccc	0.027136229
164	0xbd3521d8	-0.04422173
165	0xbcaff93e	-0.021481153
166	0x3d6d792a	0.05797688
167	0x3bb0ac9e	0.0053916713
168	0x3ce6d361	0.028176965
169	0x3ce02460	0.027361095
170	0x3cccd4d7	0.025003834
171	0xbca7893a	-0.020451177
172	0xbd25bf85	-0.04046585
173	0xbd93fc28	-0.07225829
174	0x3a94a864	0.0011341688
175	0xbdeb2e4d	-0.114834405
176	0xbd8adb19	-0.06780071
177	0x3d7ee0f3	0.062226247
178	0x3dd0c83b	0.10194441
179	0x3bc23914	0.0059272144
180	0x3c5d8145	0.01351959
181	0xbd28b30c	-0.041186377
182	0xbd9262c7	-0.071477465
183	0xbc4080a4	-0.01174942
184	0xbce311f0	-0.027718514
185	0xbc02e543	-0.007989231
186	0xbcb4d4c9	-0.02207412
187	0xbcba0922	-0.022709433
188	0xbca0d7dc	-0.01963418
189	0x3d2495ed	0.040182043
190	0xbdd13cbd	-0.10216663
191	0xbd29d2fb	-0.041460972
192	0x3cbda564	0.023150153
193	0x3d7be42a	0.06149689
194	0x3d77e1c6	0.06051805
195	0x3d5288eb	0.051400106
196	0x3c6da193	0.014503854
197	0xbe3534a1	-0.17695858
198	0xbdaa2964	-0.08308676
199	0xbd3b12ce	-0.04567223
200	0xbda7e5c1	-0.08198119
201	0xbc8dfc74	-0.017332293
202	0xbe34706b	-0.17621009
203	0xbca203a3	-0.019777125
204	0x3bf20602	0.00738597
205	0x3d944281	0.07239247
206	0x3d32a2ef	0.043612417
207	0xba0bdaff	-0.0005335062
208	0xbd240f0b	-0.04005341
209	0x3c714c87	0.014727718
210	0x3d623ac8	0.05523184
211	0x3e07ca87	0.13260852
212	0x3e1255cb	0.1429054
213	0x3e02929d	0.12751241
214	0x3dcdefaa	0.10055478
215	0x3d8e5e52	0.06951584
216	0x3d5ca5c1	0.053869013
217	0xbd45f57f	-0.048329826
218	0xbe015566	-0.12630233
219	0xbda05b41	-0.07829905
220	0x3de67b68	0.112540066
221	0x3d400e74	0.046888784
222	0xbdfb50fe	-0.122713074
223	0x3d01637c	0.031589016
224	0x3ca88713	0.02057222
225	0xbbdac9b8	-0.006676879
226	0x3d757603	0.059926998
227	0xbd0fc9d6	-0.035104595
228	0x3ce74b5b	0.028234174
229	0xbdabba85	-0.08385185
230	0x3d3a2850	0.0454486
231	0x3cf0b005	0.029380808
232	0x3c82a3b9	0.01594721
233	0xbc3c13b5	-0.011479308
234	0x3d32ed93	0.0436836
235	0xbc845395	-0.016153136
236	0xbcfe87c8	-0.031070605
237	0x3cffa763	0.031207746
238	0x3d8cfc1f	0.06884026
239	0x3dd3f526	0.10349493
240	0x3d85d5e6	0.065349385
241	0x3d86f1e8	0.06589109
242	0x3d18ab89	0.037272964
243	0xbdb5439c	-0.08850786
244	0xbe3a7fb5	-0.18212779
245	0xbdbd95cf	-0.09257089
246	0x3dba65fb	0.091014825
247	0xbbe7f22c	-0.0070784297
248	0xbe271639	-0.16317071
249	0xbd7a5a38	-0.061121196
250	0x3d8cc46a	0.068734005
251	0xbdaeceb3	-0.085355185
252	0x3d1ba929	0.03800312
253	0x38ec5780	0.00011269655
254	0xbdbbd3c2	-0.09171249
255	0x3ddd7e17	0.10815065

encoder.0.bias f4 [64]
0	0xbd885983	-0.06657698
1	0xbc326333	-0.010887909
2	0x3d2bc8b9	0.04193947
3	0x3a93cd13	0.0011276327
4	0xbd1f74bd	-0.03892969
5	0xbd4417d3	-0.047874283
6	0xbdb77ba9	-0.08959133
7	0x3cbc7995	0.023007194
8	0xbc7b572c	-0.015340608
9	0xbd5f1072	-0.054459043
10	0xbd9aad71	-0.075526126
11	0xbca100c4	-0.019653685
12	0x3e2abcbb	0.16673557
13	0xbc57f3cb	-0.013180683
14	0x3c6aa91e	0.014322547
15	0xbc97e04e	-0.018539574
16	0xbd2f3102	-0.042771347
17	0x3c5085b2	0.012727188
18	0xbc76cf0b	-0.015064011
19	0xbd55817d	-0.052125443
20	0x3dbae90d	0.09126482
21	0xbd747c0d	-0.059688617
22	0x3c054a59	0.008135402
23	0xbd7bfd83	-0.061521064
24	0xbc9a7514	-0.018854655
25	0x3d07713b	0.03306697
26	0x3c20cbb4	0.009814192
27	0x3cd18574	0.02557633
28	0xbbada498	-0.005299162
29	0x3e25e30f	0.16199897
30	0xbd2dc378	-0.04242274
31	0x3d17cfb9	0.037063334
32	0xbb70f43f	-0.0036766676
33	0x3cefab98	0.029256627
34	0x3de46937	0.11152881
35	0x3d8adb90	0.067801595
36	0x3e36e010	0.1785891
37	0xbd6ba085	-0.05752613
38	0xbb8da06c	-0.0043221023
39	0x3d0deb76	0.03464838
40	0xbbfac56a	-0.007652928
41	0x3c129dfe	0.008948801
42	0x3e3cb593	0.1842864
43	0xbcd28153	-0.025696432
44	0xbc044c3c	-0.008074816
45	0x3d8fa43f	0.07013749
46	0x3d16a860	0.03678167
47	0xbd682a77	-0.056681123
48	0x3ccfb63b	0.025355449
49	0x3d091e1e	0.033475988
50	0x3c899196	0.016793054
51	0xbcda7eaf	-0.026671736
52	0x3dc49025	0.09597806
53	0x3d7d7d34	0.06188698
54	0xbd09db78	-0.033656567
55	0x3d005f18	0.03134069
56	0x3d2c8727	0.04212108
57	0x3ce802a6	0.028321575
58	0x3da99df4	0.0828208
59	0xbb8977c5	-0.004195186
60	0xbc12c76b	-0.008958678
61	0x3d1edacd	0.038782883
62	0x3cdcf0f5	0.026970366
63	0xbd1bd851	-0.038048092

encoder.2.weight f4 [32, 64]
0	0xbe006b25	-0.12540872
1	0xbde398c7	-0.11113124
2	0xbd682435	-0.056675155
3	0xbe001ebc	-0.12511724
4	0xbe36c0fe	-0.17847058
5	0x3cb72eff	0.022361277
6	0xbda2c4ca	-0.07947691
7	0x3ca3614e	0.01994386
8	0x3abc9e5f	0.001439046
9	0xbe2df795	-0.16988976
10	0xbd45436c	-0.04816
11	0xbcd125a4	-0.025530644
12	0xbd138f63	-0.036025416
13	0xbe0e9b47	-0.13926421
14	0x3af9c3da	0.0019055561
15	0x3c221d79	0.009894722
16	0x3d846fa0	0.06466603
17	0x3d4fc410	0.05072409
18	0xbdbb8470	-0.0915612
19	0x3d84033f	0.06445932
20	0xbe1ba4dc	-0.15199608
21	0xbe20244f	-0.1563885
22	0xbcd8b0f1	-0.02645156
23	0xbda35f15	-0.0797712
24	0x3d083d6e	0.03326171
25	0xbe06e8b1	-0.13174702
26	0xbe0ecc1d	-0.1394505
27	0xbd9aac5f	-0.075524084
28	0xbddc870c	-0.10767946
29	0xbdc8b771	-0.09800614
30	0xbd58264e	-0.052770905
31	0xbdb0bfc8	-0.08630329
32	0xbc3c7b05	-0.0115039395
33	0xbe326622	-0.17421773
34	0xbe1f2023	-0.15539603
35	0xbdd1ab9f	-0.10237812
36	0xbd5f3f2a	-0.054503597
37	0xbe14742d	-0.14497443
38	0xbe27c66c	-0.16384286
39	0xbdf5b293	-0.11996951
40	0x3d456494	0.048191622
41	0xbd1c1e71	-0.03811497
42	0x3d61a4c4	0.055088773
43	0x3d3ff891	0.04686791
44	0xbc0d8839	-0.008638435
45	0x3d185334	0.037188724
46	0xbe21fcf3	-0.15819149
47	0xbdd8a733	-0.10578766
48	0xbe3b9a2d	-0.18320532
49	0x3d1dac7e	0.03849458
50	0xbd204b8f	-0.03913456
51	0xbd3cc827	-0.046089318
52	0xbe1fbbd7	-0.15598999
53	0xbda7d9e1	-0.08195854
54	0x3d113427	0.035450127
55	0xbe10bd39	-0.14134683
56	0xbb0d2311	-0.0021535794
57	0xbe28695c	-0.16446441
58	0x3cb1fdf5	0.021727541
59	0xbcb5747b	-0.022150269
60	0xbd715e7b	-0.058927994
61	0x3cac3eb6	0.021025997
62	0xbd3e63c2	-0.046481855
63	0xbe380eb4	-0.17974359
64	0x3d51829d	0.051149953
65	0xbb4e693a	-0.0031495825
66	0xbdbbbe33	-0.09167137
67	0xbd4c6d23	-0.04990877
68	0x3cf69dd2	0.030104551
69	0xbc0a13dd	-0.008427587
70	0x3d30c9c9	0.043161187
71	0xbce1459f	-0.027499018
72	0x3d1fd9ca	0.03902606
73	0xbdbfaa99	-0.09358711
74	0x3d54a4ab	0.051914852
75	0xbdc91d66	-0.098200604
76	0xbcb66cad	-0.022268618
77	0xbe327c67	-0.17430268
78	0xbe05d853	-0.13070802
79	0x3be08a70	0.0068524405
80	0xbd30e739	-0.04318926
81	0xbd3770e3	-0.04478539
82	0xbd96c6ae	-0.07362114
83	0xbda77a4a	-0.08177622
84	0xbdbe8462	-0.09302594
85	0xbe1f9c06	-0.15586862
86	0x3d7d5b60	0.06185472
87	0xbc58d650	-0.01323469
88	0xbe2763c9	-0.16346659
89	0xbde163e5	-0.110053815
90	0xbe09f6a5	-0.13472994
91	0xbdbef59c	-0.0932419
92	0x3d36aff4	0.044601396
93	0xbdbbf2f5	-0.091772
94	0xbe2334b1	-0.15938069
95	0xbd352b79	-0.044230912
96	0x3b49e9e9	0.0030809587
97	0xbdb5a862	-0.08870007
98	0xbc364527	-0.011124886
99	0xbdaed2d6	-0.085363075
100	0xbdfe69c1	-0.12422515
101	0xbe258fd3	-0.16168146
102	0xbe2e6b62	-0.17033151
103	0x3b37322f	0.0027953496
104	0xbe02256b	-0.12709586
105	0x3b78b802	0.0037951474
106	0x3d0535d0	0.032522023
107	0xbd3c48fb	-0.045968037
108	0xbd9aa699	-0.07551307
109	0xbe2a7885	-0.16647537
110	0xbda8730e	-0.0822507
111	0xbe3a1c42	-0.18174842
112	0x3d0ccdaa	0.034375824
113	0xbe291182	-0.16510585
114	0xbd971a70	-0.073780894
115	0xbd6372f4	-0.05552955
116	0xbe2a2762	-0.16616586
117	0xbc8ad4c0	-0.01694715
118	0xbe3935f3	-0.18086986
119	0xbe049843	-0.12948708
120	0xbdb6956e	-0.0891522
121	0x3c9d88df	0.019230304
122	0x3bf721db	0.0075418777
123	0xbe010c04	-0.1260224
124	0xbe2f8496	-0.17140421
125	0xbdccd03f	-0.10000657
126	0xbe0f293e	-0.13980576
127	0x3cadbd4d	0.02120843
128	0xbde6ad65	-0.11263541
129	0x3e18a6c3	0.14907365
130	0xbdc36728	-0.0954116
131	0xbd69b8d8	-0.057061046
132	0xbd4b6ec4	-0.04966618
133	0x3d834d63	0.06411245
134	0x3e2287d8	0.15872133
135	0x3d84167e	0.064496025
136	0x3c778e7a	0.015109653
137	0xbc6e8c6a	-0.0145598445
138	0x3d650440	0.055912256
139	0xbe219776	-0.15780434
140	0x3d54d999	0.05196533
141	0x3de9f733	0.11424103
142	0x3da1ff03	0.07909968
143	0x3e1596f8	0.14608371
144	0x3d2a9856	0.041649185
145	0xbde68f23	-0.1125777
146	0x3dace57b	0.084422074
147	0x3e4e8802	0.2016907
148	0xbc4b4de6	-0.012408709
149	0xbdc8c053	-0.09802308
150	0xbd5c6885	-0.053810615
151	0xbdd1bbb4	-0.1024088
152	0x3db6c3dc	0.08924076
153	0x3cadc49f	0.02121192
154	0xbd57cd7d	-0.052686203
155	0xbd9a5917	-0.07536524
156	0x3cfa7d41	0.030577304
157	0xbdf97784	-0.12180999
158	0x3db9c890	0.090714574
159	0x3d811405	0.063026465
160	0x3d7bfa14	0.06151779
161	0x3e025946	0.12729368
162	0xbcc3cc8f	-0.023901252
163	0x3d33f978	0.043939084
164	0x3de08140	0.109621525
165	0x3df9e86b	0.12202533
166	0x3e019dd7	0.12657867
167	0x3c6abafd	0.014326808
168	0xbe1de680	-0.1541996
169	0x3d70723a	0.058702685
170	0xbdeb5fd7	-0.114928894
171	0x3daab73b	0.0833573
172	0xbdb99d21	-0.09063173
173	0x3db47e57	0.0881316
174	0x3e25c89a	0.16189805
175	0x3bdb05da	0.006684047
176	0x3e0f49df	0.13993023
177	0xbdd8a454	-0.10578218
178	0x3caa7c79	0.020811306
179	0xbca88d9b	-0.020575335
180	0x3be4f0a0	0.0069866925
181	0xbddb0ad8	-0.10695428
182	0x3e1d858b	0.15382974
183	0xbdeb256b	-0.11481746
184	0x3dac690a	0.08418472
185	0xbda9e913	-0.082964085
186	0x3dc89afd	0.09795187
187	0xbd1d5236	-0.03840848
188	0x3e26336c	0.16230553
189	0x3d9dbc03	0.07701876
190	0xbcdcd8e1	-0.026958885
191	0x3d0d42bf	0.034487482
192	0xbd996b55	-0.07491175
193	0xbe924e36	-0.28575295
194	0x3cd92205	0.02650548
195	0x3dfc300e	0.12313853
196	0xbe44bb78	-0.19212139
197	0x3d136f90	0.035995066
198	0xbdd6301b	-0.10458394
199	0xbe47530e	-0.19465277
200	0x3e4fb89b	0.20285265
201	0xbeb9f052	-0.36316162
202	0xbc19a58e	-0.00937785
203	0x3e3a9b0d	0.1822321
204	0xbe1bc5ad	-0.15212126
205	0xbe620fd4	-0.2207635
206	0x3d934330	0.071905494
207	0xbde81938	-0.11332935
208	0xbac1b277	-0.0014777918
209	0xbd9b5965	-0.0758541
210	0xbce9cc1a	-0.028539706
211	0xbe285356	-0.1643804
212	0xbd903550	-0.070414186
213	0xbd45225a	-0.048128463
214	0xbd204f87	-0.039138343
215	0xbe9aea57	-0.30256912
216	0xbe948aa8	-0.29012036
217	0x3d3cb0c9	0.046067033
218	0xbd709bf0	-0.058742464
219	0xbc84f86b	-0.016231736
220	0x3d5c8d67	0.05384579
221	0xbe8f802f	-0.28027484
222	0xbd9e94ac	-0.07743201
223	0x3da3a8bd	0.07991169
224	0xbe026681	-0.12734415
225	0x3e27fbb7	0.16404615
226	0xbe6cf8b5	-0.23141749
227	0xbdbbde58	-0.09173268
228	0xbde64519	-0.11243648
229	0xbe5a14ee	-0.21297047
230	0xbde90670	-0.11378181
231	0x3dde351b	0.10849973
232	0xbce71772	-0.028209422
233	0x3dd5f711	0.10447515
234	0xbdef6e6a	-0.11690982
235	0x3abb7f28	0.0014304863
236	0xbe9228cb	-0.28546748
237	0x3de68bb7	0.11257117
238	0x3e0ca81f	0.13736008
239	0x3cc29e65	0.023757169
240	0x3de94951	0.11390937
241	0xbbf4d109	-0.007471208
242	0xbd8bfa49	-0.068348475
243	0xbd034e38	-0.032057017
244	0x3cd86f46	0.026420247
245	0x3e0702a2	0.13184598
246	0xbd09143a	-0.033466555
247	0xbe2c674f	-0.16836284
248	0x3e0f0d6e	0.13969967
249	0x3ce90850	0.028446347
250	0x3d18d471	0.037311975
251	0xbd5cb34e	-0.053881936
252	0xbd160e8d	-0.03663497
253	0x3cdae1c4	0.026718982
254	0xbe8195f0	-0.25309706
255	0x3c846485	0.016161213

encoder.2.bias f4 [32]
0	0xbd93afeb	-0.07211288
1	0x39cdde9e	0.0003926651
2	0x3d6939e1	0.056939963
3	0xbc35d549	-0.011098214
4	0x3e0d8ccc	0.13823241
5	0x3cce224a	0.025162835
6	0xbd8ae717	-0.06782358
7	0xbe159153	-0.14606218
8	0xbda75c6b	-0.08171924
9	0xbe0c3f3f	-0.13696001
10	0xbd0f86ed	-0.035040785
11	0x3db5cca5	0.088769235
12	0xbd85d625	-0.065349855
13	0x3d0fa8cc	0.035073087
14	0x3c36d5da	0.011159385
15	0x3bf2483d	0.0073938654
16	0xbe2156c4	-0.15755755
17	0x3d3ab15e	0.045579307
18	0x3c3e156c	0.011601787
19	0x3e26def6	0.1629599
20	0x3a4583ff	0.00075346226
21	0xbdcc623d	-0.09979675
22	0x3d8ce314	0.06879249
23	0xbd5e51c5	-0.0542772
24	0x3e1708a8	0.14749396
25	0xbe6ab137	-0.22919165
26	0x3de2a738	0.11067051
27	0xbcfc8782	-0.030826334
28	0x3d254f89	0.040359054
29	0x3d8a5e23	0.067562364
30	0x3cc38f63	0.023872083
31	0x3da2ea62	0.07954861

decoder.0.weight f4 [64, 32]
0	0xbd5ebe4e	-0.054380707
1	0xbd062614	-0.032751158
2	0xbda560a0	-0.080750704
3	0x3b85c6f3	0.0040825545
4	0xbda32932	-0.07966842
5	0xbc1ce092	-0.009575026
6	0x3ddf1f0c	0.108945936
7	0x3d9d7fc8	0.07690388
8	0x3e205e6a	0.15661016
9	0xbe286088	-0.16443074
10	0x3e27ad1b	0.16374628
11	0xbe3125bd	-0.17299552
12	0xbdf2012c	-0.1181663
13	0xbe1a1dce	-0.15050432
14	0xbe2b9356	-0.16755423
15	0xbe321dc3	-0.17394166
16	0xbe1bfdb2	-0.15233496
17	0xbd974e61	-0.073879965
18	0x3d82cc5b	0.06386634
19	0xbd164422	-0.03668607
20	0x3d97c3d4	0.07410398
21	0xbde58e43	-0.11208775
22	0xbd7d9445	-0.06190898
23	0xbe1e4686	-0.1545659
24	0x3d5d98ca	0.05410079
25	0x3e22cbd8	0.15898073
26	0x3e2b6e65	0.16741331
27	0xbde86dbe	-0.11349057
28	0x3c15d00f	0.009143843
29	0xbe01c750	-0.12673688
30	0x3d8611ae	0.06546341
31	0xbdec0219	-0.115238376
32	0xbe1a1c17	-0.15049778
33	0xbdc54dd1	-0.09633983
34	0xbc8bab5f	-0.01704949
35	0x3d3ea281	0.046541695
36	0x3cdcef05	0.026969442
37	0x3dff8cfb	0.12478062
38	0xbdcbfcbd	-0.099603154
39	0x3df3d81d	0.11906455
40	0x3e188617	0.14894901
41	0xbdac10fd	-0.08401678
42	0xbe5cd44e	-0.21565363
43	0x3d484463	0.048893344
44	0x3e263a87	0.16233264
45	0xbe2581a1	-0.16162731
46	0x3d9f0504	0.077646285
47	0x3d3a7525	0.045521874
48	0xbdfa1810	-0.12211621
49	0x3df587ac	0.11988768
50	0xbcb350b0	-0.02188906
51	0x3eae22be	0.3401088
52	0xbddea54e	-0.10871373
53	0xbc3548ab	-0.011064689
54	0x3e3263cd	0.17420883
55	0xbd45a700	-0.048254967
56	0xbeb3f9cb	-0.35151514
57	0xbdafc01a	-0.08581562
58	0x3d63c394	0.05560644
59	0xbda05db1	-0.0783037
60	0x3b8dd29c	0.004328085
61	0xbe0cdc45	-0.13755901
62	0xbd01c65e	-0.03168332
63	0x3e4e6b88	0.20158207
64	0x3d5e83c1	0.05432487
65	0xbd8e5cb0	-0.069512725
66	0x3d03bb45	0.032161016
67	0x3e05956a	0.13045278
68	0xbd5bdeab	-0.05367915
69	0x3e06e7f0	0.13174415
70	0x3d26a9db	0.04068933
71	0x3dc38e56	0.09548633
72	0xbdb3f7d0	-0.08787501
73	0x3d1ab2af	0.037768062
74	0xbdd16252	-0.10223831
75	0x3b1ec022	0.0024223407
76	0x3ce270a4	0.027641602
77	0xbe2c7fe1	-0.16845657
78	0x3d4c8b79	0.0499377
79	0xbe4970b9	-0.19671907
80	0xbd849d36	-0.06475298
81	0x3d60a781	0.054847244
82	0x3d3288ea	0.043587603
83	0x3e2fcd3a	0.17168131
84	0xbe0c09de	-0.13675639
85	0x3dddd58e	0.10831748
86	0x3d828934	0.06373826
87	0x3dfa33d2	0.12216915
88	0xbcb9502d	-0.022621239
89	0x3e13d777	0.14437662
90	0x3e5627c0	0.20913601
91	0x3e280357	0.16407524
92	0xbd38d3c5	-0.045123834
93	0x3d671a64	0.056421652
94	0xbd40f4ab	-0.047108334
95	0x3cec83ee	0.028871503
96	0xbdbfb2df	-0.09360289
97	0x3d8b505a	0.06802435
98	0xbbb8a06a	-0.005634357
99	0xbe72cf4f	-0.23711894
100	0xbdef528a	-0.11685665
101	0xbe0af00e	-0.13568136
102	0xbe3b7311	-0.18305613
103	0x3df35c3d	0.118828274
104	0x3e2dad0b	0.16960542
105	0x3de654a5	0.112466134
106	0x3d4de5df	0.05026805
107	0xbde7537f	-0.112952225
108	0xbe222282	-0.15833476
109	0xbe21bb4a	-0.15794101
110	0xbdd7139a	-0.105017856
111	0x3d89b456	0.067238495
112	0x3ca96a92	0.0206807
113	0xbdc0701b	-0.093963824
114	0xbe22b655	-0.15889867
115	0x3cdf5470	0.027261943
116	0xbd513277	-0.051073518
117	0xbdb3245e	-0.08747171
118	0x3e3af8e7	0.18259011
119	0xbe6aafd6	-0.22918639
120	0x3d56ff64	0.052489653
121	0xbcc873c2	-0.02446926
122	0x3e37659a	0.17909852
123	0x3d63db27	0.05562892
124	0x3e2fb4ff	0.17158888
125	0xbe705306	-0.23469171
126	0xbde40706	-0.11134152
127	0xbd1d1b38	-0.038356036
128	0xbdb28b42	-0.087179676
129	0xbe7b4590	-0.24538255
130	0xbdbaacd7	-0.09114998
131	0xbdfc2172	-0.12311067
132	0xbe31c537	-0.17360388
133	0xbd6da6ba	-0.05802033
134	0xbe5baacf	-0.21451877
135	0x3dd890f4	0.105745226
136	0x3b8ad1fd	0.0042364583
137	0x3e048ca3	0.12944274
138	0xbd48c989	-0.049020324
139	0xbd5f8db9	-0.054578517
140	0xbe10b5c3	-0.14131837
141	0xbe4abcf1	-0.19798638
142	0x3d5aef7e	0.053451054
143	0xbe419ae2	-0.1890674
144	0x3d9612c0	0.07327795
145	0xbe2d37a3	-0.16915755
146	0xbe365c2f	-0.17808603
147	0xbde7de23	-0.11321666
148	0x3dbfc99b	0.09364625
149	0xbe1a0c43	-0.1504374
150	0xbdccf199	-0.100070186
151	0xbcf90f96	-0.03040294
152	0xbdd48062	-0.103760496
153	0xbda9a0df	-0.08282637
154	0x3dbfe2ed	0.093694545
155	0x3e48350f	0.1955149
156	0x3e566850	0.2093823
157	0xbe342400	-0.17591858
158	0xbd9d0c13	-0.076683186
159	0xbdb6414d	-0.08899174
160	0xbaa53901	-0.001260549
161	0xbdf655d3	-0.120280884
162	0xbb5d11a5	-0.003373244
163	0xbc99a410	-0.018754989
164	0xbdba4e9b	-0.09097024
165	0xbd4f4ae8	-0.050608546
166	0x3df965a2	0.12177588
167	0xbdbbebb6	-0.09175818
168	0x3dc84bc2	0.09780075
169	0x3d914dd1	0.070949204
170	0x3d821adc	0.06352779
171	0x3d831782	0.06400968
172	0x3d273ead	0.040831257
173	0xbdb657f1	-0.08903492
174	0xbe16011b	-0.14648859
175	0xbe116ed4	-0.14202434
176	0xbd0b683b	-0.03403495
177	0xbd020b51	-0.031749073
178	0x3d84fd34	0.06493607
179	0xbc978742	-0.018497113
180	0xbe2d9eb3	-0.1695507
181	0xbdd39c88	-0.1033259
182	0x3d0c01f6	0.034181558
183	0x3e0d0f54	0.13775378
184	0x3dc484e4	0.095956594
185	0x3df16c3a	0.11788221
186	0xbdf38a8b	-0.11891659
187	0xbda45425	-0.08023862
188	0x3e0cb851	0.13742186
189	0xbd2319b4	-0.039819434
190	0xbe262813	-0.16226225
191	0xbdffddd2	-0.12493481
192	0x3ccf5ffe	0.025314327
193	0xbe2ae340	-0.16688251
194	0x3dc8c236	0.09802668
195	0xbe142ad6	-0.14469466
196	0x3dbc9660	0.09208369
197	0xbe5a3fa1	-0.21313335
198	0x3d55cd1f	0.05219757
199	0xbe5fa44b	-0.21840017
200	0x3de1f787	0.1103354
201	0x3e45d203	0.19318394
202	0x3d065f79	0.032805894
203	0xbbf2c102	-0.007408262
204	0xbe668f76	-0.22515664
205	0xbd99192b	-0.074755035
206	0x3cf70cf0	0.030157536
207	0x3d8dc68a	0.06922634
208	0xbdcff42c	-0.10153994
209	0x3d42fabc	0.0476024
210	0xbdf683d6	-0.120368645
211	0x3d41478c	0.047187373
212	0xbe0a5904	-0.1351052
213	0xbd863730	-0.06553495
214	0x3dfc1f18	0.12310618
215	0x3de038c5	0.10948328
216	0x3db94da4	0.09048012
217	0x3e104bb7	0.14091383
218	0x3dedc4ba	0.11609788
219	0x3c85972e	0.01630744
220	0x3db84187	0.08996873
221	0xbdf73901	-0.120714195
222	0xbd829493	-0.063759945
223	0xbc37757e	-0.011197446
224	0xbe090989	-0.13382544
225	0xbe334fd3	-0.1751092
226	0x3d5936b4	0.053030685
227	0x3d8e4b56	0.06947963
228	0xbc9acebd	-0.018897409
229	0x3d9c0499	0.076180644
230	0x3d210694	0.039312914
231	0xbe4f1363	-0.20222239
232	0x3d096229	0.03354088
233	0x3c416e2b	0.011806051
234	0x3deeb8e3	0.11656358
235	0xbe2b16b0	-0.16707873
236	0xbdd7e4b7	-0.10541671
237	0xbddd18f5	-0.10795776
238	0x3d7a0637	0.061041083
239	0xbe4a37ed	-0.19747896
240	0x3e1d11e9	0.15338863
241	0x3daad0b2	0.08340587
242	0x3d915129	0.07095558
243	0x3ccbf223	0.024895733
244	0x3d66656a	0.05624906
245	0xbe3ebca8	-0.18626654
246	0xbdc64c3a	-0.09682508
247	0xbd27adc4	-0.0409372
248	0x3e025ee6	0.12731513
249	0x3d318e15	0.04334839
250	0xbd50022b	-0.050783318
251	0xbc857433	-0.01629076
252	0xbdce2f13	-0.100675724
253	0x3c8cfa01	0.017209055
254	0xbd6bf082	-0.057602413
255	0x3e0e4bf6	0.13896164

decoder.0.bias f4 [64]
0	0x3d477c4a	0.048702516
1	0xbd038e39	-0.032118056
2	0x3cecad07	0.0288911
3	0xbdec388d	-0.11534224
4	0x3cce753e	0.02520239
5	0x3cbef3a9	0.023309546
6	0x3d7aec38	0.061260432
7	0x3d156225	0.03647055
8	0x3da94f1c	0.08267042
9	0xbe03cb36	-0.12870488
10	0x3c18765f	0.009305566
11	0xbd8780e5	-0.066163816
12	0xbca52c7c	-0.020162813
13	0xbdef0e93	-0.11672702
14	0xbc19e16e	-0.0093921255
15	0xbe5d0515	-0.2158397
16	0xbe14fe58	-0.1455015
17	0x3da75862	0.081711546
18	0xbe4e96b7	-0.2017468
19	0xbda003bf	-0.078132145
20	0x3bfe8d87	0.007768336
21	0x38a32794	7.779818e-05
22	0x3ddda74f	0.10822927
23	0xbde9af54	-0.11410394
24	0xbe45d61c	-0.19319957
25	0xbe55e948	-0.20889771
26	0xbe29b0de	-0.16571376
27	0xbe4f6d96	-0.20256647
28	0xbe1fc522	-0.15602544
29	0x3e1adbfd	0.15122981
30	0xbde099f2	-0.10966863
31	0xbe114731	-0.14187314
32	0xbe30e877	-0.17276178
33	0x3d573d84	0.0525489
34	0xbd699f6c	-0.057036802
35	0x3de1d447	0.11026817
36	0x3d500f41	0.050795797
37	0xbe37c339	-0.17945565
38	0x3cc3ba83	0.023892647
39	0xbdc81757	-0.09770077
40	0xbe5e89a5	-0.21732195
41	0x3d28dc57	0.041225757
42	0x3c6164c4	0.013756935
43	0x3dbc707d	0.09201143
44	0x3de75b22	0.11296679
45	0xbe0c5b35	-0.13706668
46	0x3d687e20	0.056760907
47	0xbcf2edd9	-0.02965443
48	0xbe3ec45d	-0.18629594
49	0xbdeef74a	-0.116682604
50	0x3dc8ec32	0.09810676
51	0xbde30ad1	-0.110860474
52	0xbdaa0559	-0.08301801
53	0xbd60e26d	-0.054903436
54	0xbdbde418	-0.09272021
55	0x3d79d25d	0.060991634
56	0xbe14df02	-0.14538196
57	0x3de04404	0.10950473
58	0xbd98a42a	-0.07453187
59	0xbe50b787	-0.2038251
60	0x3e38b666	0.1803833
61	0x3d94db42	0.072683826
62	0x3df10e9e	0.11770366
63	0x3c9dd4e6	0.019266557

decoder.2.weight f4 [784, 64]
0	0x3df6bfe0	0.12048316
1	0xbd92d7de	-0.0717008
2	0x3ce40c08	0.027837768
3	0xbd7fffac	-0.062499687
4	0xbd9d605a	-0.07684393
5	0xbcf92a20	-0.030415595
6	0x3d40b170	0.047044218
7	0xbd8ca446	-0.0686727
8	0x3bb8be36	0.0056379093
9	0xbd807ea4	-0.06274155
10	0xbe1e76da	-0.15475026
11	0xbd991490	-0.07474625
12	0xbbdabab7	-0.00667509
13	0x3c852fc8	0.016258135
14	0x3d212df1	0.039350454
15	0xbdd9cd2a	-0.10634835
16	0xbab49a33	-0.0013778865
17	0xbdede4a6	-0.11615877
18	0xbd004ebb	-0.031325083
19	0xbddf52a1	-0.10904432
20	0xbd41c8a8	-0.0473105
21	0xbe0f236d	-0.13978358
22	0xbd98b269	-0.07455904
23	0xbdce2cf9	-0.100671716
24	0x3d608410	0.054813445
25	0xbc1bb390	-0.00950326
26	0xbe1ac122	-0.15112737
27	0x3d924336	0.07141726
28	0x3c02c870	0.007982358
29	0xbc9dd916	-0.019268554
30	0xbdab4408	-0.08362585
31	0xbd9ebfa4	-0.07751396
32	0x3c170900	0.009218454
33	0xbd214738	-0.03937456
34	0xbdd02cca	-0.10164793
35	0xbe09515d	-0.13409944
36	0xbe28f1c0	-0.1649847
37	0xbc31e84c	-0.010858607
38	0xbe19504e	-0.1497204
39	0xbe0ebfa0	-0.13940287
40	0xbdd58d46	-0.104273364
41	0xbdfb8cd0	-0.12282717
42	0xbd98d90a	-0.07463272
43	0x3da28898	0.079362094
44	0xbd307bf0	-0.043086946
45	0xbe21bf84	-0.15795714
46	0xbb974ae0	-0.00461708
47	0x3cd09998	0.025463864
48	0xbcb7af10	-0.022422343
49	0xbdc7e2a6	-0.09760027
50	0xbe4021ec	-0.1876294
51	0xbd590ca1	-0.05299056
52	0xbd555f6c	-0.052092955
53	0xbd23bca4	-0.039974824
54	0x3caa12a8	0.02076085
55	0x3ddeb5fc	0.108745545
56	0xbd19d024	-0.037552014
57	0xbc93e0bc	-0.018051498
58	0x3d0db95d	0.034600604
59	0xbda6d0e6	-0.08145313
60	0x3d9b8d6e	0.07595335
61	0xbd2a510e	-0.041581206
62	0xbe29f7cc	-0.16598433
63	0xbd9c0d76	-0.07619755
64	0x3d8e9ad4	0.06963125
65	0x3c621e1b	0.013801123
66	0xbda90978	-0.08253759
67	0x3da8f35c	0.08249542
68	0xbdfdfcc8	-0.1240173
69	0xbd73a3a4	-0.05948223
70	0xbd35378a	-0.04424242
71	0xbcab0849	-0.020877974
72	0xbe421a0b	-0.18955247
73	0x3c245517	0.010030053
74	0xbc9dc403	-0.019258505
75	0xbd30894f	-0.043099698
76	0xbd4418d4	-0.04787524
77	0xbe4efd2d	-0.20213766
78	0xbcdeff74	-0.027221419
79	0x39723c00	0.0002310127
80	0xbe44f5b0	-0.19234347
81	0x3cf6f4d0	0.030146033
82	0xbd08804d	-0.033325482
83	0xbe0e7f4e	-0.1391575
84	0xbd7c0b4c	-0.06153421
85	0xbdb941f8	-0.09045786
86	0xbd5322c1	-0.051546816
87	0xbcdeee9b	-0.027213385
88	0xbd8d359c	-0.06894991
89	0xbc20e440	-0.009820044
90	0x3d41d829	0.047325287
91	0xbd93aede	-0.07211088
92	0x3d13eb44	0.03611304
93	0xbcb50d66	-0.022101115
94	0x3cd788f8	0.026310429
95	0x3da23280	0.07919788
96	0x3c806bf6	0.01567648
97	0xbd7188a4	-0.0589682
98	0xbdf61052	-0.120148316
99	0xbc87b235	-0.016564468
100	0xbafe0a70	-0.0019381773
101	0xbd0506a0	-0.03247702
102	0xbda9e3a1	-0.0829537
103	0xbe0da0f1	-0.13830926
104	0xbd90f378	-0.07077688
105	0x3d28278d	0.041053344
106	0xbd83c6a6	-0.064343736
107	0x3d0fe1c2	0.03512741
108	0xbd1d6292	-0.038424082
109	0x3c382d99	0.01124134
110	0x3db0d94a	0.086351946
111	0xbd15a1bb	-0.03653119
112	0xbb37f240	-0.0028067976
113	0xbd1841e0	-0.0371722
114	0xbe1b5c00	-0.15171814
115	0xbd2fa643	-0.04288317
116	0x3bebe6e0	0.0071991533
117	0xbe118ae5	-0.1421314
118	0xbcb3c398	-0.021943852
119	0xbe31487c	-0.17312807
120	0xbe2fbe53	-0.17162447
121	0xbd50da5b	-0.05098949
122	0x3b4527f6	0.0030083633
123	0xbd0f3d0f	-0.03497034
124	0x3c47dd33	0.012198734
125	0xbd3dbf1a	-0.046324827
126	0xbd66443d	-0.05621742
127	0xbe098a63	-0.13431697
128	0x3de253e4	0.11051157
129	0xbe744cbd	-0.23857398
130	0xbdd9ce9c	-0.10635111
131	0x3de02314	0.109441906
132	0xbd77e510	-0.060521185
133	0xbd06c284	-0.03290035
134	0x3dac548c	0.084145635
135	0x3c32b16f	0.010906561
136	0xbe2a9152	-0.16656998
137	0xbdb7ebcd	-0.08980522
138	0x3d888508	0.06665999
139	0xbcab04e8	-0.020876363
140	0xbd3312bd	-0.043719042
141	0xbda045c2	-0.07825805
142	0xbc861395	-0.01636676
143	0x3c8e6ff8	0.017387375
144	0x3d07004c	0.032959267
145	0x3d237898	0.03990993
146	0x3b852060	0.0040626973
147	0xbd5d157c	-0.053975567
148	0xbdad0ecc	-0.08450088
149	0xbe2fc2a2	-0.1716409
150	0xbd82f85c	-0.06395027
151	0xbc3248a0	-0.010881573
152	0x3d84ea88	0.06490046
153	0xbccb1658	-0.024790928
154	0xbd83659a	-0.06415863
155	0xbc38b5a0	-0.0112737715
156	0xbd94c0ba	-0.07263322
157	0xbc74fe60	-0.014953226
158	0xbe0baee1	-0.1364093
159	0xbd844d38	-0.06460041
160	0x3da8a53c	0.08234641
161	0x3d56a3c8	0.052402288
162	0xbd337c14	-0.043819502
163	0xbe162440	-0.14662266
164	0xbe0126c5	-0.12612446
165	0xbc965a58	-0.018353626
166	0xbe4245c0	-0.1897192
167	0x3d9c350e	0.07627307
168	0x3d6f98e0	0.058495402
169	0xbddf935d	-0.10916779
170	0x3cf37100	0.029716969
171	0xbdc9b17e	-0.09848307
172	0xbce49f5c	-0.02790802
173	0x3d0c7e26	0.034299992
174	0x3db78b34	0.08962098
175	0xba960700	-0.0011446178
176	0x3d193cf2	0.037411638
177	0x3d987de4	0.07445887
178	0xbe0cad84	-0.13738066
179	0xbdded500	-0.1088047
180	0xbd4d8710	-0.050177634
181	0x3dafba34	0.08580437
182	0x3c978f30	0.018500894
183	0xbcd68528	-0.02618654
184	0x3d7f53e0	0.06233585
185	0xbe1a836e	-0.15089199
186	0xbdbcc5e8	-0.09217435
187	0x3de6658a	0.11249836
188	0xbd86c06c	-0.0657967
189	0xbe0a09a8	-0.13480246
190	0xbe35131f	-0.17683075
191	0xbd9878cc	-0.07444915
192	0xbcf491b8	-0.02985464
193	0xbb196580	-0.0023406446
194	0xbbfc0ac3	-0.0076917126
195	0x3def9708	0.11698729
196	0xbdf9ba1c	-0.12193701
197	0x3dbf651a	0.093454555
198	0x3d56ac94	0.052410677
199	0xbded5bee	-0.115898
200	0xbe3270e9	-0.17425884
201	0xbe440d42	-0.19145682
202	0xbd46c770	-0.048530042
203	0xbb5d37b5	-0.0033755128
204	0xbe0caca3	-0.1373773
205	0x3bcbbd20	0.006217614
206	0x3d17c3fa	0.037052132
207	0xbda8963a	-0.082317784
208	0xbdd70b09	-0.10500152
209	0xbdcfb502	-0.101419464
210	0xbe40eb6e	-0.1883981
211	0xbcd99776	-0.02656148
212	0x3d7f0efc	0.06227015
213	0x3d3b2690	0.045691073
214	0xbd48a240	-0.04898286
215	0x3d0bd5eb	0.034139555
216	0xbc27b940	-0.010237038
217	0xbd04cb28	-0.032420307
218	0xbe073c8c	-0.1320669
219	0x3dcb65ce	0.09931527
220	0x3db4af3a	0.08822484
221	0xbe26da2c	-0.16294163
222	0x3d4e6d14	0.050396994
223	0x3babe540	0.0052458346
224	0x3dfc1752	0.123091355
225	0xbdc37ce6	-0.09545307
226	0x3d97f9c8	0.07420689
227	0x3cc47bda	0.023984838
228	0xbdb729f5	-0.089435495
229	0x3d7541a0	0.059877038
230	0xbe46267b	-0.19350617
231	0xbdf75182	-0.12076093
232	0x3d4220d0	0.047394574
233	0xbdf964d5	-0.12177435
234	0x3de9d2bc	0.114171475
235	0xbdd40d40	-0.1035409
236	0xbbd64ba1	-0.0065397774
237	0xbd89cff6	-0.067291185
238	0xbdd9eb4a	-0.10640581
239	0xbd907973	-0.070544146
240	0x3d8ad97e	0.067797646
241	0xbcf26ae7	-0.02959199
242	0x3d3d7493	0.046253752
243	0x3cec1cf0	0.028822392
244	0x3df5bdc6	0.11999087
245	0xbbe99f38	-0.007129576
246	0xbda172c2	-0.078832164
247	0xbd09db0b	-0.03365616
248	0xbe0f17e5	-0.13973959
249	0xbd99fcfc	-0.07518956
250	0xbe2b43dd	-0.16725107
251	0xbdaeca84	-0.085347205
252	0xbde5d8fc	-0.11223027
253	0xbe0caf47	-0.13738738
254	0x3c4a64df	0.012353151
255	0xbd7ce29a	-0.06173954

decoder.2.bias f4 [784]
0	0x3c4241d8	0.011856519
1	0xbcb3d262	-0.021950904
2	0x3c51516f	0.012775763
3	0xbdbfd786	-0.0936728
4	0xbe1317a7	-0.14364491
5	0xbd2931e1	-0.041307334
6	0xbe1fb557	-0.1559652
7	0xbc8d660b	-0.017260572
8	0xbd9ccf98	-0.07656783
9	0xbe217a06	-0.15769204
10	0xbdaae7d4	-0.08344999
11	0xbe0f2261	-0.13977958
12	0xbde43470	-0.11142814
13	0xbd03a8d5	-0.032143433
14	0xbe3fdfea	-0.1873776
15	0xbe0abddc	-0.13548988
16	0xbe235d31	-0.15953518
17	0x3cde6f2e	0.027152624
18	0x3cb019dd	0.021496708
19	0xbce3f142	-0.027825002
20	0xbd0b75f1	-0.034048025
21	0xbe24cc5e	-0.16093585
22	0xbd1f47a6	-0.03888669
23	0xbe1d0a23	-0.15335898
24	0xbd814753	-0.06312432
25	0x3cf2da2e	0.029645052
26	0xbdb644ea	-0.08899863
27	0xbe37945a	-0.17927685
28	0xbe0baa6d	-0.13639231
29	0xbd6f3c6b	-0.05840723
30	0xbb4251a1	-0.0029650705
31	0xbe3523ed	-0.17689486
32	0xbd087e3c	-0.03332351
33	0xbd899321	-0.06717516
34	0xbb607ce9	-0.003425414
35	0xbd9c6008	-0.07635504
36	0xbe1a281f	-0.15054367
37	0xbd74cf81	-0.059768204
38	0xbe36fc20	-0.17869616
39	0x3bd544e9	0.006508459
40	0xbbfc0d0f	-0.0076919864
41	0x3b64f9dd	0.003493897
42	0x3ccaf494	0.024774827
43	0xbdbe01e9	-0.09277708
44	0xbbb19932	-0.0054198736
45	0xbdd38ae8	-0.10329229
46	0xbe206bbb	-0.15666096
47	0xbd854c22	-0.06508662
48	0xbe16bb0a	-0.14719787
49	0xbd4c915d	-0.049943317
50	0xbe32ddf8	-0.17467487
51	0xbc76a22e	-0.015053315
52	0xbde4a37b	-0.11163994
53	0xbd97bb5f	-0.07408785
54	0x3cc8853f	0.0244776
55	0x3cf91b9e	0.030408677
56	0xbdf87cec	-0.12133202
57	0xbda7de08	-0.08196646
58	0xbdcfbdd8	-0.10143632
59	0xbd603ef2	-0.05474753
60	0xbd171ad3	-0.036890816
61	0xbdc94ac2	-0.09828712
62	0xbda8873b	-0.08228918
63	0xbe6d0685	-0.23147018
64	0xbc8a83e2	-0.01690859
65	0xbdf56d0f	-0.11983692
66	0x3c9749b6	0.018467765
67	0xbdd82d40	-0.10555506
68	0xbe24b610	-0.16085076
69	0xb9174b63	-0.00014428566
70	0xbe34bfff	-0.17651366
71	0x3d73a8c4	0.05948712
72	0xbcf47836	-0.029842477
73	0xbdb1d4ed	-0.086831905
74	0xbd1005d1	-0.035161797
75	0xbdc56935	-0.09639207
76	0xbd66f552	-0.0563863
77	0xbce453ab	-0.027871927
78	0x3c3894bb	0.011265929
79	0xbdafeeaf	-0.08590447
80	0xbe09818b	-0.13428323
81	0xbdbfeb8b	-0.09371098
82	0xbc83b117	-0.016075654
83	0xbcba5e56	-0.022750061
84	0xbd9d625b	-0.076847754
85	0xbddf0d6a	-0.108912304
86	0xbd35ba42	-0.044367082
87	0xbdd6067d	-0.10450456
88	0xbc50db7e	-0.0127476435
89	0xbd337b36	-0.043818675
90	0xbdf9631e	-0.12177108
91	0xbdd41786	-0.10356049
92	0xbe0150e7	-0.12628518
93	0xbd2fc01f	-0.04290783
94	0xbdb86579	-0.090037294
95	0xbd9b84c1	-0.0759368
96	0x3d173bbc	0.0369222
97	0xbe2ab956	-0.16672263
98	0xbe04b777	-0.12960611
99	0x3d73c69c	0.05951558
100	0xbd810668	-0.0630005
101	0xbd43aa0c	-0.04776959
102	0xbcb0509a	-0.021522809
103	0xbe10293d	-0.14078231
104	0xbe19de81	-0.15026285
105	0xbe22e56e	-0.15907833
106	0xbe2d7a1f	-0.16941117
107	0xbd880e8d	-0.066434
108	0x3d48bb47	0.049006727
109	0xbddad9c3	-0.10686066
110	0xbd83f5ca	-0.06443365
111	0xbda428e2	-0.0801561
112	0xbe1bad45	-0.15202816
113	0xbd2cb602	-0.042165764
114	0xbc6f1471	-0.014592276
115	0xbe0fa279	-0.14026822
116	0xbd0e294b	-0.03470735
117	0x3d621f78	0.055205792
118	0xbda59252	-0.08084549
119	0xbd50726e	-0.05089038
120	0xbda1325b	-0.07870933
121	0xbe242968	-0.1603142
122	0xbe0433a6	-0.12910327
123	0xbe09c122	-0.1345258
124	0xbddef1a9	-0.10885937
125	0x3e0d1a89	0.13779654
126	0x3e0b1ff1	0.13586403
127	0x3d980376	0.07422535
128	0x3dedc92a	0.116106346
129	0x3d26d0cd	0.04072647
130	0x3cae8a58	0.021306202
131	0xbbf22da6	-0.0073906956
132	0xbd4cbef2	-0.049986787
133	0xbe28ffbe	-0.16503808
134	0xbd8f944b	-0.070107065
135	0xbde4ceea	-0.11172278
136	0x3a2107ef	0.0006142845
137	0xbe3666bd	-0.17812629
138	0xbdc28fc8	-0.0950008
139	0xbdb3256f	-0.08747374
140	0xbe005ccb	-0.12535398
141	0xbdfe74dd	-0.12424634
142	0xbbd0d55e	-0.0063730916
143	0xbde61092	-0.11233629
144	0xbdcfd697	-0.10148352
145	0xbe35d787	-0.17757998
146	0x3c607019	0.013698601
147	0xbd9e61ad	-0.07733474
148	0x3d5ffaa8	0.054682404
149	0x3e05607e	0.1302509
150	0x3d8f5a2d	0.069996215
151	0x3dfd5ddc	0.12371418
152	0x3e3338b4	0.175021
153	0x3deb5b0a	0.11491974
154	0x3e087d37	0.13329016
155	0xbe3b7d95	-0.18309624
156	0xbd8fd378	-0.07022756
157	0x3d860b7b	0.065451585
158	0xbe2957c5	-0.16537388
159	0xbd3a3aca	-0.045466222
160	0x3d9b62d9	0.07587213
161	0x3d64992b	0.055810135
162	0xbce9faad	-0.028561914
163	0xbcefb2d0	-0.02926007
164	0xbccfb6e3	-0.025355762
165	0xbd1fe03f	-0.039032217
166	0xbe3d2bbb	-0.18473713
167	0xbddaac77	-0.10677426
168	0x3d26f54f	0.04076129
169	0xbdb49cac	-0.08818945
170	0xbdade123	-0.08490207
171	0xbdb72cab	-0.089440666
172	0xbdd09bec	-0.1018599
173	0xbd89d2d5	-0.06729666
174	0xbe12589c	-0.14291614
175	0xbb88bae0	-0.004172668
176	0xbc4903a6	-0.012268936
177	0x3cf7901e	0.030220088
178	0x3dcbfd3c	0.0996041
179	0x3d3b62d5	0.04574855
180	0x3d5a0165	0.053223986
181	0x3db3ed80	0.08785534
182	0x3d3c0033	0.045898627
183	0x3e08974f	0.1333897
184	0x3dc3ff7c	0.09570214
185	0x3dd1c68f	0.1024295
186	0x3c8c31e0	0.017113626
187	0x3c5cf90e	0.013487114
188	0xbd698d0f	-0.05701929
189	0x3d1b5173	0.037919473
190	0xba982ab3	-0.0011609405
191	0xbdafbbfc	-0.08580777
192	0xbc963cc3	-0.01833952
193	0xbe19368e	-0.14962217
194	0xbdb9bed4	-0.09069601
195	0xbe0da737	-0.13833319
196	0xbe001b1a	-0.12510338
197	0xbbc7ea27	-0.006100911
198	0x3981fc62	0.00024792837
199	0xbe04eb3d	-0.12980361
200	0xbe1a45cc	-0.15065688
201	0xbdd450ed	-0.10366998
202	0x3a2356f7	0.00062309153
203	0xbbfd96ea	-0.0077389376
204	0x3bb81712	0.0056179846
205	0x3cf8c119	0.030365514
206	0xbd9459b6	-0.072436735
207	0xbd2df5ec	-0.042470858
208	0x3dd6424b	0.10461863
209	0xbd501298	-0.050798982
210	0x3d541065	0.051773448
211	0x3c623e46	0.013808792
212	0xbd9c2d86	-0.076258704
213	0x3d9b3554	0.07578531
214	0xbceb6c75	-0.02873824
215	0xbda48b0c	-0.080343336
216	0xbd5c807e	-0.053833477
217	0xbdacdb42	-0.084402576
218	0x3b4eaadb	0.0031534943
219	0xbd8053f2	-0.06266011
220	0xbe12a0a8	-0.14319098
221	0xbb4ca413	-0.0031225726
222	0xbe109866	-0.14120635
223	0xbe1652c1	-0.14680006
224	0xbdd313e8	-0.10306531
225	0x3ce910dd	0.028450424
226	0xbdde9d18	-0.10869807
227	0xbd6691ab	-0.056291264
228	0xbc4654a8	-0.012105145
229	0xbdc51c3b	-0.09624525
230	0xbb0cb4fc	-0.002147018
231	0xbc89ca3b	-0.016820064
232	0x3d58a872	0.052895017
233	0xbc1cb720	-0.009565145
234	0x3cc93a64	0.024563976
235	0xbd6986e3	-0.057013404
236	0x3d678601	0.05652428
237	0xbcf7a051	-0.030227812
238	0xb88e168c	-6.775287e-05
239	0x3d5ebf39	0.054381583
240	0x3c7d44ef	0.01545833
241	0x3d0e621c	0.034761533
242	0x3cc4e77c	0.024036162
243	0xbda16564	-0.07880667
244	0xbd15e7f8	-0.036598176
245	0xbd85445e	-0.06507181
246	0xbe0e042f	-0.13868783
247	0xbca252ff	-0.019814966
248	0xbe1495cd	-0.1451027
249	0xbdbeca27	-0.09315901
250	0xbe2724cd	-0.16322632
251	0x3d03b724	0.03215708
252	0x3c329682	0.010900142
253	0xbe2c845a	-0.16847363
254	0xbdd98eb1	-0.10622919
255	0xbcb5a145	-0.022171626
