20220518120.pt (torch, 424079 bytes, 8 tensors)

encoder.0.weight f4 [64, 784]
000000 61 df 6d bc ac d2 f0 3c 90 ec 9a 3c be dd 97 3c
       -0.01451859 0.029397331 0.01891163 0.018538352
000010 b4 a8 3d 3c 98 73 0c bd fe d9 37 bf 15 37 ae bf
       0.0115758665 -0.034289926 -0.71817005 -1.361056
000020 99 b2 84 bf 02 7a 8f bf 41 99 20 3d c9 4f 44 3e
       -1.0367004 -1.1209109 0.039208654 0.1917106
000030 67 d4 32 bf 75 8c 1f be cc 94 ae bf 21 18 ca bf
       -0.6985535 -0.15580924 -1.3639159 -1.5788614
000040 bc 2f fe be 98 6c 34 bf 00 c5 6d bf d3 13 3d bf
       -0.49645793 -0.704782 -0.92878723 -0.73858374
000050 d4 36 89 bf e0 7c de bf 5d 78 a6 bf fb 97 e7 bc
       -1.0719857 -1.7381859 -1.3005482 -0.028270712
000060 23 0f c1 bc 4a 5d e0 bb 01 e4 f7 ba ac b7 c1 bc
       -0.023566788 -0.0068470584 -0.0018912555 -0.023647152
000070 e3 6c 8a bc 4a 3c f5 ba 9e 39 8f 3f f3 a7 01 3e
       -0.016897624 -0.0018709984 1.1189458 0.12661724
000080 3f 98 af 3d 42 85 2c 3e 2e 8c e6 bf b9 de d7 bf
       0.085739605 0.16847709 -1.801153 -1.6864845
000090 3b c2 20 c0 0c b5 70 bf db 86 22 bd 60 d8 22 3f
       -2.511855 -0.94026256 -0.03967939 0.6361141
0000a0 b3 7e 50 3e 83 72 d2 bf 9e e6 16 bf de 60 86 bd
       0.20360832 -1.6441196 -0.58945644 -0.06561445
0000b0 ff 0a 75 bf 53 d5 88 bf d7 d8 cf bf b4 cc 4d bf
       -0.95719904 -1.0690101 -1.6238049 -0.8039048
0000c0 7a 34 0b bf 11 3f d3 bf 1f f5 07 bf 2c 50 33 c0
       -0.5437695 -1.6503621 -0.531084 -2.8017683
0000d0 49 50 e1 be 6d 1e 2a 3e 25 45 ca ba 43 f6 e1 bc
       -0.44006565 0.16613169 -0.0015431984 -0.027583247
0000e0 25 af 83 3c 25 1b 6d 3c 91 f7 42 3e 0f 34 82 be
       0.016074726 0.014471804 0.19039752 -0.25430343
0000f0 29 15 bb 3e 63 80 40 c0 4e df d2 bf 6a 49 b2 be
       0.3653958 -3.007836 -1.6474397 -0.34821635
000100 ad 6f a9 bf db fc cf be 88 e9 2a be 4f 73 98 be
       -1.3237206 -0.406226 -0.16690648 -0.29775473
000110 70 1c ee 3e 52 84 f5 be c5 98 ee be 54 57 ef bd
       0.4650607 -0.47952515 -0.4660093 -0.116865784
000120 16 eb 1f be 38 4c 30 bf 90 3c 06 bf b3 e5 5a bb
       -0.15617022 -0.688663 -0.5243616 -0.0033401072
000130 c7 41 7e bf b6 60 b5 be 97 90 1d bf cb 6c 40 3f
       -0.9931912 -0.35425347 -0.6154875 0.75166005
000140 03 12 ac be 20 b3 95 3d 81 19 cf 3e c0 e6 8b bc
       -0.33607492 0.07309556 0.40449145 -0.017077804
000150 d8 21 01 3d 14 61 ad be 0d eb a3 3e 33 41 01 bf
       0.031526417 -0.33863127 0.32015267 -0.5049011
000160 a9 45 d2 bf db 4d c0 bc 50 6c e1 be 59 83 0c be
       -1.6427509 -0.023474624 -0.44027948 -0.1372198
000170 2d 89 45 3d 8c 89 00 3c 79 9e 11 be 98 27 23 3e
       0.048226524 0.007845294 -0.14220609 0.15933073
000180 d2 72 20 be a4 6a 2b 3e 4d bf b5 bc 6c 2e e3 3d
       -0.156688 0.16739899 -0.022185946 0.11092839
000190 da 4c a7 3e 27 0e 46 be e1 9d b4 bd 28 ff 18 3e
       0.3267582 -0.19341336 -0.088191755 0.14941084
0001a0 8f 92 30 bc 18 d4 a9 3c e1 39 09 3e db ef 1d bf
       -0.01077713 0.020731017 0.13400985 -0.61694115
0001b0 39 03 02 bf ff 94 95 3f d9 b8 4f 3b 47 cc 07 3f
       -0.5078617 1.1686095 0.003169587 0.5304608
0001c0 ee a9 86 bb 14 69 09 3f 4d d3 93 bf a3 82 b2 3e
       -0.0041096127 0.5367596 -1.1548859 0.34865293
0001d0 70 c2 9f be a1 64 04 3f 1e 88 ad be 2b c1 ce bd
       -0.31203032 0.5171605 -0.33892912 -0.100954376
0001e0 3f c8 85 be 53 cd ba 3e 06 df cd bc 7d cc 04 3e
       -0.26129338 0.36484775 -0.02513076 0.12968631
0001f0 20 80 0d 3d 2c bd fe bc cc 70 ea 3d b3 c4 f1 3d
       0.034546018 -0.031096064 0.114472955 0.118050955
000200 d6 6f 41 3e c4 fe a4 3d 0e fa a2 bc 90 73 6e 3d
       0.18890318 0.08056405 -0.019894626 0.058215678
000210 c1 45 1a be 47 86 9b 3e 46 ae 4e be 3c ea a4 bd
       -0.15065672 0.30375883 -0.20183668 -0.08052489
000220 eb 83 ec 3e fc 89 0f c0 3b ea 86 be f7 0e fd bd
       0.46194395 -2.242797 -0.2635058 -0.1235637
000230 ea 6f 60 bc cc 67 be bd 81 b6 d4 be 46 1e 17 3d
       -0.013698557 -0.092971414 -0.4154549 0.036894105
000240 4a 00 80 be 44 43 9b be 87 2b 28 3e 84 a2 77 be
       -0.2500022 -0.30324757 0.16422854 -0.24183089
000250 51 a9 49 bd 27 aa ab bc a6 7b 4a bd b0 f7 4b 3c
       -0.04923374 -0.020955158 -0.049434327 0.01244919
000260 f9 d7 ab 3d 72 e0 75 bd 62 b5 18 3c eb 66 fa 3c
       0.08390803 -0.0600285 0.009320589 0.030566653
000270 5e d9 cf 3d 78 22 e6 3d be 14 3a 3e 2d 2b e7 3c
       0.101488814 0.11237043 0.18171975 0.02821883
000280 dd 7c 38 bc 2c 05 09 be 33 fe b2 3c 2d 5e 2d bd
       -0.0112602385 -0.13380879 0.021849727 -0.04232614
000290 8a 1b 25 3e fc c9 6f bf 40 b0 b7 be 59 24 0d 3f
       0.16123787 -0.9366758 -0.35876656 0.5513359
0002a0 d4 05 43 be 79 10 31 c0 cc d4 8a 3f e4 5e c9 be
       -0.19045192 -2.7666304 1.084619 -0.39330208
0002b0 f8 a9 54 3e ae f1 4d be 76 59 0a 3e d6 39 90 3a
       0.20767963 -0.20111725 0.13510689 0.0011003565
0002c0 42 81 2e 3e d1 47 86 bd e3 c2 5b 3b 7d a4 ab bc
       0.17041495 -0.06556667 0.003353291 -0.020952458
0002d0 ed 28 97 bd cc 1a 0a bd 09 00 1c be b5 3d 07 3b
       -0.07380853 -0.03371696 -0.15234388 0.0020636145
0002e0 75 cd d5 3d 88 fa 5b 3c 7a 46 97 3d a7 8d 97 3e
       0.104395784 0.0134264305 0.07386489 0.2960026
0002f0 d3 5d 9c bc 45 3f eb 3c af 29 2f be db 9c 03 3d
       -0.019087708 0.028716693 -0.17105745 0.03213201
000300 55 f9 65 3d 5c 7e 05 bf 75 28 9f 3e 4f cb 2f bf
       0.056145985 -0.52145934 0.31085554 -0.686696
000310 99 01 03 3f 2d 96 e0 3f 4e 92 de be cd 01 eb 3e
       0.5117431 1.754583 -0.43470997 0.4589981
000320 7a eb de bc 9d 39 3b bb 2e eb bf bd f9 e6 37 3e
       -0.027211893 -0.0028568276 -0.09371029 0.17959203
000330 20 1c 25 be 46 6a 63 bd 15 46 35 3d 2a 69 82 3c
       -0.1612401 -0.055521272 0.04425629 0.015919287
000340 d4 30 e5 bd 10 90 49 bd 59 51 72 3c b5 17 4a 3d
       -0.11190954 -0.049209654 0.014789903 0.049339015
000350 c4 37 7a bd a7 f5 50 3e 24 7c 33 bd 3e f2 7e bd
       -0.06108834 0.20406209 -0.04381956 -0.06224274
000360 07 8e 46 be 39 df 8b bd 65 9d 63 be f1 6b 57 be
       -0.19390117 -0.06829686 -0.2222801 -0.2103727
000370 3d fd d3 3c ec 0c 04 bf b7 cd 80 be 6d 06 d6 3f
       0.02587759 -0.5158222 -0.25156948 1.6720711
000380 48 16 de 3c 56 c0 95 be 67 f7 b2 be da 9b 0d be
       0.027110234 -0.29248303 -0.34954378 -0.13828984
000390 1c c1 3d 3e 05 21 16 3d 2c 71 05 be d0 e8 20 bd
       0.18530697 0.036652584 -0.13031453 -0.039284527
0003a0 47 7a cf 3c 11 f2 94 3b 75 49 67 bd ba 86 b2 3c
       0.025326861 0.004545458 -0.05646654 0.021792758
0003b0 c7 2c 01 3e 1d 1b 81 bd 53 6a 58 3d e8 2a 6f 3d
       0.12614737 -0.063039996 0.052835774 0.058390528
0003c0 79 63 0b 3e e6 19 54 bd db e1 a2 3d 1e 83 bd 3d
       0.13612165 -0.05178251 0.07953235 0.09253524
0003d0 6f c3 bb 3d a6 ed a1 bd 49 9f a4 3c bf 3b af be
       0.091681354 -0.07906656 0.020095484 -0.3422527
0003e0 5f 4a 8d 3d 3f 82 6c bf ac fb 97 bf d6 64 26 40
       0.06898951 -0.9238624 -1.1873679 2.5999045
0003f0 4c b1 9e 3d b9 82 dc 3e 70 43 8a 3e f0 21 02 3e
       0.077486604 0.43068483 0.27004576 0.12708259

encoder.0.bias f4 [64]
000000 23 2e 06 40 d9 33 c4 be 82 5c fa be 13 e3 d8 3f
       2.096566 -0.38320807 -0.48898703 1.6944298
000010 d7 6d 17 40 fe f3 2c c0 f3 76 0a 40 2e 3c 73 3f
       2.366079 -2.702392 2.16351 0.950137
000020 a0 e5 95 3f 45 45 29 3f 09 01 01 40 fb a3 f5 3f
       1.1710701 0.6612132 2.0156882 1.9190668
000030 a9 e2 f3 3f 2d a9 12 40 2e 90 fc 3f 90 3c b1 3f
       1.9053546 2.2915757 1.97315 1.3846607
000040 ac 2f 0c 40 51 37 c5 3f 86 6c 04 40 d3 07 d1 bd
       2.1904097 1.5407506 2.0691237 -0.102065705
000050 cf e1 11 40 03 b6 ff 3f 04 4b ed 3d fc 9c a3 3e
       2.2794073 1.997742 0.11586574 0.31955707
000060 0f f3 c0 3f 5c a5 d4 3f 08 54 b4 3f 09 05 15 40
       1.5074176 1.6612964 1.4088144 2.3284323
000070 c4 89 56 be 71 09 bb 3f 1c 31 80 3f ff b7 bf 3e
       -0.20950991 1.4612256 1.0014987 0.37445065
000080 f0 65 81 3e fe aa a5 3f aa 33 3c 40 e4 41 18 3f
       0.25273085 1.2942808 2.9406533 0.5947554
000090 9e b7 e0 3f ca 61 00 40 e7 59 ce 3f 92 6b c7 be
       1.7556036 2.0059686 1.6121186 -0.38949257
0000a0 c8 a2 d5 bd 17 34 8e 3e 7a 65 d3 3e 7c ce 49 3f
       -0.10431439 0.27774116 0.41288358 0.78830695
0000b0 2b 87 24 40 ca 2c 03 40 8d 0d c0 3f cb 79 b8 3f
       2.57075 2.0496087 1.5004135 1.4412168
0000c0 fa 2a 8e 3e 96 8d 70 3e f4 38 ec be a7 53 15 40
       0.27767164 0.23491511 -0.46137202 2.3332307
0000d0 2c 9a 8f bd 84 35 03 40 a5 dc e6 3f 47 55 08 40
       -0.07011828 2.0501413 1.8036085 2.130205
0000e0 51 eb 39 3f 4b 2d 1c bf 92 d4 15 3f 64 e5 c4 3f
       0.7262469 -0.6100661 0.5852748 1.5382504
0000f0 55 83 76 3f b0 39 17 40 7a 1f 63 3f 96 ba a9 3f
       0.96294147 2.362896 0.88719904 1.3260067

encoder.2.weight f4 [32, 64]
000000 40 6b 00 be 01 99 e3 bd aa 24 68 bd d7 1e 00 be
       -0.12540913 -0.111131676 -0.05667559 -0.12511764
000010 19 c1 36 be 1b 2e b7 3c 04 c5 a2 bd 63 60 a3 3c
       -0.17847098 0.022360852 -0.07947734 0.019943422
000020 81 95 bc 3a b0 f7 2d be e2 43 45 bd 8d 26 d1 bc
       0.0014387817 -0.16989017 -0.04816044 -0.025531078
000030 da 8f 13 bd 62 9b 0e be f0 b7 f9 3a 97 1b 22 3c
       -0.03602586 -0.13926461 0.001905201 0.009894273
000040 66 6f 84 3d 97 c3 4f 3d a7 84 bb bd 14 03 84 3d
       0.0646656 0.05072364 -0.09156161 0.064458996
000050 f7 a4 1b be 6a 24 20 be e2 b1 d8 bc 4f 5f a3 bd
       -0.15199648 -0.15638891 -0.026452009 -0.07977163
000060 f8 3c 08 3d c9 e8 06 be 38 cc 0e be 98 ac 9a bd
       0.03326127 -0.13174738 -0.13945091 -0.07552451
000070 46 87 dc bd 93 b7 c8 bd c3 26 58 bd 01 c0 b0 bd
       -0.10767989 -0.09800639 -0.05277134 -0.08630372
000080 df 7c 3c bc 3d 66 32 be 3e 20 1f be d6 ab d1 bd
       -0.011504381 -0.17421813 -0.15539643 -0.10237853
000090 9f 3f 5f bd 48 74 14 be 87 c6 27 be cd b2 f5 bd
       -0.054504033 -0.14497483 -0.16384326 -0.11996994
0000a0 23 64 45 3d e6 1e 1c bd 55 a4 61 3d 1c f8 3f 3d
       0.0481912 -0.038115405 0.05508836 0.046867475
0000b0 1d 8a 0d bc be 52 18 3d 0b fd 21 be 6d a7 d8 bd
       -0.008638886 0.037188284 -0.15819184 -0.10578809
0000c0 48 9a 3b be 08 ac 1d 3d 07 4c 20 bd a1 c8 3c bd
       -0.18320572 0.03849414 -0.039135005 -0.046089772
0000d0 f2 bb 1f be 1b da a7 bd af 33 11 3d 54 bd 10 be
       -0.15599039 -0.08195897 0.03544968 -0.14134723
0000e0 9b 2a 0d bb 77 69 28 be 2d fd b1 3c 5d 75 b5 bc
       -0.0021540287 -0.16446482 0.021727169 -0.02215069
0000f0 de 5e 71 bd c6 3d ac 3c 25 64 3e bd cf 0e 38 be
       -0.058928363 0.02102555 -0.046482224 -0.17974399
000100 23 82 51 3d 1b 71 4e bb 51 c5 c0 be 9e 6d 4c bd
       0.0511495 -0.0031500522 -0.3765054 -0.049909227
000110 e7 9c f6 3c 01 16 0a bc 22 52 86 be 98 46 e1 bc
       0.030104114 -0.008428098 -0.26234537 -0.027499482
000120 90 d9 1f 3d cc aa bf bd 3a a4 54 3d 9f 1d c9 bd
       0.039025843 -0.09358749 0.05191443 -0.09820103
000130 8e 6d b6 bc 82 7c 32 be 70 d8 05 be 26 87 e0 3b
       -0.022269037 -0.17430308 -0.13070846 0.0068520484
000140 b3 e7 30 bd 65 71 37 bd e4 c6 96 bd c2 fb bf be
       -0.043189716 -0.044785876 -0.07362154 -0.37496763
000150 9b 84 be bd 20 9c 1f be ee 5a 7d 3d 20 d8 58 bc
       -0.09302636 -0.155869 0.061854295 -0.013235122
000160 e4 63 27 be 1f 64 e1 bd c0 f6 09 be d6 f5 be bd
       -0.16346699 -0.11005425 -0.13473034 -0.09324233
000170 2f 11 83 be 19 f3 bb bd cc 34 23 be fb 13 2d be
       -0.25599048 -0.091772266 -0.15938109 -0.16902153
000180 3e 88 9d be 9f a8 b5 bd f4 46 36 bc 10 d3 ae bd
       -0.30768007 -0.088700525 -0.011125315 -0.08536351
000190 fa 69 fe bd ee 8f 25 be 7d 6b 2e be 6b 32 8e be
       -0.12422557 -0.16168186 -0.17033191 -0.2777284
0001a0 65 19 c3 be ed 02 96 be 5f 35 05 3d 75 49 3c bd
       -0.38105312 -0.29299107 0.0325216 -0.04596849
0001b0 d3 a6 9a bd a0 78 2a be f8 59 8e be 5d 1c 3a be
       -0.075513504 -0.16647577 -0.27803016 -0.18174882
0001c0 e7 1a 8d be 9c 11 29 be a9 1a 97 bd 6e 73 63 bd
       -0.27559587 -0.16510624 -0.07378132 -0.055530004
0001d0 7f 27 2a be a2 d5 8a bc 10 36 39 be 5e 98 04 be
       -0.16616629 -0.016947571 -0.1808703 -0.12948748
0001e0 f0 19 c5 be b8 e0 93 be 7e 1e f7 3b 22 0c 01 be
       -0.3849635 -0.28882384 0.0075414767 -0.12602285
0001f0 ab 84 2f be 78 d0 cc bd 59 29 0f be 6a bc ad 3c
       -0.17140453 -0.100007 -0.13980617 0.021208007
000200 c0 21 e3 3e 22 a7 ed bc 13 96 16 3d 00 e3 a3 bb
       0.44361687 -0.02901036 0.036764216 -0.0050014257
000210 68 bf b5 bd 2c 25 09 3d 75 1c dc 3d 08 09 f6 3c
       -0.088743985 0.033482715 0.10747615 0.030033603
000220 b4 be 86 bc 6d 02 51 bb 2c c1 d1 bb 33 88 9f 3b
       -0.016448356 -0.0031892315 -0.0064012017 0.004868531
000230 35 e9 60 bf 6f d0 71 bc d2 6a 0e be f6 e4 08 bf
       -0.87855846 -0.014759167 -0.13907936 -0.53474367
000240 bf f4 09 3e b1 40 f8 be 07 9e a2 3d 6d c1 37 3e
       0.1347227 -0.48486856 0.079402976 0.1794488
000250 98 5e 51 be 44 f5 5f be f2 73 0f 3d 85 f3 57 bd
       -0.20446241 -0.21870905 0.035022683 -0.052722473
000260 46 98 4f 3e 14 88 2b 3c 39 4a 09 bc e6 5f 0b bb
       0.20272931 0.010469455 -0.0083795125 -0.0021266877
000270 36 f2 72 3c 34 46 73 bf fe 05 68 be 3f 71 a0 3c
       0.014828255 -0.95028996 -0.22658536 0.01958525
000280 1e 1d 0a 3c 4f 7d 99 bc 5b 0a 3f bf 57 a6 4b 3d
       0.008429794 -0.01873651 -0.74625176 0.04971918
000290 da 9c ae be cb 8a 43 be 36 3f 05 3e d9 90 fa 3c
       -0.34104043 -0.19095914 0.13012394 0.030586647
0002a0 85 ba cb bd 7b b0 a6 3c fb a8 8e be e5 61 81 bd
       -0.09947685 0.020347824 -0.27863297 -0.063175
0002b0 04 61 e5 3c 66 87 7b bd 5d fe 4f 3e 84 af ff bd
       0.028000362 -0.061408423 0.20311876 -0.12484649
0002c0 73 67 e0 bb 23 2f 1e bd 6d 92 dd bc 2a da f9 bd
       -0.0068482696 -0.03861917 -0.02704736 -0.121998146
0002d0 a1 d0 8b 3d 85 cd 96 bc 81 8d 08 3e 79 ae 0b 3e
       0.06826902 -0.018408546 0.1333523 0.13640775
0002e0 fa 55 a2 3c d5 17 2f bc 0c 46 20 3c 1c 01 51 bd
       0.019816387 -0.010686834 0.0097823255 -0.05102645
0002f0 4f 4c fc 3d 60 6a 4d bc bc fb 2c 3b ab 1d c9 bd
       0.12319242 -0.012537569 0.0026395163 -0.09820112
000300 08 27 1d 3d ed b1 ba 3d 55 d1 3f 3d f1 df 16 3e
       0.0383673 0.09115968 0.046830494 0.14733864
000310 53 5d 68 3e 20 18 1b bd 14 34 5c 3e e9 74 c6 3d
       0.2269185 -0.037864804 0.21504241 0.096902676
000320 c7 dc 4f 3d c6 78 af bd ed ca df 3d 90 cc 7b 3e
       0.05074766 -0.085679576 0.10927377 0.24589753
000330 d8 8e d8 bf dd b1 8d 3d 5e 50 4e bd c0 c9 f3 3c
       -1.6918592 0.0691869 -0.050369613 0.029759288
000340 ec 63 cc 3b 37 94 29 bf 13 ee 11 bb e9 f5 12 bd
       0.0062374976 -0.6624178 -0.0022267147 -0.03587905
000350 37 43 78 bd e7 9a 61 3c 02 c3 b7 bd d8 c9 09 be
       -0.060610976 0.013769842 -0.08972742 -0.13455904
000360 5d 05 cc bd 91 f1 27 3d f2 39 7f 3d 54 54 1c 3e
       -0.099619605 0.04100186 0.06231112 0.15266544
000370 7e 08 bf 3c 12 4f e5 bf 20 c3 7d 3d 01 d6 59 bc
       0.02331948 -1.7914755 0.061953664 -0.013295651
000380 83 1a 98 bd cb 24 29 3d 23 62 04 c0 89 da 18 bd
       -0.07426932 0.041294854 -2.0684898 -0.037317786
000390 b4 77 80 be 4f 32 6f 3d 03 42 ec bc c0 6a be 3c
       -0.25091326 0.058397587 -0.02884007 0.023244262
0003a0 73 a9 e9 bc e5 03 2b 3d eb 1f 15 3e 54 1a 4f bd
       -0.028523182 0.04175176 0.14562957 -0.050562218
0003b0 d6 78 d7 bd 72 9c 07 3e 79 65 b7 3d 47 ff 30 bf
       -0.105210945 0.13243273 0.08954901 -0.6913952
0003c0 a6 88 b0 3d 41 8b 9a 3d aa 3b 41 bd 9a dc 8f be
       0.086198136 0.07546092 -0.04717604 -0.28097993
0003d0 8a b9 a8 3e 07 13 38 3e 24 fc 44 3c 0d 3b f1 bd
       0.32954055 0.17976008 0.012023006 -0.11778841
0003e0 ff 69 c6 3b 9b 58 53 bd 6f 6c 97 3d b7 d8 43 3e
       0.006055116 -0.051598173 0.07393729 0.19125639
0003f0 e8 ce 8d bc f2 18 68 3e 15 2f b6 3d d4 aa 06 3e
       -0.017310575 0.22665766 0.08895699 0.13151103

encoder.2.bias f4 [32]
000000 24 b0 93 bd 59 b6 7e be ec 94 0e 3f 45 db 48 3f
       -0.072113305 -0.24874248 0.55695987 0.7845958
000010 44 1f 60 3f 6b 12 cc 3c 57 e7 8a bd 6a 47 a8 be
       0.8754771 0.024911126 -0.06782406 -0.32866985
000020 5b e2 17 be 0e d3 d5 be a0 c4 4a 3f f3 8a ca 3e
       -0.14832442 -0.41762584 0.79206276 0.39559135
000030 5f d6 85 bd bb 1d 1f 3e ca 24 ec 3e fb 4a d9 3b
       -0.06535029 0.15538685 0.46121818 0.006631253
000040 df 56 21 be 10 b1 3a 3d 17 b0 22 3f b8 c6 95 3e
       -0.15755795 0.045579016 0.6354994 0.29253173
000050 96 1b 0c be 73 62 cc bd 12 8a 2d 3e 42 ae 6b bd
       -0.13682398 -0.09979715 0.16947201 -0.057539232
000060 cf cb 19 3f 56 b7 6a be b9 e7 2c 3f c3 de 02 3f
       0.6007661 -0.229215 0.6754108 0.5112116
000070 36 4f 25 3d 3a 45 85 3e 0e a9 b8 3e 51 07 05 3f
       0.040358745 0.26029378 0.36066478 0.5196429

decoder.0.weight f4 [64, 32]
000000 f1 b3 81 be 7c 2c 92 be f8 f8 b7 be e6 e9 8a be
       -0.25332597 -0.28549564 -0.35932136 -0.27131575
000010 fa f1 b7 be 6f c3 93 be d6 c1 f4 bd 95 d0 dd bd
       -0.359268 -0.28860041 -0.11951034 -0.108307995
000020 4b bf d2 3e 1a b1 16 bd 4d d5 e4 bd f7 fb e8 be
       0.4116157 -0.03678999 -0.111734964 -0.45504734
000030 82 f3 94 be 02 c9 92 3d fd 30 dc be e7 02 e8 be
       -0.29092032 0.071672454 -0.43006125 -0.45314714
000040 53 fa 98 bd f5 96 b4 be c7 56 5a be ee bf a2 be
       -0.074696206 -0.3527142 -0.21322165 -0.31787056
000050 f2 aa 51 be 1e af bf be 3e 6a ad be d7 bb d9 be
       -0.20475367 -0.3743829 -0.3387012 -0.42526123
000060 77 cb 9a 3e f8 a8 d0 3e f3 20 db 3e bd 37 b8 be
       0.30233356 0.40753913 0.42798576 -0.35980025
000070 ae ff 6b 3e 62 58 ce be 3e b2 5b be 2f 3e 23 3e
       0.23046753 -0.40301806 -0.21454713 0.1594169
000080 ed 0a 52 be 74 a3 1a be e8 c1 9f bc e8 c4 36 3e
       -0.2051198 -0.15101415 -0.019501641 0.17848551
000090 df fa 43 bb 39 9f 8f 3d f7 ee 1d be a3 40 82 3d
       -0.002990417 0.07012791 -0.15423189 0.06359985
0000a0 04 7b 50 3e d4 a4 f5 bc 6c e3 11 3d 67 c1 0c 3e
       0.20359427 -0.029985823 0.035617277 0.13745652
0000b0 c6 90 dc 3d 4b 1c 81 be 62 84 21 be d4 07 16 bc
       0.10769801 -0.25216898 -0.15773156 -0.00915714
0000c0 a4 5e 8a bd f9 97 85 3d 62 6a 25 be 56 e0 d8 3e
       -0.067563325 0.06523127 -0.16153863 0.42358655
0000d0 39 4d 27 be de 9b 86 bd 8d 16 51 3d 0b b6 d2 bd
       -0.16338052 -0.06572698 0.051046897 -0.10288628
0000e0 dc 40 b8 3d 0b 6b ff bc 85 b9 cc 3d 73 17 a9 bd
       0.08996746 -0.031178972 0.099963225 -0.08256426
0000f0 40 9e 71 3d fc 35 a4 3d 12 10 4c 3d 84 c9 00 3c
       0.05898881 0.08018109 0.049820013 0.007860545
000100 1c a8 12 3e 90 d8 9d 3c fe 76 09 bd b4 c0 f4 bd
       0.14321941 0.019268304 -0.033560745 -0.11950818
000110 02 e9 a6 3d e3 a3 61 3e b8 c7 04 3e 14 f9 3b 3e
       0.081499115 0.22035174 0.12966812 0.18356735
000120 d2 11 34 be 6a 3e 44 bd 18 47 8a bd b0 b3 0d be
       -0.17584923 -0.047911085 -0.06751841 -0.13838077
000130 bb 74 ee 3d 8d b8 3e bc e7 27 04 bd 55 15 dd bd
       0.11643358 -0.01164068 -0.032264616 -0.107950844
000140 b1 bc 1c be 20 e4 12 3e f8 c0 3a bd 1f 95 1d 3d
       -0.15306355 0.14344835 -0.045594186 0.03847229
000150 66 76 45 bd 6b ad 49 3e d7 11 d4 be 61 6c 57 3e
       -0.048208617 0.1969506 -0.4141986 0.21037437
000160 74 66 d1 3d 86 c8 64 3d 6a 0f 11 3f 96 4c d1 bd
       0.102246195 0.055855297 0.56664145 -0.10219686
000170 65 d7 07 be f0 e3 da 3c df 69 ea bb b1 2e 00 3e
       -0.1326576 0.026720017 -0.007153734 0.12517811
000180 6a c3 bf bd 67 3c 8b 3d 34 01 ba bb e7 d9 72 be
       -0.09363444 0.0679863 -0.005676413 -0.23715936
000190 43 68 ef bd fc fa 0a be 4b 7c 3b be 9b 4c f3 3d
       -0.11689808 -0.13572305 -0.18309133 0.11879846
0001a0 16 b7 2d 3e 24 60 e6 3d 15 ba 4d 3d 3d 68 e7 bd
       0.16964373 0.11248806 0.05022629 -0.11299179
0001b0 e4 29 22 be 36 c6 21 be 8c fe d6 bd 8d 9e 89 3d
       -0.15836293 -0.15798268 -0.1049777 0.06719694
0001c0 45 88 a9 3c d4 85 c0 bd 43 c1 22 be 6f a9 df 3c
       0.020694861 -0.09400526 -0.15894036 0.027302472
0001d0 e7 5d 51 bd e8 38 b3 bd df fd 3a 3e 5b ba 6a be
       -0.051114943 -0.087510884 0.18260907 -0.22922651
0001e0 f1 d3 56 3d f6 24 c8 bc 7b 70 37 3e 46 05 64 3d
       0.052448217 -0.024431687 0.17914002 0.05566909
0001f0 fd bd 2f 3e ac 5c 70 be f4 1c e4 bd 70 46 1d bd
       0.17162319 -0.23472852 -0.11138335 -0.038397253
000200 45 f1 d5 bd cb e4 88 be 7b 74 ed bd 35 4c 17 be
       -0.10446409 -0.26737055 -0.115944825 -0.14775164
000210 4b ea 48 be 73 eb a9 bd 21 fe 6f be ca 9a b7 3d
       -0.19620626 -0.082968615 -0.23436786 0.089650705
000220 db 7d d8 3c 91 ec 0f 3e 04 02 cb bc 7f 5d a2 bd
       0.0264272 0.14055087 -0.024781235 -0.07927989
000230 09 16 20 be 7a 38 64 be 10 d8 e9 3c 39 fb 5a be
       -0.15633406 -0.22287169 0.02854541 -0.21384896
000240 35 ef a3 3d 88 77 46 be 94 e4 4f be 16 41 0d be
       0.080046095 -0.19381535 -0.2030204 -0.1379436
000250 cc 46 8d 3d 36 73 31 be c3 01 ad bd f0 6b 5d bd
       0.06898269 -0.17329106 -0.08447602 -0.054058015
000260 e4 77 03 be 8f b8 7a bd e4 99 8d 3d 5c 68 60 3e
       -0.12838703 -0.061211165 0.06914118 0.2191481
000270 ad 18 6a 3e f1 70 4c be dc 1b d0 bd 13 21 84 bd
       0.22860976 -0.19964959 -0.10161564 -0.06451621
000280 ea bf a7 bd 9e 65 90 be f8 72 8e be 12 73 a5 be
       -0.081909016 -0.28202528 -0.2782209 -0.32314354
000290 c3 23 ba be 0e 56 ad be c9 8d c7 3b 42 58 24 be
       -0.3635541 -0.33854717 0.0060899 -0.16049293
0002a0 68 c7 87 3e b1 ff d8 3d f7 4d 79 be f0 1f 5e be
       0.26519322 0.10595644 -0.24346147 -0.2169187
0002b0 9e 5e 99 bc f2 d9 10 bc 1a e4 0f 3d d5 9c d6 be
       -0.018721875 -0.008841025 0.035129644 -0.41916528
0002c0 c6 8c 88 bc 15 43 9a be dc 5a 6f be f5 6e 97 be
       -0.016668689 -0.30129305 -0.23374504 -0.2957684
0002d0 f6 fd e0 be 71 30 95 be dc 01 78 be 8d b6 a5 bd
       -0.43943757 -0.2913852 -0.2421946 -0.080914594
0002e0 fc 59 46 be 21 35 8a 3e f8 e9 b5 be 07 7e a3 be
       -0.19370264 0.2699366 -0.35530066 -0.3193209
0002f0 af f0 78 3e d4 42 7c be 62 62 d8 be a9 38 03 3e
       0.24310564 -0.24634868 -0.4226256 0.12814583
000300 ab 60 a4 3d 7e 51 dd bd 14 f4 f4 bd cc ba 75 be
       0.080262505 -0.10806559 -0.11960617 -0.23997039
000310 ba d2 4e bf c4 b9 19 be ce e8 d5 3d 2e 65 21 be
       -0.80790293 -0.1501227 0.104447946 -0.15761253
000320 9a 33 24 3d fb 72 f2 3d bf cf 2f be ae 88 78 bc
       0.040088274 0.11838337 -0.17169093 -0.015169306
000330 5b b6 2c be f3 57 89 be f3 c8 eb 3d 41 a6 02 3e
       -0.16866438 -0.26824912 0.115129374 0.12758733
000340 95 69 2c be 12 0a e3 3d e1 53 4a 3c 4a 7d 29 bd
       -0.16837151 0.11085905 0.0123491 -0.04137925
000350 5c 9e 8e bd 45 c4 3b bb 82 4d 12 bc 1f eb 32 3e
       -0.069637984 -0.0028650921 -0.008929612 0.17472504
000360 97 f8 94 bc 77 04 9a 3d 72 cf f0 bc 41 e4 d9 bc
       -0.018184943 0.07520383 -0.029395793 -0.026598098
000370 33 02 59 bd 08 53 10 be 7a d7 0c 3f c6 77 6b be
       -0.052980613 -0.14094174 0.5501629 -0.22994909
000380 40 43 57 be 7e b6 80 be 6a 25 b8 3c ea 82 fe bc
       -0.21021748 -0.2513923 0.022478778 -0.031068284
000390 fd ab 9b bd 13 4f 75 38 05 0e 19 bd 25 93 8e be
       -0.076011635 5.8486195e-05 -0.037366886 -0.27846637
0003a0 c6 28 e0 3d 85 68 b3 3d 8a fd df 3d d9 8a 3e be
       0.10945277 0.0876017 0.109370306 -0.18607654
0003b0 7e 2a 3a be 74 85 38 be 89 d9 af 3c 1e 28 8c be
       -0.18180272 -0.18019658 0.021466034 -0.27374357
0003c0 99 b7 6a 3e 43 16 ef 3b 48 1e ea 3e 50 b0 1d 3e
       0.229216 0.007296355 0.45726228 0.15399289
0003d0 a8 16 a2 bc cf 55 86 be 3f 70 c8 3b 3f e9 ef bd
       -0.019786194 -0.26237342 0.0061168964 -0.1171441
0003e0 11 d8 06 bd 6c 79 f4 3d 1c 9d 1c 3e 2b dc d2 bb
       -0.0329209 0.11937222 0.15294307 -0.0064349375
0003f0 4c 51 d0 bc 18 81 f1 bd a2 5b ad bd 29 44 97 3e
       -0.02542939 -0.11792201 -0.08464743 0.2954419

decoder.0.bias f4 [64]
000000 50 40 68 be fc 8c b1 bd 79 b7 f0 3d f2 4d ec bd
       -0.22680783 -0.08669469 0.11753745 -0.115383044
000010 68 74 87 3a 82 9b 60 be 70 e1 01 3e 2a d1 21 bd
       0.0010334374 -0.21934322 0.12683654 -0.039506115
000020 96 93 1e 3e ab 67 1b be 38 73 18 3c 40 60 df bc
       0.15485987 -0.15176265 0.009304814 -0.027267575
000030 86 e2 3b 3d 95 7b 0d be 6d f3 58 bd 30 09 5d be
       0.045870326 -0.13816674 -0.052966524 -0.21585536
000040 1f cf 81 bd 98 68 99 bb db 96 4e be c2 16 42 bd
       -0.06338333 -0.004681658 -0.20174734 -0.047384985
000050 6c 7a f2 3b 88 13 9a bd 86 0c 79 3d af 9d ab bd
       0.0073998477 -0.075232565 0.06080296 -0.08379685
000060 37 d6 45 be 6a ef 55 be c0 5b 3a be 06 0e bc be
       -0.19319998 -0.2089211 -0.18199062 -0.3672945
000070 22 c5 1f be 38 53 5e 3e 96 dc 84 3b 43 2b 80 be
       -0.15602544 0.21711433 0.004054616 -0.25033006
000080 f2 b2 a1 bd 84 3d 57 3d 04 c4 d0 bd dc 56 1b 3e
       -0.07895459 0.0525489 -0.10193637 0.15169853
000090 d2 41 2a 3e 63 c3 37 be be 90 3e 3d a7 17 c8 bd
       0.16626671 -0.17945628 0.046524756 -0.09770136
0000a0 ce 8b 5e be 2e da 9e 3b 9f 5e 61 3c 43 70 bc 3d
       -0.21733019 0.0048477864 0.01375547 0.092011
0000b0 b0 5d 64 3e bf 96 b8 bd 20 7e 68 3d 7f 93 30 3e
       0.22301364 -0.090131275 0.056760907 0.17243765
0000c0 5d 82 76 be 71 d9 f2 bd 89 82 d7 3d 56 d9 d8 bd
       -0.24073167 -0.1185788 0.105229445 -0.105883285
0000d0 7b 65 42 be c6 8c bf 3d 58 33 cf bd 21 ad 56 bc
       -0.18984024 0.09353022 -0.10117215 -0.013102801
0000e0 e4 d3 17 be c3 85 0e 3e 30 f2 bb bc 1e 05 8b be
       -0.14826924 0.13918214 -0.022942632 -0.27152342
0000f0 67 90 74 3e d4 dc 27 3e c4 87 cb 3d 2d ad 98 3c
       0.2388321 0.16392833 0.099380046 0.018637264

decoder.2.weight f4 [784, 64]
000000 e0 bf f6 3d de d7 92 bd 08 0c e4 3c ac ff 7f bd
       0.12048316 -0.0717008 0.027837768 -0.062499687
000010 5a 60 9d bd 20 2a f9 bc 70 b1 40 3d b2 a4 8c bd
       -0.07684393 -0.030415595 0.047044218 -0.06867351
000020 28 b7 b8 3b 12 7f 80 bd 00 77 1e be 90 14 99 bd
       0.0056370683 -0.06274237 -0.15475082 -0.07474625
000030 f1 c1 da bb 1f 2e 85 3c 0f 2d 21 3d 2a cd d9 bd
       -0.0066759516 0.016257344 0.03934961 -0.10634835
000040 56 b5 b4 ba a6 e4 ed bd 94 4f 00 bd c7 52 df bd
       -0.0013786952 -0.11615877 -0.03132589 -0.109044604
000050 a8 c8 41 bd a0 23 0f be d7 b2 98 bd 3f 2d ce bd
       -0.0473105 -0.13978434 -0.07455986 -0.10067224
000060 10 84 60 3d 90 b3 1b bc 4a c1 1a be 36 43 92 3d
       0.054813445 -0.00950326 -0.15112796 0.07141726
000070 70 c8 02 3c dc da 9d bc 4e 44 ab bd a4 bf 9e bd
       0.007982358 -0.0192694 -0.083626375 -0.07751396
000080 00 09 17 3c 38 47 21 bd ca 2c d0 bd 87 51 09 be
       0.009218454 -0.03937456 -0.10164793 -0.13410006
000090 f3 f1 28 be 4c e8 31 bc 84 50 19 be c6 bf 0e be
       -0.16498546 -0.010858607 -0.1497212 -0.13940343
0000a0 46 8d d5 bd 33 8d fb bd 0a d9 98 bd 98 88 a2 3d
       -0.104273364 -0.12282791 -0.07463272 0.079362094
0000b0 d2 7c 30 bd b8 bf 21 be e0 4a 97 bb 98 99 d0 3c
       -0.043087788 -0.15795791 -0.00461708 0.025463864
0000c0 10 af b7 bc fd e2 c7 bd 22 22 40 be 6a 0d 59 bd
       -0.022422343 -0.097600915 -0.1876302 -0.05299131
0000d0 6c 5f 55 bd a4 bc 23 bd a8 12 aa 3c fc b5 de 3d
       -0.052092955 -0.039974824 0.02076085 0.108745545
0000e0 24 d0 19 bd 42 e2 93 bc 84 b8 0d 3d e6 d0 a6 bd
       -0.037552014 -0.018052224 0.034599796 -0.08145313
0000f0 6e 8d 9b 3d de 51 2a bd 00 f8 29 be 76 0d 9c bd
       0.07595335 -0.04158198 -0.1659851 -0.07619755
000100 d4 9a 8e 3d 16 13 62 3c c0 09 a9 bd 5c f3 a8 3d
       0.06963125 0.013798496 -0.08253813 0.08249542
000110 c8 fc fd bd a4 a3 73 bd 04 38 35 bd c2 09 ab bc
       -0.1240173 -0.05948223 -0.044242874 -0.020878676
000120 2f 1a 42 be 74 52 24 3c fc c4 9d bc c9 89 30 bd
       -0.18955301 0.010029424 -0.019258969 -0.043100152
000130 b6 19 44 bd 5f fd 4e be 42 01 df bc 00 3c 72 39
       -0.047876082 -0.20213841 -0.02722228 0.0002310127
000140 dc f5 44 be d0 f4 f6 3c 00 81 08 bd 82 7f 0e be
       -0.19234413 0.030146033 -0.03332615 -0.13915828
000150 4c 0b 7c bd 56 42 b9 bd a3 23 53 bd cf ef de bc
       -0.06153421 -0.09045856 -0.051547658 -0.027213959
000160 d6 35 8d bd 40 e4 20 bc 96 d7 41 3d de ae 93 bd
       -0.06895034 -0.009820044 0.04732474 -0.07211088
000170 44 eb 13 3d 90 0e b5 bc e7 81 d7 3c 80 32 a2 3d
       0.03611304 -0.02210167 0.02630706 0.07919788
000180 fe 6a 80 3c a4 88 71 bd 52 10 f6 bd 95 b3 87 bc
       0.015676018 -0.0589682 -0.120148316 -0.016565124
000190 eb 20 fe ba a0 06 05 bd 3b e4 a9 bd 09 a1 0d be
       -0.0019388472 -0.03247702 -0.08295485 -0.13830961
0001a0 78 f3 90 bd e2 26 28 3d a6 c6 83 bd 48 e1 0f 3d
       -0.07077688 0.041052707 -0.064343736 0.035126954
0001b0 94 63 1d bd 3c 2b 38 3c 4a d9 b0 3d 35 a2 15 bd
       -0.038425043 0.011240777 0.086351946 -0.036531646
0001c0 40 f2 37 bb 73 42 18 bd 30 5c 1b be e7 a6 2f bd
       -0.0028067976 -0.037172746 -0.15171885 -0.04288378
0001d0 e0 e6 eb 3b 00 8b 11 be 92 c4 b3 bc 97 48 31 be
       0.0071991533 -0.1421318 -0.021944318 -0.17312847
0001e0 71 be 2f be 12 db 50 bd d1 18 45 3b 89 3d 0f bd
       -0.17162491 -0.05099017 0.0030074606 -0.034970794
0001f0 e8 ce 47 3c bd bf 3d bd 01 45 66 bd 7e 8a 09 be
       0.012195326 -0.046325434 -0.05621815 -0.13431737
000200 e4 53 e2 3d 14 4e 74 be 9c ce d9 bd 14 23 e0 3d
       0.11051157 -0.2385791 -0.10635111 0.109441906
000210 10 e5 77 bd 84 c2 06 bd 8c 54 ac 3d 61 a4 32 3c
       -0.060521185 -0.03290035 0.084145635 0.010903449
000220 bd 91 2a be cd eb b7 bd 08 85 88 3d e8 04 ab bc
       -0.16657157 -0.08980522 0.06665999 -0.020876363
000230 26 14 33 bd ca 46 a0 bd 34 15 86 bc f8 6f 8e 3c
       -0.043720387 -0.07826002 -0.016367532 0.017387375
000240 d3 fc 06 3d 98 78 23 3d 60 20 85 3b f2 1a 5d bd
       0.032955956 0.03990993 0.0040626973 -0.053980775
000250 cc 0e ad bd 2a c3 2f be a8 f9 82 bd a0 48 32 bc
       -0.08450088 -0.17164293 -0.063952744 -0.010881573
000260 88 ea 84 3d 58 16 cb bc 9a 65 83 bd a0 b5 38 bc
       0.06490046 -0.024790928 -0.06415863 -0.0112737715
000270 ba c0 94 bd e8 11 75 bc 9c af 0b be 38 4d 84 bd
       -0.07263322 -0.014957882 -0.13641208 -0.06460041
000280 3c a5 a8 3d c8 a3 56 3d 14 7c 33 bd e8 24 16 be
       0.08234641 0.052402288 -0.043819502 -0.14662516
000290 81 27 01 be 58 5a 96 bc 68 46 42 be 0e 35 9c 3d
       -0.12612726 -0.018353626 -0.1897217 0.07627307
0002a0 e0 98 6f 3d 91 94 df bd 00 71 f3 3c 7e b1 c9 bd
       0.058495402 -0.10917009 0.029716969 -0.09848307
0002b0 fc a2 e4 bc ce 7a 0c 3d 34 8b b7 3d 00 07 96 ba
       -0.027909748 0.034296803 0.08962098 -0.0011446178
0002c0 e9 3c 19 3d e4 7d 98 3d fe ad 0c be 61 d6 de bd
       0.037411604 0.07445887 -0.13738248 -0.10880733
0002d0 10 87 4d bd 34 ba af 3d 30 8f 97 3c 28 85 d6 bc
       -0.050177634 0.08580437 0.018500894 -0.02618654
0002e0 e0 53 7f 3d 11 84 1a be ee c6 bc bd 8a 65 e6 3d
       0.06233585 -0.15089442 -0.0921763 0.11249836
0002f0 15 c2 86 bd 86 0a 0a be c2 13 35 be cc 78 98 bd
       -0.06579987 -0.13480577 -0.17683318 -0.07444915
000300 b8 91 f4 bc 80 65 19 bb 0f 0f fc bb 08 97 ef 3d
       -0.02985464 -0.0023406446 -0.007692225 0.11698729
000310 1c ba f9 bd 1a 65 bf 3d 94 ac 56 3d 3d 5c ed bd
       -0.12193701 0.093454555 0.052410677 -0.11589859
000320 11 71 32 be 70 0d 44 be 70 c7 46 bd fe 3d 5d bb
       -0.17425944 -0.19145751 -0.048530042 -0.0033758874
000330 c5 ac 0c be a0 b7 cb 3b 63 c3 17 3d 3a 96 a8 bd
       -0.13737781 0.006216958 0.03705157 -0.082317784
000340 57 0b d7 bd 02 b5 cf bd 94 eb 40 be 8a 98 d9 bc
       -0.1050021 -0.101419464 -0.18839866 -0.026561994
000350 fc 0e 7f 3d d9 25 3b 3d f8 a2 48 bd 64 d5 0b 3d
       0.06227015 0.04569039 -0.048983544 0.034139052
000360 40 b9 27 bc 28 cb 04 bd ae 3c 07 be ce 65 cb 3d
       -0.010237038 -0.032420307 -0.13206741 0.09931527
000370 3a af b4 3d 4c da 26 be 14 6d 4e 3d 40 e5 ab 3b
       0.08822484 -0.16294211 0.050396994 0.0052458346
000380 52 17 fc 3d e6 7c c3 bd c8 f9 97 3d a9 7a c4 3c
       0.123091355 -0.09545307 0.07420689 0.02398427
000390 42 2a b7 bd a0 41 75 3d a8 26 46 be 82 51 f7 bd
       -0.08943607 0.059877038 -0.19350684 -0.12076093
0003a0 d0 20 42 3d 1d 65 f9 bd bc d2 e9 3d 40 0d d4 bd
       0.047394574 -0.12177489 0.114171475 -0.1035409
0003b0 05 52 d6 bb 4b d0 89 bd 4a eb d9 bd 98 79 90 bd
       -0.006540539 -0.06729182 -0.10640581 -0.07054442
0003c0 7e d9 8a 3d 01 6c f2 bc fd 73 3d 3d d8 1b ec 3c
       0.067797646 -0.029592516 0.046253193 0.02882187
0003d0 c6 bd f5 3d 3f 9f e9 bb fb 72 a1 bd 3b db 09 bd
       0.11999087 -0.0071295793 -0.07883259 -0.03365634
0003e0 03 18 0f be 52 fd 99 bd 07 44 2b be 84 ca ae bd
       -0.13974003 -0.0751902 -0.16725169 -0.085347205
0003f0 fc d8 e5 bd 6b af 0c be 41 62 4a 3c 14 e3 7c bd
       -0.11223027 -0.13738792 0.012352527 -0.061739996

decoder.2.bias f4 [784]
000000 91 3e 42 3c 08 d4 b3 bc 89 43 51 3c d6 d7 bf bd
       0.011855737 -0.02195169 0.012772449 -0.09367339
000010 ab 27 13 be 64 32 29 bd 75 b5 1f be 1c 69 8d bc
       -0.14370601 -0.041307822 -0.15596564 -0.017262034
000020 d9 cf 9c bd d3 7a 21 be 45 e8 aa bd a9 22 0f be
       -0.07656831 -0.1576951 -0.08345083 -0.13978066
000030 88 1f 2d be 6d a9 03 bd b8 e0 3f be f7 bd 0a be
       -0.1690656 -0.032144 -0.18738067 -0.13549028
000040 b7 67 3a be d0 6d de 3c c0 18 b0 3c 83 3a f3 bc
       -0.18203627 0.027151972 0.021496177 -0.029690986
000050 c0 77 0b bd 8d cc 24 be 2c 48 1f bd 3e 0a 1d be
       -0.03404975 -0.16093655 -0.038887188 -0.15335938
000060 45 5c 2b be d9 d8 f2 3c 26 45 b6 bd 70 4e 38 be
       -0.16734417 0.029644417 -0.08899908 -0.17998672
000070 9d aa 0b be 2b 3f 6f bd f9 59 42 bb 4d 6e 42 be
       -0.13639303 -0.05840985 -0.0029655679 -0.18987389
000080 0a 7f 08 bd 7a 93 89 bd e8 84 60 bb 4e 60 9c bd
       -0.03332428 -0.06717582 -0.0034258906 -0.07635556
000090 3b 28 1a be fb cf 74 bd 4b fc 36 be 47 31 d5 3b
       -0.15054409 -0.059768658 -0.1786968 0.0065061185
0000a0 88 11 fc bb 12 ef 64 3b 4c f3 ca 3c 2f 02 be bd
       -0.0076925196 0.0034932536 0.024774216 -0.0927776
0000b0 c3 9c b1 bb f2 73 1c be 6d ae 25 be 9a 4c 85 bd
       -0.005420299 -0.15278605 -0.1617982 -0.06508751
0000c0 05 b5 23 be 1c 92 4c bd fe eb 32 be 9c a4 76 bc
       -0.15987022 -0.04994403 -0.17472836 -0.015053894
0000d0 b5 a3 e4 bd 9b bb 97 bd a1 83 c8 3c a0 1a f9 3c
       -0.11164037 -0.0740883 0.024476828 0.030408204
0000e0 14 81 f8 bd 09 df a7 bd 86 33 d1 bd dd 3f 60 bd
       -0.12133995 -0.081968375 -0.102149054 -0.054748405
0000f0 4d 1b 17 bd be 4d c9 bd 75 87 a8 bd c6 07 6d be
       -0.03689127 -0.09829281 -0.082289614 -0.23147497
000100 a3 85 8a bc 7c 6d f5 bd 49 14 e0 3b ba 2e d8 bd
       -0.016909426 -0.11983773 0.0068383557 -0.105557874
000110 2c b6 24 be e8 df d2 bd 1a c0 34 be 66 02 28 be
       -0.16085118 -0.10296613 -0.17651406 -0.16407165
000120 a1 79 f4 bc 6a d5 b1 bd ef 06 10 bd 8e 69 c5 bd
       -0.029843153 -0.086832836 -0.035162862 -0.096392736
000130 d8 f5 66 bd 21 18 01 bd 8a 91 38 3c 4e f7 af bd
       -0.0563868 -0.03151715 0.011265168 -0.085920915
000140 a9 81 09 be c5 eb bf bd 1d b9 83 bc 6c 62 ba bc
       -0.13428368 -0.09371141 -0.01607948 -0.02275201
000150 97 62 9d bd cd 0d df bd ed bb 35 bd b7 06 d6 bd
       -0.0768482 -0.10891304 -0.044368673 -0.104504995
000160 35 e1 50 bc b0 7b 33 bd 67 9b 4c be 97 13 00 be
       -0.012749006 -0.04381913 -0.19981156 -0.12507473
000170 04 51 01 be a6 c0 2f bd ef 67 b8 bd fd 84 9b bd
       -0.12628561 -0.042908333 -0.09004199 -0.07593725
000180 95 3a 17 3d 5c fe 56 be a2 b8 04 be c6 ae af bd
       0.036921103 -0.20995468 -0.12961057 -0.08578257
000190 7b 06 81 bd fb aa 43 bd 1a 40 52 be 40 68 6e be
       -0.06300064 -0.04777048 -0.20532265 -0.23281956
0001a0 a3 de 19 be 89 e5 22 be 45 7a 2d be ce 0e 88 bd
       -0.15026335 -0.15907873 -0.16941173 -0.06643449
0001b0 c2 ba 48 3d fd d9 da bd 2c df 84 bd 66 29 a4 bd
       0.04900623 -0.10686109 -0.06487879 -0.080157086
0001c0 6b ad 1b be ff b7 2c bd 57 17 6f bc 94 a2 0f be
       -0.15202872 -0.04216766 -0.014592967 -0.14026862
0001d0 ce 3a 10 bd fa 1e 62 3d 1b 6a a6 bd 47 73 50 bd
       -0.03521233 0.055205323 -0.08125707 -0.050891187
0001e0 c8 32 a1 bd 05 2a 24 be f3 f2 37 be 0a c2 09 be
       -0.07871014 -0.16031654 -0.17963772 -0.13452926
0001f0 99 f2 de bd cc fd 87 3c d0 6e 5f be e3 c0 bb be
       -0.108861156 0.016600512 -0.21819615 -0.36670598
000200 29 ef 80 be 54 8a 85 be 2a a7 b1 be d8 24 d7 be
       -0.25182465 -0.26082098 -0.3469785 -0.42020297
000210 4d c0 4c bd d6 2b 29 be 89 94 8f bd 24 cf e4 bd
       -0.04998808 -0.16520628 -0.07010753 -0.111723214
000220 02 e9 20 3a db 66 36 be 02 90 c2 bd 00 26 b3 bd
       0.00061382365 -0.17812674 -0.095001236 -0.08747482
000230 01 5d 00 be 95 77 fe bd 60 e9 7c bc a0 12 e6 bd
       -0.12535478 -0.12425152 -0.0154365 -0.11234021
000240 19 d8 cf bd bb d7 35 be 88 60 60 3c 18 1d 65 be
       -0.10148639 -0.17758076 0.01369489 -0.2237438
000250 fc 74 d5 bd eb 5a 97 3c ed 03 02 3c 19 70 e9 3d
       -0.104227036 0.01847597 0.007935506 0.11398334
000260 df 07 3a 3e 78 9e fa 3d bd 95 0d be 18 21 9e be
       0.18167065 0.12237257 -0.13826652 -0.30884624
000270 04 9a f8 bd 97 9a 94 be f3 86 02 bf 77 5b d0 be
       -0.12138751 -0.29024193 -0.50987166 -0.40694782
000280 f1 38 c0 be c4 b3 ac be 15 fc e9 bc ce b3 ef bc
       -0.37543443 -0.337309 -0.028562585 -0.029260542
000290 52 b9 cf bc 02 e1 1f bd d9 2b 3d be cc ad da bd
       -0.025356922 -0.039032944 -0.18473758 -0.106776804
0002a0 c7 f4 26 3d 04 9d b4 bd 5d e1 ad bd f3 2c b7 bd
       0.04076078 -0.08819011 -0.0849025 -0.0894412
0002b0 26 9c d0 bd 38 d3 89 bd cb 58 12 be e0 ba 88 bb
       -0.10186033 -0.0672974 -0.14291684 -0.004172668
0002c0 02 d1 1f be 4d 2c 4f 3d 18 08 70 3e 05 77 6c 3e
       -0.15607074 0.050579358 0.23440588 0.23092277
0002d0 f4 27 8a 3e 3e 5c 94 3e 55 18 45 bc 8b 1b 66 bd
       0.26983607 0.28976625 -0.012029727 -0.05617861
0002e0 f4 ab 0b be 61 ed 1a be 9d bc 28 be 0f e4 2f be
       -0.13639814 -0.15129615 -0.164782 -0.17176841
0002f0 74 54 93 be 70 24 1a be 53 46 98 ba 5e bc af bd
       -0.2877537 -0.15052962 -0.0011617638 -0.0858085
000300 01 3e 96 bc 60 0e 4c be ac 94 e0 bd 61 a7 0d be
       -0.018340113 -0.19927359 -0.10965857 -0.13833381
000310 73 1c 00 be 10 f0 c7 bb 1f b7 81 39 db 41 13 be
       -0.12510853 -0.0061016157 0.00024741233 -0.1438059
000320 88 4a 1a be 40 51 d4 bd b8 d4 8b bd 3d c1 02 bd
       -0.15067494 -0.1036706 -0.06827682 -0.031922568
000330 c4 e2 3c 3d a5 b5 69 3e b7 c2 8c 3e ce 01 a4 3e
       0.046114698 0.22823198 0.27492306 0.32032627
000340 05 c9 d8 3e e2 14 63 3e 57 a0 c8 3d 1e 0b 88 bc
       0.42340866 0.22175935 0.097962074 -0.016606864
000350 15 22 8a bd cd f6 b2 3d de 6f ce 3d 4e 81 e6 bc
       -0.06744782 0.0873848 0.10079931 -0.02813783
000360 11 2c d5 bc 3c a8 a9 bc 78 ff d1 ba 0f b8 92 3d
       -0.026021989 -0.020710103 -0.001602157 0.07164013
000370 c3 a0 12 be 12 af 4c bb 84 98 10 be df 52 16 be
       -0.14319138 -0.003123228 -0.1412068 -0.1468005
000380 22 14 d3 bd f3 0f e9 3c 52 9d de bd 0f 41 01 be
       -0.103065744 0.028449988 -0.1086985 -0.12622474
000390 b3 66 46 bc 38 44 ea bd a6 0a b2 bd e0 5d 23 bc
       -0.012109446 -0.11438793 -0.08693437 -0.009971112
0003a0 02 1e 52 3e 0e d6 84 3e 44 9d a1 3e 3e 95 51 3e
       0.2051926 0.2594456 0.31565297 0.20467088
0003b0 b4 ec 7b 3e 82 02 ef 3d e9 9b 82 bb 4c 32 eb bb
       0.24602014 0.116704 -0.003985871 -0.0071776267
0003c0 b2 cd b4 bc 29 72 05 3e ff ce 49 3e dd 60 80 3d
       -0.02207074 0.1303183 0.19707869 0.06268475
0003d0 c6 a7 65 3d 52 b0 6b 3d d2 04 0e be 15 33 d7 3c
       0.056068204 0.0575412 -0.13869026 0.026269475
0003e0 ef 95 14 be 61 ca be bd f3 24 27 be 56 b6 03 3d
       -0.1451032 -0.093159445 -0.16322689 0.03215631
0003f0 ab 88 32 3c 84 84 2c be eb 8e d9 bd f3 76 66 bd
       0.010896842 -0.16847426 -0.106229626 -0.056265783
